model/12137.699946859784_weight.pth (torch, 224833 bytes, 11 tensors)

weight f4 [16, 32, 1]
000000 d0 12 a5 bd 2b 1f a5 bd 1d e8 5d 3e ca 4a 8c ba
       -0.08060229 -0.080625854 0.21670575 -0.0010703441
000010 cb 02 c2 3b 02 d2 e1 bd a9 ba 94 3d 2c c5 17 3e
       0.005920743 -0.11026384 0.07262165 0.14821309
000020 b2 47 03 3e f3 0b 8e 3d c6 ff f4 3d 24 ae f5 bc
       0.12820318 0.06935873 0.119628474 -0.029990263
000030 65 7e ea 3d f9 ff da 3d b3 40 82 bd 62 94 9a bd
       0.11449889 0.10693354 -0.06359997 -0.07547833
000040 cc 88 a8 3a 7e e2 d6 3d f4 96 27 be 87 c1 66 3e
       0.0012858151 0.10492419 -0.16366178 0.22534762
000050 ab 49 8f 3e e8 d2 b5 bc 41 51 0e 3d 02 0e 7b bd
       0.27985892 -0.022195294 0.03474546 -0.061292656
000060 96 dc 3e be 2a cf 0c 3c 81 f1 32 3e 8d c2 1e 3e
       -0.18638834 0.008594314 0.17474939 0.15503903
000070 7c 96 39 3d 8f 2b 71 3e 39 62 37 bd 9c 67 63 3e
       0.04530953 0.23551773 -0.044771407 0.22207493
000080 bc 4b 3c be ea 3f 62 be 99 12 80 be b5 d7 a1 3d
       -0.18388265 -0.22094694 -0.2501419 0.07902471
000090 b1 54 6b bd 33 ba 7e 3d 44 e8 a8 3d 32 4b 54 3d
       -0.057453815 0.062189292 0.08247426 0.051829524
0000a0 12 33 2c bd 52 5d b2 3d 1b 9f 83 bc 15 2f 90 3d
       -0.042040892 0.08709206 -0.016067078 0.0704023
0000b0 22 c4 4c 3e 3b 91 17 3d 55 69 c1 bd ae fc 67 be
       0.19996694 0.037003737 -0.094439186 -0.22654983
0000c0 1d 59 c2 3b bb f7 86 be 5f 4d 03 3e 4f 68 b9 3d
       0.0059310333 -0.26360878 0.12822483 0.090530984
0000d0 4c 7c a6 be 3d b9 74 bd de 32 ab bc e0 5e e2 bd
       -0.32516706 -0.05974697 -0.020898279 -0.11053252
0000e0 27 e2 4c be e5 9a f7 3d 25 4b 79 3d 44 c6 4d 3d
       -0.20008145 0.12090091 0.06086268 0.05023791
0000f0 ef 1e 08 be 9d 13 8a bb 8e 30 ba bd 80 99 1f 3e
       -0.1329305 -0.004213764 -0.09091292 0.155859
000100 2b a0 8d 3e fe 17 59 3e b0 f6 b9 3c ab 54 fe bb
       0.2766126 0.21200559 0.022700638 -0.007761558
000110 01 55 da bd 6c a7 a5 38 49 7e 29 3e 8c 71 ba 3d
       -0.106607445 7.898998e-05 0.1655208 0.091036886
000120 86 9b 0d be 1f ad 11 3d f2 e9 9c bd aa 03 61 3d
       -0.13828859 0.03556549 -0.07661809 0.054935135
000130 ee d6 1c bd 96 93 9d bc c5 5d 6b 3d a3 72 c0 bc
       -0.03829091 -0.019235414 0.057462472 -0.023492163
000140 83 07 c2 bd 06 b8 3f 3e 27 5e 1b be d0 82 02 3e
       -0.09474089 0.18722543 -0.15172635 0.12745214
000150 95 69 57 3d 85 40 f3 3d b3 65 4e 3e 6b f5 91 3d
       0.052590925 0.118775405 0.20155983 0.07126888
000160 9e a4 a2 3d 75 44 03 3e d0 c2 1f 3e 3a 64 43 bd
       0.079415545 0.12819083 0.15601659 -0.047703005
000170 b4 ac ef 3d c6 d1 c0 3b 7f 72 34 3e 5d 1e 29 3e
       0.117028624 0.005884382 0.17621802 0.16515489
000180 a4 f1 a2 3e 0b af 8c 3e 2e 86 98 3e e4 33 cb 3d
       0.31824982 0.27477297 0.2978987 0.09922007
000190 d1 dc 04 bd a9 28 e9 bd e6 a6 29 3e 22 59 07 3e
       -0.03243715 -0.113847084 0.16567573 0.13217595
0001a0 f1 c7 10 3e 74 10 81 3d 9b 79 d9 3d 16 d3 82 bb
       0.14138772 0.06301966 0.106188975 -0.0039924486
0001b0 71 73 ca bd 64 16 40 3d 2a 78 83 3e 38 fe ae bd
       -0.098853 0.046896353 0.25677615 -0.08544582
0001c0 a8 b0 ee 3c 7d 15 12 3e d8 4e 7f be d3 69 0e bc
       0.02913697 0.1426601 -0.2493242 -0.008692223
0001d0 ba 91 5b bc 62 02 0c 3e 71 92 ba 3c d2 b5 42 be
       -0.013401443 0.13672784 0.022774907 -0.19014671
0001e0 75 b4 b9 3d 73 05 bf bd d5 26 6d 3d a7 58 ce 3d
       0.090676226 -0.09327211 0.05789836 0.10075503
0001f0 3a e0 14 3e bb 76 ff bc b5 30 01 3e a8 c0 b0 3c
       0.1453866 -0.031184545 0.12616237 0.02157624
000200 05 b2 1f 3e 4e 69 31 3e ab 7b fb bc 1b d0 39 bd
       0.15595253 0.17325327 -0.030698618 -0.04536448
000210 32 62 0f be 7b ff ff 3d bf e1 53 bd 3e d1 1d 3e
       -0.14002302 0.12499901 -0.05172896 0.15411851
000220 c3 c5 23 3e 0d dd fd bd 73 d2 df bb aa 15 fc bd
       0.15993409 -0.12395678 -0.0068305074 -0.123088196
000230 3e ba f7 3b c4 e3 9e 3d 60 4b 57 3e 72 0e 41 3d
       0.0075600436 0.077582866 0.21024847 0.047132917
000240 99 63 a8 bd 33 c6 19 bd c0 d9 79 be 23 08 ff 3d
       -0.08222122 -0.037542533 -0.24399471 0.12452724
000250 5c f7 74 3d 2c 94 89 bc 16 ee 56 3d 30 77 b3 3c
       0.059806213 -0.016794287 0.05247315 0.021907419
000260 2a 6d a0 3d c4 d6 d7 bc da 52 66 bd 5d af ae 3d
       0.078333214 -0.026347525 -0.056231357 0.08529542
000270 94 92 cf 3d af 5a 32 3e d7 25 63 3e 45 dc 3a 3e
       0.101353794 0.17417406 0.22182404 0.18248089
000280 86 95 50 3e 40 d4 35 3e 9d e0 89 3e e4 35 e8 bd
       0.20369539 0.17756748 0.2692918 -0.11338404
000290 08 9d bc 3b ac a4 ef 3d 6e f7 95 bd 99 47 45 bd
       0.0057560243 0.117013305 -0.07322584 -0.048163984
0002a0 d8 17 d5 3d fc 13 48 be 20 ba 93 3c d1 cf ea 3d
       0.104049385 -0.19538873 0.018033087 0.11465419
0002b0 e3 7d fb 3d 00 8b 25 be 8d b5 12 3e 4c 2d 4b bd
       0.1227987 -0.16166306 0.14327069 -0.049603745
0002c0 80 27 7c 3c 79 38 a3 3d 0d 8b 46 be 3d 56 7a 3d
       0.015390277 0.07969756 -0.19388981 0.0611174
0002d0 cf 79 9b 3e c7 d9 52 bd 4b a5 9e bd 3b 2b b2 bc
       0.3036637 -0.05147722 -0.07746371 -0.02174913
0002e0 f1 f1 1d be 90 2b d2 bd 01 56 40 3e 00 a3 80 bd
       -0.15424325 -0.10262215 0.18782808 -0.0628109
0002f0 79 b4 2d bd dd d1 1f be 80 5e 70 bc 69 b6 88 3d
       -0.04240844 -0.156074 -0.014670968 0.06675417
000300 11 55 50 3e bb 86 a9 3b 56 e6 89 3e 37 8c ed bd
       0.2034495 0.005173532 0.26933545 -0.115990095
000310 e7 19 eb 3d 84 25 bb 3d 2f 4c 97 bd fe aa 1b bd
       0.1147955 0.09138015 -0.07387578 -0.038004868
000320 5a 4a f4 bd 7a 6a f4 3c b7 d1 11 3c 50 54 95 3d
       -0.11928244 0.029835928 0.008900098 0.07291472
000330 90 cb 5b be c0 a0 2e be 23 75 c3 bd 25 d5 b2 bd
       -0.21464372 -0.17053509 -0.095438264 -0.0873206
000340 a3 35 2b be 20 f5 34 3e cd 63 0d 3e f4 52 a3 3d
       -0.1671968 0.17671633 0.13807602 0.079748064
000350 9a 2f 80 3e 2c 4b 2c bd 13 25 0b 3e 96 92 93 3d
       0.25036317 -0.042063877 0.13588361 0.072056934
000360 8e 54 d7 3c fc 77 49 be 7a e2 34 3d a5 3c e3 3d
       0.026285436 -0.19674677 0.044161297 0.110955514
000370 05 42 1b be d9 8f 91 bd b3 37 3a 3e da 6b 1b 3b
       -0.15161903 -0.07107515 0.1818531 0.0023715408
000380 7a 07 49 3e 1f b7 a2 bb be 9d 73 3e 4b 1b 38 3d
       0.19631758 -0.0049656774 0.23790643 0.044947904
000390 af 62 2a be 3b f5 09 be 55 39 10 be e6 1e 02 3d
       -0.16639207 -0.13472454 -0.1408437 0.03176775
0003a0 7d 3c d5 bd 8a 7b a6 bc 35 21 45 be 40 bd 82 3c
       -0.10411928 -0.02032258 -0.19250949 0.015959382
0003b0 50 e5 5e 3d d0 84 00 3e 26 92 3f be 30 a5 c5 3d
       0.05441791 0.12550664 -0.18708095 0.09650648
0003c0 86 c6 2d be be cb f7 3c 4d c2 21 be 3d fa 6d bd
       -0.16970262 0.030248519 -0.15796776 -0.058099974
0003d0 c7 ee bb 3e 7a 63 e8 bc d8 11 00 3e 52 3d f3 3d
       0.3670561 -0.028367747 0.12506807 0.1187693
0003e0 24 a6 cf bd 49 30 24 be 12 2c 3d bd 84 d2 1e be
       -0.10139111 -0.16034044 -0.046184607 -0.15509993
0003f0 8a 6e 24 be e9 27 13 be 41 92 94 bd 6b e7 83 3c
       -0.16057792 -0.14370693 -0.07254458 0.01610156

bias f4 [16]
000000 4b 7c e2 3d ae 43 ea 3d 72 ce 1c 3e ae 2e d8 3d
       0.11058863 0.1143869 0.15313128 0.105557784
000010 b6 30 16 3d 36 19 37 3d ea f1 59 bd 23 33 3a bd
       0.036667548 0.044701777 -0.053209223 -0.045458924
000020 e9 7b eb bc 44 3f 15 3e 86 64 c5 bd 84 45 b9 3d
       -0.028745608 0.14574915 -0.09638314 0.09046462
000030 9d ce 89 bc 62 3e c3 3d 1a 9c f9 bd f5 f6 b2 3d
       -0.016822154 0.09533383 -0.12187977 0.087385096

weight_ih_l0 f4 [256, 16]
000000 57 b3 37 be 5a 4b 95 3d a7 c5 6e bd 46 48 dc bd
       -0.17939506 0.07289763 -0.058293965 -0.107559726
000010 56 0a 6d bd 7b b6 29 bd 9b 48 e8 bd fa b5 d0 3d
       -0.057871185 -0.041433793 -0.113419734 0.10190959
000020 8e 77 23 3e 5e a7 85 3d f9 a0 39 bb 28 3c 84 bc
       0.15963575 0.065260634 -0.0028324707 -0.016141966
000030 7e 4e 86 be 5a 52 7a bd 98 68 1c 3d 5b d9 9f 3c
       -0.2623176 -0.061113693 0.038185686 0.019512823
000040 60 c6 a7 ba ee 6b 4d 3e 28 43 9c bb e1 71 3c 3d
       -0.0012800209 0.20060703 -0.004768748 0.04600704
000050 25 ca 21 bd 92 ed 6d be 22 64 44 be da d8 d6 bd
       -0.03949942 -0.23235157 -0.19178823 -0.1049058
000060 60 4d 54 3e 68 06 0a 3d 7e 2c 7c 3c 97 d8 57 3d
       0.20732641 0.033697516 0.015391467 0.05269679
000070 6b 77 db be a1 2e 24 be c1 d7 0f be 60 e1 02 be
       -0.42864546 -0.16033413 -0.14047147 -0.12781286
000080 4f bc af bd 27 e7 43 3d 4f bc 67 3d 51 cc 82 bd
       -0.08580839 0.047827866 0.05657607 -0.063866265
000090 11 fa bc bd 8e a7 82 bd bb dd c2 bd fa ff 34 be
       -0.09227384 -0.06379615 -0.09514948 -0.17675772
0000a0 83 78 fa 3d 69 a9 e0 3d bc fa be 3d cf 0f 25 3e
       0.12230017 0.109698124 0.093251675 0.16119312
0000b0 9f 7a 33 bc e3 de cb bd eb cd f0 3c 9b fc 58 bd
       -0.010954528 -0.09954622 0.029395064 -0.05297528
0000c0 7f 90 7f 3c b4 c6 50 3b 7a 2b 76 bd af c1 05 be
       0.015598415 0.0031856718 -0.060100056 -0.13062166
0000d0 5d c2 15 be e1 c3 81 3c bc 55 0d be 62 17 85 be
       -0.14624925 0.015840473 -0.13802236 -0.25994402
0000e0 0d 29 38 bc a1 44 0c 3e 4c 32 85 3d cb 69 05 3e
       -0.011240256 0.13698055 0.06503734 0.13028638
0000f0 78 a1 ac be ca b5 32 3d 60 7f 41 3d f8 25 0f bd
       -0.3371694 0.0436304 0.047240615 -0.03494832
000100 07 d9 c9 bd a7 27 f2 3d e4 c2 88 3d 3b 35 97 bd
       -0.09855848 0.11823969 0.066777974 -0.073832
000110 50 e5 7b bd 39 f3 87 bd a0 d3 14 be cc fc 9f bc
       -0.061497986 -0.06638188 -0.14533854 -0.019529723
000120 68 d3 00 3e cb b0 d3 3d 68 2e cf 3b 3a 76 3f 3d
       0.12580645 0.10336455 0.0063226707 0.04674361
000130 8e ea fd 3c 7f d1 30 3d f7 84 db bd d3 d8 35 3d
       0.030995633 0.04316854 -0.107187204 0.044396233
000140 96 cd 54 be 48 c6 21 3e 1b b6 02 be c3 5b 41 be
       -0.2078155 0.15798295 -0.1276478 -0.1888266
000150 4a 39 1a be 1a 5e 29 3d 64 20 c6 bd 88 9b 67 be
       -0.15060917 0.041349508 -0.09674147 -0.22617924
000160 2f 0e c7 3d 1a 2b da 3d 2e 14 0e bd 7c 61 22 3e
       0.09719502 0.10652752 -0.034687214 0.158575
000170 22 d0 da 3d 6a fe b9 bd 8a 51 ed bd 9b 08 20 3d
       0.106842294 -0.09081729 -0.11587818 0.039070707
000180 7d f4 ef 3b d1 fa ff bd 67 f6 ab bd 00 9c c9 bd
       0.0073228464 -0.12499011 -0.08396607 -0.09844208
000190 e4 07 51 bd a8 1d b5 bd 1d 24 2b 3e 47 2a ae bd
       -0.051032916 -0.08843547 0.16712995 -0.085041575
0001a0 a0 b3 bb 3d dc b8 26 3d 33 bc a1 3c 51 c0 b9 3d
       0.0916512 0.04070364 0.01974306 0.090698846
0001b0 9d aa 5f 3e ac 17 92 bd e3 02 7e 3c b1 ee 21 bd
       0.21842428 -0.07133421 0.015503618 -0.039534274
0001c0 8a e8 98 bd 9a 87 32 3e fc 24 5a be 69 99 74 bd
       -0.07466228 0.1743454 -0.21303171 -0.059716616
0001d0 d1 b0 30 be f2 2f 35 3c 56 86 7f be 7f 2d 47 3d
       -0.1725495 0.011058794 -0.24953589 0.048627373
0001e0 45 f0 0b 3e 52 18 82 3d ed f3 b5 3c e1 47 1c 3d
       0.13665874 0.06352295 0.02221104 0.038154487
0001f0 dd 0e 88 be 40 82 7b 3b 44 9f b5 bd fe 39 0a be
       -0.2657384 0.0038377196 -0.08868268 -0.13498685
000200 d7 d4 ce 3c ce 59 5c 3e 15 09 77 3c 80 e6 d8 bc
       0.025247974 0.21518633 0.015077849 -0.026477098
000210 05 c0 ba 3d 62 24 d6 bc d6 5d 2d be a9 9e 65 be
       0.09118656 -0.026140396 -0.16930327 -0.22423805
000220 8f 00 1a 3e 03 47 8d 3d fb 93 84 3e e5 65 84 bc
       0.15039276 0.0689831 0.2589415 -0.016161868
000230 1c 5a 08 bd 78 34 8f ba d4 60 b7 bd 51 a0 5a be
       -0.03328906 -0.0010925671 -0.089540154 -0.21350218
000240 fb f6 1f be 9f e9 67 3e 17 99 13 bd 5d 7f 12 bd
       -0.1562156 0.22647713 -0.03603467 -0.035765994
000250 d6 f2 0d 3d 30 82 6f bd bb 7e 3b be 79 f7 37 be
       0.034655415 -0.058473766 -0.18310063 -0.17965497
000260 24 87 0e bb ad e6 05 3e 6a cc 9e 3d 83 0b 20 3e
       -0.002174803 0.13076277 0.07753833 0.15629391
000270 51 13 1e bc 96 a9 f5 3c ff ef b8 3d d1 c8 39 be
       -0.00964816 0.029988091 0.090301506 -0.18143012
000280 e6 95 ec 3d 4d c4 c8 3c bf 50 92 bd 0a d9 d2 3d
       0.11552028 0.024507666 -0.07144307 0.10295303
000290 88 0c 59 bd de 4b 7e 3d 25 0f 04 3e e2 87 08 3e
       -0.052990466 0.06208407 0.12896402 0.13333085
0002a0 46 a9 a8 3c 4e 89 06 3d fd 0c 5b bc 76 c4 12 bc
       0.020588528 0.032845788 -0.013369796 -0.008957973
0002b0 92 b4 02 bd ab 42 c9 bc 75 5b 8e 3d 93 c6 db 3d
       -0.031910487 -0.024567923 0.06951038 0.107312344
0002c0 22 31 a4 3c b1 69 2f bd 9b 17 06 3e ce 73 0d 3e
       0.02004296 -0.042825405 0.13094942 0.13813707
0002d0 00 45 ab bd e0 cc 92 3b 38 c0 49 3e e7 e9 94 bc
       -0.0836277 0.0044799894 0.19702232 -0.01817794
0002e0 91 bd 46 3d d6 d7 f0 bd 02 01 7d bd 63 a6 7d bd
       0.04852063 -0.117599174 -0.06176854 -0.061926257
0002f0 e7 5f 65 be e3 e9 52 bd a0 89 81 3d f4 56 3a 3e
       -0.22399865 -0.051492583 0.06325078 0.18197232
000300 3a d7 9c bc a3 56 30 3d 5b c8 0c be b5 64 a2 bd
       -0.019145597 0.043051373 -0.13748305 -0.079293646
000310 a3 92 16 be 3d 46 7d bd 69 8b 47 bd 8f 56 63 bd
       -0.14704375 -0.061834563 -0.048716936 -0.05550247
000320 de 30 4a 3e a6 90 ed 3d 16 c6 ec 3d fa 02 45 bd
       0.19745204 0.11599855 0.115612194 -0.04809854
000330 73 04 9a 3d 13 a1 b4 bd f9 e2 77 3c 48 72 f0 bd
       0.0752038 -0.08819785 0.015129798 -0.117405474
000340 7e fc 16 bc 34 73 0c 3c ec 9d 43 3c 1e 8d ad bd
       -0.009215472 0.008572388 0.011939507 -0.084741816
000350 20 68 56 3d 88 d9 1d 3d 37 d6 13 3d bc e0 ef 3c
       0.052345395 0.038537532 0.036092963 0.029281966
000360 02 5e db bc 89 3f b3 bd 44 6b a3 3d 8f 0b a5 3d
       -0.026778225 -0.08752353 0.07979444 0.08058845
000370 f4 db 14 bd 3e 30 b9 3d 5d 96 de bd c7 7f 04 bd
       -0.036342576 0.090424046 -0.10868523 -0.03234842
000380 8b 8f 11 3d 5a ee 4b be c8 49 3d 3e b3 3d ea 3d
       0.035537284 -0.19915143 0.18485177 0.114375494
000390 5a 1a f8 3a a1 59 6e 3e 6b d3 ec 3d 0e e2 3f 3e
       0.0018928752 0.23276378 0.11563762 0.18738577
0003a0 32 13 9a bd 9c 45 7e bc 5c 04 0e be d8 96 01 be
       -0.075231925 -0.015519526 -0.1386885 -0.12655199
0003b0 88 ed fd bd ba 54 cf 3d 2a 29 14 3d df 02 a6 3d
       -0.12398821 0.10123582 0.03617207 0.08106016
0003c0 62 fa 06 be 63 e8 a6 3d 56 76 13 bc dd 8a e8 ba
       -0.13181451 0.08149793 -0.009000381 -0.001774158
0003d0 55 de f7 3b ab 2e 39 be d0 71 10 be 0d 25 ab bd
       0.007564346 -0.18084209 -0.14105916 -0.08356676
0003e0 4a 9f f3 bc 04 5b 94 bd 63 0d d6 3d 90 52 42 3e
       -0.02973904 -0.07243922 0.10451772 0.18976808
0003f0 1b 5b ba bc 3d 07 b6 bd e0 bf 2e 3c fb 78 4f be
       -0.02274852 -0.08888099 0.010665864 -0.20260994

weight_hh_l0 f4 [256, 64]
000000 0e c7 b3 bc 67 7d 88 bd 8b 46 ff bd ce 3b 0f 3e
       -0.021945503 -0.066645436 -0.12464627 0.13987657
000010 2c 79 9b 3c 42 a2 cf 3c 98 06 89 3d a0 9e f4 3d
       0.018978678 0.025345925 0.06690711 0.11944318
000020 a6 c9 87 bd 89 0d b5 3d 6c 13 c1 bd 4c cd 24 3d
       -0.06630258 0.08840472 -0.094275326 0.04023485
000030 85 ed ab bd 2c a3 0b 3e 19 fb f7 3c 71 74 95 bd
       -0.08394913 0.13636464 0.0302711 -0.072976
000040 bd e9 82 bd 23 6c 2a 3d 4a 57 11 3e c9 aa 93 bd
       -0.06392238 0.041607033 0.14193454 -0.07210309
000050 d2 b5 28 be 25 b0 ed bd cb c1 e2 bd dc 5e af 3c
       -0.16475609 -0.116058625 -0.11072119 0.021407537
000060 d2 22 6c bd da ff 94 bd e2 30 80 bd 9e 4e 00 be
       -0.057650395 -0.07275362 -0.06259324 -0.1252999
000070 d0 20 e5 bc b5 a0 60 bc 8c 96 bf 3c a9 5f 3c 3e
       -0.027969748 -0.013710191 0.023387216 0.18395866
000080 59 1e 3e bd 87 68 d7 3d a2 e1 4b bd 12 98 20 bd
       -0.04641566 0.10517984 -0.049775727 -0.039207526
000090 2f fe 54 bd d2 25 cb bc 3d 38 e9 bd 07 c6 f9 bd
       -0.05200022 -0.024798308 -0.1138768 -0.12195974
0000a0 c8 d2 c7 bd f7 c8 62 3d 2f 97 1e 3e c8 a1 93 3d
       -0.09757 0.055367436 0.1548736 0.07208592
0000b0 ff 63 c5 bd 4b cf 8e 3d ff 83 42 bc 12 b3 71 3c
       -0.09638213 0.06973132 -0.011872291 0.014752166
0000c0 5a 1b 82 3d 65 ec 61 3d 40 63 3e 3c c6 b5 66 3d
       0.06352873 0.055157084 0.011620343 0.056325696
0000d0 94 5c b3 3c 46 ee a3 bd cf cb d2 bc 84 f8 2d be
       0.02189473 -0.080044314 -0.02573195 -0.16989332
0000e0 e3 5b 07 3d fe 73 21 3e e4 63 41 3d c5 45 22 3d
       0.033046614 0.15766904 0.047214404 0.03961732
0000f0 4a 03 f0 3a 0a 36 3f 3d 52 2c 34 3d 74 38 01 be
       0.0018311527 0.046682395 0.04398758 -0.12619191
000100 08 43 a1 bd 8e 1b 2b 3d 27 8a c9 bb f3 91 0c 3e
       -0.07874113 0.041774325 -0.0061505022 0.1372755
000110 6c 9a c4 3d 3b 28 ad 3d 67 23 09 be 19 cd 33 bd
       0.09599766 0.08454939 -0.13392411 -0.04389677
000120 7a 2b 14 be 3e ec f0 3d fe b9 6f 3d ae 8d 2f 3d
       -0.1446971 0.117638096 0.058526985 0.042859726
000130 8f e7 66 bd ac b8 78 bd c8 57 74 bd 9c 0a 04 3c
       -0.056373175 -0.06072299 -0.059654027 0.00805917
000140 f9 cc 9e 3d a4 8d 14 3b 85 a0 f9 3c 5c 14 8d bd
       0.07753939 0.0022667432 0.03047205 -0.06888649
000150 fa 15 ca bd 9c c2 06 bd 0a ad 99 3d 87 24 94 bc
       -0.09867473 -0.032900438 0.07503708 -0.018083824
000160 65 f1 94 3c d5 16 12 bd 15 47 a0 bc 17 8f 25 bd
       0.018181512 -0.035666306 -0.019565145 -0.040419664
000170 b5 ea c9 bd cd 10 02 3e b7 00 dd 3d 1b 42 4a bd
       -0.0985922 0.12701721 0.10791152 -0.04937945
000180 d8 0a 21 be 72 8a 65 bc 3a 36 a9 3d e3 21 b1 bd
       -0.15726793 -0.014010059 0.08262296 -0.086490415
000190 8c 9c 8b bd 83 7a be 3d 10 fb 03 be 31 12 9b bc
       -0.06816968 0.09300711 -0.12888741 -0.018929573
0001a0 4f a6 15 3d 41 80 4c 3d 4a ad d8 bc bb 3e 74 3c
       0.036535557 0.049927 -0.026449818 0.014907534
0001b0 31 59 43 bc e6 f3 22 3e 8b e9 ae 3b a6 ac a8 bd
       -0.01192312 0.15913352 0.005337899 -0.08236055
0001c0 a0 6c ae 3b 87 2a 3a bc 4a 87 d7 3d 52 f4 03 3d
       0.0053230077 -0.011362678 0.10523851 0.032215424
0001d0 58 31 94 3d 4a 87 b4 3c 2e ae c9 3c 2b e3 dc 3d
       0.07235974 0.022037167 0.024619188 0.10785516
0001e0 8e 7b e4 3c 94 21 2a bd 42 a7 d1 bd 12 2e dc bd
       0.027890947 -0.04153593 -0.1023698 -0.10750975
0001f0 49 be 1e bd 53 1c 4d be 34 da 20 3c 4e 7d 73 3d
       -0.03875569 -0.20030336 0.009817649 0.05944567
000200 e9 93 c4 bd 63 fb 5d 3d 32 07 bb bd 74 cc d5 3d
       -0.09598524 0.05419482 -0.09132232 0.10439387
000210 77 c3 58 3d af b0 95 3d 7f 15 c1 bd 21 6a d9 bd
       0.052920785 0.0730909 -0.09427928 -0.106159456
000220 5d 97 9d 3d f1 cd 97 bd 86 2f c3 bd bf 7f 0d 3c
       0.07694886 -0.07412327 -0.09530549 0.008636414
000230 7d 16 90 bd 19 b0 c3 bd c7 0a fb bd 77 d6 ba 3d
       -0.07035539 -0.09555072 -0.12257915 0.09122937
000240 d3 1d a4 3d 67 26 d4 bd 53 a9 04 be a6 ff d4 3d
       0.08013501 -0.10358887 -0.12955217 0.104003236
000250 d3 0f e8 3d 43 6d ef 3d 16 13 9a bd c4 22 0d 3c
       0.11331143 0.11690762 -0.075231716 0.008614246
000260 d8 f3 57 bd 3b bb e2 ba 77 f5 b5 bd 96 ae 9c bd
       -0.052722782 -0.0017298231 -0.08884709 -0.07650487
000270 fa 9e 9f bd e9 dd 8f 3d a2 5c e7 bd 35 43 0d bc
       -0.07793994 0.07024748 -0.11296965 -0.00862198
000280 3e ea d3 bd 69 fd e9 bc c7 f8 95 3d 12 62 bf 3c
       -0.103474125 -0.028563218 0.07322841 0.023362193
000290 97 e1 91 3c 3b 59 ee bd 20 c3 c4 3c 28 c5 ad bc
       0.017807765 -0.11638113 0.024018824 -0.021212175
0002a0 d7 53 be bc e1 30 e1 bd 82 88 60 bd 20 08 a6 bd
       -0.023233337 -0.10995651 -0.054817684 -0.081070185
0002b0 b2 41 da 3b 40 6b 7b 3c 3d 3b a5 3d e9 a5 f3 3d
       0.0066606635 0.015345395 0.080679394 0.11896879
0002c0 58 de 88 bd 3a 3e f7 3d 7f b9 ec 3c 0f c3 2b 3c
       -0.06683034 0.12072416 0.028897045 0.010483517
0002d0 28 d8 a5 bd 09 95 70 3d dd 4b a6 3d 6b 63 9b bd
       -0.08097869 0.05873588 0.081199385 -0.07587322
0002e0 26 74 84 3d 6b b0 d8 b9 ae 25 a3 bd 92 7b 5b 3d
       0.06467466 -0.00041330172 -0.07966171 0.053584643
0002f0 fb 77 8f 3d 4a a8 39 3a c5 72 26 bd de d2 8a 3d
       0.07005306 0.0007082267 -0.040636797 0.06778501
000300 d2 48 01 be 41 fc 34 be 09 ca 24 3d 3a fb 5a bd
       -0.12625435 -0.17674352 0.04023174 -0.053462245
000310 ad 30 87 3d de 5b d2 bc 92 02 74 3d 87 5d 4d 3d
       0.06601081 -0.025678571 0.059572764 0.050138023
000320 67 75 77 bd b4 2b 77 3d 5f 79 62 bd 8c e5 ff bc
       -0.060414698 0.060344413 -0.05529153 -0.031237386
000330 d9 d7 a0 3d a7 6f e2 3c 77 18 85 bd 1c 1b 8b bd
       0.0785367 0.02764113 -0.06498807 -0.0679228
000340 46 cf a1 3d 93 9e 92 3d 78 d0 42 3c ef 18 e5 3d
       0.079008624 0.07159152 0.011890523 0.11186396
000350 e1 98 85 3d 7f 6e ff bd 98 9d fb 3d c2 70 fd 3d
       0.065233 -0.12472247 0.12285918 0.123750225
000360 0e dc 21 3d 0f fc 00 bd 72 02 b2 3d 55 29 ed bd
       0.0395165 -0.03149038 0.08691873 -0.11580149
000370 74 d6 25 bd c6 06 80 3b 75 b6 8b bc 45 54 fa 3d
       -0.04048772 0.0039070575 -0.017054776 0.122231044
000380 78 5a c5 3d 55 9e 49 3d 61 76 f3 bd d6 50 ba bd
       0.09636396 0.049223263 -0.11887813 -0.090974495
000390 1a f2 15 be 83 1c f2 bd 96 41 b1 bd cd f1 51 bd
       -0.14643136 -0.118218444 -0.08655088 -0.05125599
0003a0 80 00 a6 3c 04 e3 b6 3d 0f 3b 10 3e eb 3c 67 bd
       0.02026391 0.089300185 0.14085029 -0.05645458
0003b0 ae a3 21 bd da a7 7b 3c d6 09 46 3d 25 de 86 bd
       -0.039462738 0.015359843 0.048349224 -0.065853395
0003c0 71 f1 82 bd fa a8 e1 3c d4 75 1f bc 80 97 86 3d
       -0.063937075 0.027546395 -0.009732682 0.06571865
0003d0 7e 35 8d bd 51 a8 0a 3e eb ed 64 3d 97 81 33 3d
       -0.068949685 0.1354077 0.05589096 0.04382476
0003e0 da b4 2d 3d 98 fa 9d bd c6 22 05 3d 83 e6 a2 3d
       0.0424088 -0.077138126 0.032503866 0.07954123
0003f0 53 cb 08 3b c6 8f a3 bd a4 7f f5 3c 1a 7f 24 3d
       0.0020873144 -0.07986407 0.02996809 0.040160276

bias_ih_l0 f4 [256]
000000 34 a5 a5 bb b9 cb 95 3d 9b c4 17 3d 1c 26 16 bd
       -0.005055094 0.07314248 0.037052732 -0.036657438
000010 05 df 15 3e 17 6c 33 3d b6 55 b3 bd a6 9c e9 bc
       0.14635856 0.043804254 -0.087565824 -0.028517079
000020 a9 ea 35 bd 6e 5c 08 3e 34 db ed 3d 63 dc b2 bd
       -0.044413242 0.13316509 0.11614075 -0.08733442
000030 dc e2 9b 3d 14 e8 22 bd 00 a6 35 bd ad 79 a3 bd
       0.07611629 -0.03977211 -0.044347763 -0.07982192
000040 a0 f2 db bc 9e 00 1e 3e f7 39 44 bb f0 f3 0e 3d
       -0.026849091 0.15429923 -0.0029941776 0.034900606
000050 83 e1 c5 bc 7e 4d fb bc 3b 00 05 3e fb 2e 18 3e
       -0.024155384 -0.0306766 0.12988369 0.14861672
000060 69 d3 8d bd bf 92 04 bd df e0 c4 3d fd 88 ed 3c
       -0.06925089 -0.03236651 0.09613203 0.028995985
000070 9b 08 43 bd f3 f5 22 bc a3 fd 27 3e c5 fe dd bd
       -0.04761563 -0.009946334 0.16405348 -0.10839609
000080 d3 c4 24 3e e1 e3 0a 3e 78 0e ce 3d d6 a2 b2 3c
       0.16090707 0.13563491 0.100613534 0.021806162
000090 8c f8 a9 3d 23 41 53 3d b4 22 12 3e a5 0f e1 3d
       0.0829936 0.05157579 0.1427105 0.10989312
0000a0 41 28 48 bd dc 30 1c 3d 90 63 56 3c 66 3c 7b bd
       -0.048866514 0.038132533 0.013085261 -0.061336897
0000b0 47 5b 10 bb 7f e5 4d 3e 6b 43 07 3e d8 df d8 3d
       -0.0022027062 0.20107077 0.13209312 0.1058957
0000c0 fd 6c 0d 3e c3 37 34 3d fe c8 07 3e 9e 7f 75 3c
       0.13811107 0.04399849 0.13260266 0.01498404
0000d0 00 bc 97 3d 2c 09 a6 3d 84 ed 5d 3c c4 d7 03 3e
       0.07408905 0.08107218 0.013545398 0.12875277
0000e0 22 c8 33 3e f5 85 5a bd 04 53 05 3e dd 39 0c 3e
       0.17556813 -0.053350408 0.13019949 0.13693948
0000f0 5b fa ce 3d a6 7d 07 bd bc 3c 13 bd 8c 64 7c bd
       0.10106345 -0.033078812 -0.035946593 -0.061619326
000100 42 12 cd bd f3 e9 03 be 73 ea 3b bd 0d ea d4 bd
       -0.10013248 -0.12882213 -0.045877885 -0.10396204
000110 c2 44 16 be 4b 79 2d be 5a 12 17 3d ce 74 17 be
       -0.14674667 -0.16940801 0.036882736 -0.14790651
000120 f4 12 1a be f7 98 e2 bc 97 33 c6 bd 2d 5b 11 be
       -0.15046293 -0.02766083 -0.09677809 -0.14194937
000130 f8 3d b4 bd 0e de e5 bd 32 2f 7c bd 1c 4a c1 bd
       -0.08800882 -0.11223994 -0.061568446 -0.09437963
000140 be e4 c6 ba 32 26 06 be cb bd 15 3d 60 de f0 bd
       -0.0015174372 -0.13100508 0.036557954 -0.11761165
000150 cf d4 b6 bc d6 c8 02 be d8 90 d7 bd 25 49 28 bd
       -0.022318272 -0.12771925 -0.10525674 -0.04108538
000160 a7 cb 26 bc 7f 85 ee bd 3b eb ff 3c b0 30 19 be
       -0.01018039 -0.11646556 0.031240096 -0.14959979
000170 98 72 96 bc cd 5f 6f 3d 66 dc 89 bd 16 4f 2a bc
       -0.01836519 0.058440972 -0.06731491 -0.010394832
000180 1f e4 83 3d c1 ef 19 be 44 17 35 be 76 5c 06 be
       0.06439995 -0.15032865 -0.17684656 -0.13121209
000190 d7 21 3a 3c 5c a7 c3 bd cb 15 9c 3d 46 d7 10 be
       0.011360607 -0.09553406 0.07621344 -0.1414462
0001a0 68 05 ca bd 7b b2 1f be 52 b8 1e be a5 25 a3 bd
       -0.098643124 -0.15595429 -0.155 -0.079661645
0001b0 31 13 a8 bd bf 8c 35 3c 8a b3 53 be 6f 28 31 3a
       -0.082067855 0.01108092 -0.20673957 0.0006758039
0001c0 f1 f6 fe bb 46 d9 1c be 66 69 b0 bd 4a 07 0a 3c
       -0.0077809026 -0.15317258 -0.08613853 0.008424589
0001d0 0b b1 4a be 3d 56 da bd ef de 56 be 5c a0 ea bd
       -0.19794099 -0.1066098 -0.2098348 -0.114563674
0001e0 bb 6d ec bd aa 5b 59 bd 5d 7c ab bd 2e 5e d8 ba
       -0.11544367 -0.053065933 -0.0837333 -0.001650756
0001f0 4e 5d 84 bb 90 89 2e 3d 21 d2 32 3d 67 88 05 be
       -0.004039443 0.04261166 0.043657426 -0.13040315
000200 51 75 a5 3d 34 b9 87 bd db 19 30 3d 1f 80 41 3d
       0.08079017 -0.066271216 0.042993408 0.047241326
000210 97 ea e9 bd d0 cc b0 3d 92 d5 4d 3d 32 70 9b 3d
       -0.114216976 0.08632815 0.050252505 0.07589759
000220 0f 14 27 bd 14 64 50 3c d9 f2 01 bc cf 67 db bd
       -0.040790614 0.012719173 -0.007931435 -0.10713159
000230 1f 78 10 be e3 91 f4 3a 98 d9 9f 3c 60 7d 6f bb
       -0.14108323 0.00186592 0.019512936 -0.0036543235
000240 19 e9 de bc 67 32 86 3d 7b b9 51 bc a2 b7 53 3d
       -0.027210759 0.06552582 -0.01280057 0.051688798
000250 a3 6b bd 3c 34 15 b8 bd fc d1 d6 bc 59 31 6b bd
       0.023122614 -0.08988419 -0.026223175 -0.05742011
000260 86 a7 6c 3d 82 47 cf 3d 2d 94 1d 3c b9 15 50 3c
       0.05777695 0.10121061 0.009617847 0.012700492
000270 de 33 e8 bd 46 1a ab 3b 6f 15 c8 bd 16 0c 23 3d
       -0.11338018 0.005221638 -0.09769713 0.039806448
000280 c9 de 81 bc f9 58 27 3e 53 03 3e 3d d2 7c 55 bd
       -0.015853303 0.16342534 0.04638989 -0.05212099
000290 5c f6 c4 bd d4 87 87 bc 07 83 89 bc e6 25 56 bd
       -0.09617302 -0.01654426 -0.016786112 -0.052282237
0002a0 9d 65 79 bd 26 d5 d7 3d 13 c2 54 3d d5 cc 80 bc
       -0.06088792 0.10538702 0.051942896 -0.015722672
0002b0 e7 0d f8 3d ec 31 5b bc 61 bd 10 be 66 83 63 bd
       0.12112027 -0.0133786015 -0.14134742 -0.055545233
0002c0 cb ac 03 be ab 47 ca bd 8b 1e 60 3c 2c 73 aa 3d
       -0.12858884 -0.09876951 0.013679157 0.083227485
0002d0 68 5e 67 3c 76 c2 1f be c7 1a 0a 3d 8b 41 4b 3d
       0.014121629 -0.15601525 0.033716943 0.049623054
0002e0 47 ad 23 bd d3 10 41 3d 0e ce 74 3d a9 8c 21 3d
       -0.039960172 0.047135185 0.05976682 0.039440785
0002f0 69 c4 9a bd d6 92 23 bc 05 55 93 bd 23 e7 00 bd
       -0.075569935 -0.009983739 -0.071939506 -0.03147043
000300 d4 fe 82 bd a6 05 88 3c 5a 9c 5c 3b fb 8e da bd
       -0.06396261 0.016604256 0.0033662529 -0.106718026
000310 a9 cc a1 3d 63 f6 0d 3c e7 9a c6 3d 88 78 ed bd
       0.07900364 0.0086647 0.09697514 -0.11595255
000320 17 a1 e2 3c 31 dd 1b bd 67 02 8e 3d 1f 5d e0 bb
       0.027664704 -0.03805274 0.06934052 -0.0068470384
000330 79 d9 26 3d 32 d3 82 bd 8c a3 0e 3d c6 10 a8 3d
       0.04073474 -0.063879386 0.03482394 0.08206324
000340 13 cb b5 3d 93 3d 95 bd 7a a2 c8 3d f6 f9 69 bd
       0.08876624 -0.07287135 0.09796615 -0.057123147
000350 6b 0e 9f 3d 7a bf 94 bd e6 62 30 bd bd 82 b5 bc
       0.07766422 -0.07263084 -0.043063067 -0.022157067
000360 5b 75 a0 bc 72 2f 39 3d 61 98 04 3d 15 8a 81 bd
       -0.01958721 0.045211263 0.032371882 -0.06325165
000370 b0 4e e2 3c b0 1c ac bd ca 33 d6 3c c7 5c 85 3b
       0.027625412 -0.08403909 0.026147742 0.004069898
000380 4c 49 0e 3e dd 1c a5 3d 33 51 12 bd fe fa 2e bd
       0.13895148 0.08062146 -0.03572197 -0.042719834
000390 02 2b c7 bc bb b1 0a be a0 40 5b 3d 58 13 a2 3d
       -0.0243125 -0.13544361 0.053528428 0.07913846
0003a0 37 8d 83 3d 75 48 02 be 07 92 98 bd 55 4d c4 bc
       0.06423419 -0.12722953 -0.074497275 -0.023962656
0003b0 a3 89 d0 3d c8 8f 13 3e 19 65 7d bd 05 10 9a 3d
       0.10182502 0.14410317 -0.061863992 0.07522587
0003c0 2f 0f 03 3e 59 29 53 3c a2 e2 17 3c d7 78 4b bc
       0.12798761 0.012888276 0.009270342 -0.012418947
0003d0 51 5b 05 bd 9a 3a de 3b a1 e5 06 3e 11 bf 53 bd
       -0.03255779 0.006781888 0.13173534 -0.051695887
0003e0 e5 cf ef 3c ee 27 f4 3d c0 c7 8a 3c 89 29 c4 bd
       0.029273937 0.119216785 0.016940951 -0.09578235
0003f0 c6 84 53 bd f9 b4 d2 3d 2f 49 f8 3d e4 46 f0 3c
       -0.051640294 0.10288424 0.12123334 0.029330678

bias_hh_l0 f4 [256]
000000 b7 cc 72 bd 55 0a 52 3c 43 4c c3 3d 66 e5 15 3d
       -0.059277263 0.012819846 0.0953603 0.036595725
000010 e7 5c 31 bc 92 34 db 3c b4 79 1c 3e 8d 14 f0 3d
       -0.010825372 0.026758466 0.15280801 0.1172267
000020 ad 90 42 bd e7 a0 2c bd 7c 24 50 3c 83 4b 99 bc
       -0.047501255 -0.042145636 0.012704011 -0.018712765
000030 05 53 2d bc 11 e7 c5 3b c4 cc 34 3d c4 08 19 3d
       -0.010578875 0.006039508 0.044140592 0.037361875
000040 39 3f 5a bd 17 5e f2 3c cf 81 d1 bd e8 d2 36 bc
       -0.05328295 0.029585881 -0.10229837 -0.011158682
000050 47 be 7e 3c b6 28 58 3d 64 80 50 3d 5a 4a 2c 3e
       0.015548295 0.0527732 0.050903693 0.16825238
000060 fe 5a 34 3d 67 5e 03 3e 40 77 74 bc 36 31 c4 bd
       0.04403209 0.1282898 -0.01492101 -0.09579699
000070 23 a1 c0 3d e7 b4 b2 3d 1e 7a 2c 3d b7 49 30 bd
       0.094057344 0.08725911 0.042108648 -0.04303905
000080 0e a4 a0 3c e3 e5 a8 bc d3 40 04 bc 73 d3 8d 3d
       0.019609477 -0.020617431 -0.008072096 0.06925096
000090 cb ab 8e 3d 9b 68 31 bd a8 d5 36 3e 1f 83 72 3d
       0.06966361 -0.04331265 0.17854941 0.059207078
0000a0 52 f4 27 3e 7f 25 d6 bd a7 82 0c 3e d8 99 b2 3d
       0.16401795 -0.104563706 0.13721715 0.087207496
0000b0 d4 18 00 3e 4d 07 d4 3d 68 49 0f 3e 3c 7e a7 bd
       0.12509471 0.10352955 0.13992846 -0.08178374
0000c0 4b e1 df 3d 33 a4 02 3e 4e 53 26 bd dc af 7c bd
       0.10931643 0.1275795 -0.04060679 -0.06169115
0000d0 61 38 12 3e 87 1e fc 3c 3d bd ae 3d 6b 05 1a 3c
       0.1427932 0.030776275 0.08532188 0.009400706
0000e0 22 62 41 3e 6c 49 da 3d cf 09 00 3d 4c ee b8 bd
       0.18885091 0.10658535 0.031259354 -0.090298265
0000f0 46 f9 ab bd 03 59 a8 3d b8 d6 3d 3d ad 0e 1b 3e
       -0.083971545 0.08220103 0.04634735 0.15142317
000100 5f 84 5c 3b f2 a8 81 bc 29 97 27 bd 27 aa da bd
       0.0033648235 -0.01582763 -0.040915642 -0.10676985
000110 61 be 0e bd 07 53 cd bd c4 93 1b 3d 42 29 0b be
       -0.03484953 -0.10025602 0.037982717 -0.13589957
000120 9a 35 7d bd e5 26 41 be a5 69 33 3c d1 f3 dc bd
       -0.061818697 -0.18862493 0.010950481 -0.10788692
000130 ba dc 23 bd c9 c7 e2 3b 1e a7 0a be 78 e1 18 be
       -0.040005423 0.006920789 -0.13540313 -0.1492976
000140 7e 89 ad 3b 09 ee 34 be 77 b6 bc 3b 4c 88 a5 bd
       0.0052959314 -0.17668928 0.005759056 -0.08082637
000150 af 7b 32 be 53 ac 31 be 88 79 cb 3d db 07 27 be
       -0.17429994 -0.17350893 0.099352896 -0.1631159
000160 a9 70 07 be 45 ae 40 3d 42 64 dd bd db 84 e2 3c
       -0.1322657 0.047041196 -0.10810138 0.027651241
000170 6b 19 44 be 7b 6a 73 3b 1d f0 2f be e1 b2 02 3b
       -0.19150321 0.0037142325 -0.1718144 0.0019943046
000180 57 0f 99 bc 03 26 fe bd a7 70 84 bd 97 cc 98 bd
       -0.018684072 -0.12409594 -0.06466799 -0.074608974
000190 96 3d 19 be fb bc 95 bd e4 12 86 bd 9f bc cc bd
       -0.149649 -0.07311436 -0.06546572 -0.09996914
0001a0 f9 a7 60 bd 99 c2 ad bb 66 ac ff bd c3 85 c6 bd
       -0.05484769 -0.005302739 -0.12484054 -0.09693482
0001b0 45 7e 29 be 73 90 b9 3c 08 be 75 bd 7f 24 50 bd
       -0.16552074 0.022651887 -0.05999568 -0.050816055
0001c0 47 e9 19 be 0b de 00 bd b2 94 27 bd 7e 1d 3e be
       -0.15030394 -0.031461757 -0.04091329 -0.18565938
0001d0 ed 67 0a bc ab 27 ba bc a5 37 68 bd 75 de a6 bd
       -0.008447629 -0.022723993 -0.05669369 -0.08147899
0001e0 da e9 25 be ca 13 7a bc 17 95 2b bd bc 20 4e bd
       -0.16202489 -0.015263507 -0.04189023 -0.050324187
0001f0 6b 44 bc 3c ae 9b 8e bc d9 1e 85 3d 21 11 39 3d
       0.022981843 -0.017408218 0.06500024 0.04518235
000200 a5 ff fa bd 2a 7c a5 3d 18 bd 27 ba 37 12 99 bd
       -0.122557916 0.08080323 -0.00063987216 -0.07474177
000210 eb fc f1 3c 34 64 b1 3d 71 b3 07 be 32 96 58 bd
       0.029539546 0.0866169 -0.13252045 -0.052877612
000220 47 61 30 bd df bc ce 3d 1f ba 2b be 4f 1f 09 3c
       -0.04306152 0.10094618 -0.16770218 0.008369281
000230 90 77 09 bd f5 2a ee bc 1c 32 cf bc 52 6e 79 bd
       -0.03356129 -0.029073218 -0.025292449 -0.060896225
000240 81 80 4f 3d 63 6b 96 bd f7 f0 5e 3b dd ec 84 3d
       0.05065966 -0.07344701 0.0034018138 0.064904906
000250 ed 72 bc 3d 44 61 ad 3c ab 45 02 3e 07 30 4b 3c
       0.09201608 0.021164544 0.12721889 0.012401587
000260 f0 4b 45 bd 29 29 80 bc 4f d0 7c bd 6c 2f c1 bd
       -0.048168123 -0.015644627 -0.061722096 -0.09432873
000270 e0 39 b9 3d ee 02 08 3d 36 11 f2 bb 9e 9f 5d bd
       0.09044242 0.03320592 -0.0073873056 -0.0541073
000280 c2 71 38 bd b9 c7 30 bd 17 0f 26 3e e4 d3 ff bd
       -0.045030363 -0.04315922 0.16216694 -0.12491587
000290 46 6e 4f bd ce 37 ef bd b4 9d 03 bd 8e fb 8f 3d
       -0.050642274 -0.11680566 -0.03213282 0.07030402
0002a0 c2 4c d6 bc c0 dc db 3d 5a ec 75 3d 6f 3d 52 3d
       -0.026159648 0.10735464 0.060039856 0.05132812
0002b0 be 58 06 3e 24 a2 84 bd 61 7e 50 3d db 53 bf bc
       0.1311979 -0.06476238 0.050901774 -0.023355415
0002c0 bb 2d df bd 8e 5e 53 bd 87 57 f8 3b 49 00 73 3d
       -0.10897394 -0.051603846 0.0075787934 0.059326444
0002d0 4c d2 d4 bd 3c df 1d be d9 90 3d bd 22 ab cb bc
       -0.103916734 -0.15417188 -0.046280716 -0.024861876
0002e0 f1 a8 02 bd 58 ef 29 3e 2e b8 0b bd d9 72 ae bc
       -0.031899396 0.16595209 -0.034111194 -0.021294998
0002f0 f5 93 46 bd 5c 92 83 3d 0b df 12 3d 81 e6 cf bd
       -0.048480947 0.064244 0.03585724 -0.10151387
000300 90 2f 7d 3d 2d 31 ad 3d f2 7a 9c bd 5b c6 e8 bd
       0.061812937 0.08456645 -0.076406375 -0.11365958
000310 45 6e dd 3c 26 c1 9f 3c 5a 03 d8 3c 95 c2 0b 3d
       0.02703012 0.01950128 0.026368786 0.034121115
000320 81 d2 ce bd c2 1d fe bd 79 64 4a 3d ac 2a 8c 3d
       -0.10098744 -0.124080196 0.049412224 0.068440765
000330 67 2d 43 3d 3c 6a 58 bd 75 01 90 ba e7 0b ce bd
       0.04765072 -0.052835688 -0.0010986762 -0.10060864
000340 5a a2 f3 bd c1 b5 1d bd 44 3b c8 bd 99 a4 8c bd
       -0.118962005 -0.038503412 -0.09776929 -0.06867332
000350 cd af 87 bd 66 98 8f 3d e8 6e 06 3e 32 26 89 3d
       -0.06625328 0.070114896 0.13128245 0.06696738
000360 68 6b 39 bc 63 ae f1 3c ca 8d b9 bd a9 92 97 bb
       -0.011317112 0.0295021 -0.09060247 -0.0046256375
000370 a7 f7 20 bb 95 44 18 bc 99 01 67 bd db 6e 4b 3d
       -0.0024561675 -0.009293695 -0.056398008 0.049666267
000380 24 02 f7 bb 75 62 a6 bd ed 37 e6 bc 50 41 29 3d
       -0.007538097 -0.08124248 -0.02810284 0.041322052
000390 30 9a 2c 3d d5 a4 a3 bd 10 95 10 3e d3 1a ad bd
       0.042139232 -0.079904236 0.14119363 -0.08452382
0003a0 06 34 8b bd 91 66 81 3d bd 79 0a bb b6 32 08 3d
       -0.06797032 0.06318391 -0.002112969 0.033251487
0003b0 34 8b d8 3d 38 e9 b5 3c c5 1a c8 bd 4a 1d 73 bc
       0.10573426 0.022205934 -0.09770731 -0.014838526
0003c0 9e d3 cb bd e4 e1 4e bc b1 bf 13 3d 76 95 09 3d
       -0.09952472 -0.012627099 0.036071483 0.033589803
0003d0 73 e0 9c bd 67 4a 2d bd 0d b7 e7 3d 77 8b eb 3d
       -0.07659998 -0.042307284 0.11314211 0.1150121
0003e0 c3 11 73 3c 04 ae 71 3d 5d 26 c0 3d 49 ca 5f 3c
       0.014835778 0.059003845 0.09382317 0.013659068
0003f0 c2 95 c0 3d eb 66 b0 bd b3 08 ae 3d e1 77 ab bc
       0.09403564 -0.0861338 0.08497753 -0.020931186

weight_ih_l1 f4 [256, 64]
000000 10 f9 04 3e 23 d6 00 be 40 97 1d 3d 7b 64 9a 3d
       0.12985635 -0.12581687 0.03847432 0.075386964
000010 26 8d 46 bd c7 f2 47 3d dc 06 6c 3d 90 ef 77 bd
       -0.048474453 0.048815515 0.05762373 -0.0605312
000020 4d 70 94 bd 8d 79 0c 3e dd 21 91 bd 58 63 ef ba
       -0.07247982 0.13718243 -0.07086537 -0.001826386
000030 f1 6c 78 3d 15 6a 08 3d 4f 33 54 bd a7 85 9a bd
       0.06065077 0.033304293 -0.051806744 -0.075450234
000040 01 89 c4 3d 31 c7 21 bd ae c0 1c 3e f0 93 85 bc
       0.09596444 -0.039496604 0.15307876 -0.016305894
000050 ed b5 1f be 41 61 22 be 0a 32 15 3d 0c c6 1c 3c
       -0.15596743 -0.15857412 0.036424674 0.009568702
000060 7d ac 1b 3e 16 14 f7 bd bd 3c ff 3c aa eb 0a 3d
       0.15202518 -0.12064378 0.031156892 0.033916153
000070 8f 38 ab bc 10 c9 a2 bd f0 12 2a bd 6d 1f bd bd
       -0.020900993 -0.07948506 -0.041521966 -0.092345096
000080 45 f2 49 3b 32 e0 0b be 3a b2 f4 bd 04 d7 b2 3d
       0.003081457 -0.13659742 -0.119480565 0.08732417
000090 29 a1 22 bd c5 8a f2 bd 08 1b 17 3d bc ff 46 3d
       -0.039704476 -0.118428744 0.036891013 0.04858373
0000a0 86 91 13 3d 15 cd 90 3d da dc 0d 3e fe e3 65 3d
       0.036027454 0.07070366 0.1385378 0.056125633
0000b0 bd 03 11 bc 29 bd 62 bd ce 08 8c 3c f7 c5 0e be
       -0.008850989 -0.05535618 0.017094042 -0.13942705
0000c0 0b 7c c8 3d ef 1a ab 3d 7e 9b d2 3d 81 77 03 3d
       0.09789284 0.083547466 0.10283564 0.03209639
0000d0 46 53 2a 3d 46 37 8b bc 69 67 ff bb fa c0 28 3b
       0.041583322 -0.01699413 -0.00779431 0.0025749789
0000e0 ac 39 f7 3d 4d 5a 26 3d 80 72 cf bd 9e 0d 1d be
       0.12071547 0.04061346 -0.10129261 -0.15337226
0000f0 42 b7 c0 bd 3e 5b 02 be 53 fa ed bb 7e 32 ab 3d
       -0.09409954 -0.12730119 -0.007262507 0.0835924
000100 c8 d4 34 3e 5b 76 22 bd 48 a9 ba 3d 61 5f 9a 3d
       0.17659295 -0.039663654 0.09114319 0.07537723
000110 07 fb 98 bc e4 a1 51 bd 1f 05 ff bd bf 07 fe bd
       -0.018674387 -0.05117978 -0.12452149 -0.12403821
000120 79 f4 2a 3c 9f 4f 10 3e 8f f3 55 3d e5 29 ba bb
       0.010434263 0.14092873 0.05223423 -0.0056812637
000130 6b 53 8f 3d 34 57 07 3d 5b 07 30 bb 9f f5 17 be
       0.069983326 0.033042148 -0.0026859853 -0.14839791
000140 6c 9c e5 3d e2 3e 8d bb b6 5f 27 3e 82 d3 b2 3d
       0.11211476 -0.0043104747 0.16345105 0.08731748
000150 99 5f 1a bc 92 38 35 3d e2 84 bc bd 4f 4c 4d 3d
       -0.009422206 0.044243403 -0.09205033 0.0501216
000160 d8 d4 5e 3b ad 7c 58 bd a4 35 4e bd be ec 15 be
       0.0034001376 -0.052853275 -0.050344124 -0.14641091
000170 36 a8 7b bd 21 e6 10 3e b2 85 5e 3d 51 ab 9f 3d
       -0.061439715 0.14150287 0.05432672 0.07796348
000180 f3 8c 6e bd 9f 1b 22 be 6c e9 10 be 7e 56 82 bc
       -0.05823989 -0.15830849 -0.14151543 -0.015910383
000190 63 9b 1c 3d ff e4 94 bd 76 50 e7 3d 80 04 19 bd
       0.038234126 -0.0727024 0.112946436 -0.037357807
0001a0 a6 e8 d5 3b 12 ec 28 3d 14 27 05 3e 17 bc 38 3d
       0.006527978 0.04124076 0.13003188 0.04510125
0001b0 f7 e4 b7 3c 2b ff 97 bd 39 84 14 3e 92 b8 95 bd
       0.022448046 -0.07421716 0.14503564 -0.073105946
0001c0 3c 9d 1f 3d 4d 49 0f 3e 1b 9d c1 3d c4 8f c5 3d
       0.03896831 0.13992806 0.094537936 0.09646562
0001d0 33 a0 d2 bc 78 e2 f1 3d 95 88 48 3d c7 a9 c4 3d
       -0.025711155 0.118107736 0.04895838 0.09602695
0001e0 14 d2 8d bd 47 08 28 be 24 eb 2d be 09 bd b1 bd
       -0.06924835 -0.16409408 -0.1698423 -0.08678634
0001f0 07 d1 9f 3d 7d 5b 3e be 46 69 c6 3d 96 54 45 3d
       0.07803541 -0.18589588 0.09688048 0.04817637
000200 41 63 f9 bd b4 ff 16 3c 50 b2 8f bd 31 a0 ca bd
       -0.12177134 0.009216238 -0.07016432 -0.09893835
000210 64 82 06 3e f2 65 0c bd 58 85 43 3c 6c ab 06 bc
       0.13135678 -0.03427691 0.011933647 -0.008219581
000220 5c 9b f3 bc d7 eb aa 3c ac f0 c6 b9 8d f6 fb bd
       -0.029737167 0.02086441 -0.00037944817 -0.12302885
000230 93 53 2e 3e 6b 45 04 be 3a 1c 89 3d bb 3d af 3d
       0.17024069 -0.12917106 0.06694837 0.08556696
000240 0b 41 f3 bd db 17 5a bc cd b5 c0 3d 79 8c 9b 3d
       -0.1187764 -0.013311352 0.09409676 0.075951524
000250 31 47 7a 3a 1d 2b 01 3e 06 ec 94 3c d0 75 27 be
       0.00095473515 0.12614103 0.018178951 -0.16353536
000260 a3 ec b0 bd d9 7f d8 3c 3b 7e a3 3c 17 be bb 3d
       -0.08638885 0.02642815 0.019957652 0.09167116
000270 f1 f8 b3 bd 8d 26 15 be ed 7e c0 bd a5 04 0e be
       -0.08787716 -0.14565487 -0.09399209 -0.13868959
000280 4a 75 a7 bd 29 4c b7 3b eb cc 6b bc 66 3b be 3d
       -0.08176668 0.005593796 -0.014392118 0.09288673
000290 3f 1b 4d bd a6 f1 e4 bc ab db 2e bd 53 f4 ce bc
       -0.050074812 -0.027947258 -0.04268996 -0.025262987
0002a0 77 d2 83 3d e0 b0 9c bd f0 df 27 be 55 12 00 bd
       0.06436627 -0.07650924 -0.16394019 -0.031267483
0002b0 10 9c 0a be 85 29 d9 bd 7b ff 4b bd 16 b3 18 3e
       -0.13536096 -0.10603622 -0.049804192 0.14912066
0002c0 aa ce e9 3c 74 09 df bd 76 c1 eb bc 0e 89 34 bd
       0.028540928 -0.10890475 -0.028778773 -0.044076018
0002d0 a6 86 6c bd 25 21 0d bd 2f 9d de 3d e2 36 07 3e
       -0.0577456 -0.034455437 0.10869824 0.1320453
0002e0 16 9d 75 bd 25 22 3c 3d c2 2f db bd 57 ea c5 bc
       -0.059964262 0.045931 -0.107024685 -0.024159594
0002f0 c9 c3 aa 3d 30 c0 65 bc e6 d4 96 bd 20 70 e7 3d
       0.08338124 -0.014022872 -0.07364826 0.11300683
000300 1e a1 87 3d 1f e7 27 3d bc c9 00 3e ba e6 1f 3d
       0.066225275 0.0409919 0.12576956 0.039038397
000310 a6 95 fa 3d 72 fd ae 3d 95 63 61 bc 20 2a 41 3e
       0.122355744 0.085444346 -0.013756652 0.18863726
000320 8a 86 99 bd a2 8e 4a 3d 81 94 de bd 80 0a 1a 3e
       -0.074963644 0.04945243 -0.108681686 0.15043068
000330 f9 7e 93 3d 56 c7 28 3e 27 e6 d1 bc 71 41 e6 3d
       0.072019525 0.1648229 -0.02562244 0.11242951
000340 5f 53 0e bc 52 d1 db bd 72 db 74 3d 3c 9c ca 3d
       -0.008686869 -0.10733284 0.05977959 0.098930806
000350 66 84 7f 3d 6b 59 de 3d b0 18 8b bd 1d 88 e4 bd
       0.062382124 0.10856899 -0.06791818 -0.11158774
000360 ed 25 d5 3a 2e d4 1b 3e 25 c6 ba bb c3 97 9c 3d
       0.0016261913 0.15217659 -0.00569989 0.07646134
000370 b6 60 27 3e 20 53 98 3d 5a 57 4a bd ae cd bf 3d
       0.16345486 0.0743773 -0.04939971 0.09365402
000380 09 91 8a 3d 61 ff dc bc 5c 23 84 3d db 8c 3d 3d
       0.067659445 -0.026977243 0.06452057 0.04627691
000390 ac 84 49 3d 03 a5 e8 3d 3a df 5e bd 91 0e be bd
       0.04919879 0.113595985 -0.054412104 -0.09280122
0003a0 ee 0b 3b bd b5 d7 7f 3d db a8 f3 bd d3 ae f3 3c
       -0.045665674 0.062461574 -0.11897441 0.029746449
0003b0 e8 cf f4 bd 92 e2 be bd 6b 05 ff bd 84 ca 06 3e
       -0.119537175 -0.093205586 -0.12452205 0.13163191
0003c0 0d 36 cc 3d 2a 68 03 3e 69 5f 7e 3c 3a 9b 26 be
       0.09971247 0.12832704 0.015525677 -0.16270152
0003d0 c5 12 f5 3c 73 35 72 bd e6 10 26 3e 0d 37 f5 3d
       0.029916177 -0.059133004 0.16217384 0.11973391
0003e0 85 8e e9 bd dc 60 bc 3d c2 6a 7a 3c 75 0f 69 bd
       -0.114041366 0.09198162 0.015284242 -0.056899507
0003f0 5e f4 63 3b 89 03 d8 3d e2 e3 0f 3d 09 b9 bf bd
       0.0034783105 0.10547549 0.035129435 -0.093614645

weight_hh_l1 f4 [256, 64]
000000 b9 df 84 3c 54 0f e2 b9 4b 8f b3 bc 1a d1 01 be
       0.01621996 -0.000431175 -0.021918913 -0.12677422
000010 51 26 f9 bd 59 24 36 bd 00 5e d8 bd 19 79 aa 3d
       -0.121655114 -0.044468258 -0.10564804 0.08323879
000020 b7 b8 b5 3d 50 43 f4 bd 21 be 94 bd bb db 2a 3d
       0.08873122 -0.11926901 -0.07262827 0.041713458
000030 ce 86 b2 bd 14 e9 ff bd 51 fe 48 3c bf 6d 62 bd
       -0.08717118 -0.12495628 0.012267665 -0.055280443
000040 c6 8a 8b 3d a0 ab 84 bc f1 71 ba bd 03 22 93 bc
       0.06813578 -0.016195118 -0.09103764 -0.017960554
000050 51 fb 30 3d 70 61 cb bc 08 f6 63 3d f0 17 14 3c
       0.043208424 -0.024826735 0.055654556 0.00903891
000060 2e 0f 42 3b 37 3d 40 3d cc 20 65 bd 23 2d 9f 3d
       0.0029611099 0.04693338 -0.05593948 0.07772281
000070 b3 0e a0 3d 64 c3 58 bd 61 d0 77 bd 54 d3 b5 3c
       0.07815304 -0.052920714 -0.06050146 0.022195496
000080 10 f2 e4 bd 7e ce 93 3d 0c 78 0c bc e7 d7 0a 3e
       -0.11178982 0.0721712 -0.008573543 0.13558923
000090 40 61 c4 3d 00 1e 97 bd 0f 0c e2 3d 2a bf 28 3b
       0.095888615 -0.07378769 0.11037456 0.0025748708
0000a0 00 0a 95 bd 42 35 8e bd c5 50 00 3e 9c 81 4f 3c
       -0.07277298 -0.06943752 0.12530811 0.012665179
0000b0 5a db fc bc 4c d0 c7 3b 43 4a 96 3d c0 ce 24 3d
       -0.030866314 0.006097829 0.07338383 0.040236235
0000c0 41 b6 92 bd 5a 66 77 bd 88 bd 36 bd ad b7 db 3b
       -0.071636684 -0.060400344 -0.044614345 0.0067052455
0000d0 0c 98 f6 bd 6c ab 6b bd e6 29 87 3d 44 f6 b6 3d
       -0.120407194 -0.057536528 0.06599788 0.0893369
0000e0 6d 53 86 bc 9e 13 de 3b d0 58 d2 bc b1 26 61 bc
       -0.016397202 0.006777241 -0.025677115 -0.013742135
0000f0 b4 0c 94 bd 2a fa cd 3d 9a 41 24 3c ab 1c 6d 3d
       -0.072289854 0.10057481 0.010025406 0.057888668
000100 e9 fc 01 be 68 11 91 3a c4 72 88 3c a5 ee 2e 3c
       -0.12694134 0.001106781 0.016656287 0.0106770145
000110 3a d1 73 3d 3e 76 b4 bd e0 24 ee bd b0 13 9c bd
       0.059525706 -0.088116154 -0.11628127 -0.076209426
000120 6b 3c fb 3c 6a c9 ef bd 90 d5 9b 3b 45 78 29 bd
       0.030668458 -0.117083386 0.0047556832 -0.041374464
000130 e9 7c 45 bc 42 34 08 3d f7 5f 14 3e 8d d4 11 be
       -0.012053707 0.033252962 0.14489733 -0.14241238
000140 ec 32 3a be 15 aa 02 bd 09 79 c6 3c 60 5b c6 bd
       -0.18183488 -0.031900484 0.024227636 -0.09685397
000150 22 ff 7e bc 7f e8 86 3d ac b8 99 3d 3e 82 bb 3d
       -0.015563758 0.06587314 0.075059265 0.09155701
000160 40 a4 92 bd cb 08 ab bd 6c 90 d8 3b 30 6a 07 3e
       -0.071602345 -0.083512865 0.0066090133 0.13224101
000170 36 20 1f be 42 8d 77 3d cc c9 87 bd d7 6d 3d bc
       -0.15539631 0.06043745 -0.066302866 -0.011561832
000180 cc 27 13 3e 34 ae 8d bd fa 7b 0e bd ba 2a 93 bd
       0.1437065 -0.06917992 -0.034786202 -0.07185884
000190 7c ee 89 bd ee 66 e5 bd f9 ee f5 3d 6f 42 33 3e
       -0.067349404 -0.11201273 0.12008471 0.17505811
0001a0 bf 18 42 3d 83 8a 3a bd 26 6a 27 be 50 c5 26 3d
       0.04738688 -0.04554225 -0.16349086 0.040715516
0001b0 02 a9 bd 3c bb 54 55 3d fc 24 aa 3d 26 29 9f 3c
       0.023151878 0.05208276 0.083078355 0.0194288
0001c0 aa d5 3a 3e 77 31 1e 3d 82 bc bc bc 32 fc fc bd
       0.18245569 0.038621392 -0.023039106 -0.1235279
0001d0 2b bf 8b bd 9c 23 ac bd f9 36 4b bd 41 db ee bd
       -0.06823572 -0.084052294 -0.049612973 -0.11662913
0001e0 63 d4 c1 bd 1a 51 e9 bc fc f3 4d bd 25 cd 9d 3b
       -0.09464338 -0.028481055 -0.05028151 0.004815715
0001f0 c6 78 d6 bc 54 20 39 3d 5c a3 5f 3d 6d 35 91 3d
       -0.026180636 0.045196846 0.05459915 0.07090268
000200 ab 79 aa bc 80 f3 cb bc 4d 66 f3 bc 5e 71 cb bc
       -0.020809969 -0.024896383 -0.029711867 -0.024834331
000210 4a 0e 86 bd 38 b8 59 bd 2d da c8 3d 42 a5 ca bd
       -0.06545694 -0.0531542 0.09807239 -0.09894802
000220 0e ff a4 3d 91 24 9e bd a2 82 f9 3d e7 59 dd bc
       0.0805646 -0.07721818 0.12183119 -0.027020408
000230 6a 13 fe bd 7d 06 1d 3e 79 b7 00 3d 7b a1 40 3d
       -0.12406047 0.15334506 0.031424973 0.047029
000240 2c e5 78 bd 4e dd a9 bd e5 7b 77 3d 64 79 77 bd
       -0.06076543 -0.08294164 0.06042089 -0.0604185
000250 8e d6 37 3d bc 32 d2 bd 7c e1 d0 bd e4 bb b0 bd
       0.04488235 -0.10263583 -0.10199258 -0.08629587
000260 65 10 05 bd b1 c1 3d bc e7 51 af 3d 4a 12 c0 3d
       -0.03248634 -0.011581824 0.085605435 0.09378488
000270 51 af 97 bd d2 03 80 3d 0e 9b 50 bb e8 0b 89 3d
       -0.07406486 0.06250729 -0.00318307 0.06691724
000280 5b 2c a8 bc 2e 3d 69 bc 62 53 89 3d d4 72 d3 bd
       -0.020528963 -0.014235778 0.06705357 -0.10324636
000290 b2 57 0d 3e 86 fe fc bd 65 b5 57 bd 90 8f e9 3d
       0.13802984 -0.12353234 -0.052663226 0.114043355
0002a0 70 36 f8 bc 72 6c 18 3e 5e bf 96 bc 2c a1 34 bd
       -0.030299395 0.14885119 -0.018401798 -0.044099018
0002b0 2a 67 02 be 2c 4c 32 bb e5 15 9a bd 35 b0 03 bd
       -0.12734666 -0.0027206047 -0.07523707 -0.032150466
0002c0 63 b7 89 bd 69 56 d0 bd 81 df ce bc 3a 95 fd 3c
       -0.06724431 -0.101727314 -0.02525306 0.030954946
0002d0 37 9f c7 bc 74 90 73 bc a4 87 94 bd 6f 02 0b bd
       -0.024367912 -0.014865983 -0.07252434 -0.033937868
0002e0 f9 64 da 3c c3 a6 61 bd df 03 b2 3d 73 f2 2d bd
       0.026659476 -0.055090677 0.086921446 -0.042467546
0002f0 bf 75 37 3b 4e 49 22 bc 4a 23 8c 3d 29 fb fe bd
       0.0027993766 -0.0099051725 0.06842668 -0.12450249
000300 e2 a1 36 bc a9 3d 2a bc 10 b8 4f 3d f9 dd ff 3d
       -0.011146994 -0.0103906775 0.050712645 0.1249351
000310 01 e4 49 bd 2a 10 7c 3c b5 4d 10 be 68 c2 ce 3d
       -0.049289707 0.015384713 -0.14092143 0.10095674
000320 5f 84 07 3b c2 1b 84 3b c4 5c ca bc d7 42 0f bc
       0.0020678265 0.0040316293 -0.024702437 -0.008743963
000330 cb 94 bd bd 09 c3 ff 3d 1d d3 e1 3d 79 cc a7 bd
       -0.09256896 0.12488372 0.11026595 -0.08193297
000340 d4 a5 f1 bd e6 6d c8 bd 76 1c 0b bc 8e 50 bd 3b
       -0.11799207 -0.097865865 -0.008490672 0.005777425
000350 b5 17 b5 3d 2a 95 81 3b 8d 28 11 3d ca 33 c3 bb
       0.088424124 0.0039545493 0.035439063 -0.0059571015
000360 21 9c 92 bd 06 e1 b0 bd da 44 1a bd c9 60 a0 bc
       -0.071586855 -0.0863667 -0.03766332 -0.0195774
000370 2f a3 e1 bd 92 19 ba 3c c7 8c f7 3d 69 e4 2f 3e
       -0.11017453 0.022717271 0.12087398 0.17176975
000380 ab 03 1b be aa f5 73 3d d0 92 0b 3e a3 fe 9d 3d
       -0.15138118 0.059560455 0.13630223 0.07714584
000390 1e 7f 98 39 cd d0 7e bd 66 40 1f bb 82 7d 11 bd
       0.0002908641 -0.062210847 -0.002429986 -0.035520084
0003a0 f1 0a d1 3c 2b b3 db bd df 59 04 be 34 f2 6a 3c
       0.025517913 -0.10727533 -0.12924908 0.014339972
0003b0 f9 63 b1 bd 08 dd 13 3d 4e 24 18 be 0d b0 d2 bc
       -0.086616464 0.036099464 -0.14857599 -0.025718713
0003c0 a6 4e 5e bd 31 6b 30 bc f2 64 29 be 97 83 91 bd
       -0.054274224 -0.010767744 -0.16542414 -0.07105177
0003d0 6b f4 40 3c fd cb ec bd 7b ca c4 3d 60 ec 80 ba
       0.011777024 -0.11562345 0.096089326 -0.000983607
0003e0 5f 66 8e 3d ca 67 d7 3d b0 84 02 3d b8 80 54 3c
       0.069531195 0.10517843 0.031864822 0.012970142
0003f0 cf 96 16 bd bd 42 b9 bc fa 4b bd 3c 27 07 bc bd
       -0.036764916 -0.022614831 0.023107518 -0.09181052
