model/16026.5694395276_weight.pth (torch, 90511 bytes, 7 tensors)

weight f4 [16, 32, 1]
0.2326909 0.2286233 0.1284503 -0.13853215 0.12712191 -0.1594056 -0.16930366 0.1650204
-0.059472203 0.124215856 -0.17401144 -0.09151239 0.09379344 -0.14674637 0.13764122 -0.070302285
0.14587063 0.20011465 0.028734043 -0.06807263 0.062371932 0.11023157 -0.048469853 0.06825673
0.0704365 0.12310709 -0.085340634 -0.09305263 -0.09854499 -0.124226935 0.009234818 0.07139786
0.22611754 0.20722793 0.11589341 -0.15929206 0.079598054 -0.16642326 -0.02225724 0.08889674
0.053829357 0.09630603 0.02926141 -0.17251736 0.013831672 -0.14078611 0.16345438 -0.029739775
-0.027000202 0.04829034 -0.17147374 -0.015575256 -0.06153273 -0.049655423 0.056500036 -0.018067583
0.033527866 -0.019993791 0.1236759 -0.10249728 0.00790867 0.0017915431 0.018929942 0.14789526
0.11180767 0.24416795 0.16962759 -0.13836615 0.12155024 -0.0012754307 0.18245457 0.10276713
-0.03415575 -0.03151658 0.025560243 -0.043983318 -0.05519222 -0.04038304 0.07250068 0.1954202
0.07304994 0.07116218 -0.027339455 0.13073191 0.039594907 0.12797661 -0.059766706 -0.14363874
0.0761233 -0.004995527 -0.08692654 -0.006353775 0.14280248 -0.111499526 0.06191648 -0.029744973
-0.086162336 0.08051687 -0.17514925 0.053396456 0.06735838 0.090206586 -0.065468244 -0.16167988
-0.14558822 0.119150326 -0.09744952 -0.10436179 -0.10821833 0.06637252 -0.15391384 0.05529583
0.0101851085 -0.09710463 -0.1448337 -0.17442288 -0.036744103 -0.007837616 -0.048563987 -0.076229416
-0.1513151 -0.043631066 0.09542341 -0.15968075 0.088763446 -0.04966652 -0.13447583 0.11654395
0.011650188 -0.14048658 -0.15759003 -0.09635666 -0.11475445 -0.13907602 0.03026625 -0.009637268
-0.105751894 -0.17075516 0.06585398 -0.12103808 -0.045610122 0.023602352 0.00879515 0.022906335
-0.0025156788 -0.06955811 -0.0080502685 -0.17765684 -0.21442805 -0.16430655 -0.028302843 -0.14253719
0.017488303 0.12887527 0.010826218 0.07498823 -0.08123966 0.110509455 0.126687 0.009836461
0.08796282 0.031443644 -0.0066168425 -0.14761569 -0.08259995 0.17218487 -0.15168044 0.11062012
0.068940386 0.17731139 0.090107635 -0.096780695 0.074519835 0.017380776 0.027060144 -0.14995797
-0.06585693 -0.118359596 0.1175567 -0.100742176 -0.13546447 0.084802896 -0.13779262 -0.05913264
0.15630624 -0.020830471 0.00037214468 0.11610707 -0.1205023 -0.03365183 0.064457014 -0.025751691
0.077142246 -0.023569161 -0.042783644 -0.10967941 -0.05618536 -0.023219647 -0.04065784 -0.17375171
0.012201673 0.17080688 0.016277831 -0.061008595 0.15816183 0.04826424 -0.16915147 -0.072688125
-0.11420504 -0.017409587 -0.1423813 0.005702578 -0.16411851 -0.03901587 -0.11733939 -0.0527499
0.1494333 -0.005538122 0.07422143 0.009441907 0.08309814 -0.052403715 0.10636827 -0.14597216
0.12740012 -0.08270937 0.12403243 -0.12576361 -0.011847124 -0.040689938 -0.052958094 0.14896587
0.003505869 -0.034957785 -0.16774748 0.05802191 -0.03995804 0.13169134 0.03356284 -0.019850537
0.16828628 0.07797868 -0.05135486 0.032148696 0.032050293 -0.14154027 0.020362657 -0.040753398
0.1590994 0.11703535 -0.13267735 -0.06720632 0.06676189 -0.13962696 0.14485852 0.14302886
00000000: 8646 6e3e 3a1c 6a3e 7a88 033e 5fdb 0dbe
00000010: 3f2c 023e 393b 23be f05d 2dbe 1cfb 283e
00000020: 2099 73bd e264 fe3d 0e30 32be d96a bbbd
00000030: c616 c03d ae44 16be d2f1 0c3e a5fa 8fbd
00000040: 1c5f 153e dbea 4c3e a863 eb3c aa69 8bbd
00000050: b679 7f3d 17c1 e13d 5388 46bd 2fca 8b3d
00000060: 0341 903d 921f fc3d 12c7 aebd 6192 bebd
00000070: f5d1 c9bd b16a febd a24d 173c 0b39 923d
00000080: 5b8b 673e 8f33 543e 8659 ed3d 751d 23be
00000090: 4e04 a33d dc6a 2abe d154 b6bc 7e0f b63d
000000a0: 2c7c 5c3d 193c c53d a0b5 ef3c 64a8 30be
000000b0: 3d9e 623c 3c2a 10be 9660 273e d4a0 f3bc
000000c0: 872f ddbc 17cc 453d d096 2fbe 5c2f 7fbc
000000d0: be09 7cbd 7c63 4bbd 956c 673d 7802 94bc
000000e0: 8454 093d 05ca a3bc ca49 fd3d 18ea d1bd
000000f0: 5e93 013c 36d2 ea3a f712 9b3c db71 173e
00000100: 6bfb e43d 2a07 7a3e dbb2 2d3e dbaf 0dbe
00000110: 55ef f83d 5a2c a7ba 5fd5 3a3e 9377 d23d
00000120: e6e6 0bbd 8817 01bd b763 d13c da27 34bd
00000130: 3d11 62bd b068 25bd 3d7b 943d 3c1c 483e
00000140: 359b 953d 7abd 913d fef6 dfbc 96de 053e
00000150: 452e 223d 4d0c 033e efcd 74bd 0916 13be
00000160: 88e6 9b3d 85b1 a3bb 8b06 b2bd 5433 d0bb
00000170: d03a 123e dd59 e4bd 239c 7d3d bbab f3bc
00000180: e175 b0bd 07e6 a43d 535a 33be 3eb6 5a3d
00000190: 31f3 893d 3bbe b83d 3714 86bd 698f 25be
000001a0: 1415 15be 1605 f43d 9d93 c7bd a2bb d5bd
000001b0: 92a1 ddbd 51ee 873d 979b 1dbe e17d 623d
000001c0: 71df 263c cbde c6bd 494f 14be e99b 32be
000001d0: fc80 16bd 5869 00bc 08eb 46bd 2b1e 9cbd
000001e0: 58f2 1abe 7db6 32bd 596d c33d 5a83 23be
000001f0: 9cc9 b53d 1f6f 4bbd 08b4 09be 98ae ee3d
00000200: 6ee0 3e3c b7db 0fbe 485f 21be a456 c5bd
00000210: 6204 ebbd f269 0ebe edf0 f73c a2e5 1dbc
00000220: 7394 d8bd 71da 2ebe 74de 863d d0e2 f7bd
00000230: aed1 3abd b859 c13c 8819 103c 11a6 bb3c
00000240: 16de 24bb 7b74 8ebd 46e5 03bc adeb 35be
00000250: 0793 5bbe fa3f 28be 5ddb e7bc 45f5 11be
00000260: a143 8f3c e1f7 033e 7360 313c 6e93 993d
00000270: fb60 a6bd c852 e23d 3dba 013e 1c29 213c
00000280: da25 b43d 0dcb 003d 19d2 d8bb 9128 17be
00000290: 2a2a a9bd 3b51 303e 1e52 1bbe cd8c e23d
000002a0: 9e30 8d3d 1e91 353e 5a8a b83d f534 c6bd
000002b0: db9d 983d 2162 8e3c 3cad dd3c 958e 19be
000002c0: 00e0 86bd 8466 f2bd 91c1 f03d ea51 cebd
000002d0: 33b7 0abe 24ad ad3d 8219 0dbe 1135 72bd
000002e0: be0e 203e aaa4 aabc 6a1c c339 8bc9 ed3d
000002f0: e9c9 f6bd 80d6 09bd 0a02 843d 36f5 d2bc
00000300: c1fc 9d3d 1d14 c1bc e73d 2fbd 999f e0bd
00000310: 9f22 66bd 2137 bebc d688 26bd f8eb 31be
00000320: 87e9 473c 00e8 2e3e 1659 853c 26e4 79bd
00000330: 2df5 213e b9b0 453d 0b36 2dbe 83dd 94bd
00000340: 55e4 e9bd 8d9e 8ebc 67cc 11be b1dc ba3b
00000350: af0e 28be 1bcf 1fbd a24f f0bd 4710 58bd
00000360: 0b05 193e 2279 b5bb 6801 983d 3ab2 1a3c
00000370: 5c2f aa3d 47a5 56bd 9cd7 d93d ba79 15be
00000380: 2d75 023e 8863 a9bd b704 fe3d 2dc8 00be
00000390: 711a 42bc 7eaa 26bd 96ea 58bd 828a 183e
000003a0: b9c2 653b e52f 0fbd ffc5 2bbe 62a8 6d3d
000003b0: 0bab 23bd 18da 063e 3079 093d 989d a2bc
000003c0: 3d53 2c3e 49b3 9f3d 7959 52bd 5aae 033d
000003d0: 2b47 033d efef 10be 96cf a63c 09ed 26bd
000003e0: f4ea 223e 3bb0 ef3d 92dc 07be 78a3 89bd
000003f0: 75ba 883d 5ffa 0ebe cb55 143e 2876 123e

bias f4 [16]
-0.13199602 -0.12450079 0.017872237 -0.14582406 0.15758544 0.01335419 0.1169502 0.034215834
-0.026910568 -0.099642746 0.15964985 -0.1563637 -0.09651064 -0.057074066 -0.14264722 0.15127549
00000000: f729 07be 45fa febd cc68 923c e752 15be
00000010: 145e 213e 88cb 5a3c 9683 ef3d e725 0c3d
00000020: 8d73 dcbc 7f11 ccbd 407b 233e ce1d 20be
00000030: 5fa7 c5bd 7fc6 69bd 1d12 12be f6e7 1a3e

weight_ih_l0 f4 [256, 16]
-0.03570174 0.07271862 0.059760597 0.086073965 -0.017282646 -0.078923956 -0.08198405 -0.014617589
0.0641058 -0.07281591 0.09226949 -0.12364488 0.038950592 0.051549323 -0.07244322 -0.043038525
-0.09501943 0.050947484 -0.074722365 0.08076942 -0.117115244 -0.046463627 0.0019760174 -0.02063953
0.0583467 -0.11498871 0.022570558 0.010912004 -0.067925766 -0.091200426 -0.090071276 -0.06273915
0.117840916 0.0371631 -0.09568799 -0.105570346 0.03953623 0.088895656 0.10831213 -0.013421918
-0.018638533 0.031618226 -0.10310647 -0.09664314 -0.01841397 -0.09727837 0.10605634 -0.106394656
0.055923875 0.07186816 -0.0977642 0.024907151 -0.06426793 0.07775958 -0.07870402 0.06865672
0.123507984 0.05080001 0.10491056 -0.0006522423 -0.045095023 0.02865562 -0.08971489 0.112361856
0.118428975 -0.046151564 0.051978666 0.0062478455 0.02373797 -0.10067693 -0.033464048 0.09079519
-0.109215744 -0.09593209 0.09596292 -0.07104726 0.034598358 0.1055088 0.09807515 0.11787744
-0.059345037 -0.12566827 0.08462958 0.12824617 0.09120468 0.076051995 -0.11639743 0.015176881
0.08299558 -0.04732729 0.122973934 0.0813357 -0.029233616 0.042691786 -0.11199866 -0.009339301
-0.06677335 -0.03116303 -0.043189384 0.07634044 0.0182195 -0.104716584 0.037613768 -0.046979863
-0.06216511 -0.014913015 -0.099793725 -0.10752638 -0.08782878 0.11163297 0.047989216 -0.09528941
0.10254163 -0.111008026 0.0053927265 -0.00887666 -0.10346513 0.104037836 0.059817348 0.07376934
-0.006218396 0.06911105 0.072483554 0.05547815 0.07261924 -0.04167083 0.08457174 -0.10524514
0.020263154 -0.04103493 0.013967258 0.08640625 0.014550861 -0.07042556 0.12378297 0.07630151
-0.10540519 -0.0746239 -0.024654036 -0.11701511 -0.06728113 -0.10808717 0.024928702 -0.085212916
-0.028939195 -0.1065283 0.05245862 -0.055303503 0.067405656 0.034238808 -0.07743233 0.10707674
0.050930012 0.034871187 0.10072687 -0.06644362 -0.01338622 0.08940829 -0.00052843493 -0.042355023
0.039995156 -0.12268925 -0.05209615 -0.09291027 0.054967713 -0.097421154 0.12279493 0.06825074
0.017270863 -0.11913815 -0.100825 -0.082655795 -0.085625656 0.07854012 0.120936364 -0.057683803
-0.110430986 0.031479713 0.020902509 -0.065864444 0.07361765 0.051312078 0.085419856 -0.059949316
0.074175894 0.092512704 0.06546207 0.007695674 0.09079432 -0.07414931 -0.10285716 -0.008165387
-0.066862576 -0.013758051 -0.040608674 0.023999635 0.09962078 -0.08563124 -0.072001755 0.016266601
0.0007040095 0.029240448 0.021226762 0.12482562 -0.081213124 0.02208161 -0.012129976 0.036816377
-0.09076304 -0.00909771 -0.050680142 -0.11058384 -0.09518945 0.0755506 -0.03730236 -0.017485542
-0.04176801 0.04439073 0.12008708 0.1076445 0.008845173 0.025449041 0.119235784 0.02755856
0.022555318 0.08007349 0.057564568 -0.09946445 -0.0035311251 -0.1224314 -0.0771069 -0.048499223
-0.010497733 0.11674178 0.11172419 -0.10790204 0.008885817 -0.021762488 -0.097769514 0.018994534
-0.023207515 0.11520802 -0.124232344 0.019541679 -0.1014626 -0.06774461 -0.08467649 -0.10634409
-0.0048061297 0.013472364 -0.08470846 0.059048343 0.07064031 0.04537418 -0.033942312 -0.067840055
00000000: fd3b 12bd 80ed 943d 87c7 743d 8c47 b03d
00000010: 5694 8dbc e2a2 a1bd 41e7 a7bd 9d7e 6fbc
00000020: e749 833d 8220 95bd c9f7 bc3d 8739 fdbd
00000030: a88a 1f3d 6225 533d 1c5d 94bd 2a49 30bd
00000040: 8c99 c2bd 4fae 503d 0a08 99bd 706a a53d
00000050: 1eda efbd a550 3ebd 1280 013b 3b14 a9bc
00000060: f3fc 6e3d 337f ebbd e4e5 b83c 43c8 323c
00000070: aa1c 8bbd 4ac7 babd 4a77 b8bd 627d 80bd
00000080: 9456 f13d 5638 183d 11f8 c3bd 4435 d8bd
00000090: bef0 213d ed0e b63d c0d2 dd3d 9be7 5bbc
000000a0: d6af 98bc 1d82 013d 7c29 d3bd d7ec c5bd
000000b0: e5d8 96bc e239 c7bd 1134 d93d 71e5 d9bd
000000c0: 6f10 653d 9d2f 933d 9938 c8bd 150a cc3c
000000d0: e89e 83bd 6a40 9f3d 932f a1bd e59b 8c3d
000000e0: c1f1 fc3d ac13 503d 59db d63d 3dfb 2aba
000000f0: 8fb5 38bd 31bf ea3c 71bc b7bd f91d e63d
00000100: e48a f23d 6c09 3dbd 95e7 543d baba cc3b
00000110: 2276 c23c b52f cebd 9911 09bd d4f2 b93d
00000120: 81ac dfbd 0b78 c4bd 3588 c43d 3a81 91bd
00000130: 02b7 0d3d ff14 d83d a0db c83d ba69 f13d
00000140: c813 73bd 2faf 00be 4652 ad3d f752 033e
00000150: 85c9 ba3d 26c1 9b3d c761 eebd 74a8 783c
00000160: 96f9 a93d 43da 41bd c2d9 fb3d 5593 a63d
00000170: 567b efbc 95dd 2e3d 8e5f e5bd de03 19bc
00000180: 77c0 88bd 9c49 ffbc 5ae7 30bd 6058 9c3d
00000190: 1041 953c a675 d6bd e510 1a3d f56d 40bd
000001a0: d8a0 7ebd b855 74bc a760 ccbd ca36 dcbd
000001b0: 93df b3bd d49f e43d 5790 443d 1827 c3bd
000001c0: 5901 d23d 2d58 e3bd 78b5 b03b 696f 11bc
000001d0: 87e5 d3bd ca11 d53d 0903 753d 6114 973d
000001e0: b0c3 cbbb 188a 8d3d 4272 943d 0e3d 633d
000001f0: 65b9 943d 08af 2abd f333 ad3d c48a d7bd
00000200: eafe a53c 3e14 28bd edd6 643c c3f5 b03d
00000210: bc66 6e3c 473b 90bd ed81 fd3d f743 9c3d
00000220: adde d7bd 6ad4 98bd 43f7 c9bc 9ea5 efbd
00000230: b0ca 89bd ce5c ddbd 4737 cc3c 1c84 aebd
00000240: e411 edbc 822b dabd dade 563d ed85 62bd
00000250: fa0b 8a3d fe3d 0c3d d794 9ebd 0d4b db3d
00000260: fd9b 503d 17d5 0e3d e449 ce3d 9813 88bd
00000270: e051 5bbc b21b b73d ab86 0aba 767c 2dbd
00000280: f6d1 233d 8044 fbbd c662 55bd bd47 bebd
00000290: d325 613d be84 c7bd e97b fb3d 0bc7 8b3d
000002a0: a07b 8d3c b4fe f3bd 567d cebd 7147 a9bd
000002b0: 815c afbd a4d9 a03d 7cad f73d da45 6cbd
000002c0: a429 e2bd dff0 003d bd3b ab3c f0e3 86bd
000002d0: dac4 963d 9d2c 523d 9bf0 ae3d 6a8d 75bd
000002e0: 88e9 973d 4d77 bd3d fa10 863d fe2b fc3b
000002f0: 5ff2 b93d 98db 97bd c6a6 d2bd 1ec8 05bc
00000300: 3fef 88bd 7369 61bc 4855 26bd e29a c43c
00000310: fb05 cc3d 6e5f afbd a875 93bd 8941 853c
00000320: 478d 383a aa89 ef3c bfe3 ad3c 93a4 ff3d
00000330: 1153 a6bd 7ee4 b43c cfbc 46bc c5cc 163d
00000340: f9e1 b9bd 900e 15bc fb95 4fbd c879 e2bd
00000350: b0f2 c2bd 46ba 9a3d 5cca 18bd d73d 8fbc
00000360: ef14 2bbd 0ed3 353d 37f0 f53d b874 dc3d
00000370: 58eb 103c 827a d03c e431 f43d 7dc2 e13c
00000380: eec5 b83c 92fd a33d d3c8 6b3d 04b4 cbbd
00000390: 736a 67bb 50bd fabd 39ea 9dbd 1fa7 46bd
000003a0: affe 2bbc 5016 ef3d a7cf e43d bffb dcbd
000003b0: d195 113c 3f47 b2bc 623b c8bd 6d9a 9b3c
000003c0: b01d bebc 2ff2 eb3d 876d febd df15 a03c
000003d0: a0cb cfbd b0bd 8abd de6a adbd eeca d9bd
000003e0: bd7c 9dbb 31bb 5c3c a17b adbd addc 713d
000003f0: deab 903d 47da 393d 1807 0bbd baef 8abd

weight_hh_l0 f4 [256, 64]
0.11105597 -0.06590192 0.0018717468 -0.086967885 0.0012312349 0.06693451 0.042899873 -0.12419584
0.09799434 -0.07272217 -0.02081264 -0.034975898 0.04726868 0.04882794 -0.1051326 -0.005421751
-0.1009514 0.10619578 0.058367867 -0.12018954 0.11877004 -0.09400062 -0.024408929 0.11358719
0.049649306 -0.041694198 -0.12191453 -0.05121699 -0.028649632 0.12112344 -0.068787634 0.08833732
-0.023651455 -0.0071566147 0.023395838 -0.084728815 -0.033649247 0.04553597 -0.036301553 0.11733198
-0.11564009 0.01687937 0.10068904 0.06480453 -0.116558164 0.07366334 -0.07276363 0.074084066
-0.0016506684 -0.019433893 0.024527173 -0.04977485 0.039528664 0.10665327 -0.0986863 0.014465093
-0.03171553 0.00066795305 0.09008497 -0.0093898885 0.055343524 0.11798844 0.036041744 0.07236327
0.009790095 -0.030965745 0.122846544 -0.05614689 -0.073792405 0.019136569 -0.028580125 0.080387786
0.06072497 0.040594183 0.0016070928 0.10466747 -0.0020625652 0.08443968 0.00051589566 0.008678776
0.04970815 0.12427524 -0.0786276 -0.05634658 -0.0052085347 -0.06543423 0.108330995 -0.057914898
0.107019424 -0.015884228 -0.027415112 0.07281109 0.09993451 0.01794352 -0.07322905 -0.056069765
0.009540084 0.08192508 0.11690471 -0.028177027 -0.074735485 0.07983179 0.0018831316 0.027695077
-0.10021584 0.107571796 -0.018824734 -0.105988435 -0.07013861 0.010362482 0.11565716 0.04164624
0.056014698 0.08527403 -0.11529421 -0.12401689 -0.1058518 0.09606454 0.030329404 -0.0028037464
-0.07795843 0.090540305 0.114124015 -0.0912123 -0.11929296 0.014887924 -0.02579798 -0.11027932
-0.057460003 0.0597656 -0.053273592 -0.08664771 0.068908386 -0.048271116 -0.012413922 0.035754137
-0.124683276 -0.08811038 -0.042438023 0.09846303 -0.07263607 -0.013002948 0.08174831 0.020100012
0.047652487 -0.03995532 -0.106553674 0.08648363 0.010415374 0.109156564 -0.004793598 0.054391176
-0.053942434 0.028299823 0.1221026 -0.058063958 -0.06514135 0.0670813 0.08757811 -0.04016351
0.04335865 -0.039178357 -0.097731404 0.12032504 -0.10512424 -0.023139633 0.09556718 0.011218943
-0.101101466 0.00058869045 -0.04266339 -0.0061219656 0.034327585 0.063172534 -0.05852664 0.046997238
-0.07163842 0.11408366 0.026886258 -0.07108308 0.08847585 0.065449506 0.086125135 -0.025549535
0.018311052 -0.017622398 -0.087159686 0.03826515 -0.046793234 0.022497563 -0.05439963 0.08344204
-0.10866476 0.09784631 -0.046122037 -0.06080874 0.09262837 -0.07757626 0.12088871 0.12317938
-0.08886771 0.11817574 -0.0014703798 0.058157947 -0.046360254 -0.02149293 0.029416043 0.08523749
-0.110175185 -0.05550702 0.09025164 -0.09821185 -0.10686126 -0.1001969 -0.024902958 -0.050012905
-0.09477101 0.029025976 0.004331699 -0.017512403 0.04573822 0.093777776 0.120338745 0.057941362
-0.0981134 0.006220099 0.11380499 0.030472629 0.09560533 0.09989907 -0.003658047 0.07070957
0.012919004 0.00582296 0.040308226 -0.006595329 -0.005832233 -0.11751007 -0.037307616 -0.010457412
0.09081601 -0.05914255 0.0890204 -0.038767163 0.044727933 -0.0059529375 -0.041774902 -0.11283231
-0.037330855 -0.047149036 -0.07370657 -0.05705553 -0.07258334 0.09154802 0.10982819 -0.11005472
00000000: 5071 e33d 96f7 86bd 6755 f53a 381c b2bd
00000010: 6361 a13a f614 893d c7b7 2f3d 635a febd
00000020: 42b1 c83d 5cef 94bd 457f aabc e342 0fbd
00000030: ce9c 413d ceff 473d c34f d7bd f2a8 b1bb
00000040: 9cbf cebd 2c7d d93d 2513 6f3d ef25 f6bd
00000050: b53d f33d 6683 c0bd 3cf5 c7bc 67a0 e83d
00000060: 125d 4b3d 89c7 2abd 53ae f9bd e8c8 51bd
00000070: a2b2 eabc 910f f83d 88e0 8cbd 32ea b43d
00000080: b2c0 c1bc 0982 eabb a1a8 bf3c 4d86 adbd
00000090: cbd3 09bd ed83 3a3d f0b0 14bd c04b f03d
000000a0: b6d4 ecbd 9b46 8a3c 0e36 ce3d 3db8 843d
000000b0: 0cb6 eebd cedc 963d 1905 95bd 63b9 973d
000000c0: 3e5b d8ba d433 9fbc 36ed c83c b7e0 4bbd
000000d0: cfe8 213d 086d da3d 0b1c cabd fffe 6c3c
000000e0: 25e8 01bd 9219 2f3a 787e b83d 0cd8 19bc
000000f0: e4af 623d eca3 f13d 82a0 133d 3233 943d
00000100: a266 203c e0ab fdbc f896 fb3d 48fa 65bd
00000110: 7920 97bd 4bc4 9c3c de20 eabc 5aa2 a43d
00000120: bfba 783d 1646 263d 16a5 d23a e65b d63d
00000130: 1a2c 07bb b6ee ac3d 2c3d 073a 6d31 0e3c
00000140: c69a 4b3d 0484 fe3d 8207 a1bd accb 66bd
00000150: 5bac aabb 6202 86bd a4dc dd3d 2c38 6dbd
00000160: 002d db3d a41f 82bc a895 e0bc fb1d 953d
00000170: 77aa cc3d 4afe 923c 1df9 95bd 69a9 65bd
00000180: 034e 1c3c 56c8 a73d bd6b ef3d 82d3 e6bc
00000190: eb0e 99bd d97e a33d 69d3 f63a c9e0 e23c
000001a0: f63d cdbd 9a4e dc3d 5436 9abc 7710 d9bd
000001b0: d5a4 8fbd 66c7 293c a9dd ec3d 3f95 2a3d
000001c0: ab6f 653d 27a4 ae3d 5f1f ecbd 91fc fdbd
000001d0: d4c8 d8bd 7cbd c43d 5f75 f83c 0fbf 37bb
000001e0: aba8 9fbd 326d b93d dab9 e93d 84cd babd
000001f0: de4f f4bd 7bec 733c 4956 d3bc 20da e1bd
00000200: 2e5b 6bbd c6cc 743d 6935 5abd 5b74 b1bd
00000210: d71f 8d3d efb7 45bd c363 4bbc ee72 123d
00000220: f259 ffbd 3773 b4bd 7ed3 2dbd fca6 c93d
00000230: 38c2 94bd 510a 55bc a86b a73d c8a8 a43c
00000240: 412f 433d 31a8 23bd d038 dabd 541e b13d
00000250: 3fa5 2a3c 7a8d df3d 9d13 9dbb 48c9 5e3d
00000260: bef2 5cbd 08d5 e73c ee10 fa3d 79d4 6dbd
00000270: d468 85bd ec61 893d 275c b33d 7e82 24bd
00000280: d798 313d 7c79 20bd 6727 c8bd f96c f63d
00000290: 614b d7bd 548f bdbc bab8 c33d a8cf 373c
000002a0: 490e cfbd 5952 1a3a cfbf 2ebd c59a c8bb
000002b0: 159b 0c3d 9a60 813d a1b9 6fbd 2d80 403d
000002c0: 2ab7 92bd b2a4 e93d 9240 dc3c 0194 91bd
000002d0: d432 b53d 640a 863d 6062 b03d 424d d1bc
000002e0: 0f01 963c d95c 90bc c780 b2bd ebbb 1c3d
000002f0: 43aa 3fbd cf4c b83c 25d2 5ebd a9e3 aa3d
00000300: a18b debd a563 c83d 76ea 3cbd 9612 79bd
00000310: f1b3 bd3d 4de0 9ebd 8094 f73d 7945 fc3d
00000320: 4600 b6bd 1f06 f23d c2b9 c0ba 0737 6e3d
00000330: 40e4 3dbd f111 b0bc eaf9 f03c fe90 ae3d
00000340: 87a3 e1bd 545b 63bd dad5 b83d 4b23 c9bd
00000350: 14da dabd 0834 cdbd 4a01 ccbc 55da 4cbd
00000360: 4e17 c2bd e2c7 ed3c edf0 8d3b 2c76 8fbc
00000370: 0058 3b3d 900e c03d 2974 f63d ec53 6d3d
00000380: aeef c8bd f9d1 cb3b 9712 e93d bca1 f93c
00000390: bacc c33d e297 cc3d d8bb 6fbb 2ed0 903d
000003a0: 3baa 533c 87ce be3b 3d1a 253d a11d d8bb
000003b0: 511c bfbb 1fa9 f0bd dfcf 18bd 9155 2bbc
000003c0: bffd b93d 753f 72bd 5450 b63d 51ca 1ebd
000003d0: a334 373d dc10 c3bb 291c 2bbd a014 e7bd
000003e0: 3de8 18bd 591f 41bd 78f3 96bd 0fb3 69bd
000003f0: 93a6 94bd 877d bb3d 9aed e03d 5e64 e1bd

bias_ih_l0 f4 [256]
-0.004338292 0.02705224 0.07053621 0.06505248 0.106804185 0.030725779 0.058491707 0.026659748
-0.07410732 0.013506347 0.018238813 -0.10660447 0.0671335 -0.05398225 -0.111898065 -0.044184297
0.029484656 -0.01844833 -0.048437748 0.019329635 -0.027940914 -0.028833812 -0.014602605 -0.00803695
-0.111804724 -0.0041109063 -0.102852374 0.05400386 0.07403371 -0.103395 -0.046050634 0.053306125
0.100632064 0.10715093 -0.120399445 -0.07555219 -0.09108228 0.09953015 -0.0031946434 0.06205349
-0.028154656 0.009963632 0.059990834 0.030744197 -0.09369594 -0.008182827 0.07896927 -0.0066053676
-0.025833221 0.039892506 0.11184688 -0.018637 0.115314655 0.046039026 0.051660843 -0.08415264
0.023548335 0.07849567 -0.06146868 -0.044859923 -0.12459193 0.034224156 0.027771095 -0.055154618
0.02927505 -0.046032958 -0.03725053 0.0021084824 -0.12433285 0.06999932 0.114320695 -0.019368885
0.08226435 0.0154108815 0.012084393 0.031363178 -0.041572433 0.067515194 -0.008591818 0.10629889
0.11456657 -0.008738535 0.10972764 -0.13247561 0.110084765 -0.0062623564 -0.0076440596 0.025970489
-0.012412913 0.03225706 0.10127091 -0.030470848 -0.12540305 0.029959155 -0.009919299 -0.04580605
0.06715496 -0.0022176048 0.03846581 -0.05685811 -0.020491594 -0.11778949 -0.03502186 -0.056889955
0.049978673 -0.11297409 0.050670817 -0.009207316 -0.10135204 0.032689657 0.109359965 0.012492431
-0.14340068 -0.07066817 -0.07701576 -0.08644158 -0.10347118 -0.041834757 0.026102444 -0.08806473
0.09468032 0.106325954 -0.12724547 0.029916195 -0.048232105 -0.0033566605 0.032558177 0.04777216
0.005558266 -0.09525331 0.107272424 0.01969758 0.014688361 0.09174252 -0.022921463 -0.0819282
-0.064932875 -0.04517716 -0.0076805744 0.017798273 -0.01352437 0.008067837 0.069698684 0.058446657
0.09664444 0.04400401 -0.13432966 -0.11289766 0.004331947 0.015717328 0.007360275 0.06693722
-0.062616654 0.002099693 0.08199844 0.036781076 -0.022252286 -0.04589799 -0.008392881 0.10547186
0.055558126 0.012279294 -0.017915413 0.07034436 0.06941603 -0.031769037 -0.06499753 -0.09724828
0.024484502 0.0061427876 0.037150055 0.10194263 -0.031211995 0.041455626 0.057694636 -0.10403525
0.0150439795 -0.0024994356 -0.11400506 0.114411235 -0.014599198 0.042127263 -0.025834344 0.08539313
0.034564838 0.121856965 0.05356867 0.09835855 -0.02191298 0.070618056 -0.07462596 -0.06496993
-0.07164929 0.08737046 -0.010378979 0.094069906 -0.05192194 -0.030724423 -0.015837861 0.022241019
0.017316097 0.0697679 0.050950363 0.02726936 -0.06176376 -0.02153719 -0.103792764 0.042025622
0.010689575 -0.051321752 0.117750056 -0.08616493 0.072334155 0.07194028 0.02202979 0.018751748
-0.12004904 0.056413382 0.10374316 0.037469205 0.106923945 0.090076655 -0.09394926 -0.02587253
0.10054775 0.07442259 -0.008468105 -0.058499414 0.027122183 -0.0026308415 -0.03407396 -0.11250344
-0.08525731 0.009055218 -0.036233086 0.049943723 -0.10453193 0.008514834 -0.035768356 -0.020923639
0.0805493 -0.0965743 -0.054332443 -0.02805352 -0.035715006 0.01975313 0.09542116 -0.12568441
-0.02281878 -0.000998892 0.075607605 -0.048901197 -0.09858505 -0.085728616 -0.11879008 -0.0975766
00000000: 3b28 8ebb a99c dd3c 4a75 903d 3c3a 853d
00000010: 27bc da3d a1b4 fb3c 0095 6f3d 8b65 da3c
00000020: 94c5 97bd ba49 5d3c 9069 953c 7253 dabd
00000030: 4a7d 893d 7e1c 5dbd d02a e5bd 98fa 34bd
00000040: ce89 f13c f420 97bc a966 46bd 2f59 9e3c
00000050: 58e4 e4bc e334 ecbc c43f 6fbc 69ad 03bc
00000060: e0f9 e4bd c8b4 86bb 44a4 d2bd 2733 5d3d
00000070: fc9e 973d c2c0 d3bd 979f 3cbd 8657 5a3d
00000080: 2f18 ce3d f271 db3d fc93 f6bd 1bbb 9abd
00000090: 5989 babd 77d6 cb3d 395d 51bb cd2b 7e3d
000000a0: 98a4 e6bc 803e 233c f3b8 753d 41db fb3c
000000b0: a8e3 bfbd 4411 06bc a4ba a13d d771 d8bb
000000c0: 31a0 d3bc 5366 233d fa0f e53d 9fac 98bc
000000d0: 172a ec3d 6b93 3c3d 529a 533d 3858 acbd
000000e0: 70e8 c03c 56c2 a03d 95c6 7bbd 0abf 37bd
000000f0: 0e2a ffbd a12e 0c3d 3580 e33c cfe9 61bd
00000100: 3bd2 ef3c 0e8d 3cbd 0394 18bd 772e 0a3b
00000110: 39a2 febd ce5b 8f3d f820 ea3d 7fab 9ebc
00000120: 367a a83d ec7d 7c3c 9efd 453c ad76 003d
00000130: db47 2abd 6845 8a3d b2c4 0cbc 3cb3 d93d
00000140: e1a1 ea3d 132c 0fbc e3b8 e03d b0a7 07be
00000150: 1f74 e13d 7434 cdbb 057b fabb 10c0 d43c
00000160: 885f 4bbc fb1f 043d 1f67 cf3d 009e f9bc
00000170: a869 00be e76c f53c 8e84 22bc 209f 3bbd
00000180: 8a88 893d 3c55 11bb 538e 1d3d 0de4 68bd
00000190: fddd a7bc 9e3b f1bd 1573 0fbd 7105 69bd
000001a0: 70b6 4c3d f65e e7bd 348c 4f3d 48da 16bc
000001b0: a991 cfbd 97e5 053d 1ef8 df3d 0ead 4c3c
000001c0: a1d7 12be 79ba 90bd 70ba 9dbd 4808 b1bd
000001d0: b3e8 d3bd ec5a 2bbd cbd4 d53c 485b b4bd
000001e0: c1e7 c13d 6cc1 d93d a34c 02be cf12 f53c
000001f0: 078f 45bd 6bfb 5bbb b95b 053d beac 433d
00000200: 1d22 b63b 2b14 c3bd a5b1 db3d d25c a13c
00000210: 74a7 703c 81e3 bb3d cbc5 bbbc f9c9 a7bd
00000220: 87fb 84bd b00b 39bd 54ad fbbb afcd 913c
00000230: 5295 5dbc f62e 043c 2fbe 8e3d c365 6f3d
00000240: 85ed c53d 8c3d 343d b78d 09be e336 e7bd
00000250: 01f3 8d3b a0c1 803c 762e f13b 6216 893d
00000260: 293d 80bd 019b 093b ccee a73d c1a7 163d
00000270: 6d4a b6bc 88ff 3bbd 4b82 09bc a101 d83d
00000280: eb90 633d 182f 493c 58c3 92bc b410 903d
00000290: fe29 8e3d 4020 02bd 6d1d 85bd 1b2a c7bd
000002a0: b993 c83c 7049 c93b a82a 183d 4cc7 d03d
000002b0: 4cb0 ffbc 60cd 293d 3651 6c3d 6f10 d5bd
000002c0: 067b 763c 92cd 23bb 7c7b e9bd 7050 ea3d
000002d0: 7931 6fbc a38d 2c3d 8ca2 d3bc 98e2 ae3d
000002e0: dc93 0d3d 2590 f93d d26a 5b3d 3570 c93d
000002f0: da82 b3bc 33a0 903d 7fd5 98bd f40e 85bd
00000300: ddbc 92bd 49ef b23d 980c 2abc b9a7 c03d
00000310: 1aac 54bd c9b1 fbbc 67be 81bc cc32 b63c
00000320: 7dda 8d3c 79e2 8e3d 54b1 503d fe63 df3c
00000330: fffb 7cbd c36e b0bc 4d91 d4bd 0f23 2c3d
00000340: 5423 2f3c c236 52bd f126 f13d 3d77 b0bd
00000350: ee23 943d 6d55 933d d177 b43c 449d 993c
00000360: 45dc f5bd b811 673d 4b77 d43d 4f79 193d
00000370: f1fa da3d 1c7a b83d 7868 c0bd a1f2 d3bc
00000380: fbeb cd3d df6a 983d cfbd 0abc 159d 6fbd
00000390: 572f de3c 326a 2cbb 2391 0bbd 3468 e6bd
000003a0: 629b aebd 565c 143c 2569 14bd ca91 4c3d
000003b0: d614 d6bd cd81 0b3c d781 12bd 0d68 abbc
000003c0: 08f7 a43d bfc8 c5bd b28b 5ebd 7fd0 e5bc
000003d0: e649 12bd 51d1 a13c 2b6c c33d 6ab3 00be
000003e0: 73ee babc 41ed 82ba 29d8 9a3d 9f4c 48bd
000003f0: f5e6 c9bd 7c92 afbd 3748 f3bd 3ed6 c7bd

bias_hh_l0 f4 [256]
0.076703854 -0.0008464524 -0.111604065 0.0970588 0.026453985 -0.031797968 0.07059035 0.09756023
-0.08451779 -0.03870949 0.070269175 -0.054571256 -0.037991203 0.09541508 0.10358925 -0.0073825135
0.10547527 -0.07712886 -0.06316343 0.08405996 0.047439493 -0.09825442 -0.10058742 -0.02144831
0.0129280165 0.076250255 0.014873856 -0.05698236 -0.0065044668 0.06433734 -0.055525612 -0.068333045
-0.08271689 -0.07502541 0.09225395 0.030190216 -0.08070134 0.10312971 0.030321216 0.1035923
-0.11097857 -0.064772464 -0.05435625 0.00092447794 -0.01940028 0.03099797 -0.11367914 0.06784455
0.030364288 0.0616769 0.065467894 -0.055858262 0.09041158 -0.05471079 0.069241665 -0.0888066
0.08134522 0.08432707 -0.096242405 -0.104059786 0.046291668 -0.011818118 -0.10988577 -0.103625245
0.057002652 0.11561275 -0.13354 -0.13041474 0.09857141 0.059006445 0.084091425 0.03521337
0.07063666 0.08072532 0.11243668 0.07257518 -0.027809378 0.08540204 -0.045782145 0.053584684
-0.114606224 0.0320335 -0.007718613 0.048955508 0.12182117 0.03505787 -0.0823689 0.03011015
0.037684463 0.107594855 0.0018399245 -0.045898803 0.10495858 0.000110071785 0.013136627 -0.023334827
-0.034659352 -0.12359088 -0.015295031 0.1193045 -0.04857667 -0.124242306 0.009881634 0.023593036
-0.07725208 0.00495308 0.10145392 0.04614444 -0.010261045 0.1117101 -0.122618005 -0.09454735
-0.00072464906 0.05948135 -0.085522234 -0.0014757129 -0.058363058 0.014094857 -0.07056913 0.042071253
0.08534936 -0.098897666 0.0447159 -0.07699737 -0.10624072 0.11824556 -0.026230317 -0.0685353
0.0731207 -0.024383834 0.091435485 0.030720701 -0.016837655 -0.028404575 0.10661443 -0.061523367
-0.013079945 0.12067407 -0.07993444 -0.0078996895 -0.05209394 -0.09378426 -0.04749792 -0.0470082
0.058480855 -0.05149908 -0.04905641 0.011707259 0.0702311 0.011598238 -0.09985605 -0.047996577
0.11285208 0.072445385 -0.013348379 -0.02901147 -0.09395292 -0.1355479 -0.052062925 0.014833193
-0.13564149 0.10600647 -0.09826352 -0.09496835 0.040948655 -0.03440829 -0.13121308 0.009285677
-0.11737175 -0.00662947 -0.021426037 -0.03330207 -0.00018749305 0.036555804 0.07296853 -0.07558077
-0.07561843 0.04396649 -0.10964602 0.0552822 0.0034684513 -0.051192924 0.0025233943 0.12953371
0.07322617 0.010634956 -0.11714919 0.036360055 -0.08677355 0.02683675 -0.03483357 -0.06993194
0.07483188 0.123334564 0.013317744 0.09036729 -0.043835334 -0.0091438405 -0.07232712 -0.043307643
0.048293557 -0.006379632 -0.09399157 0.1202115 0.041349098 -0.11086588 0.120819755 -0.009381623
0.016099159 0.030390106 -0.12617476 -0.026116127 0.0034542612 0.089946724 0.009490432 0.06229139
0.025631554 -0.087873116 -0.009216716 0.043232094 0.11601391 0.069358066 -0.03914088 0.020673154
0.12377799 0.05002151 -0.116946146 -0.017993268 0.023698252 -0.007304033 -0.0158382 -0.0068571274
-0.017381534 0.07997835 -0.08505015 -0.046116523 -0.037831288 0.030026807 -0.11284816 -0.08690872
0.025675979 -0.006322287 0.0013961581 0.10860972 0.023265045 0.09957824 -0.07265609 -0.055889226
-0.023499077 0.004190225 -0.09583963 -0.11891778 -0.08896182 0.118472174 -0.012846269 0.012223791
00000000: e916 9d3d 76e4 5dba ac90 e4bd c4c6 c63d
00000010: 07b6 d83c 963e 02bd ac91 903d a8cd c73d
00000020: aa17 adbd d88d 1ebd 49e9 8f3d 1c86 5fbd
00000030: aa9c 1bbd fb68 c33d 9a26 d43d 03e9 f1bb
00000040: 6b03 d83d bcf5 9dbd d45b 81bd a127 ac3d
00000050: ea4f 423d 9d39 c9bd c700 cebd 5eb4 afbc
00000060: 08d0 533c 1829 9c3d 79b1 733c 5666 69bd
00000070: 6c23 d5bb 4cc3 833d d36e 63bd 32f2 8bbd
00000080: 7967 a9bd eca6 99bd a4ef bc3d 7951 f73c
00000090: bf46 a5bd ab35 d33d 3364 f83c 3328 d43d
000000a0: bc48 e3bd 6da7 84bd a9a4 5ebd aa58 723a
000000b0: 56ed 9ebc 74ef fd3c 9cd0 e8bd 15f2 8a3d
000000c0: 87be f83c eba0 7c3d 0814 863d a2cb 64bd
000000d0: b529 b93d 6c18 60bd 93ce 8d3d 3ce0 b5bd
000000e0: 5398 a63d acb3 ac3d bd1a c5bd 4c1d d5bd
000000f0: 559c 3d3d c8a0 41bc ca0b e1bd 7939 d4bd
00000100: 9d7b 693d 61c6 ec3d b6be 08be 718b 05be
00000110: cfdf c93d beb0 713d 2038 ac3d e53b 103d
00000120: f4a9 903d 5153 a53d 3445 e63d 4ca2 943d
00000130: 7ed0 e3bc 44e7 ae3d 0f86 3bbd 9d7b 5b3d
00000140: abb6 eabd 8f35 033d 6bec fcbb 9285 483d
00000150: 617d f93d d798 0f3d 07b1 a8bd 90a9 f63c
00000160: 065b 1a3d b15a dc3d 9f29 f13a 6200 3cbd
00000170: 86f4 d63d 57d6 e638 023b 573c ae28 bfbc
00000180: f7f6 0dbd 371d fdbd 0298 7abc eb55 f43d
00000190: 55f8 46bd c072 febd 94e6 213c 2f46 c13c
000001a0: 5736 9ebd 724d a23b 13c7 cf3d f401 3d3d
000001b0: f11d 28bc 44c8 e43d 261f fbbd 0ba2 c1bd
000001c0: 60f6 3dba b7a2 733d 4826 afbd b56c c1ba
000001d0: 1a0e 6fbd 1dee 663c 8c86 90bd e852 2c3d
000001e0: a5cb ae3d dc8a cabd 0528 373d ccb0 9dbd
000001f0: bc94 d9bd ba2a f23d f6e0 d6bc 3c5c 8cbd
00000200: 4ec0 953d 9bc0 c7bc 8742 bb3d fba9 fb3c
00000210: 1fef 89bc b6b0 e8bc ab58 da3d edff 7bbd
00000220: 444d 56bc f823 f73d abb4 a3bd b36d 01bc
00000230: 7560 55bd f611 c0bd 2e8d 42bd ac8b 40bd
00000240: 9f89 6f3d b3f0 52bd 60ef 48bd cecf 3f3c
00000250: 53d5 8f3d 8906 3e3c 5481 ccbd 0f98 44bd
00000260: fe1e e73d 3f5e 943d 29b3 5abc 76a9 edbc
00000270: 636a c0bd 12cd 0abe ef3f 55bd ec06 733c
00000280: 9ae5 0abe ec19 d93d 623e c9bd c47e c2bd
00000290: c7b9 273d b5ef 0cbd b95c 06be f422 183c
000002a0: 9a60 f0bd 063c d9bb a885 afbc c067 08bd
000002b0: c899 44b9 8abb 153d 8670 953d 17ca 9abd
000002c0: d6dd 9abd 3516 343d 188e e0bd 976f 623d
000002d0: f54e 633b acaf 51bd 885f 253b 7ca4 043e
000002e0: 9af7 953d 3d3e 2e3c eaeb efbd 48ee 143d
000002f0: 55b6 b1bd bed8 db3c a5ad 0ebd 7a38 8fbd
00000300: 7541 993d d596 fc3d ab32 5a3c 7c12 b93d
00000310: ae8c 33bd 0cd0 15bc 3e20 94bd 5b63 31bd
00000320: 77cf 453d 3b0c d1bb a77e c0bd 7231 f63d
00000330: ac5d 293d a70d e3bd 5970 f73d 61b5 19bc
00000340: 62e2 833c acf4 f83c f533 01be 7df1 d5bc
00000350: e360 623b fd35 b83d c27d 1b3c 4225 7f3d
00000360: 44f9 d13c d2f6 b3bd b501 17bc 2314 313d
00000370: b398 ed3d 9a0b 8e3d 3052 20bd bf5a a93c
00000380: 517f fd3d 5be3 4c3d 7681 efbd 9e66 93bc
00000390: d622 c23c ab56 efbb 1dbf 81bc c1b1 e0bb
000003a0: b863 8ebc b0cb a33d c62e aebd aee4 3cbd
000003b0: fbf4 1abd c7fa f53c f01c e7bd 33fd b1bd
000003c0: 6e56 d23c 302b cfbb 4bff b63a c66e de3d
000003d0: 5696 be3c adef cb3d b7cc 94bd 1aec 64bd
000003e0: 2381 c0bc 284e 893b 9147 c4bd 2a8b f3bd
000003f0: 9d31 b6bd 8aa1 f23d 2879 52bc 4c46 483c

weight f4 [1, 64]
-0.0073586176 0.057669602 0.048042513 -0.19146594 0.040042233 -0.15233555 0.09608436 0.19354719
0.080783896 -0.121903196 0.08195958 -0.08954887 0.09211199 0.08100511 -0.0851072 0.053188443
-0.0043003033 0.046619426 -0.0575821 -0.21221969 0.018392798 0.2418733 -0.071720876 -0.070557795
-0.0960818 -0.02505327 -0.008525266 -0.033780884 -0.018782865 -0.033594802 -0.014931489 -0.018676938
0.065448254 -0.11521955 0.023990553 0.07378651 0.021580989 0.13800359 0.107874654 -0.06672622
0.014141961 -0.13358496 0.09388003 -0.0014476705 0.11959652 -0.022467809 0.019702759 0.109094955
0.17295763 0.11664647 0.05945671 -0.06568243 0.12188425 0.16402684 0.1797618 -0.006695332
0.071196005 -0.010470809 0.06108999 0.033949066 -0.062225673 -0.030996667 -0.015671654 0.113794915
00000000: 8f20 f1bb f636 6c3d 3ac8 443d a60f 44be
00000010: 5303 243d dafd 1bbe e0c7 c43d 3c31 463e
00000020: 0772 a53d 62a8 f9bd 6dda a73d 6665 b7bd
00000030: 36a5 bc3d 02e6 a53d af4c aebd 20dc 593d
00000040: 8fe9 8cbb 03f4 3e3d 35db 6bbd 1e50 59be
00000050: 7eac 963c a2ad 773e 65e2 92bd 9b80 90bd
00000060: 89c6 c4bd 843c cdbc 8fad 0bbc d35d 0abd
00000070: 86de 99bc b49a 09bd 34a3 74bc 6100 99bc
00000080: bc09 863d 3af8 ebbd d687 c43c 621d 973d
00000090: 9dca b03c d050 0d3e 63ed dc3d c2a7 88bd
000000a0: afb3 673c 7fca 08be 2c44 c03d c3bf bdba
000000b0: 05ef f43d 690e b8bc ae67 a13c 2d6d df3d
000000c0: ce1b 313e 58e4 ee3d e188 733d 8384 86bd
000000d0: 739e f93d a7f6 273e 7a13 383e 8464 dbbb
000000e0: 36cf 913d c28d 2bbc 7f39 7a3d 2d0e 0b3d
000000f0: 59e0 7ebd b9ec fdbc d761 80bc 4f0d e93d
