model/2580.343581773559_weight.pth (torch, 131983 bytes, 7 tensors)

weight f4 [16, 32, 1]
00000000: d33a f63d edf5 483e 6e0c af3d fe22 d03d
00000010: e489 693c 386c e6bd dc3e 76bd 3c11 cdbc
00000020: 0355 fbbd 75c4 ad3c c355 d53c 8d71 07be
00000030: 00e8 e7bc 546a ab3a b143 31be 81f8 ad3d
00000040: 3a31 17be e998 0cbe 1bc7 0bbe c464 1e3e
00000050: d4a2 3cbe c937 03be b56f eb3a a4cc f4bc
00000060: 8c4e b9bd 90c4 3e3d b1f0 1d3d 4c8f 5e3e
00000070: 417c da3b 5387 4a3e b029 0dbe b6d3 323e
00000080: 69e3 3a3e 61d6 053d 0628 bfbd e71a a9bd
00000090: 8a4e e23c 39d7 063e 826b ba3d a667 ebbd
000000a0: 6566 1fbe a777 cf3d 938c 3dbd 56dc ee3c
000000b0: 510d 833d 168f d13d 14c2 60bb 3b2a 0abd
000000c0: ae14 0fbe 855d fdbd 207a 703e 4665 96bc
000000d0: b575 713e f896 043e 3920 7ebd 2247 e23b
000000e0: 10ac 003e 9ace eebd 8aa2 8a3d 6c74 653d
000000f0: 1b5e 41bd a1ee 33bd 7e7e 04be f680 6a3c
00000100: ace2 e63a 2bc8 8c3d ea95 133e 89b5 323c
00000110: 1496 e0ba 8f26 0a3e 4986 58bd 6865 aa3d
00000120: 378f da3c 88bb 56bc 2155 1a3e ec53 713d
00000130: 9f3a 263d 37f6 123d 5c76 403e bffa 80bc
00000140: 3490 2ebe 5372 303d 90e1 4a3d f9a7 cfbd
00000150: 6149 053d 8ad8 063e 89c2 c93d 9630 9abb
00000160: 5bc8 473d 06e1 87ba ddda 38bc 38aa 0ebe
00000170: 5cc9 213d 089d 00bd 2149 f5bd d4f8 163e
00000180: b5bd 3bbe 8ea0 4ebe ed22 52be 28db 17be
00000190: df8f e1bd b5fc e03d 5256 f4bc 0755 e4bd
000001a0: e8a5 f9bd f92d 4ebe 0ba3 90bd 7114 dabd
000001b0: b23a 3ebe bdf5 a63d c261 f43d 8b84 e4bb
000001c0: 4826 e3bd 018d a23d f1f0 e43d 208c 09bd
000001d0: 9939 043c 6a64 423d 0559 f93d e2d7 6bbd
000001e0: f858 b5bd afaf 11be 10ed 443e 2141 14be
000001f0: 97d2 e3bd 541e 3f3e 0b38 efbd b5ac cebd
00000200: 5e30 29be 8278 89be 27ae d0bd eb38 b1bd
00000210: 5016 f23d 9917 cdbd 05fb 2bbe 2ab0 c0bc
00000220: 9839 59bd d0d2 a5bd d648 b7bd 3ce4 aa3d
00000230: 35b3 163e 53e1 f93d 5d1b 0a3e d1df d3bd
00000240: 93cc 02be 41a0 48be 6cb6 833d 9cb2 5cbd
00000250: f6cf 2dbe 1263 273e 1919 aabd ed09 653d
00000260: 5b18 6ebd 7ab1 d0bd e9ff 193e 18f7 503b
00000270: 037e 2ebe a966 2cbd 86d8 df3b a65b 023d
00000280: c8c9 2bbe f173 52be 38b8 a3bd fd94 7c3d
00000290: 801a 42be 71d8 1c3e 3c48 ff3d 9274 66bc
000002a0: f0c1 013e 5989 223e 19e0 07bc 4a50 49bd
000002b0: 82db ebbd 7f86 9e3d 65cc 05be 6495 2bbd
000002c0: 5603 91bd f1a1 203e f295 13be d4c7 3a3e
000002d0: 00ab 003d dd21 353d 9591 efbb 2922 9cbd
000002e0: 0d2c b2bd 3c93 21be 5b2d a23d 29a6 053d
000002f0: bac3 1bbe 98f4 363e b2b4 613c 4b05 d33c
00000300: 463a b8bd e514 40be a52d 63be 4e41 763d
00000310: f358 f7bc c40f 8dbc 07b1 80bd 4302 253e
00000320: d413 e33d 718d 283e 3250 dbbd e792 473d
00000330: b895 b7bd 28f6 c13d 6f42 8c3d 7c1f 553d
00000340: a2f0 303e ba58 07be 4b62 ffbd 8b8e abbd
00000350: 3f65 1f3e 7a06 85bd 293a 093e a830 0c3e
00000360: e5ac c13d 1d98 943d 4e26 3ebc f004 5d3d
00000370: e213 033d 8b21 71bd 9b53 cdbd 9efb d93d
00000380: a220 72bd 8411 02be af81 1cbe c014 43bd
00000390: cce8 313b df36 0c3d 1e57 2d3e d796 08bd
000003a0: 4385 763c 4def 81bc d2da 0b3c c7f5 183e
000003b0: a81f 55bd 13a7 633d aabc 453d e2ad 8b3d
000003c0: 596a bd3c 7011 e63d 16ff 1f3e 9296 fe3d
000003d0: 2b40 60be eaf5 003e 1ae0 cebd f78f d4bd
000003e0: 0e39 983d f4ec b23d cec1 a03d c906 b0bd
000003f0: 2f44 4e3d 90f1 1a3e 34c2 22bd 39a5 a93a
0.120229386 0.19625063 0.08547293 0.10162924 0.014254067 -0.1125111 -0.06011854 -0.025032632
-0.12272074 0.021211842 0.026041871 -0.1322691 -0.028308868 0.0013077953 -0.17310978 0.08494664
-0.14764872 -0.13730206 -0.13650171 0.15468127 -0.18421489 -0.12814249 0.0017962368 -0.029882737
-0.09048185 0.046574175 0.03855962 0.21734351 0.0066676443 0.19778185 -0.13785434 0.17463574
0.18250813 0.03267515 -0.09333806 -0.08257084 0.027625341 0.13168038 0.09102537 -0.11494379
-0.15566404 0.10130244 -0.04627664 0.029157799 0.06399024 0.102323696 -0.0034295367 -0.03373168
-0.13972732 -0.12371353 0.23484087 -0.018358838 0.23580058 0.12948215 -0.06204245 0.0069054523
0.12565637 -0.116605 0.06769283 0.05601923 -0.047208887 -0.043928746 -0.12938878 0.014312973
0.0017615161 0.068741165 0.14412656 0.010907539 -0.001713457 0.13491271 -0.05286244 0.08320123
0.026679618 -0.013106234 0.15071537 0.058917925 0.04058325 0.03587934 0.1879515 -0.015744565
-0.17047197 0.043077778 0.04953152 -0.1013946 0.032540683 0.1316854 0.09851558 -0.004705499
0.04877506 -0.0010366745 -0.01128265 -0.13932121 0.039498672 -0.031399757 -0.11976839 0.14743358
-0.18334086 -0.20178434 -0.20521136 -0.14829695 -0.11013769 0.109857 -0.029826317 -0.1114903
-0.12189847 -0.20134725 -0.07062348 -0.1064843 -0.18577078 0.081523396 0.11932708 -0.006973808
-0.11091286 0.079370506 0.111787684 -0.0335809 0.008070373 0.047459044 0.12175182 -0.05757893
-0.0885486 -0.14227174 0.19231057 -0.1447797 -0.11124151 0.18663913 -0.11680611 -0.10091535
-0.16522357 -0.26849753 -0.10189467 -0.08653434 0.11820662 -0.100142665 -0.16794975 -0.023521502
-0.05303344 -0.0809685 -0.08949439 0.083443135 0.147168 0.1220118 0.13487001 -0.10345424
-0.12773351 -0.19592382 0.064312786 -0.053881273 -0.16973862 0.16346386 -0.08305568 0.05591767
-0.058128696 -0.10190101 0.15039028 0.003188556 -0.17040257 -0.04209009 0.0068312315 0.031825684
-0.16776192 -0.2055204 -0.07994121 0.061665524 -0.18955421 0.15316941 0.124649495 -0.0140658785
0.12671638 0.15872706 -0.008293175 -0.049148835 -0.11516477 0.07740497 -0.13066252 -0.041890517
-0.070807144 0.15686776 -0.14412668 0.18240291 0.03141308 0.044221748 -0.007311056 -0.07623703
-0.08699808 -0.15778822 0.07918807 0.032629166 -0.15211383 0.17866743 0.013775991 0.02575936
-0.0899549 -0.1875797 -0.22185381 0.060120873 -0.030193781 -0.017219432 -0.06283765 0.16114144
0.11087766 0.16460206 -0.107086554 0.04872408 -0.089641035 0.09470779 0.06848609 0.05203198
0.17279294 -0.1321744 -0.1246992 -0.08376797 0.15565966 -0.06495376 0.13401093 0.13690436
0.09456805 0.07255576 -0.011605812 0.053959787 0.032001384 -0.05886988 -0.10025712 0.10643695
-0.059113152 -0.12701994 -0.15283845 -0.04762721 0.0027146814 0.034232017 0.16927764 -0.033346977
0.0150464205 -0.015861178 0.008536058 0.14937507 -0.052032143 0.055579256 0.048275627 0.06820275
0.023122 0.11233795 0.15624651 0.12431063 -0.21899478 0.12593809 -0.10101338 -0.103790216
0.07432757 0.087366015 0.07849465 -0.08595044 0.050357994 0.15131211 -0.039735988 0.0012942917

bias f4 [16]
00000000: af1f b23d f27f 243d 70d6 0e3d a899 8ebd
00000010: b6ef 153e 5b67 d7bd 54d8 c43c 3c4d 103e
00000020: b3b6 0abd 24d5 83bd 34b8 de3d 4fc9 963d
00000030: 0322 253d dffb 81bc 7595 dabd e776 1f3e
0.086974494 0.04016108 0.034872472 -0.06962901 0.14642224 -0.1051776 0.024028935 0.14091963
-0.03386564 -0.06437138 0.10874978 0.07362615 0.04031564 -0.015867172 -0.10673038 0.15572701

weight_ih_l0 f4 [320, 16]
00000000: 95d9 69bd 147d a33d 9f92 843d 6d09 ab3d
00000010: 37dc b6bd 5ed9 bf3d c984 79bd caf2 083d
00000020: 2791 a8bd b079 80bd 21f2 3e3d 71bd d93d
00000030: b5d3 8ebd 6067 d8bc 7995 b93d 56b3 fd3d
00000040: 7893 03bd 1e92 bd3d e2fe 343d 0057 0bbd
00000050: 9674 d83d d668 0c3e 25cb 493d 1616 6d3a
00000060: b298 cb3d 58a1 963d 6023 0abc a0d9 00bd
00000070: 450e b6bd daaf 54bd 0012 e23d 7476 4a3d
00000080: 03fd 3cbc b5ec 2bbb eca0 e2bc bad5 62bc
00000090: 86d8 15bd 9553 a13c 43f9 29bd 4037 b23d
000000a0: 85bc e73d 7633 913d a9bd 1bbd d85b ec3c
000000b0: 8393 b3bd c76c 73bd 49b2 ca3d 4147 093e
000000c0: 3af3 cdbd de3c 02be e339 cebd d37c 15bc
000000d0: e4d4 353d c1e8 d13c f432 a13d a02c 0d3e
000000e0: 2145 3e3d 661f 903d fc16 513e 6044 f43d
000000f0: 43b7 23be 679a 313d 53fc fcbb 53e5 f83d
00000100: 884d 863d 531a 143c 5778 99bd a04f cd3d
00000110: c2d1 8abd 4181 b23d 7758 f139 b492 07bd
00000120: 8f09 9fbd 97d5 92bb 90c5 0e3e f9f3 b7bd
00000130: fdf1 3dbe b2fb c93d 0bff ad3d 1108 f93c
00000140: b1cf 2dbc e769 db3c 4fb1 2d3c 65ff a73d
00000150: ab8b bb3d 23d0 583d 0084 533c 49e9 a03d
00000160: d193 783c bd91 9cbd dc68 273e bde4 d43d
00000170: 1b74 1bbe ee7a e3bd 4f6a b3bd 3c3a 263d
00000180: aa52 933d b990 203d d57a 903c 5ae5 a2bc
00000190: 4f7a ddbc 2650 483e 37a0 5ebd 1f99 4ebd
000001a0: 23a2 ebbc 6b06 a2bd 4441 f13d ab0e 8c3d
000001b0: 4a5c bcbd 26d8 3c3d 0e13 153c ceb6 073e
000001c0: 3c90 fd3d 0dce 743d dab5 aa3d 0a26 503d
000001d0: 0bc3 94bd d0cb e3bd e01d 223e 2c8f 1a3e
000001e0: 30e7 07bd 54e6 073d 7337 103e 1bef d33d
000001f0: 5b69 5fbd effa a83c ca32 dc3c 58f7 b83d
00000200: 6539 3c3d 102a aabb 73e5 cbbd 3c8a 603d
00000210: 125a 273e 9e23 373e a7a0 5e3b 54a4 64bd
00000220: 9924 5f3b cad2 7c3d 82a6 173d 977c b43c
00000230: 230c 41be 8e4a 943d 6b48 5f3c fe31 163e
00000240: 3430 2c3d 91db 993c 7e1d 18bc 2c84 da3b
00000250: 4645 96bc aadf 003e 5282 9d3d 94cb 1ebd
00000260: 2ebb 26bd 69bb 15bd 1920 a33d df12 e83c
00000270: dc5d dbbd 0646 0f3d 7c34 a73c a3e9 553d
00000280: 1b66 9ebd 1ef1 0fbd 9a62 dbbc abb5 84bc
00000290: 2423 56bd bdfe 313e 8016 483d b23c 13be
000002a0: c273 b8bd 3ec1 03be b3fc 9bbc 1295 503d
000002b0: 63f2 89bd e546 25be 02b2 e43d 92ae a93d
000002c0: a7f1 1a3d f6f8 233c d1cc adbd a634 ec3c
000002d0: 1fd5 fabc fee8 103e f270 4e3d 77ff 36bd
000002e0: 54ea 423d 3c9b 29bc 6993 0b3e 5e06 a83d
000002f0: 2de9 0dbe d2e1 5fbd 6061 d33d 29ec 79bd
00000300: c401 013e 28cc 74bc d247 7abd 8472 c83d
00000310: 69ed 213e 8b9d cabd 78a9 b13b ad00 a5be
00000320: 00e9 6d3d feee 4c3c ebb5 35be 8bfe fe3d
00000330: 8ee5 a8bd 85cb a63d 149e be3c 474a 283d
00000340: 2499 dcbd d108 e5bc 2caa ae3d 2950 373d
00000350: 9d19 743c 1426 b93d 0ceb cc3d 71f9 773d
00000360: ac88 f3bd 3656 e73d d598 d8bd f7a3 24be
00000370: 51cb b5bb b9e9 703d b8ff d03b d628 d6bc
00000380: d621 1e3d 1778 d3bc b074 5f3d 2d10 dd3d
00000390: 828a 093d 00f4 40bd f628 103e 8a82 14be
000003a0: 4579 f1bd b9fc 5f3d c4a9 9e3d c35d 003d
000003b0: 083e 783d 089a b63d 6180 113e bdc5 b5bd
000003c0: 16e9 163d b620 28bd e218 5a3d ed21 543d
000003d0: 6c07 a2bb b43d 04be bb71 313e 2ef1 c3bd
000003e0: 2b2e 1ebe ebc4 863d ba03 063d 239b ccbd
000003f0: 38c7 77bd c0b7 a1bb a00a 4abc 3b86 c63c
-0.057092268 0.07982841 0.06473278 0.08351407 -0.089287214 0.093676314 -0.06091765 0.033434667
-0.082308106 -0.0627321 0.04661763 0.10631836 -0.06973974 -0.02641648 0.09061713 0.12387721
-0.03212306 0.09256385 0.044188388 -0.034018517 0.10569112 0.13711867 0.049266 0.00090441236
0.09941234 0.07354993 -0.008431286 -0.031457543 -0.088894404 -0.051925518 0.110385895 0.049429372
-0.011534932 -0.0026233618 -0.027664624 -0.013844902 -0.036583446 0.019693175 -0.04149748 0.08701944
0.11315254 0.070898935 -0.03802267 0.028852388 -0.0876837 -0.05942991 0.098972864 0.13406087
-0.100561574 -0.12718531 -0.10069635 -0.009123999 0.04439248 0.025623681 0.07871047 0.13786554
0.046452645 0.07037239 0.20418924 0.11927104 -0.15987878 0.04336014 -0.007720509 0.12153115
0.06557757 0.009039479 -0.07493656 0.10024953 -0.067782894 0.087160595 0.00046033013 -0.03309889
-0.07765495 -0.0044810283 0.13942552 -0.08982081 -0.18549342 0.0986246 0.08495911 0.030399354
-0.0106085995 0.026783897 0.010601356 0.082030095 0.09157499 0.05293287 0.012909889 0.078569956
0.015171961 -0.07644985 0.16348594 0.10395191 -0.1518101 -0.11107431 -0.08760511 0.04058288
0.07193501 0.03920052 0.017636696 -0.019884754 -0.02703586 0.19561824 -0.05435201 -0.050438996
-0.028763836 -0.079113804 0.117800266 0.06838735 -0.0919729 0.046104573 0.009098781 0.13253328
0.12381026 0.059766818 0.08335467 0.050817527 -0.07263764 -0.111228585 0.15831709 0.15093678
-0.033179462 0.033178642 0.14083652 0.1034834 -0.054543834 0.020627467 0.026879687 0.09031552
0.045953173 -0.0051930025 -0.09955873 0.05481933 0.16342953 0.1788468 0.0033970268 -0.055820778
0.0034048914 0.06172446 0.03702403 0.022032065 -0.18852286 0.07240783 0.013628106 0.14667508
0.042038158 0.018781455 -0.009284375 0.006668588 -0.018343579 0.12585321 0.07690872 -0.038768366
-0.040705852 -0.03655568 0.079651065 0.028329311 -0.10711262 0.03497889 0.020410769 0.052224766
-0.07734319 -0.035142057 -0.026780415 -0.016199907 -0.052279606 0.17382331 0.048849583 -0.14378622
-0.09006454 -0.12866685 -0.019041395 0.050923415 -0.06735685 -0.16140325 0.11166765 0.0828525
0.037828114 0.010008087 -0.08486331 0.028833698 -0.030619202 0.1415138 0.05040068 -0.044677224
0.047586754 -0.010351952 0.13630451 0.082043394 -0.13858481 -0.05465872 0.10321307 -0.061016236
0.1259833 -0.014941253 -0.06110365 0.09787467 0.15813221 -0.0989333 0.0054218136 -0.32227078
0.058083534 0.012508152 -0.17745177 0.12450894 -0.08246909 0.08144287 0.023268737 0.04108646
-0.10771397 -0.027958306 0.085285515 0.04475418 0.014898685 0.09040466 0.10005769 0.06054062
-0.118913025 0.1129574 -0.105760254 -0.16078173 -0.005547919 0.058816645 0.0063781403 -0.026142519
0.038606487 -0.0258141 0.05455464 0.10794101 0.033579357 -0.047107697 0.14078125 -0.14502922
-0.117907085 0.054684374 0.07747224 0.03133942 0.060606033 0.08916098 0.14209129 -0.08875606
0.03684338 -0.04104682 0.053246386 0.051790167 -0.0049447324 -0.12914163 0.17328541 -0.09567486
-0.15447299 0.06580528 0.032718398 -0.099905275 -0.060492724 -0.004935235 -0.012331635 0.024233928

weight_hh_l0 f4 [320, 80]
00000000: c00f 323d 32cb af3d c0ee 123e ecf3 afbd
00000010: f69e 78bd ebc2 87bd 007c e5bc f1e5 053c
00000020: f315 8e3d b113 3bbd 02f4 cabd c8c6 fa3c
00000030: bb57 fabd 6460 603d 5ece 2b3d 82b1 043d
00000040: f8cd 8bbd 109b 73bd 45bb 81bd 9bc4 443d
00000050: 1654 64bd 47a4 d23d 3f1d 59bc a382 0dbb
00000060: 0082 e83d 0c4f ee3c bd8e b9bc 8cb7 bcbd
00000070: c242 a4bd f775 9b3d 8fac 81bd ee3c b3bd
00000080: 3748 aa3d 644d 853d dcff b53d dd05 a23d
00000090: 412c 88bd f668 33bc 7ee3 87bd 9a8e f3bd
000000a0: 6acc 083d fa1d 23bd aa6d e83c 2160 1cbd
000000b0: 242c e2bc fd6e 8c3d e25c 833c ca9a 3b3d
000000c0: 2c3b 82bd 252e 9d3d 91f1 023e ccb8 153c
000000d0: c0b0 7ebd c058 e2bd bf26 0c3e 5403 27bd
000000e0: ba47 103e 7904 b6bd 4b51 0b3e f325 643d
000000f0: 35a6 30bd fac0 b5bc 3007 16bc 28d3 ccbc
00000100: daae c3bd 6714 883d 9ebe e73d 65d6 03be
00000110: c21a a1bd 5eaa cfbd 06a3 e5bb 36e8 80bd
00000120: 25bd 83bd b618 77bd e03a 4a3d b325 ac3d
00000130: 44f5 e3bc 70df 45bd fac8 85bd 3d8e cebc
00000140: 3545 803c 9f30 dfbd 73e6 f7ba 83d5 fd3d
00000150: 92cf f0bb a371 f23d da8b bebd 8869 20bd
00000160: 80e3 58bd 3842 06bd 6410 4c3d 24a0 1abd
00000170: dc56 4c3d c32a 4a3d ae76 9cbd 742f 953c
00000180: f2f7 1dbd 5050 babd b10c 383d 1aab dbbc
00000190: b25c 95bc 41b6 a63b d225 48bd 4c94 ba3c
000001a0: e271 093c 2529 ab3d c295 cd3d ac40 883d
000001b0: 439b 3a3d 4028 0fbe 04ba 90bd 9910 93bd
000001c0: d9f6 823b 9ec1 a5bd d702 64bd 28a8 08bd
000001d0: 6958 3c3d cffe d3bd c5c8 cdbd fb48 dfbd
000001e0: 3434 223e 1ee9 06be a501 d0bd 10f9 d73d
000001f0: 248f 513d a6cf c5bd 01f6 f33c 3978 f73c
00000200: 0c0a e2bd 6b7d 9a3c c230 5cbd df1b 99bd
00000210: 4907 b5bc 33c7 14bd d5a3 1dbd 65c1 62bd
00000220: 4cb9 5bbd 0aa0 1c3a 3e63 99bd 9b5b aabd
00000230: a813 8fbc d424 913d 5974 a7bd 1726 8f3d
00000240: 945f 523d b776 c2bd b2e6 a5bd cef7 08be
00000250: a09c a83d 30f9 81bd c150 903d bcbe 57bd
00000260: 24c2 dfbc 3c5b 16bc abad c5bd 43e6 233e
00000270: 30e5 983d ce71 4e3d 524c f8bc ef45 1d3c
00000280: 41c3 83bc 588f 063e 3fba afbd 621c 84bd
00000290: 7d1a 8a3d b0d3 e03d b2f5 7c3d 8677 12bd
000002a0: 6cb1 8e3d 1f69 2f3d a85d c43d e82a e13d
000002b0: c926 da3c 65ce a83d 4a12 c4bd ab24 933d
000002c0: 2723 64bd 5025 aebd d966 013e 5380 673d
000002d0: 7440 503d 271a c63d a85e 883d ffdc d83d
000002e0: c3df 6a3c 5321 96bd 5cd6 1ebd 2be1 e6bc
000002f0: 90ac c73c 2455 a03d d2dd a0bd e732 d63d
00000300: 34a7 bbbd 78dd 803c 0440 03bd fd49 a5bd
00000310: 41d7 34bd 9728 973d 83ab 4a3d 98fd 83bc
00000320: d830 5ebd 98c0 53bd c2ee a6bc 74d5 1b3d
00000330: 7d3b 1c3d 7013 5fbd 167b 00bd ad04 85bd
00000340: 6ec4 dbbc 6249 2f3d 6e4b d53d 2fcf 40bd
00000350: 17b4 c7bd 6def 9ebd b965 b43d 0339 123d
00000360: 5bbf 103d 4c7a e8bc 5c0a 9ebd 03ff 78bc
00000370: d8a5 bebc 966c b63d a1e4 e3bc 2a7b 0e3e
00000380: b3dc f4bc 2911 1d3d 0278 a2bd 7df6 223d
00000390: cf8f 5a3d f4bc c73d c27c 143c 40c7 8b3d
000003a0: 0aab c5bd e9b1 79bd acce 983c e35c 34bd
000003b0: faac abbc 5cad 8d3d 1bfc e63d 340a 643d
000003c0: a1ba 88bd 48d6 af3d 06e8 663d c52f 9dbc
000003d0: f7e1 a2bb ee8d cb3d c48e edbd 0972 03be
000003e0: a2f6 513d b9be 0fbe bc84 953c 9a83 9fbd
000003f0: a6d0 9a3c 84d4 a9bd 69e0 55bd c3d9 a33d
0.04347205 0.08583678 0.14348888 -0.08591446 -0.060698472 -0.066289745 -0.02801323 0.008172498
0.0693778 -0.045673076 -0.09909822 0.030612364 -0.122237645 0.054779425 0.041944854 0.032395847
-0.06826395 -0.05947405 -0.06334547 0.04803906 -0.055744253 0.1028524 -0.013251602 -0.0021592758
0.113529205 0.029090427 -0.02265107 -0.09214696 -0.080205455 0.075908594 -0.06331741 -0.08751856
0.08314555 0.06508902 0.08886692 0.079112746 -0.06649066 -0.010950318 -0.066351876 -0.118924335
0.03339807 -0.03982351 0.028372604 -0.038177613 -0.027608939 0.06857107 0.0160355 0.045801915
-0.063589424 0.07674817 0.12787463 0.009138297 -0.06218028 -0.11052084 0.13686655 -0.04077466
0.14089862 -0.08887572 0.1360523 0.055700254 -0.043127257 -0.022186745 -0.009156987 -0.02500303
-0.09554835 0.066445164 0.11315654 -0.12874754 -0.07866432 -0.10139917 -0.0070079593 -0.06294291
-0.06432561 -0.0603263 0.049372554 0.08405628 -0.027826913 -0.04830879 -0.06532474 -0.025214309
0.015658 -0.108979456 -0.0018913284 0.1239424 -0.007348963 0.11838081 -0.09304018 -0.039163142
-0.052951336 -0.032777995 0.04982032 -0.03775038 0.049887523 0.049357187 -0.07639824 0.018211104
-0.038566537 -0.0909735 0.04493398 -0.026814986 -0.018232677 0.0050876443 -0.048864193 0.022775792
0.008388968 0.08357457 0.1003833 0.0665296 0.045558225 -0.13980198 -0.0706673 -0.071809
0.0039967117 -0.0809357 -0.05566677 -0.03336349 0.045982752 -0.10351335 -0.100480594 -0.10902592
0.15840226 -0.13174865 -0.10156564 0.10545552 0.0511619 -0.096587464 0.02978039 0.030208694
-0.110370725 0.018858632 -0.053757437 -0.07476019 -0.0220982 -0.036322784 -0.03848632 -0.055360217
-0.05364351 0.00059747754 -0.07489632 -0.083182536 -0.017465428 0.070871025 -0.081764884 0.06989687
0.05136068 -0.09495299 -0.08100642 -0.1337578 0.08232999 -0.06346357 0.070466526 -0.052672133
-0.027314253 -0.009177025 -0.09652265 0.16005807 0.07465589 0.0504015 -0.03030983 0.009599193
-0.016084315 0.13140619 -0.085804455 -0.06450726 0.067433335 0.10977876 0.06175775 -0.035758518
0.06967434 0.04282486 0.09588176 0.10994512 0.026629822 0.08242492 -0.09573801 0.07184728
-0.055697586 -0.085032105 0.1263689 0.056518864 0.050842717 0.09672957 0.06658679 0.10589027
0.0143355755 -0.07330575 -0.038778648 -0.02818354 0.024374276 0.07828739 -0.07854809 0.104589276
-0.09162751 0.015730605 -0.032043472 -0.08070753 -0.044150595 0.07380789 0.049479973 -0.016112134
-0.0542458 -0.051697344 -0.02037752 0.03804536 0.03814267 -0.054461896 -0.031367384 -0.064950325
-0.026827063 0.042794593 0.10414778 -0.047072586 -0.09751146 -0.077605106 0.088084646 0.0356989
0.03533874 -0.028378628 -0.0771682 -0.015197518 -0.02327244 0.0890743 -0.02781898 0.13914171
-0.029890394 0.038346443 -0.07933046 0.03978585 0.053359803 0.09752837 0.009062948 0.06825113
-0.09651764 -0.060960684 0.018653236 -0.044033896 -0.020956505 0.06917831 0.11278554 0.055673793
-0.06676222 0.08585793 0.05637362 -0.019187817 -0.0049707848 0.0993918 -0.11599496 -0.1283647
0.051260598 -0.14037599 0.01825177 -0.07788773 0.01889832 -0.08292487 -0.052215967 0.08000519

bias_ih_l0 f4 [320]
00000000: c31b e03d dd4b a23d 75c3 1d3d 9e6f 253d
00000010: 9c4d 913c ddc4 a53d 9938 123e 455b 553d
00000020: 1879 b63d 22cb 4ebd 09f3 8cbd ab89 02bd
00000030: 12cb 043e 2e15 d7bd 133b 943d e6d2 59bc
00000040: a4e6 9abd ea8a 74bd 380c edbb cab3 09bc
00000050: cea4 afbd 0c60 b7bd b03b 773d de2c b63d
00000060: d3aa a33d eec6 acbd 019a 023e 7202 dfbc
00000070: 2fca a0bd c817 043e fe20 a73d 6bc0 603d
00000080: ba35 9dbd 0e6e 91bb b30b 38bd bf5c 0fbd
00000090: 85cb 59bd 0aeb 3dbd 89d9 073d c2de c0bd
000000a0: 4e57 833d 97c3 c83d 01b7 6a3b 23aa 103d
000000b0: b838 f83c 0930 6f3d 74f3 85bd 48a7 c8bc
000000c0: e8ea b03d 9f41 c8bd 2e04 7bbd 2b07 13bd
000000d0: 9d66 c7bd e6a9 c3bd e1d7 a63d a8c3 94bd
000000e0: 2854 ea3d c14a 093e 61fa 553d c3ec 263d
000000f0: dac1 babd 72c9 fd3d f34b b7bc 822c 36bd
00000100: 849d 02bd 247d 8fbd b554 8fbd 0c56 083e
00000110: 8df2 f3bc 6c9d 0f3e b6a1 b239 318a 72bd
00000120: 3973 bc3d 3aa6 c8bc fa7f 85bb bd48 d83d
00000130: 76eb c63d 5826 9abd aefd 96bc 7911 e03d
00000140: 25c9 0d3d a795 8bbc b519 b7bc c6cf f73b
00000150: d320 9cba 40c2 163d 3078 9c3b fef7 f4bd
00000160: aa82 983d e7e5 00bb 15c6 00be 6aa7 80bd
00000170: bd7e 27bc 11a4 1cbd 4a11 083c 9b4a 86bd
00000180: 60f1 0abe 7c7c 44bd 4f83 babd 0f4c 58bc
00000190: dc65 7dbd 0c57 40bd 32f8 453c 423f f0bd
000001a0: cabb 25bc c98f 06be f9e0 3ebd a7a1 75bd
000001b0: b10d f6bd 59b4 6b3d 265f d1bd d9a2 c3bd
000001c0: 1371 febd 2ce4 cbbc 59d4 79bc c6ac 81bc
000001d0: cbd3 e5bd 27f7 4e3d 85ec 5dbe 1c88 d2bd
000001e0: b46c 16be 595f 32be 68b4 16be 88f5 05be
000001f0: 1377 dfbc 8ee0 eb3c 384d 463d da69 ebbd
00000200: 18be 2cbb 9891 05be ab46 fabd 1a86 dcbb
00000210: a422 273d 64fc 9cbd eaab b8ba 2907 e8bc
00000220: b728 a53d 312b 293d 7d08 38be 689c c1bd
00000230: 0f89 20bd 321c 413a 7a53 2abe a6c2 95bd
00000240: cafd b1bd 363c 17bd 3e98 f2bd 1eeb 583c
00000250: 46db 6bbd f6d8 fdbd d179 94bd 7fe7 4f3d
00000260: 82d9 8bbd 5b64 febd 03c0 fcbc 88f0 77bd
00000270: 4a0d 47bc 2892 0fbe 1e26 8bbd d148 0bbe
00000280: 94af 51bc 5bb1 07be c05b 90bd e77f 93bc
00000290: 9054 903c e429 8fbd ebb0 f63d 1b30 123d
000002a0: 383a c3bd 2170 31bd 2ecd 16be 6203 af3d
000002b0: 6f91 14bd 8386 8e3d b9ce 12bd e5da 9cbc
000002c0: b47e 05be 9f31 ce3d 92c9 aa3d 0aa0 f6bb
000002d0: 726e 863d d020 b6bc c7e7 453c 31f5 a5bd
000002e0: 04c3 06be 7e48 bebd 1118 513d 4146 8ebd
000002f0: 3db2 b93c cac2 d13d 0562 cdbd 30e2 9e3d
00000300: c892 8c3d 2ce7 073e 8dfa 92bc 3512 56bd
00000310: 7c6a d8bc 4242 b03d 7884 3c3d af01 a9bd
00000320: d185 693d 74eb f23d e0f2 013d c270 b9bc
00000330: 8c8e 44bc bd20 86bd 7cf4 123d c1ee abba
00000340: b449 023e 6a2d d2bc 37ce a83d a1e9 2e3d
00000350: 77b9 8c3d 046f 2dbd f234 c4bd e757 4b3d
00000360: 5d3e babd a184 c0bd 4796 a43c 91be d83d
00000370: a829 10bd f60b 883d 3055 113d 2557 6a3c
00000380: bdb1 ce3d cb81 4cbd 1d34 9f3d cf08 003d
00000390: f32e 01be 26cc 51bc 0938 043e 43e9 813c
000003a0: d787 82bc 1715 59bd 0eaa 20bd 6ebc 09be
000003b0: 1372 b03d 73fe 2fbd 322f c93d ebc0 58bd
000003c0: 8fc5 a3bd 512a d5bd 3e8e b0bd 85c4 a53c
000003d0: ef3e 99bb e71c 9abd 2750 43bc c6b4 18be
000003e0: ef77 5c3c b2b3 95bc b794 10bc 72fd a93b
000003f0: 9a2b 1d3d b688 343d d70a d83d cc87 29bd
0.10942795 0.07924626 0.03851648 0.04038965 0.017737202 0.08094189 0.14279403 0.052088995
0.089098155 -0.05048669 -0.06882293 -0.03186957 0.1296809 -0.105020866 0.0723783 -0.013294911
-0.075635225 -0.05970279 -0.0072341226 -0.008404681 -0.08576356 -0.08953866 0.060359657 0.088952765
0.079915665 -0.0843638 0.1275406 -0.027222846 -0.078510635 0.12899697 0.0816059 0.054871004
-0.07676263 -0.0044381684 -0.044933032 -0.03500056 -0.053172607 -0.04636673 0.033166442 -0.09417488
0.064131364 0.09802931 0.0035814645 0.035318505 0.030300483 0.05839542 -0.065405756 -0.024493828
0.08638555 -0.09778141 -0.061283283 -0.035895508 -0.09736369 -0.0955389 0.081466444 -0.07263881
0.11441833 0.13407423 0.052240733 0.040753137 -0.091190055 0.12391938 -0.022375083 -0.04447604
-0.0318885 -0.070062906 -0.069985785 0.13314074 -0.029778743 0.14024895 0.0003407129 -0.05921382
0.092016645 -0.024493326 -0.004074094 0.10560749 0.09712879 -0.07526845 -0.01843151 0.10940833
0.034615654 -0.017039133 -0.022351125 0.0075626103 -0.0011911638 0.036806345 0.0047750697 -0.11961363
0.07446797 -0.0019668282 -0.12575562 -0.06281932 -0.010223088 -0.038242403 0.008304903 -0.065571986
-0.1356864 -0.04797028 -0.091070764 -0.0132017275 -0.06186472 -0.046958014 0.0120831 -0.117308155
-0.010115573 -0.13140787 -0.04660127 -0.059968617 -0.1201433 0.05754504 -0.10223226 -0.09552545
-0.12423911 -0.024889074 -0.0152483815 -0.015829455 -0.11222037 0.05052867 -0.21672256 -0.10279867
-0.14689904 -0.17419185 -0.14717257 -0.13081944 -0.027278459 0.0287936 0.048413485 -0.11494799
-0.0026358422 -0.13043821 -0.1222051 -0.0067298533 0.04080452 -0.07665327 -0.001408932 -0.028323727
0.08064406 0.041300956 -0.17971988 -0.0945366 -0.03919321 0.0007366567 -0.16633406 -0.07312517
-0.086909845 -0.036922656 -0.11845444 0.01323965 -0.057582162 -0.12394898 -0.07249797 0.05075788
-0.06828596 -0.12421485 -0.030853277 -0.060532123 -0.012149164 -0.14020598 -0.0679438 -0.13601996
-0.012798209 -0.1325125 -0.0704875 -0.018005325 0.017618448 -0.06990412 0.12045463 0.03569041
-0.09532589 -0.043319825 -0.14726707 0.08545567 -0.03627151 0.0695925 -0.035841677 -0.019147346
-0.13036615 0.10068058 0.08339228 -0.0075264024 0.065640345 -0.022232443 0.012079186 -0.08103407
-0.1316033 -0.092911705 0.051048342 -0.069469936 0.022667998 0.10242231 -0.10028461 0.077579856
0.06863934 0.13271779 -0.017941738 -0.052263457 -0.026417963 0.08606388 0.04602477 -0.08252274
0.057012383 0.11861315 0.031725764 -0.022636775 -0.011996876 -0.06549213 0.03587769 -0.0013117419
0.12723428 -0.02565642 0.08242457 0.042703275 0.06871312 -0.0423422 -0.09580411 0.049644377
-0.09093926 -0.09400297 0.02009119 0.10583223 -0.035195976 0.06642906 0.03548163 0.014303003
0.10092495 -0.049928468 0.07773612 0.0312584 -0.12615566 -0.01280502 0.12912 0.015858298
-0.015933914 -0.05299863 -0.039224677 -0.13450786 0.08615508 -0.04296727 0.09823455 -0.052918356
-0.07996666 -0.10408462 -0.086208805 0.02023531 -0.0046766917 -0.07525044 -0.011920965 -0.1491271
0.013456329 -0.018274162 -0.008824519 0.0051876837 0.03837166 0.04407569 0.105489425 -0.04138927

bias_hh_l0 f4 [320]
00000000: 4c77 fa3c 05ef 6c3d c4d1 84bc d995 3fbd
00000010: 3424 f6bd 54b4 32bd 0a1b 0abd b44e 7abd
00000020: d2fa 133e 5f99 713d 9b7f 96bc d9b6 c0bd
00000030: 9e5d 953c 4329 b0bd aa28 a2bd 3c61 a8bc
00000040: 2413 a73d 14c3 dabc 08ef e4bb 4ed8 023d
00000050: 1b60 0f3d 205f 2bbd 9bf8 e83c d0fd 353d
00000060: 9474 e63d 5e1e 993c 2b96 47ba 8f4e f63d
00000070: 8cbd 663d 490e 91bd c421 c93d ab4d 2ebd
00000080: 161a a6bd 1288 7a38 9b9a a4bd 59d6 da3c
00000090: d183 d73d 5b32 023c b9df 263d 1c12 833c
000000a0: 7c82 c0bc 32d9 e63b 6416 b03d ebe1 1aba
000000b0: b9f8 8d3a 8ccb 873d 68a3 483d 7124 fabc
000000c0: 8599 7e3d 73a6 81bd 18b8 a238 348e c53c
000000d0: fbed dfbd e703 7cbd 11a0 7b3d 076c c83d
000000e0: d04b ed3d 5d25 6d3d b4b2 9d3d a2c5 b4bd
000000f0: a005 003d 2082 363d dabb 923c ccb9 5d3d
00000100: 9f7b 483b fc4b 45bd 0647 1a3d f723 4f3e
00000110: cf91 123e 15e3 9d3d 570d a43d 8fc0 a3bc
00000120: 7d9a a73d 44e9 c7bd e599 f43d 565c d93d
00000130: 0dfd 133c f71c 81bd 077b 9d3d 561e 7fbc
00000140: 4732 32be b84e 08bc e1b6 babd 3f67 2bbd
00000150: f1b0 94bc 22c7 b9bd 7a57 0bbe c6dc 8f3d
00000160: e596 a3bd 8c5b 173d cf51 abbd 492c f5bd
00000170: 4ed6 9fbc 56fa bebd d75f 7f3d b0cb 02ba
00000180: b5f7 ffbd 758f f53c 9998 ccbd 08b7 32bc
00000190: 42d8 603d f58c ccbb 0768 f9bd 16a6 a03d
000001a0: bf24 80bd 034e 8dbd bff8 0cbe 68d0 d3bc
000001b0: 44dc 07bd 28ed e8bd da8c 16be 1c6c 70bd
000001c0: 12b4 7d3d 7425 0ebe 2eb1 cb3b 1a5a 913d
000001d0: 86a5 5dbd 7cf2 88bd a9f5 1abe c932 12be
000001e0: 116f 86bc 29ef bfbd be73 0ebe 439e 05bd
000001f0: 0acc 0bbd d49a a0bd e887 2dbd 8459 b0bd
00000200: 6cbb 1d3d 8da2 9fbd 0a5f ccbd 0960 d1bd
00000210: 0ca7 6ebd 7784 eabd c59a 0b3d a6ce 19bd
00000220: 19b4 afbd f02c 953d 0949 33be 3ce6 95bd
00000230: 8381 0ebe b488 41be 6473 8abd acd2 ffbc
00000240: 8ec8 d9bd f8e1 c9bc 89f2 383c d818 61bd
00000250: 97f2 c8bd 7226 37be e58f be3d 971f 743d
00000260: 5a66 413d 4562 19be d5bb eabd 2fab 923d
00000270: e170 36bd d6a0 0fbd 2301 e7bd 4035 c4bd
00000280: 6f5c b939 f8e5 843d 692c 653b 6f7a b0bd
00000290: 8ce6 c83d 6c90 3c3c 1ad9 c53d 95fa 4cbc
000002a0: 2216 9cbd cf76 8c3a 1e12 63bd e4f5 d83c
000002b0: 874b 173d 5a1f 313d cfd7 a5bd f4ca d4bd
000002c0: 36fe 90bb 21fc b03d 6980 1e3d cd01 cf3d
000002d0: 9d5f a93d 1616 3438 d60b eebd a3a1 57bd
000002e0: 57e2 223d f37a 2f3d 2f6b a23d c17f a43d
000002f0: cd5d f1bb cbfe 1c3c 8150 f93c 6e2b d13d
00000300: e2aa e7bc 79af e03d f110 6fbc 9865 413d
00000310: b64a fabd 833c ff3c 0f1c b5bd fd49 843d
00000320: ca3a 74bd ea5d 4c3c f28c 3ebd a1f7 2a3c
00000330: 5149 8c3a 2346 e23d 7449 ba3b 338e 4e3d
00000340: dca0 f93d 4726 343c bbe7 ef3d 6d5d 843d
00000350: ea87 033d 56fa 9e3d e0ab cf3c 6e07 4c3d
00000360: 0fcb 26bb 48b7 15be 5aff 6dbd 0efe e83c
00000370: e4d2 9f3d 3af3 27bd c7a8 61bc 4928 6d3d
00000380: c264 113e 5c9e b9bc 6d31 af3d f1d2 9f3c
00000390: f911 f3bd 17a4 0a3c 5462 1b3d ee8a 023d
000003a0: 245e bdbd bd64 253d c68a 7ebc 1bf9 7dbd
000003b0: 2121 5f3b 6d2b 8bbd 64c5 88bd 3d6d 183d
000003c0: 6d88 873d 9c5f 36bd af9b ab3d 54d8 253d
000003d0: 7689 0abd bd44 033e 3e0d c93d 181d 32bd
000003e0: a6c1 0b3c e394 a0bd 36a8 e1bc dcd5 cd3d
000003f0: bfbf 893d 68d6 ecbd 5d51 863b b19d ea3c
0.030574463 0.057845134 -0.016213305 -0.046773765 -0.12018624 -0.043629006 -0.033717193 -0.061110213
0.14451149 0.058984157 -0.018371394 -0.094098754 0.018233117 -0.0860162 -0.07917912 -0.020554177
0.08157948 -0.026704349 -0.0069865026 0.031944565 0.035003763 -0.041838765 0.028438857 0.044431508
0.11252704 0.018691238 -0.00076136243 0.120267026 0.05633311 -0.07082803 0.098208934 -0.04255454
-0.08110444 5.973137e-05 -0.08037301 0.026713537 0.10523189 0.007946576 0.040740702 0.015999846
-0.02349972 0.0070449347 0.08598021 -0.0005908298 0.0010831571 0.0663062 0.04898396 -0.030534955
0.062158126 -0.06330576 7.759052e-05 0.02411566 -0.10934063 -0.06152716 0.061431948 0.097862296
0.11586726 0.05789696 0.077001005 -0.08826758 0.031255364 0.04455769 0.01791184 0.054132268
0.0030591262 -0.048168167 0.03766539 0.20228563 0.14313434 0.07709328 0.08010357 -0.01998928
0.08183763 -0.09761289 0.119434156 0.10613315 0.0090325 -0.06304353 0.07689481 -0.0155711975
-0.17401992 -0.008319549 -0.09116913 -0.04184651 -0.018150778 -0.09071185 -0.13607588 0.07024531
-0.07987765 0.03695254 -0.08365213 -0.11971337 -0.019511368 -0.093250915 0.06234726 -0.0004989458
-0.12498418 0.029975632 -0.09990043 -0.010907896 0.05489374 -0.0062423893 -0.12178045 0.078441784
-0.06257009 -0.06899645 -0.13766764 -0.025856212 -0.033169046 -0.11373359 -0.14702168 -0.05869685
0.061939307 -0.13881475 0.00621619 0.07097264 -0.054112934 -0.06686875 -0.15132774 -0.14277185
-0.016410382 -0.09371788 -0.1391134 -0.032621633 -0.034130134 -0.07842031 -0.04236594 -0.08610824
0.038508818 -0.07794676 -0.09979065 -0.102233954 -0.058264777 -0.11451047 0.034083147 -0.03755059
-0.08579273 0.07283962 -0.1750833 -0.07319304 -0.13916592 -0.18899804 -0.0676029 -0.031228386
-0.10633956 -0.024643883 0.011288294 -0.054955333 -0.09811895 -0.1788576 0.093047895 0.05960044
0.04721675 -0.14978893 -0.11461607 0.07161557 -0.044541243 -0.035065494 -0.11279514 -0.09580469
0.00035354818 0.064891756 0.0034969097 -0.08617102 0.09809598 0.011509042 0.096605495 -0.012510915
-0.07621409 0.001071656 -0.0554372 0.026484437 0.036937263 0.04324279 -0.08097803 -0.10390273
-0.0044248356 0.0864184 0.03869668 0.10107765 0.0827019 4.2935913e-05 -0.11623351 -0.052644383
0.039766636 0.042841863 0.079306 0.080321796 -0.0073659183 0.009582232 0.030433895 0.10213362
-0.028279725 0.10970969 -0.0145914415 0.047216028 -0.12221281 0.031156784 -0.088432424 0.06459425
-0.059626378 0.012473563 -0.046521135 0.010435016 0.0010703002 0.11048534 0.005685026 0.05042858
0.121888846 0.010995454 0.11714121 0.06463132 0.03211204 0.077625915 0.025350511 0.049811773
-0.0025450622 -0.14620697 -0.05810485 0.028441455 0.07803896 -0.041003443 -0.01377315 0.057899747
0.14198592 -0.02265852 0.08554349 0.019509764 -0.118686624 0.008461974 0.03793557 0.031870775
-0.092464715 0.040379275 -0.015536016 -0.062005144 0.0034046846 -0.06795392 -0.06678274 0.037213553
0.06617818 -0.044524774 0.08379304 0.04048951 -0.0338225 0.1281919 0.09816979 -0.043484777
0.008530056 -0.07840898 -0.02754603 0.10050556 0.06726026 -0.11564332 0.0040990547 0.028639646

weight f4 [1, 80]
00000000: e3b3 623d 22a4 493d 8af4 98bd 16c7 ff3d
00000010: 72cb 3e3d cfc4 db3d 303c febd 2f74 d33c
00000020: cbd6 e83d 0c4f d8bd eca2 c03d 97dc f33d
00000030: efc6 8ebd 2561 a6bc 074a 80bd 16c4 333c
00000040: 5d10 6b3d b64f 2ebd 1571 c53d be02 13be
00000050: 23c1 66bd 6ea5 04bd b8ce f03c 4220 c63d
00000060: aa41 833d e46d 583d 82d5 e5bd 8dd8 90bd
00000070: f10f 75bc 0e29 56bd 1532 02bd f182 ed3d
00000080: 396d debd 705b c1bd 4c19 623d 58dc 55bd
00000090: aeaa cf3d 1ebc 52bd 18e5 48bd 7c21 bfbd
000000a0: 882a 963d ff26 0f3d c8db 983d f191 db3d
000000b0: be63 b93d 65a6 aebd 7555 903b 119d 72bd
000000c0: 96da cdbd 09e6 2b3c 95ee 733d c7d6 013d
000000d0: 1b5f 62bc c959 f1bb cba3 7e3d 6ea1 9f3d
000000e0: 0e84 bd3d b245 b03d 7508 88bd d560 9b3d
000000f0: f113 ca3c 1722 3dbd 5308 2fbd d20f 89bd
00000100: 660b dabd 8b6c c1bd 8a5d d8bc b2d2 6ebd
00000110: b033 b63d 3e2e 7e3a 1d98 ebbd 23ab f03d
00000120: 4fa2 aebd 29fd c4bd 6093 06be d548 633d
00000130: 3cd7 eb3c ba0e c83d e381 c7bb d414 c8bd
0.055347335 0.049228795 -0.07468517 0.124891445 0.04658074 0.10730898 -0.124138236 0.025812237
0.113690935 -0.10561952 0.09406075 0.119073085 -0.06971537 -0.020309994 -0.062641196 0.0109720435
0.057388652 -0.042556487 0.09640709 -0.14356515 -0.056336533 -0.03238433 0.029395446 0.096741214
0.06409009 0.052839175 -0.11222364 -0.07072554 -0.014957414 -0.052285247 -0.031786043 0.11597241
-0.10860676 -0.094412684 0.055199906 -0.05221209 0.101399764 -0.051448934 -0.049046606 -0.093325585
0.07332331 0.0349493 0.07463795 0.107211955 0.090522274 -0.08527831 0.0044047185 -0.05923182
-0.100514576 0.010491856 0.0595537 0.03169897 -0.01381662 -0.0073654396 0.062167924 0.07794462
0.09253703 0.08607043 -0.06642238 0.075868286 0.024667712 -0.04617509 -0.042732548 -0.066924706
-0.10646705 -0.09444531 -0.02641179 -0.058306403 0.08896577 0.00096962217 -0.11503623 0.11751392
-0.08527052 -0.09618599 -0.13142157 0.05548938 0.028789155 0.09768434 -0.0060884818 -0.09769598
