model/3009.386150031265_weight.pth (torch, 90511 bytes, 7 tensors)

weight f4 [16, 32, 1]
0	0xbe23f5ee	-0.16011783
1	0xbdf84753	-0.12122979
2	0xbe81259b	-0.25224003
3	0xbcaafa06	-0.020871174
4	0xbde6a0e9	-0.1126116
5	0x3ddb4249	0.10706002
6	0xbe04625b	-0.12928145
7	0x3e055a94	0.13022834
8	0x3e02ed4f	0.12785839
9	0xbe259136	-0.16168675
10	0xbe3bb826	-0.18331966
11	0x3cddc2fc	0.027070515
12	0x3da1c8cc	0.07899627
13	0x3d3f0b14	0.046641424
14	0xbc0ec63d	-0.008714256
15	0xbe2a464f	-0.16628383
16	0xbe0632a0	-0.1310525
17	0x3e054e34	0.13018113
18	0x3bd9263b	0.006626872
19	0xbdffdabb	-0.124928914
20	0xbd9ef54c	-0.077616304
21	0xbb40d009	-0.0029420874
22	0xbde21d81	-0.11040784
23	0x3e44e673	0.19228534
24	0xbe3cd108	-0.18439114
25	0x3e1a4a30	0.15067363
26	0xbd810177	-0.062991075
27	0xbd2db38b	-0.042407554
28	0x3e127ff9	0.1430663
29	0x3d921009	0.07131965
30	0x3e0f4c15	0.13993867
31	0x3e0855f4	0.13314039
32	0xbe2f45b7	-0.17116438
33	0xbe2cb0bc	-0.16864294
34	0xbe6cb645	-0.23116405
35	0xbe12a945	-0.14322384
36	0xbe2422ca	-0.16028896
37	0xbe0fc801	-0.14041139
38	0xbdf0ae29	-0.117519684
39	0xbd84fdd6	-0.06493728
40	0xbdc3d51a	-0.0956213
41	0x3dd5fdc7	0.10448795
42	0x3e01d69c	0.12679523
43	0x3e1d27a4	0.15347153
44	0xbdd7e025	-0.10540799
45	0xbde6e6fa	-0.11274524
46	0xbdb40367	-0.087897114
47	0x3c5cf7b4	0.013486791
48	0x3d56f3aa	0.05247847
49	0x3c817873	0.015804505
50	0x3e18f366	0.14936599
51	0xbb22f598	-0.0024865624
52	0xbc1612cb	-0.009159754
53	0xbdf89e4d	-0.121395685
54	0x3e18a4e0	0.14906645
55	0x3e0e0970	0.13870788
56	0xbd65a620	-0.056066632
57	0xbd9b33c9	-0.075782366
58	0xbd708797	-0.05872306
59	0xbe1332ab	-0.14374797
60	0x3d97fec0	0.074216366
61	0x3d59900b	0.053115886
62	0xbdb377e7	-0.08763104
63	0xbc9b8015	-0.018981973
64	0x3dac0fc2	0.08401443
65	0xbde9ba46	-0.11412482
66	0x3d806c36	0.062706396
67	0xbe058647	-0.13039504
68	0xbe1beec8	-0.15227807
69	0xbdbb06dd	-0.091321684
70	0x3d03ddce	0.03219395
71	0xbd5dcae9	-0.05414859
72	0xbdc5247f	-0.09626102
73	0x3d23b7d9	0.039970253
74	0xbe055e59	-0.13024272
75	0xbe27b59f	-0.16377877
76	0x3d7b86f6	0.061408006
77	0x3e10d094	0.14142066
78	0x3cab0549	0.020876544
79	0xbe4a9680	-0.19783974
80	0xbe16a4a1	-0.14711238
81	0x3d97c72b	0.07411035
82	0x3e958725	0.2920467
83	0x3dbb1d08	0.09136397
84	0xbe68f5de	-0.22750041
85	0x3d7410e1	0.05958641
86	0xbd423c8a	-0.047421016
87	0x3d1803c7	0.037112977
88	0x3db4f2dc	0.08835384
89	0x3cec006b	0.028808793
90	0xbe018eea	-0.12652174
91	0xbe16069e	-0.14650962
92	0x3d01c54a	0.03168229
93	0xbd58b67f	-0.052908417
94	0x3ca68b92	0.020330224
95	0x3d5a7c97	0.053341474
96	0x3e7e13dc	0.24812263
97	0x3e02a764	0.12759167
98	0x3d2f259e	0.042760484
99	0xbe1a8cf3	-0.1509283
100	0x3e2de856	0.1698316
101	0x3e0d4bd3	0.13798456
102	0xbcf3e345	-0.029771456
103	0x3e24db0c	0.16099185
104	0xbd8dfae8	-0.06932622
105	0x3daa8d17	0.08327692
106	0xbd6f110b	-0.058365863
107	0xbbcbd536	-0.006220485
108	0x3d74cd89	0.059766326
109	0xbc26ec98	-0.010188244
110	0x3deeab53	0.11653771
111	0x3e1a03e6	0.1504055
112	0x3d46f7e3	0.048576247
113	0xbd8fd0a2	-0.070222154
114	0x3e085354	0.13313037
115	0x3db49538	0.08817524
116	0x3dedd9f8	0.1161384
117	0x3d37a2e6	0.044833086
118	0xba945f44	-0.0011319895
119	0x3d47c388	0.048770458
120	0xbddab2f7	-0.10678666
121	0xbd7a125f	-0.061052676
122	0x3c5dea28	0.013544597
123	0xbd01cde4	-0.031690493
124	0x3d24c83d	0.040230025
125	0xbdbda148	-0.092592776
126	0x3d5f85a9	0.054570828
127	0xbe00ceab	-0.12578838
128	0xbd92a520	-0.07160401
129	0xbe55d123	-0.2088056
130	0xbe6246c7	-0.22097312
131	0xbd296c2c	-0.041362926
132	0xbc8f45c5	-0.017489323
133	0x3d0b0523	0.033940446
134	0x3e4b75a6	0.19869098
135	0xbc12a5f8	-0.008950703
136	0xbe0bfc75	-0.13670523
137	0x3e0dcca7	0.138476
138	0x3c04bfc1	0.008102358
139	0xbd376aea	-0.044779696
140	0xbe055007	-0.1301881
141	0xbe2a0d7b	-0.16606705
142	0x3dce1b29	0.10063774
143	0xbc0b2f73	-0.0084951995
144	0xbd963180	-0.0733366
145	0x3dc763f4	0.097358614
146	0xbd1a712e	-0.037705593
147	0xbd74f786	-0.05980637
148	0xbcaf32d5	-0.021386543
149	0xbd40155e	-0.046895377
150	0x3e39acd0	0.18132329
151	0xbdc1d3e5	-0.09464244
152	0xbdf83690	-0.12119782
153	0xbd518d16	-0.05115994
154	0x3e37e718	0.17959249
155	0x3cfae5c4	0.030627139
156	0x3b1924aa	0.00233678
157	0xbde6003b	-0.11230513
158	0x3dae4d2d	0.08510814
159	0xbe072fc9	-0.13201822
160	0xbdb8da09	-0.09025962
161	0xbe894ec3	-0.26817903
162	0xbdcab61c	-0.09898016
163	0x3dbb9830	0.09159887
164	0xbe24cde5	-0.16094168
165	0xbdf08278	-0.11743635
166	0xbe0345c6	-0.12819585
167	0xbdbba509	-0.09162337
168	0xba0a13c5	-0.0005267228
169	0xbd8d8c32	-0.06911506
170	0xbd3deed8	-0.046370357
171	0x3da3d55e	0.07999681
172	0x3e25275d	0.16128297
173	0xbe33059f	-0.17482613
174	0xbdb4e528	-0.088327706
175	0x3bca8d32	0.0061813826
176	0x3d8de95e	0.06929277
177	0x3d074319	0.033022974
178	0x3d4b7733	0.049674224
179	0xbddd1c02	-0.10796358
180	0x3de3b09a	0.111176684
181	0xbcc36e13	-0.023856198
182	0x3e173ffe	0.14770505
183	0xbcacb973	-0.021084523
184	0x3dc656b1	0.09684504
185	0xbd9632d4	-0.073339134
186	0x3e08aa46	0.13346204
187	0xbdaed02c	-0.085357994
188	0x3da01858	0.07817143
189	0xbd8adeb8	-0.067807615
190	0x3d0d5c33	0.034511756
191	0x3de3f25b	0.1113021
192	0xbc6cf879	-0.014463537
193	0xbe5911f0	-0.21198249
194	0xbe07928c	-0.13239497
195	0xbdee0b8c	-0.11623296
196	0xbe21e14d	-0.15808602
197	0xbe1a8228	-0.15088713
198	0x3dbdb07f	0.092621796
199	0x3dd080a3	0.101807855
200	0xbdea9b12	-0.114553586
201	0xbd8dd359	-0.06925077
202	0x3df4ef5c	0.11959717
203	0xbdb44be2	-0.08803536
204	0x3e30e024	0.17273003
205	0xbcc2efab	-0.023795923
206	0xbe3d9d46	-0.18517026
207	0xbe0e9992	-0.1392577
208	0x3dc8b0a7	0.09799319
209	0xbce61069	-0.028083997
210	0xbe240e1f	-0.16021012
211	0xbdbcfd38	-0.09227985
212	0x3d698bab	0.057017963
213	0x3bbe650c	0.0058103856
214	0xbd8ed929	-0.06975014
215	0x3bb98b20	0.005662337
216	0xbe0d95ec	-0.13826722
217	0x3da688e5	0.08131579
218	0xbd1ab338	-0.037768573
219	0xbe064c8c	-0.13115138
220	0xbe02f2f4	-0.12787992
221	0xbca5b8ca	-0.020229716
222	0xbc946103	-0.018112665
223	0xbe1dd329	-0.15412582
224	0x3e75ed70	0.24016356
225	0x3e91f089	0.28503826
226	0x3e7380af	0.23779558
227	0xbd2ac8d5	-0.041695435
228	0xbc7ed3af	-0.015553399
229	0xbe252149	-0.16125979
230	0x3dffde6b	0.12493595
231	0xbcf7cbb6	-0.030248504
232	0xbdea1b7c	-0.114310235
233	0xbd542c19	-0.051799867
234	0x3da72b99	0.081626125
235	0xbdd1f2a0	-0.10251355
236	0xbdb1c20c	-0.0867959
237	0x3cf50224	0.029908247
238	0x3d4786f8	0.0487127
239	0xbe3370a1	-0.17523433
240	0xbdec2934	-0.11531296
241	0x3d4816c0	0.04884982
242	0xbda91551	-0.08256019
243	0xbb2f3c9b	-0.0026739005
244	0x3ddf2eab	0.10897573
245	0xbe089199	-0.13336791
246	0x3d9e13d0	0.07718623
247	0x3ddd53fe	0.10807036
248	0xbe1ab625	-0.15108545
249	0x3d0d59a1	0.034509305
250	0x3a317971	0.00067701103
251	0x3daca362	0.084296
252	0xbe2478f9	-0.16061772
253	0xbdbb7fad	-0.091552116
254	0x3e00b46a	0.12568823
255	0xbded2573	-0.115794085

bias f4 [16]
0	0x3e300efd	0.17193218
1	0x3dcea607	0.10090261
2	0xbdc6b5eb	-0.09702667
3	0x3d43a994	0.047769144
4	0x3dc28623	0.09498241
5	0x3cec8400	0.028871536
6	0x3ded1ac7	0.11577373
7	0x3d1c8718	0.038214773
8	0x3de1e92f	0.11030804
9	0x3e31cf79	0.17364301
10	0xbd0662a5	-0.03280892
11	0xbe065b2c	-0.13120717
12	0x3e3505b7	0.17677961
13	0xbca522c2	-0.020158175
14	0xbe1941a6	-0.14966449
15	0xbe0bb3d8	-0.13642824

weight_ih_l0 f4 [256, 16]
0	0x3e09bb83	0.13450436
1	0x3d998fd9	0.0749814
2	0x3bb2fa01	0.0054619317
3	0xbdb87001	-0.09005738
4	0x3df3f499	0.11911888
5	0x3d5cdbf8	0.053920716
6	0x3d43bf64	0.047789946
7	0xbdeb6077	-0.114930086
8	0xbdc48f3d	-0.09597633
9	0x3df05885	0.11735634
10	0xbdcc1c22	-0.099663034
11	0x3d96799d	0.07347415
12	0x3d76778e	0.06017261
13	0xbe8558fc	-0.26044452
14	0x3dd16347	0.10224014
15	0xbe29d458	-0.16584909
16	0xbdad7e4f	-0.08471357
17	0xbd8b3cdc	-0.067987174
18	0x3d9860db	0.07440349
19	0xbdf7bef5	-0.12096969
20	0x3e05f9ec	0.13083619
21	0xbd2d47fb	-0.042304974
22	0x3da62e49	0.08114297
23	0xbe311214	-0.17292053
24	0x3d821eee	0.063535556
25	0x3df0f629	0.11765701
26	0xbce5523b	-0.027993312
27	0xbe21c304	-0.15797049
28	0xbd81ab87	-0.06331544
29	0xbdb26c65	-0.08712081
30	0xbd48f7ea	-0.049064554
31	0xbd52c553	-0.051457714
32	0xbc17836d	-0.009247643
33	0xbba8e912	-0.0051547373
34	0x3cf13086	0.029442083
35	0xbaa9ccbc	-0.0012954692
36	0x3d6ff9fd	0.058588017
37	0xbcb7c1e7	-0.022431327
38	0x3d8cfd6e	0.068842754
39	0xbd6d8a86	-0.057993434
40	0x3dbbaf0f	0.09164249
41	0xbdd59509	-0.10428817
42	0x3e13adcb	0.14421766
43	0xbda24c49	-0.079247065
44	0xbdb49396	-0.08817212
45	0xbd53b538	-0.051686496
46	0xbc064dac	-0.008197229
47	0xbd185f70	-0.03720039
48	0xbd850522	-0.0649512
49	0x3d4c76d9	0.04991803
50	0xbd9f22ef	-0.07770335
51	0xbd5b3eec	-0.053526804
52	0xbd7cc010	-0.061706603
53	0xbe33f97a	-0.17575637
54	0xbdfdca83	-0.12392142
55	0x3bd52232	0.0065043205
56	0xbdbcda77	-0.09221356
57	0xbcedeb18	-0.029042765
58	0x3e158720	0.14602327
59	0x3dc0457e	0.093882546
60	0x3d3afd02	0.045651443
61	0xbdebda8e	-0.115162954
62	0xbe3a3913	-0.18185835
63	0xbc3ed141	-0.01164657
64	0x3db9a4fb	0.09064671
65	0x3bb3b0f1	0.0054837395
66	0xbdedf174	-0.11618319
67	0x3db2a0b8	0.08722061
68	0x3dec0adf	0.11525511
69	0xbd3c2619	-0.04593477
70	0x3d8de69f	0.06928753
71	0xbe2cfd8e	-0.16893598
72	0xbd7d1d0c	-0.06179528
73	0xbd567d42	-0.05236555
74	0xbde072a9	-0.1095937
75	0xbdeca7b9	-0.11555428
76	0xbd192409	-0.03738788
77	0xbe43f56e	-0.19136593
78	0x3d1f0626	0.038824223
79	0x3d1040ff	0.035218235
80	0xbc032661	-0.008004756
81	0x3da56b5f	0.0807712
82	0x3dc1968e	0.09452544
83	0xbdc6cd90	-0.09707177
84	0xbd0ff013	-0.035141062
85	0x3c7737a4	0.015088949
86	0xbd355243	-0.044267904
87	0xbe7ef999	-0.24899901
88	0x3db3bac4	0.08775857
89	0x3d5f49ab	0.054513615
90	0x3d902412	0.0703813
91	0x3dcda1ee	0.10040651
92	0xbcf20464	-0.02954311
93	0xbd3abaae	-0.045588188
94	0x3d60b05f	0.0548557
95	0x3dcda47e	0.1004114
96	0x3bb24852	0.00544075
97	0x3d6bcf9e	0.057571046
98	0xbda6a600	-0.08137131
99	0xbb1acd3e	-0.002362087
100	0x3d89af97	0.06722944
101	0xbd8fabaf	-0.07015168
102	0xbd1965cd	-0.0374506
103	0xbe9398f9	-0.28827646
104	0xbd970762	-0.07374455
105	0x3db56aa7	0.08858233
106	0xbdc8e4f7	-0.098092966
107	0x3e106a96	0.1410316
108	0xbd741c4b	-0.059597295
109	0xbc5adff6	-0.0133590605
110	0x3e13b597	0.1442474
111	0xbe2169b5	-0.1576298
112	0x3da36dae	0.07979904
113	0x3df7444c	0.120735735
114	0xbcf15223	-0.029458111
115	0x3da1b13f	0.07895135
116	0x3d8ab8fb	0.067735635
117	0xbc0dba6f	-0.008650406
118	0xbd846f6a	-0.06466563
119	0xbe6e7975	-0.2328852
120	0xbdc8c819	-0.098037906
121	0x3c1fa4f3	0.009743917
122	0xbd9b4b01	-0.07582665
123	0xbd86105e	-0.065460905
124	0x3d89b84c	0.06724605
125	0xbe43c426	-0.19117793
126	0xbd3570f1	-0.044297162
127	0xbdd464e9	-0.103708096
128	0x3df3041f	0.118660204
129	0xbdcb7bc0	-0.09935713
130	0x3cfcd4ce	0.030863192
131	0x3d7d89d9	0.06189904
132	0xbdc78d50	-0.0974375
133	0x3d25e2d7	0.040499534
134	0x3d5b30a8	0.0535132
135	0xbe899eb1	-0.26878884
136	0xbdcc8ed8	-0.09988183
137	0xbe10eb54	-0.1415227
138	0x3dd6fcc1	0.10497428
139	0xbcb1cb68	-0.021703437
140	0xbded9d86	-0.11602311
141	0xbd08e34a	-0.033419885
142	0xbd70f40e	-0.0588265
143	0xbe04ae90	-0.12957215
144	0x3e3a405f	0.18188618
145	0x3d979078	0.07400602
146	0x3dddae5b	0.10824271
147	0xbd0f79b4	-0.035028175
148	0xbbee6206	-0.007274869
149	0xbc850838	-0.01623927
150	0x3e1ad968	0.15121996
151	0xbe90d182	-0.28284842
152	0xbd6adf84	-0.057342067
153	0x3e0d5b2b	0.13804309
154	0xbdf02a52	-0.11726822
155	0x3dd37ec9	0.10326917
156	0x3dcb5b58	0.09929532
157	0xbe1592ee	-0.1460683
158	0x3d68d856	0.05684694
159	0xbaf16c4c	-0.0018419116
160	0x3df782be	0.12085484
161	0x3df3be87	0.119015746
162	0x3cbef9c2	0.023312453
163	0xbd782ec4	-0.060591474
164	0xbdd1282b	-0.102127396
165	0x3de014f4	0.109414965
166	0x3d8e2209	0.069400854
167	0xbe43e998	-0.19132078
168	0xbbebc2a3	-0.0071948334
169	0x3c96bffd	0.018402094
170	0x3d389989	0.045068298
171	0xbdc6dda9	-0.09710247
172	0x3d89431c	0.06702253
173	0xbd892440	-0.06696367
174	0xbd90c540	-0.070688725
175	0x3dc4a9c8	0.09602696
176	0x3d81cad4	0.063375145
177	0xbc5b7301	-0.013394118
178	0x3caac2b5	0.020844797
179	0x3d84aaf5	0.0647792
180	0x3d5b0698	0.053473085
181	0xbd84d8e7	-0.06486683
182	0xbcbeb3e6	-0.023279142
183	0xbe5e6bf8	-0.21720874
184	0xbd4edb3f	-0.050502058
185	0xbd66dc6c	-0.056362554
186	0xbe1a64b5	-0.15077479
187	0xbddbd62e	-0.10734211
188	0x3dbb1fcc	0.09136924
189	0xbe1a95f8	-0.15096271
190	0x3dcac876	0.09901516
191	0xbe05b847	-0.13058577
192	0x3db8a7ff	0.09016418
193	0xbc98dd61	-0.01866025
194	0xbdc2c1a6	-0.09509592
195	0xbdbb8873	-0.09156885
196	0x3de10529	0.10987312
197	0x3ddc05b3	0.107432745
198	0x3e154229	0.1457602
199	0xbe98b657	-0.29826614
200	0xbd2c33cc	-0.042041585
201	0xbd992aaa	-0.07478841
202	0xbe1deedc	-0.15423149
203	0xbdaf324f	-0.085545175
204	0x3db3159b	0.08744355
205	0xbd9d55bf	-0.076823704
206	0xbd1134dc	-0.0354508
207	0xbdb275fa	-0.087139085
208	0xbde7ec00	-0.1132431
209	0xbd8d0fe8	-0.068877995
210	0xbdadc010	-0.08483899
211	0xbc9ef21e	-0.01940256
212	0x3d1148c5	0.03546979
213	0xbcee7a4f	-0.029111056
214	0xbdcfd88e	-0.101487264
215	0xbdfffaaa	-0.12498982
216	0x3bf13c3c	0.007361917
217	0x3af42777	0.0018627484
218	0xbda3c547	-0.07996612
219	0x3e0aa04b	0.1353771
220	0xbe071faa	-0.13195673
221	0x3dd62c8c	0.104577154
222	0xbd8663c2	-0.06561996
223	0x3d011503	0.03151418
224	0x3dfa8ba8	0.122336686
225	0x3e0a183b	0.13485806
226	0x3de3d3e0	0.11124396
227	0xbe1aaf1a	-0.15105858
228	0x3d94590e	0.07243548
229	0x3e1c15b7	0.15242659
230	0x3d373a4f	0.04473334
231	0xbe623aa4	-0.22092682
232	0xbde081e5	-0.109622754
233	0x3dfb946c	0.122841686
234	0x3d99468a	0.074841574
235	0x3dd84cca	0.10561521
236	0xbba0363a	-0.004889277
237	0xbe2ed682	-0.17074016
238	0x3d8d3fb0	0.06896913
239	0xbdc22ada	-0.094808295
240	0xbd3a863a	-0.045538165
241	0xbd76c530	-0.060246646
242	0xbde0113e	-0.10940789
243	0xbd95a801	-0.07307435
244	0x3e1ec49f	0.15504692
245	0x3db244bd	0.08704517
246	0xbd8c8903	-0.068620704
247	0xbd458861	-0.048225764
248	0xbc2f66c5	-0.0107056545
249	0x3de78aeb	0.113057934
250	0x3cdde682	0.027087454
251	0xbb8e80d0	-0.0043488517
252	0xbda2c428	-0.0794757
253	0xbd98b975	-0.07457248
254	0x3d313245	0.04326083
255	0xbe1c4526	-0.15260753

weight_hh_l0 f4 [256, 64]
0	0x3e085560	0.13313818
1	0x3d6042a4	0.054751053
2	0x3bdcd7be	0.0067395857
3	0xbdbf7fca	-0.09350546
4	0x3d64a066	0.05581703
5	0x3b99bc47	0.004691634
6	0xbda5591c	-0.08073637
7	0x3d25b9e5	0.040460486
8	0x3d305af9	0.04305551
9	0xbd56a8ba	-0.052407004
10	0xbdcaae7a	-0.0989656
11	0x3d57064d	0.052496243
12	0xbc365011	-0.011127488
13	0x3d7e0a68	0.062021643
14	0xbdb1fefc	-0.086912125
15	0xbd454038	-0.048156947
16	0xbce674f9	-0.028131949
17	0xbd58d4a0	-0.05293715
18	0x3dccf95b	0.10008498
19	0x3d7ed55b	0.06221519
20	0xbc18e9b9	-0.009333068
21	0x3ce8174c	0.028331421
22	0x3d028f9f	0.03187525
23	0x3c3795fc	0.011205193
24	0x3d61c84f	0.05512267
25	0xbd00656e	-0.03134673
26	0x3e021ff7	0.12707506
27	0x3de334d0	0.110940576
28	0x3e3d3c5f	0.18480061
29	0xbd7b96e2	-0.06142319
30	0x3dd8fd6b	0.10595211
31	0xbcba7202	-0.022759441
32	0xbd3866a0	-0.045019746
33	0x3dc45520	0.09586549
34	0xbe0e0d57	-0.13872276
35	0xbdfdeaf3	-0.12398329
36	0xbd012c88	-0.03153661
37	0x3cdccd17	0.026953263
38	0x3de02c5f	0.10945963
39	0xbd02b177	-0.031907525
40	0xbe1cef0d	-0.15325566
41	0x3d629a1c	0.05532275
42	0xbe0bfa43	-0.13669686
43	0xbbf93f0d	-0.007606393
44	0x3cc16f4a	0.023612637
45	0xbdf085c9	-0.117442675
46	0x3c2b9048	0.010471411
47	0x3e008041	0.12548925
48	0x3e32239c	0.17396396
49	0xbd922860	-0.07136607
50	0xbdde1fa6	-0.1084588
51	0x3d0a3d84	0.033750072
52	0xbdac9d7a	-0.08428474
53	0xbbc96a47	-0.0061467024
54	0x3d0c7e24	0.034299985
55	0xbd51f55a	-0.051259376
56	0xbcdb3cdd	-0.02676242
57	0xbb69fead	-0.0035704777
58	0x3da5ef3a	0.081022695
59	0xbdc01ce1	-0.09380508
60	0xbddfe43b	-0.109322034
61	0xbc807344	-0.015679963
62	0x3d35edb9	0.044416163
63	0x3ca1415e	0.01968449
64	0x3d234305	0.039858837
65	0xbd48cce0	-0.04902351
66	0xbdd04120	-0.101686716
67	0xbd00b714	-0.031424597
68	0x3d6e3104	0.058152214
69	0x3d97f3e0	0.07419562
70	0x3d86a09a	0.06573601
71	0x3d96a47f	0.07355594
72	0xbdc95e61	-0.098324545
73	0x3d33c0ec	0.043885157
74	0x3d8deba7	0.06929713
75	0x3d68ace2	0.0568055
76	0x3d0281c8	0.03186205
77	0x3d84b3e6	0.064796254
78	0x3d46b209	0.04850963
79	0x3d942f2d	0.072355606
80	0x3dc95e9d	0.09832499
81	0x3d5fff3c	0.05468677
82	0xbcae78f4	-0.02129791
83	0x3e06dbaa	0.13169733
84	0x3d534662	0.051580794
85	0xbbcbe3a5	-0.0062222057
86	0x3dab36c6	0.083600566
87	0x3dd46c5c	0.103722304
88	0x3d1f9b01	0.038966183
89	0xbcbb1b85	-0.02284027
90	0xbd9031dd	-0.07040761
91	0xbd71122c	-0.05885522
92	0xbdf30841	-0.11866809
93	0x3d0c5c59	0.034267757
94	0xbc8d9326	-0.01728208
95	0xbe25fa3b	-0.16208737
96	0x3d830904	0.06398204
97	0xbcad1803	-0.021129614
98	0xbde23e42	-0.11047031
99	0x3d6b19bb	0.057397585
100	0xbb8bfa4c	-0.004271781
101	0x3d9524c5	0.07282404
102	0xbd8be39b	-0.06830522
103	0xbdedfa6a	-0.11620028
104	0xbd2e0f24	-0.042494908
105	0xbdc4eacf	-0.09615099
106	0xbd18edcb	-0.037336152
107	0x3dddaf93	0.10824504
108	0x3e002c1a	0.12516823
109	0xbd6a454f	-0.057195004
110	0x3db9138e	0.09036933
111	0x3dd3623f	0.10321473
112	0x3d675969	0.056481753
113	0xbd5d2569	-0.053990755
114	0xbc878566	-0.016543102
115	0xbc72a026	-0.01480869
116	0x3d2ed92e	0.042687587
117	0xbdc99091	-0.09842027
118	0x3d6f87dd	0.05847918
119	0x3c4d077a	0.01251399
120	0x3c10d338	0.008839421
121	0x3d4a2100	0.049347878
122	0x3cee7497	0.029108329
123	0x3cdc0412	0.02685741
124	0xbc02a243	-0.0079732565
125	0xbdaf3782	-0.08555509
126	0x3c8bc3af	0.017061083
127	0x3db25861	0.08708263
128	0x3c7f0012	0.015563982
129	0x3e188245	0.14893444
130	0x3dbce694	0.09223667
131	0x3cad9e6e	0.02119371
132	0x3cb6fff2	0.022338841
133	0x3d9723f3	0.07379904
134	0xbd9c7fff	-0.07641601
135	0xbcd1056a	-0.025515277
136	0xbdb4ade8	-0.088222325
137	0x3d3f3aa7	0.046686795
138	0xbda32e5a	-0.07967825
139	0x3d034a59	0.032053325
140	0xbba38ed9	-0.004991394
141	0x3ddc2a60	0.1075027
142	0xbcc3a6fb	-0.023883333
143	0x3de333f3	0.11093893
144	0xbd28b769	-0.04119054
145	0xbe1611cd	-0.14655228
146	0x3c967788	0.018367544
147	0x3d166678	0.036718816
148	0x3d0581d3	0.032594513
149	0x3e02a265	0.12757261
150	0xbd9f67b5	-0.077834524
151	0xbe0e4316	-0.13892779
152	0xbd7dfd7b	-0.062009316
153	0x3d62a6c4	0.05533482
154	0x3cfa5f4c	0.03056302
155	0x3e08250d	0.13295384
156	0xbac2687e	-0.0014832166
157	0x3dae41df	0.08508658
158	0xbc8a7c25	-0.0169049
159	0xbdc7b0b8	-0.09750503
160	0x3d2da611	0.0423947
161	0x3dadaa81	0.08479787
162	0x3c4a43d9	0.012345278
163	0xbd9de178	-0.077090204
164	0xbc205d5d	-0.009787885
165	0xbbb5811d	-0.005539073
166	0xbe0ef207	-0.13959514
167	0xba2855eb	-0.0006421494
168	0x3c3875fa	0.011258597
169	0x3dad0d44	0.08449796
170	0xbd8f5526	-0.06998663
171	0x3d81fbe2	0.06346871
172	0x3e463397	0.19355617
173	0xbc223a84	-0.0099016465
174	0x3e1396f0	0.14413047
175	0x3d954ac3	0.0728965
176	0x3db63cea	0.08898337
177	0x3c772fbf	0.015087067
178	0x3da2bf11	0.07946599
179	0x3dee3f1b	0.1163313
180	0xbb047ec3	-0.0020217157
181	0x3d5bd343	0.05366827
182	0x3d80d38a	0.06290348
183	0xbdff57af	-0.12467896
184	0x3cd8fff3	0.026489234
185	0xbdabc22c	-0.08386645
186	0xbdfe6048	-0.12420708
187	0xbdcee9d6	-0.101031944
188	0xbcbc780b	-0.02300646
189	0x3d82a579	0.06379218
190	0x3d00ebff	0.031475063
191	0xbdc973ef	-0.09836566
192	0xbd7f83ec	-0.06238167
193	0xbda3d9fe	-0.08000563
194	0xbdbc3b28	-0.09190971
195	0x3d8f4c16	0.06996934
196	0xbbd24ab1	-0.0064175953
197	0xbd85e39b	-0.06537553
198	0xbd2e565c	-0.042562827
199	0x3d347775	0.044059236
200	0x3cfda6a2	0.030963246
201	0x3d321431	0.043476287
202	0xbd44457d	-0.04791783
203	0xbd2f5af5	-0.042811353
204	0xbd18ccf2	-0.037304826
205	0x3dc81fce	0.09771691
206	0x3d9ce9a3	0.0766175
207	0xbbba6834	-0.0056886915
208	0x3d29f575	0.04149385
209	0x3d2598d4	0.04042895
210	0xbdde45ca	-0.10853155
211	0x3d1c9662	0.038229354
212	0xbd9825b4	-0.07429066
213	0xbdc63231	-0.09677542
214	0x3d16821e	0.036745183
215	0xbd2d95c0	-0.04237914
216	0xbd97abc2	-0.07405807
217	0xbe12ae0d	-0.14324208
218	0x3dad621f	0.08465981
219	0xbd983d0c	-0.07433519
220	0xbe1eac36	-0.15495381
221	0x3e2ca5a2	0.16860059
222	0xbe06f587	-0.13179599
223	0xbcc4cd84	-0.024023779
224	0xbe013367	-0.12617265
225	0x3d1f1d16	0.038846098
226	0xba85cfcf	-0.0010209027
227	0xbd2ca913	-0.04215343
228	0x3d4e32da	0.050341465
229	0xbbcb7524	-0.0062090326
230	0xba81eec5	-0.0009913078
231	0xbc5df53b	-0.013547237
232	0xbde325ea	-0.11091216
233	0x3d6d0317	0.057864275
234	0x3d4d6026	0.050140522
235	0xbceb1475	-0.028696278
236	0x3e0dcfc2	0.13848785
237	0x3dc4016e	0.09570585
238	0x3c866171	0.016403886
239	0x3d33de8b	0.043913405
240	0x3e01e9a2	0.1268678
241	0x3cb65fbb	0.022262445
242	0x3d01b373	0.031665277
243	0x3d07dfa5	0.03317227
244	0x3d7fd82d	0.06246202
245	0xbd7400e4	-0.059571162
246	0xbcaf5e20	-0.021407187
247	0xbdd46423	-0.10370662
248	0xbd615e5f	-0.05502164
249	0xbde5dd6f	-0.11223876
250	0x3d5eb823	0.054374825
251	0x3d66578d	0.05623584
252	0x3d0abd18	0.03387174
253	0x3c82292e	0.015888777
254	0x3d59e1bc	0.053193793
255	0xbdb3958a	-0.08768757

bias_ih_l0 f4 [256]
0	0x3e255537	0.16145788
1	0x3dc3323f	0.09531068
2	0xbe1ce610	-0.15322137
3	0xbdf7671e	-0.12080215
4	0xbdf78d2e	-0.12087475
5	0x3dae26f4	0.085035235
6	0x3d90f796	0.07078473
7	0xbd5e8fdc	-0.054336414
8	0xbe00d073	-0.12579517
9	0xbd40e937	-0.04709741
10	0xbdfda312	-0.12384619
11	0x3d5a3924	0.05327715
12	0xbddeae69	-0.1087311
13	0x3d489f93	0.048980307
14	0xbc942de0	-0.018088281
15	0x3c57bff6	0.013168326
16	0xbc8baebb	-0.017051091
17	0x3e3441f4	0.17603284
18	0x3d1d9353	0.038470577
19	0x3d2ab810	0.041679442
20	0x3dd282ee	0.10278879
21	0x3dcb97f0	0.09941089
22	0x3d224334	0.03961487
23	0x3d80a415	0.06281296
24	0x3ded38f1	0.11583126
25	0x3cde8d99	0.027167128
26	0x3a0d904d	0.00054002256
27	0xbcae1776	-0.021251421
28	0xbd48a964	-0.04898967
29	0x3dfc2c54	0.123131424
30	0xbd184376	-0.03717371
31	0x3d14074c	0.03613977
32	0x3d534de0	0.05158794
33	0x3dda4987	0.106585555
34	0x3da85d21	0.08220888
35	0x3df6c279	0.120488115
36	0x3ddbb449	0.10727746
37	0xbe1ae8d4	-0.1512788
38	0x3c14f2e1	0.00909111
39	0x3d69ceac	0.057081863
40	0xbda90f6d	-0.08254895
41	0xbd6e68b9	-0.05820534
42	0xbe28e2b6	-0.16492733
43	0xbe2f7738	-0.17135322
44	0xbd22112a	-0.03956715
45	0x3d07c8f2	0.03315062
46	0xbdfebba7	-0.124381356
47	0xbdae0f52	-0.08499016
48	0xbd802603	-0.0625725
49	0xbdc738de	-0.097276434
50	0xbc7bfcd0	-0.015380099
51	0x3d498cd5	0.049206574
52	0xbd662153	-0.056184124
53	0x3df3931c	0.11893293
54	0x3ad488cd	0.0016215086
55	0xbdc4f437	-0.09616893
56	0x3dc44b48	0.09584671
57	0x3d9b2553	0.075754784
58	0x3b96f855	0.00460724
59	0xbc343617	-0.010999224
60	0x3d0e0b77	0.034678902
61	0xbced9452	-0.029001389
62	0x3e13880a	0.14407364
63	0x3cbf0993	0.023319995
64	0xbcf9b4eb	-0.030481776
65	0xbdecbd54	-0.11559549
66	0xbd1c7959	-0.038201664
67	0xbe106523	-0.1410108
68	0x3d49d5ba	0.04927609
69	0xbd347080	-0.0440526
70	0xbcadd6bf	-0.021220563
71	0x3d8d1963	0.06889608
72	0xbb2995d9	-0.002587667
73	0x3d3fd96d	0.046838213
74	0xbda5373d	-0.080671765
75	0xbe1b7265	-0.15180357
76	0xbd55b284	-0.0521722
77	0xbd2b11af	-0.04176491
78	0xbd79de4b	-0.06100301
79	0x3c8f64a3	0.017504042
80	0x3c31347c	0.010815736
81	0x3da309ea	0.07960875
82	0xbd9c6077	-0.07635587
83	0xbe027a6b	-0.12742011
84	0x3c8ab883	0.016933685
85	0x3d7b0642	0.061285265
86	0x3d06c027	0.032898095
87	0xbd1d32c3	-0.03837849
88	0xbdf49265	-0.11941985
89	0x3c4591c4	0.012058679
90	0xbe408060	-0.18798971
91	0xbd1bbff9	-0.038024876
92	0xbe06773f	-0.13131426
93	0x3ce5b4ef	0.028040377
94	0xbe004c1f	-0.12529038
95	0x3d173092	0.036911555
96	0xbe2ea357	-0.17054497
97	0xbd27b587	-0.040944602
98	0xbd96aba9	-0.0735696
99	0xbdbace6c	-0.09121403
100	0x3d7c3dd3	0.061582398
101	0xbd8c4809	-0.06849677
102	0x3c9b5db4	0.01896558
103	0xbd23882a	-0.039924778
104	0xbdcf54fa	-0.1012363
105	0x3db514ee	0.08841883
106	0xba9390bf	-0.0011258348
107	0x3d875110	0.06607258
108	0xbdcc097e	-0.09962748
109	0x3d8eb421	0.069679506
110	0x3d38bce1	0.045102004
111	0xbddca274	-0.10773173
112	0xba9c4c74	-0.001192464
113	0xbe1e2fd5	-0.15447934
114	0x3cc521bf	0.024063943
115	0xbe1c6ef7	-0.15276705
116	0xbd61dd5c	-0.055142745
117	0xbdb84105	-0.089967765
118	0x3dd36464	0.10321882
119	0x3c6ecf8d	0.014575851
120	0xbdb58bb7	-0.08864539
121	0xbc9e81dc	-0.019349031
122	0xba82b094	-0.0009970837
123	0x3cea391e	0.028591689
124	0xbafa3b95	-0.0019091243
125	0x3d8d32fc	0.0689449
126	0xbda1ff6c	-0.07910046
127	0x3db15b59	0.08660001
128	0x3d99ce24	0.07510021
129	0x3b07b8a9	0.0020709431
130	0x3b46d2b5	0.0030337994
131	0xbdba728c	-0.09103879
132	0xbdf3973d	-0.11894081
133	0xbdb5f803	-0.08885195
134	0xbd0d7671	-0.034536783
135	0x3e0280d9	0.12744464
136	0xbbeeb2b6	-0.0072844876
137	0xbdd84f96	-0.10562055
138	0x3da86c53	0.08223786
139	0xbd92acf9	-0.07161898
140	0xbd95493d	-0.0728936
141	0xbdd8200a	-0.10552986
142	0xbe0faecc	-0.14031523
143	0x3df5fddc	0.120113105
144	0x3d65728b	0.05601744
145	0x3d3a48cd	0.045479584
146	0xbdcc4db8	-0.09975761
147	0x3dae7b76	0.08519642
148	0x3d0a8e49	0.0338271
149	0x3e0ef9ff	0.13962553
150	0x3d845b7d	0.064627625
151	0x3dec7c52	0.1154715
152	0x3d49a2b9	0.04922745
153	0x3d03d0da	0.0321816
154	0x3c54df96	0.01299276
155	0x3cff3a3b	0.031155696
156	0xbb965fd6	-0.0045890613
157	0xbe2502db	-0.1611437
158	0xbd4021e1	-0.04690731
159	0x3df7e7ff	0.121047966
160	0xbde1538c	-0.110022634
161	0xbd2e2b1d	-0.042521585
162	0x3d4a4c3f	0.04938912
163	0xbde2f2fc	-0.11081502
164	0xbe06ce3c	-0.1316461
165	0xbd92f57e	-0.0717573
166	0x3d59292e	0.053017788
167	0xbdceea6f	-0.101033084
168	0x3ccbeac5	0.02489222
169	0xbdd5af4e	-0.10433827
170	0xbd214fe4	-0.03938283
171	0xbd0c4186	-0.034242176
172	0xbd870049	-0.06591851
173	0x3b0f27a9	0.0021843708
174	0x3d813703	0.06309321
175	0x3cb54074	0.02212546
176	0xbb2a2ffb	-0.002596854
177	0xbdd58c58	-0.10427159
178	0xbc037c4f	-0.008025243
179	0x3a8c0a05	0.0010684138
180	0x3b928696	0.0044716103
181	0xbd8c1471	-0.068398364
182	0x3d7993aa	0.06093184
183	0xbdf2b912	-0.118517056
184	0x3d544cc7	0.051831033
185	0xbd93b98f	-0.07213127
186	0x3df4b944	0.11949399
187	0xbaf86c1d	-0.0018953119
188	0x3daddb88	0.08489138
189	0xbdb8f7ba	-0.09031625
190	0xbca3ca06	-0.019993793
191	0x3d53b03a	0.051681735
192	0x3dc152a9	0.09439594
193	0xba50abd0	-0.00079601724
194	0x3bc556d1	0.006022312
195	0xbe123baf	-0.1428058
196	0x3d6179d5	0.05504783
197	0x3d656142	0.056000955
198	0x3db8ad9d	0.09017489
199	0xbdb4f632	-0.088360205
200	0xbd6eae44	-0.05827166
201	0x3bed408a	0.0072403597
202	0xbb03f36f	-0.0020134111
203	0x3dbd1975	0.09233371
204	0xbdfe0194	-0.12402645
205	0xbb378487	-0.0028002576
206	0x3cba8985	0.022770653
207	0xbda1bdf9	-0.078975625
208	0xbd2b2fa4	-0.04179348
209	0xbd8baaaf	-0.06819665
210	0xbbea08dd	-0.00714217
211	0x3b8b57a4	0.004252391
212	0x3db43d18	0.08800715
213	0xbd58c2bb	-0.052920084
214	0xbdf408fe	-0.119157776
215	0xbb23761d	-0.0024942227
216	0xbcac86bf	-0.021060346
217	0xbd9d399e	-0.07677005
218	0xbda18c17	-0.07888048
219	0x3cdb5f62	0.02677888
220	0x3d9ea637	0.07746547
221	0x3d893809	0.06700141
222	0xbda841be	-0.08215664
223	0xbd98930e	-0.074499235
224	0x3dd1a158	0.10235852
225	0x3d1f4f72	0.038894124
226	0xbe26d00b	-0.162903
227	0xbc833eea	-0.01602121
228	0xbdc2754c	-0.09495029
229	0x3a103c18	0.0005502119
230	0xbd46bde7	-0.04852095
231	0x3d9c7246	0.076389834
232	0xbb3e50f5	-0.0029039953
233	0xbd4460f3	-0.04794402
234	0xbe270f4a	-0.16314426
235	0xbcd81b08	-0.026380077
236	0xbd9f3582	-0.07773878
237	0x3d733ae2	0.059382327
238	0xbcbb2e20	-0.022849143
239	0x3d698953	0.05701573
240	0x3bd55fd3	0.0065116673
241	0x3d8faf10	0.070158124
242	0xbdc8f031	-0.09811438
243	0x3cc06c97	0.02348928
244	0xbe2a1137	-0.1660813
245	0x3c720b3b	0.014773185
246	0x3de49380	0.11160946
247	0xbe0de18a	-0.13855568
248	0xbc937bd2	-0.018003378
249	0xbdd08e12	-0.10183348
250	0x3db0e1e7	0.086368375
251	0x3ced7eed	0.028991187
252	0xbc9e1d20	-0.019300997
253	0x3d05dd86	0.032681964
254	0x3dcee0c9	0.10101468
255	0x3d548e30	0.051893413

bias_hh_l0 f4 [256]
0	0x3de85625	0.11344556
1	0x3cb4ed92	0.022085939
2	0xbe0384e0	-0.12843657
3	0xbcf5ddda	-0.030013014
4	0x3ddb9ea0	0.10723615
5	0xbd061580	-0.032735348
6	0xbc13e675	-0.009027113
7	0x3ca912b6	0.020638805
8	0x3b9caaf0	0.0047811195
9	0x3db7706e	0.08956991
10	0xbe0b0c44	-0.13578898
11	0xbbf396d5	-0.007433752
12	0xbcefde2d	-0.029280746
13	0xbdedd396	-0.116126224
14	0x3d254dc7	0.040357377
15	0xbdad45fc	-0.08460614
16	0xbdb9702a	-0.09054597
17	0x3d076b5c	0.03306137
18	0xbaacd345	-0.0013185522
19	0xbd25b8d0	-0.040459454
20	0xbd351798	-0.044211954
21	0x3da7eea3	0.08199813
22	0x3dc206dc	0.094739646
23	0xbb5835a3	-0.0032990954
24	0x3cb5a264	0.02217216
25	0x3dca3d75	0.09875003
26	0x3db37be5	0.087638654
27	0x3e02e68b	0.12783258
28	0xbd055210	-0.032548964
29	0xbd91a5f7	-0.071117334
30	0x3d84dbc5	0.0648723
31	0xbdfc276d	-0.12312207
32	0x3d447310	0.047961295
33	0x3d2322bb	0.039828043
34	0xbda78513	-0.08179679
35	0x3d0e245b	0.03470264
36	0xbcf79bac	-0.030225597
37	0x3d98b0b0	0.074555755
38	0xbde9b49f	-0.11411404
39	0x3d14c426	0.036319874
40	0x3d339f28	0.043852955
41	0x3d24890b	0.040169757
42	0xbcb26af3	-0.021779513
43	0xbd95cc9b	-0.07314416
44	0x3d111727	0.03542247
45	0xbc099bce	-0.008398963
46	0xbd585c4b	-0.052822392
47	0xbd97fd3c	-0.074213475
48	0x3db6cf26	0.08926229
49	0xbdd22455	-0.10260836
50	0xbd99f172	-0.07516755
51	0x3d840b90	0.06447518
52	0xbd619ff2	-0.055084176
53	0x3c5eb9f7	0.013594142
54	0x3d723cd7	0.059140053
55	0x3dc45909	0.095872946
56	0xbd38741c	-0.045032606
57	0xbdfa26b1	-0.12214411
58	0xbc97f88f	-0.01855114
59	0x3d9c524e	0.07632886
60	0xbb888833	-0.004166627
61	0x3e080ba0	0.13285685
62	0x3da94687	0.08265405
63	0xbd9775d6	-0.07395522
64	0xbe621de4	-0.22081715
65	0xbe0dff19	-0.13866843
66	0xbcf12c51	-0.029440077
67	0xbda9eb4f	-0.08296835
68	0xbdd9632f	-0.10614621
69	0xbd813b17	-0.063100986
70	0xbbf8db91	-0.0075945337
71	0xbdbb3b50	-0.09142172
72	0xbca12820	-0.019672453
73	0xbc7909c7	-0.015200085
74	0xbd5eb04d	-0.054367352
75	0xbca8cf00	-0.020606518
76	0x3cf29ab9	0.029614793
77	0xbd030840	-0.03199029
78	0x3da0ec90	0.07857621
79	0x3d820c41	0.063499935
80	0x3daab730	0.083357215
81	0xbba74406	-0.0051045446
82	0xbe01f35c	-0.1269049
83	0x3d58e104	0.052948967
84	0x3d8771c6	0.066134974
85	0x3dc31294	0.09525028
86	0xbcd8bf0e	-0.02645829
87	0xbe18b171	-0.14911439
88	0x3dc3feb2	0.09570064
89	0x3dd21b1d	0.10259078
90	0x3ceb7107	0.02874042
91	0xbc8320dd	-0.016006881
92	0xbdf02c71	-0.117272265
93	0xbe2b9994	-0.16757804
94	0xbc50daab	-0.012747447
95	0xbd418290	-0.047243655
96	0x3c9a8d8a	0.01886632
97	0xbdaa7fbf	-0.08325147
98	0xbe54a24a	-0.20765033
99	0xbc066ed2	-0.008205133
100	0xbddfc894	-0.10926929
101	0xbca22b8a	-0.019796152
102	0xbd531d30	-0.051541507
103	0x3cd0bc54	0.025480427
104	0xbd4a3909	-0.0493708
105	0xbcff1a40	-0.031140447
106	0xbd8e8cdf	-0.06960463
107	0xbdb46198	-0.08807677
108	0xbded5f48	-0.11590439
109	0xbdc8f87a	-0.09813018
110	0xbe10e82f	-0.14151071
111	0xbe13a375	-0.14417823
112	0xbcc7d668	-0.024394229
113	0xbd657bff	-0.056026455
114	0xbd98a158	-0.07452649
115	0xbd31b920	-0.04338944
116	0x3ce8647e	0.02836823
117	0x3ddc8b05	0.10768703
118	0x3da5f4c6	0.081033275
119	0x3db144aa	0.08655675
120	0xbda4c690	-0.08045685
121	0x3ce56d9a	0.028006364
122	0x3c18fc29	0.009337463
123	0xbc8c2fb4	-0.01711259
124	0x3d087b91	0.033320967
125	0x3d9667ad	0.07343993
126	0xbddb7fb8	-0.1071772
127	0xbdb8fb29	-0.0903228
128	0xbd94ccd6	-0.07265632
129	0x3cd83090	0.026390344
130	0xbda7153c	-0.08158347
131	0xbb0d703d	-0.0021581792
132	0xbd809253	-0.06277909
133	0xbdc922d6	-0.098210976
134	0x3dd97005	0.10617069
135	0xbdc453c3	-0.09586289
136	0x3d630925	0.055428643
137	0xbd935a24	-0.07194927
138	0x3b40492a	0.0029340484
139	0x3d41070b	0.047125857
140	0xbd93fa44	-0.07225469
141	0x3c2bff1a	0.010497833
142	0xbdc523ce	-0.0962597
143	0x3d8c654f	0.068552606
144	0x3df33edb	0.11877223
145	0x3d0fcfc1	0.03511024
146	0x3c1e13a7	0.00964824
147	0x3dad5d1c	0.08465025
148	0x3c35b0ed	0.011089546
149	0xbdac21e4	-0.084049016
150	0xbc4a9d9c	-0.012366679
151	0x3df9de3f	0.12200593
152	0x3d85e0cc	0.06537017
153	0x3d9bc707	0.07606321
154	0x3d78a18b	0.060700934
155	0xbdab74e6	-0.08371906
156	0xbd31f89a	-0.043449976
157	0xbe1df2f1	-0.15424706
158	0xbd9c97c9	-0.07646138
159	0xbbccdb6a	-0.006251742
160	0xbdb6fdfe	-0.08935164
161	0xbe1020d2	-0.1407502
162	0xbe015879	-0.12631406
163	0x3c9df791	0.019283088
164	0x3d86af22	0.06576373
165	0xbe005059	-0.1253065
166	0xbbf6595f	-0.007517978
167	0x3ddb5eb8	0.107114255
168	0xbc2adc12	-0.010428445
169	0xbd9af9ff	-0.07567214
170	0x3da6c34a	0.08142717
171	0x3d0ea6f1	0.034827176
172	0x3d14d60a	0.036336936
173	0xbdfbca03	-0.1229439
174	0x3d8c7488	0.06858164
175	0x3c229b1f	0.009924679
176	0xbca61091	-0.020271571
177	0x3c809c15	0.015699426
178	0xbdae6ea7	-0.08517199
179	0xbde9c900	-0.11415291
180	0xbd8198f0	-0.06327999
181	0xbe068b5d	-0.131391
182	0xbd49d692	-0.049276896
183	0xbba091ed	-0.004900208
184	0xbd2f35ab	-0.04277579
185	0xbccef49b	-0.025263121
186	0xbcfc645c	-0.030809574
187	0xbd869018	-0.065704525
188	0xbcfc6db7	-0.030814035
189	0xbd533f0e	-0.051573806
190	0x3dc93eed	0.09826455
191	0xbb5dfaa7	-0.0033871324
192	0x3bca14f7	0.00616705
193	0x3d76db5a	0.060267784
194	0xbe0381c8	-0.12842476
195	0xbe10c74d	-0.14138527
196	0xbe0355e3	-0.12825732
197	0xbcececd6	-0.028921526
198	0x3ca8fb33	0.020627594
199	0xbda0ba47	-0.078480296
200	0xbe1262b6	-0.14295468
201	0x3e04d541	0.12971975
202	0xbd87d602	-0.066326156
203	0x3d86777e	0.0656576
204	0x3da44578	0.080210626
205	0x3d731c01	0.05935288
206	0xbc9db062	-0.019249145
207	0xbd877bc5	-0.06615404
208	0x3d492895	0.049110968
209	0x3d97c24b	0.07410105
210	0xbc7a7d5d	-0.015288678
211	0xbe0e35e7	-0.1388775
212	0x3d8992b6	0.06717436
213	0x3d89c03b	0.06726118
214	0xbdf801f0	-0.121097445
215	0x3dcf14ec	0.101114124
216	0xbe09a83d	-0.13443084
217	0x3cc9996a	0.024609286
218	0x3d2fb40c	0.042896315
219	0x3e152fde	0.14569041
220	0xbb0e13f5	-0.0021679376
221	0x3c6aae14	0.01432373
222	0x3da763a8	0.08173305
223	0x3d494841	0.049141172
224	0x3da34267	0.079716496
225	0x3d41588c	0.047203586
226	0xbd1b67f2	-0.037940927
227	0xbd618186	-0.055055164
228	0xbd948cf3	-0.072534464
229	0x3d869f45	0.06573347
230	0xbe01223d	-0.12610717
231	0xbd2b24b5	-0.041783053
232	0xbda2e81e	-0.07954429
233	0x3c36ea95	0.011164327
234	0xbd178faa	-0.037002243
235	0xbe17f206	-0.14838418
236	0xbc2d19bd	-0.0105652185
237	0xbd5aa907	-0.053383853
238	0x3c290e0f	0.010318293
239	0x3c1b8cea	0.009494046
240	0x3d18e1e5	0.037324805
241	0xbd1e9986	-0.03872063
242	0x3dadfcdb	0.08495494
243	0xbd6513d0	-0.055927098
244	0xbe3bb52e	-0.18330833
245	0x3da1e051	0.07904113
246	0x3cced7e1	0.025249423
247	0xbc473e12	-0.012160795
248	0x3db46e2c	0.08810076
249	0xbe3755b6	-0.1790379
250	0xbdacc040	-0.08435106
251	0x3d106d79	0.03526065
252	0xbc8e15f4	-0.017344452
253	0xbd9759ae	-0.07390152
254	0x3d8b289b	0.06794854
255	0x3d079bf5	0.033107717

weight f4 [1, 64]
0	0xbc829043	-0.01593793
1	0x3da69191	0.08133233
2	0xbb530d23	-0.0032203875
3	0xba679073	-0.00088334753
4	0x3d439e6a	0.047758497
5	0x3d5e81a7	0.054322865
6	0xbd84c1bf	-0.06482267
7	0xbdc933b2	-0.09824313
8	0xbca1e3c1	-0.019761922
9	0x3de86704	0.11347774
10	0xbca3e263	-0.02000541
11	0xbd820a2f	-0.063495986
12	0x3dd0757d	0.10178659
13	0xbdb69859	-0.08915777
14	0x3dedc9fe	0.116107926
15	0xbdd34dbe	-0.103175625
16	0xbdd364ea	-0.10321982
17	0xbdcbdd25	-0.09954289
18	0x3d940bb9	0.072287984
19	0x3dc0130d	0.09378634
20	0x3d0e4b5b	0.034739833
21	0xbd820468	-0.06348497
22	0x3d91da93	0.07121768
23	0xbdffb768	-0.12486154
24	0xbde1f3fa	-0.11032863
25	0xbde00e21	-0.10940195
26	0x3c90363d	0.017603988
27	0xbe053f5d	-0.13012452
28	0xbdf3e387	-0.11908632
29	0x3df91f6e	0.12164198
30	0xbe19d030	-0.15020823
31	0xbd80837f	-0.06275081
32	0xbdcb2f87	-0.099211745
33	0x3d339224	0.043840542
34	0xbc8c8c6d	-0.017156804
35	0x3d6cdbf9	0.05782697
36	0x3dcb1c75	0.09917537
37	0x3d79a2d0	0.060946286
38	0xbda8f5e7	-0.08250027
39	0xbe004a8e	-0.1252844
40	0x3dcb107c	0.099152535
41	0x3d4eb8e6	0.0504693
42	0x3d22e85c	0.039772376
43	0x3a84ee1c	0.0010141763
44	0x3df7c352	0.12097801
45	0x3d7b9e44	0.06143023
46	0x3d9ed9d2	0.0775639
47	0xbd2ef003	-0.04270936
48	0xbd834643	-0.06409886
49	0x3d7c4253	0.06158669
50	0xbe0f2fad	-0.1398303
51	0xbd3fa64b	-0.04678945
52	0x3c0706d9	0.008241379
53	0x3dbceb44	0.09224561
54	0x3db3b2d8	0.08774346
55	0x3d55a396	0.05215796
56	0x3d832628	0.06403762
57	0xbc696925	-0.01424626
58	0x3c96b2fe	0.018395897
59	0x3d92b738	0.071638525
60	0x3db14766	0.08656196
61	0x3da2a148	0.07940918
62	0x3bd2327a	0.0064147087
63	0xbdd8b1fe	-0.10580824
