model/3013.2653384658975_weight.pth (torch, 131983 bytes, 7 tensors)

weight f4 [16, 32, 1]
00000000: 5e9f b7bd 90dc 47be 0e74 bfbd 278a b23c
00000010: b30c 55be 6f6d 233d 9787 b3bd 424b eabd
00000020: 8cb4 bcbc 4939 41be d866 11bc 3a6b c5bb
00000030: 6455 33be 1e1a 8c3c 4622 47bd accf 7fbd
00000040: 1d50 e33d 275a 4dbd 9673 95bd 8978 e53d
00000050: a43a 93bd f57f 003c 568d 1dbe 76e8 71b9
00000060: c4ee efbd 6c95 fdbd f022 a2bc 84c4 823d
00000070: 2cd8 553c 3b42 a93d 3288 5ebd 08e2 cb39
00000080: 3a58 16be b9c4 c4bd e67d 43bd f7e9 9b3d
00000090: c31c 173e f4be 48bd fd38 0ebe 20ee e6bd
000000a0: dff5 41bd 5108 afbd 0884 923d 70ea 7f3d
000000b0: 2048 913d cbec 0abe 61e0 74bd 982b d4bd
000000c0: 11a5 043e b5a9 1ebe d316 b03d 5c76 d83d
000000d0: 754e 0ebe 8861 423e bc89 173d 8d90 8e3d
000000e0: 3260 66bd e289 233c 1581 a93d 066b eb3d
000000f0: 6b35 123e 06f0 0f3e 2891 07be 2500 81bc
00000100: 965e 66be 3076 27be 96f1 23be 3059 f7bd
00000110: 43ec f1bc b0b8 073d 6aaa 9d3d 4737 9fbd
00000120: d34b 463c 75d5 7fbd 7bb7 1dbe 058f 18bd
00000130: f2ec f3bd 8a4c 54bc 12f2 f93d 5bdf f0bd
00000140: 7185 0e3d 5d71 7f3d 593b 79bd b412 b73d
00000150: 629a 45be d848 1bbe 4fc5 1bbd 1a41 c53d
00000160: fb4b e03c ba11 35bd 6b84 d23d 9b01 403d
00000170: e136 153e 332c dfbd da63 54be f513 25be
00000180: 539b 5fbe fc1d 4d3b 1253 8ebe 7850 733d
00000190: fb12 fdbd 324c 9bbd d680 0d3e 3a3a 2c3e
000001a0: a566 aa3d e854 b5bd 1d9f 55bd e885 dc3d
000001b0: e26e 99bd 4db1 303c dc31 283e b037 1fbd
000001c0: 3138 8d3d 07dd 34be 0927 783d c679 0d3e
000001d0: 4d8f 9dbd 0e54 0a3e 2630 b83d 5ace 253e
000001e0: 4b5a 2b3e d407 50bd 4df4 4ebd dcce 2b3e
000001f0: b9d8 b13d b098 0e3e 3a4c 1fbe 0edc 22be
00000200: b964 10be 82e6 a73c 2795 14be f873 28ba
00000210: 31b4 bfbd 1b7f 66bd 40a2 e03d b139 153e
00000220: 5ba3 a9bd 094b 37be f992 53bd 539f eabc
00000230: 2eb0 c23d 1807 28be 7fd4 12be f463 dfbd
00000240: 934c c2bd 6b79 c0bd 4a23 93bd 3acc 82bd
00000250: 3893 bfbd 0abc 0fbd 5d8d 4d3d 0e9f f1bd
00000260: 728c 2ebe 3edc 173e ca96 58bd 231d 18bc
00000270: 7589 31be 3df0 033e 39d7 d9bc c771 0fbe
00000280: 3975 733e b6d5 8d3d 4515 81bc e9cf db3d
00000290: 9f05 b73c 25e0 1a3c 98f9 273e 0732 f73d
000002a0: cca7 13be dbe3 083e 267b d3bd 508c 27be
000002b0: 1bc0 1fbe 7ec3 adbd b790 07be c529 3bba
000002c0: f8ae ecbd 2980 fcbd a2ec 28bd 5a65 46bd
000002d0: 885b d9bd 7cf9 d03d 06ed 25be d57a dcbc
000002e0: 08cc 393e 3224 abbd 694a 733d 80dd 4abe
000002f0: 6e3c b2bd e85f 33be 5bae aa3d 5d60 e43d
00000300: a594 7cbe 39e7 82be 7f95 a0bd 7ee3 f1bd
00000310: 5c00 ae3d cdee 6cbd 4d12 0c3d 4c49 c2bd
00000320: 3734 29bd 4c03 703d b355 453b 719f d8bd
00000330: 56f2 b8bd c3af c3bb df03 b83d ba28 e6bd
00000340: 1558 4f3d 8181 773d 0f2e 0c3e 718e f13d
00000350: 0aea b0bd 20fa 483e 702f 8dbd 79c7 c9bc
00000360: 36cd c13b aa04 d73d 66e4 1ebe 6f0e e7bc
00000370: 9461 383e 3b5b 6dbd 8b38 c93d 6944 f8bd
00000380: cc08 89bc 3b1b 783d d006 d53d 6d3b 543c
00000390: 6f94 833c c8f6 08be b82e 04bd b43d 1bbe
000003a0: e906 283e 4400 2f3e 358e 10be df36 773c
000003b0: 463b c1bd 3059 0a3d ce5c 20bd 00a7 523e
000003c0: 4d4a 56bd 8338 87bc 4dd9 0ebe 5374 5c3e
000003d0: 822e 673e a2b9 28be a16a 3c3e d58d ef3d
000003e0: 5f5b d3bd fef3 8b3d 922e 33be fa5c 04bc
000003f0: 21e1 84bd 6698 25be b5b3 313e 7378 10be
-0.08965944 -0.19517732 -0.093483075 0.021794392 -0.20805626 0.039899286 -0.08766096 -0.114401355
-0.02303531 -0.18869509 -0.0088746175 -0.0060247453 -0.17513043 0.017102297 -0.04861667 -0.06245391
0.11099265 -0.050134804 -0.07297437 0.11204631 -0.07188919 0.007843007 -0.15385947 -0.0002307015
-0.11715463 -0.123820156 -0.01979205 0.06385139 0.013052028 0.082645856 -0.054329105 0.00038887584
-0.14682093 -0.09607834 -0.047727488 0.07612985 0.14757065 -0.049010232 -0.13888927 -0.112758875
-0.04735362 -0.08546508 0.07154089 0.062479436 0.07093835 -0.13566892 -0.059784297 -0.10359877
0.12953593 -0.15494426 0.085981034 0.1056945 -0.13897116 0.18982518 0.036996588 0.069611646
-0.056244083 0.009981604 0.082765736 0.114950225 0.1427819 0.14056405 -0.13238966 -0.01574714
-0.22497019 -0.16353679 -0.16010126 -0.12077558 -0.029531604 0.033135116 0.076985195 -0.07774215
0.012103039 -0.062459428 -0.15402023 -0.03724577 -0.11910428 -0.012957701 0.122043744 -0.11761352
0.03479523 0.06236397 -0.060847614 0.08939114 -0.19297174 -0.15164506 -0.038029965 0.09631558
0.02737998 -0.04420636 0.10279163 0.04687653 0.14571716 -0.10897102 -0.20741215 -0.16120894
-0.21836595 0.003129839 -0.27797753 0.059402913 -0.12357136 -0.075828925 0.13818678 0.16819087
0.08320359 -0.08854085 -0.052153695 0.10767728 -0.07491852 0.010784459 0.1642527 -0.038871467
0.06895483 -0.1766244 0.0605841 0.13815984 -0.07693348 0.13508627 0.089935586 0.16191998
0.16733663 -0.050788715 -0.050525952 0.1677813 0.08683915 0.13925433 -0.15556422 -0.15904257
-0.14100923 0.020495657 -0.14510022 -0.0006425972 -0.09360541 -0.05627356 0.10968447 0.14572789
-0.08283111 -0.17899717 -0.051653836 -0.028640425 0.0950626 -0.16408956 -0.14338873 -0.109077364
-0.094872616 -0.09398159 -0.07184465 -0.063866094 -0.093542516 -0.035091437 0.050183643 -0.117979154
-0.17045763 0.1483011 -0.05287818 -0.0092842905 -0.17337592 0.12884612 -0.026591884 -0.14008246
0.23775186 0.06925528 -0.015757212 0.10733015 0.022341548 0.009452854 0.16403806 0.12070089
-0.14419478 0.1336817 -0.10326223 -0.16362119 -0.15600626 -0.08484553 -0.13238798 -0.0007139708
-0.1155681 -0.12329132 -0.041241296 -0.0484365 -0.10613161 0.10203835 -0.16203699 -0.02691404
0.18144238 -0.08356513 0.059397135 -0.19811058 -0.08702932 -0.17517054 0.08334037 0.11151192
-0.24666078 -0.25567034 -0.07841014 -0.11810969 0.08496162 -0.057844926 0.03419714 -0.094866365
-0.04130956 0.058596894 0.0030110895 -0.10577286 -0.09030597 -0.00597188 0.08985113 -0.11238237
0.05062111 0.06042624 0.13689445 0.11794747 -0.086383894 0.19626665 -0.068938136 -0.024631249
0.0059143556 0.104989365 -0.15516815 -0.028205125 0.18005973 -0.057948332 0.09825238 -0.12122423
-0.016727827 0.060572844 0.1040169 0.012953621 0.01606199 -0.1337539 -0.032271117 -0.15160257
0.16408886 0.17089945 -0.14116748 0.015088766 -0.09435134 0.033776462 -0.039151005 0.20571518
-0.052316952 -0.01650644 -0.13950081 0.21528749 0.22576335 -0.16477063 0.1840005 0.11696974
-0.10320162 0.06833647 -0.17498234 -0.008078808 -0.064882524 -0.16171417 0.17353709 -0.14108448

bias f4 [16]
00000000: 221e c23d cae0 ae3d 701a 063e 4c02 243c
00000010: 3539 163e bad0 ecbd 0bbe 7bbd ed0e 803d
00000020: ae91 abbc 26ce e3bc ab18 dc3d 62be 58bd
00000030: 4f40 e5bd df28 2fbd d780 bd3b a710 b4bd
0.09478404 0.08538969 0.13096023 0.010010313 0.1467026 -0.11563249 -0.061460536 0.06252847
-0.020943489 -0.02780826 0.107468925 -0.05291594 -0.111939065 -0.042763587 0.005783181 -0.08792239

weight_ih_l0 f4 [320, 16]
00000000: a0bf a03d 0ea1 ed3c 74e7 eebd 6d27 4d3c
00000010: ffbf 20bd 71e5 9bbd 1fd5 de3d 1515 b3bd
00000020: 0314 6a3d e9fa 633d a5d7 563d b0d2 ca3c
00000030: 904f 77bd 4b44 1dbd 4c54 fabd ab57 c8bd
00000040: e8d3 933d 30f6 873c c975 84bd 8ac4 cb3c
00000050: 501b a4bb 4e10 07be 3cdd 8b3d a885 92bd
00000060: 8668 2d3c 6854 b73c df64 5c3c 0463 dcbd
00000070: 3012 d3bd 431d 0a3d 0f65 babc 7b92 743c
00000080: 6926 bebd ddfa f63b a989 d1bd c68a d2bd
00000090: e2ab cf3d 79e9 283e 2f89 003d fade d7bd
000000a0: 7917 05be 0215 debd 1e26 6ebd c32d 88bd
000000b0: 6b36 b13d 107d ab3d 9324 02be 894c be3d
000000c0: 5ea8 533d 54f8 12bd 1213 c8bd 6192 193e
000000d0: 4228 babd c7b8 b7bd b83b 863d 1c30 c83d
000000e0: 6eaa 5f3d 0dc1 13bd 9224 7bba a0b8 d7bd
000000f0: 9e5c 58bd 5d6b 89bd ee88 43bd 8893 f23b
00000100: 0814 a5bd 4c0f bb3c 4424 ccbd d6d2 533e
00000110: 0c2e 053d f6c1 0dbe 3da4 9bbd 3584 143d
00000120: 7869 0f3e f575 e43d 2fa8 cc3d 9d8d a5bd
00000130: 4393 c33d 5842 1a3d 06f1 b33c 6b3e 8f3d
00000140: 5852 2bbd 3e7e 013d 6ab6 4a3c a859 b4bd
00000150: 98bc a3bd ccea 4e3d 24a3 9c3b 1d6c bdbd
00000160: a873 83bb 3118 94bc 2928 05be 8f84 6b3d
00000170: 1445 e13d 58eb 2abd 6e79 983d 2bb4 9abc
00000180: 1e44 703d a1ef e53c 643c 463d 1422 8d3d
00000190: 26d8 07bc b578 783d 6eda 213e a76f cbbc
000001a0: cbcc 9d3d 594c 00bd f5cd 91bd 767a 143d
000001b0: 2909 80bc ea52 823d 8af5 eabd fbff 013d
000001c0: 9b7c 003e 4dcc 3a3c 8689 833d 6104 f93c
000001d0: ba3e 2c3d 8d3f 753d 96fc 123e b52d 20bd
000001e0: d639 80bb a274 cc3d bd79 2c3d d782 d9bd
000001f0: e7c5 b43c cec8 bdbd f0ec 19be 65fb 09bc
00000200: fc16 b4bc 252a 063d 702d 1cbd 4d31 303d
00000210: 6c43 edbc 5051 243d 4f08 a4bd 2c0c b43b
00000220: 0a7c 75bc 98a2 993d 1b4f 20bc 9ae0 d9bc
00000230: ff55 63bd e7bf 273d 9544 59bb a44b 76bd
00000240: acde 823d 3a7a 863d b29f 6a3d 58f8 473e
00000250: 1f3f 413d 079f 9ebd f254 c9bd 636f 453e
00000260: 4871 fa3c fb43 263e a631 bc3d d55c d8bb
00000270: dcfa 58bd 6057 733c 5e40 8ebd 0717 acbc
00000280: a678 b53b c042 44bd f8ae a53d 20bf 0c3d
00000290: 6ade a1bc 4c7b cbbd 8f1c 80bd b474 5e3e
000002a0: a832 213c 1a0d 213e 12ed 183c 4703 3fbe
000002b0: f2bf 963c b0b5 9d3d 9291 7bbd 2409 373b
000002c0: eab7 e63d 5fb0 73bd 93b6 1b3e 3988 923d
000002d0: b5da 8e3c 0896 cdbd e4a8 b43d 78df 823d
000002e0: 08f1 083d f5cf cebc 80ae 123e 9867 f2bc
000002f0: 8f5d 02bd 6c40 e3bc 9d20 2dbe 84ba 813d
00000300: 980d 20bd 9e95 1dbe 19ab 36bd 0f6a 1c3e
00000310: f59d 43be 28d7 46be 0f7c b2bd 0763 3e3e
00000320: 683d dbbd f0be 0a3e c116 db3c 9c50 fbbd
00000330: 5eb1 b43c 69c1 013e 5751 eb3d 9097 3bbd
00000340: 050a 293d 08b3 f83c 10d8 11be daea 783d
00000350: 9710 2bbc d5f5 1fbe 3bcb 5b3c 14dd 33bd
00000360: a756 4bbd 74d8 2dbc 1e37 0dbe fde4 a0bb
00000370: 42df 323e 7c98 893d c46a f43c 6573 393d
00000380: 0917 8e3d d93d 3aba 996d 7f3d a7b7 cf3d
00000390: f46b f3bd 9a8b b5bd cfba adbb 8c92 fe3c
000003a0: 461e 1b3e 2de6 143e 30da cd3b bbab d93d
000003b0: 25d5 033e 5567 043e f6be 02bd bd74 9dbd
000003c0: dbb3 bdbd 442f 67bd 169a 8cbc 072d 1c3e
000003d0: 2d4d 6d3c 13e9 f4bd af25 fbbc b3c6 e8bb
000003e0: 58a9 293d 87d7 db3d ea80 b83d f5e9 893c
000003f0: 9543 b53d 6544 fe3c 4e69 04be 97cc a7bc
0.078490496 0.02900746 -0.1166524 0.012521607 -0.0392456 -0.07612122 0.108804934 -0.087442555
0.05714799 0.05565921 0.05245175 0.024758667 -0.06037861 -0.038395207 -0.122231096 -0.09782346
0.07218152 0.016596884 -0.06467778 0.02487399 -0.0050081387 -0.13189813 0.068293065 -0.07154399
0.010584002 0.022379115 0.013451784 -0.10761073 -0.10306203 0.033719312 -0.022753267 0.014927502
-0.0928467 0.0075372295 -0.10231335 -0.10280375 0.10140206 0.16495313 0.03138083 -0.10540576
-0.12997235 -0.10843851 -0.05814182 -0.06649353 0.086529575 0.08373463 -0.12709264 0.09291942
0.05167424 -0.035881355 -0.097692624 0.14997245 -0.0908971 -0.0897079 0.06554359 0.09774801
0.054605894 -0.03607278 -0.00095803395 -0.10533261 -0.0528227 -0.06709931 -0.04773801 0.007402841
-0.08060461 0.022834443 -0.099678546 0.20685896 0.032514617 -0.13843521 -0.07599685 0.036258895
0.14005077 0.11155311 0.09993016 -0.08083651 0.09549572 0.037660927 0.021965515 0.06994327
-0.041826576 0.031614535 0.012372592 -0.08806163 -0.07994956 0.05051689 0.00478019 -0.092491366
-0.00401159 -0.018077942 -0.13003601 0.057499465 0.10999504 -0.041728348 0.07445036 -0.018884739
0.05865871 0.028068366 0.048397437 0.068912655 -0.00829128 0.06066199 0.1580598 -0.024833513
0.07705077 -0.03132281 -0.07119361 0.0362496 -0.015629368 0.06363471 -0.11472614 0.031738263
0.12547533 0.011401248 0.06422715 0.030397596 0.04205201 0.05987506 0.14354166 -0.03910609
-0.0039131446 0.099831834 0.042108286 -0.10620659 0.022067023 -0.09266816 -0.1503179 -0.0084217535
-0.021983616 0.032755036 -0.03812927 0.043015767 -0.028962813 0.04011661 -0.08009397 0.005494615
-0.0149831865 0.075017154 -0.009784485 -0.026596356 -0.055501934 0.040954497 -0.003315245 -0.06013073
0.063901275 0.065662816 0.057281204 0.1952833 0.047179338 -0.07745176 -0.09830655 0.19280772
0.030571595 0.1623687 0.09189157 -0.0066028633 -0.052973613 0.014852375 -0.06945871 -0.021007074
0.005538064 -0.04791522 0.08090013 0.03436196 -0.019759376 -0.099356264 -0.06255447 0.21724206
0.009838738 0.15727654 0.009333866 -0.18653594 0.018402074 0.0770067 -0.061418124 0.0027929032
0.112655476 -0.059494372 0.15206365 0.07154889 0.017438272 -0.10038382 0.08821276 0.063902795
0.03343299 -0.025245646 0.14324379 -0.029590413 -0.031827506 -0.02774068 -0.16906972 0.06334403
-0.039075464 -0.15389106 -0.044596765 0.15274833 -0.19103225 -0.19418013 -0.087150685 0.18592463
-0.10705072 0.135494 0.026744248 -0.122712344 0.022057232 0.12671436 0.11490124 -0.04579884
0.04126932 0.030358806 -0.14242578 0.060770847 -0.010440967 -0.15621121 0.013415153 -0.04391201
-0.049643185 -0.0106106885 -0.13790557 -0.00491011 0.17467979 0.06718537 0.029836066 0.045276064
0.06937987 -0.0007104553 0.06236038 0.10142451 -0.11885825 -0.088645175 -0.0053018103 0.031075738
0.15148267 0.1454093 0.0062821135 0.10628458 0.12874277 0.12930043 -0.031920396 -0.07688282
-0.0926282 -0.05644156 -0.017163318 0.15251552 0.014483732 -0.11958518 -0.030657617 -0.007103765
0.041421264 0.10734468 0.090089634 0.016835192 0.08850781 0.031038472 -0.12930796 -0.020483298

weight_hh_l0 f4 [320, 80]
00000000: 8ad4 ef3d aea3 dfbb 5fcb ff3d 822e 233d
00000010: d8b9 293d 4f94 583d d796 983d d3a3 cdbd
00000020: 9fbb 93bd 9096 e6bd 1401 083d 2136 5dbc
00000030: 7875 52bd 1816 55bd 6f4b 443d 419e d5bd
00000040: a71d f33b 94ea a6bc ff60 70bd 1ac4 d83d
00000050: 0ec0 813d e844 8bbd 5f87 0d3c 94a4 ca3d
00000060: 2067 ac3d 6cb9 663d a947 21bc bf36 e3bd
00000070: 73f4 67bd 948d d4bd 379f 61bd ce3c cd3d
00000080: 7c0b 793d a4af a53d 6a3f 65bd 2f79 e13d
00000090: e785 8abd 5be9 b5bd 6120 0cbd d2fd 173d
000000a0: 2de7 b63d aa3f 7f3d f62b 9dbc 6cdc 453b
000000b0: 0230 5cbd ad38 fabd bae4 bdbd d6e0 09bb
000000c0: af50 9a3d e9bc 3cbd ce94 a83c 111f b43d
000000d0: 7b26 f1bb c98f dfbc 774b 0d3d 0211 f83d
000000e0: c8c8 debd eb1b debb 6175 9f3d 30b1 1c3d
000000f0: ae44 88bd a71d 01bc c73c d0bd db78 bfbc
00000100: 1c66 6b3d e99b dc3c a0a6 84bd d057 cbbc
00000110: 5800 913c 8c46 153d d19c 29bd b788 9d3d
00000120: 20ff 9cbd 0127 fcbd 332f 8fb8 a707 edbd
00000130: 740e 463c ae85 10bd 3686 343d 231c de3d
00000140: f669 ba3c 2cf9 b93d 42af 8e3d ee61 a8bd
00000150: 493e a0bc 69bc 99bd ef00 0fbc ae63 b93c
00000160: 4fa6 a7bc 2e60 b33d 80c2 33bd ec46 68bd
00000170: 3142 0c3c 3797 22bd df08 493d 67c5 50bd
00000180: 0cd9 94bd eb06 b03d ffde 9dbc 5dd2 0cbd
00000190: b488 9a3d 3228 14bd 1df0 c6bd 9839 053e
000001a0: 77f9 153d c30e 82bd 8afd 7d39 1928 e8bd
000001b0: 7900 26bd e627 c3bd d1f3 87bd 2fbc 533d
000001c0: 4081 6c3d 63b8 3f3d ccfc b8bd ff8c af3d
000001d0: 0ce9 b7bd 38a5 c4bc 5dc5 2dbd ac50 11bc
000001e0: 374a 54bd 2577 55bd 5442 aa3d 4177 c53d
000001f0: aeac 163b 3a23 7c3d 0020 60bd daf0 56bd
00000200: 48f8 dabc e326 893d 0013 ddbd c1e7 0abd
00000210: 4b20 acba 738c 8f3d 2527 e53d 8c67 2b3d
00000220: 2391 c5bd a702 aa3d a462 353d 2514 a03d
00000230: 6222 70bd 2b2b 6e3d 0893 d33c 90e7 59bd
00000240: 0284 81bd 6ed9 a93c 391d 6c3d 67d9 9e3c
00000250: e098 1fbd a46e 50bd 0be2 4cbd 72fe 96bd
00000260: 1ad2 973d eee2 6abd ee3e a2bd 4184 a23d
00000270: b695 8cbd 824c b9bd c644 cb3c 0851 46bd
00000280: 62f0 ba3d 9e5c ad3b 033c 003e 83de c1bd
00000290: e92e ffbd e04e 4c3d f6d5 f53c 641d bd3c
000002a0: dc64 8dbd 4b41 b73b e5e2 a4bd e8cc 023e
000002b0: 85da 653c 6644 98bd 7f45 5f3d 2648 5ebd
000002c0: 43b8 2f3d 8e3c 9cbc 16c9 c63d f3fa ccbd
000002d0: 2676 c73d 322c f0b9 e9b7 32bc a2fb c63d
000002e0: 4a04 83bd 7f62 823d 0822 04bd 4713 fc3d
000002f0: ed0b 983d 1a37 aebd db0d a4bc 8fc2 60bd
00000300: 83ed 613a a0e0 2a3d 806d 1a3d eba0 8cbd
00000310: c615 40bd d935 45bd e8e1 0b3d 9e7e 01bd
00000320: 0253 c4bd 4368 dbbc 040b cfbb 4316 383c
00000330: b3d7 1bbb 07a3 fd3d 7873 8b3d 1937 d8bd
00000340: 53c1 28bc 873a 063e afd7 b5bd 0670 e6bd
00000350: b848 0dbd 376e b0bd 62a9 0abd 1553 6fbd
00000360: 6475 393d e017 18bd d5b2 003e d27e b33d
00000370: 2bef 4a3d 9752 d23c 438a b5bd d65b 63bd
00000380: bc15 203e 7d29 343d fc3d 6a3c 59e0 8b3c
00000390: 4c87 5abd af78 aebd d55f 7a3d b0a6 603c
000003a0: 5ea4 01bd 32b7 ffb9 908c 8d3d 0748 723d
000003b0: 0f5b acbc 2b5f 07be d2b1 1ebe 0809 0b3e
000003c0: f8c3 7b3c 0835 9c3d 63c0 aabd 8df2 153c
000003d0: fc22 e43d a24f babd ca9c 303d 6c3f f2bb
000003e0: 6a5f 6c3d 533b 18bc 8377 cdbd e6f4 aa3d
000003f0: 3b57 42bd fe53 3ebb 3a80 673d 748e 4d3d
0.117104605 -0.006824932 0.12489962 0.039839275 0.041437 0.052875813 0.074506454 -0.100410126
-0.0721352 -0.11259186 0.033204153 -0.013501675 -0.05138156 -0.052023023 0.0479235 -0.10430575
0.0074193063 -0.020375527 -0.058686253 0.105842784 0.0633546 -0.06800252 0.008638232 0.09894672
0.08418107 0.056329176 -0.009843745 -0.11094426 -0.05662961 -0.103785664 -0.05508348 0.10021363
0.060801968 0.080901414 -0.05596868 0.11009442 -0.06763821 -0.088824 -0.034210566 0.037107296
0.08930812 0.062316574 -0.019186001 0.0030191196 -0.05375672 -0.12217841 -0.09272142 -0.0021038554
0.075349204 -0.046078596 0.020578768 0.08794988 -0.0073593236 -0.027290242 0.034495797 0.12112619
-0.1087814 -0.0067782304 0.0778606 0.038254917 -0.066537246 -0.007880605 -0.10167842 -0.023373058
0.057470426 0.026929813 -0.06477094 -0.024822146 0.01770036 0.036444232 -0.041409317 0.07692092
-0.07665849 -0.12312127 -6.827563e-05 -0.11573725 0.012088407 -0.035283737 0.044073306 0.108452104
0.022755604 0.09080729 0.069670215 -0.082218036 -0.01956095 -0.075066395 -0.00872825 0.022630539
-0.020465044 0.08758579 -0.04388666 -0.05670826 0.008560703 -0.03969499 0.049080726 -0.050969508
-0.07267961 0.085950695 -0.019271372 -0.034380306 0.07545605 -0.036171146 -0.09713767 0.13010252
0.03661486 -0.06350472 0.00024222411 -0.11335773 -0.040527795 -0.095290944 -0.06638301 0.051693138
0.05774045 0.046806704 -0.09032592 0.08571815 -0.08979997 -0.024004564 -0.04242455 -0.008869331
-0.05182859 -0.05211558 0.08313432 0.096418865 0.0022991109 0.061557032 -0.054718018 -0.052475788
-0.026729718 0.0669687 -0.107946396 -0.033912424 -0.0013132183 0.070092104 0.11189107 0.041846797
-0.09646823 0.08301287 0.044283524 0.07816342 -0.05862654 0.058146637 0.025826946 -0.05319935
-0.063240066 0.020733561 0.057645056 0.019390775 -0.038964152 -0.050886765 -0.05002026 -0.0737275
0.074131206 -0.057345323 -0.07922159 0.07935382 -0.068644926 -0.09047796 0.024813067 -0.04841712
0.09127881 0.005290582 0.12522893 -0.09466269 -0.12460119 0.04987991 0.030009251 0.023085304
-0.06904003 0.0055925003 -0.08051089 0.12773478 0.01402915 -0.07434921 0.054509636 -0.054268025
0.042900335 -0.019071843 0.09706323 -0.10008802 0.09739332 -0.00045809295 -0.010908105 0.09715964
-0.063973024 0.06366443 -0.032259017 0.12308364 0.0742415 -0.085066035 -0.020026138 -0.054873046
0.0008618461 0.041718125 0.037702084 -0.0686663 -0.046895765 -0.048147056 0.034150988 -0.031614892
-0.09586145 -0.026783114 -0.006318452 0.011235776 -0.002377969 0.123846106 0.06809133 -0.10557384
-0.010299998 0.13108264 -0.08879029 -0.112518355 -0.034493178 -0.08614772 -0.033852942 -0.058428843
0.045277968 -0.037132144 0.12568219 0.087644234 0.049544495 0.025674148 -0.08864262 -0.055507503
0.15633291 0.04398488 0.014297005 0.01707475 -0.053351685 -0.08519112 0.06112655 0.013711616
-0.031650893 -0.0004877388 0.06911576 0.059150722 -0.021039514 -0.13219897 -0.1549752 0.13577664
0.015366547 0.076273024 -0.08337476 0.009152067 0.11139485 -0.0909722 0.043118276 -0.0073928144
0.05770818 -0.009291488 -0.10032561 0.08347492 -0.04744647 -0.0029041762 0.05651877 0.050184682

bias_ih_l0 f4 [320]
00000000: d213 31bd b6e2 0c3d 381f 5d3d dc7f 8bbb
00000010: 316c 0d3d 18c9 82bd 7203 ff3d a769 37bd
00000020: c2bf 733d b703 43bd 88af 6cbd dfb5 853d
00000030: 7d76 8a3c 197e 4ebd 0a37 753d 7e21 2e3d
00000040: 7772 0b3e a810 a73d 9720 373d 7f7a 133d
00000050: a752 f3bd 633f c4bd df6e aabd 20b4 8f3d
00000060: 0005 97bd f8cd db3c 5b3e 523d 33b7 e8bc
00000070: 153b 30bd c914 7bbb d59e 8abd 5d7a 513d
00000080: 9c5f 57bd fc42 c3ba 816a 25bc 7574 983d
00000090: 3062 02bd 9c85 1c3d 8697 a3bd 7358 36bc
000000a0: 0bbc 4f3d 5df8 5cba 55c3 563c 0a88 083d
000000b0: d2a4 7dbd 5787 883c 1361 e1bb d3bb ee3c
000000c0: a96c 0ebd ee81 24bd d30c abbd 0062 043d
000000d0: aa2c e4bc 09e8 4f3e d122 ccbd 5090 cb3c
000000e0: 7752 05be 236a 033e 353d 653d 2ccf 9e3d
000000f0: 8709 973d 9408 5d3d f777 6d3d 01c1 163e
00000100: 80f5 f23c 64cc b43d 78bb a83d 3420 913d
00000110: 2b88 06bc c460 a2bd 2b92 b43d f648 b4bc
00000120: f705 a5bd 4713 cdbc ba1b 433b b9de ca3d
00000130: ea62 693d a305 893d c008 d43d 81e4 033e
00000140: ebb1 ffbd d7c9 273c cc3b 65ba 5181 d3bd
00000150: a049 9abd 2b2d 0fbe 309b 083c 9bce bdbd
00000160: b9e2 31bd e7c0 09be 9f5e 3d3d 6469 babd
00000170: 613a cfbd 3ae9 473d a433 4abe b671 0bbe
00000180: 43f6 8abb ed3e fd3a 5372 023d 773e 9e3d
00000190: f779 a93c 4cad 10bd 19dc f8bd 7fb3 a1bd
000001a0: df71 b7bd 8d7a ddbd 4e2a 5a3d 05eb 8bbb
000001b0: 37b1 bebd 4a1c 163d 5c9f b9bd f325 afbd
000001c0: b652 b4ba 679c dbbd 1c4c 26be 9775 6dbd
000001d0: f184 acbc 0c4c 6abd 2f2e fd3c 844f d2bc
000001e0: b36f 67bd b018 febd d3a3 d0bd 003d 67bd
000001f0: ede8 0e3d e80b 933c fcae 1d3c bb4a 29bd
00000200: 712e 493d 522b 91bd e53e a7bb 640d 3b3c
00000210: 6f1f a13c 2d01 3fbe 071e 69bc fc2a 163d
00000220: 3647 dabd cdf3 febc 5436 3ebd 04ce a3bd
00000230: e080 44be 5f0b ae3b dbc5 0cbd d716 4abd
00000240: 937d 0bbb f379 413d eb59 4b3d bdb6 e8bd
00000250: 50b3 c1bd b155 efbd 5137 08be a104 07be
00000260: 88b9 b9bd 6e66 473b c79f 263d 70d3 0f3d
00000270: f713 3f3d 563e e0bd f55e 933d 86b8 89bb
00000280: d4c4 a53d 06fc f9bd 213b c03c 94af 7a3d
00000290: 9a64 843c 9dda b03d 1fcf 613d d1ed 4f3b
000002a0: 26bf 3a3d da30 ae3d 5a79 0b3d 4d5b faba
000002b0: 5b3b 4abd 7dc1 873d b76b 47bb 832a 403d
000002c0: 0f05 1fbd 4471 efbd b67d a7bd 7b48 8a3c
000002d0: f553 123c 5261 2c3d 23fb de3d 4251 52bd
000002e0: beb4 a43d 2c28 e73d c60b 9738 364d 9fbd
000002f0: 69e2 9b3d c75f 0c3c cba8 a83d a910 4fbd
00000300: f978 ae3d 9ba0 f1bc ac46 e6bd 929c 27bd
00000310: 204a 41bd 96a7 603c d0f0 9b3d e8c9 a9bc
00000320: 3575 793d f2ac a03d 96d2 9e3d a6dc 293d
00000330: 0527 53bc 202b 913c ef05 c0bb 5af8 12bd
00000340: 08f8 e23d 4ff1 51bd 2231 87bd 4d26 5dbd
00000350: 06e5 f9bc d35e d43b 0715 95bd 9aa4 a33d
00000360: f6b8 50bd e947 853d 8bbf bebd 8b5e 75bc
00000370: 4902 5bbc 7b87 a7bd fa54 dc3d e697 683c
00000380: dfbc 83bd e6f0 e83d 7be8 913a 36df fa3c
00000390: 27c2 12bd 7225 90bc dd0d a33d d46b af3d
000003a0: 0ba2 ce3c f802 9c3d 74e0 763d d2c8 3cbd
000003b0: 3c9e 4d3d f03c bd3d 2507 41bd c5b1 66bd
000003c0: 6e5a 8dbd 33f8 22bd 3eec d4bd 2de6 ecbd
000003d0: 5707 b8bd eeb5 4c3d 3ccb 823c 174c a23d
000003e0: 9401 9bbd 3d63 3c3d 34fb 95bc a5ce 543d
000003f0: f913 ccbd 40a6 f4bd c14e 93bd 0a9b af3d
-0.043231793 0.034395896 0.05398485 -0.0042571854 0.034527007 -0.06386012 0.12451829 -0.044778492
0.059509046 -0.047610965 -0.057784587 0.0652883 0.016902203 -0.050413225 0.059866942 0.04251241
0.13617884 0.08157474 0.044708814 0.036005493 -0.11880999 -0.095824026 -0.08321928 0.07016778
-0.073740005 0.026831612 0.051328998 -0.028407669 -0.043025095 -0.003831195 -0.06768576 0.051142085
-0.052581415 -0.0014897282 -0.010096193 0.074440874 -0.03183192 0.038213357 -0.07987885 -0.011129486
0.05071644 -0.0008429343 0.013108094 0.033332862 -0.061924763 0.016666098 -0.006878027 0.029142296
-0.034771595 -0.040162973 -0.083520554 0.032320023 -0.027853329 0.20303358 -0.09967578 0.024849087
-0.13019739 0.12833457 0.055966575 0.07754359 0.07374864 0.05396326 0.057975736 0.14722063
0.02965808 0.08828047 0.08238882 0.070862204 -0.008211176 -0.07928613 0.08816942 -0.022007447
-0.08057778 -0.025033606 0.0029771165 0.09905762 0.056979097 0.06690528 0.103532314 0.12880136
-0.12485107 0.010240993 -0.0008744567 -0.103273995 -0.07533574 -0.13982074 0.008337781 -0.092679225
-0.04342911 -0.13452493 0.046232816 -0.09102133 -0.10118557 0.048806407 -0.19746262 -0.13617596
-0.0042407825 0.0019321122 0.03184731 0.07726758 0.02068804 -0.03532152 -0.12151355 -0.07895564
-0.08957266 -0.1081439 0.053263 -0.00426996 -0.09311145 0.036648072 -0.090635985 -0.0855216
-0.001375756 -0.10723191 -0.16239971 -0.05797347 -0.021059485 -0.05720143 0.030905811 -0.025672682
-0.05650301 -0.124070525 -0.10187497 -0.05645466 0.034890104 0.017950013 0.009624239 -0.041331034
0.049116556 -0.07088341 -0.005103933 0.011416767 0.019668309 -0.18652792 -0.0142283505 0.036662087
-0.10658114 -0.031122113 -0.04643853 -0.07998279 -0.19189787 0.005311414 -0.034368377 -0.049338188
-0.0021284565 0.04723544 0.0496463 -0.113629796 -0.09458029 -0.11686266 -0.13302352 -0.1318536
-0.090685904 0.0030426043 0.04067972 0.035113752 0.0466499 -0.1094939 0.07195846 -0.004202905
0.080941826 -0.12206273 0.023465695 0.0612026 0.016161252 0.08635447 0.055129167 0.0031727443
0.04559245 0.085054114 0.034051277 -0.0019100696 -0.049373012 0.06628702 -0.0030429193 0.046915542
-0.038823184 -0.116915256 -0.08178274 0.016880265 0.00893115 0.042085 0.10887744 -0.051347025
0.08042286 0.11286959 7.202434e-05 -0.07778399 0.07611544 0.008567757 0.0823532 -0.050552998
0.085191675 -0.029495528 -0.11243948 -0.0409208 -0.04718983 0.013711831 0.07614291 -0.02072616
0.060902793 0.07845487 0.0775501 0.041470192 -0.012887721 0.017720759 -0.0058600823 -0.035881378
0.110824645 -0.05125552 -0.06601168 -0.053991605 -0.030504715 0.0064810305 -0.07279401 0.0799038
-0.050957642 0.065078564 -0.09313878 -0.014976154 -0.013367244 -0.08180138 0.107583955 0.014196372
-0.06432509 0.11374073 0.0011131907 0.030624013 -0.03582969 -0.01759598 0.079616286 0.085654885
0.025223752 0.07617754 0.06027265 -0.046089955 0.050199732 0.092401385 -0.047125954 -0.056321878
-0.06902014 -0.039787482 -0.10396622 -0.1156734 -0.08985775 0.04997819 0.01596605 0.07924669
-0.075686604 0.04599308 -0.01830826 0.051954884 -0.09964747 -0.11945772 -0.071927555 0.08574493

bias_hh_l0 f4 [320]
00000000: b903 0bbe b9e6 eabc ce43 013d 4c37 cf3d
00000010: 810b c1bd 04c5 d0bd 639a 3dbd a3d6 b1bc
00000020: 9631 8fbd 74af 613d 7e13 debd f82d 94bd
00000030: d59b 1b3d 2fdb 393d 92c5 3a3d 973d 8dbd
00000040: 9f3c b73d 01fa 2abd af34 de3c 8e5d 53bd
00000050: 04f0 b7bb 93f1 a5bd 7bcc 91bd 3a56 af3d
00000060: 0903 febc ff69 9c3d fe97 913d ec3b 053e
00000070: a767 d93d 763a 833c 6510 a53c cf19 123c
00000080: 100e efbc f023 353b f672 0d3e 0414 063d
00000090: 07a7 dbbd 2f25 203d 2db0 49bd 6b8b a9bd
000000a0: e39e a63d 6914 7a3c 36f2 71bd b031 883d
000000b0: 41f0 d3bc 9fd1 2f3d f8a0 8bbd ed1c aabb
000000c0: 8b7e aebd d1e8 97bd 4c8e a13d 1249 1bba
000000d0: ccdb cd3c 2d77 853d ba4e 0cba 4644 a93c
000000e0: 23aa 3b3c d6c6 f43d 5d33 d93c e3d3 703d
000000f0: df8c 613d c109 6abc ad94 903d 9146 b43d
00000100: f692 173e 6fff 573d f62c 8e3d 6da5 123e
00000110: 5b54 32bd 944f 94bd 7004 5f3d a7fc b13d
00000120: d980 c1bc d219 033d 7130 9bbd 5e4d 8bbd
00000130: 94d2 3c3c e16c 76bc 0c06 6abd 040d 50bd
00000140: fd19 183c e6e2 973c fbcd 80bd 342a b73c
00000150: 9d3f afbd 22cd 3f3d 79d0 25bd e6d6 243d
00000160: 8ed3 a0bd 7fdd 82bd bf16 0abd e453 a53b
00000170: 2b85 eebd 9350 f2bd 524e 14bd 304d 243d
00000180: 3a17 b9bd f16e f7bd b9f3 093d 9f53 16bd
00000190: 3922 f5bd a6fd 75bd 9f2a 5ebd 3d14 c1bd
000001a0: a1cb 0fbd 79d1 32bd ebca 303d af8c 71bd
000001b0: d5c7 81bd a52f da3c a731 83bd 008e 6bbd
000001c0: 81fc 0fbd 6e51 99bd b2fe dcbd 024f 01be
000001d0: 85ff dabd 88ef ad3c 648a 5abd 444b c73c
000001e0: 4667 d1bd 4239 b9bd 2b6e 13be 12a1 01bc
000001f0: cab3 82bd 3ec5 223d a6d3 c1ba 2379 843d
00000200: 8c4a ffbd de0a d4ba 097d 3e3a 0889 663d
00000210: b13a 0fbe e3a3 00bd 21ae c6bd f2f1 34bc
00000220: e253 4f3d 5f58 98bd da4e 98bd b66f 9c3d
00000230: 3bff 7fbd 1e91 abbc a292 013d 6af7 12bd
00000240: f37a bfbd b368 b13c 274e 9dbd 8d15 fbbd
00000250: 9171 4fbd 3b82 a3bd 8737 92bd 19d7 a6bd
00000260: 8645 8ebd b789 743c 2a28 943b 336b cbbd
00000270: 3963 813c 62f7 9fbd 892f 8cbc 2d1e 44be
00000280: b67d 9d3d 8108 953c bcd0 c13d b7af 3ebd
00000290: 04d4 423d 6cdb 4d3d bffd 04bc fa46 a63d
000002a0: aa25 9a3d 87da 923d d993 c1bd ec1e ab3d
000002b0: 0bed be3c 45d4 1bbd d91b 9cbd e59c b7bd
000002c0: b118 72bc 199a 67bd bad5 a83d e94f 7abd
000002d0: 2e44 123d 68f9 2e3c 50f1 a9bd cb94 883d
000002e0: ac3b d93d b670 903d eab0 cbbd d7b0 8abd
000002f0: 9b25 c63b 729e 1d3c d4e7 483c e3a3 dbbd
00000300: cc54 dc3d 131c c6bb d53b 903d d69a 16bd
00000310: 3289 e4bb 0b91 2f3c 348b f03b 3a82 f8bd
00000320: e055 e9bc c3ed 863d 4818 1d3d 9c99 73bd
00000330: 79a9 5cbd 724d ebbd 5f1c d6bd 0325 a33d
00000340: 3a29 e13d 77b1 593d d51a 3cbc 599a 963d
00000350: 5765 9bbd 8a2e 8abc 46d1 b13d 5024 a8bd
00000360: c122 7abd c867 973d 38f9 193c f4cd 4c3d
00000370: 1c37 9239 c3c6 9fbd b97e 223c 210e 1d3b
00000380: 54b9 69bd ff43 a1bb 3dd2 b63d cde3 d33d
00000390: 42ee 41bc 369b e23d 7efc f93d ff08 17bd
000003a0: 3392 023c e116 25bd 8997 c0bd 29f4 e43d
000003b0: e63a 8c3c eda3 b93d 65f6 b03b 01e6 0c3d
000003c0: b482 6bbc ef0e 44bd 1c9e b9bd d0a9 333c
000003d0: 9b0a 013d 6ff7 d0bd aeb7 b23d ea39 96bd
000003e0: c6e4 4e3c b531 71bd ce13 dabd 83b0 853d
000003f0: f888 69bd e05e 37bd f729 99bd 207f cdbd
-0.13575639 -0.02867447 0.031558804 0.10117969 -0.09426022 -0.10193828 -0.046289813 -0.021708792
-0.0699188 0.055098966 -0.108435616 -0.0723533 0.03799041 0.045375045 0.045598574 -0.06896513
0.089471094 -0.04174233 0.02712473 -0.051602893 -0.005613329 -0.08102717 -0.0711908 0.08561368
-0.031007307 0.07637405 0.07109068 0.1301114 0.10615473 0.016019087 0.02014942 0.008917286
-0.02918151 0.0027639829 0.13813385 0.032733932 -0.10725217 0.03909796 -0.04924028 -0.08278545
0.08135774 0.015263655 -0.05906888 0.06650102 -0.025871398 0.04292452 -0.06817812 -0.0051914365
-0.0852023 -0.07417453 0.07888469 -0.0005923669 0.025129221 0.065168716 -0.00053523073 0.020662438
0.011454138 0.119519874 0.02651375 0.05879582 0.055065986 -0.014284552 0.07059608 0.08802522
0.14802155 0.052733835 0.06942169 0.14320917 -0.04353748 -0.07241741 0.05444759 0.08690768
-0.02362101 0.032007046 -0.07577599 -0.06801866 0.011524815 -0.015040607 -0.057134673 -0.050793663
0.00928354 0.01854081 -0.06289288 0.022358991 -0.08557055 0.04682649 -0.04048202 0.040244006
-0.07852851 -0.06389903 -0.0337131 0.005045401 -0.116464935 -0.118317746 -0.036207505 0.040112674
-0.09037633 -0.12081707 0.033679698 -0.03670084 -0.11969418 -0.06005635 -0.054239865 -0.09427688
-0.035106305 -0.0436568 0.043162268 -0.058972057 -0.06336943 0.026634047 -0.06405955 -0.05750847
-0.035152916 -0.074862346 -0.10790767 -0.12627795 -0.10693268 0.021232381 -0.053354636 0.024327882
-0.10224776 -0.09044124 -0.14397494 -0.007911937 -0.06381948 0.039738886 -0.0014787808 0.064684175
-0.124653906 -0.0016177555 0.00072665565 0.056283027 -0.13987233 -0.031406295 -0.09701181 -0.011044012
0.050617106 -0.074387304 -0.07436915 0.07638495 -0.062499266 -0.02094322 0.03163398 -0.035880484
-0.093496226 0.02165637 -0.07680922 -0.1225997 -0.050645415 -0.07983824 -0.07139497 -0.08146495
-0.06946854 0.014925412 0.0045213895 -0.09932556 0.015794383 -0.078108564 -0.01711251 -0.19152136
0.07689993 0.018192532 0.09463641 -0.046554293 0.047565475 0.050258085 -0.008117138 0.081190065
0.07526715 0.07170587 -0.09452028 0.08355507 0.02330639 -0.038044233 -0.07622499 -0.08965472
-0.014776395 -0.056543443 0.0824389 -0.061111365 0.035709552 0.01067958 -0.0829798 0.06669005
0.10607085 0.07052748 -0.09945853 -0.06772011 0.0060469634 0.009620296 0.012262303 -0.10724618
0.10758361 -0.006045827 0.07042662 -0.036768757 -0.006974363 0.010715733 0.007340813 -0.12134214
-0.028483331 0.06588318 0.038353235 -0.059472665 -0.05387256 -0.11489381 -0.1045463 0.07966044
0.109941915 0.05314776 -0.011481007 0.07353658 -0.075876884 -0.016867895 0.08682494 -0.08210051
-0.0610683 0.073928416 0.009397797 0.0500011 0.0002788835 -0.07801583 0.009917908 0.002396472
-0.05706151 -0.004921436 0.089268185 0.10346184 -0.01183659 0.110647604 0.12206362 -0.036873814
0.007969427 -0.040305022 -0.09403903 0.11179382 0.017117929 0.090644695 0.0054004663 0.034399036
-0.014374424 -0.047865804 -0.0906336 0.010965779 0.031504255 -0.10203444 0.0872644 -0.07335265
0.012627786 -0.058885295 -0.10648309 0.065278076 -0.05701539 -0.044768214 -0.07478707 -0.10034013

weight f4 [1, 80]
00000000: 1ad1 243d 7c0a 873d 98e1 c63c 9adc 903c
00000010: f5c3 84bd f0b1 03bd fc02 a63d 00a2 cdbd
00000020: f5a2 543d 8ff2 273d bc08 353d a543 09be
00000030: 18d5 b53c 2cff 0ebd 3925 363d 3569 57bd
00000040: bc16 5e3d efea 553d d948 c8bd 6d02 01be
00000050: 6e5b 93bc 55d6 a83d 44dc a4bd 2e36 b83d
00000060: b1aa 10bd 9d20 ecbd 5b5b 413d fe52 0ebe
00000070: 6dd7 33bd 2cf8 dc3b 3500 a63d 4fed 183d
00000080: 665f 59bd f4df 823d 4e39 073e b977 ce3d
00000090: bcfc ec3c 2f60 f5bd 46b4 20bb 1576 b53d
000000a0: fcf5 0bbd ab7d bdbd 0d58 883c a3b8 a4bb
000000b0: 2c36 ff3d 124a b33d 6126 6bbd a892 cbbd
000000c0: 58be 4dbd c566 f8bd 04a6 a9bd 2c7b 28bd
000000d0: ca79 41bd cba1 0c3d e205 d63c fee6 4f3d
000000e0: 98d8 89bd 0a16 ddbd b33e 3bbd 41de 0bbe
000000f0: 6931 7bbd 61ab f73c 0f43 d7bd a440 863d
00000100: 1115 a6bd 7c1e c5bd d3f3 01be b7bc b43d
00000110: 5614 53bd f0cb 0c3d 993c 55bd 4bee b3bd
00000120: 9642 b33d ded6 bcbd 00a2 143d e6b4 e9bd
00000130: eeeb b1bd 10c5 d8bd 7e69 27bd 1fb7 c53c
0.040238477 0.065937966 0.024277493 0.017683316 -0.06482688 -0.032152116 0.08106038 -0.10040665
0.05191322 0.041002806 0.044197783 -0.1340471 0.022196338 -0.03491132 0.044469092 -0.052590568
0.0542209 0.052226003 -0.097795196 -0.12598582 -0.017987933 0.082440056 -0.08049825 0.08994709
-0.035319034 -0.11529658 0.047206264 -0.13898847 -0.043906618 0.0067434516 0.08105508 0.03733569
-0.053069495 0.06390372 0.13205454 0.10081429 0.028929107 -0.11981236 -0.0024521514 0.08860413
-0.034170136 -0.09252485 0.016643548 -0.005026893 0.12461504 0.08754362 -0.057409648 -0.09940082
-0.050230354 -0.12128977 -0.08283618 -0.04113309 -0.047235288 0.034333985 0.026125852 0.0507574
-0.06730765 -0.10795219 -0.04571409 -0.13659002 -0.061326418 0.030233087 -0.10510837 0.06555298
-0.08109487 -0.09624955 -0.12690668 0.08825057 -0.051533066 0.034374177 -0.052059744 -0.08785685
0.08752935 -0.0922067 0.036287308 -0.11411457 -0.08687578 -0.10584462 -0.04087209 0.02413517
