model/3142.638063792902_weight.pth (torch, 90447 bytes, 7 tensors)

weight f4 [16, 32, 1]
0	0x3b6338fc	0.0034671417
1	0x3dad84ca	0.08472593
2	0x3deeb688	0.11655909
3	0x3e5f58b5	0.21811183
4	0xbd2bbb57	-0.041926708
5	0xbdf97b6c	-0.12181744
6	0x3dcc92f3	0.09988966
7	0x3dd59b26	0.10429983
8	0x3e0f6939	0.14004983
9	0x3e032772	0.12808016
10	0xbdb27ec3	-0.08715584
11	0xbd36bb8f	-0.044612464
12	0xbe282f1a	-0.16424218
13	0x3e1272c8	0.14301598
14	0xbdad6134	-0.08465806
15	0x3daa3a05	0.083118476
16	0xbda7dea9	-0.08196766
17	0x3d78a095	0.060700018
18	0x3e82e142	0.25562483
19	0x3cda9a52	0.026684914
20	0xbe97dd93	-0.29661235
21	0xbde9a382	-0.1140814
22	0xbd1007fd	-0.03516387
23	0xbd1fbc01	-0.038997654
24	0x3e01db40	0.12681293
25	0xbdd09c50	-0.10186064
26	0xbcbc12e1	-0.02295822
27	0xbd778bf2	-0.060436197
28	0x3cbefcba	0.023313869
29	0x3e1cf955	0.15329488
30	0x3d58445c	0.052799568
31	0xbe16b164	-0.14716107
32	0xbe7b3864	-0.2453323
33	0xbd405d8e	-0.04696422
34	0x3a7f3db0	0.000973667
35	0xbe007051	-0.12542845
36	0xbe4bdf09	-0.199093
37	0xbe25037e	-0.16114613
38	0xbb91c1c5	-0.004448148
39	0x3b9952c9	0.004679058
40	0x3d771410	0.060321867
41	0xbd20d030	-0.039261043
42	0x3ddfee3a	0.1093411
43	0xbdf6224d	-0.12018261
44	0x3dd5a20b	0.10431298
45	0xbd9b05e2	-0.075694814
46	0xbd787daa	-0.060666718
47	0xbe16a316	-0.1471065
48	0x3db3a8ad	0.08772407
49	0xbd54aa27	-0.051920082
50	0xbde31dcb	-0.11089667
51	0xbcf25b2a	-0.029584486
52	0x3d52cb02	0.051463135
53	0x3e69cb83	0.2283154
54	0xbdef4b71	-0.11684311
55	0x3ddc2f03	0.10751154
56	0x3dfe7571	0.12424744
57	0x3c92fdf7	0.017943365
58	0x3e0662e0	0.13123655
59	0x3b1cb9ce	0.002391446
60	0xbd949a96	-0.072560474
61	0xbc112b5b	-0.008860434
62	0x3d0a2bca	0.033733167
63	0x3d5c06b8	0.053717345
64	0x3e8df441	0.27725413
65	0x3e699993	0.2281249
66	0x3e843a24	0.25825608
67	0xbde39c42	-0.11113788
68	0xbdc5f061	-0.09664989
69	0x3dce0be4	0.10060862
70	0xbdaf886c	-0.08570942
71	0x3d15fa51	0.036615673
72	0xbd6edf52	-0.058318444
73	0xbdc81faa	-0.097716644
74	0xba77ea21	-0.000945719
75	0xbe1c379d	-0.1525559
76	0x3d8c8d10	0.06862843
77	0xbd0fda11	-0.035120074
78	0xbd63dd6f	-0.055631097
79	0x3d4f5724	0.050620213
80	0xbe47b2d2	-0.19501808
81	0x3e279fda	0.16369572
82	0x3cb97a3b	0.022641292
83	0xbc9305e9	-0.017947154
84	0x3d431257	0.047624912
85	0x3dadb6b6	0.08482115
86	0xbd8ffafe	-0.07030295
87	0x3c53c0cd	0.012924385
88	0x3ca4146d	0.020029271
89	0x3d1bcdb1	0.03803796
90	0xbd9d0fef	-0.07669055
91	0x3d172cdc	0.036908016
92	0xbd517fd4	-0.051147297
93	0xbdffd34e	-0.12491475
94	0x3e0f2b20	0.13981295
95	0xbdb4cc48	-0.08828026
96	0xbe85d497	-0.26138756
97	0xbe4da836	-0.20083699
98	0xbe2eaa43	-0.17057137
99	0x3c8f79bd	0.017514104
100	0xbe11b43a	-0.14228907
101	0x3cf953a4	0.03043539
102	0x3e296a52	0.16544464
103	0x3d4b9cce	0.049710087
104	0xbd94e94f	-0.072710626
105	0x3dc57210	0.09640896
106	0xbd9ba1f3	-0.07599249
107	0x3d1cbcf4	0.038266137
108	0x3e0c327f	0.13691138
109	0xbdc1a963	-0.09456136
110	0xbe29f473	-0.16597156
111	0xbd566c36	-0.05234929
112	0xbdda05f8	-0.1064567
113	0x3dbb2e30	0.09139669
114	0x3da69c6d	0.081353046
115	0xbdcfafc7	-0.10140949
116	0xbe3acb24	-0.18241554
117	0x3d14c35c	0.03631912
118	0x3e20f7b1	0.15719487
119	0x3a88b0c6	0.0010428659
120	0x3dad71d3	0.08468976
121	0x3e293a39	0.16526116
122	0xbe12ae07	-0.14324199
123	0x3db364e0	0.08759475
124	0x3e199b95	0.15000756
125	0xbda1f625	-0.079082765
126	0x3d4af0d6	0.049546085
127	0x3e15b6bf	0.14620493
128	0xbd92dab6	-0.07170622
129	0x3e3390c3	0.17535691
130	0x3e5c1644	0.21492869
131	0x3dfb7092	0.122773305
132	0xbc0137ac	-0.007886808
133	0xbe0067df	-0.12539624
134	0x3d69f1dc	0.05711542
135	0xbd353730	-0.044242084
136	0x3d8ba4cc	0.06818542
137	0x3e129155	0.14313252
138	0x3d5d1afd	0.053980816
139	0xbd67c49f	-0.056583997
140	0xbc0d5a59	-0.008627498
141	0x3d0cef8a	0.03440813
142	0xbd6f6f72	-0.058455892
143	0xbdf766c9	-0.120801516
144	0xbe13a3c1	-0.14417936
145	0x3e3867b2	0.18008307
146	0xbe27cf38	-0.16387641
147	0xbd7d46a7	-0.061834957
148	0xbcf3cb76	-0.029760104
149	0x3c23a888	0.009988911
150	0x3db92b92	0.090415135
151	0xbd775638	-0.06038496
152	0xbddb0f64	-0.10696295
153	0xbe17514a	-0.14777103
154	0xbd079c4c	-0.03310804
155	0x3d911700	0.07084465
156	0x3dd5fcd7	0.10448616
157	0xbd58264e	-0.052770905
158	0xbdbbc481	-0.091683395
159	0xbe2904f8	-0.16505802
160	0xbe6cec7b	-0.23137085
161	0xbda6fcb2	-0.081536666
162	0xbdaf2d72	-0.0855359
163	0xbc4e51fc	-0.012592789
164	0x3ddfe3c9	0.109321184
165	0x3c04b794	0.008100409
166	0xbe182215	-0.14856751
167	0x3dfb323c	0.12265441
168	0x3cb63097	0.022239966
169	0x3d879250	0.06619704
170	0xbda483f0	-0.080329776
171	0x3e0b937e	0.13630483
172	0xbd793b93	-0.06084783
173	0xbe27ca9a	-0.1638588
174	0xbe19b0ff	-0.15008925
175	0x3d087a5b	0.033319812
176	0x3db6ea47	0.089314036
177	0x3da9d1a0	0.08291936
178	0xbbcafe12	-0.0061948383
179	0xbd622564	-0.05521144
180	0xbdba44a8	-0.090951264
181	0xbd9f1e11	-0.077694066
182	0x3dc8f17c	0.098116845
183	0xbd604d6a	-0.054761328
184	0x3de312bb	0.11087557
185	0xbdf220da	-0.11822672
186	0x3d736390	0.059421122
187	0xbc2ce813	-0.010553378
188	0xbdfe46b4	-0.12415829
189	0x3cd36c82	0.025808576
190	0x3dd61a07	0.10454183
191	0x3d4ce957	0.050027218
192	0x3d84bcd9	0.06481332
193	0x3e458b4d	0.1929142
194	0xbd1190d6	-0.035538517
195	0xbdf2d4d0	-0.11856997
196	0x3d8b51c4	0.06802705
197	0xbe0df716	-0.13863787
198	0xbe24afd8	-0.16082704
199	0x3d9e970e	0.07743655
200	0x3d55144f	0.05202132
201	0x3dcf0d15	0.10109917
202	0xba61ef50	-0.0008618729
203	0x3d29f660	0.041494727
204	0xbdd6d874	-0.10490504
205	0x3daf9cf9	0.08574862
206	0xbdfea70c	-0.124342054
207	0xbcc4ccd0	-0.024023443
208	0xbc8623fa	-0.016374577
209	0xbe02cbf9	-0.12773122
210	0x3e432b69	0.19059528
211	0xbd7ab95e	-0.061211936
212	0xbc31213b	-0.010811145
213	0xbe1e1d58	-0.15440881
214	0x3b7d3581	0.0038636627
215	0x3dbb49e6	0.091449544
216	0xbd95f240	-0.07321596
217	0x3b7240e5	0.003696495
218	0xbd25c774	-0.040473416
219	0xbd6ada4c	-0.05733709
220	0xbe024a1d	-0.12723584
221	0xbdad3372	-0.08457078
222	0xbd0cfe70	-0.034422338
223	0xbdb04e1b	-0.086086474
224	0xbd8b73f7	-0.06809228
225	0xbd92ee94	-0.071744114
226	0x3d38fea9	0.045164738
227	0x3da3be88	0.07995325
228	0xbe210925	-0.15726145
229	0x3d9acac0	0.07558203
230	0x3e2a7c33	0.1664894
231	0x3e064435	0.13111956
232	0xbd9c5d11	-0.076349385
233	0xbe410896	-0.18850932
234	0xbd5b794f	-0.053582486
235	0x3c4851b1	0.012226508
236	0x3e23cabd	0.15995307
237	0xbc3a520d	-0.0113721015
238	0xbdad8267	-0.08472138
239	0xbb89bbcd	-0.004203296
240	0x3cbefd42	0.023314122
241	0x3d67da45	0.056604642
242	0xbd45b878	-0.048271626
243	0xbe09d674	-0.13460714
244	0x3e54406b	0.20727699
245	0x3ddbcc21	0.10732294
246	0xbe0bbc4f	-0.13646053
247	0xbd49ce5c	-0.049269065
248	0x3e807395	0.25088182
249	0xbd9edc38	-0.07756847
250	0x3e1f760d	0.15572377
251	0x3c39be40	0.011336863
252	0x3cbe6bf8	0.023244843
253	0x3d8169dc	0.06319019
254	0xbe16852e	-0.14699242
255	0x3d2241bb	0.039613467

bias f4 [16]
0	0xbc16dc17	-0.009207747
1	0x3e098475	0.13429435
2	0x3e374ace	0.1789963
3	0xbe1c1ef8	-0.15246189
4	0x3e079e7e	0.13244054
5	0x3df973a1	0.121802576
6	0xbcedc848	-0.029026166
7	0x3d7b80fb	0.061402302
8	0x3dfacc0d	0.12245951
9	0xba5b6f6a	-0.0008370789
10	0xbd18d509	-0.03731254
11	0xbdcab66f	-0.09898078
12	0x3e09c9fb	0.13455956
13	0x3dd41c8e	0.10357009
14	0xbe23d8f3	-0.16000728
15	0xbc59fd6a	-0.0133050475

weight_ih_l0 f4 [256, 16]
0	0xbddf0a3f	-0.10890626
1	0x3d20df5c	0.039275512
2	0xbded2e4c	-0.11581096
3	0xbc43f27b	-0.011959667
4	0x3dfdb1ea	0.1238745
5	0xbd78efde	-0.06077563
6	0xbd825b6c	-0.063650936
7	0x3d8a149a	0.06742211
8	0x3c18f91d	0.009336737
9	0xbd10b7ac	-0.035331413
10	0xbdb3adc4	-0.087733775
11	0x3d229e4e	0.039701752
12	0x3e089844	0.13339335
13	0x3d721687	0.059103515
14	0x3cd760ed	0.026291335
15	0xbe048be5	-0.1294399
16	0x3bf6d051	0.0075321575
17	0xbd3e22fb	-0.04642008
18	0x3d6f331f	0.058398362
19	0x3e35ad04	0.17741781
20	0x3e0d24c5	0.13783558
21	0x3d90bd48	0.070673525
22	0x3cc27e43	0.023741847
23	0xbb609a38	-0.003427161
24	0xbe11a460	-0.1422286
25	0x3cef84bc	0.029238097
26	0x3dcccf6f	0.10000502
27	0x3def8394	0.116950184
28	0xbdb733dc	-0.08945438
29	0x3d2b07fd	0.041755665
30	0x3d86303a	0.06552167
31	0x3dd0624b	0.10174998
32	0xbd98bc04	-0.07457736
33	0x3d5f83eb	0.054569166
34	0x3d834b27	0.064108185
35	0x3e5a21be	0.21301934
36	0xbe3da988	-0.18521702
37	0x3e3a0d03	0.18169026
38	0xbbdfd9b5	-0.0068313726
39	0x3d4e6513	0.05038936
40	0xbd90c787	-0.07069307
41	0xbd6bd6f0	-0.057578027
42	0xbcb7db45	-0.022443423
43	0xbdeb999b	-0.11503907
44	0xbdaea0be	-0.08526753
45	0xbdb63d27	-0.08898383
46	0xbd3e66bb	-0.04648469
47	0xbdb5b776	-0.08872883
48	0xbd51f71b	-0.05126105
49	0x3b7e465f	0.0038799269
50	0x3dbc7c38	0.0920338
51	0xbe4de183	-0.20105557
52	0xbdb4adbb	-0.08822199
53	0x3cfec2c9	0.03109874
54	0x3cec4111	0.02883962
55	0x3d7485fc	0.05969809
56	0xbdf8c475	-0.12146846
57	0x3d4c5426	0.049884938
58	0x3e188531	0.14894558
59	0xbd5cc0fb	-0.053894978
60	0xbdca7c55	-0.09886996
61	0xbcbbec21	-0.022939743
62	0x3db9595e	0.090502486
63	0x3e02c9a6	0.12772235
64	0xbdaec8c9	-0.085343905
65	0x3d64a50a	0.055821456
66	0xbe3866e9	-0.18008007
67	0x3e57e9ac	0.21085232
68	0xbd8f0e66	-0.06985168
69	0xbd3aa3bd	-0.04556631
70	0x3d5d31cd	0.05400257
71	0xbdb87193	-0.090060376
72	0x3d8efb11	0.06981481
73	0x3e0c270e	0.13686773
74	0x3d2e626c	0.04257433
75	0xbe27d1fe	-0.163887
76	0x3ddf1f6b	0.108946644
77	0x3d0702fb	0.032961827
78	0xbdb769d4	-0.08955732
79	0xbd5bb08a	-0.053635158
80	0xbbb35d1b	-0.0054737455
81	0x3d49c232	0.049257465
82	0xbe1c4b1e	-0.1526303
83	0x3e8f27c1	0.27960017
84	0x3d948a87	0.072529845
85	0x3d89f423	0.067360185
86	0xbddca829	-0.107742615
87	0xbdcafe97	-0.099118404
88	0x3e39dade	0.18149897
89	0x3d8f4ba4	0.06996849
90	0xbd8f6e37	-0.07003444
91	0x3d6844e8	0.05670634
92	0x3d030e4f	0.031996068
93	0xb998e24d	-0.00029160306
94	0xbde19b31	-0.110159285
95	0xbe166cfd	-0.14690013
96	0xbd87873f	-0.06617593
97	0x3dd51b97	0.10405653
98	0xbe393529	-0.18086685
99	0x3e31a30d	0.17347355
100	0xbdd8220a	-0.105533674
101	0x3d8cba31	0.06871451
102	0x3cc163e6	0.023607206
103	0x3d70d2ca	0.058794774
104	0x3d0e5216	0.034746252
105	0x3e02b206	0.12763223
106	0x3da2d8af	0.07951485
107	0xbd4d14d2	-0.050068684
108	0xbd09d344	-0.033648744
109	0x3d8faf9f	0.07015919
110	0xbd785900	-0.060631752
111	0x3d24fdd0	0.040281117
112	0xbe577889	-0.21042074
113	0x3c874805	0.016513834
114	0xbce8cf6d	-0.02841922
115	0xbe215192	-0.15753773
116	0xbc2412fc	-0.010014292
117	0xbd9427db	-0.07234164
118	0x3d7ad235	0.061235625
119	0x3dd280b9	0.10278458
120	0x3d8eaca5	0.06966523
121	0x3c2195c3	0.009862366
122	0xbd5ef6ed	-0.054434706
123	0x3bc3e903	0.005978705
124	0x3e04d4e9	0.12971844
125	0x3d7d3c5f	0.061825152
126	0xbde55812	-0.11198439
127	0xbccce387	-0.025010837
128	0xbd018a9f	-0.03162634
129	0xbd90180b	-0.07035836
130	0xbd12244c	-0.035679147
131	0x3e55ca4b	0.2087795
132	0xbd893b8f	-0.06700813
133	0x3d1df6a3	0.03856529
134	0xbcbac43e	-0.022798654
135	0xbddeb733	-0.10874786
136	0x3c0ee9da	0.008722747
137	0xbda214f4	-0.07914153
138	0xbdf43b7a	-0.11925407
139	0xbd542903	-0.051796924
140	0x3dc6cf6c	0.09707531
141	0x3ddb2eaa	0.1070226
142	0x3dac03e2	0.08399178
143	0x3dab668a	0.08369167
144	0xbc17c722	-0.009263786
145	0xbe054788	-0.13015568
146	0xbdf03830	-0.11729467
147	0x3ba294d8	0.004961591
148	0x3e136342	0.14393333
149	0xbdb6e0ca	-0.08929594
150	0xbe0fde2f	-0.140496
151	0xbd17015a	-0.036866523
152	0x3c6557c2	0.013997974
153	0x3d53c5e1	0.051702384
154	0xbd352af1	-0.044230405
155	0x3bd0db50	0.0063738003
156	0xbe1d85a6	-0.15383014
157	0xbdeac5ac	-0.11463484
158	0x3d4f4001	0.05059815
159	0x3e5618a0	0.20907831
160	0xbde97b55	-0.11400477
161	0x3de0642e	0.10956608
162	0xbe4dbab0	-0.20090747
163	0x3e5c7598	0.21529233
164	0xbdbb3f06	-0.0914288
165	0x3da86c5e	0.082237944
166	0x3a004d40	0.00048943236
167	0xbdb0ac80	-0.08626652
168	0x3dc7922c	0.09744677
169	0x3def227f	0.116765015
170	0x39fb3434	0.00047913345
171	0xbe18f869	-0.14938511
172	0xbced5a4c	-0.028973721
173	0xbd917326	-0.07102041
174	0x3d5555d4	0.052083805
175	0xbdf4dcaa	-0.11956151
176	0xbd3f9385	-0.046771545
177	0x3de7b233	0.11313286
178	0xbe6d105e	-0.23150775
179	0x3e3fc08f	0.18725799
180	0x3d6d44f8	0.0579271
181	0xbd31fc70	-0.043453634
182	0xbde791c4	-0.113070995
183	0xbcb528da	-0.022114206
184	0xbcb8f748	-0.02257885
185	0xba52f980	-0.00080480427
186	0xbcd38caf	-0.02582392
187	0x3d3114f6	0.04323288
188	0xbdb9b69e	-0.090680346
189	0x3d920ee7	0.07131749
190	0xbdf8ec4a	-0.121544436
191	0xbd79afb2	-0.06095857
192	0xbe199f50	-0.15002179
193	0x3d69485d	0.056953777
194	0xbd7fd817	-0.06246194
195	0x3dac0cbf	0.084008686
196	0xbdddec12	-0.108360425
197	0xbccb57b4	-0.024822094
198	0xbdc96230	-0.09833181
199	0xbe0335e6	-0.1281353
200	0x3d64f527	0.055897858
201	0x3d99c657	0.075085334
202	0x3c9fc86e	0.019504752
203	0x3d58111d	0.052750695
204	0x3d3ab8da	0.045586444
205	0x3b676c60	0.00353124
206	0xbc03f9b8	-0.008055143
207	0xbd885b16	-0.06657998
208	0xbd31e50c	-0.043431327
209	0xbca17ae4	-0.01971192
210	0xbdb19f32	-0.08672942
211	0x3e8ecb8e	0.27889675
212	0xbcc2b768	-0.023769096
213	0xbda75743	-0.08170941
214	0x3d94b5b3	0.07261219
215	0xbdcc729c	-0.099827975
216	0x3d97a991	0.07405389
217	0x3d33ba00	0.043878555
218	0xbddc8ed8	-0.10769433
219	0xbd56e624	-0.052465573
220	0x3d73702a	0.05943314
221	0xbd95c018	-0.073120296
222	0x3dae3a08	0.08507162
223	0xbda8c472	-0.08240594
224	0xbe3b9ef3	-0.18322353
225	0x3daf9cd8	0.085748374
226	0xbe91a905	-0.28449264
227	0x3beac012	0.00716401
228	0x3d907cdb	0.07055064
229	0x3e17b358	0.14814508
230	0xbdd5e807	-0.10444646
231	0x3cc4ace4	0.024008222
232	0x3d76e7ef	0.060279783
233	0x3e2c5146	0.16827878
234	0x3c3c795c	0.011503544
235	0x3c5dd756	0.01354011
236	0xbd08cb27	-0.033396866
237	0xbd999320	-0.07498765
238	0xbb76858d	-0.0037616224
239	0xbca40398	-0.020021245
240	0x3d2813b0	0.0410344
241	0x3dc5fb4a	0.0966707
242	0x3e6f1b78	0.23350322
243	0xbe1fb21a	-0.15595284
244	0x3e46a052	0.19397095
245	0xbe07d62b	-0.13265292
246	0xbd8dfe01	-0.06933213
247	0x3d9bdb86	0.0761023
248	0xbc372041	-0.0111771235
249	0xbe175e58	-0.14782083
250	0x3d071fe9	0.032989416
251	0x3def975d	0.11698792
252	0xbc21eb8c	-0.009882819
253	0x3d5e5ca2	0.05428756
254	0xbdcce8d6	-0.100053474
255	0x3b0e6120	0.0021725371

weight_hh_l0 f4 [256, 64]
0	0xbdcb4f19	-0.09927196
1	0xbd3fc715	-0.04682072
2	0xbd9e16ff	-0.0771923
3	0x3de0f96f	0.10985076
4	0x3db37050	0.08761656
5	0x3d8749a9	0.066058464
6	0x3d73c70f	0.05951601
7	0xbdea57e4	-0.11442545
8	0x3de854a8	0.11344272
9	0xbdbbb70d	-0.091657735
10	0xbd3480b6	-0.04406806
11	0xbb4b3fef	-0.003101345
12	0x3cb858e9	0.022503333
13	0xbd8fb419	-0.07016773
14	0xbd0d3958	-0.034478515
15	0x3dadabb2	0.08480014
16	0xbdc28bc7	-0.09499317
17	0xbd6bd527	-0.057576325
18	0x3d243091	0.04008538
19	0x3dbc039c	0.09180376
20	0x3dfc4842	0.123184696
21	0x3dca98b1	0.09892405
22	0xbdb7cf2f	-0.08975064
23	0xbdcd7a25	-0.10033063
24	0x3de70547	0.112803034
25	0xbd41eb32	-0.04734344
26	0x3d3d73f3	0.046253156
27	0xbd50dd98	-0.05099258
28	0xbd8da360	-0.06915927
29	0xbde2f552	-0.110819474
30	0xbddb84e3	-0.107187055
31	0x3b351921	0.0027633386
32	0xbdd00892	-0.10157885
33	0x3dc5e8a1	0.09663511
34	0x3c7d55c7	0.015462345
35	0xbd0ab1d4	-0.033860996
36	0x3dc3a7f2	0.095535174
37	0xbdd60351	-0.10449851
38	0x3d9716f1	0.073774226
39	0xbd8544db	-0.06507274
40	0x3de4fefc	0.11181447
41	0x3da66772	0.081251994
42	0x3b99e2a7	0.0046962085
43	0x3dbc397a	0.0919065
44	0x3d45811e	0.04821884
45	0x3d48574c	0.048911378
46	0xbdb44a1b	-0.08803197
47	0xbcc33b78	-0.023832068
48	0x3da56cca	0.080773905
49	0x3da3d3e1	0.07999397
50	0x3c94ea35	0.018178085
51	0x3c457d76	0.012053838
52	0xbd3bb5da	-0.045827724
53	0xbdcd984d	-0.10038815
54	0xbcb2b01f	-0.021812497
55	0xbd2a3ec5	-0.041563768
56	0x3d96e627	0.07368117
57	0x3cbc357a	0.022974718
58	0x3d6576f2	0.05602164
59	0xbd65de81	-0.0561204
60	0xbd07b2c4	-0.03312947
61	0xbd429de5	-0.04751386
62	0x3d471d78	0.048612088
63	0x3d681de7	0.056669142
64	0x3d19c8ef	0.03754514
65	0xbe1262bf	-0.14295481
66	0xbdef4463	-0.116829656
67	0x3defa73d	0.1170182
68	0x3b8fda1a	0.0043900134
69	0xbd150238	-0.03637907
70	0x3d83643c	0.064156026
71	0x3d57fca0	0.052731156
72	0xbdf3a185	-0.11896042
73	0xbd2e3637	-0.042532172
74	0x3e0a5676	0.13509545
75	0xbd86f090	-0.065888524
76	0xbd80b430	-0.06284368
77	0x3e1d2569	0.15346302
78	0xbd68c184	-0.056825176
79	0xbd6de8c8	-0.058083326
80	0x3cdf2d4b	0.027243277
81	0xbb96ed24	-0.004605906
82	0x3d5f7899	0.05455837
83	0x3da730b4	0.08163586
84	0x3c768528	0.015046395
85	0x3e05e88e	0.13076994
86	0x3e36244a	0.1778728
87	0x3d40cd26	0.047070645
88	0x3dbdc27b	0.0926561
89	0xbc999b70	-0.018750876
90	0xbd965a2a	-0.07341416
91	0x3d50f440	0.051014185
92	0x3ce6fde7	0.028197242
93	0x3d0e75e0	0.034780383
94	0x3e257f86	0.16161928
95	0x3d8179bc	0.06322047
96	0x3d5839c0	0.05278945
97	0xbd841506	-0.064493224
98	0x3e019863	0.12655787
99	0xbd81740c	-0.06320962
100	0xbd681838	-0.05666372
101	0xbd7f87dd	-0.06238543
102	0xbc14b9b5	-0.009077479
103	0x3dff67d2	0.12470974
104	0x3ba45912	0.005015501
105	0x3d9cfa23	0.07664897
106	0x3d8e0261	0.069340475
107	0x3d65cefc	0.0561056
108	0xbdb34796	-0.08753888
109	0xbcca60ef	-0.024704425
110	0x3c950424	0.018190451
111	0xbbf02879	-0.0073290435
112	0xbd0aea0e	-0.03391462
113	0x3c07ab89	0.008280643
114	0x3c870cde	0.016485628
115	0x3de9ca53	0.114155434
116	0x3d055cd8	0.032559246
117	0x3d6aea7c	0.057352528
118	0x3db7fa12	0.08983244
119	0xbcb91cb3	-0.022596693
120	0xbda6e22e	-0.08148609
121	0xbd1a336b	-0.037646692
122	0x3cc9cfce	0.024635222
123	0xbe09602a	-0.1341559
124	0xbdad974b	-0.084761225
125	0xbda5f627	-0.081035905
126	0xbd81443e	-0.06311844
127	0xbdc37a40	-0.09544802
128	0xbd78922f	-0.060686287
129	0x3c1c005e	0.009521572
130	0x3e0f2d3c	0.139821
131	0xbccb3ea8	-0.02481015
132	0x3c20c675	0.009812941
133	0xbdb1e922	-0.08687045
134	0xbdd20256	-0.10254352
135	0x3c84b887	0.01620127
136	0x3df2e63a	0.118603185
137	0x3d1379b1	0.036004726
138	0xbe1a2364	-0.15052563
139	0xbd473e34	-0.048643306
140	0x3da6f20b	0.08151635
141	0xbdbe783e	-0.09300278
142	0xbd2764be	-0.04086756
143	0xbdba5005	-0.09097294
144	0x3dc52761	0.096266516
145	0x3d0acdc7	0.03388765
146	0x3ce3c4a8	0.027803734
147	0xbdcf18b8	-0.101121366
148	0xbdbd999a	-0.09257813
149	0x3d84f59e	0.0649216
150	0x3ddbb452	0.10727753
151	0x3b97a9ca	0.0046283947
152	0x3daa8525	0.083261766
153	0xbc862a6f	-0.016377656
154	0xbcd51288	-0.026009813
155	0x3b5d9323	0.0033809624
156	0x3d08ba4e	0.0333808
157	0x3d6aa99b	0.057290655
158	0x3dcaa01c	0.0989382
159	0x3e2083d7	0.15675293
160	0xbc479114	-0.012180585
161	0x3da61cd1	0.08110965
162	0xbdfdfec0	-0.12402105
163	0x3db4e8e5	0.088334836
164	0xba96ccc7	-0.001150512
165	0x3b7a47fa	0.0038189874
166	0x3dab4d4f	0.08364355
167	0xbd8a6adf	-0.06758665
168	0x3db95494	0.09049335
169	0x3d456ba5	0.04819836
170	0xbd85f290	-0.06540406
171	0xbccc9574	-0.024973609
172	0xbcf55ef4	-0.029952504
173	0x3c3dc979	0.011583679
174	0x3be52aeb	0.0069936416
175	0x3cbc218e	0.022965219
176	0xbdc599a6	-0.09648447
177	0xbddc8082	-0.107666984
178	0x3de5e15e	0.11224626
179	0xbd8cf974	-0.06883517
180	0xbce63e1b	-0.028105786
181	0x3c6a3682	0.014295222
182	0xbd646943	-0.055764448
183	0xbcfbadda	-0.030722547
184	0xbcd7fc77	-0.026365502
185	0xbe179d99	-0.14806212
186	0xba63af84	-0.00086855167
187	0x3cfb31b5	0.03066335
188	0x3d940149	0.072268076
189	0xbd282cdf	-0.041058417
190	0xbe307719	-0.17232932
191	0x3d99ba54	0.075062424
192	0x3ad3ca77	0.0016158362
193	0xbcacca2f	-0.021092502
194	0x3cf134c4	0.029444106
195	0x3dd9fde3	0.10644128
196	0x3e2f768c	0.17135066
197	0xbd966bd9	-0.07344789
198	0xbc804d68	-0.01566191
199	0xbd5df0ab	-0.054184597
200	0xbdd6ac6b	-0.10482105
201	0xbd4be34b	-0.04977731
202	0x3d204c18	0.03913507
203	0x3e1502e3	0.14551882
204	0xbbc3efd8	-0.0059795193
205	0x3d2bf420	0.041980863
206	0xbd8d5561	-0.0690105
207	0xbd15705d	-0.03648411
208	0xbdd2135a	-0.10257597
209	0x3db5895e	0.08864091
210	0xbdc0f880	-0.094223976
211	0x3dd1d772	0.10246171
212	0x3d22106a	0.039566435
213	0xbdc84720	-0.09779191
214	0xbd8468c4	-0.06465295
215	0x3b1d9247	0.0024043487
216	0x3d353215	0.044237215
217	0x3c2a28b5	0.010385682
218	0x3dae1dec	0.08501801
219	0xbcced60e	-0.025248554
220	0x3cf10044	0.029419072
221	0xba7e77c3	-0.0009707177
222	0x3df8803b	0.12133833
223	0xbd89faaf	-0.06737267
224	0xbdd256c3	-0.10270455
225	0xbd742c15	-0.059612352
226	0xbdf768ae	-0.12080513
227	0x3c8f3b02	0.017484192
228	0x3d038125	0.032105584
229	0xbd040b4c	-0.032237336
230	0xbe061b78	-0.13096416
231	0x3dc55818	0.09635943
232	0xbd34f1f5	-0.04417606
233	0xbd8c3c8e	-0.068474874
234	0x3d4a2745	0.049353857
235	0x3cd5f29a	0.026116658
236	0xbde4759c	-0.11155245
237	0xbd19ccba	-0.037548758
238	0xbdc23b42	-0.09483959
239	0x3da145d8	0.0787465
240	0x3b79e1e9	0.0038129038
241	0x3c963c85	0.018339405
242	0xbb0a9a7f	-0.0021149216
243	0xbd6b36c5	-0.05742528
244	0xbd47ea90	-0.04880768
245	0x3dbc4780	0.09193325
246	0x3cb97368	0.022638038
247	0xbd43e162	-0.047822364
248	0x3d56ea97	0.052469816
249	0x3d440751	0.04785854
250	0x3ca7dc33	0.020490741
251	0xbd96a1ec	-0.07355103
252	0xbc19591b	-0.009359623
253	0xbda06925	-0.07832555
254	0xbd25179b	-0.040305715
255	0x3d724908	0.05915168

bias_ih_l0 f4 [256]
0	0xbdc93002	-0.0982361
1	0xbcd17ef8	-0.025573239
2	0x3d2c90ac	0.042130157
3	0xbdeb5d2a	-0.11492379
4	0x3d3fb493	0.04680307
5	0x3dba0316	0.0908262
6	0x3bffa616	0.0078017814
7	0xbc905de5	-0.017622897
8	0x3c122599	0.008920097
9	0xbcf30693	-0.02966622
10	0x3d863b46	0.06554274
11	0xbdc827b4	-0.09773198
12	0x3c8c4999	0.017124938
13	0x3e1d06f9	0.15334691
14	0x3e0414d4	0.1289857
15	0xbd9f1d95	-0.07769314
16	0xbd1a8daf	-0.037732776
17	0xbd8f34ed	-0.06992517
18	0x3cbfad8a	0.02339818
19	0xbda5ba09	-0.08092124
20	0x3de6c7eb	0.112686
21	0xbd7429bf	-0.059610125
22	0x3de16645	0.110058345
23	0xbda34f94	-0.07974163
24	0xbcc20a71	-0.02368662
25	0x3e04b333	0.12958984
26	0xbd4c693a	-0.04990504
27	0x3d477750	0.04869777
28	0xbc2f6dd9	-0.010707342
29	0x3dac8982	0.08424665
30	0xbbdbaef4	-0.0067042056
31	0x3cd57495	0.026056567
32	0x3def7da5	0.11693887
33	0x3b397574	0.0028298767
34	0x3c266b93	0.010157484
35	0x3d7c7313	0.06163318
36	0x3e33a5d1	0.17543723
37	0xbdd26251	-0.102726586
38	0xbd17c5ce	-0.037053876
39	0x3a2d732d	0.0006616589
40	0xbde0c1b0	-0.10974443
41	0x3e24f2ff	0.1610832
42	0xbe002de2	-0.12517503
43	0x3d3aa7b5	0.045570094
44	0xbd13c680	-0.036077976
45	0xbd0cf693	-0.03441484
46	0x3e0283c9	0.12745585
47	0x3d8fc6a4	0.070203096
48	0x3cf57531	0.029963108
49	0x3c97df91	0.018539222
50	0xbd61637e	-0.055026524
51	0xbdc1bcf3	-0.09459867
52	0xbdb33ae4	-0.08751467
53	0x3cd237d0	0.02566138
54	0x3d08e17c	0.033418164
55	0xbcbea24c	-0.023270749
56	0xbe18376f	-0.14864896
57	0xbd211ed6	-0.039336048
58	0x3d20cac2	0.039255865
59	0xbdbf2f71	-0.093352206
60	0x3d841149	0.064486094
61	0xbd546fff	-0.05186462
62	0x3d2a520c	0.041582152
63	0x3e379a4e	0.17929956
64	0x3c15b05e	0.0091362875
65	0xbdd29438	-0.10282177
66	0xbdb1a892	-0.0867473
67	0x3d37f247	0.044908788
68	0xbe16857e	-0.1469936
69	0xbe13d6cc	-0.14437407
70	0x3d86eca0	0.065881014
71	0xbbbfc443	-0.0058522536
72	0xbe17148f	-0.14753936
73	0x3980e60e	0.00024585467
74	0xbde59d83	-0.112116836
75	0xbd7f3989	-0.06231073
76	0x3dad3ada	0.08458491
77	0xbe0d99e1	-0.13828231
78	0x3bb3b1ca	0.0054838406
79	0x3d3742b9	0.044741366
80	0xbe023924	-0.1271711
81	0xbd1b2ecf	-0.037886437
82	0xbe1a4cb9	-0.1506833
83	0x3d9b520a	0.07584007
84	0xbdc1fbe9	-0.09471876
85	0xbe4692ff	-0.19392012
86	0xbdfb51bb	-0.12271448
87	0xbd774ae4	-0.060374156
88	0xbdd2e71a	-0.102979854
89	0xbdce83ea	-0.10083754
90	0xbd27310d	-0.040818263
91	0x3d005a16	0.031335913
92	0xbe31f7d7	-0.173797
93	0x3da77662	0.081768766
94	0xbaa39864	-0.0012481329
95	0xbb6b253e	-0.0035880352
96	0xbd6f6a53	-0.058451008
97	0xbdee999a	-0.11650391
98	0xbdc84926	-0.09779577
99	0xbe01bc43	-0.12669472
100	0x3caa1708	0.020762935
101	0xbe169e6e	-0.14708874
102	0x3db70f9b	0.089385234
103	0xbdb83339	-0.08994145
104	0xbe0c811a	-0.13721123
105	0xbd9093a1	-0.07059408
106	0xbd78f31d	-0.060778726
107	0xbdc6604c	-0.09686336
108	0x3d9fd2ab	0.078038536
109	0x3d6fbdd5	0.058530647
110	0xbe012bb5	-0.12614329
111	0xbbd087c7	-0.006363842
112	0xbde02819	-0.10945148
113	0x3c633eb8	0.013869934
114	0xbdb2b696	-0.08726232
115	0xbd569648	-0.052389413
116	0xbc41149d	-0.0117847
117	0xbdc1e82a	-0.0946811
118	0xbcb20346	-0.021730077
119	0xbd4a602a	-0.049408115
120	0x3cb8b3a9	0.022546606
121	0xbd7575c8	-0.059926778
122	0xbe2f50d5	-0.17120679
123	0xbde8fd49	-0.11376435
124	0xbda7eb0c	-0.081991285
125	0x3d2de084	0.042450443
126	0xbda7771d	-0.08177016
127	0xbd7f192b	-0.06227986
128	0x3dbf841f	0.09351372
129	0xbdcd330d	-0.10019503
130	0x3dc57f57	0.09643429
131	0x3d3d3445	0.046192426
132	0xbd03f399	-0.032214735
133	0xbd1d95e7	-0.038473036
134	0xbda57ac3	-0.080800556
135	0xbd8f6e18	-0.070034206
136	0x3de07b11	0.10960973
137	0xbdc5e6ba	-0.09663148
138	0xbe120ea6	-0.142634
139	0x3dcb05af	0.099131934
140	0x3de4db64	0.11174658
141	0xbdff6634	-0.124706656
142	0xbd30cb9a	-0.04316292
143	0x3c66d216	0.014088174
144	0xbdecc193	-0.11560359
145	0xbda9fe38	-0.083004415
146	0xbd07743f	-0.033069845
147	0xbda15d8f	-0.07879173
148	0x3dde3eac	0.108517975
149	0xbddd4d16	-0.108057186
150	0x3db9132b	0.09036859
151	0xbd464098	-0.048401445
152	0x3c5f6a3d	0.013636169
153	0x3cf236f7	0.029567225
154	0xbd8402d3	-0.06445851
155	0xbc64ad79	-0.013957375
156	0x3c553166	0.013012266
157	0x3d3904e2	0.045170672
158	0xbda99c7a	-0.08281799
159	0xbd5534a3	-0.05205215
160	0x3e013ab3	0.12620048
161	0xbdb08fb5	-0.0862116
162	0x3da0a2e2	0.078435674
163	0xbd67e55b	-0.056615215
164	0x3e13bb4e	0.1442692
165	0x3db0e6d3	0.08637776
166	0xbc1ed9d8	-0.009695493
167	0xbe087121	-0.13324405
168	0x3b84f9b6	0.004058088
169	0x3d0579d1	0.032586876
170	0xbd6b5db3	-0.057462405
171	0x3d00ed05	0.03147604
172	0xbdf059e6	-0.11735897
173	0x3dc3a9ab	0.09553846
174	0xbdc77fed	-0.09741197
175	0xbda3ddcb	-0.08001288
176	0x3dd17e14	0.102291256
177	0xbd147002	-0.03623963
178	0xbd8a8731	-0.06764067
179	0x3d8ee0ce	0.06976472
180	0x3d739d0d	0.059475947
181	0x3dbc9297	0.09207647
182	0xbd978e05	-0.07400135
183	0x3dd8530d	0.10562716
184	0x3dbf5796	0.093428776
185	0x3dcb46db	0.09925624
186	0xbd7f9afd	-0.062403668
187	0x3dcc90d2	0.0998856
188	0x3da02096	0.07818715
189	0x3bcc5527	0.006235737
190	0x3dac350d	0.08408556
191	0xbcd697c7	-0.02619542
192	0x3d9521b4	0.07281819
193	0x3d038559	0.032109592
194	0xbd9e0e2a	-0.07717545
195	0x3c07ca98	0.008288048
196	0x3c95c7a3	0.01828367
197	0xbcad3021	-0.021141114
198	0x3d7db98f	0.06194454
199	0x3d84d22c	0.064853996
200	0x3d4d73ba	0.050159194
201	0x3d7e6635	0.06210919
202	0xbd1999e1	-0.037500266
203	0x3ddcb2ca	0.10776289
204	0xbdc9b0ca	-0.09848173
205	0xbb17fdff	-0.0023192165
206	0x3c414842	0.011797013
207	0x3c2bd17c	0.010486957
208	0xbc9b6953	-0.018971121
209	0xbd534a6f	-0.051584657
210	0x3d1861f7	0.0372028
211	0xbd21c1eb	-0.039491575
212	0xbd0060d1	-0.03134233
213	0x3d67a0d8	0.056549877
214	0xbde8d004	-0.11367801
215	0x3d4fc073	0.050720643
216	0xbd2398e6	-0.039940737
217	0xbc9267cf	-0.017871765
218	0xbd75f1a8	-0.060044914
219	0x3d4a4bee	0.04938882
220	0xbd3a7ff2	-0.045532174
221	0xbb154a3e	-0.0022779847
222	0xbc9a1d66	-0.018812846
223	0xbceaf0ad	-0.028679216
224	0xbe0584c1	-0.13038923
225	0x3dbeadc2	0.093104854
226	0x3db47322	0.08811022
227	0xbb75e808	-0.0037522335
228	0x3d508c66	0.050915144
229	0xbde2f91f	-0.11082672
230	0xbd2dfa48	-0.042475015
231	0x3da3f01d	0.08004782
232	0x3d1949c6	0.03742387
233	0x3bfe5778	0.007761892
234	0xbe1eaa6c	-0.15494698
235	0x3bc1c827	0.0059137526
236	0xb95c9755	-0.0002103721
237	0x3cc7054f	0.024294524
238	0xbdbe004e	-0.09277402
239	0xbda64ec7	-0.08120494
240	0xbd845408	-0.0646134
241	0x3d5ea27f	0.054354187
242	0x3d4ac90e	0.049508147
243	0xb9efadac	-0.00045715028
244	0x3d24a28e	0.040194087
245	0xbd3c5774	-0.04598184
246	0xbd807f7f	-0.06274318
247	0x3d1a6bb8	0.037700385
248	0x3d8a0e97	0.06741064
249	0xbd18dab0	-0.03731793
250	0x3d2e5ab0	0.042566955
251	0x3982385b	0.0002483752
252	0xbbe57a4a	-0.0070031034
253	0x3d965809	0.0734101
254	0x3dad2728	0.08454734
255	0x3dde9c4a	0.108696535

bias_hh_l0 f4 [256]
0	0x3cb61824	0.022228308
1	0xba12f8f8	-0.0005606557
2	0x3cf2c50b	0.029634973
3	0xbc84441e	-0.016145762
4	0x3d2bc59b	0.041936498
5	0x3dc428ac	0.0957807
6	0xbd5e8627	-0.054327156
7	0x3ddd0449	0.10791833
8	0x3da7e1cb	0.081973635
9	0xbdb9ae26	-0.09066419
10	0x3e1c44f3	0.15260677
11	0xbd1dcbdf	-0.038524505
12	0xbdc9779f	-0.09837269
13	0xbd3656cc	-0.04451637
14	0x3d58c17d	0.0529189
15	0xbdf63c52	-0.12023224
16	0x3da669f0	0.08125675
17	0xbd0573b3	-0.032581042
18	0xbda58634	-0.08082238
19	0x3d6480f5	0.055787046
20	0xbd55b808	-0.05217746
21	0x3cc3f12b	0.023918709
22	0x3dd581e6	0.10425167
23	0xbd2e6547	-0.042577054
24	0xbdb6c13d	-0.08923576
25	0xbd593e3a	-0.05303786
26	0xbdedb804	-0.11607364
27	0xbcaf0500	-0.021364689
28	0xbdf2a69c	-0.118481845
29	0x3db7df8b	0.08978184
30	0x3cb6d257	0.022317095
31	0x3d69d08d	0.057083655
32	0xbdbd7fc5	-0.09252886
33	0x3d87f85d	0.066391684
34	0x3e1567a3	0.14590316
35	0x3c99e773	0.018787121
36	0x3e407ed7	0.18798386
37	0x3c418e4d	0.011813712
38	0x3d81b43a	0.063332036
39	0x3df9c3b3	0.1219553
40	0x3d831dab	0.06402143
41	0x3ddcc717	0.10780161
42	0xbdd3bc52	-0.103386536
43	0xbc0020c0	-0.007820308
44	0x3c7d2ba4	0.015452299
45	0x3e0129d3	0.12613611
46	0xbd948e4a	-0.07253702
47	0xbc1936f1	-0.009351478
48	0x3d22fdfa	0.039792992
49	0xbd56400f	-0.052307185
50	0xbca543a7	-0.02017386
51	0x3d70f88e	0.05883079
52	0xbdf5f38c	-0.120093435
53	0xbda610a6	-0.08108644
54	0x3cc3a640	0.023882985
55	0x3d4cacdb	0.049969535
56	0x3cc57acd	0.024106408
57	0x3ba8296a	0.00513189
58	0x3ddf744e	0.10910855
59	0xbc96d42c	-0.018411718
60	0x3c43fda4	0.011962328
61	0x3ca65790	0.020305425
62	0x3dc9f7de	0.0986173
63	0x3e5d20a5	0.21594484
64	0x3d550423	0.0520059
65	0xbde44642	-0.11146213
66	0xbe0b3e69	-0.13598026
67	0x3d87962f	0.06620442
68	0xbcc47d23	-0.023985451
69	0x3d043184	0.032273784
70	0x3cec6eab	0.028861364
71	0x3ca34269	0.019929128
72	0x3d84c12d	0.06482158
73	0xbdc936b2	-0.098248854
74	0x3c2a3fcc	0.010391187
75	0xbd6dd5f8	-0.058065385
76	0xbda25ce2	-0.07927872
77	0xbbc6ffed	-0.006072989
78	0xbb1e2d5c	-0.0024135923
79	0x3c7ac47a	0.015305633
80	0xbd0db04d	-0.03459196
81	0x3db106f2	0.08643903
82	0xbdb11d68	-0.08648187
83	0x3cee6708	0.029101864
84	0x3c965a07	0.018353475
85	0x3a8b0491	0.0010606219
86	0xbbe93bea	-0.007117738
87	0xbcda1c2e	-0.026624765
88	0xbdfc2b91	-0.12312997
89	0xbd08649f	-0.033299085
90	0xbdcb40df	-0.099244826
91	0xbc92accb	-0.01790466
92	0xbce7b762	-0.028285686
93	0xbd7ffcf6	-0.0624971
94	0x3d2a3c8e	0.041561656
95	0xbc370c0d	-0.011172307
96	0xbe5b9d22	-0.2144666
97	0xbcac3f92	-0.021026406
98	0xbd426283	-0.04745723
99	0x3d658bad	0.05604141
100	0x3d01fdec	0.0317363
101	0xbe0d55d0	-0.13802266
102	0xbd8153a1	-0.06314779
103	0x3c444755	0.0119798975
104	0xbe1cd106	-0.15314111
105	0x3d0d3872	0.03447766
106	0xbd71ced7	-0.05903515
107	0x3d299b6b	0.041407984
108	0xbcb3dc59	-0.021955656
109	0x3d6a2e78	0.057173222
110	0xbdfc4760	-0.12318301
111	0xbd959b29	-0.07304985
112	0xbd23b76d	-0.03996985
113	0x3cac7b0c	0.021054767
114	0xbd9731b8	-0.0738253
115	0xbddfc314	-0.1092588
116	0xbdbedeea	-0.09319861
117	0x3d931a16	0.0718271
118	0x3df0971b	0.11747571
119	0x3d18113e	0.03712582
120	0xbe065f6f	-0.13122343
121	0xbe1d7eaf	-0.15380357
122	0xbe3d0387	-0.18458377
123	0xbe1c14d3	-0.15242319
124	0xbcd20b00	-0.02564001
125	0xbd8f74b6	-0.07004683
126	0x3d8676f7	0.065656595
127	0xbe0b39b3	-0.1359623
128	0x3d1bcb78	0.03803584
129	0xbd6e2059	-0.058136318
130	0x3d3d99e1	0.04628933
131	0x3d019a28	0.031641155
132	0xbdf0769a	-0.117413715
133	0xbe14827f	-0.14502905
134	0x3e153101	0.14569475
135	0xbdc848fe	-0.09779547
136	0x3da2d302	0.07950403
137	0x3c992639	0.018694984
138	0xbdecbf71	-0.11559952
139	0xbaeb7e95	-0.0017966802
140	0xbc81331f	-0.015771447
141	0xbdf3a86a	-0.11897357
142	0xbd733d8e	-0.059384875
143	0xbcf56eb8	-0.029960021
144	0xbd3ca7b7	-0.046058383
145	0x3e19ae28	0.15007842
146	0xbdc1b4da	-0.09458323
147	0xbe28555a	-0.16438809
148	0xbdafa9b8	-0.08577293
149	0xbb779d98	-0.0037783142
150	0xbd8839fb	-0.06651684
151	0xbd3d9d1e	-0.046292417
152	0x3df595a2	0.11991431
153	0xbc7dadce	-0.015483333
154	0xbda36596	-0.0797836
155	0x3d87b893	0.066270016
156	0x3dc7008d	0.09716902
157	0xbd842d04	-0.064538985
158	0x3d4a5f6a	0.0494074
159	0x3dcffc71	0.10155571
160	0xbd1014e4	-0.035176173
161	0xbd369445	-0.044574995
162	0xbdd13628	-0.102154076
163	0xbcb4a776	-0.022052508
164	0x3d995a19	0.07487888
165	0x3d302aa2	0.043009408
166	0x3de9e353	0.11420312
167	0x3dc3d98d	0.09562979
168	0xbdd33f1c	-0.103147715
169	0xbd834434	-0.06409493
170	0xbd0d0bef	-0.03443521
171	0xbd9348dd	-0.07191632
172	0xbc8a8f77	-0.016914112
173	0x3dfc0c9e	0.12307094
174	0xbdc7e4d5	-0.09760443
175	0xbe057eb9	-0.13036622
176	0x3de08652	0.109631196
177	0xbc9a32f5	-0.018823126
178	0x3dea9c83	0.114556335
179	0xbddf8842	-0.10914661
180	0x3cc20d33	0.023687935
181	0xbcbd14c7	-0.023081196
182	0xbe070c7f	-0.1318836
183	0xbd74e65f	-0.05979001
184	0xbc779051	-0.015110091
185	0xbdb15fff	-0.08660888
186	0xbd064221	-0.03277791
187	0x3d9af13a	0.075655416
188	0xbb30940d	-0.0026943714
189	0xbd910d77	-0.07082646
190	0x3e119e53	0.14220552
191	0x3db1ef6c	0.08688244
192	0x3d2dc05a	0.04241977
193	0xbddd21b2	-0.107974425
194	0x3c840249	0.01611437
195	0xbe44bca8	-0.19212592
196	0xbd6db6ee	-0.058035783
197	0x3d291a50	0.04128486
198	0x3c8de655	0.017321745
199	0xbdc813a1	-0.09769369
200	0x3dcc5d7a	0.09978767
201	0xbb71656e	-0.0036834138
202	0xbc51127d	-0.012760756
203	0x3c5e64f1	0.013573871
204	0x3de5bdcd	0.11217842
205	0xbc715943	-0.014730754
206	0xbbd26626	-0.0064208684
207	0x3c3e9d32	0.011634158
208	0xbd7a4ffd	-0.06111144
209	0xbd6af215	-0.057359774
210	0x3de4f85b	0.111801825
211	0x3d936629	0.0719722
212	0xbd3b36db	-0.04570661
213	0x3be37bd4	0.0069422517
214	0xbda52439	-0.080635495
215	0x3dd08a95	0.101826824
216	0x3d485f5a	0.04891906
217	0x3d0cfde4	0.034421816
218	0x3d88cb70	0.066794276
219	0xbd640e86	-0.055677913
220	0xbdcbe74f	-0.09956228
221	0x3c24d481	0.0100604305
222	0x3e0b88ee	0.13626453
223	0x3d1b5c10	0.037929595
224	0xbe011283	-0.12604718
225	0xbc403709	-0.011731871
226	0x3d66b153	0.056321453
227	0xbd618a35	-0.055063445
228	0x3ddb2256	0.106999084
229	0xbda0de6e	-0.07854925
230	0x3db6744e	0.08908902
231	0xbd0eda65	-0.034876246
232	0x3d27e99f	0.040994283
233	0x3c21c253	0.009872991
234	0xbd9d18f3	-0.07670774
235	0xbdf4e19b	-0.11957093
236	0x3c57d735	0.013173868
237	0x3d9fbcca	0.077996805
238	0x3d987f06	0.07446103
239	0xbdb64f7f	-0.089018814
240	0xbd553072	-0.052048154
241	0xbc2f215d	-0.010689107
242	0xbdb2ed9e	-0.08736728
243	0x3df06478	0.11737913
244	0xbcaa33ca	-0.020776648
245	0xbce0e9b2	-0.027455185
246	0x3bb21c33	0.0054354905
247	0x3c2dd0ba	0.010608846
248	0x3d4013b2	0.046893783
249	0xbd8fb6eb	-0.07017311
250	0xbe064c51	-0.1311505
251	0xbe163837	-0.14669882
252	0xbbe4543b	-0.006968049
253	0xbd8c9213	-0.06863799
254	0x3d2d9feb	0.042388838
255	0x3ddfd2d8	0.10928887

weight f4 [1, 64]
0	0x3e0a08ab	0.13479869
1	0xbc1be3f7	-0.0095148
2	0xbcb8b950	-0.022549301
3	0x3c9311ed	0.017952884
4	0x3db56024	0.08856228
5	0x3e1699ed	0.14707156
6	0xbd2505c3	-0.040288698
7	0xbd419018	-0.04725656
8	0xbd27cf78	-0.040969342
9	0x3d45be1d	0.04827701
10	0x3e0305b6	0.12795147
11	0xbd91ed2a	-0.071253136
12	0xbdc9a42e	-0.09845768
13	0x3dc77e95	0.097409405
14	0x3e0d5055	0.13800175
15	0x3d127976	0.035760365
16	0xbca08b84	-0.019597776
17	0xbde6d5b2	-0.11271228
18	0xbd8e6d9e	-0.069545016
19	0x3e0a935d	0.13532777
20	0x3c2140de	0.009842126
21	0x3d3a2386	0.045444034
22	0x3dd995ce	0.10624276
23	0x3dde63a2	0.10858847
24	0x3d80c96b	0.062884174
25	0x3de97734	0.11399689
26	0x3c6c050e	0.014405502
27	0xbd281738	-0.041037768
28	0xbd8a3236	-0.06747858
29	0xbd2bf450	-0.04198104
30	0x3dcf4131	0.10119856
31	0xbe166e68	-0.14690554
32	0xbdadb469	-0.08481676
33	0xbd7a0db3	-0.06104822
34	0x3e05fcad	0.1308467
35	0xbd7e55e4	-0.06209363
36	0x3ddefbf0	0.10887897
37	0xbc1ded61	-0.009639115
38	0xbd87dcb7	-0.06633895
39	0x3e05c2ad	0.13062544
40	0x3debb6e0	0.1150949
41	0x3e0377bc	0.12838644
42	0x3ca17f9a	0.019714165
43	0xbcefe99c	-0.029286198
44	0x3c648fc3	0.013950291
45	0xbe0d0509	-0.13771452
46	0x3d601659	0.054708812
47	0x3d9f8afc	0.07790181
48	0x3d9f0ad7	0.077657394
49	0x3d991db3	0.07476368
50	0xbda16540	-0.0788064
51	0x3d876ad1	0.066121705
52	0x3d9b1186	0.07571702
53	0x3daf272c	0.08552393
54	0x3dc55b89	0.096365996
55	0xbcf2ba25	-0.029629776
56	0x3d7fa400	0.062412262
57	0x3dc76f75	0.097380556
58	0xbd5d2788	-0.053992778
59	0xbce4be48	-0.027922764
60	0x3db7ecb2	0.08980693
61	0xbd5cacc5	-0.053875703
62	0xbd49eb45	-0.049296636
63	0xbe031fd2	-0.12805107
