model/3258.1477867033595_weight.pth (torch, 132047 bytes, 7 tensors)

weight f4 [16, 32, 1]
000000 8c 4a 1f 3e 3b 0d ce 3d bb 80 25 3e be 1a 7c bd
       0.15555781 0.10061117 0.16162388 -0.06154894
000010 f9 c1 e5 3d a5 82 00 be cc d5 f2 3d a4 61 c1 3d
       0.11218638 -0.12549837 0.11857185 0.094424516
000020 5b 19 18 bd 95 c3 dc bd 67 30 f0 3d 58 06 f0 38
       -0.037133556 -0.10779492 0.11727982 0.000114452734
000030 4e 91 e6 bd 69 40 a7 bc 15 90 6d 3d 32 1c e2 3d
       -0.112581834 -0.020416455 0.057998735 0.11040534
000040 2b 20 e6 3d 54 d0 33 bd 7c d3 69 3e 3d fb b7 bd
       0.11236604 -0.04389985 0.22834581 -0.08983467
000050 ac 3c 95 be f9 b1 ee bd 6c a0 af bd 97 bc 98 bd
       -0.2914785 -0.11655039 -0.0857552 -0.07457846
000060 4b fa e3 3d d6 c7 ab bd e1 e9 3c 3e 4c 1f 44 3e
       0.11131724 -0.08387725 0.18448593 0.19152564
000070 68 19 a3 bd 1a cd f9 bc 41 7e 12 be 34 0c 99 bc
       -0.0796383 -0.030493308 -0.14305975 -0.018682577
000080 27 f8 3e 3e 00 52 15 bd c1 13 2c 3e b1 7c 1f bd
       0.1864935 -0.036455154 0.1680441 -0.038937274
000090 35 6d b0 bd 24 8d 7a 3e 87 f5 09 be 9b 56 10 be
       -0.086145796 0.24467903 -0.13472567 -0.14095537
0000a0 b6 3b ba 3a 25 2d 8a bd 44 d0 ac bc 61 92 91 bd
       0.0014208469 -0.06746892 -0.021095403 -0.07107998
0000b0 d2 9e 11 3e 46 59 61 3d bf d3 36 be 51 45 42 be
       0.14220741 0.05501678 -0.17854212 -0.18971755
0000c0 d6 60 b8 bc f8 01 bc bc 5a ee 86 3e ec 7b b2 bd
       -0.022507112 -0.022950158 0.26353723 -0.087150425
0000d0 2f e6 ab be 99 30 59 3d 50 13 25 bd 07 34 c3 bd
       -0.33574054 0.053024862 -0.04030162 -0.09531408
0000e0 b0 51 39 3e b9 a7 e0 3c d3 57 82 3d 6a 01 8f 3d
       0.18097568 0.027423726 0.063644074 0.069826916
0000f0 2f fb 32 3e fa 72 d8 bd 79 6d 3f bd d8 73 95 3d
       0.17478631 -0.10568805 -0.04673526 0.07297486
000100 ff 07 97 3d 2a 7f 2a 3d 3d ee 26 3e d4 fa 19 3e
       0.07374572 0.04162518 0.16301818 0.1503709
000110 65 67 b8 bd 6b d3 8d 3d 94 7b 08 3e f2 cd f0 3c
       -0.09004096 0.069250904 0.13328391 0.029395077
000120 46 71 02 bd 54 74 36 3c bb a4 4f 3d b4 0c 0e 3e
       -0.031846307 0.011136133 0.05069421 0.13872033
000130 7b ed 94 3d a2 40 4b 3d 73 b3 f6 3d 79 ea dd bd
       0.07271858 0.049622186 0.12045946 -0.10835738
000140 91 60 14 3e 35 31 2c 3e c1 a7 2c be f0 ff 1c 3e
       0.14489962 0.16815646 -0.16860868 0.15332007
000150 a5 1e 16 3e 3e 44 17 3e 32 56 21 be ca 89 00 be
       0.14660127 0.14772126 -0.15755537 -0.12552562
000160 c7 99 b8 bd df c1 16 3c 5c 3b e8 3d 74 2b 20 bd
       -0.09013706 0.009201496 0.11339447 -0.03910394
000170 90 30 93 3c 98 c1 78 3d 1f a8 22 3e 05 23 c6 bd
       0.017967492 0.0607315 0.15884446 -0.09674648
000180 38 7e c8 3a 2e 76 34 be a7 34 54 bd 9a de 13 be
       0.0015296405 -0.17623207 -0.051808026 -0.14440385
000190 42 70 0f be 7b c4 25 be b2 01 37 3d 5e 6f 32 3e
       -0.14007667 -0.16188233 0.04467935 0.17425296
0001a0 ad e5 7b 3d 86 4b 89 bd 2a f9 97 3c d6 c5 c0 3d
       0.061498333 -0.06703858 0.018551428 0.09412734
0001b0 fb 3d ea 3d d6 9d 11 3d 65 a0 15 be 55 f5 1f be
       0.11437603 0.035550915 -0.14611967 -0.1562093
0001c0 de a1 69 3d b0 f5 47 3e f7 ce 13 3a 75 7f 56 bd
       0.057039134 0.19527316 0.0005638445 -0.052367646
0001d0 f2 fb 45 bd aa ac 3a bd 96 30 ef bd f1 1e bc 3d
       -0.048335977 -0.04557482 -0.11679189 0.09185589
0001e0 e5 99 8c 3d da 02 fc bc 2b c9 12 3e c0 a0 c3 3d
       0.068652906 -0.030763078 0.14334552 0.09552145
0001f0 a3 09 d9 3d d9 b5 58 3e 26 53 a6 bd 69 6e 33 bd
       0.10597541 0.2116312 -0.08121328 -0.043806467
000200 0c 6f 2a be f6 95 0c be e5 c0 8f bd 92 a5 27 be
       -0.16643924 -0.1372908 -0.070192136 -0.16371754
000210 15 6c 9f bd 99 88 10 be 0c 32 17 3e 48 eb 9f bd
       -0.07784287 -0.14114608 0.14765185 -0.07808548
000220 60 76 05 3e 9e 83 0f be 97 1a fb bd 7d 14 c3 bd
       0.13033438 -0.14015052 -0.12260931 -0.09525392
000230 b3 42 0d 3e 92 f8 82 3c c7 8b 08 bd ce d0 54 3d
       0.13794975 0.015987668 -0.033336427 0.051956944
000240 e3 68 77 3d 2b 30 a4 3c 42 36 53 3e b1 07 dd bd
       0.060402762 0.0200425 0.20626166 -0.10792483
000250 6f 09 94 3d b0 b0 30 3d 94 c0 99 bb 79 30 2b 3e
       0.07228362 0.043137252 -0.0046921466 0.1671771
000260 f7 5c d4 3b 69 72 0e 3e 0a f7 3c 3e 2c f9 19 be
       0.006480809 0.13910832 0.18453613 -0.15036458
000270 89 98 eb 3d 52 52 e0 3d 44 83 29 be c5 17 9f bd
       0.11503703 0.10953201 -0.1655398 -0.077682056
000280 80 de 72 be 24 68 91 bd 2d bc 79 bd e5 63 ce 3d
       -0.2371769 -0.070999414 -0.060970474 0.10077647
000290 bb 3f 81 3d b7 47 1f be 53 2d 64 3d 69 60 76 bc
       0.06310984 -0.15554701 0.055707287 -0.015037634
0002a0 98 8f 36 be 7f 82 c8 3d a4 db 31 be 07 26 19 3d
       -0.17828214 0.09790515 -0.17368942 0.03738978
0002b0 07 70 90 bc d8 99 38 be 89 cf 15 be d0 57 3f 3d
       -0.017631544 -0.18027437 -0.1462995 0.046714604
0002c0 e8 9e ef bd 3e bb 27 be 7a f7 5d bb b4 aa 17 bc
       -0.11700231 -0.16380021 -0.0033869431 -0.009257007
0002d0 a2 de 45 be 97 63 ef bd 9e ef 08 3e 8e 4c a2 3c
       -0.19323209 -0.11688917 0.13372657 0.019811895
0002e0 1b 82 d4 bc a8 09 9a 3d 69 f4 48 bd 82 65 f9 3d
       -0.025940945 0.07521373 -0.049061213 0.12177564
0002f0 64 88 05 3e 7e 60 01 be 5b 43 37 bd 8b 86 2a 3d
       0.1304031 -0.12634465 -0.04474197 0.041632216
000300 3d f4 16 3c 7b 9e c0 3d 96 2a de 3c e7 2a 00 bd
       0.009213504 0.09405228 0.027119916 -0.031290915
000310 c2 b2 06 be e0 54 a9 bb 74 7a 3c 3e fb 5a 44 3d
       -0.13154128 -0.0051675886 0.18406087 0.04793833
000320 59 2a 1a bb aa 5a 01 3e 8c 46 03 3e 0c d1 ce bd
       -0.0023523776 0.12632242 0.1281988 -0.10098466
000330 c6 38 2b 3e 2e b7 28 3e 45 46 1e be 67 80 1f 3e
       0.16720876 0.16476128 -0.15456493 0.15576325
000340 bd 41 9a 3d d5 23 10 3e 13 27 81 be 80 b6 16 be
       0.0753207 0.14076169 -0.25225124 -0.14718056
000350 7c 8f d4 bd f7 cf 02 39 e4 5c 31 3e 35 18 4a be
       -0.1037893 0.00012475239 0.17320591 -0.19735797
000360 b0 b9 a7 3d 8e ec 8d 3d cb 76 e8 3c 67 8c 14 bc
       0.08189714 0.06929885 0.028376957 -0.009066678
000370 45 dc d2 3d 77 a2 a5 3b 77 36 55 3d 2f cf 9b 3d
       0.10295919 0.0050547677 0.052053895 0.076078765
000380 68 e9 fa bc df 92 9c be 2d 3f 85 bd ce 39 8a 3d
       -0.030628875 -0.30580804 -0.065061904 0.067493066
000390 49 47 50 3d 47 f0 0e 3e 91 7e 90 bd cf 35 02 3d
       0.050849233 0.13958846 -0.070553906 0.031789597
0003a0 16 e0 eb bd 6a cf 10 be 95 7d 34 3e d2 27 0c be
       -0.115173504 -0.14141622 0.1762603 -0.13687065
0003b0 c2 8c b6 bc 2c a3 0e 3e 20 51 e6 3d 47 b9 34 be
       -0.022283915 0.13929433 0.11245942 -0.17648803
0003c0 44 2e 3b 3d c3 5d 4a bd b9 ea d9 bc e8 d4 0f bd
       0.04569842 -0.049405824 -0.026601182 -0.035115153
0003d0 96 e0 1b be b8 fc be 3d 66 37 d1 3d 4a 91 97 3d
       -0.15222391 0.09325546 0.102156445 0.074007586
0003e0 9e de 79 bd c8 9e e6 bd 65 6b 01 3e 0b 3c 4f bd
       -0.06100332 -0.11260754 0.12638624 -0.05059437
0003f0 1d c8 13 3e 15 ae 8a 3d 88 45 44 3d 35 23 05 3d
       0.14431806 0.06771485 0.047917873 0.03250428

bias f4 [16]
000000 02 69 b2 bc 92 e0 02 3d f6 8e 19 3e cb 51 01 3e
       -0.021778587 0.03195245 0.14995942 0.12628858
000010 9d 5e 1b 3e dc 44 d1 3d 50 44 85 bc 18 d6 78 bd
       0.15172811 0.10218212 -0.016267926 -0.06075105
000020 01 28 b4 bd 9b 82 d8 3c 72 f9 a0 3d 0a a6 35 3e
       -0.08796693 0.026429465 0.07860078 0.1773912
000030 5e 5a 0f 3e 47 49 da 3c 3a c3 77 3d 0b 23 a6 bd
       0.13999316 0.02664627 0.060488917 -0.08112153

weight_ih_l0 f4 [320, 16]
000000 5a a7 49 bc 5e f1 a1 3c 55 22 6a bd 45 d8 cd 3d
       -0.012307966 0.019768413 -0.057161648 0.10051016
000010 ac 18 9a bc 3e 6d f7 3d 51 c3 8a bd 07 ac 67 bb
       -0.018810593 0.12081383 -0.06775535 -0.003535034
000020 48 51 f0 bc 5b ba ac bd 28 bc 11 be 0d ce 03 bd
       -0.029335633 -0.08433982 -0.14231932 -0.032178927
000030 06 5c 95 bc 15 45 4d 3d 1f 03 b2 3c f1 7d 8e 3c
       -0.018232357 0.05011471 0.021730004 0.017394038
000040 d5 65 60 3d d1 a2 b6 bb 9b f7 87 3d a3 80 f4 3a
       0.054784615 -0.0055736084 0.06639024 0.0018654059
000050 1b 41 a4 3a da 56 cb bb 71 46 9b 3d d6 cd 2e 3e
       0.001253161 -0.006205422 0.07581795 0.17070708
000060 31 2c d4 3c 10 58 07 be 3d 4b 84 3d b2 5f 16 bd
       0.025899978 -0.13217187 0.06459663 -0.036712356
000070 2a 9f 57 bd 88 e0 e6 3d 51 51 3d bc 8f a0 90 bd
       -0.052642025 0.11273295 -0.011555032 -0.07061874
000080 ce f7 97 3c 6a 3c d9 bd f9 79 d2 3c d6 14 9e bd
       0.01855078 -0.10607226 0.025692927 -0.07718818
000090 21 25 dc ba da db 49 3d 79 36 8c 3d f5 84 33 bd
       -0.0016795733 0.049281932 0.06846327 -0.04382797
0000a0 7a 85 0b 3d 1c 36 bc bd 70 ea 8f bd de 1b 25 bc
       0.03406284 -0.09190008 -0.07027137 -0.010077445
0000b0 7a dc 08 be ef 09 dc 3d f9 37 dd 3a f3 d9 b5 3d
       -0.13365355 0.10744082 0.0016877643 0.08879461
0000c0 85 5e 08 bd 79 56 19 3c 3f 7c 0a 3d 67 f0 f1 3d
       -0.033293266 0.009358996 0.033809897 0.11813431
0000d0 ef 25 3d bc fa e4 95 3d a0 ef 13 be 2d ce bf 3c
       -0.011544689 0.073190644 -0.14446878 0.023413742
0000e0 bf ba 1a 3e 61 ef 7e bd 26 74 82 bd c2 1a 57 bd
       0.151103 -0.06224001 -0.0636981 -0.052515753
0000f0 41 58 d4 3c 87 22 71 3e cc 33 b6 bd b9 3b 92 bd
       0.025920989 0.23548327 -0.08896598 -0.071402974
000100 d1 25 35 be 9e 9a 26 be a2 5f 13 bd 23 1a 37 3d
       -0.17690207 -0.1626992 -0.035979874 0.04470266
000110 42 86 f0 bd 45 73 a0 bd e4 24 49 bd 01 1c 75 bb
       -0.11744358 -0.07834486 -0.049107447 -0.0037400725
000120 ba 4b 8b bd f7 54 ce bd 76 5c 56 bd 9c 5e 56 bd
       -0.06801553 -0.100747995 -0.05233427 -0.05233632
000130 50 01 ed 3c 4b 24 d7 3d 1f 56 02 bd 2d b3 da bd
       0.02893129 0.10504969 -0.031820413 -0.10678706
000140 aa 3b f4 bd e7 c3 06 be f6 59 40 3d 71 86 17 3e
       -0.119254425 -0.13160668 0.046960793 0.14797379
000150 f2 c9 40 3c e7 2a 22 3d c8 11 00 be 72 66 b3 3d
       0.0117668975 0.039591696 -0.12506783 0.08759774
000160 96 46 a1 3d 69 76 4a bd fe d7 82 3c 82 61 2d bc
       0.07874791 -0.04942933 0.015972134 -0.01058233
000170 6d b0 ac bc e1 33 24 3e f0 b6 e4 bd 47 d8 04 bd
       -0.02108022 0.16035415 -0.11167705 -0.03243282
000180 9a e3 41 bd 8c 52 54 be ae fd 10 3e af 1f 18 3d
       -0.0473362 -0.20734614 0.14159271 0.03713959
000190 7a 2f 84 3c cb 8a 2c be 40 85 0d 39 75 72 2e 3d
       0.01613592 -0.1684982 0.00013496447 0.042589623
0001a0 79 1a c8 bd 79 8c ed 3c 6c 20 e8 b9 37 e2 84 bc
       -0.09770674 0.028997647 -0.00044274644 -0.016221149
0001b0 ab fd ea bc 60 1f 1b 3d 0c 72 df bb c5 ed 8a 3d
       -0.028685411 0.03787172 -0.0068190154 0.06783632
0001c0 5c 60 d5 bd 96 ea 7e bb 9a 93 94 bd ab b6 a5 3d
       -0.1041877 -0.0038897148 -0.07254715 0.08091482
0001d0 ba 9f 46 3d 06 f1 2e bc 31 cc 0a bd 5a d7 8d 3d
       0.04849217 -0.010677582 -0.03388614 0.06925841
0001e0 4d db b4 3d 34 34 73 3b 45 0f 92 3d 8d 91 d0 3d
       0.08830891 0.0037109973 0.07131819 0.101840116
0001f0 7e 32 9a bd 4c 04 c2 3d 4c 95 25 3d fc 1c 84 bd
       -0.07529162 0.09473476 0.040425584 -0.06450841
000200 54 d9 9e bd 37 7c 97 bd 0e f6 79 3d 68 55 c2 bd
       -0.07756296 -0.07396739 0.06102567 -0.09488946
000210 6d f6 34 ba 36 c0 ac 3d 59 a9 76 3d a7 31 98 3c
       -0.00069031754 0.08435099 0.060220096 0.018578364
000220 95 b8 89 bd 0e 69 cc bc ba 1a a4 3c f4 61 15 3d
       -0.06724659 -0.024952438 0.020032275 0.03647037
000230 99 fb bf bd 3d 51 98 3d 2f 24 8a bd 8c fe 23 be
       -0.0937416 0.0743737 -0.06745183 -0.1601507
000240 bb 4e e1 bd fa 70 f6 bb 1c ef f0 3d 7d 63 03 be
       -0.11001345 -0.007520792 0.117643565 -0.1283092
000250 39 20 0c be f8 93 af bd e0 b5 12 bd 54 6d bb 3d
       -0.13684167 -0.08573145 -0.03581798 0.09151712
000260 e7 cc d4 bd f0 2d 27 bc bf a3 2a bd 95 75 50 bb
       -0.103906445 -0.010203823 -0.041660067 -0.0031808366
000270 9b 02 b7 bd e6 29 d8 3d 68 36 7c 3c 78 c0 02 bd
       -0.08936044 0.105548665 0.015393831 -0.031921834
000280 bb c1 65 3d 24 2c f2 3c e9 a4 fb bd 09 5e 06 3d
       0.05609296 0.029562064 -0.122873135 0.032804523
000290 e7 78 97 bc 9b 70 df 3d e4 3b 30 3d 01 bf 54 bd
       -0.018490268 0.1091015 0.043025866 -0.051939968
0002a0 87 30 89 3c 89 53 08 bd 28 74 b7 3d ff 9f bc bd
       0.016746772 -0.03328279 0.08957702 -0.09210204
0002b0 a9 5d c6 3d f2 4d ae bc fc d1 7b bb 83 a4 70 3c
       0.09685833 -0.021277402 -0.003842472 0.01468766
0002c0 5b 0f fe 3c dc ae 1a bc 83 00 ac bd d2 22 93 bd
       0.031013181 -0.009441104 -0.08398535 -0.07184376
0002d0 9c c6 21 3d 06 7f a1 bd e1 37 73 bd 16 c9 9b 3d
       0.03949605 -0.07885556 -0.059379462 0.076067135
0002e0 bd 67 f6 3b e6 d9 ad bd 15 71 20 3d f4 27 d7 3d
       0.007519691 -0.084888265 0.039170343 0.10505667
0002f0 d7 f3 b6 bc 45 d2 0c 3e 72 c4 39 bd 26 91 73 bc
       -0.022333069 0.13752086 -0.04535336 -0.014866149
000300 f2 f2 c6 3d 2a 46 e1 bd fe de 3e be a3 1a b8 3d
       0.09714307 -0.10999711 -0.18639752 0.089894556
000310 fc 58 cb 3d b2 5c f9 3d ff a5 16 be d3 d5 7d bc
       0.09929082 0.12175883 -0.1471176 -0.015492874
000320 23 fd 27 3d 34 94 b1 bd 4f f4 9e bb d7 17 ac 3d
       0.041012894 -0.08670846 -0.004850901 0.084029846
000330 71 b1 16 3e b5 2e a1 bc 7e 73 0f be da f5 b9 bd
       0.14716126 -0.019675592 -0.140089 -0.090800956
000340 75 06 e2 3c fa c0 80 3c aa 6f 08 be 50 99 86 bc
       0.02759097 0.015717018 -0.13323846 -0.016430527
000350 0f f6 76 3d 99 fc bc 3d 70 85 90 3b 0f 2f a4 3d
       0.060293254 0.09227867 0.0044104382 0.08016788
000360 81 c6 85 3d 37 fa ab bd e1 f2 fb 3c 40 c4 b2 3c
       0.06532002 -0.08397334 0.030755462 0.021822095
000370 fc f0 db bd f2 65 f9 3d 12 ea 34 be f7 26 1e be
       -0.107393235 0.12177648 -0.17667416 -0.15444551
000380 46 7e c1 3c 25 eb 2a be 2a 50 a9 3d fc db f5 3b
       0.023619782 -0.16691263 0.08267243 0.007503031
000390 cc a1 3f bc be ba 58 3d 0e 74 62 bd 8c e2 9a bd
       -0.01169629 0.052912466 -0.05528646 -0.07562742
0003a0 6e 0c 92 bd ab 9a d5 3d d9 c0 12 3c 19 2f 8f bd
       -0.07131277 0.10429891 0.008957111 -0.06991405
0003b0 9e c3 8c 3d f8 b6 ae bd ce 05 9c 3d ce 08 0a be
       0.068732485 -0.08530992 0.07618295 -0.13479921
0003c0 9b cd 50 bd a1 25 18 be c7 79 fa bc dc 99 93 3c
       -0.05097733 -0.14858104 -0.030575646 0.018017702
0003d0 97 ff b0 bc b4 20 04 be a4 3d 88 3c e9 6c a3 3d
       -0.02160625 -0.129031 0.016630955 0.07979757
0003e0 de e4 31 3d a9 a8 84 3c 4f 6f ac bd 7e 28 00 3d
       0.043431155 0.016193705 -0.08419668 0.031288616
0003f0 1f bf 11 be 58 00 9c bc 67 9c e2 bb f3 a4 12 be
       -0.14233063 -0.019043133 -0.0069156173 -0.14320736

weight_hh_l0 f4 [320, 80]
000000 3c de 56 bc ea 78 e8 bd 46 c9 5e 3d 84 56 b9 bd
       -0.013114508 -0.113511875 0.054391168 -0.09049705
000010 17 50 58 bc a7 3d 98 bd 3d cf a8 bd a1 20 bb bd
       -0.013202689 -0.07433634 -0.082426526 -0.09137083
000020 dd fc 3c 3d a8 0f 38 3d 1f e4 93 bc c4 44 b4 3c
       0.046139587 0.044936806 -0.018053113 0.022005446
000030 7e 4d a7 3d 29 2b ce 3d f5 18 ae bd fd 13 a6 3d
       0.08169077 0.10066826 -0.08500854 0.08109281
000040 8c e0 c9 bd e6 16 2f bd e4 bd a7 3c 76 8c af bd
       -0.09857282 -0.042746447 0.02047629 -0.08571713
000050 b5 b3 25 bd 59 52 27 3d f8 7c e8 3c 9b ea a8 3d
       -0.040454585 0.040850017 0.028379902 0.082478724
000060 02 c7 5e bd 50 52 2a 3c 8e a0 d8 bb 00 be 5b 3c
       -0.054389007 0.010395601 -0.0066109365 0.013411999
000070 41 78 f1 bc 50 ee 83 bd de 8a ae 3b 9c 34 dd bd
       -0.029476287 -0.06441939 0.005326613 -0.1080105
000080 7b 6e d4 bc 9e 47 ad 3c 59 be ac bd b5 3e f9 3d
       -0.025931587 0.021152314 -0.084347434 0.121701635
000090 9c 78 7c 3d a1 92 88 3d 9c 97 1d bd 24 9c 91 bc
       0.06163846 0.06668592 -0.038474664 -0.017774649
0000a0 57 06 a4 bd 76 4b 74 3d 97 be 8a ba 77 6b 05 3e
       -0.08009022 0.059642278 -0.0010585365 0.13029276
0000b0 a3 e5 bc bc f2 e3 ab 3c 61 04 bc bd 97 77 76 3d
       -0.023058718 0.020982716 -0.09180523 0.060172644
0000c0 a1 36 62 bd 07 1b 71 3b 5a 2d ae 3d 88 27 0f 3d
       -0.05522788 0.0036789791 0.08504744 0.03494981
0000d0 20 bb 32 bd e7 7b 20 bb a5 82 8c bd 20 63 15 be
       -0.043635488 -0.0024487914 -0.06860856 -0.14588594
0000e0 db f9 8e 3d 86 64 a5 bd 55 17 07 bd 06 70 a5 3d
       0.0698125 -0.08075814 -0.032981236 0.080780074
0000f0 93 a9 17 bc b1 56 82 3d 95 d4 4e 3d 6d 18 c9 3d
       -0.009256738 0.06364191 0.050495703 0.09819112
000100 9f 0e f4 bc 07 25 b8 3c b8 c6 5f bc d1 a9 f3 3d
       -0.029792128 0.022478594 -0.013658218 0.11897624
000110 be 68 9c 3d 1c 96 93 bd f9 3e 98 bd ad ee 8b 3c
       0.076371655 -0.072063655 -0.07433886 0.017081583
000120 70 7d 3e bd 7d d4 60 3d 15 3e 24 3d ac c8 8a bd
       -0.046506345 0.054890145 0.04009827 -0.067765564
000130 f6 93 69 bd c3 3e 94 3d b2 9f 87 bd 78 80 7d bd
       -0.057025872 0.07238533 -0.06622256 -0.061890095
000140 cb 15 ec bd da ba d4 bd 79 80 25 3d 8d 7a a8 bd
       -0.11527594 -0.103872016 0.040405724 -0.082265
000150 97 08 c9 bc c7 93 81 3d d6 e3 db 3d d2 ae 0b bd
       -0.024540229 0.063270144 0.10736816 -0.03410227
000160 64 d8 ac bc f4 98 aa bd d0 67 c5 bd cd 3e e5 3d
       -0.021099277 -0.08329955 -0.09638941 0.11193619
000170 eb cf 68 3d 16 6d 9e 3d cd 20 01 be c5 24 06 bc
       0.05683891 0.0773565 -0.12610169 -0.0081874775
000180 b5 e1 24 3b d6 f1 62 bd 20 01 55 bd f3 34 c3 3d
       0.0025158946 -0.055406414 -0.052003026 0.09531584
000190 45 76 c2 3d 2d 54 9f 3d ff 99 69 bb a5 92 80 bd
       0.094952144 0.07779727 -0.0035644767 -0.0627797
0001a0 1b 43 61 3c 6f 7c 84 bd 64 6c 8c bd 1d 3b 16 3d
       0.013748909 -0.06469046 -0.06856611 0.03667747
0001b0 f7 14 a5 bd 4e 56 5c bb 27 08 53 3d bf b1 04 be
       -0.08060639 -0.0033620778 0.051521447 -0.1295843
0001c0 2f 72 ab 3d 35 38 58 3d a3 50 d1 bd d4 a1 92 3c
       0.08371388 0.05278798 -0.10220458 0.017899431
0001d0 95 c6 98 bb 36 e1 8a 3c 38 05 2c 3c 55 a7 2b bc
       -0.0046623447 0.016953092 0.010499291 -0.010476907
0001e0 8b cc d2 3c cf 43 02 3d 53 15 9d 3d a6 4b 76 3d
       0.0257323 0.03180295 0.07670083 0.060130738
0001f0 cc b7 ac bd 48 0e 77 bd 59 50 96 3d 45 bc 1d 3d
       -0.08433494 -0.060316354 0.07339544 0.038509626
000200 e1 f3 5e 3d c8 a5 4d 3d 05 2a f4 3d 57 89 a7 ba
       0.0544318 0.05020693 0.11922077 -0.0012782019
000210 e2 7c a5 3c fe 39 82 3d b2 62 10 3b 7d 5e b8 bd
       0.02020115 0.063587174 0.0022031483 -0.09002397
000220 44 78 50 bd c0 79 bc bd 11 2f dc 3d 09 7e 2f bd
       -0.050895944 -0.092029095 0.10751165 -0.042844806
000230 f7 07 82 3c 18 c9 d5 3d f2 2d 7a 3d 0f c6 ac bc
       0.015872939 0.10438746 0.061078973 -0.021090535
000240 e8 3b 93 3c 5c e5 0b bd 23 63 57 3d 0d ae 9e bd
       0.017972901 -0.03415428 0.05258478 -0.07748041
000250 bf 5e 5f bb d4 a3 1d be cc 8e b9 3d c3 99 c5 bc
       -0.0034083573 -0.15394527 0.090604395 -0.02412117
000260 8f 1a 78 bd cb ef 9f bd ea 1d d3 3d 33 2b b3 3b
       -0.060572203 -0.07809409 0.1030844 0.005467796
000270 24 19 c6 bc 45 68 bd bd 2c c7 5d 3d 6b ed 8f 3c
       -0.02418191 -0.092484035 0.054145023 0.017569264
000280 af 19 44 bc 21 d3 34 bd 32 e8 93 bd 38 00 11 3d
       -0.011969014 -0.04414666 -0.07222022 0.0354006
000290 e3 54 99 3d 28 03 01 be c0 48 cc 3d 31 0d 13 3e
       0.07486894 -0.1259886 0.099748135 0.14360501
0002a0 c5 f2 ef bd ff d2 39 bd 70 b8 c4 3d d5 e4 6d bc
       -0.117162265 -0.045367237 0.09605491 -0.01451989
0002b0 3f dc a5 bd 9d a6 72 3c 16 a5 b2 bc 7d 8e 69 3d
       -0.08098649 0.0148102315 -0.021807235 0.057020653
0002c0 6b 61 28 bc c8 58 07 bc 14 68 1f 3e c0 79 60 3d
       -0.0102771325 -0.008260913 0.15567046 0.05480361
0002d0 49 7f dd bd 7b c6 9d bd 49 8c 39 3d e7 40 c6 bd
       -0.10815293 -0.07703873 0.045299802 -0.09680348
0002e0 b6 b7 f7 bc 65 c2 d1 3d 71 df d8 bd 35 80 04 3d
       -0.030238967 0.10242156 -0.10589493 0.03234883
0002f0 af 45 bd bc 79 c5 02 3e b3 f3 14 3d 3b f5 0d be
       -0.023104517 0.12770642 0.036365222 -0.13863079
000300 88 bc 6e 3d 6f 13 8c 3d bd 5b bc 3d 79 79 75 3c
       0.058285266 0.06839644 0.09197185 0.014982575
000310 40 c9 ba bb da f5 98 bd 63 8b d2 3d 8d 35 12 3e
       -0.0057002604 -0.074687675 0.10280492 0.1427824
000320 d9 45 e3 bd 01 44 fc bc 75 b8 89 3d 54 69 45 ba
       -0.11097307 -0.030794146 0.067246355 -0.0007530649
000330 e7 fb fd 3d de 83 7a bd a8 87 68 3c 3d f5 50 3d
       0.12401562 -0.061160915 0.014192499 0.051015127
000340 ca af 97 bd 19 61 71 bd a3 ef 6e 3d 79 35 e4 bd
       -0.07406576 -0.05893049 0.058334004 -0.111430116
000350 a4 9f d4 3d 2f fe 9a bd ea 80 18 3d f1 0a dc 3d
       0.103820115 -0.07568013 0.037232317 0.107442744
000360 99 7e 97 bd 7e 2d 17 bd 66 ba 67 3d 34 e4 88 3d
       -0.073971935 -0.03690862 0.056574248 0.06684151
000370 a7 8b 16 3d 49 cd f0 38 36 73 fd ba a3 b1 0a bd
       0.036754277 0.00011482329 -0.0019336704 -0.033860814
000380 09 61 87 3d 7d fc 28 bd aa 19 b7 3c 7a e6 f9 3d
       0.06610305 -0.041256417 0.022351105 0.12202163
000390 f3 22 64 3d 7b b1 65 bd c6 e1 9b 3c 8f 8b 8c 3c
       0.055697393 -0.05607746 0.019028556 0.01715639
0003a0 12 82 e5 bc 3d cc c5 bd 25 99 58 3c 7d 09 b7 bd
       -0.028016124 -0.09658096 0.013220106 -0.089373566
0003b0 59 15 b6 3d 2d d9 69 bd f1 c4 30 3d 79 d9 31 bd
       0.088907905 -0.05709188 0.043156568 -0.04342029
0003c0 9f af 89 bd 80 e0 71 bd 66 b4 9c 3d 56 3f f9 bd
       -0.0672295 -0.05905199 0.07651596 -0.121702835
0003d0 6b 01 bf 3d 23 92 8b 3d e8 3a 43 3d 5e b4 09 bc
       0.09326442 0.06814983 0.0476636 -0.008404819
0003e0 bd 7f b1 3d f0 b8 8a bd 74 e2 28 bd 27 b2 4c 3d
       0.08666942 -0.06773555 -0.041231588 0.049974587
0003f0 c8 42 17 bd ca e7 b5 bd bd 94 50 3c cd 2c fa bd
       -0.036928922 -0.08882101 0.0127307745 -0.12215576

bias_ih_l0 f4 [320]
000000 95 1d db bc 52 e9 1b 3d 44 00 f0 bc 59 d6 75 3d
       -0.026747504 0.03806431 -0.029297002 0.06001887
000010 21 25 e9 bd 2b 03 5f 3d bf 22 14 be bf cf 0f bd
       -0.11384035 0.05444638 -0.1446638 -0.03511023
000020 fb c7 34 3d c3 72 23 3d 3f 4b b1 3d ee 9b 95 bd
       0.04413603 0.039904367 0.0865693 -0.07305132
000030 92 cc 3a 3e a5 d5 2c bb f8 3a e0 bd bc 92 89 bc
       0.182421 -0.002637246 -0.109487474 -0.016793601
000040 df df e8 bd 8d 61 40 bc f4 40 77 bd cb f7 14 bd
       -0.11370825 -0.011742008 -0.06036468 -0.036369126
000050 78 2a f4 3d a1 95 1b 3e a5 b6 67 bd 2a f8 25 bd
       0.11922163 0.15193798 -0.056570668 -0.04051987
000060 7b 0c b5 bb 08 da 5e 3b 13 f8 42 3d 1e 23 1c bd
       -0.0055251694 0.0034004468 0.047599863 -0.038119428
000070 73 92 53 bc 2f a6 b7 bd 35 27 0e 3d 7d 21 1b 3e
       -0.012913334 -0.08967244 0.03470536 0.15149494
000080 b1 af 3a 3e b4 b0 b2 bb 2e 8b 49 3c 22 59 6f 3d
       0.18231083 -0.0054531936 0.012301249 0.058434613
000090 09 0a 94 bd c9 54 ae bd 21 fa 0a 3d 5b 18 17 3d
       -0.072284766 -0.08512265 0.033929948 0.03688846
0000a0 b6 e6 0f bd 47 03 b3 3c ec 74 b0 bd f0 2b ba 3d
       -0.035132132 0.021852149 -0.08616051 0.09090412
0000b0 03 bc c0 bd 0a 6f 93 3c 1a 49 be bd c2 27 04 3e
       -0.094108604 0.017997283 -0.09291287 0.12905791
0000c0 77 fe 3f bd 55 39 ca 3c c8 24 c8 3d 8e 48 d6 bd
       -0.046873536 0.024685541 0.097726405 -0.104630575
0000d0 ea a9 99 bc 84 49 1d 3d c1 27 6a b9 1e 20 a6 3d
       -0.01875778 0.038400188 -0.00022330788 0.081115946
0000e0 67 8e 8c 3d 6e 60 1a 3c c4 4d be 3b 84 ad a9 3c
       0.068630986 0.009422405 0.00580761 0.020712622
0000f0 35 ae 7a 3c 96 59 e7 3d 01 10 57 3d 80 8e a2 bd
       0.015300323 0.11296384 0.052505497 -0.07937336
000100 4f e2 a4 39 ed d2 9c bd c1 16 e5 3c d0 5c 2e 3d
       0.0003144913 -0.076574184 0.027964951 0.04256898
000110 af 9b b3 3c c1 c0 ae 3c 31 1f 02 be 19 3e c4 3d
       0.021924822 0.021332147 -0.12707211 0.09582157
000120 2c 09 05 bd db 83 58 3c d5 fc 8f 3d 0c f0 ca 3d
       -0.03247945 0.013215031 0.07030646 0.099090666
000130 fb b3 e3 bd 72 7e ae bd 46 4a f7 bc 4e cc 53 3d
       -0.11118313 -0.08520211 -0.030186784 0.051708512
000140 56 41 d3 bd 9a df ce 3c 95 81 04 be ac 27 77 3c
       -0.10315196 0.025253106 -0.12940057 0.015085142
000150 62 39 24 3c 2e 13 67 bd 2c 6e c9 bd 48 d7 a9 bd
       0.010023447 -0.056414776 -0.09835467 -0.08293015
000160 95 53 e3 bd cb 26 ca bd 88 75 15 bd 60 ae 99 3d
       -0.110999264 -0.098706804 -0.03648904 0.075039625
000170 df 89 07 3c df 16 95 3c 76 d3 c9 bd c2 be 70 bd
       0.008272617 0.018199382 -0.09854786 -0.05877567
000180 50 80 9f bd ae ec 83 3d ea 1a ff bc f2 5c aa 3d
       -0.077881455 0.064416274 -0.031140763 0.08318509
000190 e6 6c 8a bd 5e d2 13 3d 33 e5 7c bd 4a a9 5b bc
       -0.06759052 0.036089294 -0.06174202 -0.013407061
0001a0 ed eb 1a 3c ab 02 f0 3c 7e 96 33 3c 66 00 6b 3d
       0.009455663 0.029298147 0.010961173 0.057373427
0001b0 68 07 3d bd 50 e4 b8 3d 2c 80 0f be 0e 8b 34 be
       -0.04614964 0.09027922 -0.14013737 -0.1763117
0001c0 46 58 7c bd 38 ef 46 bd 6f 0b 0d be 20 23 12 3c
       -0.06160762 -0.04856798 -0.13773893 0.008919507
0001d0 ca dd 21 bd 91 20 ca bd 31 4d b1 bd 3e c0 e2 bd
       -0.039518155 -0.09869493 -0.08657301 -0.110718235
0001e0 96 a1 d9 bd 0a 09 b9 bd c1 95 94 bd d4 17 db bd
       -0.10626523 -0.09034927 -0.07255126 -0.10697904
0001f0 e8 a3 23 bd 06 af 86 3d 43 e1 78 bd ae 9d 85 3c
       -0.039951235 0.06576352 -0.0607617 0.01631054
000200 04 5b e6 bd 0d ec a4 bd de 39 99 3d 02 53 2e be
       -0.112478286 -0.080528356 0.074817404 -0.17023852
000210 7f a5 95 3d cf 97 0b be d1 32 de bd 91 c3 85 bd
       0.073069565 -0.13632129 -0.10849536 -0.06531442
000220 40 3e e8 bc 69 78 58 bd 85 c8 14 bd 42 4d 0b 3d
       -0.028349996 -0.052849207 -0.036324043 0.034009226
000230 44 89 10 bc df 92 6f 3c 98 76 9a bd cf e2 9a bc
       -0.008821789 0.014622419 -0.07542151 -0.018906979
000240 30 0e fc bd 7a 7d fa 3c 58 65 69 3c 88 34 52 be
       -0.123073936 0.03057741 0.014245354 -0.20527852
000250 1e 4f 49 3d 2b 1d 3c 3d 90 e0 4c bd d9 7e 9b 3c
       0.049147718 0.045926254 -0.050018847 0.018981384
000260 05 7d 01 be 91 23 f5 3c 5a ed 13 3d 1c db 46 bd
       -0.12645347 0.029924186 0.036115028 -0.048548803
000270 d1 e3 12 be 6a f4 1d bc 17 27 24 be 31 7e 00 be
       -0.14344718 -0.009640792 -0.16030537 -0.12548138
000280 a0 5d d8 3d c0 43 92 bd 8a 1d 80 bd 42 a7 af bc
       0.105647326 -0.071418285 -0.06255634 -0.02144206
000290 81 43 e1 3d 12 ae 06 3e 7f 39 87 bd ad a2 5d bd
       0.109992035 0.1315234 -0.066027634 -0.054110218
0002a0 ef a6 6b 3d 29 66 90 bd da 99 66 bd 0d 80 cf bc
       0.057532247 -0.070507355 -0.056299068 -0.025329614
0002b0 5f 31 4d 3d ac e7 66 3c b5 ed db 3a e6 f9 3d 3d
       0.050095912 0.014093321 0.0016779216 0.0463809
0002c0 40 5e b5 3a 14 2f 85 bd c6 1e c5 bd a7 89 93 bd
       0.0013837293 -0.0650312 -0.0962501 -0.072039895
0002d0 b1 be bb bd ee 03 f1 3c 84 e1 03 3e 65 8d ce 3d
       -0.09167231 0.02942082 0.12878996 0.100855626
0002e0 14 e8 17 bd 75 fa 00 3d 29 35 85 3d bb c6 a6 3a
       -0.03708656 0.031488854 0.0650428 0.0012724021
0002f0 cb e6 cd 3d 76 f8 48 bc 62 76 0e bc 1c 96 33 3d
       0.10053786 -0.012266269 -0.008695217 0.043844327
000300 9c a9 de 3d 93 94 37 bd 40 cb dc 3d 66 bf 43 bc
       0.10872194 -0.044819426 0.10780954 -0.011947488
000310 82 59 08 bc 47 14 95 3c 4e c9 9a 3d c8 24 a3 3c
       -0.008322122 0.018198146 0.07557927 0.019915
000320 e0 23 d0 bd ab f6 d0 3d 83 b2 4c 3a d8 fe bd bd
       -0.101630926 0.10203298 0.0007808583 -0.09277123
000330 e3 8d cc bc 8a 5a a5 bb 7b e0 66 bd 0d 95 81 bd
       -0.02497 -0.0050461935 -0.056366425 -0.06327257
000340 20 5e 9f 3c 43 c6 cc bc cf 22 ee 3d 53 83 24 3d
       0.019454062 -0.024996882 0.11627733 0.040164303
000350 2c 3a 00 be b5 2f d2 3d bc 4b c5 3d 11 30 68 3d
       -0.12522191 0.10263006 0.09633586 0.056686465
000360 42 67 5a bd 04 df a8 bc 11 ec e6 bb 5e 96 95 bd
       -0.05332113 -0.020614155 -0.0070471843 -0.07304071
000370 23 da 8f 3d 4f 93 fe bd a3 4b 63 3c bc 6d c5 bd
       0.07024028 -0.12430441 0.013873014 -0.09640071
000380 e5 18 c4 bd a0 99 bc 3d b1 2d ed 3d 98 c1 40 3d
       -0.09575061 0.09208989 0.115809806 0.047059625
000390 a6 f7 00 3e 1c c0 43 3c ee c0 bf 3b 8c 90 6f bd
       0.1259447 0.011947658 0.0058518564 -0.05848746
0003a0 ce 9b f2 bd 83 16 21 bd 50 42 18 3d 6e 9f 9d 3d
       -0.11846124 -0.03932811 0.037172616 0.076964244
0003b0 8c d3 3e 3d c4 f8 9d bd d1 23 9b 3d 66 70 f5 3c
       0.046588466 -0.07713464 0.07575191 0.029960822
0003c0 dc 7d 5d 3c 65 9f b9 bc ce 59 ff bd 3f 6a 1d 3d
       0.013518777 -0.022659013 -0.12468301 0.038431402
0003d0 46 ad 11 bd af f0 9d 3c 7f d1 97 bb 28 e0 76 3d
       -0.035565637 0.019279806 -0.004633128 0.060272366
0003e0 a9 b6 d0 3d be 55 17 be 5d 75 b9 bd 97 00 45 bd
       0.1019109 -0.14778802 -0.090555884 -0.048096266
0003f0 87 39 29 3d bf 71 f3 3d 86 e4 2f bd c9 ca 09 3b
       0.041314628 0.1188693 -0.042942546 0.002102541

bias_hh_l0 f4 [320]
000000 36 45 06 3d 8d cc 01 3d 36 3d b9 bc 9d fc c9 3d
       0.03278085 0.031689215 -0.022612195 0.09862635
000010 c6 ed 26 bd 72 1f 87 3d 5b 26 f1 bd ef 33 4d bd
       -0.040754102 0.065977946 -0.11774894 -0.050098356
000020 a6 f3 8a 3d 72 f8 86 3d 41 ed 17 bd a6 fd 99 3d
       0.067847535 0.06590356 -0.037091497 0.07519083
000030 91 aa 1e 3e 05 1c 58 3d 94 1e 5a 3d 2b 9f 30 bd
       0.15494753 0.052761097 0.053251818 -0.043120544
000040 43 69 90 bd 42 a5 83 3b aa b5 0c 3e 82 3f f8 3b
       -0.07051327 0.004017503 0.13741174 0.00757593
000050 52 e5 8d 3c 49 68 76 3d 96 26 11 bd 1c 57 ca 3b
       0.017321263 0.060158048 -0.03543719 0.006174935
000060 ec 2f b3 bc 38 b2 d3 bb a0 46 9d bd 6e 1a ed bd
       -0.021873437 -0.0064604543 -0.07679486 -0.11577307
000070 e7 d2 d8 3d e7 5e 98 bd 9f 63 f7 3d 88 61 7a 3e
       0.105871014 -0.07439976 0.12079548 0.24451268
000080 ac d0 1c 3d 23 be b0 3d 8c 16 31 3d 56 d0 3b 3d
       0.038284943 0.08630016 0.043234393 0.04585298
000090 a7 cc 64 bd a2 6e 66 bd 0a 5d a2 3d 46 50 f2 3d
       -0.055859234 -0.05625785 0.07927902 0.11831717
0000a0 46 fe 52 3d 02 cf aa 3d 67 3e a9 bd 94 8c b0 bc
       0.051512025 0.08340265 -0.082638554 -0.021551408
0000b0 94 e3 5e bb f6 2c 28 bd 4e 7c ea bd 99 c5 9b 3d
       -0.003401016 -0.041058503 -0.114494905 0.07606048
0000c0 bd 41 9e bd a3 75 72 3d 08 f4 58 bc 83 4e e3 bd
       -0.07727382 0.05919422 -0.013241775 -0.11098959
0000d0 47 ad 02 bd 4f e2 0e 3d f7 6b a0 bd 6e 37 83 bd
       -0.03190353 0.034883793 -0.07833093 -0.06407057
0000e0 79 85 05 be 39 d6 f6 bd 1d ed 58 3d 7a 4d 95 3c
       -0.13039197 -0.120525785 0.052960504 0.01822542
0000f0 80 9a b1 bd 6b d9 21 3e ab a5 7a 3c 06 07 62 3d
       -0.08672047 0.15805595 0.015298287 0.05518248
000100 66 2e a8 bc f3 c3 8c 3d 9b a4 7d 3d dd 39 5c 3c
       -0.020529937 0.06873312 0.061924558 0.01344153
000110 07 c3 cf bd 06 0a b9 3d 0b 7c b8 bd 4e b6 1e 3d
       -0.101446204 0.09035115 -0.09008034 0.038748078
000120 ef 01 9f bd 07 36 24 3e 80 e4 16 3d 3d 4b a0 bd
       -0.07764041 0.16036235 0.03683901 -0.078268506
000130 9a cf 3d bc 01 96 fd 3d 83 21 0d bd ca c7 91 bc
       -0.011585141 0.123821266 -0.034455787 -0.017795462
000140 fa c0 05 be a1 41 d4 bd 1d 16 3d 3d 56 09 e3 3d
       -0.13061896 -0.1036408 0.046163667 0.11085765
000150 12 47 b3 bd 8a 38 ec bd cd 7d 9b bd 13 10 b5 bb
       -0.0875379 -0.115342215 -0.07592354 -0.005525598
000160 32 ca eb bd 84 9d d7 3b db 37 f1 bd 05 b6 e1 bc
       -0.11513175 0.0065800566 -0.11778232 -0.027552614
000170 e4 a0 24 be c2 e8 0d be 2d a4 00 be 8a 5d 83 3c
       -0.16077 -0.13858321 -0.12562628 0.016035814
000180 24 9d 1a be 4e 0c c6 bc 07 20 4a 3c 50 a5 aa 3d
       -0.15099007 -0.02417579 0.0123367375 0.08332312
000190 1e 3a bb 3b 96 85 1a bc 94 b8 de bd 14 7e b8 bd
       0.005713715 -0.009431263 -0.10875049 -0.090084225
0001a0 f3 f2 04 be 22 7a 1e be f8 56 ad bd 43 a7 6f 3d
       -0.12983303 -0.15476277 -0.084638536 0.058509123
0001b0 65 0c aa 3d 00 cc 39 3d cb 97 9a 3d 31 c3 3c bd
       0.08303145 0.045360565 0.075484835 -0.046084587
0001c0 43 bb 06 be c7 21 88 bd 1e f0 90 bd 88 08 67 3d
       -0.13157372 -0.066470675 -0.07077049 0.05640462
0001d0 e7 04 8c 3d 07 e3 a6 bc 93 6f 42 bd f7 d6 0e 3d
       0.068368725 -0.020371927 -0.047469687 0.034872975
0001e0 0c 25 b7 bd fa 2e da 3b e1 c4 8e 3d 42 45 f3 3c
       -0.08942613 0.006658432 0.069711454 0.02969611
0001f0 07 ac 09 be da 73 bc bb b9 90 12 be 6d b1 93 bd
       -0.1344453 -0.0057511153 -0.1431302 -0.07211576
000200 82 45 cc bd ff b7 e5 3c c4 48 81 3c 2c 2b df bd
       -0.09974195 0.028041838 0.015781768 -0.10896906
000210 e4 f0 96 bd 91 8e 5b bc 2c 81 ee bb 26 08 20 be
       -0.07370165 -0.01340069 -0.007278582 -0.15628108
000220 d9 6c 94 bd 5e d1 8a 3d 7b 78 19 bd b6 fb 90 bc
       -0.072473235 0.06778215 -0.037468415 -0.01769815
000230 41 f7 93 3d a9 fc 47 3d 81 45 a7 bc 82 33 06 be
       0.07224894 0.04882494 -0.020418884 -0.13105586
000240 c7 86 12 3d a9 af 03 3d 0d 70 ed bd d2 df 19 be
       0.035773065 0.032149944 -0.115936376 -0.15026787
000250 b5 69 17 be f5 90 d4 bd 0a 38 35 bd a4 6b 3e bb
       -0.14786418 -0.10379211 -0.044242896 -0.0029055858
000260 44 15 19 be 50 29 0a 3c d9 4c 6e 3d 71 d4 e7 bd
       -0.14949518 0.008432701 0.058178756 -0.11319817
000270 28 02 37 be 70 80 bf bd 24 a5 3a 3c cc 8e b2 bd
       -0.17871916 -0.093506694 0.011391912 -0.087186426
000280 48 e8 ef 3c 00 87 dd 3d 25 3a 09 3c d1 bd b4 bc
       0.029285565 0.10816765 0.008375679 -0.022063168
000290 3c e1 fa 3c df af af 3d 33 ee 1c bc 83 20 80 bc
       0.030624978 0.085784666 -0.0095782755 -0.015640503
0002a0 84 55 08 bd 21 d9 cf 3d 3d b8 b4 3d ad 04 21 3d
       -0.03328468 0.10148836 0.08824203 0.0393111
0002b0 cb b1 ae 3d cf 7a a2 bd 93 21 c4 3d 00 4f ae bd
       0.08530005 -0.0793358 0.09576716 -0.08511162
0002c0 5d 6a 86 3d 1f c7 9c bd 6a 8f 1d bd b6 c9 c5 bd
       0.06563256 -0.07655167 -0.03846685 -0.09657614
0002d0 4b a5 ea 3c ab 38 1e 3d 9f 21 55 bc dd 82 b7 3d
       0.028643271 0.03862826 -0.013008504 0.08960507
0002e0 6f 6a bf 3c 1c 59 39 3d 4a 8a 49 bc 50 7e 20 3d
       0.023366181 0.045250997 -0.012301037 0.03918296
0002f0 2d d8 cf 3d a8 02 39 bc 70 98 9b 3d ac 16 13 3c
       0.10148654 -0.011292137 0.075974345 0.008977573
000300 60 3f b3 3a f5 d9 94 bd 02 b5 6a 3d 87 fd 7e bc
       0.0013675503 -0.072681345 0.05730153 -0.015563375
000310 a9 f3 4f 3d 88 b0 72 3d a9 58 4f 3d 18 93 5c bd
       0.05076948 0.059250385 0.050621662 -0.053851217
000320 19 73 8a 3d 70 66 4a bd ee 26 08 be fd 1d eb bd
       0.067602344 -0.0494141 -0.132961 -0.11480329
000330 4e cb 3a bc 99 06 f7 bb 8a 9c 20 3d 92 af 88 bd
       -0.011401011 -0.0075386283 0.039211787 -0.066741124
000340 bf 99 42 bc 0f 74 ca bc cd 33 85 3d 3a 91 6b 3d
       -0.011877476 -0.024713544 0.06504021 0.057511546
000350 77 77 e6 3c 7c 02 5e 3d 02 bb 4b 3c 45 65 17 bd
       0.028133137 0.054201588 0.012434723 -0.036961813
000360 0e 9b 70 3d 72 54 ed bb 02 ed 61 bd a0 2f 6b bd
       0.05874162 -0.0072427327 -0.05515767 -0.057418466
000370 05 cc e6 bd e0 c4 16 bd 2e e7 75 3d 35 37 90 bd
       -0.112693824 -0.03680885 0.060034923 -0.0704178
000380 c0 27 d1 bc 44 75 30 bd c2 f7 b2 bc 9a 26 64 bd
       -0.02553165 -0.043080583 -0.021846656 -0.055700876
000390 77 bf 8c bd ee 23 4f 3d 24 2b 06 3d 79 70 dc 3c
       -0.068724565 0.050571375 0.032755986 0.0269091
0003a0 b6 fe 05 be 5b 0e 18 bd 08 b2 e7 3c 8b ac b4 bc
       -0.13085446 -0.037123065 0.028283134 -0.022054931
0003b0 f0 7d b7 bc 4d 5f d3 bc 07 9b 94 3d 74 61 b9 bc
       -0.022398919 -0.025802279 0.072561316 -0.022629477
0003c0 eb 23 a4 3c b1 8c d4 3d 0f 97 f7 bd 7e 04 66 3d
       0.020036658 0.10378397 -0.12089359 0.056156628
0003d0 0e eb b8 bd 2c f5 bd 3d 61 08 f9 bd 40 2f 84 3d
       -0.09029208 0.092752784 -0.12159801 0.06454325
0003e0 79 c2 c4 bc c1 35 06 bd 43 d6 0d 3d 80 49 35 3d
       -0.024018513 -0.032766107 0.034628164 0.04425955
0003f0 7b 7e 35 3d 4c b2 63 bd ac e4 01 be fa 40 70 3c
       0.044310074 -0.05558996 -0.12684888 0.014663929

weight f4 [1, 80]
000000 d5 62 e6 bd 7a 59 d2 bd 98 f8 b1 3c 71 45 b2 3d
       -0.112493195 -0.102709725 0.021724984 0.08704651
000010 5d 4d 2e 3d 2f 39 3b bd 28 7b 78 3d 30 fc c3 3d
       0.042554248 -0.04570883 0.060664326 0.09569585
000020 ee 14 8e bd 6a 66 dd bc 73 77 b3 3d 3c c2 7c 3d
       -0.06937586 -0.027026374 0.087630175 0.061708674
000030 d8 7a d9 bd 8b cb b5 3d e9 c1 fb 3c 11 82 10 3d
       -0.10619134 0.08876713 0.030732112 0.03528029
000040 ba b2 cd bd 55 df de 3d 75 c6 e4 3d 5a b4 66 3d
       -0.10043855 0.10882441 0.11170665 0.05632434
000050 a5 b4 4a 3c 65 3c 4c 3d 1a ce 42 bd 65 d1 01 be
       0.012372171 0.049862284 -0.047559835 -0.12677534
000060 c0 da 98 3d 42 c3 9e bd 3b dd 42 bd e2 fd 6d bd
       0.07463598 -0.07752086 -0.047574263 -0.05810345
000070 71 01 2f bd e4 9d 2b bd de ce f8 bd c1 10 bf 3d
       -0.042725984 -0.041898623 -0.12148832 0.093293674
000080 0e 54 90 bd 0c 42 b2 3b 85 9a f4 bb 82 f8 63 bd
       -0.07047282 0.0054400023 -0.007464709 -0.055656917
000090 a3 cc 05 3c e9 e7 13 bd f0 ca 92 3d 2e 45 dd 3d
       0.008166465 -0.03610984 0.071676135 0.108042106
0000a0 cc 4f b8 ba d7 9f b5 bd 08 5c 9a bc ff 02 d9 3d
       -0.0014061867 -0.08868378 -0.018842712 0.105962746
0000b0 69 fc 1e bd 52 c8 4c 3d 65 25 96 3c 2b a2 1e be
       -0.038814936 0.049995728 0.018328378 -0.1549155
0000c0 62 26 88 3c a6 34 ac bd 29 b7 af bd 7a 0c 1a bb
       0.016619865 -0.084084794 -0.08579857 -0.0023505972
0000d0 6d 1f 62 3d a5 7d 04 3e a0 ae e3 bd 7e 56 a8 bd
       0.05520575 0.12938555 -0.111172915 -0.08219622
0000e0 70 81 75 bd 1b 15 a3 bd 1f 1d 4d 3d 4a f8 ec 3d
       -0.059937894 -0.0796301 0.0500766 0.11570795
0000f0 15 14 e3 3d 4b 7c f0 3d f5 28 cb 3d f0 b8 ca bc
       0.11087815 0.11742457 0.09919921 -0.024746388
000100 18 c9 03 3e 90 8d 7c bd 4b bf 00 be 56 c7 b4 bd
       0.1286968 -0.061658442 -0.12572972 -0.08827083
000110 c8 4c 88 bd bf fc a1 bd 16 96 c5 bc fa cf 05 be
       -0.0665527 -0.079095356 -0.024119418 -0.13067618
000120 4a 3d 72 bd f4 b5 0b be 4d f1 8a 3c f7 8e 1f bd
       -0.05914048 -0.13643628 0.016960764 -0.0389547
000130 d2 c1 22 bc eb 5c 48 bd d1 98 97 3b 9a 2e be bb
       -0.009933906 -0.04891674 0.0046263714 -0.005803895
