model/3290.8933437594114_weight.pth (torch, 131983 bytes, 7 tensors)

weight f4 [16, 32, 1]
0	0x3e0ffaba	0.14060488
1	0x3da050d1	0.078279145
2	0xbcb33579	-0.021876084
3	0x3e25dfd9	0.16198672
4	0x3dfc2c74	0.12313166
5	0x3e3884f1	0.18019463
6	0xbd2b513b	-0.041825514
7	0xbd3eef69	-0.046615038
8	0xbb8f0a93	-0.004365274
9	0x3d510662	0.051031478
10	0x3db2a61b	0.08723088
11	0xbcfe8df6	-0.031073552
12	0x3dfdf348	0.12399918
13	0x3e28c831	0.16482617
14	0x3e3ab434	0.18232805
15	0xbde47b0c	-0.11156282
16	0x3d8735dc	0.0660207
17	0xbe0bbfbb	-0.13647358
18	0xbdf02b99	-0.117270656
19	0x3da9284c	0.08259639
20	0x3e1ff443	0.15620522
21	0xbdab9cad	-0.08379493
22	0xbdb06d80	-0.086146355
23	0xbe3f01a6	-0.18652973
24	0x3e0798a6	0.13241825
25	0x3dc1d4dc	0.09464428
26	0xbe21858a	-0.15773597
27	0x3e1aa467	0.15101777
28	0x3e1beca6	0.15226993
29	0x3d8a6136	0.06756823
30	0xbd3255fc	-0.043539032
31	0x3e04d543	0.12971978
32	0x3e8574de	0.26065725
33	0x3dc11f37	0.09429782
34	0x3d74c167	0.059754755
35	0xbddcde63	-0.107846044
36	0x3e5b4fda	0.2141718
37	0x3dc554d3	0.096353196
38	0xbda98e6b	-0.08279117
39	0x3e0da62e	0.13832924
40	0xbde0e7d7	-0.1098172
41	0x3cbc547c	0.022989504
42	0xbde3479f	-0.11097645
43	0x3d8a0669	0.06739504
44	0xbdf9b739	-0.1219315
45	0x3e174a28	0.14774382
46	0x3e38976d	0.18026514
47	0x3e0c92d7	0.1372789
48	0xbe377733	-0.17916565
49	0xbcc15591	-0.023600372
50	0x3dde71b2	0.108615294
51	0xbe14093f	-0.14456652
52	0x3c2908cd	0.01031704
53	0xbd06c58d	-0.032903243
54	0xbdd66f62	-0.10470463
55	0x3d87eb49	0.06636674
56	0xbc33813a	-0.010956103
57	0x3e36edae	0.17864105
58	0x3e0c4f5a	0.13702145
59	0x39e4bc70	0.00043627946
60	0x3cc6aa27	0.024251057
61	0xbe49f947	-0.19723998
62	0x3d19dd25	0.037564415
63	0xbd8929a0	-0.066973925
64	0x3e291868	0.16513216
65	0xbd02406e	-0.031799726
66	0xbb8d4b1e	-0.004311933
67	0x3e54610f	0.2074015
68	0x3e56e826	0.20986995
69	0xbdaac1ac	-0.08337721
70	0x3d956bdd	0.07295964
71	0xbd942378	-0.072333276
72	0x3c414a78	0.01179754
73	0xbdce8ebc	-0.10085818
74	0xbdda11e1	-0.106479414
75	0x3da47272	0.08029641
76	0x3d68efbf	0.056869265
77	0x3e16f810	0.14743066
78	0x3d07aff3	0.033126783
79	0xbe601c25	-0.21885736
80	0x3d908a09	0.07057578
81	0x3d15f94b	0.036614697
82	0x3eda323d	0.42616454
83	0x3cac1d7a	0.02101015
84	0xbdbfbeb0	-0.09362543
85	0xbc044f5a	-0.0080755595
86	0xbe0a5279	-0.13508023
87	0x3da6500f	0.08120739
88	0x3e6afb41	0.22947408
89	0xbcf65225	-0.030068466
90	0x3e6ee1bf	0.23328303
91	0xbda22966	-0.079180524
92	0xbc65753e	-0.0140050035
93	0xbcea8844	-0.02862943
94	0xbcdf9b7b	-0.027295819
95	0xbdbd4cf6	-0.09243195
96	0x3e0c2298	0.13685071
97	0x3e7a4575	0.24440558
98	0x3e74b579	0.23897351
99	0xbc9af94f	-0.018917708
100	0x3d752113	0.059845995
101	0xbd4baa86	-0.04972317
102	0xbe4f51d7	-0.20246063
103	0xbdb2210c	-0.086977094
104	0xbdca7aac	-0.09886679
105	0x3d480f98	0.048842996
106	0xbd06e919	-0.032937143
107	0x3ddccc47	0.1078115
108	0x3defff28	0.11718589
109	0xbd98baa6	-0.07457475
110	0x3dddb357	0.10825222
111	0x3e1782a9	0.14795937
112	0xbd99e575	-0.075144686
113	0xbdf65e2f	-0.12029683
114	0xbcd2cb80	-0.025731802
115	0xbd7b42af	-0.06134289
116	0xbe8a2bd2	-0.26986557
117	0xbe1ba948	-0.15201294
118	0xbdf59b85	-0.119925536
119	0xbd40ec90	-0.047100604
120	0xbd90ac54	-0.07064119
121	0x3c62bb54	0.013838608
122	0x3db4703a	0.08810468
123	0x3dcac2c8	0.09900433
124	0xba4af606	-0.0007742349
125	0xbcac0695	-0.020999232
126	0x3c4362e0	0.011925429
127	0xbe2dbfbf	-0.16967677
128	0xbd9f86bb	-0.0778937
129	0x3d9895dd	0.07450459
130	0x3dd46662	0.103710905
131	0xbdc7457e	-0.097300515
132	0xbe06ac9e	-0.13151786
133	0x3dbb45b8	0.09144157
134	0x3c9162ef	0.01774737
135	0x3c44a3ec	0.012001973
136	0xbe44e0bf	-0.19226359
137	0x3da0f40b	0.078590475
138	0x3d868d42	0.065699115
139	0x3dc6d8c9	0.09709317
140	0x3df2277e	0.11823939
141	0xbd8299a6	-0.06376962
142	0x3e3b9dff	0.1832199
143	0x3d55a656	0.052160583
144	0x3d55611f	0.052094575
145	0x3d04379d	0.0322796
146	0x3e0b2430	0.13588023
147	0x3cb52514	0.022112407
148	0x3e834591	0.25639012
149	0x3d6c6857	0.057716694
150	0x3d898455	0.067146935
151	0xbc841473	-0.016123032
152	0x3e2c8f27	0.16851483
153	0xbddf7e00	-0.109127045
154	0x3de3d3d7	0.111243896
155	0xbdd89f27	-0.10577231
156	0xbe42f1a4	-0.19037491
157	0xbe392232	-0.1807945
158	0xbd9d16af	-0.07670342
159	0x3dd53bb4	0.10411778
160	0x3e6397ee	0.22225925
161	0x3e1f1ce4	0.15538365
162	0x3e21d71f	0.15804718
163	0xbe206db7	-0.15666853
164	0xbd80417e	-0.06262492
165	0x3da344d0	0.07972109
166	0xbc35054d	-0.011048627
167	0x3e11d1bc	0.14240164
168	0xbd322127	-0.043488648
169	0x3da1a7ba	0.078933194
170	0x3cc3a2a6	0.023881268
171	0x3dc52562	0.09626271
172	0xbbde79f5	-0.0067894408
173	0x3e05a587	0.13051425
174	0xbc825d88	-0.01591374
175	0x3dc4313b	0.095797025
176	0xbcabc283	-0.020966774
177	0x3d9eac46	0.07747702
178	0x3d641f4f	0.05569392
179	0xbcf09a11	-0.02937034
180	0x3e47408f	0.19458221
181	0xbe164bcd	-0.14677353
182	0x3d3b3972	0.04570908
183	0x3daa2fde	0.08309911
184	0xbd952312	-0.0728208
185	0x3d60d8e8	0.054894358
186	0xbd6c79f9	-0.05773351
187	0xbe00e070	-0.12585616
188	0x3dffcc4a	0.12490137
189	0xbdd0ba28	-0.101917565
190	0xbc01e029	-0.007926979
191	0x3e1fab89	0.15592779
192	0x3ea13f47	0.3149359
193	0x3e5637be	0.20919701
194	0x3e88ae45	0.26695457
195	0xbdd4cb9b	-0.10390397
196	0x3c5f9f1f	0.013648777
197	0xbe26ea93	-0.1630042
198	0xbd8b2502	-0.06794168
199	0xbde19671	-0.110150225
200	0x3e35c774	0.17751867
201	0x3e1e7240	0.1547327
202	0xbd8e3869	-0.06944353
203	0xbda90d1e	-0.08254455
204	0xbcbb5f7b	-0.022872677
205	0x3d74a035	0.059723098
206	0x3e417e4f	0.18895839
207	0xbdadde4f	-0.084896676
208	0x3e21c1c4	0.15796572
209	0xbbe00e96	-0.0068376763
210	0xbdf15a02	-0.11784746
211	0x3dbb8821	0.09156824
212	0x3e0c90fd	0.13727184
213	0x3d900219	0.0703165
214	0xbdf64f58	-0.12026852
215	0x3db9f236	0.09079401
216	0xbdcae92f	-0.099077575
217	0xbdcb8ed7	-0.09939354
218	0x3d8677e2	0.065658346
219	0x3d4223ac	0.0473973
220	0x3e4a071a	0.19729272
221	0x3daafe45	0.08349279
222	0x3e38c2c3	0.18043046
223	0x3dd86429	0.10565979
224	0xbe7966b7	-0.24355589
225	0xbd86cab1	-0.06581629
226	0xbdbd4aeb	-0.09242805
227	0xbe3bb875	-0.18332084
228	0xbdaef364	-0.08542517
229	0x3bc9852d	0.006149909
230	0xbe3fa0a1	-0.18713619
231	0xbe3bdcd0	-0.18345952
232	0x3b657f99	0.003501868
233	0xbdbbb9a8	-0.091662705
234	0xbe0e6391	-0.13905169
235	0x3e37b4ba	0.17940035
236	0xbce59a4c	-0.028027676
237	0xbc93833e	-0.018006917
238	0xbdbfa038	-0.09356731
239	0xbe070cb0	-0.13188434
240	0xbda7d02b	-0.08194002
241	0x3d9889d8	0.074481666
242	0x3daec65c	0.08533928
243	0xbda5d60e	-0.08097468
244	0xbdcf065b	-0.10108634
245	0x3e32faad	0.17478438
246	0xbcfd3a4a	-0.030911583
247	0x3de77132	0.11300887
248	0xbcf60c83	-0.030035263
249	0x3e127e4d	0.14305992
250	0x3e1ff8aa	0.15622202
251	0xbe17cc62	-0.1482406
252	0xbe1c9003	-0.15289311
253	0x3d88d489	0.06681163
254	0xbe49ebe3	-0.1971889
255	0xbd7960b5	-0.060883243

bias f4 [16]
0	0x3e1300d1	0.1435578
1	0xbdd68b00	-0.10475731
2	0x3de173bf	0.11008405
3	0xbdb1af6f	-0.086760394
4	0x3cbf02b8	0.023316726
5	0x3e1781a8	0.14795554
6	0xbcce8a6a	-0.025212485
7	0x3b268741	0.0025410207
8	0x3e239e27	0.15978299
9	0x3cc17582	0.023615602
10	0x3db76337	0.089544706
11	0x3e1ca6ac	0.15297955
12	0xbc9ab98a	-0.0188873
13	0x3dbe7f79	0.09301657
14	0x3d0d3d42	0.034482248
15	0x3df251dc	0.1183202

weight_ih_l0 f4 [320, 16]
0	0x3d96fa3c	0.07371947
1	0x3d9d3b13	0.07677283
2	0xbce70976	-0.028202754
3	0x3d845b84	0.06462768
4	0xbe06e460	-0.13173056
5	0xbbf8d199	-0.0075933454
6	0xbdc71467	-0.09720688
7	0x3df04c51	0.11733306
8	0xbd8930dc	-0.06698772
9	0xbda418ff	-0.0801258
10	0xbc895a1f	-0.016766606
11	0xbe14e8cd	-0.14541931
12	0x3d0e8230	0.034792125
13	0x3dd54053	0.104126595
14	0xbaee94dd	-0.0018202324
15	0x3d92c7c3	0.07167008
16	0x3d7323f0	0.059360445
17	0x3d55d32a	0.052203335
18	0xbda59866	-0.08085708
19	0xbd8572e8	-0.06516057
20	0x3da80f8e	0.08206092
21	0x3d0c6834	0.034279063
22	0x3daefa5c	0.08543846
23	0xba93f02c	-0.0011286787
24	0x3dfac00c	0.12243661
25	0xbe16d5e3	-0.14730029
26	0x3d81c03c	0.06335494
27	0xbd897947	-0.06712585
28	0x3d865b32	0.06560363
29	0xbdb4726f	-0.08810889
30	0x3cbe2d84	0.023215063
31	0xbd5fbd55	-0.05462392
32	0xbd788abc	-0.060679182
33	0xbd994aea	-0.07484992
34	0xbda10bc3	-0.078635715
35	0xbe58d376	-0.21174416
36	0x3d3c28fa	0.045937516
37	0x3d2d8553	0.042363476
38	0x3d6e940f	0.05824667
39	0x3c7d5fc1	0.015464724
40	0x3d17c23b	0.037050467
41	0xbe07eef8	-0.13274753
42	0xbdd25865	-0.10270766
43	0xbd3ed94c	-0.04659395
44	0xbe00aaba	-0.12565127
45	0x3d40b9b0	0.047052085
46	0x3d9f4a5a	0.07777853
47	0xbd5427fa	-0.051795937
48	0xbca26274	-0.019822337
49	0x3d81f95d	0.063463904
50	0xbda81123	-0.082063936
51	0xbe87fb12	-0.2655874
52	0xbd9a1a24	-0.07524517
53	0xbd87c84c	-0.066300005
54	0xbc808513	-0.015688455
55	0x3d8f90bd	0.070100285
56	0xbc0e1cf3	-0.008673894
57	0x3d0fd7e2	0.03511799
58	0x3c84d4b9	0.016214715
59	0xbe37d2a9	-0.17951454
60	0xbcac5802	-0.02103806
61	0x3d86cdd3	0.065822266
62	0x3d5add22	0.053433545
63	0xbdaaa624	-0.0833247
64	0xbd834eeb	-0.06411537
65	0x3d09e59c	0.03366624
66	0xbd93f658	-0.07224721
67	0xbd696b97	-0.05698737
68	0xbdde0b9f	-0.1084206
69	0x3ca9fbfa	0.020750035
70	0xbda4a9e1	-0.08040214
71	0x3d3c26af	0.04593533
72	0xbda06c16	-0.07833116
73	0xbd62b214	-0.05534561
74	0xbb08ee3c	-0.0020893952
75	0xbd84b489	-0.06479747
76	0x3cb7d08d	0.022438312
77	0x3e098cd7	0.13432632
78	0xbd23a550	-0.039952576
79	0x3d4c99d7	0.0499514
80	0xbdaca6e3	-0.084302686
81	0xbdafa71c	-0.085767955
82	0xbd6a2b00	-0.057169914
83	0xbd60dca9	-0.054897938
84	0xbe286ca6	-0.16447696
85	0xbe0480de	-0.12939784
86	0xbe15ab61	-0.14616157
87	0xbd16c53c	-0.03680919
88	0xbc6a746a	-0.014309982
89	0xbd8f29b8	-0.06990379
90	0xbdb9b799	-0.090682216
91	0xbe7ddf67	-0.24792252
92	0xbe169d93	-0.14708547
93	0x3daa9082	0.08328344
94	0x3e43d8dd	0.19125696
95	0x3d98212d	0.07428203
96	0xbd101742	-0.03517843
97	0xbdcbc580	-0.099497795
98	0xbcb7de0e	-0.022444751
99	0xbe0b5850	-0.13607907
100	0xbdade3d7	-0.084907226
101	0xbddddbea	-0.10832961
102	0x3c8a864b	0.016909739
103	0xbd107b7f	-0.035274025
104	0xbd123cf4	-0.03570266
105	0xbd25d331	-0.04048461
106	0xbdae8831	-0.0852207
107	0xbe8021d5	-0.25025812
108	0xbe1316ae	-0.1436412
109	0xbd9ce0c8	-0.07660061
110	0x3e189e1d	0.14904065
111	0x3d517f04	0.051146522
112	0xbd80c456	-0.06287448
113	0xbc9dd5ec	-0.019267045
114	0xbd650dbb	-0.055921298
115	0xbe243934	-0.16037446
116	0xbde3e064	-0.111267835
117	0x3cd6e5de	0.026232656
118	0xbcc40ce8	-0.023931935
119	0xbd27a71f	-0.040930863
120	0xbe115be3	-0.14195208
121	0xbd4eac7b	-0.05045746
122	0xbdf43bce	-0.11925469
123	0xbe167260	-0.14692068
124	0xbd63e27d	-0.055635918
125	0x3c4e1519	0.012578272
126	0x3e0c48e6	0.13699684
127	0x3db90a86	0.0903521
128	0xbd61e921	-0.05515397
129	0x3d564b80	0.052318096
130	0xbe244c75	-0.16044791
131	0xbd9f27a6	-0.07771234
132	0x3c6e4e6c	0.014545064
133	0x3d2ed7bd	0.042686213
134	0x3ca76eee	0.020438638
135	0x3da46bdd	0.08028386
136	0xbcb85d64	-0.02250547
137	0x3be904e5	0.007111179
138	0x3c6542d1	0.013992981
139	0xbe02241a	-0.12709084
140	0x3d0e1309	0.034686122
141	0x3d9c77d2	0.076400414
142	0x3d3bd8fe	0.045861237
143	0xbda1e0de	-0.07904218
144	0x3c4e06d0	0.012574866
145	0xbdf2bd54	-0.11852518
146	0xbe60ed15	-0.2196544
147	0xbdbe2afa	-0.09285541
148	0xbc560361	-0.013062329
149	0x3d85ed0d	0.065393545
150	0xbe023e09	-0.12718977
151	0x3bd5e4cb	0.0065275184
152	0xbb7c19b6	-0.0038467473
153	0x3c40842c	0.011750262
154	0x3d4703d3	0.04858763
155	0xbdfd0b7f	-0.12355708
156	0x3d53de5c	0.05172573
157	0x3db9959f	0.09061741
158	0xbb99212b	-0.0046731434
159	0x3bb1391d	0.0054084198
160	0x3dc68028	0.096924126
161	0x3e016dca	0.12639537
162	0xbdc5591d	-0.09636138
163	0xbd09082b	-0.033455055
164	0xbbdc35ae	-0.0067202663
165	0xbd2f7699	-0.042837713
166	0x3dc359e6	0.09538631
167	0xbde17a96	-0.110097095
168	0x3d86b017	0.06576555
169	0xbce96507	-0.028490556
170	0x3da09395	0.07840649
171	0x3dadb6ad	0.08482108
172	0xbb532c78	-0.003222255
173	0xbd8ca92b	-0.06868204
174	0xbd301bc3	-0.042995226
175	0xbd1e6c20	-0.038677335
176	0xbcf63de3	-0.030058807
177	0x3cf1b524	0.02950532
178	0xbc950589	-0.018191116
179	0xbe0b2936	-0.1358994
180	0xbd9e4e5c	-0.077297896
181	0xbd9917d2	-0.074752465
182	0xbd2426e0	-0.040076137
183	0x3e050dac	0.12993497
184	0xbc5efcad	-0.013610047
185	0xbb996197	-0.004680823
186	0xbd6719dc	-0.056421146
187	0xbd305d00	-0.04305744
188	0x3cd89ee8	0.02644296
189	0xbd60e318	-0.054904073
190	0x3d61e9bc	0.055154547
191	0x3da596c9	0.080854006
192	0x3c9db249	0.019250052
193	0x3dbcb10e	0.09213458
194	0xbaf83f9c	-0.0018939856
195	0xbdf3086d	-0.118668415
196	0x3cfc6299	0.030808734
197	0x3d75740c	0.059925124
198	0x3dcfbebf	0.10143804
199	0xbc78ded4	-0.015189845
200	0x3d82e230	0.06390798
201	0x3d4e111e	0.050309293
202	0x3d9dfef2	0.077146426
203	0xbd75836b	-0.059939783
204	0xbd338f4c	-0.04383783
205	0x3ce9ed51	0.028555544
206	0xbce965d3	-0.028490936
207	0xbcb57794	-0.022151746
208	0xbd5ed928	-0.054406315
209	0x3d10293e	0.03519558
210	0x3c2e7cbf	0.010649859
211	0xbdfda847	-0.12385612
212	0x3d0ad49d	0.03389417
213	0xbdff94ea	-0.12479575
214	0xbcf1ef54	-0.029533066
215	0x3c106f1a	0.008815551
216	0xbb8027fb	-0.003911016
217	0xbd71bd0a	-0.059018172
218	0xbdaa4c8a	-0.0831538
219	0xbc8e3060	-0.017357051
220	0xbc8d9823	-0.017284459
221	0x3bcf9940	0.0063354075
222	0x3c4e31fe	0.012585161
223	0x3c9fc167	0.019501401
224	0xbb85bb17	-0.0040811407
225	0xbd018a36	-0.03162595
226	0xbe1aeda7	-0.1512972
227	0xbcdf48a1	-0.027256312
228	0x3dc38730	0.09547269
229	0xbdcb75a3	-0.09934547
230	0xbce7f1be	-0.028313514
231	0xbd9ad824	-0.07560757
232	0xbc9d2a21	-0.019185128
233	0x3bc21930	0.0059234127
234	0xbdacafa5	-0.08431939
235	0x3cc091af	0.023506967
236	0xba9e6ccb	-0.0012086866
237	0xbde6cfcc	-0.11270103
238	0x3d988660	0.07447505
239	0x3c97976b	0.018504819
240	0xbcc5557e	-0.024088617
241	0xbe0750ff	-0.13214491
242	0xbe1dc014	-0.15405303
243	0xbdf6192a	-0.120165184
244	0x3c9c1686	0.019053709
245	0xbc08c729	-0.008348265
246	0xbe0a1b48	-0.1348697
247	0x3d66f39e	0.056384675
248	0xbe384bea	-0.17997709
249	0xbd7c9e64	-0.06167449
250	0x3d6be305	0.05758955
251	0xbd0b5391	-0.034015242
252	0xbd9905ad	-0.07471786
253	0x3d61331b	0.05498038
254	0xbaeaf1f0	-0.0017924886
255	0x3e09bc12	0.1345065

weight_hh_l0 f4 [320, 80]
0	0xbdafc9ea	-0.08583434
1	0xbd5d64e0	-0.05405128
2	0xbd8d5b0f	-0.06902134
3	0xbd65d824	-0.05611433
4	0xbdde6722	-0.10859515
5	0xbdc23cfb	-0.09484287
6	0xbddab415	-0.10678879
7	0xbd8e8a5a	-0.06959982
8	0xbdaa89d2	-0.083270684
9	0xbcf7c05e	-0.030243095
10	0x3dfc3047	0.12313896
11	0x3d0d3eb1	0.034483615
12	0xbd4341dd	-0.047670234
13	0xbde2a13d	-0.1106591
14	0xbd99ea4b	-0.07515391
15	0x3cda7a5a	0.02666967
16	0x3b4138d4	0.0029483335
17	0x3c54e8c4	0.012994949
18	0xbd10460e	-0.03522306
19	0x3d834d31	0.064112075
20	0xbcc75980	-0.02433467
21	0x3c2ece15	0.010669251
22	0x3c6233a6	0.013806259
23	0x3db4c85b	0.08827277
24	0x3d4682a9	0.04846445
25	0x3c46c89d	0.012132791
26	0xbda571d8	-0.080783546
27	0xbd6211a6	-0.055192612
28	0x3bb2c944	0.0054561216
29	0x3d4d2b14	0.05008991
30	0xbde109a1	-0.10988165
31	0xbd7ec707	-0.062201526
32	0x3cb50716	0.022098105
33	0xbe07beed	-0.13256426
34	0xbd94368c	-0.072369665
35	0x3ddcada8	0.1077531
36	0xbdcce495	-0.10004536
37	0xbb800a15	-0.003907452
38	0xbd66aa49	-0.05631474
39	0x3dabb8d8	0.083848655
40	0xbde9fa9f	-0.11424755
41	0x3d6fb605	0.058523197
42	0xbdbf9b68	-0.09355813
43	0xbdb70558	-0.08936566
44	0x3d92c793	0.07166972
45	0xbd9ce9b6	-0.07661764
46	0xbd81f0e1	-0.06344772
47	0x3d9b4802	0.07582094
48	0x3db68b67	0.08913308
49	0x3d4e3478	0.050343007
50	0x3d31844e	0.043339066
51	0x39eec034	0.000455381
52	0xbdd51ba9	-0.104056664
53	0x3d59ee8f	0.053206023
54	0xbd9b3842	-0.0757909
55	0x3ccda404	0.025102623
56	0xbcbc4cca	-0.022985835
57	0xbdda4775	-0.106581606
58	0x3c56ccae	0.013110323
59	0xbdcb87cd	-0.09938011
60	0xbdb0df20	-0.08636308
61	0x3ddb5750	0.10710013
62	0x3d237d6b	0.03991453
63	0xbd66985d	-0.05629765
64	0x3c680264	0.014160726
65	0xbdd896cb	-0.105756365
66	0x3c74cbc1	0.014941157
67	0xbde69de1	-0.11260582
68	0x3c27e4d5	0.010247429
69	0xbdb7ed5e	-0.08980821
70	0x3b139984	0.0022521922
71	0x3da5e048	0.08099419
72	0x3db4c1f9	0.0882606
73	0x3c05eaa1	0.008173616
74	0xbc4bcf28	-0.012439527
75	0xbd6f891b	-0.058480363
76	0xbc471569	-0.012151101
77	0xbdb826b1	-0.08991755
78	0xbca27122	-0.019829337
79	0x3cd47c97	0.025938315
80	0x3d3c0995	0.045907576
81	0x3c2a107e	0.010379909
82	0xbca8822f	-0.020569889
83	0x3c77cc6e	0.015124423
84	0xbcfbe82f	-0.030750362
85	0xbdf03bb7	-0.1173014
86	0xbd96c572	-0.073618785
87	0xbd9d4101	-0.07678414
88	0x3c1bce80	0.009509683
89	0xbda42750	-0.08015311
90	0x3c130613	0.008973616
91	0x3d152207	0.036409404
92	0xbd1d6cd4	-0.038433865
93	0xbd0fabca	-0.03507594
94	0x3d96b40a	0.073585585
95	0x3d1b1e48	0.037870675
96	0xbd47fd3e	-0.048825495
97	0x3be98661	0.007126615
98	0x3d9c9cb9	0.0764708
99	0x3e134abf	0.14383982
100	0x3cdb9e20	0.026808798
101	0x3d1b2b20	0.037882924
102	0x3a95093f	0.0011370553
103	0x3c872aef	0.016499965
104	0x3cab0a80	0.02087903
105	0x3d003f61	0.031310443
106	0xb8fb3012	-0.000119775665
107	0x3dd24d85	0.10268692
108	0xbd2113c3	-0.039325487
109	0x3d0b1139	0.03395197
110	0xbe0db29c	-0.13837665
111	0x3db29d83	0.08721449
112	0xbd93dd73	-0.072199725
113	0xbdc7f808	-0.09764105
114	0xbd10acc9	-0.03532103
115	0x3c3c7159	0.011501634
116	0xbd894ebe	-0.06704472
117	0xbe01677f	-0.12637137
118	0x3e0aac2d	0.13542242
119	0xbd1b3fd6	-0.037902676
120	0xbcdee052	-0.027206574
121	0x3dddb5d9	0.108257
122	0x3d3bbc36	0.04583379
123	0xbd74ddde	-0.0597819
124	0xbbf63f8d	-0.0075149
125	0xbd2bf850	-0.041984856
126	0x3d693c3f	0.05694222
127	0xbc9d25ce	-0.019183066
128	0x3e0414ac	0.1289851
129	0xbc33ca82	-0.010973575
130	0xbd26ee92	-0.040754862
131	0x3d93377d	0.07188318
132	0xbd9afc8d	-0.075677015
133	0x3dbe810e	0.09301959
134	0x3c59974c	0.013280701
135	0xbd200a3b	-0.039072257
136	0x3dbe8cc0	0.0930419
137	0x3db339cc	0.08751258
138	0xbdb65144	-0.08902219
139	0xbd5caa1d	-0.05387317
140	0xbe3a1e78	-0.18175685
141	0x3dc2c3fa	0.09510036
142	0x3dc2c1ab	0.095095955
143	0x3dfe5cce	0.12420045
144	0x3e209a3b	0.15683834
145	0xbcdf8375	-0.027284363
146	0x3d95bdbb	0.07311579
147	0xbe138b47	-0.14408599
148	0xbe15a670	-0.14614272
149	0x3dafafd4	0.085784584
150	0xb96e0fd6	-0.00022703348
151	0xbdf48193	-0.11938777
152	0xbdbc1ba9	-0.09184963
153	0xbd0dc711	-0.034613673
154	0x3dbecbc4	0.09316209
155	0xbdcdec48	-0.10054833
156	0x3cee99fe	0.029126164
157	0x3dba5e1c	0.09099981
158	0xbcdb0f6b	-0.02674075
159	0xbdba09fb	-0.09083935
160	0xbd8b4d02	-0.068017974
161	0xbd556be7	-0.052104857
162	0xbcf7c9f9	-0.030247675
163	0x3d324221	0.043520097
164	0x3c8b8554	0.01703135
165	0x3dcb4fba	0.09927316
166	0xbdc10347	-0.09424453
167	0x3d3021c7	0.043000963
168	0xbdabff88	-0.08398348
169	0x3d90be4d	0.07067547
170	0xba92d7ab	-0.001120319
171	0xbdec2664	-0.1153076
172	0xbd8be10a	-0.06830032
173	0x3de332d7	0.11093681
174	0xbd13f653	-0.036123585
175	0xbd256ce4	-0.04038705
176	0x3d9390ca	0.07205351
177	0x3d57fd7b	0.052731972
178	0x3dc8eb91	0.09810556
179	0x3d8a1c43	0.06743672
180	0xbdd46549	-0.10370881
181	0x3d2fee51	0.042951886
182	0x3da7f4c9	0.08200986
183	0xbe07f72c	-0.13277882
184	0x3d05281b	0.03250895
185	0x3dab75d7	0.083720855
186	0xbbe0285a	-0.006840748
187	0xbd6110b6	-0.054947577
188	0xbd0a48e1	-0.03376091
189	0xbdb27248	-0.08713204
190	0xbc6b6227	-0.014366663
191	0x3e0e4bd2	0.1389611
192	0xbd538ab2	-0.051645942
193	0x3d136ca2	0.035992272
194	0xbe2ca1f4	-0.16858655
195	0xbdf59363	-0.119910024
196	0xbcee2f34	-0.029075243
197	0xbd8f9a0d	-0.07011805
198	0xbca7ff38	-0.02050744
199	0xbd101434	-0.035175517
200	0xbe1a7d90	-0.15086961
201	0x3daa1c13	0.08306136
202	0xbdb890b9	-0.09011979
203	0x3d9f7b03	0.077871345
204	0x3d529c9b	0.051418882
205	0x3d897ae0	0.0671289
206	0xbdbf8656	-0.093517944
207	0xba8981c2	-0.0010490941
208	0xbd23eded	-0.040021826
209	0x3ab06b4d	0.0013459712
210	0x3d9bcd9a	0.07607575
211	0xbd9e9c1b	-0.077446185
212	0xbcc3e8a4	-0.023914643
213	0x3d3412cb	0.043963235
214	0x3ca07821	0.019588532
215	0xbba55704	-0.0050457735
216	0x3e13414d	0.14380379
217	0xbd3c80ba	-0.0460212
218	0xbac784dd	-0.0015222091
219	0xbc9ec8d1	-0.019382866
220	0x3d9c1ece	0.07623063
221	0xbdd7de93	-0.105404995
222	0xbd2e6b5d	-0.04258286
223	0x3dc1e9b8	0.094684064
224	0xbd574d4e	-0.052563958
225	0xbd88b173	-0.06674471
226	0xbcae9ef1	-0.021316024
227	0xbdd056c6	-0.10172801
228	0x3d42e632	0.047582813
229	0xbdd1201a	-0.10211201
230	0xbc1ff183	-0.009762171
231	0x3cf8845e	0.030336555
232	0xbde67d6a	-0.112543896
233	0xbde10ef8	-0.10989183
234	0xbdb86e02	-0.09005357
235	0xbd2555f6	-0.040365182
236	0x3dc8e56a	0.09809382
237	0x3cf1a4b3	0.02949748
238	0x3dcd29a0	0.10017705
239	0xbcbc70d4	-0.02300302
240	0xbcbedeca	-0.023299593
241	0x3db471e5	0.08810786
242	0x3d551be0	0.052028537
243	0x3dda0bfd	0.10646818
244	0x3d0a2152	0.033723183
245	0xbde977bf	-0.11399793
246	0x3d9bcc1d	0.07607291
247	0xbd4ee226	-0.05050864
248	0x3e0f865f	0.14016102
249	0x3dc0c2bf	0.09412145
250	0x3ddd92ce	0.108190164
251	0xbdbd9d2e	-0.09258495
252	0x3d324b63	0.043528926
253	0x3dd7dd27	0.10540228
254	0x3d984f74	0.074370295
255	0x3d86645c	0.06562111

bias_ih_l0 f4 [320]
0	0xbd68365d	-0.05669247
1	0x3d72bb02	0.059260376
2	0xbd7fa127	-0.062409546
3	0x3d724201	0.059144977
4	0x3cfa96e1	0.030589523
5	0xb9301e4b	-0.00016795953
6	0x3d32e56d	0.04367583
7	0x3db1654e	0.086619005
8	0xbdc9c6ef	-0.09852397
9	0x3c244274	0.010025609
10	0xbe01a06a	-0.1265885
11	0x3dc6b5dc	0.09702656
12	0xbdb0988d	-0.08622847
13	0x3d28cb4f	0.041209515
14	0xbb7edc3b	-0.0038888592
15	0x3d5793bb	0.05263112
16	0xbc370d7c	-0.0111726485
17	0x3d257d16	0.040402494
18	0x3df5c5d6	0.12000625
19	0xbae10e9a	-0.0017170489
20	0x3dc1122f	0.09427296
21	0x3ddbe0bb	0.10736223
22	0x3e0c4ac5	0.13700397
23	0x3da652fe	0.08121298
24	0x39b323f6	0.00034168334
25	0x3d622511	0.05521113
26	0x3ddde6a1	0.108350046
27	0x3df5f6da	0.12009974
28	0x3bbd6aec	0.0057805683
29	0x3d87b758	0.06626767
30	0x3da4cdc2	0.08047058
31	0xbdc732ec	-0.097265095
32	0x3d86f8a5	0.06590394
33	0x3d2306a4	0.039801255
34	0x3d11a08a	0.035553493
35	0x3e380000	0.1796875
36	0x3c382a34	0.011240531
37	0x3cd2ea74	0.025746562
38	0x3d9f48db	0.07777568
39	0x3de737f3	0.11289968
40	0xbdb00cbb	-0.08596178
41	0x3d65fb04	0.05614759
42	0x3cfff9f5	0.031247118
43	0x3daf5784	0.08561614
44	0x3c96d432	0.01841173
45	0xbda5284d	-0.080643274
46	0x3c35f73d	0.0111063095
47	0xbdd20fc1	-0.10256911
48	0x3dc5542a	0.09635194
49	0xbd29ad67	-0.041425135
50	0xbde962a5	-0.11395768
51	0x3d34b01d	0.044113267
52	0xbdce1d8e	-0.10064231
53	0xbd0c9cc1	-0.03432918
54	0xbce03a07	-0.02737142
55	0xbd918f54	-0.07107416
56	0x3b21277c	0.0024590185
57	0x3d6cd659	0.057821605
58	0x3db77701	0.08958245
59	0xbdf6cf88	-0.12051302
60	0x3d9c32c9	0.07626874
61	0xbdc53f41	-0.09631205
62	0x3d89a78a	0.06721409
63	0xbda0023e	-0.07812928
64	0x3dcae96e	0.099078044
65	0x3d5d9c49	0.054104123
66	0x3d71fdd3	0.059079956
67	0xbcd2e465	-0.025743673
68	0x3dd644a8	0.10462314
69	0xbe1ae328	-0.15125716
70	0xbd912e17	-0.07088869
71	0xbc9b60a5	-0.018966982
72	0x3e198e7d	0.14995761
73	0xbca48c7d	-0.020086521
74	0xbd28c38f	-0.041202124
75	0x3dbb45e6	0.091441914
76	0x3df55538	0.11979145
77	0x3d9b5032	0.075836554
78	0xbd8c7453	-0.068581246
79	0xbcf8de27	-0.030379368
80	0xbd80c4a4	-0.06287506
81	0xbc915c3d	-0.017744178
82	0x3d501c4f	0.050808247
83	0xbdbdbaf5	-0.09264175
84	0xbb117a80	-0.002219826
85	0xbe54569b	-0.20736162
86	0xbded30f5	-0.115816034
87	0x3d088f72	0.033339925
88	0xbc81bab4	-0.015836097
89	0x3c9428cc	0.01808586
90	0xbc34ffe6	-0.011047339
91	0x3cab44d2	0.02090684
92	0xbd14cc45	-0.03632762
93	0x3d6cdcf1	0.057827894
94	0xbd8ae0c6	-0.067811534
95	0x3d8b805c	0.06811592
96	0x3d26c680	0.040716648
97	0xbdeb85dd	-0.11500142
98	0x3d1e2470	0.03860897
99	0xbd7cab28	-0.061686665
100	0xbd780842	-0.06055475
101	0xbd8e0773	-0.069350146
102	0xbd1c8b32	-0.038218684
103	0xbe1327cc	-0.1437065
104	0xbd8a5734	-0.06754914
105	0xbdfd79cc	-0.123767465
106	0xbd97cf6c	-0.074126095
107	0xbe2dde19	-0.16979255
108	0xbdb441d9	-0.08801622
109	0xbdc8535d	-0.09781525
110	0x3d861188	0.065463126
111	0x3d14ef90	0.036361277
112	0x3d9ea52c	0.07746348
113	0xbb5e6bd5	-0.0033938785
114	0xbcb297af	-0.021800844
115	0xbd2982b3	-0.04138441
116	0x3de95914	0.113939434
117	0xbcd41933	-0.025890922
118	0x3c329e7b	0.0109020425
119	0xbda0fc64	-0.0786064
120	0xbd988570	-0.07447326
121	0xbda05243	-0.0782819
122	0xbd8535e8	-0.065044224
123	0xbd9725d4	-0.07380262
124	0xbd19564a	-0.037435807
125	0xbd523287	-0.051317718
126	0xbe26ef73	-0.1630228
127	0xbe316fce	-0.17327806
128	0xbd15c769	-0.036567125
129	0xbe0007fa	-0.12503043
130	0x3d4773b0	0.048694313
131	0x3d3b95c8	0.04579714
132	0x3d82acd7	0.06380623
133	0xbd489fc2	-0.048980482
134	0xbe0e4d1c	-0.13896602
135	0x3caef65c	0.021357708
136	0xbdd63dea	-0.10461028
137	0xbca8489f	-0.020542441
138	0x3c19a5b7	0.009377888
139	0x3d616057	0.055023517
140	0xbca7f229	-0.020501213
141	0x3d1fd909	0.03902534
142	0x3d25354c	0.04033403
143	0x3c88de11	0.016707452
144	0x3d8566c7	0.06513744
145	0x3d88a733	0.06672516
146	0xbd247c91	-0.04015786
147	0x3d38fc16	0.045162283
148	0xbda82390	-0.08209908
149	0xbbe5147e	-0.0069909682
150	0xbd933880	-0.07188511
151	0x3d65001c	0.055908307
152	0x3d06c7b6	0.032905303
153	0xbd872a7e	-0.065999016
154	0xbdbda0ea	-0.092592075
155	0xbdc16007	-0.09442144
156	0x3bec3200	0.007208109
157	0xbe103826	-0.14083919
158	0xbdd302aa	-0.103032425
159	0xbdbac476	-0.09119503
160	0x3d501a7f	0.05080652
161	0xbd6af45f	-0.057361957
162	0x3dd6b635	0.10483972
163	0xbde542f8	-0.11194414
164	0x3e11bbe5	0.14231832
165	0x3ca419aa	0.020031769
166	0x3dddbda6	0.10827188
167	0xbd4e6d89	-0.05039743
168	0xbddd818c	-0.10815725
169	0xbc77d86b	-0.015127282
170	0xbb2807ad	-0.002563934
171	0x3d747706	0.059683822
172	0xbd470172	-0.048585363
173	0xbd6a2532	-0.05716438
174	0x3c2a35b1	0.010388778
175	0x3d769ead	0.06020992
176	0x3c484e9e	0.012225775
177	0x3bb81e7c	0.0056188684
178	0x3df0ff9d	0.11767504
179	0x3cab80f0	0.020935506
180	0xbdaa9498	-0.08329123
181	0x3c8b6c2f	0.01701936
182	0x3c6e3289	0.014538416
183	0x3ca81de4	0.020522065
184	0x3d7dcb07	0.0619612
185	0x3b4eaf8a	0.0031537735
186	0xbc987775	-0.018611649
187	0x3cf7be5d	0.03024214
188	0xbdef22eb	-0.11676582
189	0xbd1adfeb	-0.0378112
190	0xbcbe40ef	-0.023224322
191	0xbdac521c	-0.084140986
192	0x3d9d47bf	0.076797
193	0xbd95c7e9	-0.073135205
194	0x3dfae224	0.12250164
195	0x3ce6cc7b	0.028173676
196	0xbd239c19	-0.03994379
197	0x3d6d3957	0.05791601
198	0xbc5d6bae	-0.013514442
199	0xbc31f05b	-0.010860528
200	0x3bc1da65	0.0059159272
201	0x3db4d7e7	0.088302426
202	0x3d6482ef	0.05578893
203	0xba1b9e7f	-0.00059363985
204	0xbbdc476d	-0.006722382
205	0xbd97958e	-0.07401572
206	0xbd9440da	-0.07238932
207	0xbcb4683f	-0.022022365
208	0xbc5c872d	-0.013459963
209	0x3ddf92ea	0.109166935
210	0xbdd62286	-0.104558036
211	0x3cd8936c	0.026437484
212	0x3cffb819	0.031215714
213	0xbdd6bf14	-0.10485664
214	0xbc01f87c	-0.007932778
215	0xbdaadf16	-0.083433315
216	0x3d833f58	0.06408566
217	0x3ca1f07c	0.019767992
218	0xbcd2eb14	-0.02574686
219	0xbd7f8ef8	-0.062392205
220	0x3de4db79	0.111746736
221	0x3d8fab9d	0.070151545
222	0x3d93ce6f	0.072171085
223	0x3d2d6eb8	0.042341918
224	0x3ddf6594	0.10908046
225	0x3cce9c9f	0.025221167
226	0x3c6faed9	0.014629089
227	0xbc937082	-0.017997984
228	0x3de3cdd8	0.11123246
229	0x3d4e22fb	0.05032633
230	0xbd930e37	-0.07180446
231	0x3d1a1635	0.037618835
232	0x3c7b7774	0.015348304
233	0xbd88861a	-0.06666203
234	0xbd590f89	-0.05299333
235	0xbd9c9dca	-0.076472834
236	0x3de25fe6	0.110534474
237	0x3d8292e8	0.063756764
238	0xbdf3b2c6	-0.11899333
239	0xbd98a86b	-0.07453998
240	0xbe03003a	-0.12793055
241	0xbcdd85ef	-0.027041404
242	0x3c97ba06	0.01852132
243	0xbd806229	-0.062687226
244	0xbd9679ac	-0.07347426
245	0x3dfc4359	0.12317533
246	0xbc96b615	-0.01839737
247	0x3d393c00	0.045223236
248	0xbc1fc810	-0.009752288
249	0x3d7a7efd	0.06115626
250	0xbe2d1d89	-0.16905798
251	0xbda3dc49	-0.080010004
252	0x3b6f98b5	0.0036559526
253	0xbddcc801	-0.10780335
254	0x3baa89c7	0.0052044126
255	0x3ccde2a5	0.025132487

bias_hh_l0 f4 [320]
0	0xbb7b8786	-0.0038380339
1	0xbd9c4cb0	-0.076318145
2	0x3deb265d	0.114819266
3	0xbd20c4f6	-0.039250337
4	0xbd8c7708	-0.06858641
5	0x3e054d3f	0.13017748
6	0x3da103d0	0.07862055
7	0x3e0d8db8	0.13823593
8	0xbd07026b	-0.03296129
9	0xbdb6166d	-0.08890996
10	0xbb9578cf	-0.0045615206
11	0x3b74715c	0.0037299013
12	0xbc9ff499	-0.019525813
13	0xbdc11c6c	-0.09429249
14	0x3df0d9be	0.11760281
15	0x3dbe2e51	0.09286178
16	0x3d8e06ca	0.06934889
17	0xbd51fdd1	-0.05126745
18	0xbda0892f	-0.07838666
19	0x3e06db4e	0.13169596
20	0x3e04d933	0.1297348
21	0x3d7baf82	0.061446674
22	0xbd5d7eb2	-0.054075904
23	0xbd70c5b4	-0.058782294
24	0xbe52afb8	-0.20574844
25	0xbd456277	-0.048189607
26	0xbb638b56	-0.0034720502
27	0x3dea74a0	0.11448026
28	0xbcc5a790	-0.024127752
29	0x3dcdf09d	0.10055659
30	0x3bf7f395	0.007566879
31	0xbc5dde54	-0.013541777
32	0xbc4d71bf	-0.012539326
33	0xbd8b0712	-0.06788458
34	0x3cca7244	0.02471269
35	0x3e2d82b8	0.16944396
36	0xbaf697a4	-0.0018813503
37	0xbccd49a0	-0.025059521
38	0x3cbffb13	0.023435151
39	0x3c0366eb	0.008020143
40	0x3d425773	0.04744668
41	0x3d4ee8fa	0.050515153
42	0xbdead2d0	-0.114659905
43	0x3d90d462	0.07071759
44	0xbd5e22fe	-0.05423259
45	0xbced8430	-0.028993696
46	0xbca0d560	-0.019632995
47	0x3da679a1	0.081286676
48	0x3da23592	0.07920374
49	0x3dc97221	0.098362215
50	0x3c9006ea	0.017581422
51	0x3c2ba1c0	0.010475576
52	0xbc9be1b5	-0.019028524
53	0x3de7c9bf	0.11317777
54	0x3dc7d118	0.09756678
55	0xbe117edb	-0.14208548
56	0x3c7d463b	0.015458639
57	0xbd79e4a3	-0.06100906
58	0xbda08df1	-0.07839573
59	0xbdcdbf3a	-0.10046239
60	0xbd29523f	-0.0413382
61	0xbd940b8a	-0.072287634
62	0x3d0a4321	0.033755425
63	0x3d21f491	0.039539877
64	0x3bc8c7f0	0.00612735
65	0xbc5ed1e6	-0.013599848
66	0x3e0b5a51	0.13608672
67	0xbd4d927c	-0.050188527
68	0x3ccd9ae8	0.02509828
69	0x3b50b463	0.00318458
70	0x3d0624f1	0.032750074
71	0x3d8e4b8e	0.06948005
72	0xbd0c7145	-0.03428771
73	0xbdd70d1d	-0.10500548
74	0xbd4a0ac0	-0.04932666
75	0x3d335f98	0.043792337
76	0xbc4e469c	-0.012590077
77	0xbe03c17e	-0.1286678
78	0x3cf00c44	0.029302724
79	0x3d66acb6	0.056317054
80	0xbd48e86f	-0.04904979
81	0xbcd52248	-0.026017323
82	0x3db0a9cd	0.08626137
83	0xbd8c0917	-0.06837671
84	0x3d6295d1	0.055318657
85	0xbd933895	-0.071885265
86	0x3d59c52f	0.053166565
87	0xbe078523	-0.13234381
88	0xbda3fbb4	-0.08006993
89	0xbddd3989	-0.108019896
90	0xbcc68fb5	-0.024238447
91	0x3d9f58f1	0.07780636
92	0x3dc51ae1	0.09624267
93	0x3d79eb3d	0.061015356
94	0xbdb1b622	-0.08677317
95	0xbcce6c67	-0.025198175
96	0x3d4aa1ae	0.049470596
97	0x3d114007	0.03546145
98	0xbd98891e	-0.07448028
99	0xbd850f7b	-0.06497093
100	0x3d25122c	0.040300533
101	0xbddc262d	-0.10749469
102	0xbdef2306	-0.11676602
103	0xbe0b5f6e	-0.13610622
104	0x3d829bc8	0.06377369
105	0x3d738484	0.05945255
106	0xbe017f23	-0.12646155
107	0xbd378d43	-0.044812452
108	0xbd76a7c3	-0.060218584
109	0xbe07766d	-0.1322877
110	0xbc6eae16	-0.0145678725
111	0xbc2b8b33	-0.010470199
112	0xbdd238a5	-0.1026471
113	0xbde3d7ad	-0.11125121
114	0xbd91a9fd	-0.07112501
115	0xbdc36311	-0.0954038
116	0xbd9895a8	-0.0745042
117	0xbdecc0e8	-0.115602314
118	0xbda10437	-0.07862132
119	0x3b596368	0.0033170823
120	0x3cba1901	0.022717
121	0xbdb7fcb6	-0.08983748
122	0x3c8aadb5	0.016928533
123	0xbd6ee899	-0.05832729
124	0xbc90d4f0	-0.017679662
125	0xbd92fc41	-0.0717702
126	0xbbae0666	-0.0053108213
127	0xbcb7463b	-0.022372356
128	0xbd14487b	-0.036201935
129	0xbe096cf3	-0.13420467
130	0xbda1b6d1	-0.078961976
131	0x3becc094	0.0072251055
132	0xbd7ac10b	-0.061219256
133	0xbc9545b9	-0.018221723
134	0x3c98ebf3	0.018667197
135	0xbe1589c9	-0.14603342
136	0x3d46f19c	0.04857026
137	0xbe217a52	-0.15769318
138	0xbcc24f4e	-0.023719456
139	0x3ad2eb1b	0.0016091795
140	0xbddda105	-0.10821728
141	0xbe07a2f0	-0.1324575
142	0x3d3519cf	0.044214066
143	0xbe06269f	-0.1310067
144	0xbe025d57	-0.12730919
145	0xbba6058d	-0.0050665797
146	0xbdfab6d7	-0.12241905
147	0xbcb451cc	-0.02201166
148	0x3ceee3fc	0.029161446
149	0x3c91a910	0.01778081
150	0x3badc76e	0.005303315
151	0xbe0baa8f	-0.13639282
152	0xbd9855e3	-0.074382566
153	0x3c3e60fb	0.011619802
154	0x3c81e002	0.015853886
155	0xbe24d3a9	-0.16096367
156	0xbcb21282	-0.02173734
157	0x3d265dfe	0.04061698
158	0xbc924f62	-0.017860118
159	0xbdfae23a	-0.122501805
160	0x3d898463	0.06714704
161	0xbca91835	-0.020641426
162	0xbbe63208	-0.007025007
163	0x3db83093	0.0899364
164	0x3e074ed6	0.13213667
165	0x3d9aa9af	0.07551896
166	0xbd03711f	-0.032090303
167	0xbdc271b2	-0.09494342
168	0xbd864223	-0.06555583
169	0x3d9657e7	0.07340985
170	0x3c635b76	0.013876786
171	0x3b504969	0.0031782037
172	0x3cf9f6c5	0.030513177
173	0xbdf48223	-0.11938884
174	0x3d75b8d0	0.059990704
175	0x3bfd0122	0.0077210823
176	0xbb03cc66	-0.0020110845
177	0xbd7c23a1	-0.061557416
178	0xbdc0095a	-0.09376784
179	0x3d9a352a	0.075296715
180	0x3dfd927a	0.12381454
181	0xbc18772b	-0.009305756
182	0x3cb4c7a5	0.022067854
183	0xbdc5b5f2	-0.09653844
184	0x3da03f22	0.07824542
185	0xbd94e4db	-0.07270213
186	0xbd4ef5db	-0.050527435
187	0x3d060a3f	0.032724615
188	0xbda1a328	-0.07892448
189	0x3dccf13a	0.10006948
190	0x3d95cacd	0.07314072
191	0xbdc0a3d8	-0.09406251
192	0x3dab3cf8	0.08361238
193	0xbca23fe0	-0.019805849
194	0x3dcfc631	0.10145224
195	0xbd5a9ea4	-0.053373948
196	0x3cf77195	0.030205527
197	0xbd48ad05	-0.04899313
198	0xbccba4fd	-0.024858946
199	0xbd8f1f76	-0.069884226
200	0x3cf77991	0.030209335
201	0xbd75e32d	-0.060031105
202	0x3c5c7f47	0.01345808
203	0x3c25b440	0.010113776
204	0x3d9d557a	0.07682319
205	0x3dc07f2a	0.093992546
206	0xbcbc6e1d	-0.023001725
207	0xbd585272	-0.052813
208	0xbda6c470	-0.08142936
209	0x3da99069	0.08279497
210	0xbbf3059e	-0.007416441
211	0xbd3e08cb	-0.046395104
212	0xbcee252a	-0.029070456
213	0xbe03bb50	-0.12864423
214	0xbd057620	-0.032583356
215	0x3c03975b	0.008031691
216	0x3db03363	0.08603551
217	0xbc357bd8	-0.01107689
218	0x3dcd89be	0.10036038
219	0xbdbd016d	-0.092287876
220	0x3d8a9d8f	0.06768333
221	0xbdc0a290	-0.09406006
222	0x3e061906	0.13095483
223	0x3c28971a	0.010289932
224	0x3de07760	0.10960269
225	0x3c10f24c	0.008846831
226	0x3dc7f43c	0.09763381
227	0x3d8dedb4	0.06930104
228	0x3d92f268	0.071751416
229	0x3c82cf67	0.015968038
230	0xbd73a7c3	-0.059486162
231	0x3da13d30	0.07872999
232	0x3c5e12d4	0.013554294
233	0x3d2dbde9	0.04241744
234	0xbd2f69b5	-0.04282542
235	0xbd980b49	-0.074240275
236	0x3d951322	0.0727904
237	0x3dc3ece1	0.095666654
238	0xbba8217c	-0.005130945
239	0xbc8c08ed	-0.0170941
240	0x3d7ef9a0	0.06224978
241	0xbe09adfa	-0.13445273
242	0xbb79d7b9	-0.0038122965
243	0xbda64839	-0.08119244
244	0xbc9394ae	-0.018015232
245	0x3de2c018	0.11071795
246	0xbd9344a6	-0.07190828
247	0x3d56e925	0.052468438
248	0x3d5479e2	0.05187405
249	0xbc9f70d5	-0.019462982
250	0xbe0362e1	-0.12830688
251	0xbd876c97	-0.06612509
252	0xbe0ce5df	-0.13759564
253	0xbdd39a32	-0.10332145
254	0x3dcf0d45	0.10109953
255	0xbd8abb0d	-0.06773958

weight f4 [1, 80]
0	0xba54b0df	-0.0008113514
1	0xbd43f57c	-0.047841534
2	0xbd855376	-0.065100595
3	0x3d74582c	0.0596544
4	0xbdc82fdf	-0.09774756
5	0xbd5bccec	-0.053662226
6	0xbe0a3660	-0.13497305
7	0x3d89bd5e	0.06725572
8	0x3d8ca885	0.0686808
9	0x3d58eaa7	0.052958157
10	0xbd27c334	-0.040957645
11	0xbdaf0d4b	-0.08547457
12	0xbcf834c3	-0.030298596
13	0x3c9f242f	0.019426433
14	0x3d71674d	0.058936406
15	0xbe05526f	-0.13019727
16	0x3d7c444d	0.061588574
17	0xbdb016a1	-0.08598066
18	0xbdcbdce9	-0.09954245
19	0x3d82ed83	0.06392958
20	0xbe0fe0b6	-0.14050564
21	0x3e0188a5	0.12649782
22	0x3dc44144	0.09582761
23	0xbbeea306	-0.0072826175
24	0xbcf5cf82	-0.030006174
25	0x3e094898	0.13406599
26	0xbe006119	-0.1253704
27	0x3d1befd9	0.038070533
28	0xbdc78592	-0.097422734
29	0x3daefc14	0.08544174
30	0xbd756b17	-0.059916582
31	0x3d7ae597	0.06125411
32	0xbdfa892d	-0.122331955
33	0x3de9768a	0.11399563
34	0x3cf419e2	0.029797498
35	0x3d443f9b	0.04791222
36	0xbd8a56ed	-0.06754861
37	0xbd5923ad	-0.05301254
38	0x3b98ff60	0.004669115
39	0x3da16500	0.07880592
40	0xbd115bef	-0.035488065
41	0x3d6d58be	0.05794596
42	0x3d88d760	0.066817045
43	0xbd0aa996	-0.033853136
44	0xbd670764	-0.056403533
45	0xbcaec0e0	-0.021332204
46	0xbad25da6	-0.0016049638
47	0xbc421a89	-0.011847147
48	0x3da8fe09	0.08251578
49	0xbd0d91f5	-0.034563024
50	0x3d669f83	0.056304466
51	0x3bdc6bdf	0.0067267264
52	0xbc56ab79	-0.013102406
53	0x3d79e9c2	0.061013944
54	0x3e19c31e	0.15015838
55	0xbcf31672	-0.029673789
56	0x3d819c0b	0.06328591
57	0xbd1a9a72	-0.037744947
58	0xbdb3a19d	-0.0877106
59	0xbd24269f	-0.040075894
60	0xbdd5245a	-0.10407324
61	0xbc3c413f	-0.011490165
62	0xbde05493	-0.10953631
63	0x3d95a093	0.07306018
64	0x3cba9eb0	0.022780746
65	0x3deb7874	0.11497584
66	0xbdcc9657	-0.099896125
67	0xbd855cd9	-0.0651185
68	0xbdc91b03	-0.09819605
69	0xbd4b136c	-0.04957907
70	0x3e03fa44	0.12888438
71	0xbda54848	-0.08070427
72	0xbc0de488	-0.008660443
73	0xbd1488a7	-0.036263134
74	0xbd9bcfab	-0.07607969
75	0xbda707ed	-0.081558086
76	0xbe080f33	-0.13287048
77	0xba4c2f08	-0.00077889906
78	0x3d5c54b8	0.05379173
79	0x3dca91d7	0.09891098
