model/3416.388590309949_weight.pth (torch, 90447 bytes, 7 tensors)

weight f4 [16, 32, 1]
0	0xbe7e7f97	-0.24853359
1	0xbd7ddcc5	-0.06197812
2	0xbe8b4c37	-0.27206585
3	0x3db8b2d0	0.09018481
4	0xbda748f9	-0.08168215
5	0x3cb949d4	0.022618212
6	0x3d348ecd	0.044081498
7	0xbca49a31	-0.020093055
8	0xbdb056e9	-0.08610327
9	0x3d9ab9fb	0.07555004
10	0xbdf79baf	-0.12090241
11	0xbdc589b1	-0.09645403
12	0x3c94900c	0.018135093
13	0x3cf63919	0.030056523
14	0xbe6068b7	-0.21914946
15	0x3dbdcee3	0.09267976
16	0x3d2ededf	0.042693015
17	0x3d3c49b1	0.045968715
18	0x3c41545c	0.011799898
19	0xbe1ad3d5	-0.1511987
20	0xbdf639a1	-0.120227106
21	0x3cb41d78	0.021986708
22	0xbe311963	-0.1729484
23	0x3e29609d	0.16540761
24	0x3c51bcae	0.012801332
25	0x3dff4be8	0.1246565
26	0x3c9c9f92	0.019119058
27	0xbd631d43	-0.055447828
28	0xbe10a72c	-0.14126271
29	0xbd0a8014	-0.03381355
30	0xbcb857e6	-0.02250285
31	0xbdb9eebf	-0.0907874
32	0xbd5012fa	-0.050799347
33	0xbe7c958d	-0.24666424
34	0xbcf0ed8a	-0.029410142
35	0xbd9963ee	-0.07489763
36	0xbe099392	-0.134352
37	0x3e0fc954	0.14041644
38	0x3dda31c0	0.1065402
39	0xbcf43cff	-0.029814241
40	0xbe0f4342	-0.139905
41	0xbdf45942	-0.11931087
42	0xbca973ab	-0.020685038
43	0xbde90606	-0.11378102
44	0x3e06eb05	0.1317559
45	0x3d444602	0.047918327
46	0x3d9a7063	0.07540967
47	0x3ce5e0a7	0.028061224
48	0xbe029465	-0.1275192
49	0x3cd69f7e	0.026199099
50	0x3d47bd82	0.048764713
51	0x3bb9e34a	0.005672847
52	0x3dc8dd0a	0.09807785
53	0x3d2e3f1d	0.04254066
54	0xbe3129ff	-0.17301176
55	0xbe1b907d	-0.15191837
56	0x3e18d548	0.1492511
57	0xbdd72598	-0.10505217
58	0x3da197a1	0.07890249
59	0xbe11efac	-0.14251584
60	0x3e3d0f3f	0.18462847
61	0x3dbbcab6	0.091695234
62	0xbd96bf1e	-0.073606715
63	0x3d61ed1a	0.05515776
64	0x3e06a8fd	0.13150401
65	0x3e80f8d1	0.25189832
66	0x3db1b326	0.08676748
67	0xbd03e9e5	-0.03220548
68	0x3d9e47c8	0.07728535
69	0x3e08ae5f	0.13347767
70	0x3df9bc1e	0.12194084
71	0xbd5e7b5a	-0.054316856
72	0x3ce9c96a	0.028538425
73	0xbdc2c9c4	-0.0951114
74	0xbc9fcb57	-0.01950614
75	0xbd9c41b2	-0.07629718
76	0xbe152440	-0.1456461
77	0xbe287c63	-0.164537
78	0xbd6c89a7	-0.057748463
79	0x3d55e8c2	0.05222393
80	0x3bba5f1f	0.005687609
81	0xbd3654da	-0.044514515
82	0xbc8fe2c5	-0.017564187
83	0x3e17a4db	0.14808981
84	0x3dcffc2d	0.101555206
85	0xbe275945	-0.16342647
86	0xbdbfa3ee	-0.09357439
87	0xbc0d92fa	-0.008640999
88	0xbd3157ac	-0.0432965
89	0xbd887e6f	-0.0666474
90	0xbc65c979	-0.014025086
91	0x3c59178c	0.013250243
92	0xbd6ed04f	-0.058304127
93	0x3b15de2c	0.002286802
94	0xbdc3c0b0	-0.095582366
95	0x3ce38808	0.027774826
96	0xbe1f1522	-0.15535405
97	0xbe34a550	-0.17641187
98	0xbe8234ff	-0.25431058
99	0xbd729e38	-0.05923292
100	0xbdff1f81	-0.12457181
101	0xbd9af442	-0.0756612
102	0xbd81e573	-0.06342592
103	0xbd69c587	-0.057073142
104	0x3e0a7693	0.13521795
105	0xbe2a7a1e	-0.16648147
106	0x3d8ef669	0.06980593
107	0xbc81bbcb	-0.015836617
108	0x3e1e7de1	0.15477706
109	0x3e00e8b9	0.12588777
110	0xbe3945f3	-0.1809309
111	0x3cb1fea4	0.021727867
112	0x3cf0a376	0.02937482
113	0x3db18105	0.08667187
114	0x3d411703	0.047141086
115	0x3cdc14ba	0.026865352
116	0xbd912fda	-0.07089205
117	0x3df74a9f	0.1207478
118	0x3d861f6c	0.06548962
119	0x3c2c8b52	0.010531263
120	0x3c792012	0.0152054
121	0xbc028339	-0.007965856
122	0x3e0f6225	0.14002283
123	0x3e163176	0.14667305
124	0x3e3d25f8	0.18471515
125	0x3d488ddb	0.04896341
126	0xbddcf367	-0.10788613
127	0xbdf98fce	-0.12185632
128	0x3e17d118	0.14825857
129	0xbe0a802d	-0.13525458
130	0xbdfb2dc3	-0.12264588
131	0xbc809275	-0.015694836
132	0x3dab0a27	0.08351546
133	0x3d5722ee	0.052523546
134	0x3db3a16e	0.08771025
135	0x3e072fd0	0.13201833
136	0x3dbc8152	0.092043534
137	0x3d106b46	0.035258554
138	0xbcfdf6e3	-0.031001514
139	0x3e2263d7	0.15858398
140	0xbda28bf0	-0.07936847
141	0x3d438264	0.047731772
142	0xbd7a76e7	-0.06114855
143	0xbe0f1051	-0.13971068
144	0x3dd6e097	0.10492056
145	0xbe05544e	-0.13020441
146	0xbd956c1f	-0.07296013
147	0x3e1abdee	0.15111515
148	0x3e452f7a	0.19256392
149	0x3da37dbe	0.07982968
150	0x3e0a5581	0.1350918
151	0x3d8c9e7a	0.068661645
152	0x3dcdaea4	0.10043076
153	0x3c27791c	0.010221746
154	0x3dddb3ed	0.10825334
155	0x3d04fdd1	0.03246862
156	0xbe263d33	-0.16234283
157	0xbe71dbc6	-0.23618993
158	0xbd2e7192	-0.042588778
159	0x3d891fec	0.06695542
160	0xbc850144	-0.016235955
161	0xbe88f8f3	-0.26752433
162	0xbe1d01fe	-0.15332791
163	0x3e3ca018	0.18420446
164	0xbe321c2a	-0.17393556
165	0x3d22ac94	0.039715365
166	0x3e0eb34b	0.13935582
167	0x3e1c89d4	0.15286952
168	0xbc665cfb	-0.014060254
169	0xbdaed6ff	-0.08537101
170	0x3e008a91	0.12552859
171	0x3e13c88a	0.14431968
172	0x3de581c2	0.1120639
173	0xbdef79c8	-0.1169315
174	0x3e36c046	0.17846784
175	0xbe0946c0	-0.13405895
176	0xbc9017fd	-0.017589564
177	0xbd46d7af	-0.048545536
178	0x3dba293f	0.09089898
179	0x3dea851c	0.1145117
180	0xbded4e14	-0.11587158
181	0x3b0cb433	0.0021469712
182	0xbd89f952	-0.06737007
183	0xbdac9c82	-0.08428289
184	0x3c8fa006	0.01753236
185	0xbde0a0b3	-0.10968151
186	0x3c540d94	0.01294269
187	0x3db26e88	0.087124884
188	0x3e546d7d	0.20744891
189	0xbd422d97	-0.04740676
190	0x3dd1aaf6	0.10237686
191	0xbe018f94	-0.12652427
192	0xbe3d763c	-0.18502134
193	0xbd451edd	-0.048125137
194	0xbd2d4346	-0.042300485
195	0x3d60a014	0.054840162
196	0xbd698dcc	-0.057019994
197	0x3e299066	0.1655899
198	0x3e192957	0.14957176
199	0xbd589bcc	-0.052882954
200	0x3e0c2734	0.1368683
201	0x3d4cfc56	0.050045334
202	0x3ca9ce76	0.020728331
203	0x3d9ff264	0.07809904
204	0xbe37de6a	-0.17955938
205	0xbe0723e4	-0.13197285
206	0x3d11b594	0.035573557
207	0xbd85e31a	-0.06537457
208	0x3e155352	0.14582565
209	0xbd942ca2	-0.072350755
210	0xbd126dd1	-0.03574926
211	0xbe1d7d7d	-0.15379901
212	0x3e258127	0.16162549
213	0xbdd37a5c	-0.103260726
214	0x3cbc0a59	0.022954153
215	0x3db3586b	0.08757099
216	0xbe2c9484	-0.16853529
217	0x3c8a4239	0.01687728
218	0x3e069a85	0.13144882
219	0x3ccd497f	0.02505946
220	0x3d97cd91	0.074122556
221	0x3dfc7918	0.12327784
222	0x3e13b4fb	0.14424507
223	0xbd2e3afb	-0.042536717
224	0xbdd58d48	-0.10427338
225	0xbe6694a8	-0.22517645
226	0xbd3a6cbf	-0.045513865
227	0xbda733ab	-0.08164152
228	0xbe2d84e6	-0.16945228
229	0xbc953b57	-0.018216772
230	0x3dd85a5f	0.10564112
231	0x3e2a435f	0.16627263
232	0xbcf11db1	-0.029433103
233	0xbe32002a	-0.17382875
234	0x3d9a1d65	0.07525138
235	0xbe0e1e03	-0.13878636
236	0xbe45ab9d	-0.19303747
237	0xbdf18bb6	-0.11794226
238	0x3d4013dd	0.046893943
239	0x3da612ef	0.0810908
240	0x3dd42816	0.10359208
241	0xbc44fc6d	-0.012023074
242	0xbc2837d7	-0.0102672195
243	0x3b5ddef0	0.0033854805
244	0x3dde74f2	0.10862149
245	0x3e02dff8	0.1278075
246	0xbe025a16	-0.12729678
247	0x3ad8aad7	0.0016530406
248	0xbdc3cd7a	-0.09560676
249	0x3c0aab6d	0.008463723
250	0x3e168149	0.14697756
251	0xbd0e6c00	-0.034770966
252	0x3e1b1ea2	0.15148404
253	0xbdac93b1	-0.084266074
254	0xbd492daf	-0.049115833
255	0x3dfcc812	0.12342848

bias f4 [16]
0	0xbe027aec	-0.12742203
1	0x3dc90d9f	0.09817051
2	0xbd1c2bb8	-0.03812763
3	0x3d2094c6	0.03920438
4	0x3d95fec6	0.07323985
5	0x3a5157a3	0.0007985776
6	0xbda515c2	-0.080607906
7	0x3dbd170e	0.09232913
8	0xbdbbd11e	-0.09170745
9	0x3dd54d03	0.104150794
10	0x3c020226	0.007935083
11	0x3e2c6c66	0.16838226
12	0x3d4833ee	0.04887765
13	0x3e3181c1	0.17334653
14	0x3defc6d4	0.11707845
15	0x3db4f084	0.08834937

weight_ih_l0 f4 [256, 16]
0	0x3dfad1d4	0.12247053
1	0xbda01374	-0.078162104
2	0xbd6cef41	-0.057845358
3	0x3d89bbc3	0.06725266
4	0x3c28d13f	0.010303794
5	0x3db3b602	0.087749496
6	0x3caa07e3	0.020755714
7	0x3bf66d9d	0.007520391
8	0xbdb79b86	-0.089652106
9	0x3dc3ec13	0.09566512
10	0x3dd192b2	0.10233058
11	0xbcc9a7db	-0.024616173
12	0x3d375c12	0.04476554
13	0xbe01fa64	-0.12693173
14	0xbd74e85e	-0.059791915
15	0xbcc0092a	-0.02344187
16	0x3dfd1ce1	0.12359024
17	0xbd40199c	-0.046899423
18	0xbd6ce62b	-0.057836693
19	0x3c1251bd	0.008930621
20	0xbdb9604c	-0.0905157
21	0xbd788b35	-0.060679633
22	0x3dceacc7	0.100915484
23	0x3deb2bc6	0.114829585
24	0xbb800bb3	-0.0039076447
25	0xbe16b1a9	-0.1471621
26	0x3b2c60be	0.002630278
27	0x3d5aeb70	0.053447187
28	0xbc594666	-0.013261413
29	0x3d98edf1	0.07467259
30	0x3d363323	0.04448236
31	0xbd9af77e	-0.07566737
32	0x3d3dafcb	0.046310227
33	0xbcb6e220	-0.022324622
34	0x3de3b7bb	0.11119028
35	0x3d06ec96	0.03294047
36	0x3d9099b5	0.07060567
37	0xbd8a8245	-0.06763128
38	0xbd45a871	-0.04825634
39	0xbd6e2375	-0.058139283
40	0xbd9a2a62	-0.07527615
41	0x3e1478f7	0.1449927
42	0x3d7a8050	0.061157525
43	0x3d9faa91	0.07796205
44	0xbe273f2a	-0.16332689
45	0xbe497519	-0.19673575
46	0xbdb57ea7	-0.08862048
47	0xbc78be38	-0.01518207
48	0x3d60e70c	0.054907843
49	0x3dc42e11	0.09579099
50	0xbdf59011	-0.11990369
51	0x3dd40cfa	0.103540376
52	0x3e0de0ca	0.13855281
53	0x3d8fa210	0.07013333
54	0x3e10cdd3	0.14141016
55	0xbdb7a8e2	-0.08967759
56	0x3d64258b	0.055699866
57	0x3d239874	0.039940313
58	0x3d2b32db	0.041796546
59	0x3d83fbfb	0.06444546
60	0xbd9ecc82	-0.077538505
61	0xbd521964	-0.051293746
62	0x3bebb1fc	0.0071928483
63	0x3d9bb685	0.07603172
64	0x3c77f2a7	0.015133536
65	0xbdbbab55	-0.09163538
66	0xbe06ad64	-0.13152081
67	0x3d8f55d3	0.069987915
68	0x3de33f97	0.11096113
69	0xbbd60516	-0.006531368
70	0xbdbb3be9	-0.09142286
71	0xbdd02bc5	-0.101645984
72	0x3e0abf86	0.13549623
73	0xbc9cf901	-0.019161703
74	0x3dbc9754	0.09208551
75	0xbe047a61	-0.12937309
76	0x3d86e664	0.06586912
77	0xbda77cdc	-0.08178112
78	0x3d92ae67	0.07162171
79	0xbdb29375	-0.087195314
80	0xbd418394	-0.047244623
81	0x3da457d0	0.080245614
82	0xbe2c9226	-0.16852626
83	0x3e34e437	0.17665182
84	0xbd01799a	-0.03161011
85	0x3d1ed4da	0.03877721
86	0x3e002b0a	0.12516418
87	0x3da300b9	0.07959122
88	0xbcfa0a02	-0.03052235
89	0xbd28a20e	-0.041170172
90	0xbdc9c0e5	-0.09851245
91	0x3d27fb42	0.041011102
92	0x3db17678	0.08665174
93	0x3d738dcd	0.059461404
94	0x3d3b9658	0.045797676
95	0xbd64c126	-0.055848263
96	0x3e1c26c3	0.15249161
97	0x3e03902e	0.12847969
98	0xbe81c1fd	-0.25343314
99	0x3ddb88c5	0.10719446
100	0x3d98d34d	0.074621774
101	0x3d8dc9ec	0.06923279
102	0x3dcc525c	0.09976646
103	0x3bf7eb1f	0.0075658704
104	0x3e3182e1	0.17335083
105	0x3d8f067b	0.06983658
106	0x3d9ebc04	0.07750705
107	0xbdc14068	-0.09436113
108	0xbd15a2e8	-0.036532313
109	0xbd3a17b8	-0.045432776
110	0xbb80d5b6	-0.0039317263
111	0x3c1b98ba	0.009496862
112	0x3d8a0ede	0.06741117
113	0x3de2d497	0.110757045
114	0xbd6be8e9	-0.057595167
115	0x3dfbee24	0.12301281
116	0x3e035786	0.12826356
117	0x3c6651cc	0.014057588
118	0x3d96273a	0.073317006
119	0xbdde570a	-0.10856445
120	0x3e0f3e56	0.13988623
121	0xbdf71f9c	-0.12066576
122	0xbe27e52f	-0.1639602
123	0xbe0b5362	-0.13606027
124	0x3d51a5c7	0.05118349
125	0xbc2f94ef	-0.010716661
126	0x3d81f525	0.06345586
127	0x3dbe2333	0.092840575
128	0x3da9e915	0.0829641
129	0xbd9fe23a	-0.07806821
130	0xbcdd82eb	-0.027039966
131	0x3b2580d7	0.0025253796
132	0xbd7923e6	-0.06082525
133	0xbdd5a42a	-0.104317024
134	0x3d21f6fa	0.039542176
135	0xbc8d502c	-0.017250143
136	0x3e0971e3	0.1342235
137	0x3d7b7b82	0.061397083
138	0x3d9a2828	0.075271904
139	0xbe02d3f5	-0.12776168
140	0x3ca7bb6b	0.02047511
141	0x3d6c6458	0.057712883
142	0x3d5bf665	0.053701777
143	0xbc22290a	-0.00989748
144	0x3d97e246	0.07416205
145	0x3d1f2df2	0.038862176
146	0xbd8fd92e	-0.070238456
147	0x3dfbfc42	0.12303974
148	0xbdb24054	-0.08703676
149	0x3d9028e9	0.07039053
150	0x3dfcd531	0.123453505
151	0x3e126631	0.14296795
152	0x3d98189e	0.0742657
153	0x3cf3220d	0.029679323
154	0xbd6c1362	-0.057635672
155	0x3d8e312d	0.06942973
156	0x3e108d7d	0.14116473
157	0xbc1d3f05	-0.009597545
158	0x3df36533	0.118845366
159	0x3e082212	0.13294247
160	0xbd3f29bc	-0.04667066
161	0xbcea6fa6	-0.028617691
162	0xbce46280	-0.027879
163	0xbcc74feb	-0.0243301
164	0xbdffa75b	-0.124830924
165	0xbcc907cd	-0.024539853
166	0xbd61c50c	-0.05511956
167	0xbd85d9de	-0.065356955
168	0xbd840904	-0.06447032
169	0xbdd5b3df	-0.10434698
170	0xbe15038a	-0.14552131
171	0xbd8b0719	-0.06788463
172	0xbd09aedb	-0.03361402
173	0xbe18d055	-0.14923222
174	0x3d617f5c	0.0550531
175	0x3e0dab2f	0.13834833
176	0x3d44ee80	0.048079014
177	0xbdf480bd	-0.119386174
178	0xbdd4c3eb	-0.10388931
179	0xbda18b3a	-0.078878835
180	0xbb047bd2	-0.0020215404
181	0x3d072b95	0.033000547
182	0xbdb8168f	-0.08988678
183	0xbda9801e	-0.082763895
184	0x3d49e325	0.049288888
185	0xbd6584e1	-0.056034926
186	0xbdde6831	-0.10859717
187	0x3dba73f0	0.091041446
188	0x3dc46e5f	0.09591364
189	0xbacb5519	-0.0015513032
190	0x3da733ac	0.081641525
191	0x3d976c44	0.07393697
192	0x3d2ffb43	0.04296423
193	0x3cf74033	0.03018198
194	0xbcee1af3	-0.029065585
195	0x3df49377	0.11942189
196	0x3d15d7bd	0.036582697
197	0x3c245b63	0.010031554
198	0x3deed67a	0.11662002
199	0x3b48d489	0.003064426
200	0x3d18732f	0.037219223
201	0xbd91048d	-0.07080946
202	0xbe12e9de	-0.14347026
203	0x3d0b7a6a	0.03405229
204	0x3c67069b	0.014100696
205	0x3bbd974e	0.005785859
206	0x3d848b60	0.06471896
207	0xbc3868d6	-0.011255464
208	0x3e421fa3	0.18957381
209	0x3e034da6	0.1282259
210	0xbe0552d6	-0.1301988
211	0x3ca6c270	0.020356387
212	0xbd0c0ef8	-0.034193963
213	0x3db37487	0.0876246
214	0x3c2aab88	0.010416873
215	0x3e145887	0.14486896
216	0x3d4285fa	0.04749105
217	0xbd835ad6	-0.0641381
218	0x3da1b5f3	0.07896032
219	0xbdec4fdd	-0.1153867
220	0x3e367ef1	0.17821862
221	0x3d28ac5a	0.041179992
222	0xbc34824e	-0.011017395
223	0x3e226cf1	0.1586187
224	0x3cc97ce0	0.024595678
225	0xbe315571	-0.1731775
226	0xbd361abb	-0.044459086
227	0xbd956b01	-0.072958
228	0x3dea93de	0.11453985
229	0xbd1c620c	-0.038179442
230	0x3c300a75	0.010744681
231	0xbdbad962	-0.09123494
232	0xbe01b786	-0.12667665
233	0xbac6fc8f	-0.001518147
234	0x3c53a1f7	0.012917033
235	0x3dba052e	0.09083019
236	0xbc05556c	-0.008138042
237	0xbd5498bf	-0.051903483
238	0xbdc6979a	-0.096968845
239	0xbb0db7b4	-0.0021624388
240	0x3e0df590	0.13863206
241	0x3c79b586	0.0152410325
242	0xbd87b81d	-0.06626914
243	0x3d8a42ed	0.06751046
244	0x3d81b17b	0.0633268
245	0xbce7cc61	-0.028295698
246	0xbccccae3	-0.024999088
247	0x3d896de5	0.06710414
248	0x3e155f96	0.14587244
249	0x3db790ca	0.08963163
250	0xbd56dfc1	-0.052459482
251	0xbcae6d76	-0.02129243
252	0x3d9179a3	0.071032785
253	0xbd916b61	-0.07100559
254	0x3d086f45	0.03330924
255	0xbdc35e73	-0.09539499

weight_hh_l0 f4 [256, 64]
0	0x3d5f04bb	0.05444787
1	0xbdc03b6c	-0.09386334
2	0xbd61ad75	-0.055097062
3	0xbca13fc8	-0.019683734
4	0x3d311ffe	0.0432434
5	0x3c2eb25d	0.010662642
6	0x3d1694c5	0.03676297
7	0x3c9967fa	0.018726338
8	0xbd40d88a	-0.047081508
9	0xbdabd91d	-0.083910204
10	0xbd0f892a	-0.03504292
11	0x3dbd3c8c	0.09240064
12	0x3ccf55fd	0.025309557
13	0x3d49f228	0.049303204
14	0x3e0556df	0.1302142
15	0x3dac3c1e	0.08409904
16	0x3d4b6847	0.049659993
17	0x3e01b9a7	0.12668477
18	0xbdc7fbf4	-0.09764853
19	0x3d23cce5	0.039990325
20	0xbd33a2aa	-0.0438563
21	0xbc879046	-0.016548287
22	0x3d3eb1fd	0.04655646
23	0xbe1a49d4	-0.15067226
24	0x3de9e136	0.11419909
25	0x3c6b1421	0.014348061
26	0xbd528232	-0.051393695
27	0xbcc1bc85	-0.023649463
28	0x3da9805c	0.08276436
29	0x3bc4931c	0.005998982
30	0x3cefc36d	0.029267991
31	0x3c8ee3a0	0.017442524
32	0xbdf3f85a	-0.11912604
33	0xbd83f2b9	-0.0644278
34	0x3d13100a	0.035903968
35	0xbbf5e9dc	-0.007504685
36	0x3cf52ad3	0.029927647
37	0xbd1f63a0	-0.03891337
38	0x3d94b249	0.07260568
39	0x3dd9c374	0.10632983
40	0xbd1f7f14	-0.03893955
41	0xbe0065d7	-0.12538849
42	0x3d9f1fca	0.07769735
43	0xbd693e7d	-0.05694436
44	0xbc574515	-0.013139029
45	0x3d75816f	0.05993789
46	0xbdbb9b20	-0.09160447
47	0xbb884dbf	-0.0041596587
48	0xbd188334	-0.0372345
49	0x3da443c6	0.08020739
50	0x3de22c2d	0.11043582
51	0xbcd7ffee	-0.026367154
52	0x3de24747	0.11048751
53	0x3d1fa144	0.038972154
54	0x3d03db6b	0.032191675
55	0x3d5c1f48	0.05374077
56	0x3cf7906f	0.030220238
57	0xbd1b005c	-0.03784214
58	0x3e1961db	0.14978735
59	0x3a44c04b	0.00075054605
60	0xbd9fb2f4	-0.077978045
61	0x3d059494	0.0326124
62	0xbdc4bc31	-0.09606207
63	0x3de6dc97	0.11272543
64	0x3dede809	0.11616523
65	0x3c244dc8	0.01002831
66	0xbd849183	-0.06473067
67	0xbe137a97	-0.14402233
68	0xbdd51e36	-0.10406153
69	0x3d232ed3	0.039839577
70	0x3d6c5894	0.057701662
71	0xbd0017bc	-0.031272635
72	0xbddf0820	-0.108902216
73	0x3daa665f	0.08320307
74	0xbdb2e64d	-0.08735333
75	0xbb31c6bb	-0.002712651
76	0xbd77c734	-0.06049271
77	0xbd72deea	-0.05929462
78	0x3cd864f4	0.026415326
79	0xbde3e212	-0.11127104
80	0xbd921b22	-0.071340814
81	0xbd297f70	-0.0413813
82	0x3c4ef15e	0.012630789
83	0xbd8d3654	-0.06895128
84	0x3d099b87	0.033595588
85	0x3dfabd8f	0.12243187
86	0x3d0b2dcc	0.033979222
87	0xbd939855	-0.072067894
88	0xbd92cc6c	-0.07167897
89	0xbdcd9e5b	-0.100399695
90	0x3de20268	0.11035615
91	0x3dc52e61	0.09627987
92	0xbc805ed2	-0.015670214
93	0xbdf5af71	-0.119963534
94	0xbe093b23	-0.13401465
95	0xbd6c12d0	-0.05763513
96	0xbcee8eb5	-0.029120782
97	0x3dfa3d7d	0.12218759
98	0xbd278107	-0.040894534
99	0xbd9de7a1	-0.07710195
100	0xbb1dc458	-0.0024073329
101	0xbe053b9f	-0.13011025
102	0x3c51219e	0.012764363
103	0x3ddc86a6	0.1076787
104	0x3dbf1849	0.09330804
105	0x3dfcafa5	0.12338189
106	0xbdee02e5	-0.11621646
107	0x3c5d9dd1	0.013526396
108	0xbd98387f	-0.07432651
109	0xbc6df201	-0.01452303
110	0xbd134806	-0.03595736
111	0x3daa5a77	0.08318036
112	0xbda67b84	-0.081290275
113	0xbcd3295f	-0.025776563
114	0xbd5def4c	-0.05418329
115	0x3d62cbca	0.05537013
116	0x3baff612	0.00536991
117	0xbde9610f	-0.113954656
118	0xbcd492b7	-0.025948865
119	0xbcac9064	-0.021064945
120	0x3dd39377	0.10330861
121	0x3defc2ff	0.117071144
122	0xbdb95fe1	-0.090514906
123	0xbdeb78d2	-0.11497654
124	0x3cd328b2	0.025776241
125	0x3dc07d60	0.093989134
126	0xbdf457a0	-0.11930776
127	0xbdb5b1eb	-0.08871826
128	0xbc22b0c9	-0.009929844
129	0xbc834775	-0.016025284
130	0x3dc38031	0.09545935
131	0xbcf06353	-0.029344236
132	0x3d0465ca	0.032323636
133	0x3d4a8f29	0.049452934
134	0x3d7470c3	0.05967785
135	0xbde981b5	-0.11401693
136	0xbd29141a	-0.041278936
137	0xbdae79f3	-0.08519354
138	0x3d855a89	0.06511409
139	0x3d2d6464	0.042332068
140	0x3d3c825a	0.04602275
141	0x3cd20219	0.025635766
142	0xba25ec6b	-0.00063294795
143	0x3d0e9b72	0.034816213
144	0x3dd37b51	0.10326255
145	0xbcc4550c	-0.023966335
146	0x3d379c90	0.044827044
147	0x3d892800	0.066970825
148	0x3c6e8614	0.014558334
149	0xbd2c7a74	-0.042108968
150	0x3d80479e	0.0626366
151	0xbddba306	-0.10724454
152	0x3dfdbf3d	0.123899914
153	0xbc32648c	-0.01088823
154	0xbce41f0c	-0.027846836
155	0x3cbbc385	0.02292038
156	0xbd9f88e5	-0.077897824
157	0xbe21e25e	-0.15809008
158	0x3db9feec	0.090818256
159	0xbdb02dfb	-0.0860252
160	0x3d77cb7b	0.06049679
161	0xbce5ad0d	-0.028036619
162	0x3ba47a41	0.0050194566
163	0xbe0479ef	-0.12937139
164	0xbd1be064	-0.038055792
165	0xbd0a02b7	-0.033693995
166	0x3a9b4f30	0.0011849161
167	0x3aae62d2	0.0013304597
168	0xbd8348cf	-0.064103715
169	0x3d484336	0.048892222
170	0x3de3995a	0.11113234
171	0xbc073ea9	-0.008254685
172	0xbd90dd4b	-0.07073458
173	0xbcd34a2a	-0.0257922
174	0x3d3f5ef6	0.04672142
175	0xbcdc5ee9	-0.026900725
176	0x3d5a229f	0.053255673
177	0xbd7d7cdc	-0.061886653
178	0x3ddb1471	0.10697258
179	0xbc7e1bc0	-0.015509546
180	0xbcdef0da	-0.027214456
181	0x3de50122	0.11181857
182	0x3cbf7c4a	0.023374695
183	0x3dd76325	0.10516957
184	0x3d53f204	0.051744476
185	0xbdc926ed	-0.09821878
186	0x3d8d2c34	0.06893197
187	0xbd95ef20	-0.07321
188	0x3d043d53	0.032285046
189	0x3d2b90e3	0.04188622
190	0x3d49e9b7	0.049295153
191	0xbde6c324	-0.11267689
192	0xbda24937	-0.07924121
193	0xbc83af02	-0.016074661
194	0x3c1c08c7	0.009523577
195	0x3d872ca1	0.06600309
196	0x3d1d8e06	0.038465522
197	0xbd112341	-0.03543401
198	0xbe07e155	-0.13269551
199	0xbdb3d9a6	-0.087817475
200	0xbbe33df7	-0.006934877
201	0xbda8636a	-0.08222087
202	0x3dbc90f6	0.092073366
203	0xbdfe306d	-0.1241158
204	0xbb144397	-0.0022623294
205	0xbd3f2321	-0.04666436
206	0x3e0d8e8f	0.13823913
207	0xbccdb7f4	-0.02511213
208	0x3cc4e66f	0.02403566
209	0x3e066ade	0.13126704
210	0xbd4e4585	-0.050359268
211	0x3de5ad02	0.11214639
212	0x3d74c423	0.059757363
213	0x3de72e49	0.11288125
214	0x3c94b467	0.018152429
215	0xbd926415	-0.071479954
216	0xbd450539	-0.048100684
217	0x3dd9bf1d	0.10632155
218	0xbd8a1bcf	-0.06743585
219	0x3dc741a3	0.09729316
220	0x3c889e71	0.016677113
221	0x3daf2ffa	0.08554073
222	0xbad748a5	-0.0016424848
223	0xbe0fad67	-0.14030991
224	0xbcc0d035	-0.02353678
225	0x3d78e936	0.060769282
226	0x3d58f940	0.05297208
227	0xbd8fd852	-0.07023682
228	0x3c1c3c38	0.009535842
229	0xbe0cd9b6	-0.13754925
230	0x3a528ff0	0.00080323126
231	0x3d74c13c	0.059754595
232	0x3d03d114	0.032181814
233	0x3d2d41b7	0.042299
234	0xbced73f9	-0.028985964
235	0x3e004e47	0.1252986
236	0xbd411287	-0.04713681
237	0xbd32de5d	-0.043669093
238	0xbdc3777f	-0.095442764
239	0xbc46170a	-0.012090454
240	0xbd0ca769	-0.034339342
241	0xbc690438	-0.014222197
242	0x3de8c8f9	0.113664575
243	0xbde733ec	-0.112892
244	0xbd908f49	-0.070585795
245	0x3d83420c	0.06409082
246	0xbda6557c	-0.081217736
247	0xbda54fcb	-0.0807186
248	0xbc0b1f22	-0.008491309
249	0xbe061f75	-0.13097937
250	0x3d4e11ad	0.050309826
251	0x3dd3a77b	0.10334679
252	0xbda052da	-0.07828303
253	0xbe09d523	-0.13460211
254	0xbcb504d1	-0.022097023
255	0xbdb3acc8	-0.0877319

bias_ih_l0 f4 [256]
0	0x3c9b9639	0.01899253
1	0xbc646461	-0.013939948
2	0xbde0cc40	-0.109764576
3	0x3c57b993	0.013166803
4	0xbdfff481	-0.12497807
5	0x3dd59e9f	0.10430645
6	0x3d871715	0.065961994
7	0x39eed435	0.00045553004
8	0xbd95c574	-0.07313052
9	0xbd59276d	-0.053016115
10	0x3ab3b97f	0.0013711898
11	0xbdafa828	-0.08576995
12	0x3ddd1607	0.10795217
13	0x3de8f3c6	0.11374621
14	0xbde0bee3	-0.10973909
15	0xbc57be21	-0.013167889
16	0xbd1f5686	-0.038900875
17	0x3d92c375	0.07166187
18	0xbc11a682	-0.008889796
19	0x3d8cbcda	0.06871958
20	0x3d59d723	0.053183686
21	0xbd89f24c	-0.067356676
22	0xbd7f4e34	-0.06233044
23	0x3e08e85e	0.13369891
24	0xbd7cb707	-0.061697986
25	0x3ccc93e5	0.024972865
26	0xbc39a573	-0.01133095
27	0xbd46678a	-0.048438586
28	0xbd8871eb	-0.06662353
29	0x3de9dc0f	0.11418926
30	0x3d86c60e	0.06580745
31	0x3d90ec55	0.07076327
32	0x3dad14fb	0.08451267
33	0xbcf5d424	-0.030008383
34	0xbd6f3a61	-0.058405284
35	0x3de1782a	0.110092476
36	0x3d7b77d3	0.06139357
37	0x3d757cce	0.059933476
38	0xbd95988f	-0.07304489
39	0x3dbfa478	0.09357542
40	0x3e189957	0.14902245
41	0x3dff9ad0	0.124807
42	0x3cbd329c	0.023095421
43	0x3d33a679	0.043859933
44	0x3e00a7bc	0.12563986
45	0xbd8192be	-0.06326817
46	0x3dbd8682	0.09254171
47	0x3dffcea1	0.12490583
48	0xbc651958	-0.013983093
49	0x3df94726	0.121717736
50	0xbc8ef5ce	-0.017451193
51	0x3c27988a	0.010229239
52	0x3d82b143	0.06381466
53	0xbdb689aa	-0.08912976
54	0xbd9b4fb3	-0.07583561
55	0x3d9b4569	0.07581598
56	0x3e072676	0.13198265
57	0xbc96db75	-0.018415192
58	0xbd96378c	-0.073348135
59	0xbd2a5b04	-0.041590706
60	0x3e0dd099	0.13849105
61	0xbdb1ed97	-0.08687895
62	0x3d833d0f	0.064081304
63	0x3e186b99	0.14884795
64	0x3d631939	0.055443976
65	0xbdd52cde	-0.10408948
66	0x3c07d412	0.008290308
67	0xbe0f0ebc	-0.13970464
68	0x3d4363ef	0.047702726
69	0xbd953af9	-0.07286639
70	0x3d64989d	0.055809606
71	0xbd7fbedd	-0.06243788
72	0xbd0e5fd9	-0.034759376
73	0xbda1d833	-0.07902565
74	0x3d2d86df	0.04236495
75	0xbe06b45e	-0.13154742
76	0x3dbdf275	0.09274761
77	0xbdf06af7	-0.11739152
78	0xbbfdaf92	-0.007741877
79	0xbd1da235	-0.03848477
80	0xbe38f419	-0.18061866
81	0x3cc0fae2	0.02355713
82	0xbb85bb80	-0.0040811896
83	0x3d41f479	0.047352288
84	0x3bcc945b	0.0062432713
85	0x3c3ce389	0.011528858
86	0xbe0e5b40	-0.13901997
87	0x3d2af476	0.041737042
88	0x3c936927	0.017994476
89	0xbdeb71e0	-0.11496329
90	0xbd82ba37	-0.06383174
91	0x3d9dc8b3	0.07704296
92	0xbd9657f2	-0.07340993
93	0xbdd6012a	-0.10449441
94	0x3c4c2c96	0.012461802
95	0xbdfadc86	-0.12249093
96	0x3d90f99f	0.070788614
97	0xbe33cc22	-0.17558339
98	0x3d76c2ca	0.06024436
99	0xbe40ce8e	-0.18828794
100	0xbdf9f7e4	-0.122054845
101	0x3cda9eaa	0.026686985
102	0xbdf43246	-0.119236514
103	0xbba0a562	-0.0049025277
104	0xbe574135	-0.21020968
105	0xbdcf2a78	-0.10115522
106	0x3c7f8209	0.015594968
107	0xbd48f3c8	-0.049060613
108	0x3d32d114	0.043656424
109	0x3d9c6e85	0.076382674
110	0xbdcbb7b1	-0.09947146
111	0xbdfc9e43	-0.123348735
112	0x3d5073c1	0.05089164
113	0x3c1beeaa	0.009517351
114	0xbd803952	-0.06260933
115	0x3da85f06	0.08221249
116	0xbc0ee170	-0.008720741
117	0x3d62be7f	0.055357452
118	0x3d8746c3	0.066052936
119	0x3d8e6424	0.06952694
120	0x3c8fb836	0.017543893
121	0xbdfa4c75	-0.12221614
122	0x3d75ab17	0.059977617
123	0xbd662e4a	-0.05619649
124	0xbdd047f8	-0.10169977
125	0x3b98e984	0.004666509
126	0xbe017fcb	-0.12646405
127	0xbe0f64af	-0.14003251
128	0x3bbc066b	0.00573807
129	0x3da073d7	0.07834595
130	0x3c8bd95f	0.017071424
131	0x3d486c6f	0.048931535
132	0xbd19769a	-0.037466623
133	0xbd9164f1	-0.07099331
134	0x3b967368	0.004591394
135	0xbdc25c96	-0.094903156
136	0x3d2f9657	0.042867985
137	0x3d5421b8	0.05178997
138	0xbd4a53af	-0.049396213
139	0x3d892999	0.06697387
140	0xbe144d8c	-0.14482707
141	0x3bd14c7a	0.0063872905
142	0x3db01b5f	0.085989706
143	0x3d718910	0.058968604
144	0xbdfb98e5	-0.12285022
145	0x3d882594	0.066477925
146	0xbca5cbf1	-0.020238848
147	0x3c9199c9	0.017773526
148	0x3d01ecd6	0.031720005
149	0x3d17b797	0.03704032
150	0x3e1df6d1	0.15426184
151	0xbd1e9b8c	-0.03872256
152	0xbda2e7ec	-0.07954392
153	0xbdd9382d	-0.10606418
154	0x3de1bedd	0.110227324
155	0xbdafddc5	-0.08587221
156	0xbc279d6f	-0.010230406
157	0x3db8b6b9	0.090192266
158	0x3df93e45	0.1217008
159	0x3e0e99ff	0.13925932
160	0x3cb5859b	0.022158435
161	0xbd89ab75	-0.06722156
162	0xbd9ca473	-0.07648554
163	0xbd8c0615	-0.068370976
164	0x3af76003	0.0018873218
165	0x3d2fe759	0.04294524
166	0xbda0b789	-0.078475066
167	0xbd38a624	-0.04508032
168	0x3d8869fd	0.06660841
169	0xbd43a874	-0.04776807
170	0xbd677b8e	-0.056514315
171	0x3bf33bf3	0.007422918
172	0x3d4979c3	0.049188387
173	0x3d402add	0.046915878
174	0x3c38b74a	0.011274168
175	0x3c12002c	0.008911174
176	0xbdda966e	-0.106732234
177	0xbc4b03bf	-0.01239103
178	0xbd22cdd5	-0.039747078
179	0x3de7798f	0.11302482
180	0x3cff2e1a	0.031149913
181	0x3d9449fe	0.072406754
182	0x3d80c27e	0.062870964
183	0x3d14d644	0.036337152
184	0xbe131414	-0.14363128
185	0x3de42bf5	0.11141197
186	0x3da8be60	0.08239436
187	0xbdc1d358	-0.09464139
188	0x3dd3c192	0.10339655
189	0xbd85cc6f	-0.06533133
190	0x3d0e160f	0.034689005
191	0x3d706c2d	0.058696914
192	0xbd9ad0e1	-0.07559372
193	0xbbe2462e	-0.0069053387
194	0x3d5ec28a	0.054384746
195	0x3d4da5b8	0.05020687
196	0xbc9efc17	-0.019407315
197	0x3e08d84a	0.13363758
198	0x3cdeefe7	0.027214004
199	0xbd2bccf6	-0.041943513
200	0xbd81770e	-0.06321536
201	0xbd491f8e	-0.04910236
202	0x3d4f2d43	0.050580274
203	0xbdfcea91	-0.123494275
204	0xbd9ec700	-0.077528
205	0x3d7c0ae4	0.061533824
206	0xbc44557c	-0.011983272
207	0xbd399162	-0.045304663
208	0xbd05ea73	-0.03269429
209	0x3daf0c72	0.08547296
210	0x3db4296e	0.087969646
211	0xbd5b0c05	-0.05347826
212	0xbd9b3d55	-0.075800575
213	0x3c64d036	0.013965657
214	0x3df78e7a	0.12087722
215	0x3d852617	0.06501406
216	0xbd1c9171	-0.03822464
217	0x3dcf1c7c	0.10112855
218	0xbc1589b1	-0.0091270665
219	0xbd5b2373	-0.053500604
220	0xbd8f3df7	-0.06994241
221	0xbd7358fa	-0.059411027
222	0x3d1818d0	0.037133038
223	0x3dcf946c	0.10135731
224	0x3d4b7c0f	0.04967886
225	0x3d0f5f87	0.03500321
226	0x3d3fc583	0.04681922
227	0xbbf48719	-0.007462394
228	0xbc3e7acd	-0.011625958
229	0xbc8c8453	-0.01715294
230	0xbd7026eb	-0.058630865
231	0xbd299f61	-0.04141176
232	0x3d954a34	0.07289544
233	0xbc898a6b	-0.016789636
234	0xbccdad65	-0.025107095
235	0x3c1b389b	0.009473945
236	0xbdfc923e	-0.12332581
237	0xbc4e64c4	-0.012597267
238	0x3ce9b92d	0.028530682
239	0x3be1b27a	0.006887731
240	0xbc979cc5	-0.01850737
241	0xbba3db97	-0.0050005424
242	0xbdcea9cb	-0.10090979
243	0x3e023d8d	0.12718792
244	0xbd88bb46	-0.066763446
245	0xbde73df6	-0.11291115
246	0xbdb22cad	-0.086999275
247	0xbd1a3242	-0.037645586
248	0xbca4bfed	-0.020111049
249	0x3c470770	0.012147769
250	0x3c13848f	0.009003772
251	0xbe17a3ae	-0.14808533
252	0x3ddef6b3	0.10886898
253	0x3d6b4aec	0.057444498
254	0x3aa0971a	0.0012252063
255	0xbd8145c2	-0.06312133

bias_hh_l0 f4 [256]
0	0xbd04a663	-0.03238524
1	0x3de44144	0.11145261
2	0xbc713f05	-0.014724498
3	0xbde7fcbc	-0.11327502
4	0x3bc72bc5	0.006078216
5	0x3e097365	0.13422926
6	0x3b326481	0.002722055
7	0xbda90f9e	-0.08254932
8	0xbbbf6936	-0.0058413995
9	0x3d820949	0.06349427
10	0x3d1182ca	0.03552512
11	0xbcea9afd	-0.028638357
12	0x3cb26bc2	0.021779899
13	0xbc812f1d	-0.015769536
14	0x3c3b36ee	0.0114266705
15	0x3dd58393	0.104254864
16	0xbd373ce3	-0.0447358
17	0x3cb4e3c0	0.022081256
18	0x3d0b955c	0.034077987
19	0x3c957f03	0.01824904
20	0x3d72aaeb	0.05924503
21	0x3b916fe8	0.004438389
22	0x3dc282fc	0.094976395
23	0xbdc3692e	-0.09541546
24	0x3d48b4a9	0.049000416
25	0x3d78c0ee	0.060730867
26	0xbc6226f9	-0.013803237
27	0xbc82f4bf	-0.015985845
28	0xbd76699b	-0.060159307
29	0x3d9d36b5	0.0767645
30	0xbdb186ad	-0.086682655
31	0x3d7c92fc	0.061663613
32	0xbc819c31	-0.015821548
33	0x3cac22ba	0.021012653
34	0xbd29b088	-0.04142812
35	0x3ca07cb7	0.019590719
36	0x3de85e2f	0.11346089
37	0x3e224cb0	0.15849566
38	0x3da339e3	0.079700254
39	0xbb709af6	-0.0036713458
40	0x3cd4c239	0.025971519
41	0x3e27dc14	0.16392547
42	0xbca81147	-0.020516051
43	0x3dae9043	0.085236095
44	0xbd28e6ab	-0.041235607
45	0x3d87200b	0.065979086
46	0xbcb04a05	-0.02151967
47	0xbd7bea06	-0.06150248
48	0xbce09f8b	-0.027419826
49	0xbb029ea1	-0.0019930976
50	0x3d8d2305	0.06891445
51	0xbdc561ec	-0.09637818
52	0xbdf87e2f	-0.121334426
53	0x3baa45d3	0.005196312
54	0x3df0faf2	0.11766614
55	0x3d910c9a	0.07082482
56	0x3cbc9169	0.023018556
57	0x3c7c1422	0.015385659
58	0xbd9beba3	-0.076133035
59	0xbe0b6d6b	-0.13615958
60	0x3e011c92	0.12608555
61	0x3c158898	0.009126805
62	0xbdb7c801	-0.089736946
63	0xbd74009f	-0.059570905
64	0xbe1bebbb	-0.15226643
65	0xbd45eb06	-0.04831984
66	0x3d24f0f5	0.040268857
67	0x3c447286	0.011990195
68	0x3d0117d5	0.03151687
69	0xbd179740	-0.037009478
70	0xbda95140	-0.0826745
71	0x3daba659	0.08381338
72	0x3c7ac47c	0.015305635
73	0xbbc741f4	-0.0060808603
74	0xbdd232ab	-0.102635704
75	0xbd716705	-0.058936138
76	0x3bdf2ecd	0.006810999
77	0xbdfd14f4	-0.12357512
78	0xbdf9f8e3	-0.122056745
79	0xbd23220d	-0.039827395
80	0xbd7740a1	-0.06036437
81	0x3d0630bc	0.03276132
82	0x3d878526	0.06617193
83	0x3a50f4e0	0.00079710595
84	0x3b75b280	0.0037490427
85	0xbe1894ed	-0.1490056
86	0x3d4add10	0.049527228
87	0xbdaf22b8	-0.08551544
88	0xbd532143	-0.051545393
89	0x3c91d2d6	0.01780073
90	0x3aed8a05	0.0018122798
91	0xbdb3624c	-0.08758983
92	0xbbf3df21	-0.0074423705
93	0xbd4b4130	-0.049622715
94	0x3d3f22ea	0.046664156
95	0xbd6101ec	-0.054933473
96	0xbdf91756	-0.12162654
97	0x3d4eff8e	0.050536685
98	0xbda681dc	-0.081302375
99	0xbddebf3d	-0.108763196
100	0xbdac800d	-0.08422861
101	0xbddbace7	-0.10726338
102	0xbd6c894c	-0.057748124
103	0xbd482fb9	-0.048873637
104	0x3d006f03	0.03135587
105	0xbbe765f6	-0.0070617152
106	0xbb765414	-0.0037586736
107	0x3d9a27d4	0.07527128
108	0x3bb5ba3e	0.0055458834
109	0xbd905a77	-0.07048505
110	0x3dd379cc	0.10325965
111	0x3d799eb3	0.060942363
112	0x3db044db	0.08606883
113	0x3d83d736	0.064375326
114	0x3bcb74b4	0.0062089805
115	0xbde4b6b7	-0.111676626
116	0x3d6e7295	0.058214743
117	0xbdecb87f	-0.11558627
118	0xbe2861ad	-0.1644351
119	0xbd81edbe	-0.06344174
120	0xbe0cb7cc	-0.13741988
121	0xbda87652	-0.08225693
122	0x3bd12ddd	0.006383641
123	0x3d0c3fff	0.03424072
124	0xbd9f4655	-0.07777087
125	0x3cba8111	0.022766622
126	0xbe00af28	-0.12566817
127	0x3d02e098	0.03195247
128	0xbd809c9a	-0.062798694
129	0xbc2938a3	-0.010328445
130	0xbbf4a798	-0.007466268
131	0xbc6171b8	-0.013760023
132	0xbdee1bbb	-0.11626383
133	0x3c964a4f	0.01834598
134	0x3d874adc	0.06606075
135	0x3d777fc3	0.060424577
136	0x3d94c148	0.07263428
137	0x3d39f438	0.04539892
138	0x3c968856	0.018375557
139	0x3dd0bd41	0.10192347
140	0xbe1525ba	-0.14565173
141	0x3d9ba6b7	0.07600158
142	0x3db2ad4e	0.087244615
143	0xbb7e72d4	-0.0038825767
144	0xbd166ed7	-0.0367268
145	0xbd8d7cf8	-0.069086015
146	0xbe07c508	-0.13258755
147	0xbca54b01	-0.020177366
148	0x3de7cdec	0.11318573
149	0xbcc099aa	-0.023510773
150	0x3dc67de6	0.09691982
151	0x3d475f2d	0.04867475
152	0xbd2c0c43	-0.04200388
153	0x3d84421d	0.064579226
154	0xbd3475c4	-0.044057623
155	0xbd9b6db9	-0.07589287
156	0x3d84b176	0.064791605
157	0xbc9fd15f	-0.019509016
158	0xbdbc1136	-0.0918297
159	0x3e1e4db3	0.15459327
160	0x3db0d659	0.086346336
161	0xbd7fed75	-0.062482316
162	0xbd879ee1	-0.066221006
163	0xbdc79ccf	-0.09746706
164	0x3baf6575	0.005352671
165	0x3df0b8a3	0.11753967
166	0xbd94fa85	-0.07274345
167	0xbe08e8a4	-0.13369995
168	0xbd86c8c9	-0.065812655
169	0x3df64559	0.12024946
170	0x3bc8e3e0	0.0061306804
171	0xbdc330d7	-0.095308
172	0xbd4c98b9	-0.049950335
173	0x3caf6a85	0.021413097
174	0xbc03b23f	-0.008038103
175	0x3d11cd95	0.03559645
176	0xbc4c752d	-0.012479109
177	0xbc70f557	-0.014706931
178	0x3daf85c5	0.085704364
179	0xbd37f503	-0.044911396
180	0xbddc26c8	-0.107495844
181	0x3c90d280	0.0176785
182	0xbce14cb0	-0.027502388
183	0x3cdb21b1	0.026749464
184	0xbdf6bd30	-0.120478034
185	0xbd939e5b	-0.07207938
186	0xbc7831b6	-0.015148571
187	0x3d578b34	0.05262299
188	0x3df511a2	0.11966254
189	0x3d8fc03f	0.0701909
190	0x3d0fc461	0.03509939
191	0x3d2951b3	0.04133768
192	0xbda805c2	-0.08204223
193	0x3d2a1ee2	0.04153336
194	0xbe2cb1aa	-0.16864648
195	0x3daa61ee	0.0831946
196	0xbd67e2e2	-0.056612857
197	0x3d95b1c7	0.07309299
198	0xbd453da8	-0.048154503
199	0xbda88cce	-0.08229981
200	0x3dd43ddf	0.103633635
201	0x3dfcd07c	0.12344453
202	0xbc86a30b	-0.016435167
203	0x3da8b78b	0.08238133
204	0x3c49d96a	0.012319902
205	0x3e0cddc6	0.13756475
206	0xbc4755b3	-0.012166428
207	0xbdad0ef4	-0.08450118
208	0xbdf3e3ad	-0.1190866
209	0xbda06947	-0.0783258
210	0x3e035c76	0.1282824
211	0x3c90899d	0.017643744
212	0xbc6a2552	-0.014291124
213	0x3cce4e1a	0.025183726
214	0xbdd04a92	-0.10170473
215	0xba456e5a	-0.0007531397
216	0xbd496b49	-0.04917458
217	0x3dab702a	0.08371003
218	0x3d06021d	0.03271686
219	0x3cf8b604	0.03036023
220	0x3c3d0986	0.011537915
221	0xbd97a0f8	-0.07403749
222	0xbe00c23b	-0.12574093
223	0xbd99b8c9	-0.07505948
224	0x3d962c2d	0.073326446
225	0xbd167066	-0.036728285
226	0xbdb2025f	-0.086918585
227	0x3b1cb65a	0.00239124
228	0xbdc1728c	-0.09445676
229	0xbd81888d	-0.06324873
230	0xba8f8ba8	-0.0010951655
231	0xbd7a4ffa	-0.061111428
232	0x3d972a37	0.07381099
233	0xbc952808	-0.018207565
234	0x3d1acf1f	0.037795182
235	0xbc82dda2	-0.015974823
236	0xbd830f39	-0.06399388
237	0xbc7d5518	-0.015462182
238	0xbd85deb4	-0.06536618
239	0xbd4e3742	-0.050345667
240	0xbe0f161d	-0.1397328
241	0x3c64bcd9	0.01396104
242	0xbcf2f416	-0.029657405
243	0x3d2cf601	0.042226795
244	0xbd47e8e9	-0.048806105
245	0xbdf6b7ad	-0.12046752
246	0x3cd9a0b3	0.026565885
247	0xbc9f1f0a	-0.01942398
248	0x3e01d260	0.12677908
249	0x3cf1f775	0.029536942
250	0xbd8bee14	-0.06832519
251	0xbcfc9a08	-0.030835167
252	0xbd217e4d	-0.03942709
253	0xbd06987d	-0.032860268
254	0x3daf56d0	0.0856148
255	0xbda07873	-0.07835474

weight f4 [1, 64]
0	0x3db5b69c	0.088727206
1	0x3dbdcc31	0.09267462
2	0x3d83199b	0.06401368
3	0xbd38a484	-0.04507877
4	0xbd7b0fed	-0.061294485
5	0x3dba3ff2	0.09094228
6	0xbe05090a	-0.1299173
7	0xbdd6a134	-0.10479966
8	0xbde55a12	-0.1119882
9	0xbdc40d55	-0.095728554
10	0x3dde17f1	0.1084441
11	0xbdb782c4	-0.089604884
12	0x3dea5e02	0.11443712
13	0xbd9fe478	-0.07807249
14	0x3c42871e	0.011873035
15	0x3d8d74b8	0.06907028
16	0x3d3ee186	0.046601795
17	0x3e189739	0.14901437
18	0x3d8c6864	0.068558484
19	0x3da04593	0.0782577
20	0x3ccad65f	0.024760423
21	0xbae03a76	-0.0017107266
22	0xbe032b3e	-0.12809464
23	0xbe05830b	-0.1303827
24	0x3d9d33d3	0.076759
25	0x3d67cf8d	0.05659442
26	0x3db7715b	0.08957168
27	0x3ce32e2f	0.027731983
28	0x3d961561	0.073282965
29	0xbd91519e	-0.07095645
30	0xbdf61250	-0.120152116
31	0xbd6ca7de	-0.057777278
32	0x3d8cf7e1	0.06883217
33	0x3d02379a	0.031791307
34	0xbdac020b	-0.08398827
35	0xbcc508e8	-0.024052098
36	0x3afeb6a9	0.0019433099
37	0xbd329c05	-0.043605823
38	0x3d2ed9d1	0.042688195
39	0x3e0a41a7	0.13501607
40	0xbcab788a	-0.020931501
41	0xbd900be9	-0.07033522
42	0x3ddf92bb	0.109166585
43	0x3dcb9027	0.09939604
44	0x3b14ad5e	0.0022686343
45	0xbdb22c82	-0.086998954
46	0xbddff600	-0.10935593
47	0xbd5ea7ec	-0.05435936
48	0x3d2a98e0	0.0416497
49	0xbd8c08be	-0.06837605
50	0x3de3a577	0.11115544
51	0xbd22cdbb	-0.03974698
52	0x3de4e367	0.11176186
53	0x3d8f6529	0.07001717
54	0xbe0a9542	-0.135335
55	0xbe00a198	-0.12561643
56	0x3dd109a7	0.10206919
57	0xbd5a9a58	-0.05336985
58	0x3d85bab3	0.06529751
59	0xb9b8400d	-0.00035142936
60	0xbe0eb9f3	-0.13938121
61	0xbd6f4765	-0.058417697
62	0x3dd1b547	0.10239654
63	0x3d5560bf	0.052094217
