model/3481.4930705086863_weight.pth (torch, 90447 bytes, 7 tensors)

weight f4 [16, 32, 1]
000000 8c a1 0d 3e af 2a 6d 3e 32 6a 85 3e d6 33 51 bd
       0.13831156 0.23160814 0.26057583 -0.051074825
000010 df ec 37 3e f5 3d 14 bd 40 14 fa bc a4 0b b2 3d
       0.17961453 -0.0361919 -0.030527234 0.086936265
000020 25 4c 90 bc 1e c1 44 3e 8f 7e 43 3d 5c 25 b9 bd
       -0.017614434 0.19214293 0.047728118 -0.09040329
000030 40 10 63 3d ca ad 20 3e 41 a0 58 bd bc d1 cf bc
       0.05543542 0.15691295 -0.052887205 -0.025368564
000040 93 d1 d4 3d 4f 26 56 3e 5d 09 4e 3e 50 ea 7e bd
       0.103915356 0.20913051 0.2012076 -0.062235177
000050 88 1e 1b bd ff 70 be bd 58 79 fd 3d ba 27 14 3e
       -0.037870914 -0.09298896 0.1237666 0.1446828
000060 b3 98 30 3e a0 1f 1f bd 54 b2 01 3d 39 3b 4d bd
       0.1724575 -0.03884852 0.031664208 -0.050105307
000070 71 ab e4 3d b1 f0 f7 3c b1 22 18 be 4b d4 49 bd
       0.11165512 0.030266138 -0.14856984 -0.049274724
000080 c7 46 aa 3d 28 ee 71 3d 3e 0d 28 bd dc b3 18 be
       0.08314281 0.059065014 -0.041028254 -0.14912361
000090 68 05 45 3e b3 f8 39 3e b0 ef 00 3e 63 62 bd bc
       0.19240344 0.18161277 0.12591434 -0.023118204
0000a0 14 0e ba 3d f1 c4 d7 3d cb a4 0d bd f9 a8 39 3e
       0.090847164 0.105356105 -0.034580987 0.18130864
0000b0 c5 5d c9 bc 2b 4f 30 bd e8 a5 7e 3d fc ca 41 3e
       -0.024580846 -0.04304425 0.06216994 0.18925089
0000c0 3d 98 de bd 34 d0 32 bd 64 17 8c bc 96 f4 d6 bd
       -0.10868881 -0.04365559 -0.017100997 -0.1049587
0000d0 7f 66 7e 3d fb 3a 04 3e 1b a3 cd bd e8 27 f0 3d
       0.062109467 0.12913124 -0.100408755 0.117263615
0000e0 64 19 b5 bc 92 2f 7a bc 25 17 01 bd d9 75 30 3b
       -0.022106834 -0.015270131 -0.031516213 0.0026925711
0000f0 55 94 da 3d 98 db d5 3d 16 2e 19 be 8b 83 aa bd
       0.10672823 0.10442275 -0.14958987 -0.08325871
000100 e1 0f 51 be 52 ac 3b be 82 7d 1c 3c 74 a0 89 bd
       -0.20416214 -0.18327454 0.009551408 -0.06720057
000110 7f 17 d4 3d 1a 52 fe 3c de 98 b1 3d e0 32 fb bd
       0.10356044 0.031045008 0.08671735 -0.12265563
000120 58 08 ba bd 02 64 5c bd 85 5b 0c 3e b0 bb 39 be
       -0.09083623 -0.053806312 0.13706787 -0.18138003
000130 1f 1a 33 bd a9 a8 3b 3b 8e 9b 73 bd 26 a2 e8 bd
       -0.043726083 0.0028634465 -0.05947452 -0.11359052
000140 4a 25 11 3d 94 6e 02 be 8d 04 3b 3d b2 a6 6a 3d
       0.035435952 -0.12737495 0.045658637 0.05728788
000150 76 c3 d6 bb 28 05 b2 bd 7d bf 0b bc 94 50 7b bd
       -0.0065540625 -0.0869239 -0.008529541 -0.061356142
000160 05 e9 89 bd cd 01 72 3b c3 30 0f 3e 28 d0 fd bc
       -0.06733898 0.0036927343 0.13983445 -0.030983046
000170 19 c1 56 bd d0 34 03 3e f0 b2 2c be b6 8d 4e 3d
       -0.052430246 0.12813115 -0.16865134 0.050428115
000180 e8 0f 4a 3e 8c 79 36 3e 2c 52 5f 3e eb 66 4b bc
       0.1973263 0.17819804 0.2180869 -0.012414674
000190 78 21 2c 3e 71 c9 54 3d bc 45 37 3d 8f c6 56 be
       0.16809642 0.051949922 0.04474424 -0.20974182
0001a0 41 51 42 be 1f de bf bc f1 8c c6 bd c6 79 80 bd
       -0.18976308 -0.023421345 -0.09694851 -0.062732264
0001b0 11 60 50 3d 97 2a 6a 3d b8 82 4f bb e5 89 ca 3d
       0.050872866 0.057169523 -0.0031663608 0.098895825
0001c0 f1 da 34 be 3f b1 bc 3c 83 9d b1 3d 56 1c 17 be
       -0.17661645 0.023033736 0.08672621 -0.14756903
0001d0 0e 5b 43 3e 0b 3d f1 bd 5e b0 13 be d3 dc 12 be
       0.19077703 -0.11779221 -0.14422747 -0.1434205
0001e0 2c 85 bd bd da ea 0d 3d f4 49 93 bd 9b f2 0d 3e
       -0.09253916 0.0346478 -0.0719184 0.13862078
0001f0 18 a8 e9 3d 93 36 1a 3d b5 82 fd 3d 7b b4 cd bd
       0.114090145 0.037649702 0.12378446 -0.100441895
000200 ad 6b 0b 3c be 77 9e be 81 0d 93 be 70 10 1e 3e
       0.008509559 -0.3095073 -0.2872124 0.15435958
000210 29 10 46 bc b9 2d c3 bc 20 8e 39 bc 95 d3 dc 3d
       -0.012088814 -0.023825513 -0.011325389 0.107825436
000220 ea 1f 47 3d 23 6e cc 3d e1 ec 0b bc 1e a7 ac 3d
       0.04861442 0.099819444 -0.008540363 0.084303126
000230 5e 87 15 bd a8 16 59 3d aa b6 6a 3d 58 d2 b3 3d
       -0.03650605 0.053000122 0.05730311 0.08780354
000240 25 e1 3c 3e 99 4b b3 3d 52 63 5f 3d 92 08 0c be
       0.18445261 0.087546535 0.05453808 -0.13675144
000250 e2 3b 0f 3e 60 5c 0c 3c cc eb 12 be cc 40 ee bd
       0.13987687 0.008566946 -0.14347762 -0.11633453
000260 dd 0a 88 bd 4e 70 5d bc 1b c9 ce 3c 2d 10 28 3e
       -0.06642697 -0.013515545 0.025242379 0.1641242
000270 a1 e3 0c be dd cd 57 3e 11 8c d1 bd 0c 49 ac 3a
       -0.13758709 0.21074624 -0.10231794 0.0013144328
000280 61 86 55 be 7c 88 2d bd 0c 20 68 bd c5 15 10 3e
       -0.20852043 -0.04236649 -0.056671187 0.14070804
000290 ef 59 b4 bd 1f 1d ad bd 04 65 2c be 79 00 d2 bd
       -0.08806216 -0.0845282 -0.1683541 -0.102539964
0002a0 33 2c 88 3c 66 ea be 3c 81 d2 da 3d e5 93 79 bd
       0.016622638 0.02330513 0.10684682 -0.06093206
0002b0 62 2e 45 3d 35 f3 a8 bd 1a 5d 28 bd 20 9d 10 be
       0.048139937 -0.08249513 -0.041104414 -0.14122438
0002c0 d7 3c e1 bd a6 3d 1a bd df c1 5c 3d d0 b1 07 be
       -0.109979324 -0.03765645 0.053895827 -0.13251424
0002d0 2b 20 80 3c 12 21 13 be 22 3e 58 be 38 9b 0c 3e
       0.015640339 -0.14368084 -0.21117452 0.13731086
0002e0 4a b2 89 bd 36 76 14 be 11 fe 8f bd e1 41 37 ba
       -0.06723459 -0.14498219 -0.07030881 -0.0006990713
0002f0 41 87 92 bd fc b0 27 3d c8 1d 1c be 6f 1a 2a be
       -0.07154704 0.04094027 -0.15245736 -0.16611646
000300 3b 40 33 be 8b f1 72 be 04 e3 a7 bc 13 60 ff 3c
       -0.1750497 -0.23724954 -0.020493992 0.031173741
000310 85 a3 58 3d 7d 87 08 be 87 70 b0 bd 45 38 1f 3c
       0.05289032 -0.13332935 -0.08615213 0.009718006
000320 01 02 02 3e aa 70 98 bd 8c b5 c1 bc c5 cc 77 3d
       0.12696077 -0.07443364 -0.023646139 0.060498018
000330 07 7e 10 bd a6 72 22 3d 38 1a de 3d 29 2b 34 be
       -0.03527644 0.03966012 0.108448446 -0.1759459
000340 63 cf dc 3b c6 4a 6f 3d ab 0f 32 be f2 29 06 3e
       0.0067385896 0.05842092 -0.1738879 0.13101938
000350 4b fb 2b be 26 5b 22 bb f0 56 ab bd da 44 f0 3b
       -0.1679508 -0.0024773567 -0.083661914 0.0073324265
000360 99 fa f5 3d e4 ca c3 bd 49 43 1b be 10 9a f4 3d
       0.12010688 -0.09560183 -0.15162386 0.119434476
000370 f4 82 2b 3e 78 17 e1 3d b0 16 15 3e 54 c5 11 be
       0.16749173 0.109908044 0.14559436 -0.14235431
000380 1a 05 81 be dc 25 82 3c 49 2a 5a be 2e 66 6b 3b
       -0.25199205 0.015887193 -0.21305193 0.0035919058
000390 c8 d0 fd 3d 40 cc f4 3d e6 e2 a9 3c ac 81 a4 bd
       0.123933375 0.1195302 0.020738076 -0.080325454
0003a0 6a 0c 17 3e b5 dd f1 3c e1 b0 8e bd fc 37 08 be
       0.1475083 0.029524663 -0.06967331 -0.13302606
0003b0 80 b8 17 3d f8 6c 19 3d 9d f0 23 be 7a bf af bd
       0.037041187 0.037457436 -0.16009755 -0.08581443
0003c0 ad 81 75 3d 89 8e 01 be 6e ae 43 3e a2 aa f7 bc
       0.05993812 -0.12652029 0.19109508 -0.030232731
0003d0 04 cb 09 be 9d 26 21 bc 7b dd b5 bd 49 b8 ee bd
       -0.1345635 -0.009835866 -0.08880135 -0.11656243
0003e0 db ee aa 3c e0 c9 16 bd 63 cb 51 3d fd 72 16 3e
       0.020865848 -0.036813617 0.051219355 0.14692302
0003f0 2a 16 ad bd a5 72 92 bd e5 fb 12 bd 14 8a 0d 3e
       -0.08451493 -0.07150773 -0.035884757 0.13822204

bias f4 [16]
000000 75 e2 a4 3d 16 37 0b be 69 a5 6c bc 2a 1f 66 3d
       0.08051006 -0.13595232 -0.014443734 0.056182064
000010 c0 d4 29 3d c2 67 b3 3d 0b 07 a0 bd b4 f8 34 3e
       0.04146266 0.087600246 -0.07813843 0.17672998
000020 9d 68 af 3c a7 aa 25 3d f5 2b c1 3d cc 68 1c 3e
       0.021412188 0.04044595 0.09432212 0.15274352
000030 6e d7 ed 3c 74 49 38 bd c6 da 0c be 68 af 53 3d
       0.029033389 -0.044991925 -0.1375533 0.051680952

weight_ih_l0 f4 [256, 16]
000000 7a 57 fa 3c 1f c6 16 be a9 28 c8 3c 4d de 69 be
       0.03055929 -0.14724015 0.02443345 -0.22838707
000010 a8 6f a4 3c f0 e4 fb 3d 46 39 16 3e 06 7f 30 bc
       0.020072773 0.12299526 0.14670286 -0.010772472
000020 ae 09 88 bd c6 ca 6e 3d 78 8d 3c 3e 0a ca c4 39
       -0.06642471 0.05829885 0.18413341 0.00037534564
000030 08 27 87 bd 83 d3 09 3d 02 dc 7d bd 7c f3 b4 3d
       -0.065992415 0.03364898 -0.061977394 0.088355035
000040 e5 b8 2c 3c 91 43 69 bd d0 77 ed bd c6 2e 86 bd
       0.010542129 -0.056949202 -0.11595118 -0.0655189
000050 e5 30 f9 3c 7e 64 8f bd bb 70 bb bc 08 87 ff bc
       0.030418823 -0.07001589 -0.022880903 -0.031192318
000060 e6 b5 1f 3e a3 f8 01 bd be 28 d4 bb d8 1d 04 be
       0.15596732 -0.03173126 -0.0064745834 -0.1290201
000070 0c 14 26 3d 3b 0e 48 3d 82 be 5e bd 2d 7e f4 bc
       0.040546462 0.048841696 -0.0543809 -0.029845322
000080 ad 26 f3 bd 76 51 06 be c9 61 21 3e df a2 5c be
       -0.11872611 -0.13117012 0.15759958 -0.21546505
000090 e7 34 86 3c 25 da e5 3d 8c 2d 9d 3d 68 f5 fb 3d
       0.016382648 0.112232484 0.07674703 0.12302667
0000a0 7f be d6 3d 49 1a 8f 3d 93 ee 86 bd 1b a8 97 bd
       0.10485553 0.06987435 -0.06588473 -0.074051104
0000b0 b8 ed 9e 3e f8 fb 10 3d 7f a7 14 3e 69 dc 96 3d
       0.3104074 0.035396546 0.1451702 0.07366259
0000c0 89 bf 18 be 4a 8a 62 bd 3d 48 92 3d cf c8 82 be
       -0.14916815 -0.055307664 0.071426846 -0.2554383
0000d0 f3 71 9f bc b2 95 c9 3d f8 98 2f 3e 5b 02 d6 3c
       -0.019463515 0.09843005 0.17148197 0.02612417
0000e0 3f b1 05 bd 4d 3e 0e 3d 9c 54 d1 3d 1e bc b0 bd
       -0.03263974 0.034727383 0.10221216 -0.086296305
0000f0 4e 92 56 3d 75 99 d2 bd 2a cd 14 3c 0c cc 25 3e
       0.05238562 -0.10283176 0.009082118 0.16191119
000100 d5 b0 f2 3c 93 5a 19 be 46 28 cd 3d b7 9b 82 be
       0.029625336 -0.14975958 0.10017447 -0.25509426
000110 aa 61 28 3d 26 09 1b 3e 1f f7 86 3d 59 18 56 3d
       0.041108765 0.15140209 0.06590103 0.052269313
000120 6d b0 a1 bd 3d 63 17 3e 03 ab e4 3d 09 e3 30 be
       -0.07894979 0.1478395 0.111654304 -0.17274107
000130 18 14 81 3e 0c 4d fa bd 24 e5 11 bd 6e a9 98 ba
       0.25210643 -0.12221727 -0.035618916 -0.0011647174
000140 ed 0f 6c bd 74 93 99 bd 36 58 b6 3c 7b d7 44 be
       -0.057632376 -0.074988276 0.02225886 -0.19222824
000150 4a cd b8 3d 01 9c 32 bb 5b 1a 80 bd 58 76 fb 3c
       0.09023531 -0.002725363 -0.06255027 0.03069608
000160 59 7f 53 3d 66 d7 0d 3d ce 27 70 bd 74 28 81 bd
       0.05163512 0.034629248 -0.05863171 -0.06306544
000170 9f f0 97 3d dc 08 b4 ba 46 02 6d bc 8b 7d 4e 3d
       0.07418942 -0.001373555 -0.014465874 0.050412696
000180 ad 19 62 3d e1 09 55 bd 77 96 05 3e df e7 17 be
       0.055200268 -0.052011374 0.13045679 -0.14834546
000190 da 00 d3 3c f7 cb bb ba df e1 a0 3d af 38 34 bd
       0.025757242 -0.0014327754 0.078555815 -0.04399937
0001a0 3d 71 38 bd 15 e6 29 bd 25 67 01 3e a0 02 1b be
       -0.045029867 -0.04147919 0.12637003 -0.1513772
0001b0 45 d8 33 3e a0 3d 26 be f9 a9 ec bc b7 8d a4 3d
       0.17562969 -0.16234446 -0.028889643 0.080348425
0001c0 19 0b 1f be ab 85 d3 3b 9c 36 2b 3e 11 32 3d be
       -0.15531577 0.0064551434 0.1672005 -0.1847613
0001d0 39 70 3c 3e 3e 48 8c 3b 4a de 12 3e 25 15 23 bd
       0.18402185 0.004281073 0.14342609 -0.039815087
0001e0 92 b2 1e 3e 26 fa 52 3d 6f 5b 4e 3b 0f 63 49 bd
       0.15497807 0.05150809 0.0031487604 -0.049166735
0001f0 af 57 a8 bc 0c be 41 bd 5a 49 60 bd 6b 28 fe 3d
       -0.020549623 -0.047300383 -0.054757454 0.12410053
000200 7e 1e 4b be 16 da d5 bd aa 34 97 bc 1d cd 81 be
       -0.1983585 -0.10441987 -0.01845773 -0.25351802
000210 46 cd 1b 3e 90 e7 89 bd 47 80 1e 3b 61 9c 1d bc
       0.15215024 -0.0673362 0.0024185346 -0.009619803
000220 31 2f e8 3d 29 9e 5a bd a8 bf 01 3e be 2a 4e 3d
       0.11337126 -0.05337349 0.12670767 0.05033373
000230 37 75 08 3e 01 81 17 be cc 80 b0 3c b7 1b c4 3d
       0.13325964 -0.14795305 0.02154579 0.09575599
000240 fe ce c0 bc 32 81 93 bd 65 6e 23 bd e8 1b 99 bc
       -0.023536202 -0.072023764 -0.039900202 -0.018690065
000250 e8 b7 c8 bd e8 39 3c 3d 02 09 f6 3d 59 e3 cf 3c
       -0.09800702 0.04595366 0.12013437 0.025376962
000260 a5 4d 34 3d 84 fc 88 3c c2 fd 2b 3c 6e 56 d8 3d
       0.04401936 0.016721971 0.010497512 0.1056336
000270 b9 e2 8c 3d fe 0d ee bb 6a 52 b3 3d 5b b5 81 3d
       0.068791814 -0.0072648516 0.087559536 0.06333419
000280 9a a3 95 bd e0 c0 e2 bd 8f 44 a3 ba d5 b8 98 be
       -0.07306595 -0.11071944 -0.0012456345 -0.29828516
000290 e0 66 1a 3d 45 59 ed 3d 21 b8 c4 3c f6 03 24 bc
       0.037695765 0.115892924 0.02401358 -0.01001071
0002a0 d4 f1 0c 3e 2b 48 35 bd 98 a3 b5 3d 51 af a9 bc
       0.13764125 -0.044258278 0.08869094 -0.02071348
0002b0 7a 84 1e 3d 49 b8 2a 3c 86 e2 51 bd 67 78 c4 3d
       0.03870056 0.010419914 -0.05124142 0.095932774
0002c0 09 8a 14 be b1 a0 00 be 21 99 46 3d 92 3a 6b be
       -0.14505781 -0.12561299 0.04848588 -0.22971562
0002d0 1d 8b 52 3d 9f d2 84 3d 88 f1 ad bc 87 c2 14 3d
       0.0514022 0.06485485 -0.021233335 0.03631833
0002e0 fe b3 83 3b f4 4e e3 3d 0d bd f0 3d 6e 2c 04 be
       0.0040192595 0.110990435 0.117548086 -0.12907574
0002f0 da cb b3 bc e9 b4 78 3d f1 a0 13 be 31 c5 56 bd
       -0.02194779 0.060719404 -0.14416863 -0.05243415
000300 91 3b 73 bd a6 f0 75 bd 8a 7f 5b 3d 79 98 88 be
       -0.05938298 -0.060043953 0.053588428 -0.26678827
000310 f1 d3 36 3e 2f 47 53 3c 67 26 01 bb 20 fb 10 3d
       0.17854287 0.012895389 -0.0019706727 0.03539574
000320 71 c9 0e 3e 82 23 96 bd 8e 91 03 3e c6 ef 16 be
       0.13944031 -0.07330991 0.12848493 -0.14739904
000330 c9 cb 0f 3e f6 93 00 be 3a 58 76 bd 0a ae c2 3d
       0.14042582 -0.12556443 -0.060142733 0.095058516
000340 2c 9a a4 bd ce 60 9d bd 6b d9 41 bc f9 b2 c7 bd
       -0.080372185 -0.0768448 -0.011831622 -0.09750933
000350 68 c0 eb 3d 1a ee a5 3d f8 c5 9e bd c1 a2 24 3d
       0.11511308 0.08102055 -0.07752603 0.040194277
000360 fa f7 20 bd d1 49 33 bd a1 1e 62 bc 43 dc a2 3b
       -0.03929899 -0.04377157 -0.013801248 0.004970105
000370 10 ee 7a 3c 7b 73 ff 3d b4 52 95 3c 0f d9 f9 bc
       0.015315548 0.12473198 0.018227912 -0.03049901
000380 75 46 b6 3a 24 c2 96 3d 70 8d 2c 3c 71 b8 f3 bd
       0.0013906496 0.07361248 0.010531768 -0.11900414
000390 83 8e 95 bd 7d 49 3e 3c 65 c1 07 3d 06 85 4b 3d
       -0.073025726 0.011614201 0.03314342 0.049687408
0003a0 27 07 a6 bd c5 59 c8 3d 59 64 e6 bb be 10 a6 3c
       -0.08106833 0.09782747 -0.0070310053 0.020271655
0003b0 ce fa e3 bd 02 b7 b3 bd 24 1a d6 bc b5 55 88 3d
       -0.111318216 -0.0877514 -0.026135512 0.06656972
0003c0 51 ae bc bd 6e 61 7d bd 2d a6 27 be e9 cf 3b 3e
       -0.09212936 -0.061860494 -0.16371985 0.1834103
0003d0 80 14 3e be 66 9e 6e bd 6e 6e 34 3d 28 58 13 be
       -0.18562508 -0.05825653 0.044050626 -0.14389098
0003e0 bd f8 9a 3c 11 a0 32 be be 27 1a be 70 f1 ce 3d
       0.018917436 -0.17443873 -0.15054223 0.10104644
0003f0 bb 1f 0a be 1b 90 2a 3e 9e 79 6f bd 14 a7 0c be
       -0.13488667 0.16656534 -0.058465593 -0.1373561

weight_hh_l0 f4 [256, 64]
000000 6b 15 7e 3d c2 0e a9 3d 11 cf e9 3c 3a 61 65 3c
       0.062032145 0.08254768 0.02854112 0.014000231
000010 e7 37 a2 bc f8 a1 1b 3d b4 e5 b8 3d 7c 61 b8 bd
       -0.019802047 0.037996262 0.090281874 -0.09002969
000020 07 7b 7d bc 4a ef 9c bd 16 88 c1 bc 34 38 d2 3d
       -0.015471227 -0.07662828 -0.023624461 0.10264626
000030 8f f1 76 bd 0d 12 08 3d d6 ff 83 3b 78 5f a4 bd
       -0.060288962 0.03322034 0.0040283008 -0.08026022
000040 73 e5 95 3c c9 4b 12 3d fc 41 c6 bd 01 8b fe bd
       0.018297886 0.035716806 -0.09680554 -0.12428857
000050 ca 48 47 bb 8c ec 00 3e ab 46 37 bd c9 e2 1a 3d
       -0.0030408376 0.12590235 -0.04474513 0.037813935
000060 82 29 a6 3d 26 0e 5e 3c 74 ab bf 3d c8 20 14 be
       0.08113386 0.013553178 0.09358874 -0.1446563
000070 d9 e2 a8 3d ec 50 0d bd ab b4 bc bd 8f 93 29 3d
       0.08246393 -0.034501 -0.09214147 0.04140049
000080 94 32 20 3d 1c 56 b3 bd 91 51 85 bd 0c f7 13 3c
       0.039110735 -0.087566584 -0.06509698 0.0090310685
000090 3f b6 80 bc 64 f6 71 bd bc 0d dc bc 3d b1 35 3d
       -0.015711902 -0.059072867 -0.026862018 0.04435848
0000a0 4e 5b 0c 3e ea 2e a5 bd 75 8c 57 bb cd 4d bb 3d
       0.13706705 -0.08065589 -0.0032890115 0.09145699
0000b0 e0 61 f6 3d ae aa 95 bd 10 95 84 3d 39 28 20 bd
       0.12030387 -0.07307945 0.06473744 -0.03910086
0000c0 63 d3 88 3c 4c 0d 31 bd 88 39 e1 3d 28 9e f4 3d
       0.01670236 -0.04322557 0.10997301 0.119442284
0000d0 17 98 19 bd 64 4e 04 be b8 95 a0 3c 78 4f ed bd
       -0.03749856 -0.12920529 0.019602641 -0.11587423
0000e0 36 03 ad bd 9f d7 90 3d 36 b3 ff 3c 5a 91 22 3d
       -0.08447878 0.070723765 0.031213384 0.0396894
0000f0 38 e3 b1 bd 6f f2 e7 bd 4f 37 8b 3d fa ed cb 3c
       -0.08685917 -0.113255374 0.06797659 0.02489375
000100 f4 43 e2 bd 47 58 52 bb 8a f8 da 3d a3 5a f1 bd
       -0.11048117 -0.0032096074 0.10691936 -0.11784866
000110 87 02 61 bc 58 d4 63 3c f4 24 41 3d c1 02 10 3e
       -0.013733513 0.013905607 0.047154382 0.1406355
000120 23 b6 f7 3d ac 53 15 3c f8 5e 59 ba 3e 6f 9a 3d
       0.12095287 0.009114187 -0.00082920445 0.07540749
000130 70 3d 0a 3e aa 81 34 3d 4a 5f e9 3d 68 8d 80 3d
       0.13499999 0.04406897 0.11395128 0.06276971
000140 90 d9 92 bc 15 ed 40 3d 20 16 71 bb 2d d0 0e 3d
       -0.017926008 0.0471011 -0.003678687 0.0348665
000150 3d e5 cb 3d 52 4a ec bd c7 95 c3 3d 0d 42 15 3b
       0.09955833 -0.11537613 0.09550052 0.0022774965
000160 9b a9 62 bd 70 19 2b bd bc 9d e9 bd 14 ce 05 be
       -0.05533753 -0.041772306 -0.114070386 -0.13066894
000170 6b 18 1c be 1e ec b8 bb 28 55 23 3d 85 14 80 bd
       -0.1524369 -0.0056433817 0.039876133 -0.06253914
000180 94 4f ce 3d 30 4f c7 bd 0f bf 0b 3e 2a a0 c6 bc
       0.10073772 -0.09731901 0.13647102 -0.024246294
000190 27 26 d2 bc 95 11 fe 3d 1f f2 04 bc 3d f1 ee 3c
       -0.025652958 0.12405697 -0.008114367 0.029167766
0001a0 d7 ac 9b bd a1 47 36 3e 90 e0 1a 3c 13 6f 5d bd
       -0.07601326 0.17800762 0.009452954 -0.054061007
0001b0 2c 08 c4 bc 81 7a be 3c bf 07 95 bc 6e 4e a6 3d
       -0.023929678 0.023251774 -0.01819217 0.08120428
0001c0 4a 6d c0 bc cc 80 8f 3c 04 d4 f5 3c f0 80 a0 bc
       -0.023489613 0.01751747 0.030008323 -0.019592732
0001d0 4a 4c 03 be 1d 57 3b 3c 17 00 75 bd 66 bd c2 bd
       -0.1282207 0.011434344 -0.05981454 -0.09508781
0001e0 66 1d 06 3e 40 cc d5 3c d4 27 23 bd 7e 2e fd 3c
       0.13097152 0.02609837 -0.039832905 0.030905958
0001f0 97 47 6c bc f4 37 68 bd 8b c5 54 3d 8d fb 86 3d
       -0.014421365 -0.056693986 0.051946204 0.06590948
000200 d6 ee e3 bd 14 ad 05 3e e6 71 bf bd 11 a6 65 3d
       -0.11129539 0.13054305 -0.09347896 0.056066576
000210 2b 0b e1 3d a5 85 a6 3d 8d 6d 9b 3d a6 2a 7d ba
       0.10988458 0.081309594 0.075892545 -0.0009657539
000220 b3 14 08 3d c2 bb 40 3d 72 db f3 3d c5 48 e0 bd
       0.033222865 0.04705406 0.1190709 -0.1095138
000230 ce 0a 76 bd d5 eb bc bd cc 9c d2 3c 78 47 d6 bc
       -0.060068898 -0.09224669 0.025709532 -0.026157126
000240 77 63 60 bd 1b b8 e9 bc fd 1a 24 bc 6a ae 80 bc
       -0.054782357 -0.028530171 -0.0100162 -0.015708167
000250 9f e1 ac 3d ea 6d 31 bc e6 a9 c5 bc cb 08 b7 3d
       0.08441471 -0.010829428 -0.024128865 0.08937224
000260 29 d3 49 3d 63 71 0f be fe 35 af bc d9 79 e2 bd
       0.049273644 -0.14008097 -0.02138805 -0.11058397
000270 07 6e cd 3c f5 b7 fb 3c 95 b6 57 3d 13 6a 44 bd
       0.02507688 0.030727366 0.05266436 -0.047952723
000280 7c 8f 68 bd 75 f1 ff 3d 3d e9 0d 3e 01 b4 ec bd
       -0.056777462 0.12497226 0.13858505 -0.115577705
000290 c2 e1 3d 3d 8f a8 4f bb 1d cd ac bd ff 7c 58 bd
       0.046357878 -0.0031686162 -0.0843756 -0.05285358
0002a0 96 91 26 bd d8 f5 5b 3d ff 07 ef 3d b8 3e 59 3d
       -0.040666185 0.05370125 0.11671447 0.05303833
0002b0 6a 44 4b 3d 04 51 24 3d 47 ef fc bd 0a 16 d6 3d
       0.04962579 0.040116325 -0.12350326 0.10453422
0002c0 2c c9 37 bc 39 c5 7b 3d e4 f3 98 bd 33 06 d1 bd
       -0.011217397 0.061467383 -0.074683934 -0.102062605
0002d0 c9 2d 07 be 06 97 f0 bd 46 6b be bd 88 81 7f bd
       -0.1320106 -0.117475554 -0.092978045 -0.06237939
0002e0 89 3e 40 3d 1e 8e 3b 3d c7 5c dc bd 61 d3 a4 3d
       0.04693464 0.04578983 -0.107598834 0.0804813
0002f0 90 a2 30 bc 1e 1b 3b bd 09 15 80 3d a8 9a 9d bd
       -0.010780945 -0.045680158 0.06254012 -0.07695514
000300 c3 74 01 be 09 5b 3d 3d 7a 88 05 be 2e bb 87 bb
       -0.12642197 0.046229396 -0.13040343 -0.0041421866
000310 fd 00 26 3d f2 15 83 3d 47 53 07 3e 9b da ad 3d
       0.040528286 0.0640067 0.13215362 0.08488961
000320 55 15 d7 3d a5 36 8d bd 78 80 50 3d 3c e5 c5 3d
       0.10502116 -0.06895188 0.050903767 0.096628636
000330 2c 7f a1 bd 59 7a 1b 3c 66 81 81 bd 4e 7e 38 bb
       -0.07885584 0.009489619 -0.06323509 -0.0028151455
000340 2f da f1 3c eb 0f c7 bc 6b 3b 07 bd 2a 1c 39 3d
       0.029522983 -0.024299582 -0.03301565 0.045192875
000350 ac 6a 85 3b 50 b9 14 3b f8 50 52 3d 5e ed 8c bd
       0.004071554 0.0022693463 0.05134675 -0.06881212
000360 88 37 c2 3d fa f8 31 3d 3e 50 36 3d 0b dd f4 3d
       0.09483248 0.043450333 0.04451012 0.11956223
000370 67 65 1b 3e 1c f6 f1 3c c1 8e a2 bd bd 25 87 bd
       0.151754 0.0295363 -0.079373844 -0.06598995
000380 0e 5d c3 3d c5 8d d0 bd 36 8d 61 3d 79 89 63 bd
       0.09539233 -0.101832904 0.05506631 -0.055551026
000390 86 01 ee bd 79 fa 57 bb 55 a6 5f 3c bd 6a 35 3d
       -0.11621384 -0.003295569 0.0136504965 0.044291247
0003a0 90 50 15 3e 8d 1b 55 3d a7 b3 b0 bd fb a8 db bd
       0.14581513 0.052028228 -0.08628016 -0.1072559
0003b0 c1 97 a5 bc 1e ff aa 3c 05 1e 69 bd a1 3a ca 3c
       -0.020213963 0.020873602 -0.056913394 0.02468616
0003c0 fa ca 34 bd 45 ba 9b 3d e7 13 5e bd 63 b5 14 3e
       -0.044138886 0.076038875 -0.0542182 0.14522319
0003d0 56 f0 ce 3c 6c 7a 8c bd 7f da 00 be 7a 69 e9 3d
       0.025261085 -0.068592876 -0.1258335 0.11397071
0003e0 5d f0 8c 3c 3f a0 e6 bd fa d6 a5 3c e3 b0 29 bd
       0.017204458 -0.11261033 0.02024411 -0.041428458
0003f0 9c 91 40 3d 29 c3 a9 bd 7e d5 d6 3c 48 3a 92 3d
       0.047013864 -0.08289177 0.026224848 0.071400225

bias_ih_l0 f4 [256]
000000 ff 05 0a 3d 92 69 4b 3d 19 80 89 3d bb ce 72 3d
       0.033697125 0.049661227 0.06713886 0.059279185
000010 c0 b7 98 3d c5 23 b0 bd e4 db c4 bd 0b 9c c8 3d
       0.074569225 -0.086005725 -0.09612253 0.09795388
000020 f8 af 9c bd 9b f8 dc bd 6f 34 1f 3e 33 9a c8 3b
       -0.07650751 -0.10789605 0.15547346 0.0061218976
000030 3a b6 50 bc fb 1e fd bd 98 48 8e bd 41 f8 87 bc
       -0.012738759 -0.12359425 -0.0694744 -0.016597869
000040 dd fe 21 bd f0 43 02 be 0d 0e 86 3d 1b 14 de 3d
       -0.039549697 -0.12721229 0.06545649 0.108436786
000050 cc 66 a5 bd d8 f0 87 3d cb 63 0c 3e 03 94 23 bd
       -0.080762476 0.06637734 0.13709943 -0.039936077
000060 98 d1 91 3c e4 f8 91 3d c7 8e a6 3d cd b2 c7 bd
       0.017800137 0.0712755 0.08132701 -0.097509004
000070 bd 04 aa bd f3 4d 3b bc 9d 94 64 3d a3 a6 93 bc
       -0.08301685 -0.011432159 0.05580579 -0.018023795
000080 73 4c 31 3d 0a 8f 9c 3d d5 e5 b1 3d 9c 9f f8 3d
       0.0432858 0.0764447 0.08686415 0.12139818
000090 c1 b7 9d bd c3 0f 1a 3d b7 8a d4 bb 7d 11 e4 3c
       -0.07701064 0.037612688 -0.0064862627 0.02784037
0000a0 7c 21 42 bd 49 d6 69 bd 60 1d c0 3c 17 11 04 3e
       -0.047395214 -0.057089124 0.023451507 0.12897144
0000b0 db ed f6 bd e4 d5 31 3c e3 5a 65 bc 8d 6a 13 be
       -0.12057086 0.010854218 -0.01399872 -0.14396115
0000c0 bc 00 4d 3d bf 0f 3e bc c6 6a 16 3e dd c9 61 bc
       0.05004953 -0.011600434 0.14689168 -0.013781038
0000d0 50 90 a2 bd 68 56 06 be c3 3f 0e 3d be 46 9e 3d
       -0.07937682 -0.13118899 0.034728777 0.07728337
0000e0 b1 67 ae 3c 81 b3 1c 3d 32 ac cc 3d 04 ad 1a bc
       0.021289678 0.038257126 0.09993781 -0.009440664
0000f0 26 bf 28 bd ba 56 a8 bd 7a d8 c1 bd 16 84 c9 3d
       -0.04119792 -0.08219667 -0.09465118 0.098396465
000100 2d ae 94 3d db 94 af 3d 58 05 0b be 60 79 9c 3d
       0.07259784 0.08573314 -0.13576257 0.07640338
000110 9a 78 78 bd 56 4c 61 3c 65 e0 62 bd 94 d0 17 bd
       -0.06066189 0.01375111 -0.05538978 -0.03706415
000120 28 f8 b0 3c 0f 2e 69 3d d0 9a 09 3c d2 43 92 bd
       0.021602705 0.05692869 0.008398727 -0.07141842
000130 bc 7f ee 3c 24 bc c4 bd de 16 c4 3c 38 9a 49 3d
       0.029113643 -0.096061975 0.023936685 0.04921934
000140 b8 6d d3 bd 3f 18 65 3c 42 92 56 bb ef 66 f8 3c
       -0.103236616 0.0139828315 -0.0032740985 0.03032252
000150 da 38 45 3d 63 a3 bc bc e4 c8 c4 3c a9 5b 78 bd
       0.04814992 -0.023027128 0.024021573 -0.06063429
000160 fb 29 04 be 6e 64 90 39 ae 8b f9 bd 33 f6 e1 bd
       -0.1290664 0.00027540646 -0.12184845 -0.11033287
000170 8b 3f e9 bc a0 a1 e0 bd 6c 72 24 3d dc 13 14 bc
       -0.028472682 -0.109683275 0.040148184 -0.009037938
000180 35 b2 94 bc 8e c0 c8 bd 7f 79 42 3d e7 16 cd bc
       -0.018151382 -0.09802352 0.04747915 -0.025035335
000190 35 f2 fc bd d3 b9 ff 3c b6 90 21 bd 61 4e f6 bd
       -0.12350885 0.031216538 -0.039444648 -0.12026668
0001a0 6d e8 f9 bd 8c bf 69 3d 13 4d db bc e9 8d b7 bd
       -0.12202535 0.05706744 -0.02677015 -0.08962614
0001b0 e1 b5 37 be 79 c4 5a bd aa be fd bc e1 c9 3e 3d
       -0.17940475 -0.053410027 -0.030974705 0.046579245
0001c0 03 b3 17 bc 9b c2 9d bd 18 65 fc 3c bf ae db bb
       -0.009258988 -0.07703134 0.030809924 -0.006704181
0001d0 74 85 20 bd 15 2e e3 bc f2 2c ea bd 66 11 30 3b
       -0.03918977 -0.027731935 -0.11434354 0.002686584
0001e0 fd 0a 05 be 4d 6b df bd 99 6a aa 3d 4c d4 3d bd
       -0.12992473 -0.10909138 0.08321113 -0.04634504
0001f0 0c 4f 1b bc 8a 37 28 bd a7 e7 0f 3a ac aa 85 bd
       -0.009479295 -0.04106859 0.0005489536 -0.06526694
000200 41 4d 17 3d ac f7 b9 bd d4 94 e9 bb d9 10 02 be
       0.03693891 -0.09080443 -0.0071283374 -0.1270174
000210 d3 f2 5b bd 4f 54 19 bc 8d 2c 06 3e f1 6d f8 bd
       -0.053698372 -0.00935848 0.13102932 -0.12130345
000220 7b 2b c7 bc 8e 06 8d 3d 97 04 1c bd e1 e7 82 3d
       -0.024312725 0.06886016 -0.038090315 0.06391884
000230 c2 ee 10 bc 72 78 c2 bc d1 fd 51 bd e7 7d ca bd
       -0.008845987 -0.023739073 -0.05126745 -0.09887295
000240 e5 6c 31 bd e1 79 f1 bc fe 42 cb bb 7d 92 f9 3d
       -0.04331674 -0.029477062 -0.0062030545 0.121861435
000250 4e 7f 84 3d 5c bb 28 bd c5 6b 9e bd 8d a6 37 bd
       0.06469594 -0.041194305 -0.07735399 -0.04483657
000260 4f 3c 08 3b 92 d5 ab 3d 33 a3 ac bd 17 b7 3d 3d
       0.00207879 0.08390345 -0.08429565 0.046317186
000270 48 a3 df 3d 72 69 65 3c 54 a5 a8 bd 0d 49 9c 3d
       0.10919815 0.014002191 -0.08234659 0.07631121
000280 47 b5 db 3d 47 07 b3 bc 03 7f 16 3d de b8 e3 bd
       0.10727935 -0.021854056 0.03674222 -0.11119245
000290 fe 2c 70 bd f6 ca 8c bd 52 fe c6 bc 6c df 5a 3d
       -0.058636658 -0.06874649 -0.024291191 0.053435728
0002a0 2b 06 4f bb c0 c3 c8 3c 06 13 6d bc 0c 71 c6 bd
       -0.003158937 0.024507403 -0.014469868 -0.09689531
0002b0 b4 cf b8 bc aa 60 6a bd 16 0c 40 bd c1 d4 4b 3d
       -0.022559978 -0.057221092 -0.046886526 0.049763445
0002c0 0c b9 12 3d 8e 57 da 3d c9 3f 02 3e ea 09 55 3d
       0.035821006 0.10661231 0.12719645 0.052011408
0002d0 f6 25 e8 bc 7d b8 97 bd 79 44 2a bd 2b c1 96 bd
       -0.028338414 -0.07408235 -0.041569207 -0.073610626
0002e0 30 49 ed 3d 25 b9 49 bd 8f c5 00 bd 42 66 50 bd
       0.11586225 -0.049248833 -0.031438407 -0.05087877
0002f0 08 48 cf 3c 31 0b a9 bd 6d 34 63 bd 2b 37 d9 bd
       0.025302902 -0.08254088 -0.05546992 -0.106062256
000300 7c ba bc 3c 8c ad 49 bd 92 d7 fd 3d d8 d9 0e 3e
       0.023038141 -0.049237773 0.123946324 0.13950288
000310 70 3c 52 3c b7 9d 94 bd 6a e7 94 bd 13 f0 4c 3d
       0.012831792 -0.07256644 -0.07270701 0.05003364
000320 9e 83 bd 3d 19 6a 8b bd 30 79 bb bd 1d 3d b6 3d
       0.092536196 -0.06807346 -0.09153974 0.08898375
000330 9a fb 4c 3c 06 dc 69 bd 71 63 d1 bd 8c 28 25 be
       0.012511158 -0.057094596 -0.10224045 -0.16128749
000340 f6 75 b0 bd 19 31 a8 bc 4b 9f ff 3d 33 77 45 bd
       -0.08616249 -0.020531224 0.124815546 -0.04820938
000350 68 c5 31 bd 0f da 91 3d 74 5d 55 bd c9 92 52 bd
       -0.043401152 0.071216695 -0.052091077 -0.051409516
000360 b5 fb e1 bc 6b 92 c1 bd 39 06 0f be 5c f8 b4 3c
       -0.027585844 -0.09451755 -0.13967218 0.022091083
000370 aa 77 14 be 55 1b 08 3d 32 37 91 bd 4e b6 f5 bd
       -0.14498773 0.03322919 -0.07090606 -0.119976625
000380 5b 1e 20 3d ab db b8 3d e1 ae d5 bd a1 c0 81 3d
       0.03909145 0.09026273 -0.10433746 0.06335569
000390 b4 e4 c5 bb 05 3e c2 bc d0 4a 43 3d b3 a0 24 bd
       -0.0060392264 -0.023711214 0.04767877 -0.040192317
0003a0 94 ed 13 bd 9b fe 5e 3d ff ff 22 3d 6f 76 86 bd
       -0.036115244 0.05444203 0.03979492 -0.06565558
0003b0 fc b4 90 bb fe e4 08 3e 4c 30 6c 3b b4 47 70 3d
       -0.0044161063 0.13368604 0.003603953 0.05866213
0003c0 7e c8 9b bc c1 19 64 bd e0 a8 4f bd e6 fa 96 bc
       -0.0190165 -0.055688623 -0.05069816 -0.018430185
0003d0 41 36 f7 3d 30 17 d4 bd ca b1 cf 3d 33 ed 79 bd
       0.12070895 -0.10355985 0.101413324 -0.061017226
0003e0 b4 4e 0b be d9 0e a4 bc e1 9d c3 bc 41 b8 87 bd
       -0.13604242 -0.020026611 -0.023878993 -0.066269405
0003f0 b8 34 c3 3d db 59 bf bb 36 45 25 bc b3 76 46 bc
       0.0953154 -0.005839569 -0.010087302 -0.012113261

bias_hh_l0 f4 [256]
000000 43 e7 79 bd c3 d6 5f bd 0b d0 ae 3d 79 67 ac bd
       -0.061011564 -0.054648172 0.08535775 -0.08418173
000010 78 ca 5c 3b cb 39 7b bd 47 4b 89 3d 21 fa 6f bd
       0.0033690017 -0.061334413 0.06703811 -0.05858815
000020 2c cc af bc 52 3e 9d 3d ea 10 5e bc f8 48 8d 3d
       -0.021459661 0.07677902 -0.013553837 0.06898683
000030 bb 1b 12 3d bb 61 d1 bd e5 af bd 3d 81 8e 53 bd
       0.035670977 -0.10223719 0.09262065 -0.051649574
000040 73 73 e1 bd 23 9e 03 3d f4 3c 18 3e 5b 33 3c bd
       -0.11008348 0.032133233 0.14867002 -0.045947414
000050 52 fd a6 bd 66 7b f7 3c a4 ba c2 3b a1 ce 8a 3c
       -0.08153786 0.030210208 0.0059426595 0.016944231
000060 cb ba 30 3d c6 7a a4 3d 72 6c 58 bd 17 f2 3b be
       0.04314689 0.0803123 -0.052837797 -0.18354069
000070 82 d4 f6 bc bf ea de 3d 3d 2c 1b bd c0 1c 53 bd
       -0.030130628 0.10884618 -0.037883986 -0.05154109
000080 60 d8 58 bc 52 40 87 3d 5e e8 63 3d d3 8f 40 bd
       -0.013235182 0.06604065 0.055641524 -0.04701216
000090 8b 99 ae bd 7c 2b 47 bd 78 22 b0 bc eb a1 d1 bc
       -0.0852538 -0.048625454 -0.021500811 -0.025589904
0000a0 fc 83 e2 bd ee bd ee 3c 36 f5 af 3a b4 db b0 3d
       -0.1106033 0.0291433 0.0013424519 0.08635655
0000b0 29 97 ee bd 92 00 64 3d 89 94 43 3d a8 23 b5 bd
       -0.11649925 0.055664606 0.047749076 -0.088446915
0000c0 85 fb 42 3e 9a 34 9e 3d 19 e5 92 3c 4f 40 ce bc
       0.1904126 0.07724877 0.017931508 -0.02517715
0000d0 07 54 1d bd 56 29 b4 3d a6 95 2e 3d 4e 8c 82 3d
       -0.038410213 0.08796947 0.042623185 0.06374417
0000e0 97 2f cd bd ed 75 f4 3d 29 40 bc bc 88 f9 9e bd
       -0.10018843 0.11936555 -0.022979813 -0.07762438
0000f0 a5 45 6e ba eb cc 6e bc 76 aa ea 3d a1 f7 f4 3d
       -0.00090893573 -0.014575223 0.11458294 0.11961294
000100 88 d8 ff bd a7 7d ee bd 2c 6e a4 bd cd 63 e8 bd
       -0.12492472 -0.1164506 -0.08028826 -0.113471605
000110 3e 55 ba bd f1 57 b6 3c d9 8a a6 3d b9 42 f1 bd
       -0.0909829 0.02225873 0.08131952 -0.117803045
000120 b6 fd 14 bd 8b cb 16 bd 3d 2b 3c 3d 37 cb 43 bd
       -0.03637477 -0.036815207 0.045939673 -0.047801223
000130 82 7d d5 bc 24 21 f8 bd c7 c1 02 be 30 00 24 be
       -0.026060823 -0.12115696 -0.12769233 -0.16015697
000140 f9 4f 32 bd 56 08 19 be 3a 41 c3 bd 09 64 ec bc
       -0.0435333 -0.14944586 -0.09533925 -0.028856294
000150 ca ae 99 bd 10 3a af 3c ff 18 bb bd f2 2e ae bd
       -0.075040415 0.021389991 -0.09135627 -0.08505048
000160 dc 53 d3 3c 42 04 23 bd f3 68 ab bd 9a 81 58 bc
       0.025796823 -0.039798982 -0.08369627 -0.013214493
000170 c3 3e 57 bd b5 70 cd 3d c9 6f a8 3c f3 17 94 3d
       -0.05255009 0.10031263 0.020561116 0.072311305
000180 b2 03 8e 3d c6 31 8a bd 64 f7 90 bd 94 7e 79 bd
       0.069342986 -0.06747775 -0.07078436 -0.06091173
000190 b3 e6 90 bd 14 8e b3 bc 9a c1 72 bd 11 94 09 bd
       -0.070752524 -0.021918334 -0.059266664 -0.033588473
0001a0 50 ba d8 bd 75 4c f8 bb 3a be 18 bd 8a e8 2f be
       -0.10582411 -0.0075774738 -0.03729079 -0.1717855
0001b0 7f 3f 1d be 93 fa 77 bc e0 ec fa bd de 78 20 be
       -0.15356253 -0.015135425 -0.122522116 -0.15671107
0001c0 8a 6e 29 be 02 c8 f6 bc 4a f2 9e bc c4 f8 17 be
       -0.16546074 -0.030124668 -0.019402642 -0.1484099
0001d0 0e ef 9b 3c 3d aa cb bc 07 42 91 3c d0 7d 2d 3d
       0.019034889 -0.02486145 0.01773168 0.042356312
0001e0 f0 12 97 3d 8d 79 96 bd 65 05 d1 bd 18 a5 25 3d
       0.07376659 -0.07347403 -0.10206107 0.04044065
0001f0 c2 3b b0 bc c4 7d 54 3d cc f6 57 bd 9d bc ba bd
       -0.02151287 0.051877752 -0.0527256 -0.091180064
000200 75 57 a6 3c 22 c5 d6 3c bc b5 c8 bc 17 ed cb bd
       0.020305375 0.026217047 -0.02450072 -0.09957331
000210 af b2 2c 3d eb 5e cc 3b 3b 92 a8 bd f4 04 c6 bd
       0.042162593 0.006236901 -0.08231016 -0.096689135
000220 62 2d c1 bd 28 b2 53 bb 28 6f 75 bd 8f c0 84 bd
       -0.09432484 -0.0032302234 -0.05992046 -0.0648204
000230 f5 f1 09 be 8b 67 ba bc 32 c1 7c 3d 7a e5 33 bd
       -0.13471206 -0.022754451 0.061707683 -0.043920018
000240 51 a0 c0 bd bf 7e 81 3c 7a 47 c0 3c 8a aa f7 bd
       -0.09405578 0.015807508 0.023471583 -0.120930746
000250 db f5 d7 3d 5e 0e a1 3d fe 91 24 3c be 61 07 3e
       0.1054494 0.078640684 0.010044573 0.1322088
000260 03 16 18 3d b5 b0 06 3e 2f 13 b6 bd fd c8 27 bd
       0.037130367 0.13153346 -0.08890378 -0.04096316
000270 f1 79 df 3d 02 c7 59 3d e4 1f a1 bd 3d 6b 5a bd
       0.1091193 0.053168304 -0.07867411 -0.053324927
000280 c3 61 9d bd bd e7 a1 3c a4 d6 ae bd 19 ce fa 3c
       -0.07684662 0.019763822 -0.08537033 0.030615853
000290 b5 06 6c 3d 6a 36 a0 3c 2c e9 2d 3c 60 87 44 3d
       0.057623584 0.019557197 0.010614675 0.047980666
0002a0 96 e3 1c bb a6 18 fb bd c9 b7 b2 bc fe a4 ee 3d
       -0.0023939363 -0.12260561 -0.021816151 0.116525635
0002b0 6b 8a 18 3d ed 65 60 3b 00 17 48 3d d2 68 fd 3d
       0.03724138 0.003424044 0.04885006 0.123735085
0002c0 63 ec 0b 3e 26 99 dc bd 7f 0f 98 3d a8 c2 bb 3c
       0.13664393 -0.10771398 0.07424831 0.022919968
0002d0 bc 64 6f 3c de 01 ff bc d0 3d fb bd 29 56 ff bd
       0.014611419 -0.03112882 -0.12267649 -0.124676056
0002e0 d6 da 7b 3d e3 c1 7d bd 9b 78 c3 3c 3f c0 0a bc
       0.061487995 -0.061952483 0.02386122 -0.008468687
0002f0 5f fc 45 3d ca a2 ba bd f2 98 e4 3d e2 9c ea bd
       0.048336383 -0.09113081 0.111619845 -0.11455704
000300 6b 4b 71 bc 24 70 82 bd 39 9b 8e 3d 35 40 ad bd
       -0.014727454 -0.063690454 0.069632 -0.08459512
000310 ce 36 0b bb 94 88 aa bd ab 11 cb bd 03 04 8c 3d
       -0.0021242383 -0.083268315 -0.09915479 0.06836703
000320 01 a5 cd bd e9 36 18 3c a0 96 b6 bd f1 e5 c2 bd
       -0.100412376 0.009290435 -0.08915448 -0.09516514
000330 0a d9 07 3e 50 2f 60 ba 72 3d 20 3d 23 b4 15 3d
       0.13266388 -0.0008551972 0.0391211 0.036548745
000340 7e 75 cb 3d 79 b6 fa bd 27 5f fa 3d 26 3a d7 bd
       0.09934519 -0.12241835 0.1222518 -0.10509138
000350 ee c1 79 bd 75 c8 82 bc 4e dd 54 3c 1b ec 90 bd
       -0.06097596 -0.015964726 0.012992216 -0.070762835
000360 bb e7 92 bc 4f 5a cc 3d 81 f8 65 3d 2e 59 8a bd
       -0.017932763 0.099781625 0.056145195 -0.06755291
000370 54 b0 c3 bd fe a7 c1 bd 7d f6 bc bd f2 6e 92 bc
       -0.09555116 -0.0945587 -0.092267014 -0.017875168
000380 55 af 77 3d de 2e 01 be 1a 82 99 bd 55 ea 8e bd
       0.060469944 -0.12615535 -0.07495518 -0.06978289
000390 4c ea be 3d a0 d6 07 3d f0 ef 91 bd 5a 73 11 3e
       0.09322032 0.033163667 -0.071258426 0.1420416
0003a0 ac 13 2e bd f7 10 bf 3d 33 88 65 3d d3 f9 88 bd
       -0.04249923 0.09329408 0.056038093 -0.06688275
0003b0 eb c5 99 3c 14 a5 b6 bc 33 fc b8 bb eb 1f 0b be
       0.018771132 -0.022295512 -0.005645299 -0.13586394
0003c0 cd f7 ee bd 31 d2 04 3e 18 6c ae 3c 73 c4 15 3d
       -0.11668358 0.12970807 0.021291777 0.0365643
0003d0 07 da 09 3e b7 7f 96 3c 09 ae 6d bd eb 3e 6e bc
       0.13462077 0.018371446 -0.0580273 -0.014541368
0003e0 f1 25 7c ba 05 41 d7 3d fa d2 00 bd ec ac c1 bc
       -0.0009618691 0.10510448 -0.031451203 -0.023642026
0003f0 69 08 95 3d ed 47 70 bd c1 9c 57 3d c7 9a 64 bd
       0.07276995 -0.058662344 0.052639727 -0.05581167

weight f4 [1, 64]
000000 3b cf ca bd 8a e0 cf bd 81 e8 26 3d 23 62 c2 3d
       -0.09902807 -0.10150249 0.040749077 0.09491374
000010 e4 92 8f 3d 1f 08 a6 bd 45 45 6a bd d2 2d 0e 3e
       0.07010439 -0.08107018 -0.057194967 0.13884667
000020 31 fd 11 3e 0d bb b1 bb e2 27 be 3d 90 72 f0 bd
       0.14256741 -0.0054239095 0.09284951 -0.11740601
000030 de 09 ad 3d 1c f0 c7 3d d6 fc 48 3c 30 a4 0f bd
       0.08449148 0.09762594 0.012267312 -0.03506869
000040 62 d1 e2 bd 96 d7 80 3d 73 fa e5 3d c7 4a a2 3d
       -0.11075093 0.0629112 0.1122941 0.07924419
000050 a1 64 c5 3d 97 b0 1f bd 4f 9a 02 3e 2c 56 3e bd
       0.09638334 -0.03898677 0.12754177 -0.0464689
000060 d9 7f 95 3d 79 cd 9d bd 11 6d 03 39 d5 a2 76 bc
       0.07299776 -0.077052064 0.00012533764 -0.015053471
000070 df be bd bc ad 28 7f bd 51 b4 71 3d 08 62 9b 3d
       -0.023162303 -0.06229465 0.059009854 0.07587057
000080 f7 9d 23 bd 50 73 eb 3d ab 3f 7e 3d b7 bb 12 bd
       -0.03994557 0.114966035 0.062072437 -0.03582355
000090 2b 68 ee 3d 53 89 9a 3d 58 c9 19 be f7 b5 d7 bd
       0.11640962 0.07545724 -0.15018213 -0.10532754
0000a0 e8 b7 31 bd b8 bc 99 3d 71 e3 cc bd 78 e0 6c bd
       -0.043388277 0.07506698 -0.100043185 -0.057831258
0000b0 2d 1a 4d 3c 96 6b 0b 3e 77 50 94 3d c1 67 8c 3d
       0.012518448 0.1361526 0.0724191 0.06855727
0000c0 25 8b ad 3d d7 09 88 bd 4a b7 13 be 8b a2 5a bb
       0.08473805 -0.06642502 -0.14425388 -0.0033361043
0000d0 a4 6e 16 be d7 4f b9 bc 20 3f 62 3d cb 73 28 bd
       -0.14690644 -0.022621078 0.055235982 -0.041126054
0000e0 b1 9b e8 3d f9 ab 0f 3e 5f a3 cf bd f7 7f fa bc
       0.11357821 0.14030446 -0.101385824 -0.030578597
0000f0 2a c6 37 3d 82 2b 01 3e 34 9a c2 bd b7 6c dd 3d
       0.04486672 0.12614253 -0.09502068 0.10811751
