model/3584.338711673326_weight.pth (torch, 131983 bytes, 7 tensors)

weight f4 [16, 32, 1]
00000000: f464 e43d d414 943e 0009 473e f6b8 b2bd
00000010: 9453 be3d b85f 14be 3685 b3bd b5d5 a53d
00000020: bb5d 23be fecd 313d 6ce4 8abd b439 983d
00000030: a3d7 cfbd 9d0d 993d 81c9 1c3e 1dac 1c3e
00000040: a28b 1d3e 347a c6bc 4537 cdbc 0e75 97bc
00000050: 487f 583d 6db2 e73d a16d 38bd 028a 87bd
00000060: f3ea 0b3d ce84 453c de5e 36bd cc7f 19be
00000070: 2fa0 d0bd 95ec 0cbe 7960 24be 8f8c 34be
00000080: 9bac 893e e55f a03e 3bf2 cc3c c664 a1bd
00000090: 147d e63d a920 ca3d f2cb 3dbe 43b1 21bd
000000a0: 7002 d0bd b848 de3d 7ba9 be3d 6a86 0bbe
000000b0: 2299 04be 19ee 21be defb 90bc c4d2 b3bd
000000c0: 9093 b8bd 7146 95bd 76b1 473c 722d e0bc
000000d0: d8af 943d 544b 65be 8129 1d3e a8a9 05be
000000e0: 74d4 f1bc 0c1b 863b 24dd e93d 4bbc 333c
000000f0: 4ac5 0a3e a352 1c3c afb9 f83c ec6d 4b3c
00000100: d840 0cbd f210 193d a88c a3bd b752 d3bd
00000110: 792b 2a3e fb5f b03d 6f2b dabd c2b3 743d
00000120: c113 8dbd b9a1 7ebd 8209 10bd f9c3 19bd
00000130: 93dc 2e3e 2cce 183e cab4 8e3d f09c c5bd
00000140: 2a7c dabd d66e 453e 84a4 97bd feb2 003e
00000150: 8bbe 363e 9266 a23d 3ab0 2d3e cb67 163e
00000160: d670 483d 9329 8ebd a6e5 a83d bd55 77ba
00000170: 559a 14be c3cb e43d 31ae 2f3e 5af8 6e3d
00000180: c7f6 88be 295f 2fbe 07c6 31bd a423 9c3d
00000190: 916e 18bc 494c 193e 27b9 2ebd 0f4a 8bbd
000001a0: eb21 09be 5daf 293e a545 36be e4d9 84bd
000001b0: 1a46 18be 768a 9e3d 7808 073e fe01 10be
000001c0: 1026 ba3d d5ef 31bd f1da 283e 93b4 94bb
000001d0: 3143 8cbd 1887 84bd 9b94 57bd d489 a8bd
000001e0: 9584 34bd 3845 dbbd e8ad 993d 3d72 fe3d
000001f0: 3be3 fabc e19a 913c 2d22 d03d 91df a13b
00000200: 4f7d bd3c 63e7 9abe 80e4 20be 985a bc3c
00000210: 3df1 3bbc 48e2 0abe 9ebb c93d d76c 28be
00000220: 6261 e6bb 3408 24be 1e07 b23d d7e1 8a3d
00000230: a76b d1bc 0048 2cbe 2b81 2dbd fe25 66bd
00000240: c0a7 e3bd ad5d 75be 631c eb3c c591 873c
00000250: e529 ed3d dae8 923d 830c 17be 6b7e e7bd
00000260: b326 26bd 458a c63d 9535 873d 01f4 e9bd
00000270: 37b5 ffbd 4c4c fd3b f847 58be 9e66 133e
00000280: 8c34 3d3d 51c1 c13d 16cf 043e 436c d3bd
00000290: 5604 e13c 5647 3dbe d0bb 0d3e 70b2 0d3e
000002a0: 3895 82bd 6348 e63d 3f92 123d b252 aebb
000002b0: 296d 9c3c 303b dcbc 3ef6 f0bb 852b c7bd
000002c0: 09bc 04bb 6c70 1abe 44e4 48be d2b5 6a3b
000002d0: 1449 a6bd 4af0 e1bd 68e9 153d 898f 3cbe
000002e0: e33c 8cbe 92c6 fc3d 8e5f 983d fc60 c73d
000002f0: deb7 bc3d 6c93 cc3d 09a1 01be 6b08 fa3d
00000300: d7c6 ccbd 9111 5ebd 3869 933b 48b6 05bd
00000310: a6a7 8c3c 7f40 023e 728f 653d 539c 773d
00000320: b16c 1bbe 861f e2bc ff8d 74bd f936 e3bd
00000330: c6dd 093e db89 9a3d c315 1bbe 7342 4ebd
00000340: f178 c03d ad90 0cbc df3a 75be 28a5 65bd
00000350: 9938 de3d 5a7f abbd ad3e ed3d aa6b c83c
00000360: d617 783d b734 5fbd b736 65be 84a7 693d
00000370: 3f35 38be 2893 b23d 8fcf e0bb c969 173d
00000380: 290a 72be 2b86 adbc 7016 8cbe c87c 1abe
00000390: 6a64 f83c 3ba2 843d cb31 133e 1adb f7bd
000003a0: a5e9 f7bc 8e5d 843c 74bc ea3d d73f 94bd
000003b0: 10a1 b63d 4116 283e 8940 c53d b675 ef3d
000003c0: 6e9b 0b3e 2f06 c13d ed71 5bbd b6a8 29be
000003d0: 938d b53c 5c88 7abd 44a9 81bc fb52 cbbd
000003e0: c1b5 143e 7e50 a53d f0c0 11bc e155 73bd
000003f0: 161a 12bd a1a7 023e 3bd4 cebd c431 55bd
0.11152068 0.2892214 0.19437027 -0.08726685 0.09293285 -0.14489639 -0.08765642 0.08097402
-0.15953724 0.04340934 -0.06781849 0.07432881 -0.10148551 0.074733 0.15311243 0.15300031
0.15385297 -0.024228193 -0.025050769 -0.018488433 0.05285576 0.11313329 -0.045026425 -0.0661812
0.034159612 0.012055589 -0.044524066 -0.14990157 -0.101868026 -0.13762124 -0.16052426 -0.17631744
0.268895 0.31323162 0.025017848 -0.07880549 0.112543255 0.09869511 -0.1853483 -0.03947569
-0.10156715 0.10853714 0.093096696 -0.13625494 -0.1294904 -0.15813483 -0.017698225 -0.08780435
-0.0901252 -0.07288826 0.012188306 -0.02736542 0.07260102 -0.22392017 0.15347864 -0.13053
-0.02952025 0.0040925797 0.11419132 0.0109701855 0.13551822 0.0095411865 0.030361978 0.012416344
-0.034241527 0.037369676 -0.079858124 -0.10318511 0.16618146 0.08612057 -0.106528156 0.059741743
-0.068885334 -0.06216595 -0.035165317 -0.03754041 0.1707633 0.14922398 0.069680765 -0.09649074
-0.10668214 0.19280562 -0.07404426 0.1256828 0.17846124 0.0792972 0.16961756 0.14688031
0.048935734 -0.069415234 0.08246927 -0.0009435078 -0.14511998 0.11171677 0.17156292 0.058342315
-0.26750776 -0.17126144 -0.043401744 0.076239854 -0.009303705 0.14970507 -0.042657044 -0.06801235
-0.13391845 0.16570802 -0.17800005 -0.06486872 -0.14870492 0.07741253 0.13186824 -0.1406326
0.09089291 -0.043441612 0.1648977 -0.0045381277 -0.06848753 -0.064710796 -0.052631956 -0.08229414
-0.044071753 -0.10706562 0.07503873 0.12424133 -0.03062593 0.017774047 0.101627685 0.0049399813
0.02313104 -0.3025466 -0.15712166 0.022992417 -0.01147109 -0.13562882 0.09850238 -0.16447769
-0.007030652 -0.16018754 0.08692764 0.06781357 -0.025564028 -0.16824341 -0.042359512 -0.056188576
-0.1111598 -0.23961516 0.02870006 0.016549 0.115802564 0.07173319 -0.14750867 -0.11303409
-0.04056425 0.096943416 0.06602017 -0.11423493 -0.12485736 0.0077300426 -0.21121204 0.14394614
0.04619269 0.094607 0.12969622 -0.10323384 0.027467888 -0.18484244 0.13841176 0.138376
-0.063761175 0.112442754 0.035784002 -0.0053199166 0.01909502 -0.026883692 -0.007353573 -0.097250976
-0.002025368 -0.15081948 -0.19618326 0.003581394 -0.08119407 -0.110321596 0.036599547 -0.1841413
-0.27390203 0.12342562 0.074401006 0.09735295 0.092147574 0.09989056 -0.12659086 0.12208637
-0.09998863 -0.05421597 0.004498627 -0.03264454 0.017169785 0.12719916 0.056045003 0.060451817
-0.15178181 -0.027602922 -0.05970573 -0.110944696 0.13463506 0.07545825 -0.1514502 -0.05035634
0.09398068 -0.008579415 -0.23948239 -0.05606571 0.10850639 -0.083739 0.1158422 0.0244654
0.060569607 -0.054493632 -0.22384153 0.05704452 -0.17989062 0.08719474 -0.0068606804 0.03696612
-0.23636688 -0.02118214 -0.27360868 -0.15086663 0.030321319 0.064762555 0.14374463 -0.12102337
-0.030262778 0.016157892 0.11461726 -0.07238739 0.08917439 0.16414739 0.0963145 0.116923735
0.1363351 0.094250076 -0.053575445 -0.16568264 0.022162234 -0.0611652 -0.015827782 -0.09927937
0.14522459 0.08071993 -0.008896098 -0.059408072 -0.03566941 0.12759258 -0.100990735 -0.052049413

bias f4 [16]
00000000: 6fd3 ea3d f7b7 0fbe 0d50 2ebe 715c 06be
00000010: 2483 9abd 9def ce3d 950c cbbd 8539 69bd
00000020: 7830 1f3d 806c 283e 41cf 0bbe a63f f0bd
00000030: 17ee 8b3c 4e46 523c c711 1a3c a709 9ebd
0.11466109 -0.14035021 -0.17022724 -0.13121201 -0.07544544 0.10104296 -0.09914509 -0.05693962
0.038864583 0.1644764 -0.1365328 -0.1173089 0.017081304 0.012834145 0.0094036525 -0.07716685

weight_ih_l0 f4 [320, 16]
00000000: 0ae0 32bd b205 36bc bc44 983d 7bf3 49bd
00000010: ecf1 e8bd f644 c9bc 128f 9a3d 1d01 943d
00000020: 6f3c cbbc a383 f6bd 13d2 6c3d ed5a 8038
00000030: 6798 573d 94c7 0a3e 5d5e 983d 896c 0e3d
00000040: 3e6c b4bd 98ce 47bd daf6 89bb c017 80bc
00000050: 9e89 8a3d e794 60bd f979 b83d 79d8 363e
00000060: d1c7 a7bc 1ce1 bd3d 1d47 47bc 92a0 d63d
00000070: eee9 8d3d 4a8e 0ebe b0b9 dbbd 7520 0bbe
00000080: e21e a03d 9776 50be eafd a43d e898 3ebc
00000090: 111c ab3d 388d 7a3d 598e c63d d947 653e
000000a0: 17d9 e93d 247d 01be 0e93 93bc 16cb 233d
000000b0: a394 34bd c4ad 2fbe d1e3 e0bd ab75 273e
000000c0: 727f 0cbe 2ab2 a4bd 68d6 8dbd 2297 e43d
000000d0: 4c05 c93d 064c b73d a0e6 6a3d caa9 9e3d
000000e0: b467 9ebd e3c2 aebd 6139 12be 69ba 05bc
000000f0: e59d a23d 62bd 62bd e85e 01be 9ba9 05bd
00000100: 1c3e b23b 8bb3 9f3c 7afa 7abb e307 663d
00000110: 5511 c5bd 84a6 413e 81ad 86bc e1b8 f83c
00000120: 7cb6 bf3d 5025 04be 3866 0d3d 1dda 29bd
00000130: 86e1 a2bd da27 e6bd 51f7 48bc b3a6 c63d
00000140: 07f4 943c c7c9 dbbd 3933 3e3d 61b8 0dbd
00000150: 63f4 f73d 1e52 313e 7dff 973c b846 31bd
00000160: d4bf b0bc 3f59 23bd a036 5fbd 8715 e1bd
00000170: dade b43d 819e d9bd 1b84 013d 5cfd 58bc
00000180: 8bc0 35bd 13fb a8bd a872 9e3d 009d 1bbd
00000190: 46fd 693c 971d ea3b 3239 38bd b685 7d3e
000001a0: e32e 06be ed68 24bd fe48 1ebe d269 873d
000001b0: ce44 1d3e 0973 603c 409a 6abd 6ecc b3bc
000001c0: 12aa 12bd dc45 91bc b583 903b 1541 cabb
000001d0: 097b 8bbc e7db 65bd de10 c63d 9d9d b1bc
000001e0: 2ff8 283c 170a e23c 86ed db3b a4db d93d
000001f0: 8b26 b03c 4e94 073e 1da5 303d 087e 9abb
00000200: 0473 4ebc d7a7 57bd 823c 743d b82d e6bd
00000210: 9f15 e8bd aa68 4b3d 0b9a b23d c3fa cfbd
00000220: 0e43 c4bc c3df abbc 2ea8 053d f36c 1fbe
00000230: f752 1dbe 38af 51bd fe3e 25bd 4248 5a3d
00000240: 8792 77bd da07 debd 3d31 193c 4a7d cc3d
00000250: e195 2b3d 8a0e 78bd 293c 38bc c0ef 943d
00000260: 15b7 ddbd 8551 a2bd 985d 323d 65fd fc3c
00000270: 07ff b1bb 95ad 793d fcc8 be3d d413 25bc
00000280: 04cc 9ebd 681e c23c 0f6a 703d 6011 6abc
00000290: a87b aa3b 96c0 e03d 8d25 52bb 8b93 6fbd
000002a0: 274c ad3d 6ca9 babc 21a3 953c 3dbf cc3c
000002b0: 7e62 ee3c c67c 2ebe 0702 ff3c 1894 c43c
000002c0: e0d7 ac3c e4ef c83d 425c c83d 1f27 153e
000002d0: ded9 ebbc 3236 e93d ecba 2ebd 7d4f 55be
000002e0: 721d 1fbe c016 a43d c01d acbd 6e9c 0ebd
000002f0: 3c1e 38bd 2c65 ccbc ff37 a4bd 975d bebd
00000300: b8f3 bbbd 394d 59be 7135 d7bc 0e32 083e
00000310: cf5f 833d 1175 03be c30d 103d 0386 993e
00000320: 131b d4bd f080 1d3d 6e3b 14bd 5e39 923c
00000330: 7b9a 223e f0b5 40bd b60f 77bd 611d 01be
00000340: dee6 dfbd 0cb8 33be b3a7 df3d 1bea 9b3d
00000350: 3dc9 a03b 8fe9 e93d 5b35 003e ba3b d83c
00000360: 0dae 4cbd b7d3 903d 572d 883b cc0b b4bd
00000370: bd75 86bd 4d87 44be a7e9 d43d 8290 2ebd
00000380: 3bf7 ccbd 1836 5dbd 1c6b 32bd 0659 123e
00000390: 143b 52bd c545 c4bd 05d2 9a3d 2508 c53d
000003a0: d51c 3c3d c5a9 b3bb e0a3 c9bd a4c3 3abd
000003b0: 1be0 2a3c 551e 923d d787 4abe b2c4 db3c
000003c0: bbac 263c 832d 21be f618 a43d 8341 343d
000003d0: 8537 fc3d bf57 1dbd 5a3f 003d ffd7 ea3d
000003e0: 9157 553d 650c 01be 659b 8ebd 2be9 57bc
000003f0: 90ea 7cbd 805c f5bd 180a ebbc 76d4 b63d
-0.04367069 -0.011109756 0.07434985 -0.049304467 -0.11374268 -0.024569016 0.0754682 0.07226775
-0.02480909 -0.120368265 0.05781753 6.120452e-05 0.052635577 0.13552696 0.07439873 0.034771476
-0.08809708 -0.048781008 -0.004210335 -0.015636325 0.0676453 -0.054829504 0.090076394 0.17856015
-0.020481022 0.09271452 -0.012162951 0.10479845 0.06929384 -0.13921466 -0.107287765 -0.135866
0.078183904 -0.20357738 0.08056243 -0.011633135 0.083549626 0.061169833 0.096951194 0.22390689
0.1141836 -0.12645394 -0.018014457 0.0399886 -0.044087064 -0.1715613 -0.109809525 0.1635348
-0.13720492 -0.080417946 -0.0692566 0.11161639 0.098154634 0.08950047 0.057348847 0.077472284
-0.077346236 -0.085332654 -0.14279701 -0.008162119 0.07940272 -0.05535639 -0.1263386 -0.03263245
0.005439533 0.019494792 -0.0038296268 0.056159865 -0.096224464 0.18911177 -0.016440155 0.030361595
0.09360978 -0.12904859 0.03452131 -0.041467775 -0.079531714 -0.1123807 -0.012265996 0.09699764
0.018182768 -0.10731845 0.04643557 -0.034599666 0.1210716 0.17316481 0.018554443 -0.043280333
-0.021575846 -0.039880034 -0.054495454 -0.10990434 0.08831568 -0.10625935 0.031620126 -0.013243999
-0.044373076 -0.082510136 0.07736713 -0.037991524 0.0142815765 0.0071446407 -0.04497642 0.24758038
-0.13103823 -0.040139128 -0.15457532 0.066119805 0.15358278 0.0136993015 -0.05727601 -0.021948066
-0.035806723 -0.017733507 0.004410232 -0.006172309 -0.017026441 -0.05611792 0.09671186 -0.021681601
0.010313078 0.027592702 0.0067116646 0.10637596 0.021502754 0.13240167 0.043126214 -0.004714731
-0.012600664 -0.0526503 0.059628017 -0.11239189 -0.11332249 0.049660362 0.087207876 -0.10155251
-0.023957755 -0.020980721 0.03263109 -0.15568905 -0.1536368 -0.051192492 -0.040343277 0.053291567
-0.060442474 -0.10841341 0.009350118 0.099848345 0.041890983 -0.06056074 -0.011244812 0.07272291
-0.10825936 -0.07925705 0.04354629 0.030882547 -0.005432013 0.060956556 0.093156785 -0.010075528
-0.07753757 0.02369614 0.058694895 -0.014286369 0.0052027293 0.10974233 -0.003206584 -0.058490317
0.084617905 -0.022785865 0.018266262 0.024993533 0.0290997 -0.17039785 0.031128896 0.023996398
0.021099031 0.098113805 0.09783222 0.14565705 -0.02879041 0.1138729 -0.04265873 -0.20831104
-0.15538576 0.08012152 -0.08404112 -0.03481715 -0.04495071 -0.024950586 -0.08018493 -0.092951946
-0.09177345 -0.21220864 -0.0262706 0.13300344 0.064147584 -0.12837626 0.035169374 0.29985055
-0.103567265 0.038453043 -0.03618949 0.01784962 0.15879242 -0.04704851 -0.060317717 -0.12608863
-0.10932706 -0.17550677 0.10920658 0.076130114 0.004906802 0.11421501 0.12520353 0.026395667
-0.049970675 0.070716314 0.0041557956 -0.087913126 -0.065654255 -0.19192238 0.10396128 -0.042618282
-0.10008093 -0.054006666 -0.04355918 0.14291772 -0.051325873 -0.0958362 0.07559589 0.09620694
0.045925934 -0.0054828846 -0.0984571 -0.045596734 0.0104294075 0.071346916 -0.19778381 0.02682719
0.010173018 -0.15740018 0.080125734 0.04400779 0.12315277 -0.03841376 0.031310417 0.11466979
0.052085463 -0.12602384 -0.06963233 -0.01317815 -0.061747134 -0.119805336 -0.028691337 0.089272425

weight_hh_l0 f4 [320, 80]
00000000: 95b5 c2bc 5a6f 003c bf19 20bd 26e8 953d
00000010: 44b8 42bd 2899 13bd 40ee f9bc 1a0a f53d
00000020: 5c9f 9d3d e85f 383c 2271 bb3c 40fe 03bd
00000030: 2b49 1fbd 5f2c f2bd 5fe5 8cbd 0029 90bd
00000040: 6aa6 c0bc 67ac ca3b 19e8 333d fc79 89bd
00000050: 193d c9bd d306 88bd 96bc 11be ec82 84bd
00000060: 323c 71ba 0a31 7d3d 9833 023e 1b28 72bd
00000070: f4d1 4fbd 926a 74bc a227 ae3d 1d55 d63d
00000080: 4439 8ebd 441e f5bc 68ff 323d 9bd4 e43a
00000090: 1379 4e3b 06e1 b53c ea22 ee3d dfc9 c1bc
000000a0: ee2f c2bc ed71 bc3d c7ef ebbb e33a e8bc
000000b0: 21ac 923c 7aa9 8ebd 6f7d ab3d ea89 89bd
000000c0: 1b9c 0c3d d296 2ebd af10 a0bd 9d9d e33d
000000d0: c5e7 233d 2fb9 45bd 9577 a0bd b93a 203b
000000e0: 34cf 21ba 96cc dd3c ef5b 1ebc 98c8 033d
000000f0: b458 2d3d 25f4 0abe 35d0 f7bd 577f 273d
00000100: 60fe 22bc 386a 60bd 1f5b b43d 0fd3 76bd
00000110: b918 bcbd 3c16 b23d 9479 ad3d d7ed 9dbd
00000120: a566 d93d ece4 383c 9657 e4bd db58 6ebd
00000130: d6e8 88bc 43de 7ebd f132 a7bc 4cf0 ad3d
00000140: 6e50 c5bd e012 d23d 70ba 853b 6d6f ab3c
00000150: eca7 b23c 37d4 41bd 7a4d 713d 7a5b 73bd
00000160: b0ea 8d3b 811d 6b3c 5149 dcbc b449 91bd
00000170: fc34 94bb 3c5b a03d 4e58 0c3e 1090 89bd
00000180: b02c 71bd 1722 5a3d b023 f3bd be74 e63d
00000190: b2e8 f1bc 02f9 db3c f6b0 c03c ca21 29bd
000001a0: 8aae 96bd e854 9cbd eb09 b63d 0a6b 87bc
000001b0: fab0 b5bc 4db4 7a3d 2ef7 683c ad68 f53c
000001c0: ab44 493c 5b9d 9c3d d4d9 cbbd 91a1 06bd
000001d0: 553e 823d ba31 943d 1205 debd 0834 99bd
000001e0: 4128 983d e1ff c23c 578a 573d 51a4 5fbc
000001f0: 042b 333d 43f4 f2bd d7d4 5cbd d559 183c
00000200: daa2 c2bd 04d7 4bbc a6f7 84bd 7af5 2fbd
00000210: 63a5 01bd 33a4 363b bc5c 693d ef33 283d
00000220: 4ff2 c33d 86e8 803c 9b3b d03d e70f bebc
00000230: 81d8 a23d 7e41 a93d 10c2 97bc 8a5f 9ebd
00000240: 783b e3bc ebef 98bd ad06 64bd a213 29bd
00000250: 3770 063e 95ee 83bd eb78 2abd 3f46 933d
00000260: b30c 503d dc25 57bd 58f0 47bd 58e6 c0bd
00000270: 0003 cf3d 1c87 c1bd 1a9e 6abd 8989 743c
00000280: 14c5 a2bd 8e46 9fbd aa17 55bd 4179 313d
00000290: bb2e 073e e3b9 a8bc 4572 61bd 0864 b3bd
000002a0: da3d 993d e380 4d3d a46c e83c 720d cf3d
000002b0: 3621 9fbd ac63 22bb 3911 14bd 6a88 12be
000002c0: ff73 7c3d 6dbd 8b3d a872 a63d 1db1 48bd
000002d0: 3247 8bbd c1bf a53d e9b2 a33d b8d4 21bd
000002e0: 6e94 943b 59ed adbc 4403 8f3d 94d8 e43d
000002f0: fe7c 8a3d 158f 8a3c 46a6 a53d 18b7 e93d
00000300: 4a8a 24bd 7e8c 02be ec98 983d ace9 103d
00000310: 817a a33d 1678 c3bd fc01 f0bd 9a52 ca3d
00000320: 7e4f 4ebd bc97 60bc 8849 78bd 76e0 8fbd
00000330: ccdc 97bd 0ff6 b13c 84f5 b3bd a8d4 a4bd
00000340: b19a 033d ecb0 82bd 1e0a debc f4a3 01be
00000350: 5b27 4a3d 3bb0 f0bb 1ce3 943d 68ea 933d
00000360: 71f2 b0bb 49ef e93c 6dc7 1e3d 8d12 323d
00000370: c230 8dbb d5f2 e2bd 24b7 f43d 01f0 c0bc
00000380: 693a d0bd f340 4cbd 168b 943c e0e4 bc3d
00000390: e06c c13d b10f a73d 437d a93c 72c9 7c3d
000003a0: 4b82 e0bd ee40 883d ede1 d53d a33a bdbd
000003b0: cde1 63bd 9053 733d d6a5 c13d 863f e23d
000003c0: 5350 8dbd 014f a5bd 61a3 143c c42a 93bd
000003d0: ac6f c03d 0f84 7fbd e7cc a33d 3019 383d
000003e0: 1da5 2ebd 2764 66bc 50d9 c9bd 348f 86bd
000003f0: 1b06 9d3d f9e1 7cbd 842f a83d fce3 26bd
-0.023768226 0.007839048 -0.039087053 0.073196694 -0.04753901 -0.036034733 -0.030509114 0.11964817
0.07696411 0.011253335 0.022881094 -0.032224894 -0.038888138 -0.11824869 -0.068796866 -0.0703907
-0.023516852 0.0061851027 0.043922517 -0.0671272 -0.098261066 -0.066419266 -0.14232096 -0.06470284
-0.000920239 0.061814345 0.12714994 -0.05912028 -0.050737336 -0.0149179865 0.08503653 0.10465453
-0.06944516 -0.029921658 0.043700606 0.0017458381 0.0031505271 0.022202026 0.11627753 -0.02365583
-0.023704495 0.09201417 -0.0072002145 -0.028348392 0.017904343 -0.06965919 0.08373534 -0.06715758
0.03432856 -0.042624302 -0.07815682 0.11114047 0.040015955 -0.048272308 -0.078353085 0.0024449064
-0.0006172538 0.027075093 -0.009665473 0.032173723 0.042320922 -0.13569696 -0.12100259 0.040892925
-0.009948343 -0.054788798 0.088064425 -0.060259875 -0.09184403 0.08695647 0.08470455 -0.0771138
0.10615281 0.011285048 -0.11149518 -0.058190208 -0.016712587 -0.062223684 -0.020410033 0.084930986
-0.09634481 0.10257506 0.004081063 0.020927155 0.021808587 -0.047321524 0.058911778 -0.05941341
0.0043309554 0.014350296 -0.026890429 -0.07094136 -0.004522918 0.078299016 0.1370556 -0.06716931
-0.058880508 0.053255167 -0.11872041 0.112527356 -0.029529903 0.026852135 0.023521882 -0.04129199
-0.073575094 -0.07633382 0.088886105 -0.016530532 -0.022179116 0.061207104 0.0142190885 0.02995714
0.012284438 0.07647201 -0.09953657 -0.032868925 0.06359545 0.07236047 -0.10840811 -0.07480627
0.07429553 0.023803653 0.052622166 -0.013650016 0.043742195 -0.118629955 -0.053913917 0.009298761
-0.09503718 -0.0124414 -0.06492548 -0.042958714 -0.031651866 0.0027868866 0.056973204 0.041065153
0.09567701 0.015735876 0.10167619 -0.023200942 0.07951451 0.08264445 -0.018525153 -0.077330664
-0.027738318 -0.07467636 -0.05567043 -0.04127849 0.13128744 -0.0644199 -0.041619223 0.07191133
0.05079336 -0.05252634 -0.048813194 -0.094189346 0.10107994 -0.09449598 -0.057279684 0.014925369
-0.07947746 -0.07777129 -0.05202452 0.043328527 0.1320142 -0.02059645 -0.055040617 -0.08759314
0.074825004 0.050171744 0.028372116 0.10109986 -0.07770006 -0.0024778647 -0.036149237 -0.1430985
0.06163406 0.068232395 0.08127338 -0.048997033 -0.06800689 0.08093215 0.07993109 -0.039509505
0.0045342958 -0.02123134 0.06983045 0.111741215 0.067621216 0.01691393 0.08088355 0.114118755
-0.040170945 -0.12748906 0.074510425 0.035379097 0.0798235 -0.09544389 -0.117191285 0.09879036
-0.05036878 -0.013708051 -0.060617 -0.070252344 -0.074151605 0.021723775 -0.08787063 -0.080483735
0.032129947 -0.063814014 -0.027104434 -0.126602 0.04935394 -0.007345227 0.0726988 0.07222444
-0.005399995 0.028556483 0.038764406 0.043474723 -0.004308791 -0.11081473 0.11948994 -0.023551943
-0.10167391 -0.049866628 0.018132728 0.09223342 0.094445944 0.0815729 0.020689612 0.06171555
-0.109623514 0.06653009 0.104434825 -0.092397 -0.055635262 0.059405863 0.09455459 0.110472724
-0.06900086 -0.080717094 0.009072156 -0.07185891 0.093963 -0.0623818 0.079980664 0.044945896
-0.042637933 -0.014061964 -0.09855902 -0.065702826 0.0766718 -0.06173894 0.08212188 -0.040744767

bias_ih_l0 f4 [320]
00000000: d209 b73d f164 d73d 09de 0abe f6cd e33d
00000010: f56e bebd 0f80 643c be61 963b 98f0 e13b
00000020: 6b9d c7bd 5206 f43d 72b8 e8bd 34db 883c
00000030: b0f4 b93b c460 433d ed84 91bd 7ce8 ae3a
00000040: 78af 7f3c d7e9 033e d3d1 003d 3178 053b
00000050: 06c2 febb 0717 fd3c 70a4 f9bb a245 b3bd
00000060: 4a83 f23d 9f63 01bc c5f3 8bbc 37bf 2ebd
00000070: 7cd4 e43b e596 d73d a994 8f3d 4dbd d13d
00000080: b432 84bd e48b b5bd fbf3 093e 21de 56bb
00000090: 5119 0ebd 33b7 293e 33d4 21bd f628 023d
000000a0: 1151 81bd 62d7 f63a 0dea e93d 7ae6 b5bd
000000b0: 02b7 af3d 0a00 ac3d fdba c63d 81cc b33d
000000c0: f67c ac3d 7537 dbbc 1251 13bd afcd 8bbd
000000d0: 19df 8f3d 2fe4 843d bca8 953d 6f1c 903d
000000e0: a981 913d 9872 993d c634 033e 6dbc f3bd
000000f0: 515a 4c3d 9357 81bd 5032 983d 3c46 983d
00000100: 1839 af3d dfbe ddbd 9e73 083d bf01 0fbd
00000110: cfcb c23d f82f 043d 077a c53c 0601 b5bd
00000120: a6c9 983d 1d5c b9bc c215 923c a191 263d
00000130: 7319 24bd 693f 76bd b6e0 b6bc 9bec 83bc
00000140: 9acb f63b 43b3 8b3d 968f 8cbd 030e 9cbd
00000150: 6396 04be 830f 903d 5665 b33d 1f2b 383c
00000160: 2f02 c2bc 6333 34bd 9c48 c3bc 75a4 c5bd
00000170: fd8b 5f3d 5a41 0abe 8a99 bfbd e20c 983c
00000180: 3618 47be a57d 293c 190b 5fbd cedd d9bb
00000190: b29f 8cbd 1114 6ebd e83e 83bd bc33 e7bc
000001a0: b536 8a3d 13b2 0fbd d166 be3c fbc1 ac3d
000001b0: 37c4 aa3d efb2 543d fe04 8d3d b437 ec3c
000001c0: 33ef 98bd fe43 1ebd 46e1 a1bd 77b4 c3bd
000001d0: 71b1 bcbd 755c 3cbe 2427 80bd 18dd b1bd
000001e0: 406b 10be f1ba c03d a996 673d 6dba 343b
000001f0: 1132 6dbd f2cf e7bd 93b0 dcbd b95a 60bd
00000200: 35fc c9bd c8d7 e7bd 4680 7fbb 1ff1 c6ba
00000210: a4d8 1e3d 79bf e83c 6ae7 4e3c a375 3abc
00000220: d055 b6bd 7926 4d3d 16e7 fcbb dd17 7ebd
00000230: 3fa8 803d 824a c2bd 1186 093c 65de d6bd
00000240: 2c9e 25b8 27c0 e4bc 6423 92bb 5e9a c4bc
00000250: 3d73 05be 1559 34bd b0ca 073d 7402 303d
00000260: 92ee a5bd 862c b0bd b985 bd3d 343e 283d
00000270: a95c 843d 11bc eebd dce1 0c3d 2faa 16be
00000280: cff8 d93d 16b3 19be d5dd 473d f901 b03d
00000290: 2504 e33d 44b0 a43d c8d6 843d f4e4 83bd
000002a0: b690 763d c428 36bd d1b5 c13c d45d 4cbd
000002b0: ae6a 0ebe f37b 23bd a547 b13d e436 993d
000002c0: 065e 4dbc 1400 7f3c 009a 9e3d 3403 a1bd
000002d0: f1db 1bbd 5ef7 82bd 919c 13bd 5703 d5bd
000002e0: 4a4b d5bb 6a8e 9c3d 9c95 babd 8576 ab3c
000002f0: 7f83 abbc be34 0b3d fa6b 9e3d a761 51bd
00000300: 6d8f 3dbd eccb 34bd faf3 a6bc 51d6 8c3d
00000310: fd88 a5bd cd77 bcbd 07c9 c1bd d500 55bd
00000320: 5a98 a3bc 6aa4 9bbd b804 b3bd a9a1 6ebd
00000330: b11b 04bd d274 4ebd 4731 86bd 55ba 7a3d
00000340: 065b 2e3d fbbd a4bd 1bc9 a2bd 8a38 eebd
00000350: 5de6 3e3d a4f5 373c 1873 f4bd d823 08be
00000360: 463f 83bd 0eaa d8bc 0a72 a3bc 3c6a 893c
00000370: 3297 07be 522d 7f3d 9878 b73d da3d e2bd
00000380: a777 14bd a138 8dbd 7114 d6bc 037d b2bd
00000390: 3ed2 053c fc9d 093e b72c b33d 4afb cc3d
000003a0: 9764 883d 1ac1 2b3b af2d 5abd f6a6 b03c
000003b0: 858b 9ebd ee9d 893d 1610 d4bc 2ee4 0c3d
000003c0: a10b 05bd 7817 53bd 2775 65bd 4c53 8e3d
000003d0: 54e3 b4bd 2e47 03be 2f2a 79bc 172e d3bd
000003e0: 7262 d6bd fb79 b9bd fc8f 063d d7e2 b93d
000003f0: 564d 093e 7132 28ba 39b8 8e3d ae09 1fbc
0.0893742 0.105173 -0.13561262 0.11123268 -0.09298507 0.013946547 0.0045892885 0.006895136
-0.09746822 0.11915268 -0.11363305 0.016706087 0.005674921 0.047699705 -0.07105432 0.0013344432
0.0156058 0.12882172 0.031450104 0.002036583 -0.0077745942 0.03089477 -0.0076184794 -0.08753516
0.11841448 -0.007897287 -0.017084012 -0.042662825 0.006983338 0.10526828 0.070107765 0.102411844
-0.06454983 -0.08864573 0.13471977 -0.0032786208 -0.034692112 0.16573791 -0.03950901 0.031777345
-0.0631429 0.00188325 0.11421595 -0.088818505 0.08579828 0.08398445 0.09703634 0.087792404
0.08422272 -0.026759842 -0.035965987 -0.068263404 0.070249744 0.06488835 0.07307574 0.07036673
0.07104809 0.0749256 0.128131 -0.11901174 0.04989082 -0.063155316 0.07431471 0.07435271
0.08555812 -0.108274214 0.033313386 -0.034913775 0.0951153 0.03227231 0.024106039 -0.08838086
0.074603364 -0.02262693 0.01783264 0.040666226 -0.040063333 -0.060119066 -0.022323947 -0.016104033
0.0075315954 0.06821301 -0.06863324 -0.0761986 -0.12947993 0.070342086 0.08759563 0.01124075
-0.023682682 -0.04399432 -0.023838334 -0.09650508 0.054576863 -0.13501492 -0.09355457 0.01856083
-0.1944283 0.010344897 -0.054453943 -0.0066487556 -0.06866397 -0.058124606 -0.06408483 -0.028222911
0.06748716 -0.035081934 0.023242386 0.08435436 0.08338206 0.051928457 0.06885718 0.028835155
-0.07467499 -0.03863906 -0.079042956 -0.09555905 -0.09213532 -0.18394645 -0.062574655 -0.086847484
-0.14103413 0.09410656 0.056540165 0.0027576939 -0.057909075 -0.11318959 -0.10775866 -0.05477402
-0.09862558 -0.11320454 -0.003898637 -0.0015178061 0.038780823 0.028411614 0.012628416 -0.011380586
-0.08903086 0.05008552 -0.0077179773 -0.062034477 0.062820904 -0.094868675 0.00839378 -0.10491637
-3.9486375e-05 -0.027923657 -0.0044597853 -0.02399939 -0.13032241 -0.044030268 0.033152282 0.04297109
-0.08102144 -0.08602242 0.09254021 0.041074947 0.06462986 -0.116569646 0.034395084 -0.14713357
0.106431596 -0.15009722 0.04879554 0.08594126 0.11084775 0.080414325 0.06486279 -0.06440154
0.0601966 -0.04447247 0.023646267 -0.04989417 -0.13907883 -0.03991313 0.08656243 0.07481173
-0.012534624 0.0155639835 0.07744217 -0.07861939 -0.03805155 -0.06394838 -0.036037985 -0.10401028
-0.0065092193 0.07644351 -0.09110567 0.020930538 -0.020936726 0.033985846 0.07735439 -0.05111852
-0.04627936 -0.044139788 -0.020380009 0.06876815 -0.08082769 -0.09202538 -0.09462171 -0.052002747
-0.019970108 -0.07599719 -0.087411344 -0.05825964 -0.03225297 -0.050404377 -0.06552368 0.061212856
0.042567275 -0.080440484 -0.07948514 -0.11631878 0.04660641 0.011227999 -0.11936015 -0.13294923
-0.06408553 -0.026448276 -0.019951839 0.01677429 -0.1324127 0.06229908 0.08958548 -0.110469535
-0.036246922 -0.06895567 -0.026132794 -0.0871525 0.008167801 0.13439173 0.08748763 0.10008867
0.06659811 0.0026207627 -0.053266224 0.021563988 -0.07741455 0.06719576 -0.025886577 0.034397297
-0.032481793 -0.051536053 -0.05601993 0.06949481 -0.08832422 -0.12820122 -0.015207811 -0.10311525
-0.10467996 -0.09056469 0.032852158 0.090764694 0.13408408 -0.0006416208 0.069687314 -0.009706898

bias_hh_l0 f4 [320]
00000000: b2ab 90bd e838 683d 75a9 e5bd fe9e eebc
00000010: 9658 0bbe 509f 1a3b 6042 083e a10b 363d
00000020: 9f86 01be 57c3 9c3d c011 fc3c 3e0a 2e3d
00000030: 4d83 06bd 5be1 82bd 400d e43c 26cd 813d
00000040: 4ba4 cf3d 987d 8dbd 576a 0c3c 9616 c83b
00000050: 117f f6bd 35ce e4bd 6082 023e 85ef e5bd
00000060: fe1d df3d a255 a03d 9e07 dcbd 9526 063c
00000070: 99c0 f73b 9bb4 8d3d 2f76 ca3d 7ebe c5bc
00000080: 5ed5 64bd 0fb7 c13b f817 363c d6d6 923b
00000090: 7328 e83b 56fb 793e 35ea d33d f7da 87bd
000000a0: 64e0 9bbd 9aef 723d 096f 8dbc 5986 b9ba
000000b0: b56e e9bb 86d4 af3b 49fd ad3d e92d c33d
000000c0: 7ac9 013e c8a3 45bc d027 51bb 2416 38be
000000d0: f764 1ebd 4bf7 3d3d 91a3 2cbc a6e0 273d
000000e0: 4ec8 423b c17b b4bc 55f8 993a fa3e 073d
000000f0: 035e cabd 285c 8a3d 552b a43c 1761 173d
00000100: 3e72 71bd 2326 b43d b701 a83d 6063 183d
00000110: 0c91 97bd e653 aabc 0ecb fabd 3223 ffbc
00000120: d251 603d e730 06bd 76d7 36bb 4f15 a03d
00000130: ccc4 2bbe c0db fabd b891 ed3d cfb4 423b
00000140: e6c9 80bc 8773 1ebd 1ef8 fe3c 55d2 093d
00000150: 045e 27bd 2bb4 d1bd 6453 a5bd e1cb 86bd
00000160: 83a4 e0bd 5e04 debd aea4 713a 59be d5bd
00000170: 27fe d1bb 4b7d 653d d137 adbd 3a74 303b
00000180: ba42 acbd ca4d c1bd a406 a3bd 0ffd e2bd
00000190: 6c29 62bd a438 4abe d5d2 353d ef33 f7bd
000001a0: efa6 0cbd f035 76bc c863 eebc a45e dcbd
000001b0: da10 f93c 8025 e7bc 4865 a7bd 96b1 bbbc
000001c0: 4e41 2ebd 696d bc3c f487 00be 8acf bfbc
000001d0: 3e94 28be 43bc 38bd 41ba 433d b128 7e3c
000001e0: 7252 eabc 205b ad3d 916b f3bd eef9 babd
000001f0: deab 813c 9a36 9cbd 6a88 433d fab7 c63c
00000200: 1286 b6bd 2720 c0bd 8057 993b 3ad0 f7bd
00000210: 927a 02bd d617 023d acd2 0bbe 9158 5cbd
00000220: 276f f53c 6b08 6ebd 6da0 22bc 2317 8a3c
00000230: eadb 2c3d 374e 06be 5e92 72bb 91dc 4d3d
00000240: 91d4 04be 5e31 1abe 947d 67bd aa93 dc3c
00000250: 30bb 563d 72ec 70bd a897 603d 6236 6abd
00000260: 312c 24be 197e 5e3d 3d65 3d3c a883 85bd
00000270: 3b01 8cbd 74be b7bd c268 e3bd 3f76 863d
00000280: c258 8d3b f8ee a3bd 9f72 45bd aba5 133d
00000290: 69e0 9abd a75b 6bbb bae9 a1bd f61b 98bd
000002a0: 29b8 363d 5644 b43c e1ae a7bd 1491 c33d
000002b0: e2fd c9bd 8830 f5ba 67c1 223d c9b6 a5bd
000002c0: 9cee 20bd f66d fabc c21e d13a 317b 503d
000002d0: fdfb f1bb a7ac 973c c63a cd3d ff6f 723d
000002e0: 1267 083e de7a 8fbd 32d0 283c 973b 80bc
000002f0: f53a 03bd 6200 7ebd ae72 f13d 3abc b0bd
00000300: 79f2 be3d 6c1a 34bd 4678 febd 8ff6 1cbd
00000310: 09b5 0e3c 07d2 f5bd 9431 58bd 9c23 9abd
00000320: 85f8 a73d 9038 abbd 205a 21bc 57d6 093d
00000330: 1086 d83d 3ee2 ecbd 1a40 ddbd 94b8 81bc
00000340: ad4b a3bd 6c7b f33d 0d53 fdbb ec68 f2bb
00000350: d0cb 043e 46cd 90bd 1552 b4bd 9daa 58bd
00000360: 8d2f 283c f7da 0bbd 76a3 99bc 6c4b e23c
00000370: a95f 8ebc 7c05 ccbd ff31 25bd 5e9a 413d
00000380: cadd 563b 1b91 babd 5c07 edbd 93ed 80bd
00000390: 3047 3bbd 7b28 05bd 28f3 d3bd 748f 523d
000003a0: 32be c03d 40d4 0a3e fbdb 02be b369 1c3e
000003b0: f164 b43d 2a4d c83d b100 e7bc d9c5 8cbd
000003c0: 0034 62bd f8b0 b63d 0a7d 4abc 6196 3ebd
000003d0: 95d7 29be 85ce 94bb 5a73 e6bc a8dd 05be
000003e0: 13dd 83bd a29e 9c3d 5262 483d 0ce0 753d
000003f0: 3280 9abd bdd4 2a3b 29eb 84bd 9f26 87bd
-0.07063998 0.056694895 -0.11213962 -0.029128548 -0.13608012 0.0023593493 0.1330657 0.044444684
-0.1264901 0.076544456 0.030770183 0.042490236 -0.032840062 -0.063906394 0.02783835 0.06337957
0.10138758 -0.06908721 0.008570275 0.006106208 -0.12035955 -0.11172143 0.12745047 -0.11227325
0.108943924 0.07828833 -0.1074364 0.00818791 0.007560801 0.069192134 0.09885823 -0.024138685
-0.055867545 0.005911715 0.011114113 0.004481177 0.0070849 0.24412283 0.10347406 -0.06633561
-0.076111585 0.059310533 -0.01726486 -0.0014154419 -0.007123793 0.005365911 0.08495576 0.09530241
0.12674513 -0.012062974 -0.00319146 -0.17977196 -0.038670506 0.046378415 -0.010537044 0.040985726
0.0029721442 -0.022031667 0.0011746982 0.033019044 -0.098812126 0.06755859 0.020040194 0.036957826
-0.05894684 0.087963365 0.08203452 0.037204146 -0.07400712 -0.020791959 -0.12245761 -0.031144712
0.05476553 -0.03276148 -0.002789942 0.07816564 -0.16774291 -0.12248945 0.11600059 0.002970982
-0.015721273 -0.038684394 0.03112417 0.033647854 -0.040861145 -0.102394424 -0.08072546 -0.065818556
-0.10968878 -0.10840677 0.00092179596 -0.104366966 -0.006408471 0.05602769 -0.08457912 0.0026924745
-0.084111646 -0.09438665 -0.07960251 -0.11083423 -0.055215284 -0.19748169 0.04439052 -0.120704524
-0.034338888 -0.015027508 -0.029100314 -0.10760239 0.030403543 -0.028216124 -0.08173615 -0.022911828
-0.04254275 0.02300139 -0.12551862 -0.023414392 -0.164628 -0.045101415 0.047785047 0.015512631
-0.028603766 0.08464646 -0.11885751 -0.091297016 0.015829023 -0.07627602 0.047737516 0.024257649
-0.08912291 -0.093811326 0.0046796203 -0.12100263 -0.031855173 0.031761013 -0.13654584 -0.0537954
0.029960228 -0.058113497 -0.009925944 0.016856736 0.042201914 -0.13115774 -0.0037013511 0.050259177
-0.12971713 -0.15057895 -0.056516245 0.02692588 0.05242461 -0.05881924 0.05483213 -0.05718077
-0.16032483 0.054319475 0.011559782 -0.06519252 -0.06836172 -0.08971873 -0.11103965 0.065655224
0.0043135593 -0.08004564 -0.048205014 0.036046665 -0.07562334 -0.0035912783 -0.07905908 -0.07427208
0.044609223 0.022005241 -0.081876524 0.09549156 -0.098628774 -0.001870648 0.039735224 -0.08091504
-0.039290056 -0.030570012 0.0015954601 0.050898734 -0.0073847757 0.018514944 0.10020976 0.05918884
0.13320568 -0.07005857 0.010303544 -0.015653415 -0.032038648 -0.062012084 0.117894515 -0.08629651
0.09323592 -0.04397051 -0.12425284 -0.038321074 0.008710154 -0.1200295 -0.052781656 -0.07526323
0.08201698 -0.08360398 -0.009848148 0.033651676 0.105724454 -0.1156659 -0.10803242 -0.015835084
-0.079734184 0.11888775 -0.0077308477 -0.0073977616 0.12968373 -0.07070403 -0.088047184 -0.052897085
0.010265243 -0.034144368 -0.018754702 0.027623855 -0.017379599 -0.099619836 -0.040330883 0.047266357
0.0032786005 -0.09109708 -0.11573669 -0.06295314 -0.045722187 -0.03250931 -0.10349113 0.05140634
0.09411277 0.1355753 -0.12779228 0.15274696 0.088083155 0.09780343 -0.028198572 -0.06873674
-0.055225372 0.08920473 -0.012358913 -0.04653013 -0.16586144 -0.0045412206 -0.028131176 -0.13072836
-0.06438651 0.07647444 0.04892189 0.06002812 -0.075439826 0.0026066743 -0.06490166 -0.06599163

weight f4 [1, 80]
00000000: 859a 6abc a5fc 9f3d 67db a0bb d812 07be
00000010: 02f9 3dbd 9105 b63d f09f 08be ce81 32bc
00000020: 5eeb fdba dca0 a13d 95ed 62bd 8b8b ac3d
00000030: 5693 bb3d b1c4 423d ab7f 4cbd ab80 77bd
00000040: f041 123d 7a93 ab3d 0d76 d3bd 03cb 05bd
00000050: 9a43 31bb ab11 61bd 1ea2 febd 5ac1 b9bb
00000060: 9686 16bd c98e 0fbe 0304 bb3d e985 c43c
00000070: bf47 8abd d523 4e3d 8db9 7cbd 7e8f 273c
00000080: f6c1 28bd b26d df3d 453f c73d aec2 ba3d
00000090: bba0 b0bd 50d6 5dbd 9df6 ac3d ac3e b3bc
000000a0: fdae 333d d7dc e03d 9bf0 c33d f4d2 9fbd
000000b0: c8a0 04be c41a 993d 6d59 873d 5695 a53c
000000c0: ea28 46bd 58fc 92bd c74e 773d 3128 ce3c
000000d0: 4f16 abbd afc9 483d 45bd dc3c 3f8f d03d
000000e0: 7394 823d a22b 663d 5627 b03d 75d2 71bb
000000f0: f035 823d 4d5b 96bd 108f cb3d ecf5 b73d
00000100: 6bce 033e 760f 933d 8cf3 d6bd 5c3e 733d
00000110: 1ab8 d1bd 4727 e0bd a581 b23d 3537 d5bd
00000120: 941b 96bd 124d 08be ae6c 4d3d 5683 04be
00000130: 7a41 aebc 1788 933d 612f 983d d628 a0bd
-0.014319067 0.0781186 -0.0049089673 -0.13190782 -0.04638005 0.088877805 -0.13342261 -0.010895206
-0.0019372513 0.078920096 -0.055402357 0.08425053 0.091589615 0.04755086 -0.04992644 -0.06042544
0.035707414 0.08377738 -0.10325251 -0.03266431 -0.002704835 -0.05494849 -0.12433265 -0.0056688013
-0.036749445 -0.14019312 0.091316245 0.023989635 -0.06751966 0.05032714 -0.061700393 0.010227082
-0.0412006 0.109095946 0.097288646 0.091191635 -0.08624407 -0.054159462 0.08445475 -0.02188047
0.043868054 0.10979622 0.09567376 -0.07803908 -0.12951958 0.07475808 0.066088535 0.02021281
-0.048378862 -0.07177037 0.060377862 0.02516565 -0.083538644 0.049020465 0.02694572 0.10183572
0.06375971 0.056193955 0.08601253 -0.0036899124 0.06357944 -0.07341633 0.099393964 0.08982453
0.12871711 0.07180683 -0.10495672 0.059385642 -0.10240193 -0.109449916 0.08716134 -0.104109205
-0.07329479 -0.1331065 0.050152473 -0.12940726 -0.021271456 0.072036915 0.07430912 -0.07820289
