model/3744.5748757368974_weight.pth (torch, 90447 bytes, 7 tensors)

weight f4 [16, 32, 1]
00000000: 38ce c23d bf0f 15bd 05a5 933c 3646 843d
00000010: d392 88bd 34c3 37be ff25 3b3c 1417 ea3d
00000020: 2469 01bd d0ed 07be c200 163e bf24 423d
00000030: c118 7a3c d7b0 ffbd 75c5 b7bd 3ec5 9a3c
00000040: 9bff 36be 0fe7 413d e888 c6bd df47 323e
00000050: 7cd1 c53d 55f2 2e3d c6cb 453d a023 2ebe
00000060: 612a 0cbe 542e 563d 9478 4ebc 0bb6 36bd
00000070: 4620 eebd 92ff 94bb b878 fd3d bc16 803c
00000080: 6499 93bd 92dc 83be 28f4 0f3d e719 e2bd
00000090: 55b4 0bbe a2ff b6bd 301d 383e fabe 193e
000000a0: cdca b1bd 4d4e acbd 9781 983d 04ce 19be
000000b0: 5293 013c 81fe 263d 7a2d 34be 6294 c8bd
000000c0: 23e4 b13c 0f55 233e 6d09 23be 806b a03d
000000d0: cf7e ef3c f258 0ebe 9812 e13c bbfc 3f3e
000000e0: 2bc2 d2bc 4e83 2dbd 73d7 d3bd 1121 99bd
000000f0: c458 033e 18e2 5ebd acaa 963d ea93 26be
00000100: fb39 4e3e ba6f 1b3e b1b6 4e3e 2b17 1fbe
00000110: 2fe2 f3bd 8d96 efbd 6865 85bb 428d 7abd
00000120: 50c1 363e 7698 293c c58e a9bd 2f6e 29be
00000130: 0fb4 0f3c bfcc 56bc b09e e83d 30d0 183e
00000140: 03fa db3d f830 fc3d 16b4 a43d 744d 4dbd
00000150: 15a8 dd3c 1afc 4abd a51f 5ebd ad20 893c
00000160: a08d f8bc 5b8d c7bd fbd1 bf3d 2a80 d8bd
00000170: dcbd 07be f66c a73b 7d2e 9b3d 9944 ed3d
00000180: a2e1 783c 8923 263e 77a0 713d 8047 a6bd
00000190: b85f b83d 1913 403d 594c e3bc 6011 033e
000001a0: b296 c63d 5b44 0ebe ebaa afbd 5a5b b43d
000001b0: 701b c83d 8b74 d4bd 2340 073e 3648 413e
000001c0: 091b 88bd 7c55 193e 1887 4cbe 1091 00be
000001d0: 4403 653e bd74 efbd f04d f43d 278c cc3c
000001e0: fa8f 293e 3de5 d8bd 8e75 273c aa59 32be
000001f0: 8bda 10be 320e c03d 600f c43d 8936 21bd
00000200: 22b3 b33d b9eb dabd fecd de3c 64bc 923c
00000210: 15f8 f13a 7c51 b63d c19c 14be 2d5e c7bd
00000220: 1539 2bbd 3b47 6a3d 1305 1dbe 46f7 e3bb
00000230: d841 a93c 2ff7 2ebd 1e6f e23d f25b ee3c
00000240: 7bd8 053d 279d d33c 8e44 503e 6585 71bd
00000250: 9197 8c3b ea04 c8bd 7d26 4fbd e886 693e
00000260: baf5 efbd dac0 10bd 4a0d 0fbc 1ce3 abbd
00000270: 46da 153d b12f 353e 4271 173d 3fa0 24be
00000280: f974 883e 892a 1d3e a856 8a3e 556e 01bc
00000290: 8344 cabd 782d ef3d 8405 4ebe d45b 9cbc
000002a0: 1ec1 17bd 6978 fc3c 94cf 1bbe 6dd7 e93b
000002b0: 8f0c 453c 543d 23bd b3d3 07be bd03 023d
000002c0: 597d 24bd 38db 76bd 19cb 0c3d e6b4 943d
000002d0: d14f 5bbd ce48 85bd 1310 8f3b 462b 0c3e
000002e0: 6221 10be 0405 e73d fb1b f2bb 38d9 b63d
000002f0: f245 003e 4b95 d73b 4f22 53bd b81a 00be
00000300: 503a 28b9 09e4 39be 942f acbd 22d7 023d
00000310: f314 9fbd 8cd5 8f3d 182f 2ebe c685 283e
00000320: b52b 2dbd e5e4 3f3d ee46 a73d e0a2 35bd
00000330: 65a3 7b3d 8c7e e83d ff4b ca3d 0cb8 a63c
00000340: a7e6 72bd 8ac4 963d 0fa0 a53d 2c32 0cbd
00000350: 648f 953e f70d 29be 5b7d 3d3e ab31 1f3e
00000360: a3dd 993d f039 263d 0d58 113d 21cf eebd
00000370: 197f 983d d1e6 46bc 4386 8e3c 3a18 723d
00000380: 1dad c23d e1d8 573e ddc0 7f3e c4f1 f7bd
00000390: 0ad3 393e 584b b5bd a767 31bd 198f 96bd
000003a0: c516 00bd c8b0 d43d e2f3 88bd ff59 a0bb
000003b0: e6a4 813c 058d 1d3e c7d7 eabd f28c a9bd
000003c0: a3b5 333e 1518 4f3e 5b99 fdbd 85f0 113c
000003d0: 3b98 5f3e 15ca 073e 3d90 5b3d 0ace 2f3e
000003e0: 2e8c 583d 390d f33d f58a d3bd 1ce8 e6bd
000003f0: 2f80 0dbe c803 8ebd 9514 963d 6fa0 453e
0.09511989 -0.03639197 0.018023023 0.06458704 -0.066686295 -0.17945558 0.011422633 0.11430183
-0.03159441 -0.13274312 0.14648727 0.047398325 0.015264691 -0.124849014 -0.08973209 0.01889288
-0.17870943 0.047339495 -0.096940815 0.17410229 0.096590966 0.042711575 0.048290037 -0.17005777
-0.13688041 0.052290276 -0.01260199 -0.044607203 -0.116272494 -0.004547068 0.12376541 0.01563584
-0.07206991 -0.2575422 0.035144955 -0.11040097 -0.1364301 -0.08935477 0.17979884 0.15014258
-0.08681259 -0.08413372 0.07446592 -0.15019995 0.007908659 0.040770058 -0.17595473 -0.09793927
0.02171523 0.15950416 -0.15921564 0.07833004 0.029235272 -0.13901117 0.027474687 0.18748753
-0.025727352 -0.04236155 -0.10343828 -0.0747701 0.1282683 -0.05441484 0.07356772 -0.16267362
0.20139305 0.15179339 0.20186879 -0.15536182 -0.119083755 -0.11698637 -0.0040709265 -0.06116987
0.1784718 0.010351291 -0.08279184 -0.16545938 0.008770957 -0.013110339 0.11358392 0.14923167
0.10741045 0.123140275 0.08042161 -0.050122693 0.027057687 -0.04955683 -0.054229397 0.016739214
-0.03034097 -0.09743758 0.093662225 -0.1057132 -0.1325602 0.0051094247 0.07577226 0.115853496
0.015190514 0.16224493 0.05899092 -0.08119106 0.09002632 0.046893213 -0.027746366 0.12799597
0.096967116 -0.13893263 -0.08577522 0.088064864 0.09770858 -0.10373791 0.1320806 0.18875203
-0.066457815 0.14974016 -0.19973409 -0.12555337 0.22364527 -0.11692188 0.11928928 0.024969174
0.16558829 -0.10590599 0.010220898 -0.17417017 -0.14145868 0.093777075 0.09573245 -0.03935865
0.08774401 -0.10689492 0.027197834 0.017912097 0.0018460775 0.08902261 -0.14512922 -0.097347595
-0.041802485 0.057196837 -0.15333967 -0.0069569675 0.02066128 -0.0427162 0.1105635 0.029096577
0.032677155 0.025831772 0.20338652 -0.058965106 0.004290529 -0.09766562 -0.050573815 0.22805369
-0.117167905 -0.035340168 -0.008731196 -0.08392927 0.036585115 0.17693974 0.036973245 -0.16076754
0.26651743 0.15348257 0.27019238 -0.00789984 -0.09876349 0.11678594 -0.20119292 -0.019086756
-0.037049405 0.030819135 -0.15215904 0.0071362765 0.01202692 -0.03985341 -0.1326435 0.031741846
-0.040158603 -0.060267657 0.034373377 0.07261066 -0.053542916 -0.06508027 0.00436593 0.13688383
-0.14075235 0.112802535 -0.0073885894 0.0892815 0.12526682 0.0065790764 -0.05154639 -0.12510192
-0.00016043452 -0.18153395 -0.08407512 0.031943448 -0.077676676 0.07023153 -0.17010152 0.1645728
-0.04227801 0.04684915 0.08167826 -0.044344783 0.061435122 0.11352262 0.09877776 0.020351432
-0.059302 0.073617056 0.080871694 -0.034227535 0.2921096 -0.16509233 0.1850485 0.1554629
0.07512977 0.040582597 0.035484362 -0.116606005 0.07446117 -0.012139992 0.017398005 0.059105136
0.09505675 0.21078826 0.24975915 -0.1210666 0.18146911 -0.08852261 -0.04331174 -0.073515125
-0.031271715 0.10385281 -0.06687142 -0.004893541 0.0158257 0.15385826 -0.114669375 -0.08278836
0.17549758 0.2022403 -0.12382766 0.008907442 0.21835415 0.13260682 0.053604353 0.17168441
0.05286806 0.118677564 -0.10329238 -0.1127474 -0.1381843 -0.06934315 0.073281445 0.19299482

bias f4 [16]
00000000: 160a aabd b285 de3d bd0d 0cbe 8d37 f7bc
00000010: bbc6 fcbd 56f5 f43d b5b1 12be 57c8 26be
00000020: 1836 ffbd 3844 05be 7827 393e 9c37 203e
00000030: d9a6 593d 1b11 313e c79e 0c3e 5284 dcbd
-0.08302705 0.10865344 -0.13677116 -0.030177856 -0.12342592 0.119608566 -0.14325602 -0.16287361
-0.124614894 -0.13014305 0.18081462 0.15646213 0.053137634 0.17291681 0.13732444 -0.107674256

weight_ih_l0 f4 [256, 16]
00000000: 25a9 87bd 64e0 fb3c 53b3 28be 4b53 873d
00000010: 477d 963b 8921 aabd 2a40 e43c cfd2 803d
00000020: ab0d 6bbd c5e9 b8bd f1d9 a43d 70f2 8b3d
00000030: 20f7 d8bd d5ae 163d c832 7abe caac d7bd
00000040: 1b85 8a3c 9657 543e 776a 60be b3e0 3abe
00000050: cf14 243e b61c d03d 320b 30bd 1ade 88be
00000060: c8d2 a23d fd30 92bd 4f21 54be 0071 433e
00000070: c5b7 afbd 84f8 203e c187 8d3c cfd0 033e
00000080: 961b 0d3e d76f 333d 99b6 8cbd 923a 523d
00000090: afe0 ef3d dc78 aabd 9eb8 e7bd f7ef e5bd
000000a0: 64e0 79bd 34e3 86bd e067 d13d 1094 6b3d
000000b0: b100 2ebe 6811 1139 5cd7 36be df32 3e3d
000000c0: c4fc 7cbd 834a 123d a686 20bd 5f29 1d3d
000000d0: d227 82bd 1b98 21be e608 853c 5b23 74bd
000000e0: 3dde 85bd 58d3 843d 1c9c e83c 5dc2 9dbc
000000f0: 9b2e acbc e539 f3bc 8ade 983d 487b dfbd
00000100: bb64 b23d 1347 0a3e e3e2 f9bd 4170 51bb
00000110: 2a8d 5abd b24a f3bd fdc1 38bd 899a 2fbe
00000120: 608a e23d e776 343d f973 993d fbdb e9bb
00000130: 648f 333d 14b6 c0bd 1432 a0be b7dd dfbb
00000140: 4e3d 233e 9af7 a1bd 86ad 1c3d 7c4c 813d
00000150: 108d f83c aaaf 45be 47fe 343d 8d91 d0bd
00000160: de7e 5b3c 649d 22bd bb84 3b3d 3edf a1bd
00000170: 486e 86bd 8084 d5bd d9d3 ebbd 8f02 6abb
00000180: 3db5 983d e01b 83bd 5162 583c 8cfa d3bd
00000190: 5ee3 c63c 6a11 3abe 2f9c 5abc 662b 3c3d
000001a0: f610 c7bd 8394 71bd 64fd fc3d 9841 94bd
000001b0: ed8d c4bd 72c4 b6bd 8105 103b 334e 0fbe
000001c0: 4c35 043e fd8d bcbd b1d9 05be 0fe6 97bd
000001d0: f0be d1bd f573 5cbe 69c3 853c 7619 e33c
000001e0: c426 cf3d 5937 58bd fa92 2cbd fadc dcbc
000001f0: 5898 ffbc 57f0 23be fd01 59be 55bc 3bbd
00000200: bfc1 b33d 938b a33d f72e f93b a0ad c23d
00000210: 15fb 77bc dbc5 1bbe 8521 e6bd dd57 abbd
00000220: ee66 35bd f2a1 0dbb 2033 c73d f46d 193d
00000230: 1f0b 0c3d df53 a7bd 3914 58be 2232 a33d
00000240: 6287 c33c 6fa2 033e a7e4 56be 44c7 a23d
00000250: 2783 ce3d 5ce7 11be c148 b03d 5c0c 05be
00000260: b9b5 ccbc 585d 59bb b996 fa3d e963 df3d
00000270: e28b 6e3d bc04 8fbd 96f7 4abe 0acb 343d
00000280: afcb 043d 690f c23c ee58 72bd f093 07bd
00000290: abb1 dc3d b57b f73c 0389 ed3c c88f 303d
000002a0: 5648 dcbd f968 e1bd 1a0b 423d b42b 0e3e
000002b0: 9322 84bd bd15 163d 88c3 203e 4b1e 943d
000002c0: 5866 8f3c a1f8 7d3d aa8a 8b3c 5915 65bd
000002d0: 07f0 b8bd 5d2e 20bd 484a c23d d9c9 34bd
000002e0: 606c 75bd 9d8a 7e3d 4e69 13be f421 26bd
000002f0: 41e3 043e 0c04 0ebd 0371 82bd 3603 b0bd
00000300: c0c0 02be 49dd 433e 39f6 b33d d32d 263c
00000310: 1b8e 0f3e 325f 1c3b 673d 893b 58d4 48bd
00000320: 66d6 a3bc ad53 30bd 5cc9 15be fbe8 0a3e
00000330: 38ab 08be d962 ad3d 7881 02be 1b27 403e
00000340: 4959 2b3d 95ca 143e e982 31be 961f 3c3c
00000350: 29f9 d03d c43a 6fbe 5ec7 a4bd 26d9 93bd
00000360: 6dbe 2c3d caf1 d13b b26b 2ebd f1c4 833d
00000370: f0cb 2f3d 18f4 a5ba 1538 aabe 655a 99ba
00000380: ead8 a9bd 94f4 303d 1876 7dbd 7612 e0bd
00000390: 225b 4abc 1fa6 843e 9210 82bd 05fc 08be
000003a0: cfcb d53d b738 37bd 95f8 4b3d 62b6 9f3d
000003b0: 8cbf d9bd 151b cd3d 48ae 943a 6dfa 9a3d
000003c0: 95b3 6ebd 8798 f53d 90ad d7bd d88a 263d
000003d0: 1c0d b4bd 9c31 63be ad68 e4bd 8a4c bdbd
000003e0: 5cf8 053e 4522 23be e43c f5bd 0da4 c73c
000003f0: 5f1b 35bd dc6b b33d 763d 3ebe aa52 d33d
-0.06624059 0.030746646 -0.16474657 0.06607684 0.004592571 -0.083071776 0.027862627 0.062902085
-0.05738608 -0.09028963 0.080493815 0.06833351 -0.1059401 0.036787827 -0.24433434 -0.10531004
0.016909173 0.20736536 -0.21915613 -0.18249778 0.16023563 0.10161726 -0.042979427 -0.2673195
0.079503596 -0.0713825 -0.20715831 0.19086075 -0.08579973 0.15719801 0.017276647 0.12872623
0.13780054 0.04380783 -0.06870765 0.05132539 0.11712777 -0.08323833 -0.1131451 -0.1122741
-0.06100501 -0.06586304 0.10224891 0.05751425 -0.16992451 0.00013834762 -0.1785559 0.046435233
-0.061764494 0.03571559 -0.03919091 0.038369533 -0.06355251 -0.1578068 0.016239595 -0.05960403
-0.06536529 0.06485623 0.028394751 -0.019257719 -0.021018317 -0.029690692 0.07464321 -0.10912186
0.08710619 0.13503675 -0.12201478 -0.0031957778 -0.05335728 -0.118794814 -0.045106877 -0.17148794
0.11061549 0.044058707 0.07492823 -0.0071368194 0.04383792 -0.09409729 -0.31288207 -0.0068318504
0.15941355 -0.079085544 0.038251422 0.06313416 0.030340701 -0.19305292 0.04418781 -0.101840116
0.013396947 -0.03970088 0.04578088 -0.07903908 -0.06564003 -0.10425663 -0.11515016 -0.0035707091
0.074564435 -0.06401801 0.013207034 -0.103505224 0.024278339 -0.18170705 -0.013342901 0.045939825
-0.09720032 -0.058979522 0.12353018 -0.072390735 -0.09597383 -0.08924188 0.0021975937 -0.13994674
0.12910956 -0.092067696 -0.13071324 -0.07416927 -0.102414966 -0.21528609 0.01632853 0.027722102
0.10114816 -0.05278716 -0.042132355 -0.026960839 -0.031200573 -0.16009651 -0.21192165 -0.045833904
0.087771885 0.07985606 0.0076044756 0.095057726 -0.015135546 -0.15212195 -0.11236862 -0.08366368
-0.044287615 -0.002161142 0.09726548 0.037458375 0.034190293 -0.08170294 -0.21101464 0.079685465
0.023868266 0.12854932 -0.20985661 0.07948163 0.10083609 -0.14248413 0.08607627 -0.12992996
-0.024988996 -0.003316721 0.12235779 0.10907728 0.05823887 -0.06983325 -0.19821009 0.044138946
0.03242081 0.023688989 -0.05916684 -0.03310007 0.10776075 0.030210355 0.028995996 0.04310587
-0.107559845 -0.1100635 0.04737387 0.13883859 -0.06451907 0.036641825 0.15699589 0.072323404
0.017504856 0.06200469 0.017033894 -0.05592856 -0.090301566 -0.039106715 0.09486824 -0.04413781
-0.059917808 0.06214391 -0.1439564 -0.040559724 0.12977315 -0.03467183 -0.063692115 -0.085943624
-0.12768841 0.19127382 0.087871976 0.010142761 0.14019053 0.0023860452 0.004188228 -0.04903063
-0.019999694 -0.04304855 -0.14627594 0.13565437 -0.13346565 0.08466119 -0.12744701 0.18764918
0.041833196 0.14530404 -0.17335095 0.01148214 0.102037735 -0.23362261 -0.08045839 -0.07219152
0.04217379 0.0064069973 -0.042583175 0.06434048 0.0429191 -0.0012661247 -0.33245912 -0.0011699913
-0.08293326 0.043201998 -0.0618802 -0.10941021 -0.012350829 0.2590799 -0.06350817 -0.13377388
0.10439264 -0.044731822 0.049797613 0.07798459 -0.10632238 0.10014931 0.0011343444 0.07567296
-0.05827673 0.11991983 -0.10531151 0.040659755 -0.08791563 -0.22186893 -0.11152778 -0.09243114
0.13083023 -0.15931042 -0.119745046 0.024370218 -0.044215556 0.08760807 -0.18578133 0.10318501

weight_hh_l0 f4 [256, 64]
00000000: bd54 8d3d cbfd c0bc 6936 8a3d 6d45 7abc
00000010: 63b3 63bc 12e9 043e ec13 c43d 7629 32bd
00000020: 3ece 913d e6a3 b53a d09f adbd 724a da3c
00000030: 5ce7 b2bd 95f1 6fbd 2ef6 943d 2df9 b9bd
00000040: 5e8b a5bc 26ab 70bc 04a9 f0bc cfa9 873d
00000050: cbe6 e5bd 5826 8e3d 4f97 9a3d 1e7a c7bd
00000060: 9827 763d f875 da3c 4ae8 8c3d bb9b d73c
00000070: 0bc0 24bd a257 da3d 82f8 fcbc 0859 32bb
00000080: 04d7 94bc edf2 1bbd fc25 b3bd 6154 b8bc
00000090: d1e8 a83a 1b10 04bd be28 b43d db82 f5bd
000000a0: 5f27 433c 778c 283c 908e 95bc 59fe b43d
000000b0: 5c3a 0abe 259e febc d947 6e3d 7a8e 04be
000000c0: efd1 c13c eca0 9b3d 61e9 46bd a834 a1bd
000000d0: 9fb7 17bd 67e9 163d 31c7 b63d e38e ed3c
000000e0: e1d9 f0bd 325b 96bc 483e ac3d 63d8 7cbd
000000f0: b1be c53d bdf4 04be d904 f4bd 2e1f 6d3d
00000100: a3d8 44bd 2026 493c 95a2 96bd 14d8 46bd
00000110: 52c7 1abd 830f e8bc 4e8b 353b 5ae2 bcbd
00000120: c337 17be 8ea8 09be 4840 d63d 8a99 953b
00000130: 9690 59bd 9f44 33be 7f20 b13c 5bf3 df3c
00000140: 2a9b 2fbc baf8 52bd a933 4dbc 1562 f0bd
00000150: 17d6 28bd 7a32 afbd a2fa 083e 0bca 9dbd
00000160: 56de a1bd d6d7 fdbd 0c23 a5bb 4faf bc3d
00000170: d1ed 793d d031 fa3c 20b4 183e f11c 073e
00000180: f181 1b3e 2f5b 58bc e9f7 253d 5073 15be
00000190: f674 aabd 707c 9fbc 035a 92bc 1589 a53d
000001a0: bd63 e4bd e996 223e e212 f83d 7b49 ba3d
000001b0: 6d8e 2f3d 7f50 023d ff04 a33d 1e00 91bd
000001c0: 2f0e 07be 5502 4a3d 38ab 313d cd57 9bbd
000001d0: 451b 1d3e 09be 2f3e 964c 973d 59a2 943a
000001e0: 1780 4bbc 3e8d fa3c 0651 693c 1e68 0d3c
000001f0: 599b f3bd 759d 97bc 763b 793d 1a16 273d
00000200: deaf 75bc 32cd 1bbe 4eaa 263d da44 01bd
00000210: 91b5 4b3d e00a 57bd 3488 88bd afb6 e93d
00000220: f764 ff3d b7e1 9d3c 1c00 e0bd 77c7 6b3d
00000230: c39f 8a3d 4e0e b7bd f874 34be 9734 37bd
00000240: 42d9 0fbd 5739 e8bc 0db0 a1bc 9cec 89bd
00000250: f2e1 f4bd 0c99 be3d f22a 153d 6435 1cbd
00000260: 3a89 c03d e6f4 27bc 5e73 33bd a99a e6bc
00000270: 88d0 4ebd 87d0 72bd 69e0 a6bd ada3 fb3d
00000280: a89b 383d 2f01 d2bd 0a8c 3b3e c095 8d3c
00000290: 957f e43d 3d4b f5bd bca7 f33d a046 9fbd
000002a0: edd6 923d c119 8dbd 9c26 aa3d ecab 01bd
000002b0: 303c c73d 7216 d8bd c979 dbbc 757e 483d
000002c0: c332 13bd a304 143d 8f8a 5ebd ca31 1abc
000002d0: 3ec7 84bd a62c f23c 887d 0fbe 6031 b2bd
000002e0: 379b e63d 001a bb3c 2685 173d a62e e43d
000002f0: 1a18 babd 5de8 b33d 7aef 3bbd f95c 2f3d
00000300: 2014 b2bc e989 b23d 4141 01be c4b1 8ebd
00000310: 6a86 5bbd d927 94bd 3166 e6bd 438f a2bd
00000320: 00d2 b2bd a274 16bd 10ef fabc 28a2 4fbd
00000330: 55df d7bc 1dab f33d 7b69 a5bd fca4 5c3d
00000340: b586 16bd 95fc 74bd 4b46 e23c 7707 f9bd
00000350: 428a 07bc a1f0 bdbd eb70 853c 22e5 3cbd
00000360: 13c8 563c 49a3 86bd 49e4 c3bd fb95 823d
00000370: 965e 34bd dcf4 7e3d 965b 0f3d be15 88bd
00000380: bb4e d53c 26a2 8b3d debf f43d 6cfb afbd
00000390: 85cd a93c acb0 90bd 121b 5ebc 5a7f b0bd
000003a0: 8c93 5f3c ff8f 23bd 074d ad3c 636a f4bc
000003b0: 30c9 adbd 74be 2ebd 2f7d c43c 72d0 4abd
000003c0: f5be e5bd 536e ab3c 9aab a1bc e8eb 663c
000003d0: 914b 6e3d d87c d13d 95f9 edbd f255 e1bd
000003e0: 2c0a 3ebd 04b2 7ebd 4060 6c3d 7ca5 e93d
000003f0: fe5b fa3c 4665 2d3d 0595 f8bc 8b57 3d3d
0.06900928 -0.023558518 0.06748659 -0.015275341 -0.01389775 0.12979534 0.09574112 -0.04349657
0.07119416 0.001385805 -0.084777474 0.026646826 -0.087355345 -0.05858 0.072735175 -0.0908073
-0.020208057 -0.0146892425 -0.029377468 0.06624185 -0.11225661 0.06940907 0.07548391 -0.09740089
0.060096353 0.02666758 0.06880243 0.026319375 -0.04022221 0.10661246 -0.030880217 -0.0027213711
-0.018168934 -0.03807347 -0.08747479 -0.022501172 0.0012886768 -0.032241922 0.087968335 -0.11987849
0.011911242 0.010287396 -0.018256456 0.088375755 -0.13498825 -0.031081269 0.058173988 -0.12944975
0.023659674 0.07599053 -0.04856241 -0.078713715 -0.03704035 0.036843684 0.089247115 0.028998798
-0.11760307 -0.018354032 0.08410317 -0.0617298 0.09655512 -0.12983985 -0.11914987 0.057891063
-0.048058163 0.012277156 -0.07355229 -0.048545912 -0.037787743 -0.028327709 0.002770144 -0.09222861
-0.14767365 -0.13443205 0.104614794 0.0045654224 -0.053116404 -0.17506646 0.02162194 0.02733772
-0.010718146 -0.051506735 -0.012524524 -0.11737458 -0.041219797 -0.085545495 0.13376859 -0.07704552
-0.07903735 -0.12394683 -0.0050395783 0.09213125 0.061017815 0.03054133 0.14912462 0.13194634
0.15186287 -0.013205334 0.04051963 -0.1459477 -0.0832309 -0.019468516 -0.017865187 0.08082787
-0.11151836 0.1587788 0.121129766 0.090960465 0.042860437 0.03181505 0.07959937 -0.070801005
-0.13189004 0.04931863 0.043376178 -0.07585106 0.15342434 0.17162336 0.073876545 0.0011339887
-0.012420676 0.030584928 0.014240509 0.0086307805 -0.118948646 -0.018507699 0.060847722 0.040792562
-0.014995543 -0.15214995 0.04068976 -0.031559803 0.049733702 -0.052500606 -0.06666604 0.11411797
0.124704294 0.019272668 -0.10937521 0.05756327 0.067687534 -0.08938275 -0.17622745 -0.044727888
-0.035119303 -0.028347654 -0.019737268 -0.06734583 -0.11957158 0.09306535 0.03641791 -0.038136855
0.09401174 -0.010251259 -0.043811195 -0.02814992 -0.05049184 -0.0592809 -0.081482716 0.12287078
0.04507032 -0.10254132 0.1831514 0.01728332 0.11157147 -0.11977241 0.11897227 -0.077771425
0.071699 -0.06889678 0.083081454 -0.031658098 0.09728277 -0.10551156 -0.02679147 0.048948724
-0.035937082 0.036137234 -0.05433136 -0.009411285 -0.06483315 0.029562306 -0.1401273 -0.08700824
0.11260074 0.022839546 0.036992215 0.1114171 -0.09086628 0.08784554 -0.04588268 0.042813275
-0.021738112 0.087177105 -0.12622549 -0.069675 -0.053594984 -0.07234163 -0.1124996 -0.07937481
-0.087314606 -0.036732323 -0.030631572 -0.050691754 -0.02635161 0.11897872 -0.080767594 0.05386828
-0.03674956 -0.059811193 0.027621409 -0.12159627 -0.008272709 -0.09274412 0.016289195 -0.046116956
0.013109225 -0.06574113 -0.09565026 0.06376263 -0.044035517 0.062245235 0.034999453 -0.06644772
0.026038518 0.06818037 0.11950658 -0.08592877 0.020727882 -0.070649475 -0.013556259 -0.086180404
0.013646018 -0.039932247 0.021154894 -0.029835885 -0.08485639 -0.0426621 0.023985473 -0.049515195
-0.11218063 0.02092663 -0.019735146 0.01409433 0.058177534 0.1022889 -0.116198696 -0.11002721
-0.04639642 -0.062181488 0.05770898 0.11408517 0.030561443 0.04233291 -0.030344496 0.046226066

bias_ih_l0 f4 [256]
00000000: ce1b 963d 15c6 143d c602 a83d 16fa a83d
00000010: fc7d fbbc c38c 88bd dae8 29bd 507d f23c
00000020: b481 a13c f729 3cbd 0e52 783d a852 763d
00000030: 0b92 1d3c b40a c23d 56ab 323e 1243 6abd
00000040: 2816 123d 3a0a f33d 9fa2 a83c 7a88 f73d
00000050: 5747 4dbb d765 c43d f3cc 80bd e624 0bbe
00000060: 7720 94bd 2ba1 2abd 50e8 693d 1caf cf3d
00000070: b22e 183e 3a65 b9bd 2746 473d 3c34 cbbc
00000080: 1c74 27bc 8c2c 1c3d 654a 0b3b 8176 673d
00000090: 8f15 123e 023e 13bc a634 b73b 7ae5 c53b
000000a0: 033d 93bd ea58 7ebd 2361 a9bd 521f 023e
000000b0: 0874 103e a201 c83b adb6 5fbc dc20 633b
000000c0: 5954 023e c9cd 91bd fd57 e53d d639 cbbd
000000d0: d6d2 a1bd 802b c3bd 36b9 e13d 9f37 dcbd
000000e0: ef13 8dbc e82b 9dbd 5c3f f2bb 6dcc df3d
000000f0: 3665 05bc e8f8 b8bc 8fc6 b13d a1f9 1a3e
00000100: e723 08be fa08 42be 209a 78bd 927a 3b3d
00000110: dc7a 89bd 7f03 92bd 1a0b 803d cb48 b7bd
00000120: 2f24 0ebe 9da3 103d f2c7 0bbe 91e6 38be
00000130: 865e c9bc b53b cc3a cf97 6b3c 4c09 63bd
00000140: 1482 99bd ccf1 643d b8a2 11be 4338 32be
00000150: 357c b8bd d902 4cbc 2424 fc3c bcb3 14bc
00000160: dad8 cebd cb1a 033d 8f64 e3bc 9457 b9bd
00000170: a35c 283c 71b6 ddbd be48 b33d 41e3 f9bd
00000180: 4767 acbd d9d1 c83c a9e1 e1bc af32 76bd
00000190: b29b 24be 3aa2 09be b33e aabd a527 b2bb
000001a0: 6497 4b3d 8358 ac3c 52cf d93d f24a bbbd
000001b0: 0b24 b03d bd46 c6bd f242 00be c92c b23d
000001c0: ea1c 933d 6f2a 14bd 7700 b83c db39 a5bd
000001d0: 8577 50be c87c 29bc ee8f 633d 49f3 96bd
000001e0: 8e9e 8b3d b66a 8ebd 0bfa dabd 7812 873b
000001f0: 3d6d 9bbd bad4 eabd 30bd eabd fd2f 1ebd
00000200: 2942 a33d 6933 9fbc 4dae 213c a228 023d
00000210: a322 643d 3391 113d d1b0 69bd d209 db3d
00000220: 8eb7 ae3d 23ab a63d 24c0 d8bd a6a6 d4bd
00000230: 918f 05be 5c7d c6bd a912 bebb fab5 e63d
00000240: c066 a23d d784 d9bc b3a6 e13c a20f a13d
00000250: 3899 7abd c975 f2bd 0d2b 01bd 150d ce3d
00000260: acbe da3d 71d1 f6bd 3bc0 173d 9708 72bd
00000270: 3120 0c3e 8af4 e73d 3375 d0bc c5e0 663c
00000280: 2433 29bd a446 c8bd 339d ebbc af33 04be
00000290: e2cb 8b3d e65d 993d c6ad ba3d bb11 c23d
000002a0: f641 05bd 7b7e 8b3d 5f29 a8bd f82c 0f3d
000002b0: f128 fe3d 454a b03d 1721 d9bd 5dd2 31bd
000002c0: 0adf 23bd dc21 84bd 8a9f 943a 09b4 92bd
000002d0: 828f d3bd 44eb ed3d a34d 0b3e b2e8 553b
000002e0: 8f08 7ebb 879e 9ebd 2ebf f1bd d513 d0bd
000002f0: d5de cf3d ecd9 c73d 6f84 b6bd 6d54 873d
00000300: 719e abbd 3bb3 6bba 1bf7 41bd e758 98bd
00000310: 280c 21bd ae7b a1bb 3959 a7bc ee2e a43d
00000320: b6b2 97bd f799 8b3d 00df 86bd 33c5 633d
00000330: 16b9 aa3d cf0a 193d 3125 d2bd 92fa fabc
00000340: dfee 37bd 9e8e 0bbd b204 8abd f8c3 b5bc
00000350: 62e5 dcbd d76b b9bd 7035 2fbb 3c3d 633c
00000360: 4a34 e2bd 5070 f13d 2e7a 7c3d 763e c43c
00000370: 3b1f b1bd 0e62 213d 58b6 113e be52 8e3d
00000380: 80c1 33bd f1a5 e5bd e134 55bc d035 853d
00000390: 1490 05be 68a2 c73d 7966 093d c458 af3d
000003a0: 1b65 253d 6aae b9bd 93be e2bc ba7b d7bc
000003b0: b1d5 b6bc b696 6bbd 3f81 d7bd 7ac1 f43d
000003c0: f529 c5bd f38b a83d e65b afbb c848 853d
000003d0: 8142 d53c 5a38 aa3d 3d0f 5f3d 4920 883d
000003e0: 7bcf ea3c cc45 24be d9ab ea3d 18fb 3b3d
000003f0: dfa0 f53d b1a4 adbc 0b54 19be 791f 83bd
0.07329522 0.03632172 0.08203654 0.08250825 -0.030699722 -0.06667473 -0.04148183 0.02960077
0.019715168 -0.04593846 0.06062513 0.06013742 0.009617339 0.09474698 0.17448172 -0.05719287
0.03566566 0.11867185 0.020585356 0.12086578 -0.003132304 0.09589737 -0.06289091 -0.13588294
-0.07232755 -0.041657608 0.057106316 0.10140821 0.14861563 -0.090525106 0.048650887 -0.02480518
-0.010220554 0.03812842 0.002125406 0.0565095 0.14266036 -0.008986952 0.005590993 0.0060393186
-0.071893714 -0.062096514 -0.082704805 0.1270726 0.14106762 0.0061037103 -0.013654393 0.0034657037
0.12727489 -0.071193285 0.11198423 -0.09923141 -0.07901542 -0.09529781 0.11021654 -0.107527964
-0.01722142 -0.0767439 -0.007392807 0.10927663 -0.008141806 -0.022579625 0.0868045 0.15134288
-0.13294946 -0.18948737 -0.06069386 0.04577119 -0.06712887 -0.07129573 0.062521175 -0.08949431
-0.1388099 0.035312284 -0.13650492 -0.18056704 -0.024581205 0.0015581759 0.014379456 -0.055428788
-0.074955136 0.055894658 -0.14222229 -0.17404275 -0.090080656 -0.012451851 0.030778952 -0.009076055
-0.10099955 0.032007974 -0.027757911 -0.09049907 0.010275993 -0.108258136 0.08754109 -0.12201548
-0.08418136 0.024514126 -0.027573423 -0.06010693 -0.16075018 -0.13440791 -0.0831274 -0.005436855
0.049704924 0.0210383 0.10635246 -0.09145154 0.08600625 -0.09681461 -0.12525538 0.08699948
0.07183249 -0.03617328 0.02246116 -0.08067676 -0.20358093 -0.010344692 0.055557184 -0.07370622
0.06817351 -0.06953947 -0.10692223 0.0041220747 -0.07589195 -0.114663556 -0.11461866 -0.038619984
0.079716034 -0.019433694 0.009868217 0.03177703 0.055697095 0.035538863 -0.05705339 0.106952325
0.08531104 0.081381105 -0.10583523 -0.10383348 -0.13043047 -0.09691879 -0.0058005643 0.11265178
0.07929754 -0.0265526 0.027545309 0.0786431 -0.061181277 -0.11838872 -0.031535197 0.10061089
0.10680899 -0.120516665 0.03704856 -0.059090223 0.13684155 0.11325939 -0.02544651 0.014091675
-0.041308537 -0.09779099 -0.028761482 -0.1291034 0.06825997 0.07488613 0.09115176 0.09476038
-0.03253361 0.068112336 -0.08211016 0.034954995 0.12410153 0.08607916 -0.106020145 -0.04341351
-0.04000763 -0.06451771 0.001133905 -0.07163245 -0.10330106 0.11617139 0.13603835 0.0032639918
-0.0038762426 -0.077450804 -0.11804043 -0.10160033 0.10149924 0.09758362 -0.089119785 0.066079
-0.0837983 -0.0008991246 -0.0473548 -0.07438832 -0.039318234 -0.004928074 -0.020428287 0.08016764
-0.07407133 0.06816476 -0.065855026 0.055607986 0.083360836 0.037363824 -0.10261 -0.03063706
-0.04490554 -0.034071557 -0.06739177 -0.022188172 -0.10785939 -0.09053772 -0.0026734732 0.01386958
-0.110451296 0.11789 0.061639957 0.023955565 -0.08648535 0.039400153 0.14229715 0.069493756
-0.043885708 -0.112132914 -0.013013096 0.065044045 -0.13043243 0.097477734 0.03354499 0.085618526
0.040379625 -0.0906647 -0.027678763 -0.026304115 -0.022318693 -0.057516776 -0.105226986 0.11950965
-0.09627143 0.08229818 -0.0053515313 0.065080225 0.026032688 0.083115295 0.05445789 0.06646783
0.028663388 -0.1604225 0.114585586 0.04589376 0.11993574 -0.021196695 -0.14973466 -0.06402487

bias_hh_l0 f4 [256]
00000000: cd44 8c3c 95bc 733e 925f 143e 9fff d13d
00000010: 67fb 8ebc d7d7 cb3d cfec 0bbe 2268 753d
00000020: ceb1 1d3e a776 403d 2f45 0c3e 49ce b03d
00000030: 32d4 29bd 8d6a 403d 2158 ad3d c81e 0d3e
00000040: af97 fe3d 9229 f1bd da4a cebd a075 9a3c
00000050: d80f 893d 6267 9abd 75aa c83a 49f2 843d
00000060: c6e5 25bc 9377 0d3e 9fb7 063e 0b84 00be
00000070: b65e 29bd 182f 563d cf95 283e 710d 10bc
00000080: 816a f23b ccde 8cbb 2148 9c3d fec0 b73b
00000090: 0ad2 3fbc 11a1 193e ca75 88bd 16ff c0bd
000000a0: 627f b7bd 8d1f 7bbd 3771 b03c 6119 463d
000000b0: 4029 99bc d3ac a8bc d5c2 c73d e36f ccbd
000000c0: b761 0ebd 1218 183d 48c6 053e 5298 443d
000000d0: 6ca6 a93d 8e21 e2bc 5f6a 28bd 0d2a b1bd
000000e0: a1cb 0ebd c7ea cdbb bf76 cd3d ab2c dc3c
000000f0: cc3a f53c 8b4c 1f3e 275e 55bd 52e9 163d
00000100: 9e88 623d 5027 86be 70d4 7f3d 47c3 1cbe
00000110: a2ad d0bd ed3a b4bc 22f7 8abd b1ff 25bd
00000120: 85af 5b3d 3bfa c6ba c754 153d 72bd bbbc
00000130: 823d 69be f70a d13c e8ae 2ebe 82a3 81bd
00000140: ec6a 3f3c 05a5 26be 2385 16be b0de 7a3d
00000150: 343a 06be b3cd eebd 9462 07be a3e8 66bd
00000160: 62fe c5bd 033e 26be c1e2 09be 504d 22be
00000170: 9661 773c 2281 36bd 7089 bc3c 8c50 423d
00000180: 0044 14bd 6fe9 efbd 8ffd 41bc 0784 6e3b
00000190: 9a81 03be 3742 01bc 4721 edbd c607 e2bc
000001a0: ddcd 91bd 2bbc 8a3d 7eaf b6bc 9889 cd3d
000001b0: c68d d83d a9b2 093d 5d01 9bbd 332e b4bd
000001c0: 8e30 d93d c8a6 2bbe fff7 10be 3e7d 323d
000001d0: 70e6 30ba 5b46 173d 42c7 c73b 67ff d4bd
000001e0: 8e32 9e3d 5c9c 833d 12b5 0a3d a6ed d7bd
000001f0: 18f6 70bc 30bc c4bd aee3 e13b b9c9 4b3d
00000200: 47be c3bc 9747 0abd f9a1 b6bd 56d4 c9bc
00000210: b683 063e 9515 79bd 6941 b83c a968 3e3d
00000220: 970c 9ebd 43c0 03bd 0c1f e03c 5e52 b1bc
00000230: 738c 46bd 0ef5 5dbd f5c0 d2bc 4c05 d6bd
00000240: 6ef0 033d b6be 053e 1514 04be 8559 e1bd
00000250: a672 443d b501 d8bd f25b 8b3c 7e40 293d
00000260: 5021 4c3c d6be 11be 1728 e8bd 4625 b83c
00000270: faeb e03d f4e4 a83d f59f 9d3d 4e6a 05be
00000280: 2ab5 433d a8eb dc3c 1bd1 92bd 6575 ff3c
00000290: 5cc9 803d 1b91 f2bc bfb3 2b3c 4042 a4bd
000002a0: 0a2a 0bbe 45cc 0abc 40a1 3fbd 8853 e6bd
000002b0: 737e f43d 3911 cd3d 928e 1dbd 53c5 bebc
000002c0: 5e40 4cbb 274f aa3c 8282 993b 7fbe ba3d
000002d0: 1ff4 883d 745e 553c f36f b73d 2352 e8bd
000002e0: 7be1 0fbd 67fe 91bc 50ae a03d 2a24 97bc
000002f0: 311c 0bbc 004c 713d 8517 a43c 210c f93d
00000300: d11c 0dbe 2200 ef3d cb51 bdbd 351a e6bd
00000310: 8e24 d13d 7878 13be 4420 443d 19be d3bb
00000320: 89f6 fc3d ba84 ef3d 6b47 c2bc e7a7 0abe
00000330: 564f 973d 5819 f03d 65c3 ac3d 04e1 323d
00000340: b977 55bd 5038 0dbe 6d13 5abd ee7a 0cbe
00000350: 6cda c63c 47ea e93d 9a70 293d 9764 cd3c
00000360: e0ef c53d a102 0f3e 7f55 0f3e 68af f2bd
00000370: 6944 c5bd 0f80 67bd 842e 943c 8a85 55bd
00000380: 6f52 c1bc 741e b83d 2c68 873d 04dc 22bd
00000390: 63b0 78bd dbff 15bc fba4 bebd 19e3 c2ba
000003a0: 8209 f63d fb76 963c 0463 dbbd e4db 95bd
000003b0: 0d11 e6bd b7a4 0bbd 2b0e 6cbd f1e0 833d
000003c0: 6a74 a93d 9404 963d a445 56bd d870 0abe
000003d0: 7b15 f0bc 5009 78bc a725 3b3d 0aca 613d
000003e0: 3f4e a3bd dad8 b0bd b985 403c b195 3e3d
000003f0: ee2f 20bd 961d 9f3d e8e1 b1bd a270 f13d
0.01712265 0.23802407 0.14489582 0.10253834 -0.017453862 0.099532776 -0.13664554 0.059913762
0.15399858 0.046988156 0.13698266 0.08633096 -0.04146213 0.046976615 0.08464075 0.13781273
0.12431275 -0.11775507 -0.100728706 0.018854916 0.06692475 -0.0753925 0.0015309589 0.06491525
-0.010125583 0.13815145 0.13155983 -0.1255037 -0.04135009 0.052291006 0.16463397 -0.008792267
0.00739795 -0.0042990204 0.07630945 0.0056077233 -0.011707792 0.15002848 -0.066630915 -0.09423654
-0.08959843 -0.061309386 0.02153836 0.048364047 -0.018696427 -0.020590222 0.09753958 -0.09982278
-0.034761157 0.03713233 0.1306392 0.047996826 0.082836956 -0.02760389 -0.04111707 -0.08650599
-0.034862164 -0.006284091 0.10032415 0.026876768 0.029935263 0.15556543 -0.052091744 0.036843605
0.05530607 -0.26201868 0.062458456 -0.15308867 -0.10189368 -0.022000754 -0.06785418 -0.04052705
0.053634185 -0.0015180776 0.036457803 -0.022917483 -0.2277737 0.025517924 -0.17058909 -0.06330015
0.011683207 -0.16273887 -0.14699225 0.061247528 -0.1310814 -0.11660328 -0.13221198 -0.056374203
-0.0966766 -0.16234593 -0.13465406 -0.15849805 0.01509895 -0.044556744 0.023014754 0.047440097
-0.036197662 -0.11714446 -0.011840238 0.0036394612 -0.12842408 -0.007889322 -0.11578613 -0.027591597
-0.071193434 0.067741714 -0.022300478 0.100360096 0.10573916 0.03361765 -0.075686194 -0.08797874
0.10604964 -0.16762841 -0.14157103 0.04357647 -0.0006748205 0.03693233 0.0060967514 -0.10400277
0.07724486 0.064263076 0.03386409 -0.10543375 -0.014707111 -0.096062064 0.0068935966 0.049752925
-0.023894442 -0.03375968 -0.089176126 -0.024637382 0.13136181 -0.060811598 0.022492127 0.04648653
-0.07717245 -0.032165777 0.027358554 -0.021645721 -0.048473787 -0.05418878 -0.025726775 -0.10450229
0.032211713 0.13061032 -0.12898286 -0.110034026 0.0479609 -0.105472006 0.017011616 0.04132127
0.012459114 -0.14232954 -0.113357715 0.02247871 0.10982509 0.08246794 0.07696525 -0.13028833
0.047780193 0.026967838 -0.0716879 0.031183908 0.06288406 -0.029610207 0.0104798665 -0.08020449
-0.13590255 -0.008471553 -0.04678464 -0.11246401 0.11938181 0.100130506 -0.038466044 -0.02328745
-0.0031166296 0.020789696 0.004684747 0.091183655 0.066871874 0.013023008 0.089568995 -0.11343791
-0.035127144 -0.017821504 0.078457475 -0.018449862 -0.008490608 0.05891037 0.020030746 0.121605165
-0.13780524 0.11669947 -0.092441164 -0.11235467 0.102120504 -0.14401424 0.047882333 -0.0064618704
0.1235171 0.116952375 -0.023715695 -0.13540612 0.07388179 0.11723584 0.08435706 0.043671623
-0.05211613 -0.13791013 -0.053241182 -0.13718769 0.024274074 0.11421638 0.04136715 0.025072379
0.09664893 0.13965847 0.13997458 -0.11849862 -0.09632189 -0.05651861 0.018088587 -0.052129306
-0.023598878 0.089901835 0.06611666 -0.039760605 -0.06071509 -0.009155239 -0.09308811 -0.0014868706
0.12013532 0.018367281 -0.10712245 -0.073173314 -0.11233721 -0.03409263 -0.0576307 0.064393885
0.08274157 0.07325092 -0.05231251 -0.13519609 -0.029307118 -0.015138939 0.045690205 0.05512432
-0.07973909 -0.08635111 0.011750632 0.046529476 -0.03910821 0.07769315 -0.08685666 0.11789061

weight f4 [1, 64]
00000000: 72b0 933d 9148 e83d ef25 123e f773 b4bd
00000010: 14f3 a9bd 2005 893d c331 783d d596 f83d
00000020: 332a ed3d d3b3 af3d 1ca6 b4bd c8da 4abb
00000030: 80cf c83c 212f e73d 3a33 f53b 45f6 52bd
00000040: c0f5 c6bd b66d 363d 7bad f33d 95bb f0bc
00000050: 2a57 a9bd 53f6 523d c643 1b3e bfb0 e93c
00000060: d1a7 27bd 0823 c33d 0c0f 873d 5205 3e3d
00000070: 5828 99bd 5b68 7c3d 3977 ffbd 44bb 073e
00000080: e8df b8bd a0e5 203d 8745 bfbd 2522 7d3d
00000090: ef01 d1bc 976f 96bd 15e7 d4bd 53db 16be
000000a0: 14fa 943d 327c bbbd 518d f53d ce60 e53d
000000b0: 1a5a 3dbd 03b7 1cbe 0dd3 8fbd 553f c43d
000000c0: 6734 b13d a710 0dbc 2cc8 893d 065c bc3d
000000d0: 22f5 1cbd 32f2 adbc 8c35 003d abdb 85bd
000000e0: e45e d5bd 11f2 31bd f97a ed3d afa0 be3d
000000f0: a11b f0bd 88ab a3bd 56a7 58bd 0215 e9bd
0.07211389 0.11341966 0.14272283 -0.08811181 -0.082983166 0.06690431 0.06059433 0.12138144
0.115803145 0.085792206 -0.08820745 -0.0030953158 0.024513006 0.11288286 0.0074829133 -0.051504392
-0.09714842 0.044538222 0.11898323 -0.029386321 -0.08268578 0.051504444 0.15162572 0.028526662
-0.040931527 0.09528166 0.06594667 0.046391793 -0.07478398 0.06162296 -0.12473912 0.1325503
-0.09027082 0.039281487 -0.09339433 0.06180014 -0.025513617 -0.07345503 -0.10395638 -0.14732103
0.07274261 -0.09154548 0.119898446 0.11200105 -0.046228506 -0.15304188 -0.070226766 0.09582392
0.08652573 -0.008609927 0.06727633 0.091972396 -0.038319714 -0.021233652 0.031301066 -0.06536039
-0.104184896 -0.043443743 0.11595721 0.09307992 -0.1172402 -0.07991701 -0.05289396 -0.1138096
