model/3751.7797110171596_weight.pth (torch, 90447 bytes, 7 tensors)

weight f4 [16, 32, 1]
0	0xbd20bf5c	-0.039244995
1	0x3e261cd6	0.16221938
2	0x3e3f20fe	0.1866493
3	0x3dc1d419	0.094642825
4	0x3e3987f5	0.1811827
5	0xbde1ca14	-0.110248715
6	0xbe23ce9c	-0.15996784
7	0xbd2ad859	-0.04171023
8	0xbd9ceaf4	-0.07662001
9	0x3de43c7c	0.11144349
10	0x3e23f797	0.16012417
11	0xbe17609a	-0.14782944
12	0x3dac3adf	0.08409666
13	0xbd9d65d8	-0.07685441
14	0x3c7bb3bf	0.015362679
15	0x3cd3ba33	0.025845623
16	0xbe163975	-0.14670356
17	0x3e105f5b	0.14098875
18	0x3d2f9977	0.042870965
19	0x3de77eab	0.11303457
20	0x3e03133c	0.12800306
21	0x3e2cfa22	0.16892293
22	0xbdfc7f43	-0.12328961
23	0x3da8bab4	0.08238736
24	0x3df2a0a2	0.118470445
25	0xbe11a993	-0.14224844
26	0x3d246dad	0.040143657
27	0xbd1292ec	-0.035784647
28	0x3e1c04c7	0.15236197
29	0xbe07e713	-0.13271742
30	0x3e28f36c	0.16499108
31	0xbdbe3d80	-0.09289074
32	0x3dd59d96	0.10430448
33	0x3e616708	0.2201196
34	0x3e8d9aa3	0.2765704
35	0xbdb31d0e	-0.08745776
36	0x3c70ef06	0.014705425
37	0xbcb9dbd8	-0.022687837
38	0xbdcccc02	-0.09999849
39	0xbdf0fde4	-0.11767176
40	0x3d88b702	0.06675531
41	0x3db55f16	0.08856027
42	0xbc9051fa	-0.017617214
43	0x3ca52e70	0.020163745
44	0xbdbdbfde	-0.092651114
45	0xbe05485a	-0.13015881
46	0x3d282458	0.041050285
47	0x3e23d75d	0.16000123
48	0xbd9e10ed	-0.07718072
49	0x3aaa1223	0.0012975376
50	0x3cbbf49b	0.022943785
51	0xbdb1572e	-0.08659206
52	0xbd340ce7	-0.043957617
53	0xbde19679	-0.110150285
54	0xbdc163c3	-0.09442856
55	0x3d6dc3ad	0.05804794
56	0xbe2c6f06	-0.16839227
57	0x3d304921	0.04303849
58	0xbce093ca	-0.027414221
59	0xbdaef4cd	-0.08542786
60	0x3d8bf28a	0.0683337
61	0xbdc482c0	-0.09595251
62	0xbd4f4799	-0.05060539
63	0xbd69ba05	-0.057062168
64	0x3ddeb77b	0.1087484
65	0x3e753a4d	0.23948021
66	0x3d4903e7	0.049075987
67	0x3e5a424e	0.21314356
68	0xbb6216d0	-0.003449846
69	0xbe4107d2	-0.1885064
70	0x3dfe1e6f	0.124081485
71	0x3c350fda	0.011051143
72	0x3d400d06	0.04688742
73	0x3d6cd7c8	0.057822973
74	0xbe0a6ede	-0.13518855
75	0xbd177a21	-0.036981706
76	0xbdcc3a99	-0.09972114
77	0x3dfe3a5f	0.12413477
78	0x3d281db9	0.04104397
79	0x3e117f3c	0.14208692
80	0xbe0c16b0	-0.1368053
81	0xbdc33eb7	-0.09533446
82	0x3d9e07b8	0.07716316
83	0xbdd13c88	-0.102166235
84	0x3e4c6ba6	0.1996294
85	0x3dc084ef	0.09400355
86	0x3cebf7af	0.028804628
87	0x3ca1c611	0.019747766
88	0x3cd559e5	0.026043842
89	0x3d7e2fe4	0.06205739
90	0xbe2498d9	-0.16073932
91	0xbe45d127	-0.19318067
92	0xbdf4f36b	-0.11960491
93	0x3d645091	0.055740897
94	0xbdf9cd55	-0.12197367
95	0x3e0b01a7	0.13574849
96	0xbd644f97	-0.055739965
97	0x3e4220dc	0.18957847
98	0x3d7e320c	0.062059447
99	0x3e2f244a	0.17103687
100	0xbe1e8be1	-0.15483047
101	0xbd85ea5b	-0.065388404
102	0x3e09d478	0.13459957
103	0x3d1151c4	0.03547837
104	0xbdd5e8c1	-0.10444785
105	0x3d840f0c	0.064481825
106	0x3e1171ce	0.1420357
107	0xbe02b09e	-0.12762687
108	0xbdafe837	-0.08589213
109	0x3e1e6383	0.15467648
110	0x3e228214	0.15869933
111	0x3e0cf117	0.13763843
112	0xbd9c158e	-0.07621299
113	0x3d01f283	0.031725418
114	0xbda86508	-0.08222395
115	0xbe089da3	-0.13341384
116	0xbc923971	-0.017849656
117	0x3deec4e3	0.11658647
118	0xbd72f559	-0.059316013
119	0xbded2419	-0.11579151
120	0xbd90fb3a	-0.07079168
121	0x3cfcf97e	0.030880686
122	0xbd26234e	-0.040561013
123	0xbc30ac53	-0.010783273
124	0xbd8a75de	-0.06760763
125	0xbe4836d2	-0.19552162
126	0x3dd0b9cf	0.1019169
127	0x3bd9bc29	0.006644745
128	0x3d0f29ca	0.034951963
129	0xbd2751c2	-0.040849455
130	0x3c465a89	0.012106546
131	0xbe19072c	-0.14944142
132	0xbdb97fe8	-0.09057599
133	0x3c1642d1	0.009171204
134	0xbb63fbde	-0.0034787576
135	0x3bf5e31f	0.0075038816
136	0x3def7561	0.1169231
137	0x3d9cee25	0.0766261
138	0x3d29bceb	0.04143993
139	0x3e305ffe	0.17224118
140	0x3d81936b	0.06326946
141	0xbbe2193f	-0.006899982
142	0x3e475e6c	0.19469613
143	0x3d3f36ae	0.046683006
144	0x3ddfcc51	0.10927642
145	0x3e0242d4	0.12720805
146	0xbd117273	-0.035509538
147	0xbb94f8df	-0.0045462693
148	0x3e8383aa	0.2568639
149	0x3d86fc09	0.06591041
150	0x3e079adb	0.13242666
151	0x3ddc32fd	0.10751913
152	0xbe60d4c1	-0.21956159
153	0x3dfac928	0.12245399
154	0xbe091f2a	-0.13390794
155	0xbd9d9c6f	-0.07695853
156	0xbd930b83	-0.0717993
157	0x3d133a20	0.035944104
158	0xbc0a01a0	-0.008423239
159	0xbe25857e	-0.16164204
160	0xbe3010f6	-0.1719397
161	0xbd817527	-0.06321173
162	0xbe29a1be	-0.16565606
163	0x3daa9934	0.083300024
164	0x3cd70d11	0.026251348
165	0xbde61aac	-0.11235556
166	0x3e12fe2e	0.14354774
167	0xbe0855c2	-0.13313964
168	0xba90d8b0	-0.0011050906
169	0x3d759e7d	0.0599656
170	0x3d0c8912	0.034310408
171	0xbdbccc0d	-0.09218607
172	0xbd5ad17b	-0.053422432
173	0x3ca4e8e3	0.02013058
174	0xbe2402d5	-0.16016705
175	0xbd6d1a9f	-0.057886716
176	0x3dbf667e	0.09345721
177	0xbe1fc61a	-0.15602913
178	0xbddd89d0	-0.10817301
179	0xbc8020a5	-0.015640566
180	0xbe13201a	-0.14367715
181	0x3d864ae9	0.06557257
182	0x3d1765af	0.036962207
183	0x3e7eb581	0.24873926
184	0xbcf89d8e	-0.030348565
185	0xbe11376c	-0.14181298
186	0xbe2b7029	-0.16742004
187	0x3d9247c0	0.071425915
188	0xbd66fb1b	-0.056391817
189	0x3d488104	0.048951164
190	0x3d2490c9	0.04017714
191	0xbd01ec6c	-0.03171961
192	0xbe84d78d	-0.25945702
193	0xbe887e2d	-0.26658764
194	0xbd9e6297	-0.07733648
195	0x3c8672b9	0.016412126
196	0x3e09a559	0.13441981
197	0x3cb52503	0.022112375
198	0x3e189c54	0.14903384
199	0x3c9f3ffc	0.01943969
200	0x3e20592e	0.1565902
201	0xbd98cc05	-0.07460789
202	0x3ca2436f	0.019807545
203	0xbdc58ec1	-0.09646369
204	0x3d5ca02e	0.053863697
205	0x3d1f83f3	0.038944196
206	0x3e29fcb5	0.16600306
207	0x3c5b2f60	0.013377994
208	0x3df5ecda	0.120080665
209	0xbe16b89e	-0.14718863
210	0x3d06ba5c	0.03289257
211	0x3de428bb	0.11140581
212	0x3d09cc50	0.033642113
213	0x3da2f9e0	0.07957816
214	0xb9a89518	-0.0003215454
215	0xbded0ab4	-0.11574307
216	0xbe22ca87	-0.1589757
217	0xbdbc2727	-0.09187155
218	0x3e215662	0.15755609
219	0xbdf64835	-0.12025491
220	0xbd70a4c1	-0.05875087
221	0x3e3a8644	0.18215281
222	0x3d293798	0.041312784
223	0xbc0fdd07	-0.008780724
224	0x3e83d1a6	0.25745887
225	0x3d7cf2a2	0.06175483
226	0x3e805b9a	0.25069886
227	0xbdd7add0	-0.10531199
228	0x3e527e18	0.20555913
229	0x3db94091	0.09045518
230	0x3e17fdc8	0.14842904
231	0xbd95f89e	-0.073228106
232	0x3e2e4fc6	0.17022619
233	0xbe1e5f92	-0.15466145
234	0x3d93d6c4	0.07218698
235	0xbe023054	-0.12713748
236	0xbe32816c	-0.17432183
237	0x3d99f569	0.075175114
238	0x3d0d0e8a	0.034437694
239	0x3d271ca5	0.040798802
240	0x3e01d11b	0.12677424
241	0x3c8905c5	0.016726384
242	0x3d53297d	0.05155324
243	0x3df9b453	0.12192597
244	0xbe2a98ec	-0.16659898
245	0xbe03dd8d	-0.12877484
246	0x3e2f7c29	0.17137207
247	0xbe012754	-0.12612659
248	0x3da534db	0.08066722
249	0xbdc35b9f	-0.0953896
250	0x3c8e6de7	0.01738639
251	0x3d4cd075	0.050003488
252	0x3dcbe0b7	0.0995497
253	0xbc145497	-0.009053371
254	0x3dc97900	0.09837532
255	0xbd1641f2	-0.036683984

bias f4 [16]
0	0xbd1fafb6	-0.03898593
1	0xbdf320f2	-0.11871518
2	0xbd563223	-0.052293908
3	0x3e115168	0.1419121
4	0x3e1569f2	0.14591196
5	0xbd25df42	-0.04049612
6	0xbdf2e15b	-0.118593894
7	0xbe3a335e	-0.18183658
8	0xbe1dadf3	-0.15398388
9	0xbddff764	-0.10935858
10	0xbe23147f	-0.15925787
11	0x3db80fda	0.089873984
12	0x3de7f8fe	0.11326788
13	0xbd246df8	-0.040143937
14	0x3dca6fd6	0.09884612
15	0xbe203b42	-0.15647605

weight_ih_l0 f4 [256, 16]
0	0xbd8a640b	-0.06757363
1	0xbe1ffc04	-0.1562348
2	0xbe1dbff2	-0.15405253
3	0x3d12e459	0.0358623
4	0x3dc2705b	0.09494086
5	0xbd6ecbf4	-0.058299974
6	0xbd3060ec	-0.043061182
7	0xbdf5acb4	-0.11995831
8	0xbd0b24a2	-0.033970483
9	0xbd83ab75	-0.06429187
10	0x3c5ffac2	0.013670625
11	0xbe107959	-0.1410879
12	0x3d7a07f8	0.061042756
13	0x3d9947db	0.074844085
14	0x3dda5c03	0.10662081
15	0x3d700900	0.058602333
16	0x3d9509a7	0.07277232
17	0xbe006b75	-0.12540992
18	0xbe0c205c	-0.13684219
19	0x3d24ef75	0.040267427
20	0x3d75278c	0.059852168
21	0x3d688a35	0.05677243
22	0xbe088271	-0.1333101
23	0xbdcb0db6	-0.099147245
24	0x3a59d376	0.0008309403
25	0xbb7195b6	-0.0036862916
26	0xbcadd977	-0.02122186
27	0xbd63759b	-0.05553208
28	0xbd388948	-0.045052797
29	0xbe490b28	-0.19633162
30	0x3de6680b	0.11250313
31	0x3d76856e	0.060185842
32	0xbdce2fc6	-0.10067706
33	0xbdb2b3cb	-0.08725699
34	0x3d4e03ba	0.050296523
35	0xbccb93e6	-0.024850797
36	0x3ac067a4	0.0014679325
37	0x3de2170d	0.11039553
38	0x3da67f7f	0.08129787
39	0x3d732080	0.059357166
40	0xbd6dcfbf	-0.05805945
41	0xbcdc62c1	-0.026902558
42	0x3dadde3c	0.084896535
43	0xbe20f921	-0.15720035
44	0x3cf5779b	0.029964259
45	0x3d41c15a	0.047303535
46	0x3dacd677	0.084393434
47	0x3cd09202	0.025460247
48	0xbcb3a942	-0.021931294
49	0xbe464f85	-0.19366272
50	0xbd571c9b	-0.052517515
51	0xbdd17ac7	-0.10228496
52	0x3dd5e525	0.104440965
53	0x3dfc0df6	0.1230735
54	0xbc8f5775	-0.017497757
55	0xbdd9a496	-0.106270954
56	0x3bc2a8c4	0.0059405286
57	0xbd22e60c	-0.03977017
58	0x3cdccc9f	0.02695304
59	0xba1a1098	-0.00058771065
60	0xbd192022	-0.03738416
61	0xbc6d86b6	-0.01449745
62	0x3dfab291	0.1224109
63	0xbdb7751a	-0.08957882
64	0xbce9ef1e	-0.028556403
65	0xbd1a4732	-0.037665553
66	0xbc498066	-0.012298679
67	0x3cc3b03a	0.023887742
68	0x3bf99e40	0.007617742
69	0xbd58f5c8	-0.05296877
70	0xbd49c722	-0.049262173
71	0xbd570ce1	-0.052502517
72	0xbdbb0eb1	-0.091336615
73	0x3ddec8c9	0.108781405
74	0x3e23e9de	0.16007182
75	0xbe066709	-0.13125242
76	0x3d203559	0.039113376
77	0xbdc65089	-0.096833296
78	0xbbaa0022	-0.005188004
79	0xbc16c080	-0.009201169
80	0x3ddf5741	0.10905314
81	0xbe8816a2	-0.26579767
82	0xbe38fe34	-0.18065721
83	0x3d8c144f	0.06839811
84	0xbc95ae36	-0.018271547
85	0xbcc73e6a	-0.024321754
86	0xbda92aea	-0.08260138
87	0xbd9f0075	-0.07763759
88	0x3db444a6	0.08802156
89	0x3e26c93f	0.16287707
90	0x3dca1d72	0.098688975
91	0xbc23cc43	-0.00999743
92	0xbd83d209	-0.064365454
93	0xbe2e662c	-0.17031163
94	0x3bcdc1b9	0.006279197
95	0x3dacd21a	0.08438511
96	0xbd57f21b	-0.052721124
97	0xbe442505	-0.19154747
98	0xbdcda60c	-0.100414366
99	0xbdd251a2	-0.102694765
100	0xbdc82528	-0.09772712
101	0x3e21df86	0.15807924
102	0x3e41f068	0.18939364
103	0xbc3fd9c9	-0.011709639
104	0xbe206c38	-0.15666282
105	0x3daf6539	0.085642286
106	0x3d40e01a	0.04708872
107	0x3d84e7bf	0.064895146
108	0x3e0fe9e8	0.14054072
109	0xbda55b9d	-0.080741145
110	0xbc2708ae	-0.0101949405
111	0xbd4c299b	-0.049844366
112	0x3df22b91	0.11824716
113	0xbdb0345b	-0.08603736
114	0xbde1bc2e	-0.110222206
115	0x3d5872ac	0.052843735
116	0x3dc08788	0.094008505
117	0x3db21b2e	0.0869659
118	0xbded259d	-0.1157944
119	0x3e1e9773	0.15487461
120	0xbcca4acf	-0.024693875
121	0x3e7fda70	0.24985671
122	0xbd4e600c	-0.050384566
123	0x3df9b5a9	0.12192852
124	0xbd46ffd1	-0.04858381
125	0x3e0b3ce2	0.13597444
126	0xbdf7fe2d	-0.12109027
127	0xbe3e1c1a	-0.18565407
128	0xbc857362	-0.01629037
129	0xbe02b38f	-0.12763809
130	0x395176fe	0.00019976121
131	0x3c8e8c84	0.017400987
132	0x3c9f5c8a	0.019453306
133	0x3d608109	0.054810558
134	0x3d359502	0.044331558
135	0xbd5f507b	-0.05452011
136	0x3d1abca7	0.03777757
137	0x3db66a65	0.08907012
138	0x3b8ce103	0.0042992844
139	0xba36c534	-0.00069721346
140	0x3d43a5ef	0.04776567
141	0x3db83aef	0.08995616
142	0x3e0d7d9a	0.13817444
143	0xbd2832cd	-0.041064072
144	0x3db4e7f9	0.08833308
145	0xbe8eb838	-0.27874923
146	0xbd7baf48	-0.061446458
147	0xbe132036	-0.14367756
148	0x3d958811	0.07301343
149	0xbd33881e	-0.043830983
150	0xbea113aa	-0.31460315
151	0x3e3d93ba	0.18513384
152	0xbde42d41	-0.11141444
153	0x3e8234f7	0.25431034
154	0xbcef098c	-0.029179357
155	0xbd89647d	-0.0670862
156	0x3ddc4330	0.107550025
157	0xbc943062	-0.018089477
158	0xbdbe8186	-0.093020484
159	0xbdad72f5	-0.08469192
160	0xbd69a55f	-0.057042476
161	0x3da2e4fc	0.079538316
162	0x3d9b3ce5	0.07579974
163	0xbcafcab9	-0.02145897
164	0xbbf25c11	-0.007396229
165	0xbd1d2cee	-0.038372926
166	0xbdaf228c	-0.08551511
167	0xbd967547	-0.07346588
168	0xbe26032d	-0.16212149
169	0xbc1f08db	-0.009706701
170	0xbd5b6b5e	-0.05356919
171	0x3df85556	0.121256515
172	0xbdfadd52	-0.12249245
173	0xbd6f7492	-0.05846078
174	0x3de0e647	0.10981422
175	0xbe243c68	-0.16038668
176	0x3d98113a	0.07425161
177	0xbe85ee82	-0.2615853
178	0x3a65adac	0.0008761536
179	0xbd699dc5	-0.057035226
180	0xbd88face	-0.06688462
181	0x3da14aca	0.07875593
182	0x3daca150	0.084292054
183	0xbe07d7de	-0.1326594
184	0xbdff9bc4	-0.12480882
185	0x3dcf9fb5	0.101378836
186	0x3d99e2d9	0.07513971
187	0xbdf6dcdd	-0.12053845
188	0x3dd2eb3d	0.102987744
189	0xbd2d526c	-0.04231493
190	0x3d9ec18c	0.0775176
191	0xbd4cba51	-0.049982373
192	0x3d04ef3b	0.03245471
193	0xbdda5c04	-0.10662082
194	0xbe024c94	-0.12724525
195	0xbde4fabe	-0.11180638
196	0x3c423004	0.011852268
197	0x3d0290c7	0.03187635
198	0x3dddc9f9	0.10829539
199	0xbda7d73d	-0.0819535
200	0x3d2d7402	0.04234696
201	0xbd6f6428	-0.058445126
202	0x3dd47173	0.10373201
203	0x3bbd407f	0.005775511
204	0xbd3ac557	-0.045598354
205	0xbdb4a4ae	-0.08820473
206	0x3ded6859	0.11592168
207	0x3e0d6b20	0.13810396
208	0x34453f00	1.8369974e-07
209	0xbd919d5d	-0.07110093
210	0xbdb0b195	-0.08627621
211	0x3df266d5	0.1183602
212	0x3c995d8d	0.018721366
213	0x3c029041	0.007968963
214	0x3e577031	0.21038891
215	0xbd12c3b7	-0.03583118
216	0x3d3d825a	0.04626689
217	0xbe1fdfeb	-0.15612762
218	0x3da661eb	0.08124145
219	0xbcc8ae46	-0.024497163
220	0x3de77d6f	0.113032214
221	0x3da5a0d2	0.08087315
222	0xbccd38cc	-0.025051497
223	0xbd9cc32a	-0.07654412
224	0x3d854d89	0.06508929
225	0xbe388277	-0.18018518
226	0x3c76e400	0.015069008
227	0xbe00b514	-0.12569076
228	0xbd5a3ca4	-0.053280488
229	0x3e242bfb	0.16032402
230	0x3b4b9c2f	0.0031068434
231	0xbd557651	-0.05211479
232	0xbe1541cf	-0.14575885
233	0x3d95cd2f	0.07314526
234	0x3e0520d5	0.13000806
235	0x3c80069b	0.01562815
236	0xbd71a681	-0.05899668
237	0x3c30ce2e	0.010791345
238	0x3db0e5d9	0.0863759
239	0x3e1de0e5	0.15417822
240	0xbde8d2e9	-0.11368353
241	0xbc1cbd5b	-0.00956663
242	0xbc52a72c	-0.01285724
243	0x3df3323d	0.118748166
244	0xbda0e5b5	-0.07856313
245	0x3dd7b18f	0.105319135
246	0xbceef84b	-0.02917113
247	0x3c5dd0a1	0.013538511
248	0xbda2e42e	-0.07953678
249	0xbd2a5ac3	-0.041590463
250	0xbd7b5d1c	-0.061368093
251	0xbe009296	-0.12555918
252	0x3d3dd97d	0.04634999
253	0x3df3e7bc	0.11909434
254	0x3dbc907b	0.09207245
255	0xbcbdb4e5	-0.023157546

weight_hh_l0 f4 [256, 64]
0	0xba88813b	-0.001041449
1	0xbdcae36e	-0.0990666
2	0xbdd9526b	-0.10611423
3	0xbd01fdee	-0.031736307
4	0xbe28fbbe	-0.16502282
5	0xbcfe6f4d	-0.031058932
6	0xbdab2370	-0.083563685
7	0x3df1efd9	0.118133254
8	0x3cf2312a	0.029564459
9	0xbd84f229	-0.06491501
10	0xbdcacc6a	-0.0990227
11	0xbd90e558	-0.07074994
12	0x3d981a09	0.07426841
13	0xbe057894	-0.13034278
14	0x3c328ca6	0.010897791
15	0x3de16445	0.11005453
16	0x3d79032a	0.060794033
17	0x3db34a48	0.087544024
18	0x3cb614c2	0.022226695
19	0xbd124a22	-0.03571523
20	0x3cfd0ec3	0.030890828
21	0x3b928fc8	0.0044727065
22	0x3c8c05d9	0.017092632
23	0xbdf3e004	-0.11907962
24	0xbcc142bc	-0.023591392
25	0x3bd1b4a4	0.006399708
26	0x3d250faa	0.04029814
27	0xbd783e24	-0.060606137
28	0xbd95c6b2	-0.07313289
29	0x3e0d24eb	0.13783614
30	0x3e06de10	0.13170648
31	0x3c85030d	0.016236806
32	0xbd4c15fe	-0.04982566
33	0x3cf2314f	0.029564528
34	0xbcffcf3e	-0.03122675
35	0x3dd22443	0.102608226
36	0xbcf3739f	-0.029718218
37	0xbd155e11	-0.03646666
38	0x3c41e981	0.011835457
39	0xbd060ceb	-0.032727163
40	0xbd034440	-0.03204751
41	0x3db9e9d8	0.09077805
42	0x3d4eb3e3	0.050464522
43	0xbb89d17c	-0.0042058807
44	0xbe0924f0	-0.13392997
45	0x3d7cf43a	0.06175635
46	0xbdbaadcb	-0.0911518
47	0x3dc8f246	0.09811835
48	0x3d182aae	0.037150078
49	0x3d993086	0.07479958
50	0xbd8c7ece	-0.068601236
51	0xbd5447ca	-0.051826276
52	0x3db92ffb	0.09042355
53	0xbd16cde8	-0.03681746
54	0x3db10a1c	0.08644506
55	0x3de42b07	0.11141019
56	0x3c2996f3	0.0103509305
57	0x3cded398	0.027200505
58	0x3c091214	0.008366127
59	0xbd2b2981	-0.041787628
60	0x3e24f559	0.16109218
61	0x3d26ff10	0.04077059
62	0xbd9f4d34	-0.07778397
63	0xbd55ac52	-0.05216629
64	0x3d129dcb	0.035795014
65	0x3d58cc89	0.052929435
66	0x3cdaad33	0.026693916
67	0x3d109c84	0.035305515
68	0x3ddd9b14	0.108205944
69	0x3da13c04	0.07872775
70	0xbd0631d5	-0.032762367
71	0xbd50f462	-0.05101431
72	0x3d0d69ab	0.0345246
73	0x3de1950b	0.11014756
74	0x3def2820	0.11677575
75	0xbcf46105	-0.029831419
76	0x3d58238f	0.052768286
77	0x3d43b4bf	0.047779795
78	0x3da95f8b	0.082701765
79	0xbc20acee	-0.009806855
80	0x3d5f0e21	0.054456834
81	0xbcdeb056	-0.027183693
82	0x3d259af0	0.040430963
83	0xbc08a71b	-0.008340622
84	0x3d97e4e7	0.074167065
85	0xbb92144c	-0.004457986
86	0x3dd3579b	0.10319444
87	0xbcf58beb	-0.029973945
88	0xbd854ef8	-0.06509203
89	0x3e066bac	0.13127011
90	0x3bb01435	0.0053735026
91	0xbda8d37b	-0.08243462
92	0xbdda27eb	-0.10652145
93	0x3d4de9b8	0.05027172
94	0xbe0d6793	-0.13809042
95	0xbc0bb725	-0.008527552
96	0xbd7f8dc8	-0.062391073
97	0xbd3b277f	-0.045691963
98	0xbd1bf6f2	-0.038077302
99	0xbb3abcbf	-0.002849385
100	0xbdeb771b	-0.11497327
101	0x3cf7e3eb	0.030260047
102	0xbddb8a12	-0.10719694
103	0x3dd3192f	0.10307538
104	0x3d6516ae	0.055929832
105	0x3d9aa8b8	0.07551712
106	0x3e1c8826	0.15286312
107	0xbe128bd1	-0.14311148
108	0xbc0a7fea	-0.008453349
109	0xbd454ace	-0.048167042
110	0x3e1bd5a5	0.15218218
111	0x3d069244	0.032854334
112	0x3d835344	0.06412366
113	0xbd23e311	-0.04001147
114	0xbdbecb50	-0.093161225
115	0x3db29163	0.087191366
116	0xbd20bae7	-0.039240744
117	0x3b14b48f	0.002269063
118	0x3dc83d69	0.09777338
119	0x3d0f96f3	0.035056066
120	0x3d3202c4	0.04345967
121	0xba6e2276	-0.00090841146
122	0x3cefa9f9	0.029255854
123	0xbc8e0448	-0.017336026
124	0x3d93374c	0.071882814
125	0x3d80e777	0.062941484
126	0xbcf2c50d	-0.029634977
127	0xbdc40fce	-0.09573327
128	0x3e0c913a	0.13727275
129	0xbd60918f	-0.054826315
130	0x3d971deb	0.07378753
131	0xbe35dabe	-0.17759225
132	0x3d4138ce	0.047173314
133	0x3d9aa8cf	0.07551729
134	0x3c8b9c42	0.017042283
135	0x3ca34fe0	0.019935548
136	0xbd3afe24	-0.045652524
137	0x3dc27c36	0.094963476
138	0xbc054d65	-0.008136128
139	0xbe269366	-0.16267166
140	0x3de760a8	0.112977326
141	0x3c195d03	0.009360555
142	0x3dc370de	0.09543012
143	0x3d89094d	0.06691227
144	0xbd6c8403	-0.057743084
145	0xbdabe90c	-0.083940595
146	0xbd429774	-0.04750772
147	0xbd8a5bca	-0.067557886
148	0xbb747c9f	-0.0037305725
149	0xbddb5689	-0.10709865
150	0x3dc3cb39	0.09560246
151	0xbd846210	-0.064640164
152	0xbe05c4cb	-0.13063352
153	0x3df94a18	0.121723354
154	0xbe00b3e8	-0.12568629
155	0x3d909ebe	0.07061528
156	0xbdb38c40	-0.08766985
157	0x3cdde83a	0.027088273
158	0xbcbd52f8	-0.023110852
159	0x3dd80f22	0.10549761
160	0x3d46294d	0.04837923
161	0x3e46ac1a	0.19401589
162	0x3d63e27a	0.055635907
163	0xbe2265b6	-0.15859112
164	0x3d99d158	0.07510632
165	0xbcf1d7c9	-0.02952184
166	0x3d8c688b	0.068558775
167	0x3dcef373	0.10105028
168	0x3da9a481	0.0828333
169	0x3dd0ba84	0.10191825
170	0x3d9bae18	0.07601565
171	0x3c7aacc7	0.015299982
172	0x3da1de2a	0.079037026
173	0xbbee858d	-0.007279104
174	0x3dcc1630	0.099651694
175	0x3e12373e	0.14278886
176	0xbd92f90b	-0.071764074
177	0xbdfc7962	-0.123278394
178	0xbd23bf97	-0.039977636
179	0xbe1094b7	-0.1411923
180	0x3d22d967	0.039758112
181	0xbce17f71	-0.02752659
182	0x3dbcdac9	0.092214175
183	0xbcb2030b	-0.021729967
184	0xbd2b86c9	-0.041876588
185	0x3e5c36d3	0.21505289
186	0x3bbac7f8	0.0057001077
187	0x3e0c0ec7	0.13677512
188	0xbd11b7c4	-0.035575643
189	0x3d8fa2a6	0.070134446
190	0xbbbf4865	-0.0058374875
191	0xbd32affe	-0.04362487
192	0x3d73eda0	0.05955279
193	0xbc4d72e7	-0.012539602
194	0x3d1eb8cc	0.038750455
195	0x3da5d9c0	0.08098173
196	0xbdd98154	-0.106203705
197	0x3b3bd4ce	0.0028660777
198	0x3c703860	0.014661878
199	0xbd977ed3	-0.07397237
200	0x3ca7448b	0.020418426
201	0x3e098281	0.1342869
202	0x3d9d160e	0.07670222
203	0xbdda285a	-0.10652228
204	0xbd84b912	-0.06480612
205	0xbb7d5d83	-0.0038660474
206	0x3c62b59f	0.013837247
207	0x3cf33ff8	0.029693589
208	0xbad31f73	-0.0016107395
209	0x3d2eb17d	0.042649735
210	0x3d67de46	0.05660846
211	0xbdb65402	-0.08902742
212	0x3ddc9252	0.10770096
213	0x3cf1051b	0.02942138
214	0x3dc20c64	0.094750196
215	0x3cc80fdb	0.024421623
216	0x3c7e8d80	0.015536666
217	0xbc10b8eb	-0.00883315
218	0x3de20680	0.11036396
219	0xbcb8b1ac	-0.022545658
220	0x3cf8a8b1	0.030353876
221	0x3cc36bec	0.023855172
222	0x3cd34df9	0.025794016
223	0x3dc2fa49	0.09520394
224	0xbcfcedae	-0.030875053
225	0xbd802529	-0.06257088
226	0x3da77ead	0.08178458
227	0x3d12d736	0.035849772
228	0xbddcaa40	-0.1077466
229	0xbdf119f2	-0.11772527
230	0x3c7ec7d1	0.01555057
231	0xbc8055d5	-0.015665928
232	0x3b1243b6	0.002231819
233	0x3d195d26	0.03744235
234	0x3cd1d1af	0.02561268
235	0xbdd4609e	-0.10369991
236	0x3c29a9ab	0.010355393
237	0xb9cb297d	-0.00038750088
238	0xbd9706ae	-0.07374321
239	0x3c47ee80	0.012202859
240	0xbd304d10	-0.043042243
241	0xbd52fc54	-0.05151017
242	0x3c206606	0.009789949
243	0x3dd3c559	0.103403755
244	0x3d6652f1	0.056231443
245	0x3bc1503d	0.0058994577
246	0xbc1a7421	-0.009427101
247	0x3df13a30	0.117786765
248	0xbcd67ac1	-0.02618158
249	0x3cb7197d	0.022351021
250	0xbdd6591c	-0.10466215
251	0x3e10e571	0.14150025
252	0x3ba2646a	0.004955818
253	0xbc38e0e0	-0.011284083
254	0x3dd12b8d	0.10213385
255	0xbc89913c	-0.016792886

bias_ih_l0 f4 [256]
0	0xbd9fc7c3	-0.078017734
1	0x3e31eef7	0.17376314
2	0x3dcb06d6	0.09913413
3	0xbcb7ac4d	-0.022421027
4	0x3d547c7f	0.05187654
5	0xbc7e3755	-0.015516122
6	0xbdb01a00	-0.08598709
7	0xbd1eda19	-0.038782213
8	0xbcff46be	-0.031161662
9	0xb988b842	-0.00026077224
10	0xbd251fa6	-0.040313385
11	0xbd92c984	-0.07167342
12	0xbc4e25ca	-0.012582252
13	0x3dcfcbcb	0.10146292
14	0x3d173454	0.03691514
15	0xbbfce6e7	-0.0077179554
16	0x3d6e5b6f	0.058192667
17	0x3de66766	0.112501904
18	0xbd8cc0f2	-0.06872739
19	0xbd51e549	-0.051244054
20	0xbc966c36	-0.018362146
21	0x3dc7ee03	0.09762194
22	0xbdec2724	-0.11530903
23	0x3c8c64b8	0.01713787
24	0xbd8eeb0f	-0.069784276
25	0x3d1df0e2	0.038559802
26	0x3d9cf373	0.07663622
27	0xbdccec1b	-0.10005971
28	0x3dc7ec08	0.09761816
29	0x3bf2f73b	0.007414726
30	0x3d50cf9b	0.050979238
31	0x3d2711a8	0.040788323
32	0x3da7ef94	0.08199993
33	0x3d9c9915	0.076463856
34	0xbe10f256	-0.14154944
35	0x3decaf42	0.11556865
36	0x3e06a51b	0.1314892
37	0xbd0d4994	-0.034493998
38	0x3dd2b17d	0.102877595
39	0xbdbc4ff4	-0.09194937
40	0xbca401fc	-0.020020477
41	0xbda15668	-0.07877809
42	0x3e2cad39	0.16862954
43	0xbd409471	-0.047016565
44	0xbd1b9551	-0.037984196
45	0x3ca59f7e	0.020217653
46	0x3e257a8e	0.16160032
47	0xbb849ae0	-0.004046783
48	0x3d5cac87	0.053875472
49	0xbd96dc1a	-0.073662
50	0x3cecfa45	0.028927932
51	0xbd5fcb90	-0.05463749
52	0x3d88c084	0.066773444
53	0x3d9ecaf1	0.07753552
54	0x3e0c3733	0.13692932
55	0x3e035606	0.12825784
56	0x3c7d1023	0.015445742
57	0xbcbb8c3a	-0.022894014
58	0x3e0049bf	0.12528132
59	0xbda50987	-0.08058458
60	0x3bf69a9b	0.0075257546
61	0x3ddb45b5	0.10706655
62	0xbd4d0382	-0.050052173
63	0x3ddd7062	0.10812451
64	0xbe30f0ce	-0.1727936
65	0xbb86d5c8	-0.00411484
66	0xbd523768	-0.05132237
67	0x3d9635b6	0.07334463
68	0xbdd3d0d4	-0.10342565
69	0xbd79044e	-0.06079512
70	0x3d39210e	0.04519754
71	0xbe0c5270	-0.13703322
72	0xbe13d3ef	-0.14436315
73	0x3cf424c0	0.02980268
74	0xbdfcb28d	-0.12338743
75	0xbd34e086	-0.044159435
76	0xbdab87d2	-0.08375515
77	0xbe119893	-0.14218359
78	0xbda6c684	-0.081433326
79	0xbcd6f647	-0.026240481
80	0x3dd8d768	0.105879605
81	0xbe1650c5	-0.14679249
82	0xbdc75102	-0.09732248
83	0xbe056425	-0.13026483
84	0xbde30f53	-0.11086907
85	0x3d6cce4f	0.05781394
86	0xbdc52111	-0.096254475
87	0xbe0ba542	-0.1363726
88	0xbe1d2d0a	-0.15349212
89	0x3d214a04	0.039377227
90	0x3afb7c88	0.0019186893
91	0xbc88e6a2	-0.016711537
92	0xbe18566a	-0.14876714
93	0xbc84bb9a	-0.016202737
94	0x3d7716d1	0.060324494
95	0xbcf5f406	-0.030023586
96	0xbd3a8eb4	-0.04554625
97	0xbdf475aa	-0.11936505
98	0xbe044822	-0.12918141
99	0xbc89e71b	-0.016833832
100	0xbde69f8c	-0.112609
101	0x3c821871	0.015880795
102	0xbc3dfc3e	-0.011595784
103	0x3d06803e	0.032837145
104	0xbe26f12e	-0.1630294
105	0x3d82a995	0.063800015
106	0xbc1c70d6	-0.009548387
107	0xbdc756ca	-0.097333506
108	0xbcd23a1e	-0.025662478
109	0xbc07e30f	-0.008293881
110	0xbc8f5b45	-0.017499575
111	0x3d25195b	0.040307384
112	0xbddb3742	-0.10703899
113	0xbdf409a3	-0.119159006
114	0x3c2f701a	0.010707879
115	0x3dc27d4a	0.09496553
116	0xbcaf7590	-0.021418363
117	0xbd58f5be	-0.052968733
118	0xbdff4331	-0.124639876
119	0xbd7332f9	-0.059374783
120	0x3c43e33b	0.011956031
121	0xbd72d4b8	-0.059284896
122	0xbc44750c	-0.011990797
123	0xbdd40837	-0.10353129
124	0xbe0645bc	-0.13112539
125	0x3d8ea26f	0.069645755
126	0xbcfbf462	-0.03075618
127	0xba9e5652	-0.0012080169
128	0x3df9ccc2	0.121972576
129	0x3d855ac8	0.06511456
130	0xbd916e3a	-0.07101102
131	0xbe0e7e26	-0.1391531
132	0x3d688894	0.056770876
133	0xbd9e579b	-0.07731553
134	0x3cc26c99	0.023733424
135	0x3dc131ca	0.09433325
136	0xbe0dc90d	-0.13846226
137	0xbd138ca0	-0.036022782
138	0xbd0e50b1	-0.034744922
139	0xbdda3151	-0.106539376
140	0xbd4493bb	-0.04799245
141	0xbce18a1d	-0.027531678
142	0xbdd0318d	-0.10165701
143	0xbced98a9	-0.029003458
144	0x3dd509ee	0.104022846
145	0xbd162b94	-0.036662653
146	0xbd06c66a	-0.032904066
147	0x3d90dee4	0.07073763
148	0x3d90e908	0.07075697
149	0x3d43da10	0.047815382
150	0xbd802d11	-0.06258596
151	0xbb46c6ed	-0.0030330971
152	0xbb46a051	-0.0030307958
153	0xbcea4536	-0.028597455
154	0x3de7a400	0.113105774
155	0xbd0061f3	-0.03134341
156	0xbdbb9db5	-0.091609396
157	0xbda49e84	-0.08038047
158	0xbcedaf7c	-0.029014342
159	0x3dc555f3	0.09635534
160	0xbdaa2135	-0.08307115
161	0xbc2d8ef0	-0.010593161
162	0xbdc05234	-0.09390679
163	0x3d2ad75e	0.041709296
164	0x3d82eaf8	0.06392473
165	0xbe06e627	-0.13173734
166	0x3c8f8549	0.01751961
167	0xbd4355eb	-0.04768936
168	0xbcda1efb	-0.0266261
169	0xbd89f14d	-0.067354776
170	0x3c4067b1	0.011743472
171	0xbbb727d0	-0.005589463
172	0xbd06c8bb	-0.032906275
173	0x3c5203bd	0.012818274
174	0x3d245fa6	0.04013028
175	0x3ddda82f	0.10823094
176	0x3de9e712	0.11421026
177	0xbc536d17	-0.012904427
178	0x3dace11d	0.084413745
179	0xbdeb51a8	-0.11490184
180	0xbdbd4605	-0.09241871
181	0x3e00e7c6	0.12588415
182	0x3e12fc7c	0.14354128
183	0x3d57f219	0.052721117
184	0xbcfb1b50	-0.030652672
185	0xbdd9cb6f	-0.10634505
186	0x3df2e628	0.11860305
187	0xba4e6773	-0.00078736915
188	0xba5e1d63	-0.0008473007
189	0x3e1e11eb	0.15436523
190	0xbde49d2e	-0.11162792
191	0x3da98632	0.08277549
192	0x3cc150b2	0.023598049
193	0xbd24b776	-0.040214024
194	0x3df9aaa3	0.121907495
195	0xbdc75543	-0.09733059
196	0x3cd27f1e	0.02569538
197	0x3a767847	0.0009402078
198	0xbd192df1	-0.03739733
199	0xbd9d71a9	-0.076876946
200	0xbd6bb603	-0.057546627
201	0x3d4c9578	0.049947232
202	0x3dc75955	0.097338356
203	0x3df75a8c	0.12077817
204	0x3d0260b0	0.03183049
205	0xbd599fae	-0.053130798
206	0xbcb83362	-0.022485439
207	0xbc08b7cf	-0.008344605
208	0xbdb2bc34	-0.08727303
209	0x3d967583	0.07346632
210	0x3da3132b	0.079626404
211	0xbc39aa45	-0.011332099
212	0x3e06bdf4	0.13158399
213	0xbd8a8f81	-0.067656524
214	0x3d3f818a	0.046754397
215	0x3d031e31	0.032011215
216	0xbe00dd84	-0.12584502
217	0xbd623098	-0.055222124
218	0xbe2ceadc	-0.16886467
219	0xbdbeccc3	-0.09316399
220	0xbdc72a97	-0.0972492
221	0x3d97a7ce	0.07405053
222	0xbd66db78	-0.056361645
223	0xbcea4864	-0.028598972
224	0xbd5fe0ea	-0.054657854
225	0x3c9c7ecf	0.019103436
226	0x3d94e0d5	0.07269446
227	0xbd6dc522	-0.05804933
228	0x3cfaedcb	0.030630967
229	0xbde1d685	-0.110272445
230	0xbda71c97	-0.0815975
231	0x3ded1db8	0.11577934
232	0xbd57fa7c	-0.052729115
233	0xbdb704a7	-0.08936434
234	0xbb4b3719	-0.0031008183
235	0x3d511039	0.05104086
236	0xbe3cf301	-0.18452074
237	0xbd8ac8f9	-0.06776614
238	0xbd8ffd71	-0.07030762
239	0xbde6bae2	-0.11266114
240	0xbc2d3dc1	-0.010573805
241	0xbd60e36f	-0.054904398
242	0x3d8400f9	0.06445498
243	0x3cfd70b9	0.03093754
244	0xbdceea78	-0.10103315
245	0x3d89dc83	0.067315124
246	0xbde772ed	-0.11301217
247	0xbd0ce1a4	-0.034394875
248	0x3dd77f7e	0.10522364
249	0x3e0a7f4b	0.13525121
250	0x3b037bd2	0.0020062816
251	0xbc89a761	-0.016803445
252	0xbe05e965	-0.13077314
253	0xbd695f6a	-0.05697576
254	0xbe1f74da	-0.15571919
255	0xbdc7de2b	-0.09759172

bias_hh_l0 f4 [256]
0	0x3d635b33	0.055506896
1	0xbcc10835	-0.023563484
2	0x3e1d446a	0.15358129
3	0x3df341c5	0.11877779
4	0x3dfb92d9	0.12283868
5	0xbdacc944	-0.08436826
6	0x3cf4d095	0.029884616
7	0x3d24b0ce	0.040207677
8	0x3dad7ba9	0.08470852
9	0x3e443bb1	0.19163395
10	0x3d8161a6	0.06317453
11	0x3c38bf23	0.011276039
12	0xbd6e2d5c	-0.058148727
13	0x3c24bd88	0.010054953
14	0x3d5b403a	0.053528048
15	0x3de37d74	0.11107913
16	0xbd9a208e	-0.075257406
17	0xbdc91c26	-0.09819822
18	0x3b4f9dbc	0.003167971
19	0x3d38c3bf	0.045108553
20	0xbd1b2606	-0.03787806
21	0xbe098c6d	-0.13432474
22	0xbd6ffb5d	-0.058589328
23	0x3d200fa7	0.039077427
24	0xbd83e464	-0.064400464
25	0x3dd198f7	0.10234254
26	0x3da3db36	0.080007955
27	0xbdc20ec6	-0.09475474
28	0xbd856e07	-0.06515127
29	0x3d756c3a	0.059917666
30	0x3baeb36d	0.005331448
31	0x3c2ca402	0.010537149
32	0x3d1c4a8f	0.038157042
33	0x3cd7256a	0.026262958
34	0x3ca8f88f	0.020626334
35	0xbd823640	-0.063580036
36	0xbd6cfc28	-0.057857662
37	0x3e0b9b72	0.13633516
38	0x3d76a68e	0.060217433
39	0xbc0b7870	-0.008512601
40	0x3dc58024	0.096435815
41	0xbcb9695a	-0.022633243
42	0x3b9d2bc6	0.004796478
43	0xbccc8dfd	-0.024970049
44	0xbe42baa0	-0.19016504
45	0x3ddc786e	0.10765158
46	0x3d88da22	0.066822305
47	0x3c9864a7	0.018602682
48	0xbdf5b673	-0.1199769
49	0x3db379a0	0.087634325
50	0xbd7c5fea	-0.06161491
51	0x3c38f977	0.011289946
52	0x3dc0eff1	0.09420765
53	0xbcebdbc0	-0.028791308
54	0x3e0d0966	0.13773116
55	0x3dd22257	0.10260456
56	0x3dafefb3	0.08590641
57	0x3cdef3d8	0.027215883
58	0x3da418d1	0.08012546
59	0x3c93cf46	0.018043172
60	0x3d62675c	0.055274352
61	0xbdadb1ff	-0.08481216
62	0xbd6af92d	-0.05736654
63	0x3d4f729a	0.050646402
64	0x3c038757	0.008027873
65	0xbd8fa547	-0.07013946
66	0xbdb0d450	-0.086342454
67	0xbca63014	-0.020286597
68	0xbdde255b	-0.10846969
69	0xbde93fc5	-0.11389116
70	0x3a5b3cc0	0.00083632395
71	0xbd320561	-0.04346216
72	0xbdb093a6	-0.08621912
73	0xbd1f921f	-0.03895771
74	0x3cb38b57	0.021917028
75	0x3ac7f615	0.0015255833
76	0x3d6c22fc	0.05765055
77	0xbe13f489	-0.14448752
78	0x3d3b94e1	0.04579628
79	0xbd9e0bd1	-0.077170976
80	0xbdf1502d	-0.117828704
81	0xbd7b5dbe	-0.061368696
82	0x3d141cb0	0.03616017
83	0xbdf3de7b	-0.11907669
84	0xbd0efff5	-0.03491207
85	0xbcfa235c	-0.030534439
86	0x3cac7ac2	0.02105463
87	0x3d5442ad	0.0518214
88	0xbdf74836	-0.1207432
89	0xbe07cf31	-0.13262631
90	0xbe189bf3	-0.1490324
91	0xbbf56d59	-0.007489842
92	0x3c48bee9	0.012252548
93	0x3d2f7733	0.042838287
94	0xbe1f036d	-0.1552865
95	0xbe074d0e	-0.13212988
96	0xbe12ef87	-0.14349185
97	0x3cb370b5	0.021904329
98	0xbd756af6	-0.05991646
99	0xbe0e8a6a	-0.13919988
100	0xbe1d3e5f	-0.15355824
101	0xbcdc9e86	-0.026931059
102	0xbd346e5a	-0.044050552
103	0xbd5f50f2	-0.054520555
104	0x3ceefe76	0.02917407
105	0x3ca3dbea	0.020002324
106	0xbe20609b	-0.15661852
107	0xbe245b4a	-0.16050449
108	0xbd1add7b	-0.037808876
109	0x3d89d657	0.06730335
110	0xbd1785d1	-0.03699285
111	0x3d17a15f	0.03701913
112	0xbdcae7c2	-0.099074855
113	0x3d5b70c6	0.053574346
114	0x3d46f9d5	0.048578102
115	0xbd09ef80	-0.03367567
116	0xbda5903f	-0.080841534
117	0xbd9dc2f7	-0.07703202
118	0xbd69187d	-0.05690812
119	0x3d8b4380	0.06799984
120	0xbd0c4f4f	-0.034255322
121	0xbc8c9403	-0.017160421
122	0x3d49f99e	0.04931032
123	0xbc5820e6	-0.013191437
124	0xbd5df828	-0.05419174
125	0x3d8074be	0.06272267
126	0xbc8133c0	-0.015771747
127	0xbde05da4	-0.109553605
128	0x3d905cce	0.07048951
129	0x3cf279ed	0.029599154
130	0x3dba4fd2	0.09097256
131	0xbd1b62a7	-0.03793588
132	0x3dcdab9e	0.10042499
133	0xbd483f23	-0.048888337
134	0xbde241aa	-0.11047681
135	0x3d4d768b	0.05016188
136	0xbdf5783e	-0.11985825
137	0x3ddd7a91	0.10814393
138	0xbbacf02d	-0.0052776546
139	0x3c34d0e0	0.011036128
140	0x3d87be58	0.06628102
141	0xbc6a7208	-0.014309414
142	0xbe0107e9	-0.12600674
143	0xbdc425f8	-0.095775545
144	0x3dbe93f3	0.09305563
145	0x3d8856c1	0.06657172
146	0x3d839447	0.06424766
147	0x3d5b6d6e	0.053571157
148	0x3d77f339	0.06053469
149	0xbd9f8a97	-0.07790106
150	0xbcae892e	-0.021305647
151	0xbdaf09eb	-0.085468136
152	0xbdb14439	-0.086555906
153	0x3dec7f78	0.1154775
154	0x3d83c229	0.064335175
155	0xbc9dc97a	-0.01926111
156	0xbd88c2b9	-0.066777654
157	0x3d07f0bf	0.033188578
158	0x3b991ddf	0.0046727504
159	0x3cfbf609	0.030756967
160	0xbdef0788	-0.11671358
161	0xbd627bd1	-0.05529386
162	0x3dc9acc4	0.098474056
163	0x3dc0bfd9	0.09411592
164	0xbde43a68	-0.111439526
165	0x3d9ca366	0.07648353
166	0xbdd70e6b	-0.10500797
167	0xbba87f29	-0.005142112
168	0xbd813d3d	-0.063105084
169	0x3ce24b51	0.027623804
170	0xbd054031	-0.03253192
171	0xbc99750b	-0.018732568
172	0xbb7931c3	-0.0038024045
173	0xbe02ec74	-0.12785512
174	0x3c664562	0.014054628
175	0x3d989a43	0.07451298
176	0x3d66560c	0.056234404
177	0xbdc55191	-0.09634698
178	0xbc87016d	-0.016480172
179	0xbd4a9f5c	-0.049468383
180	0xbd111a4b	-0.035425466
181	0x3dcb79c3	0.099353336
182	0xbbb8224c	-0.005619323
183	0x3d90e49b	0.07074853
184	0xbd2cff13	-0.042235445
185	0xbc8db38c	-0.017297529
186	0x3d9f942d	0.07791934
187	0x3a87213e	0.001030959
188	0xbd6e42d2	-0.058169194
189	0x3d97111e	0.07376312
190	0x3da01629	0.07816727
191	0x3d30defc	0.043181404
192	0x3d1ac932	0.03778953
193	0xbd25e3fe	-0.040500633
194	0x3dd4ca0c	0.103901
195	0x3daca743	0.0843034
196	0x3de323b5	0.11090795
197	0x3cc48889	0.023990886
198	0x3de3ed56	0.111292526
199	0x3cf4317c	0.029808752
200	0x3de0ee43	0.10982945
201	0xbc895638	-0.016764745
202	0x3da265d1	0.07929576
203	0xbda0aadb	-0.07845088
204	0x3dddd6c7	0.10831981
205	0x3c1bd433	0.009511041
206	0x3deb9971	0.11503876
207	0xbbfb77df	-0.007674202
208	0x3e0fdef4	0.14049894
209	0xbc62d42a	-0.013844529
210	0x3d8b6370	0.068060756
211	0xbe43fc11	-0.19139124
212	0x3da6bd93	0.08141627
213	0xbce38d17	-0.027777238
214	0x3dbb12d5	0.09134451
215	0xbdb2998e	-0.087206945
216	0xbd3652b2	-0.04451246
217	0xbd2d27d1	-0.0422743
218	0xbe2c5c85	-0.16832168
219	0xbdf674f9	-0.120340295
220	0xbddacfa7	-0.10684138
221	0xbc205822	-0.0097866375
222	0x3d185a09	0.03719524
223	0xbdfe2e50	-0.12411177
224	0xbdbcc0ce	-0.09216462
225	0x3dba934c	0.09110126
226	0xbdc0eefa	-0.09420581
227	0xbd9f213e	-0.07770012
228	0x3de61cfc	0.11235997
229	0xbc3c1cc0	-0.011481464
230	0x3b6a6049	0.0035762957
231	0x3d43b1e4	0.04777707
232	0xbd201513	-0.039082598
233	0x3dc06df7	0.09395974
234	0x3ddb7aa0	0.10716748
235	0xbe14877b	-0.14504807
236	0xbc13667f	-0.008996605
237	0x3d3ebf91	0.04656941
238	0x3db7b49b	0.08969995
239	0xbd58ee53	-0.05296166
240	0xbafd6922	-0.00193337
241	0x3da1c6cb	0.07899245
242	0xbd23bc22	-0.03997434
243	0x3dc95916	0.09831445
244	0x3d996cb3	0.07491436
245	0xbdcb7c0e	-0.09935771
246	0x3dcce969	0.10005457
247	0xbd448ebc	-0.047987685
248	0xbda87528	-0.08225471
249	0x3e07ff93	0.13281088
250	0xbc93e8ec	-0.018055402
251	0x3b942d7a	0.004522023
252	0x3caf43ac	0.021394573
253	0xbd3c4cee	-0.045971803
254	0x3d535016	0.051590048
255	0xbdb22ec1	-0.08700324

weight f4 [1, 64]
0	0xbcb15cd1	-0.021650704
1	0x3d2aad59	0.041669223
2	0xbdbb751d	-0.09153197
3	0x3d57fc9b	0.052731138
4	0xbde7abe2	-0.11312081
5	0x3d575628	0.0525724
6	0x3da627a6	0.08113031
7	0x3ddf3373	0.10898485
8	0x3df0ae2d	0.117519714
9	0xbdb02bb0	-0.08602083
10	0xbd58cebf	-0.052931543
11	0x3dd99f3e	0.10626076
12	0xbdd01e06	-0.101619765
13	0xbdacf856	-0.08445804
14	0x3dcd883b	0.100357495
15	0x3dd494df	0.103799574
16	0xbd631c37	-0.05544683
17	0x3dc64466	0.09681015
18	0xbdf1c3b9	-0.11804909
19	0xbcfc39f9	-0.030789362
20	0xbdd8bca6	-0.10582857
21	0xbd3bc97c	-0.045846447
22	0xbd9a3d5a	-0.07531233
23	0xbd9fe763	-0.078078054
24	0x3da11997	0.07866209
25	0xbe11f3da	-0.14253178
26	0x3b33d3b9	0.002743943
27	0x3d811e1d	0.06304572
28	0x3d9f135c	0.077673644
29	0x3d86b5d6	0.06577651
30	0x3c9427eb	0.01808544
31	0x3c416377	0.011803499
32	0x3e1e6e5c	0.15471786
33	0xbdb4338e	-0.08798896
34	0x3d94767b	0.07249161
35	0x3da2eb02	0.079549804
36	0x3e112f9e	0.14178321
37	0x3dee672e	0.11640774
38	0x3e076325	0.13221414
39	0xbe07a387	-0.13245974
40	0xbd8ae952	-0.067827836
41	0x3d8d8375	0.06909839
42	0xbe04a06a	-0.12951818
43	0x3ce4e404	0.027940758
44	0x3c1a9ba6	0.009436524
45	0x3dcc7b29	0.099844284
46	0xbd005f8a	-0.031341113
47	0xbd8ff661	-0.07029415
48	0x3d7b4b62	0.061351188
49	0xbd9a0db3	-0.07522144
50	0xbd7d9fc2	-0.061919935
51	0x3dea2a97	0.114339046
52	0x3d459207	0.048234966
53	0xbe1368d8	-0.14395463
54	0x3d5f2d17	0.05448636
55	0x3d9c29b4	0.07625142
56	0xbdab3588	-0.0835982
57	0xbd7ebd5d	-0.06219231
58	0xbd8fa7d5	-0.07014433
59	0x3d66f895	0.05638941
60	0xbd0d9038	-0.034561366
61	0xbdd4c4bc	-0.103890866
62	0x3c5acd46	0.013354605
63	0xbd385de9	-0.045011435
