model/3974.047433033481_weight.pth (torch, 90511 bytes, 7 tensors)

weight f4 [16, 32, 1]
000000 cd f2 83 bc 57 65 a2 3e c3 05 9c 3e 9a 9e c4 bd
       -0.016106987 0.3171794 0.30473146 -0.09600563
000010 b4 6e f8 3d b7 bf 53 bd f5 d0 23 be cc 84 10 3e
       0.1213049 -0.051696505 -0.1599768 0.14113158
000020 ed 3a 14 bd 1e 4d a1 3c f5 ce 1c 3d a8 15 08 3b
       -0.03618901 0.019690093 0.038283307 0.0020764861
000030 0d 8f 18 3d 00 42 be bd 5b 82 2b 3e b6 bd d1 bd
       0.0372458 -0.09289932 0.16748945 -0.102412626
000040 7c 58 cb 3b 2e dd 02 3e 16 53 0d 3e f9 47 d9 3c
       0.0062056165 0.12779686 0.13801226 0.026523577
000050 da f6 f6 3d 8a c6 0c bd e3 0b d8 3d f9 c7 ab 3b
       0.12058802 -0.03436903 0.10549142 0.0052423445
000060 17 c6 dd bc 35 7c 06 be 35 5c a1 3d 03 ac ed 3d
       -0.027071996 -0.13133319 0.07878915 0.11605074
000070 26 b1 65 3d 59 ea b7 3d e7 af 41 3e f4 74 dc bc
       0.056077145 0.08980245 0.18914758 -0.026911236
000080 f6 5b 8c 3e cc 9a 96 3e 55 7e 14 3e 1d 13 ac bb
       0.2741391 0.29414976 0.14501317 -0.005251302
000090 03 3d 0c bd 1f 7b ab 3d 38 d6 28 be ac 2c 3e bd
       -0.034237873 0.08373093 -0.16487968 -0.04642932
0000a0 a6 cf 0d 3e 60 e8 a9 bd df 8d 39 be 19 46 11 be
       0.13848743 -0.08296275 -0.18120526 -0.14186896
0000b0 9c 8d 90 bd a6 a5 97 3d ca 2c 78 3d 1c 35 d0 bc
       -0.0705826 0.07404642 0.06058959 -0.02541595
0000c0 d5 44 b5 3d fd 06 be 3c 47 43 f6 bc 15 77 b9 3d
       0.08851019 0.023196692 -0.030061377 0.09055916
0000d0 ec ca 9e bc cb 8b c1 3d 41 a9 57 bc 86 86 e3 3d
       -0.01938387 0.094504915 -0.013162912 0.11109643
0000e0 fa ab fe bd 69 b2 3c bc 7f 17 bd 3d d7 40 37 3c
       -0.12435146 -0.011517146 0.09232997 0.011184893
0000f0 b7 03 c9 3d fe ee 2e 3c ee 31 05 be 17 c0 03 be
       0.09815162 0.010677097 -0.13007328 -0.12866245
000100 62 ae 99 3e 8c e3 77 3c 51 05 92 3e a3 44 50 3d
       0.30015856 0.015129935 0.2851968 0.050846707
000110 f7 9d ac 3c ee dd 11 be 20 52 09 be dc 21 23 be
       0.021071417 -0.14244816 -0.13410234 -0.15930885
000120 5a 90 97 bd 69 f6 bf bc 3a 51 91 3d 08 5b 10 3e
       -0.0740058 -0.023432927 0.07095571 0.14097226
000130 30 c3 cf bd 2f cb c2 3d 78 3a c2 3d b4 ca 75 bd
       -0.10144651 0.095114104 0.09483808 -0.060007766
000140 73 04 21 be cf f1 6f 3e a5 27 2b 3d 4e 9c eb bc
       -0.15724353 0.23432086 0.041785855 -0.028761055
000150 97 09 17 3e fb f4 bd 3c c4 f3 82 bd e6 22 39 3e
       0.14749752 0.023188105 -0.06394151 0.18079719
000160 46 6f 80 3d 12 1d 28 3e 0f a1 07 be 44 a4 01 be
       0.06271224 0.1641734 -0.13245033 -0.12660319
000170 7c 9a 11 be e1 23 80 be 7a 4d 7b 3d c6 0e 86 3d
       -0.14219087 -0.25027373 0.061353184 0.065457866
000180 35 9d a6 3e 8f 99 02 3e 13 c7 bc 3d 49 14 46 3d
       0.32541814 0.1275389 0.09217658 0.04835919
000190 2b d5 20 3d 10 7b f2 3d 9b ea 0e be d7 0f bc bb
       0.039265793 0.118398786 -0.13956682 -0.005739193
0001a0 8e 41 01 be 5b b7 cd 3d f6 6b 25 be ba f2 e6 bd
       -0.12622663 0.10044738 -0.16154465 -0.11276765
0001b0 94 1e a6 3d ac 31 b4 bd 68 ae 0f be 8d 51 19 3e
       0.08111301 -0.08798537 -0.14031374 0.14972515
0001c0 81 5c 24 be 48 63 db bb 92 b5 00 be 53 26 c1 bd
       -0.16050912 -0.006695185 -0.12569264 -0.09431138
0001d0 ae e1 88 3e b5 3a 1d be 0a a4 c0 3d da f1 6d bc
       0.2673468 -0.15354426 0.09406288 -0.014522994
0001e0 62 c6 85 3d f7 c6 27 be bd c9 49 bd c8 9f 8f 3d
       0.06531979 -0.16384493 -0.04926466 0.07012898
0001f0 15 05 28 3d 73 d3 4d be f2 1c ef bd 45 e4 33 bd
       0.04102047 -0.20100193 -0.11675443 -0.043918867
000200 4c fb 14 be 1a c6 38 3d e7 cd 37 3c e6 9a 14 bd
       -0.14548987 0.0451108 0.011218525 -0.036280535
000210 50 df e1 3d 9c d1 a9 bc 2a c3 7c bd ab 2f 3d bd
       0.110289216 -0.020729832 -0.06170956 -0.046188038
000220 e7 ef de bd 1d 6b 36 3e b7 55 2c bd 6e c5 a0 3c
       -0.108856015 0.17814298 -0.04207393 0.019625392
000230 e5 e3 a4 bd 29 c6 12 3d ad 5b c1 bd 71 39 ec 3d
       -0.0805128 0.03583351 -0.09441314 0.115343936
000240 4f 17 a9 3d dc 49 81 bd 1d e2 1e be 18 7b 0b be
       0.08256399 -0.06312916 -0.15515943 -0.13621175
000250 e3 0c 6a be 06 62 e9 bd c1 95 5d bd 64 f9 e0 3c
       -0.22856478 -0.113956496 -0.054097895 0.027462669
000260 04 a5 21 3e 68 77 b4 bd fa 16 b0 bd 13 e4 1a 3d
       0.15785605 -0.088118374 -0.085981324 0.037815165
000270 70 61 e4 bd 9d 3e 86 3e 08 bc d2 3d 88 79 7b bd
       -0.11151397 0.26219645 0.1028977 -0.061395198
000280 73 bd 83 3e 7f e6 c6 3d 39 f0 96 3e aa e0 15 3d
       0.25730476 0.097119324 0.2948015 0.03659121
000290 64 c5 40 3d 84 fa 4c be 96 2f 26 be 32 bb 3e be
       0.047063246 -0.20017439 -0.1622909 -0.18626097
0002a0 19 29 87 bc d5 51 06 3e 49 0d 8a bd 88 e6 f9 bd
       -0.01649909 0.13117154 -0.06740815 -0.122021735
0002b0 af 3d 93 3d f2 ce dd 3d 13 b6 c4 bd 25 86 97 bd
       0.071894996 0.10830487 -0.096050404 -0.07398633
0002c0 1e 11 78 bc 30 39 6e 3e 7b 00 42 3e 36 97 2e bd
       -0.0151408 0.23264003 0.18945496 -0.042624675
0002d0 76 bf 90 3e a6 7b bb 3c a2 e6 e1 3d 6a ea 0f be
       0.28271073 0.022886109 0.11030318 -0.14054266
0002e0 d1 79 db bd 4f 8b 32 be 20 65 b8 3d 9d 07 e4 3c
       -0.10716594 -0.17435955 0.09003663 0.027835662
0002f0 b0 4d 93 3d 5a 3d 19 be 42 e5 3e 3e 00 54 bb bb
       0.07192552 -0.1496481 0.18642142 -0.0057168007
000300 29 65 8b bd e6 cf 52 be 3a 08 3f be 7b 0e 19 3c
       -0.06806404 -0.2058712 -0.18655482 0.009341831
000310 d2 93 33 be 03 e1 11 bd 06 04 16 bd 71 16 cc 3d
       -0.17536858 -0.03561498 -0.03662493 0.09965218
000320 cc 1c a2 3d 54 e9 cf bd be a3 bb 3d ff ee a1 3d
       0.07915649 -0.10151926 0.09162091 0.07906913
000330 31 6c c7 3d 1b f6 97 3d 51 44 12 3e c8 68 15 bd
       0.09737433 0.07419988 0.14283873 -0.03647688
000340 40 e3 4f 3c 89 5b 8a 3e d3 07 1a bd 14 fa 15 bd
       0.012688458 0.2702296 -0.037605118 -0.036615446
000350 7a 7a e1 3e 47 48 9b bd 58 f4 3b 3d d9 c4 ae 3d
       0.44038755 -0.07582145 0.04588732 0.085336395
000360 a0 32 54 3e 8e dd 0c be 2d 92 c4 bd f0 59 00 be
       0.20722437 -0.13756391 -0.09598193 -0.12534308
000370 19 07 6f 3d 4f 50 0e be 89 e5 8c 3d 52 83 1f be
       0.05835638 -0.13897823 0.06879718 -0.15577438
000380 eb 14 90 3e 54 c2 4a 3e 8f 9b 14 3e d3 e2 0f 3e
       0.2814096 0.19800693 0.14512466 0.1405137
000390 32 cd 2f 3d 17 7c aa 3c 0a fc 16 be 09 25 a1 bd
       0.0429203 0.020811124 -0.14744583 -0.07868392
0003a0 41 b7 b8 bc 36 3d 39 bd 52 ac da bd d0 92 29 3e
       -0.02254832 -0.04522439 -0.10677399 0.16559911
0003b0 9a 04 02 3e ec 9c 7f 3c c8 79 36 3e cd a2 d3 3d
       0.12697068 0.015601378 0.17819893 0.10333786
0003c0 92 b8 c9 3d cf 30 b5 3d fa 9f 2c be 3e a4 26 be
       0.09849657 0.088472 -0.16857901 -0.16273591
0003d0 4c 94 c8 bd 03 f6 1c be 40 4d 18 3d de 7d 22 be
       -0.097939104 -0.15328221 0.037183046 -0.15868327
0003e0 e6 ff 3e 3c b8 7e 26 3d 1a bd 2b be 02 d0 fa bd
       0.011657691 0.040648192 -0.16771355 -0.122467056
0003f0 5a 07 08 bc c3 80 a7 3c b3 da f6 3d e4 2b 86 3b
       -0.008302534 0.02044714 0.12053432 0.0040945876

bias f4 [16]
000000 04 f6 31 be a6 7e 45 3e 53 5b 14 3d 48 47 78 bd
       -0.17379004 0.19286594 0.036219906 -0.060614854
000010 c4 f6 10 bd 62 5f 07 3c 88 4f 38 bd db ff 7c bd
       -0.035391584 0.008262487 -0.044997722 -0.06176744
000020 30 d5 d9 bb ae 1d 05 be c1 30 4d 3d f9 fa 53 bc
       -0.0066477284 -0.12999603 0.050095323 -0.0129382545
000030 5f 8f 34 3d e2 d7 97 3d 66 73 d1 3d 2b fe 48 be
       0.04408204 0.07414223 0.10227089 -0.19628207

weight_ih_l0 f4 [256, 16]
000000 5b d7 66 3d 50 f8 8e bd 6f f3 1f be bb f7 1f be
       0.056357723 -0.069809556 -0.15620206 -0.15621845
000010 05 79 99 bd e6 86 d2 bd 0d e1 4e bd cd 84 75 bd
       -0.07493786 -0.10279636 -0.050507594 -0.0599411
000020 e8 2a ff bd ca bc aa bd ba 84 94 bd c3 a1 c9 3d
       -0.124593556 -0.0833679 -0.07251878 0.09845307
000030 56 f0 55 3d 36 98 ca 3d 8e 43 51 be ff d8 82 3c
       0.052231155 0.09892313 -0.20435926 0.015972612
000040 15 dd 0e 3d 4b 37 9e 3c 6f 96 25 3d b1 52 dc bd
       0.03487881 0.019313475 0.040426668 -0.1075796
000050 a6 ee 92 3d 7a f1 be bc f3 a4 93 3d 73 96 26 bd
       0.07174425 -0.023308504 0.07209196 -0.040670823
000060 04 04 6c bd ea 7f aa 3d ca 8c e9 bc 0a 07 52 bd
       -0.057621017 0.08325179 -0.028509516 -0.051276244
000070 c4 a0 ab bb 0f 95 a5 bc d7 5e 33 3c c2 a8 30 be
       -0.0052376706 -0.020212678 0.010947905 -0.17251876
000080 2f b7 9c bd 25 89 2d bd 15 32 73 be ed 24 9b bd
       -0.07652127 -0.04236712 -0.23749574 -0.075754024
000090 1c 0f 32 3c 89 85 df bd f6 cc 6b be 51 4b d6 bb
       0.01086786 -0.10914142 -0.23027405 -0.00653974
0000a0 e1 b0 3d 3d 72 e1 9f bc 8b d0 d5 bd 9f 79 b7 bb
       0.046311263 -0.01951668 -0.10440167 -0.005599215
0000b0 ab f4 f1 3d b2 75 3c bd 1a ce 74 3d ac 67 e0 bd
       0.11814245 -0.04601068 0.059766866 -0.10957274
0000c0 30 03 1a 3c 57 dc 2f bd 29 30 0b 3e 87 f4 4e 3e
       0.009400174 -0.04293474 0.1359259 0.20210467
0000d0 e7 b7 a4 3c c4 41 96 3d d5 89 a6 bb f2 12 c2 ba
       0.020107223 0.073367625 -0.005082349 -0.0014806672
0000e0 5f 94 07 3e 25 43 9c bd 89 10 ec 3d d0 93 98 3d
       0.13240193 -0.07629994 0.11526591 0.07450068
0000f0 30 34 1b 3d 2e 67 fe bd 9a c5 0b 3e a4 75 f0 bc
       0.037891567 -0.12422024 0.13649598 -0.02935297
000100 a0 8d 03 be 4e b3 34 bd f6 db 3d be 98 e7 1b be
       -0.12846994 -0.04411631 -0.1854094 -0.15225065
000110 6d 12 ed 3d 2e 39 30 be 29 20 80 be 8a 78 8c 3d
       0.1157578 -0.17209312 -0.25024536 0.068589285
000120 a6 bd 8e 3c 17 1d 0c 3d 89 c2 20 be 9c 91 4b 3d
       0.017424416 0.03420743 -0.1569921 0.04969941
000130 95 40 dd bb 34 df 03 3d 3b ef 3c bd e7 e3 da ba
       -0.0067520835 0.032195285 -0.046126585 -0.00167
000140 a3 53 e0 3d ce c2 52 bc a4 d3 7d 3d 0c b4 95 bd
       0.109534524 -0.012863828 0.061969414 -0.07309732
000150 fc 68 8d 3d d4 76 28 be 49 06 88 be 02 f3 a9 bd
       0.0690479 -0.1645158 -0.26567295 -0.08298303
000160 de ff 10 3d f6 bf 9a 3d 3b 41 6e bc d1 e6 ee 3d
       0.035400264 0.07556145 -0.014541919 0.116651185
000170 be 62 93 bd d3 41 dd 3d c3 a5 d2 bd 65 ec c0 3d
       -0.07196568 0.108035706 -0.10285523 0.09420089
000180 3e 1d d4 bd 50 c1 90 bd ef fd 7a 3d 67 df a6 bc
       -0.1035714 -0.070681214 0.061277326 -0.020370198
000190 f8 03 d0 bd cc db d2 bd a1 70 46 be e9 0a ea 3c
       -0.10157007 -0.10295829 -0.19378902 0.028569655
0001a0 15 59 c3 3d b8 56 7c bd 40 f1 83 bd c0 6c 0d bd
       0.095384754 -0.06160614 -0.06442499 -0.03452754
0001b0 c5 9f 30 bd 9d 8c ff 3b 10 a3 ae bc e4 fa 04 bd
       -0.043121118 0.007798745 -0.021317989 -0.03246583
0001c0 a3 01 0e be 58 d5 2d be 15 54 b9 bd ff bd 88 bd
       -0.13867812 -0.16975915 -0.090492405 -0.06676864
0001d0 40 bd 8b bd 7a 65 70 3d 2d 6f 81 bd aa 88 b1 bc
       -0.06823206 0.058690526 -0.06320033 -0.021671612
0001e0 0a fa 1d be 1d 72 a5 3d c4 0e 95 bd 94 a4 21 3e
       -0.15427414 0.08078406 -0.07278207 0.15785438
0001f0 89 67 2b bd 7d 21 19 bd 5e dc 0f bd a3 5d b8 3d
       -0.041846786 -0.037385453 -0.035122268 0.09002235
000200 8b e2 a6 bd 82 af 0f be 74 95 aa 3c 3e eb c5 bd
       -0.081486784 -0.14031795 0.020823218 -0.096640095
000210 7c a8 0e be b4 02 62 be 44 36 f0 bb 15 b3 07 3d
       -0.13931459 -0.22071344 -0.0073306877 0.03312977
000220 f9 fe b0 3d f2 91 bb bb c7 49 4d bc 10 4c 00 be
       0.08642382 -0.005724185 -0.012529797 -0.12529016
000230 e5 33 de 3c 88 2e 0a 3d 52 97 14 bc d8 96 7a bd
       0.027124355 0.033735782 -0.009069281 -0.061179012
000240 65 de cd bb 55 79 4e be 40 c5 5f be 6f 62 99 bd
       -0.006282615 -0.20163472 -0.21852589 -0.07489478
000250 66 81 40 bc 4c f1 45 be a2 73 99 3e 14 57 f1 bd
       -0.011749601 -0.19330329 0.29971033 -0.11784187
000260 e1 1f 36 be 77 e7 54 3d 05 42 3b be 37 af b5 3d
       -0.17785598 0.051978555 -0.18286903 0.0887131
000270 cd a0 ab 3d 53 7d b8 3d 7e 1f cc bd 31 8b 4e be
       0.0838028 0.09008279 -0.09966944 -0.20170285
000280 ec e1 2b 3e fe f0 c4 bd 0c 60 33 3e 0d 44 e5 bd
       0.16785401 -0.09616278 0.17517108 -0.1119462
000290 be bf 0f be fd 96 19 3c cf 3d 30 be 47 4c f7 3d
       -0.14037988 0.009374377 -0.17211078 0.120750956
0002a0 ad 65 22 3e 97 e1 b2 bc f4 a3 7d 3e 5b 45 31 be
       0.15859099 -0.021836085 0.24769574 -0.17311613
0002b0 e9 5e ce bc 5d a1 10 be 15 53 e7 3d 06 66 b3 3d
       -0.025191741 -0.14124055 0.112951435 0.08759694
0002c0 2c b9 bd bd 42 3a 9e ba e7 22 cc bd 11 54 b2 3b
       -0.09263834 -0.0012071806 -0.099675946 0.0054421504
0002d0 c9 78 06 3e 79 2f fb bc 5e 49 98 bd b5 c9 05 be
       0.13132013 -0.030662285 -0.07435869 -0.13065226
0002e0 6d fd 9d 3d 8a 4e 1f 3e 12 7a 03 be 75 8b 68 3b
       0.07714353 0.15557304 -0.12839535 0.0035483513
0002f0 ce 09 b6 3d 0c 56 66 3c 1a 47 32 3b 47 18 95 bd
       0.08888589 0.014058601 0.0027203024 -0.07280021
000300 8e c8 df bc a1 9f be 3c c5 77 cb 3d 2a 1e b1 bb
       -0.027317312 0.023269476 0.099349536 -0.005405207
000310 68 4b ca bd 57 4c 50 bd 67 5a 20 bd 42 b4 26 3e
       -0.09877664 -0.050854053 -0.039148714 0.162797
000320 d1 a7 98 bd 9e 08 82 bc 8d 6c 13 3e e9 2c 42 3d
       -0.074538834 -0.01587325 0.14396878 0.04740611
000330 bc 98 b3 bd ed d8 5d 3d 67 22 d6 bc b4 84 01 3e
       -0.08769366 0.054161955 -0.026139451 0.12648278
000340 ed c5 ff bc 00 5a 84 3c 47 15 81 3c 96 6b 7a be
       -0.031222308 0.016156197 0.015757216 -0.24455103
000350 21 d8 98 3d dc f2 cc bd b6 4b c7 3d ed eb 97 bc
       0.07463098 -0.10007259 0.097312376 -0.018545115
000360 e3 68 2c be b9 1c d0 3d 50 97 4f be c6 fd 04 3e
       -0.16836886 0.101617284 -0.20272565 0.12987432
000370 6f 9f 2e 3c b2 76 19 bc 38 f2 4f be 7c c7 c2 bd
       0.010658129 -0.009366678 -0.20307243 -0.09510705
000380 a1 cb 0a bd b5 27 26 be 3c 05 11 be 0e c7 bf bb
       -0.033885602 -0.16226085 -0.14162153 -0.0058525866
000390 7f 34 40 bd ac 8a 78 bd 78 13 90 bd 6e d3 89 bb
       -0.046925064 -0.060679123 -0.07034963 -0.0042061126
0003a0 37 ea b7 3d fa 3c ab 3d 18 14 12 be 8d ef 5c bd
       0.0898022 0.0836124 -0.14265478 -0.05393939
0003b0 2c 66 9a bd 68 10 55 3d d8 06 c1 bc da a9 e3 bc
       -0.07539019 0.0520176 -0.023562834 -0.027790952
0003c0 f4 99 e5 bc 4d 9f ee bd 1b 94 18 bd 33 77 2a be
       -0.028027512 -0.11651478 -0.03725062 -0.16647033
0003d0 cc 60 99 3d 08 b8 07 be f2 86 5e bd 4e de d2 bd
       0.07489166 -0.13253796 -0.054327913 -0.102963075
0003e0 54 e8 9b bd 2f fa b0 bc 8f 6c 55 3d d3 61 76 bd
       -0.076126724 -0.021603672 0.052105483 -0.060151886
0003f0 8d bb 20 3d e3 fc 36 3b 00 52 11 bd 26 dc 9e ba
       0.039241362 0.0027921728 -0.035478592 -0.0012120053

weight_hh_l0 f4 [256, 64]
000000 83 a1 e3 3c cd 0a a3 3d 1a d0 08 be 53 3c a5 3c
       0.027786976 0.079610445 -0.13360634 0.020170366
000010 fb 3c c5 3d 13 54 14 3d a9 ac cd bd 3b 26 bb bd
       0.09630772 0.036212992 -0.10042698 -0.09138151
000020 b0 c8 d0 bd 87 aa d8 bd ba ca 61 3b ec 4d 42 3d
       -0.10194528 -0.105794005 0.003445311 0.047437593
000030 91 cd 19 be 3f 2b a9 3d 11 5e 2c 3d 52 94 83 bd
       -0.15019824 0.08260202 0.042081896 -0.06424774
000040 4e 38 20 be ec 87 4a 3d ac 54 a5 bc a5 b4 30 bd
       -0.15646479 0.04944603 -0.020181976 -0.043141026
000050 12 6c 79 bd 22 7c 23 3c 9a 27 ca 3b 99 04 a7 3d
       -0.06089408 0.009978326 0.0061692717 0.08155174
000060 9e 8d 92 bd 4d 6c 50 3e 56 53 84 bd d3 12 5f bd
       -0.071559176 0.20353813 -0.064612076 -0.05446131
000070 a1 3f 73 bd ed db e1 3d 49 34 1e 3e 0d 41 b6 3d
       -0.059386853 0.11028276 0.15449633 0.08899126
000080 28 a5 91 3d 58 c7 30 3c ce 22 1e 3a ca eb a1 3c
       0.07111579 0.010789715 0.0006032408 0.019765753
000090 8f e2 76 bd 68 70 01 be b5 65 08 bc cd 51 80 3d
       -0.060274657 -0.12640536 -0.00832503 0.06265602
0000a0 00 06 16 be 95 bf 72 bc 3c a7 65 3d 3a 43 0a 3e
       -0.14650726 -0.0148161845 0.05606769 0.13502207
0000b0 08 9d b6 3d 44 ef 91 bd 6e f1 27 3d ef 3e 9b 3d
       0.0891667 -0.071257144 0.04100173 0.07580363
0000c0 0c e6 6d bd 58 ba e4 bd 37 55 6d 3d 37 d1 46 3d
       -0.058080718 -0.11168355 0.057942595 0.048539367
0000d0 fc e7 6b 3c 0d b7 96 bd 69 9e 69 bd 9a 34 2a bd
       0.014398571 -0.07359133 -0.057035837 -0.04155407
0000e0 cc 16 96 3d 7c 56 7a bc 12 44 80 bd 04 09 5d bd
       0.07328567 -0.015279409 -0.062629834 -0.053963676
0000f0 1f b6 4f bd a6 9e 52 3d 4d a9 88 bd c9 0b 85 bd
       -0.050710794 0.05142083 -0.066729166 -0.064963885
000100 88 67 bf bd 2f 4f 50 bd 12 36 91 bd b2 81 d6 3d
       -0.09345919 -0.050856765 -0.07090391 0.10473956
000110 1e 5b 1d 3d 6b 47 bb 3d 9a d6 ae 3d 3f 7b 93 bc
       0.038416974 0.09144481 0.08537026 -0.018003104
000120 0b 8b f6 3d 24 38 a9 bd 73 c7 8a 3d 66 aa 6c 3c
       0.12038239 -0.08262661 0.06776323 0.014444923
000130 b4 8b eb 3c 02 fb 4b bc b2 69 86 bc 4c 0b d2 bb
       0.02875314 -0.012449982 -0.016407821 -0.006410038
000140 ea a4 03 3e a6 b5 fb bd c4 00 0a bd 97 ba 0b bd
       0.12855878 -0.12290506 -0.033692136 -0.034113493
000150 4b 60 fb 3d 80 d5 e1 3c 4d f0 16 3e fb e1 a1 bd
       0.12274226 0.027567625 0.14740105 -0.079044305
000160 8c f4 74 3d 96 d3 84 bd e2 e5 c7 bd 55 84 fb 3d
       0.05980353 -0.06485669 -0.097606435 0.122811
000170 1d d0 9e bd c3 e7 8d 3d 99 ac 5d bd 9c 20 1e 3d
       -0.07754538 0.06928971 -0.05411968 0.038605317
000180 d6 0f a6 3c a2 92 db bd 30 d2 55 bd 7c d4 0a 3e
       0.020271223 -0.10721327 -0.052202404 0.13557619
000190 c9 f2 26 3d 8b c3 a7 3d 32 09 0c bc 0e 48 f8 bd
       0.04075888 0.08191594 -0.008547114 -0.12123118
0001a0 7c fb a1 bd 09 40 a7 bd 43 14 df 3d f1 b7 33 3c
       -0.07909295 -0.081665106 0.108925365 0.010969148
0001b0 65 1c 70 3d 20 86 b7 3d c0 b7 89 bb ee 35 1b 3d
       0.05862083 0.08961129 -0.004202813 0.03789323
0001c0 eb fa 35 bd 13 88 17 bd 04 99 80 bd 6b f1 06 3e
       -0.044428747 -0.036995005 -0.062791854 0.13178031
0001d0 0d 18 f6 bd 10 ac 98 bc b6 b1 07 3e 01 39 a6 bd
       -0.12016306 -0.018636733 0.13251385 -0.081163414
0001e0 6b 58 97 3d 9e 5a a2 3b 39 8d 01 bd 3f d3 e3 bd
       0.07389911 0.00495465 -0.03162882 -0.11124276
0001f0 0a 74 03 3c cc e2 95 3d 85 89 94 bd 66 84 8b bb
       0.008023271 0.07318649 -0.07252792 -0.0042577265
000200 ee 25 f2 bc 3e 04 88 bc 20 a8 01 3e a9 1e 19 3e
       -0.029559102 -0.016603585 0.12661791 0.14953102
000210 2b 2e 56 bc ef a8 92 3d e4 df 22 bd 25 92 dd 3d
       -0.013072531 0.07161128 -0.0397643 0.108188905
000220 8c 4d 0a 3c 7d 89 0b bd d9 1d 9c bd 32 2c 65 bd
       0.00844134 -0.034066666 -0.076228805 -0.05595035
000230 5c 8a 0a be b1 05 f4 3d dd a7 1c be fa 2f 01 bc
       -0.13529342 0.11915148 -0.1529841 -0.007884974
000240 53 04 18 bd 96 66 03 bd 74 24 85 3a 3b 8f bc 3d
       -0.0371135 -0.032080255 0.0010157959 0.092070065
000250 d6 d2 2d 3c fa be f3 bc f1 37 a2 bd dd ea 50 be
       0.010609349 -0.02975415 -0.07920826 -0.20402093
000260 8c db 5e bd 23 63 b7 3d ba df b4 3d 16 43 51 3d
       -0.054408595 0.08954456 0.08831735 0.05108937
000270 21 9b d0 bd 5e 93 0f bd 8f 89 e3 bd f3 02 f7 3c
       -0.101858385 -0.03505265 -0.111102216 0.030152773
000280 24 5c bc 3d 38 25 2f bd 73 ba fd bd 8b ca 64 3d
       0.09197262 -0.042760104 -0.12389078 0.055857223
000290 dd 04 04 bd c5 2a 42 3a ef 30 85 bd 20 9d 9d 3b
       -0.0322312 0.0007406886 -0.06503474 0.0048099905
0002a0 f3 3d d2 3c 9c 1f cc 3d f4 91 ed bd b5 97 c4 bd
       0.025664305 0.099669665 -0.11600104 -0.09599248
0002b0 ba e2 24 3d 09 bc e5 3d cb 8e 04 3e f7 d0 22 be
       0.040255286 0.112175055 0.12945096 -0.15900026
0002c0 c3 7d b7 bd c8 f0 8c bd 64 b6 d6 3d a5 57 09 3d
       -0.08959534 -0.06881863 0.10484007 0.03353085
0002d0 89 da f5 bd db 71 52 bc a5 77 19 bd ec b3 4c b7
       -0.12004573 -0.012844528 -0.037467618 -1.2201239e-05
0002e0 0e 78 96 bd fb 49 2d 3d 33 6d be bd 71 a1 57 3d
       -0.07347117 0.04230688 -0.09298172 0.052644197
0002f0 8d 25 42 be 06 5e 54 3d 62 83 67 3b 45 d3 67 bd
       -0.18959637 0.05184748 0.0035326113 -0.056597967
000300 85 c1 b7 3d 34 51 3b bd 76 0c f3 bc a2 6a f4 3c
       0.08972458 -0.04573174 -0.029669028 0.029836003
000310 01 7c e1 bc 6d 8e 9e bd 25 d0 12 bc 5a 92 a0 bd
       -0.02752495 -0.07742009 -0.008960758 -0.07840414
000320 e7 f6 35 bd 58 22 d3 3d c5 c8 5f bc a1 d5 35 3d
       -0.044424918 0.10309285 -0.013658707 0.044393186
000330 83 99 db bd fd d2 3e bd 20 45 4c 3b 54 d3 0d bd
       -0.107226394 -0.046587933 0.0031169131 -0.034625366
000340 eb 91 74 bd b9 2e 12 3d 65 eb 08 be 99 53 53 3d
       -0.05970947 0.03568909 -0.13371046 0.051593397
000350 e1 14 0e 3d a5 60 00 3e 66 44 ee b7 b7 d1 04 3d
       0.03468788 0.12536867 -2.8403661e-05 0.032426562
000360 8e c1 c8 3d b3 e3 e8 3d a6 ac bc bc 36 1a 20 3d
       0.098025426 0.11371555 -0.023031544 0.039087497
000370 e5 de da 3c f1 2e 18 3d ff 10 0e 3d 57 98 65 3d
       0.026717613 0.03715414 0.034684177 0.056053486
000380 9d cd 3f 3d ca 8e 9f bd bb 1c b6 bd 43 9d eb bd
       0.046826947 -0.07790907 -0.08892199 -0.11504605
000390 d6 84 29 bd 51 d9 05 be d0 9d db bd af 77 b0 3c
       -0.041386448 -0.13071181 -0.1072346 0.021541445
0003a0 cb 15 27 bd 62 0f 0b bc 56 71 a8 3d 29 bd d5 3d
       -0.040792268 -0.008487554 0.08224742 0.1043647
0003b0 1f 9d 87 bd 3e 62 55 bd 37 0b f2 3d 14 40 16 be
       -0.06621765 -0.052095644 0.11818545 -0.14672881
0003c0 2e 76 2a 3d 08 68 f8 bd 56 04 15 3e 76 42 8e bd
       0.04161661 -0.121292174 0.14552435 -0.0694627
0003d0 52 43 8b bd 9f 4b 0a bd 21 96 b8 3c 28 4b 17 bd
       -0.0679995 -0.033763524 0.022532525 -0.03693691
0003e0 ad 42 ce 3d a5 3b 95 3d e1 1a 81 bd a6 30 e8 3d
       0.10071311 0.07286767 -0.06303955 0.11337404
0003f0 b7 c4 be bd 4c 5f 15 bd 45 e5 04 bd b5 80 a1 bd
       -0.09314864 -0.036467835 -0.03244521 -0.07885877

bias_ih_l0 f4 [256]
000000 4b 4d be 3d 1d 01 1b 3e 48 34 44 3e 77 26 d7 bd
       0.09292086 0.15137143 0.19160569 -0.105053835
000010 22 e9 ed bc ba 32 08 3e eb 71 bb 3c fd 5b ab bd
       -0.02904183 0.133006 0.022881469 -0.08367155
000020 fa 4d 82 3d 9c 6c ea bc 51 94 36 be 60 82 c3 bc
       0.06362529 -0.028616242 -0.17830016 -0.023865879
000030 c9 98 2b 3d 75 1d 23 3e b5 5a 21 3d c8 d3 1d 3e
       0.041893754 0.15929206 0.039393146 0.1541282
000040 48 21 55 3d 1b 18 8b bd db 14 2a 3d 14 4f 54 bd
       0.052033693 -0.06791707 0.041523796 -0.051833227
000050 b8 ee f1 bd 3d 6e bf bd 9b e1 51 3d 2d 28 9b bc
       -0.1181311 -0.09347198 0.051240545 -0.018940056
000060 13 66 37 3c f5 b7 90 3d 5d ce e6 bd a7 9e b8 3c
       0.01119377 0.07066337 -0.112698294 0.022536589
000070 16 62 4a 3d 3c d1 e8 3d fb a2 b4 bc 8e 92 d7 3d
       0.04940995 0.11368033 -0.022050371 0.10526
000080 f1 ba 9c 3d 5a 88 12 bd 34 d8 aa 3d f5 ac 30 3c
       0.07652844 -0.035774566 0.08342019 0.010783424
000090 f4 40 1a 3d 92 6f 29 3d 80 1f 4c bd 44 97 1b bc
       0.0376596 0.041366167 -0.04983473 -0.009496514
0000a0 e7 4b 98 bd 2a a1 91 3b c2 a6 ab bd 50 b2 02 bd
       -0.07436352 0.004444261 -0.08381416 -0.031908333
0000b0 d5 48 f0 3c ea 72 1e 3d af c3 96 bc 8a fa 12 3d
       0.029331604 0.03868381 -0.018403856 0.035883464
0000c0 06 6f a9 bd 02 cb 65 bd f0 37 64 3d 0a 76 02 bd
       -0.08273129 -0.056101806 0.05571741 -0.031850852
0000d0 46 1a e5 3c ea 1e 5b bc ce 70 da 3d 98 fb 20 bd
       0.02796663 -0.01337407 0.10666047 -0.03930244
0000e0 a2 d7 ee bd 56 6d 2d be ec b3 43 3d 87 5e ac 3d
       -0.116622224 -0.1693624 0.04777901 0.08416467
0000f0 2c 01 35 bd c3 35 88 3d cb 84 38 be 93 9b e8 3d
       -0.04419057 0.06650879 -0.18019406 0.113577984
000100 1d 19 71 3c 79 c5 bc bd 70 3f ed bd dd fc ec 3d
       0.01471546 -0.092173524 -0.11584365 0.11571667
000110 c4 57 86 bd 01 cd 0c be 7d 8d 27 be 58 23 c3 bd
       -0.06559709 -0.13750078 -0.16362567 -0.09528226
000120 7b c2 18 bc 6f 66 ac bd d0 69 8b bd ff 07 38 bd
       -0.0093237115 -0.08417975 -0.068072915 -0.0449295
000130 b6 84 2d 3d 6d 86 01 bd 95 9b 51 3c d6 70 d5 bc
       0.04236289 -0.03162234 0.012793441 -0.02605478
000140 f7 4f f2 bd b6 b2 22 3d c8 34 a4 bd c4 24 96 bd
       -0.11831658 0.039721213 -0.0801788 -0.07331231
000150 ee bd 3d be 08 0d 38 3d 30 11 3c 3a 5c 20 88 bd
       -0.18529484 0.044934303 0.0007174192 -0.06646797
000160 e4 32 30 be 68 9f 1b be c9 a7 a5 bd e9 ef cc bd
       -0.17206913 -0.15197527 -0.08088643 -0.10006697
000170 64 a6 af 39 ff 52 f9 bd a5 15 4a be e1 af 04 be
       0.00033502572 -0.121740334 -0.19734819 -0.12957717
000180 bb 92 c0 3d 53 f1 57 bd 56 37 91 3c 53 34 13 bd
       0.094029866 -0.05272038 0.017726582 -0.035938572
000190 01 ba 4f be 03 e5 f2 3b c1 45 33 bd 8d 5d d4 ba
       -0.20285799 0.007412554 -0.043767694 -0.0016202197
0001a0 4e 73 08 bd 51 a9 8b bd a7 77 88 bc c5 fa c0 bd
       -0.033313088 -0.06819404 -0.016658617 -0.094228305
0001b0 c5 d0 af 3d a7 46 bf bd ea ac aa bd 4d f0 52 be
       0.085847415 -0.09339648 -0.08333762 -0.2059948
0001c0 b5 38 ea 3c 2a 47 e4 bc 78 bf 8b 3d d0 1b e0 3c
       0.028591493 -0.027865965 0.06823629 0.027357012
0001d0 84 87 c6 bd 56 db 48 3d 6e 0a e3 3d f7 da e4 bd
       -0.09693816 0.0490373 0.11085974 -0.11174577
0001e0 e4 25 ea bd 5f a2 0a 3d 66 d7 d1 bc 75 7f 6b bd
       -0.11433008 0.033846255 -0.025615405 -0.0574946
0001f0 b6 57 2d be b6 d4 1d be 83 74 3f be 40 ac 9a bd
       -0.1692799 -0.15413174 -0.1869679 -0.07552385
000200 38 91 ae bd ab 4b ed bd b3 9d 9b bc 34 f0 c8 3d
       -0.08523792 -0.11586698 -0.018996095 0.0981144
000210 e4 5c ac 3d 13 c1 1f bd 92 32 28 bd ae f0 92 3d
       0.08416155 -0.03900249 -0.041063853 0.07174812
000220 ac 89 07 3e 4d f1 db bd d5 98 00 3b 88 e9 30 3d
       0.13236111 -0.10739384 0.0019622345 0.043191463
000230 9b 8f 86 bd 45 c2 97 3d 90 4b f5 3d 59 6c 76 bd
       -0.06570359 0.07410101 0.11977303 -0.060161922
000240 42 83 2a 3d ff d7 e4 bd 01 c2 6e bc ec b6 be 3d
       0.041629083 -0.111740105 -0.014572621 0.09312233
000250 33 49 3f bd a3 4b c0 bd 1d 1b 99 3d cd f7 19 bd
       -0.046700668 -0.093894266 0.074758746 -0.037589837
000260 7d 1c 88 3d 82 62 a8 3d 05 31 c8 bd 44 d6 90 3d
       0.06646059 0.08221914 -0.09774975 0.07072118
000270 03 e3 ef bd 87 a4 d8 bc f0 76 fc bd 0c 19 96 3d
       -0.11713221 -0.02644564 -0.12327373 0.07328996
000280 68 f5 a2 3d 7e e1 a7 bd c7 24 9d bd 14 54 67 bd
       0.07956964 -0.08197306 -0.0767303 -0.056476668
000290 63 40 4e bb 07 b7 ab 3d c7 7d 8e bd a5 59 c4 bd
       -0.0031471483 0.08384519 -0.06957584 -0.09587411
0002a0 ac 6f 86 3c 57 11 0b 3d 22 6b d4 3d 2e c9 fb bd
       0.016410671 0.033952083 0.103719965 -0.12294231
0002b0 89 88 00 be 57 78 a9 bd 8f 9b 4b bd 3b 8e 25 bd
       -0.12552084 -0.08274906 -0.0497089 -0.040418845
0002c0 b0 ed 80 3d 12 1d dd 3d de 1a 2a bc 2a 48 80 3d
       0.06295335 0.1079656 -0.010382382 0.06263764
0002d0 e1 61 a0 3c b1 97 01 3e 8b f7 27 3e 29 34 02 3e
       0.019577922 0.12655522 0.16403024 0.1271521
0002e0 5c 2f f7 3d 89 9e 71 3d 0c bc b8 bd fd d9 d9 bd
       0.1206958 0.05898908 -0.09020242 -0.10637281
0002f0 ff c7 eb 3d c0 3c 11 bb 7c a3 96 bc c0 42 9d 3d
       0.115127556 -0.0022161454 -0.018388502 0.07678747
000300 62 1e af bd 4e db ad bd 1f 31 9c bd 2f 23 c9 bc
       -0.08550717 -0.08489095 -0.076265566 -0.02455291
000310 38 1f 91 3d 99 21 c5 bd 8f 45 41 bd b3 ac 28 3d
       0.07086033 -0.09625549 -0.047185477 0.041180324
000320 48 02 81 bd 47 a3 1a 3e ba f7 11 be 62 ce 81 bc
       -0.06299263 0.15101348 -0.14254656 -0.015845481
000330 c0 17 cf 3c af c8 94 3c 89 a8 be 3d af 1d bb 3d
       0.02527988 0.0181621 0.09309489 0.09136521
000340 3b e6 14 be 58 83 9e bd 15 6a 1b be c4 51 27 bc
       -0.14540951 -0.077398956 -0.15177186 -0.010212366
000350 a4 a3 9a bc 6f 6f 28 3d d5 8a 2c bd fa 1c aa 3d
       -0.018876858 0.041121896 -0.042124588 0.08306308
000360 2f a5 95 3d 58 44 34 bd 31 cb c0 bd 63 7e ce 3d
       0.07306897 -0.04401049 -0.09413756 0.100827
000370 0f 05 f6 bd 04 31 05 be df d1 14 3d f7 12 3b bd
       -0.120126836 -0.13006979 0.03633296 -0.045672383
000380 43 45 1b 3e 68 37 00 3c ee 1a b4 bd f5 ab 96 bd
       0.1516314 0.00782571 -0.08794199 -0.07357017
000390 06 bd 7d 39 48 76 1e be 7f 50 41 bd 8f 4e b1 bd
       0.00024198377 -0.15474808 -0.047195908 -0.08657562
0003a0 eb 21 24 3d 32 5a 5b be 30 c1 6f 3c 86 3b af 3d
       0.04007141 -0.21421126 0.014633462 0.08556275
0003b0 98 94 79 3d af 4e c7 3d 85 6a 0f be 99 f3 a3 3d
       0.060932726 0.097318046 -0.14005478 0.08005447
0003c0 2b 58 ff bd a9 3d f3 bd 6e 7e ef b9 50 fd c4 bd
       -0.124679886 -0.11876995 -0.0004567983 -0.09618628
0003d0 87 d0 cd bd 79 ae d2 bd 39 66 bf 3d e1 0c ff 3d
       -0.10049539 -0.10287184 0.09345669 0.12453628
0003e0 08 ce 32 be 29 55 0a be cd 58 f2 bd 04 d7 e2 bd
       -0.17461407 -0.13509049 -0.11833344 -0.11076167
0003f0 32 e7 44 3d 33 9e 9f bd 87 b4 24 be dc 93 34 3c
       0.048072048 -0.07793846 -0.1608449 0.011021581

bias_hh_l0 f4 [256]
000000 58 31 56 3c 38 dd fe 3d 8c 3d 24 3e 08 62 f2 bd
       0.013073288 0.12444538 0.16039103 -0.11835104
000010 b1 e8 16 3e 7b 97 46 bd 4b 01 cd bc 13 1b 12 3e
       0.14737202 -0.048484307 -0.02502503 0.1426814
000020 f0 ff b5 3c d8 2c 23 3e 59 92 c7 bd 54 10 87 bd
       0.022216767 0.15935075 -0.097447105 -0.06594911
000030 d7 a7 3e 3c fe 73 9e 3b 64 1b 74 bd 39 a7 9d 3d
       0.011636696 0.0048356047 -0.059596434 0.07697911
000040 26 01 26 bd 4b db 8d 3d 25 ce 15 be 6e af 0b bd
       -0.04052844 0.069265924 -0.14629419 -0.03410285
000050 c8 c1 80 bd 86 f4 45 3d a2 34 b1 bd 76 ba f3 bb
       -0.06286961 0.0483289 -0.08652617 -0.0074379994
000060 f2 03 90 3d 62 70 16 3d 98 5b 23 bd a7 4c 38 3d
       0.070320025 0.03672827 -0.039882272 0.044994976
000070 1b 69 73 bc a6 9c 90 bd a9 7c ac 3d 9c e3 51 bd
       -0.014856602 -0.07061128 0.084222145 -0.051242456
000080 b7 6f cf 3b 00 55 90 bb b1 ef e7 3d 5c d2 a9 bd
       0.006330456 -0.004404664 0.113250144 -0.08292076
000090 99 c5 d8 3d 2b fc c2 bb 94 5e dd 3b b2 f3 8d bd
       0.10584564 -0.005950471 0.0067556594 -0.06931247
0000a0 fd 2b cd 3d df e6 b4 bd 00 f9 a8 3c a6 1f 72 bd
       0.10018156 -0.08833098 0.020626545 -0.059112214
0000b0 db 8f c3 bc 40 cb a3 3c 37 0d d9 bc bc cb 8f bd
       -0.023872307 0.019994378 -0.02649556 -0.07021281
0000c0 90 26 f5 bd e2 7c e2 bb 04 fc 10 3e 76 ba b7 3d
       -0.11970246 -0.00691186 0.14158636 0.089711115
0000d0 c8 db 59 3d 4d 00 07 3e 47 0a 8e 3c 09 59 05 3e
       0.053188115 0.13183708 0.017338885 0.13022245
0000e0 46 53 91 bd 3c ea 11 be c8 30 34 3d 53 f6 f7 3d
       -0.07095961 -0.1424951 0.043991834 0.121075295
0000f0 0c 46 32 3d 39 af a7 3d 7a e3 2e be 30 0c 1c bd
       0.043523833 0.08187718 -0.17078963 -0.03809756
000100 7b 04 df bd c1 7e d2 bd d6 cc eb bd 7c 1c 37 bd
       -0.108895265 -0.10278083 -0.11513679 -0.0447049
000110 36 fa 12 be 1d 05 b1 bd 97 94 06 be 7f ac d3 3c
       -0.1435326 -0.086435534 -0.1314262 0.025839088
000120 0f 45 92 bc ed 6f f0 bd ff f8 49 bd 76 22 08 3d
       -0.017855195 -0.11740098 -0.049309727 0.03323599
000130 12 52 b5 bd 48 43 8c bb 53 8e 21 3b c9 3e db bb
       -0.08853544 -0.0042804815 0.0024651482 -0.006690834
000140 a9 a1 55 3c c6 fd 1e be f8 4e a2 bc ff b9 b9 bd
       0.013039031 -0.15526494 -0.019813046 -0.09068679
000150 47 b6 2a be c7 49 d0 3a 87 5e 1b bd 78 05 a1 3d
       -0.16671096 0.0015891128 -0.037931945 0.07862371
000160 c7 84 2e be 52 69 11 3c e3 09 24 3d c3 df 0e be
       -0.17042838 0.008875208 0.04004849 -0.13952546
000170 59 a6 63 bd 50 9d 0b bc cb 52 94 bd a8 9c dd 3b
       -0.055578563 -0.008521393 -0.07242354 0.0067630596
000180 c7 e2 89 3d 61 8f 18 be f1 02 20 bd db c7 68 bd
       0.067327075 -0.14898445 -0.039065305 -0.056831222
000190 25 b3 2e 3d bb d3 b1 bd 79 f5 9c bd ba b5 4d bd
       0.042651314 -0.086829625 -0.07664008 -0.050222136
0001a0 7d 14 7b bd 47 29 bc 3c 87 93 dc bb b6 54 a5 bd
       -0.061298836 0.022968901 -0.006731454 -0.08072798
0001b0 32 7f 00 bd 27 37 02 be 68 fc 3d bc 3d 0b d1 bd
       -0.031371303 -0.12716351 -0.011595823 -0.10207222
0001c0 61 b6 a5 3c 3f c6 10 bd 56 77 44 3c 53 26 33 be
       0.020228567 -0.035345312 0.0119913425 -0.17495088
0001d0 b9 f1 2c bb 07 2d 12 3d 31 40 f1 3c ef bf 8e 3d
       -0.0026389195 0.035687473 0.029449554 0.06970202
0001e0 81 15 7c bd b5 2b db bc db cb 14 bd a1 16 6a 3d
       -0.061543945 -0.02675424 -0.036327224 0.057150487
0001f0 46 5b de bd f1 8e ae bd fc b4 38 bd 6c 05 ae bd
       -0.10857253 -0.08523358 -0.045094475 -0.08497128
000200 fa f2 89 bd 5e 13 8d bd 62 81 30 3d e5 c4 c8 3c
       -0.06735797 -0.068884596 0.04309214 0.02450795
000210 c1 ae 8e 3c d2 43 b4 3d e5 bf b2 3d 74 09 1f bd
       0.017417314 0.08801998 0.08728007 -0.038827375
000220 06 df 28 3d a4 a0 fa 3c e1 7d b8 3c cc c3 b2 bd
       0.041228317 0.030594178 0.022520961 -0.087287515
000230 25 4d 1c 3d e2 c3 51 bd c3 ff 95 bc e8 7f 0d 3e
       0.03815951 -0.0512122 -0.018310433 0.13818324
000240 1b c5 01 3c ae f3 d8 bd 83 81 05 bd 0c 34 85 bd
       0.007920529 -0.10593353 -0.032594215 -0.06504068
000250 ed d8 4d 3d 9e 31 a2 bc 96 3e dc bd f6 7f 24 be
       0.050255705 -0.01979905 -0.10754125 -0.16064438
000260 6f 93 8b 39 7d 18 85 bd 73 64 d5 bd 4a 7a d8 3d
       0.00026621993 -0.064988114 -0.1041955 0.105702
000270 6d c4 d8 3d 76 82 d1 3d 92 c2 24 bd 88 da 82 3d
       0.1058434 0.102299616 -0.04022462 0.06389338
000280 18 88 02 3e 4a 2f aa 3d 0b 66 96 3d 8a 40 92 3d
       0.12747228 0.08309801 0.07343682 0.07141216
000290 66 9a 25 bd b9 19 99 3d 9d 95 d5 3d da 04 09 3e
       -0.04043045 0.07475609 0.10428927 0.13380757
0002a0 a4 84 b4 bd 2f 6a 64 3d 77 82 f4 3d 73 12 b9 3c
       -0.08814362 0.055765327 0.11938947 0.022591805
0002b0 5e 4f d1 3a 7e 7d a3 bc dd a5 ca bd 24 f5 2d bd
       0.0015969088 -0.0199573 -0.09894917 -0.042470112
0002c0 3c a9 c6 bd b2 05 61 3c 9a a7 07 3d 9e 77 6c bd
       -0.09700248 0.013734268 0.03311882 -0.057731263
0002d0 2f c5 cd 3d a7 02 07 bd 0e d2 a7 3d f5 c5 70 bc
       0.100473754 -0.032961514 0.081943616 -0.014695634
0002e0 fc b1 a7 bd 11 14 1f bc 3f 5c e4 bd 71 2a f4 3c
       -0.08188245 -0.009709374 -0.11150407 0.029805394
0002f0 cb b4 1f bd 3f 0b 84 bd d8 95 03 be b8 4e a5 bd
       -0.038990777 -0.064474575 -0.1285013 -0.08071655
000300 36 78 8f bd 32 63 8e 3d ce e2 40 3d 1e 3e 80 bd
       -0.0700535 0.06952514 0.047091298 -0.06261848
000310 01 cf d3 3d c9 4a a8 bd 11 92 59 bd b5 ad cf 3d
       0.10342217 -0.08217389 -0.053117815 0.10140554
000320 e0 14 4e bd 1c ab 34 bd c3 89 1b bd 68 26 07 3e
       -0.050312877 -0.044108495 -0.037973177 0.13198245
000330 da 4f 0b 3c 0a 8c 21 bd 0a 90 8c bd eb ef ec 3d
       0.008502925 -0.039440192 -0.06863411 0.11569198
000340 9d 5a 15 3d e0 0d 8f 3d 65 fd ef bc 69 0b a5 bd
       0.03646337 0.06985068 -0.029295633 -0.08058817
000350 6d 5d 76 3c ef d2 3e 3c 49 c0 e1 bd 47 1a 05 3d
       0.015036923 0.01164697 -0.110230036 0.032495763
000360 e7 3e d2 3d 7f ab 09 3d 5f 93 df bd 8a 72 0a 3d
       0.10265904 0.033610817 -0.10916781 0.03380064
000370 bf de e1 bd 68 79 00 be c0 82 0d be 96 95 fd 3d
       -0.110288136 -0.12546313 -0.13819408 0.12382047
000380 a1 c2 11 3e 47 94 74 bd b9 f6 8c 3d d2 02 b9 bc
       0.14234401 -0.05971172 0.06882996 -0.022584353
000390 4d e9 aa bd 64 88 bd bd d9 08 ec 3d 54 7e 11 3d
       -0.0834528 -0.0925453 0.11525125 0.035520867
0003a0 46 55 0c bd 05 97 5c be 93 42 c2 bd e1 2c 24 3d
       -0.03426101 -0.21541984 -0.09485354 0.040081862
0003b0 cb ed 00 3e a8 ac 78 3d 8d 18 ab bd 08 a8 26 3d
       0.12590711 0.060711533 -0.08354292 0.04068759
0003c0 1c d1 06 be cf 0f 21 bd ae 7b 81 3b 2a c3 1a be
       -0.13165706 -0.039321717 0.0039515113 -0.15113512
0003d0 cf d8 57 bd 57 5d 0e bc 0f 6e 30 3d 3b 5e 96 3b
       -0.052697 -0.008689246 0.04307371 0.00458887
0003e0 f5 39 ec bd 2b 8c 35 be 0d d5 e6 bd 35 d1 ac 3d
       -0.11534492 -0.17729251 -0.11271105 0.084383406
0003f0 fb 4e 67 3d 79 cf 8f 3d 57 a7 2e be a5 44 fa 3d
       0.056471806 0.07021994 -0.17056023 0.12220124

weight f4 [1, 64]
000000 ec bc 57 3d 8c f0 07 3e 7d 5b 53 3c dc 81 78 3d
       0.052670404 0.13275355 0.0129002305 0.06067072
000010 ea c5 1f bd 39 31 53 bb fd b9 a5 bd 2e c3 bd bd
       -0.039007105 -0.0032225384 -0.08092115 -0.09265743
000020 1c 80 96 bd 77 1c 1e 3e d4 4b 4d 3c e6 e8 b9 3d
       -0.07348654 0.15440546 0.012530286 0.09077625
000030 f8 8a 69 bd 75 21 c8 bd cf 64 5c bd 03 4a 0b be
       -0.057017297 -0.097720064 -0.053807076 -0.13602452
000040 c8 bd eb bc be 18 98 bd 64 d5 95 3d ff a6 27 bd
       -0.028777018 -0.07426594 0.07316092 -0.040930744
000050 24 92 a6 3c c8 8b 8b 3d a4 11 3f 3d 1a b8 da 3d
       0.020333357 0.068137705 0.046647683 0.10679646
000060 99 03 bb 3c d2 21 8f 3c 00 ff 8f bd a3 9e 9c bd
       0.022828864 0.017472181 -0.07031059 -0.07647445
000070 39 61 ef 3b d7 46 f5 3d d5 ab f8 3a aa 08 bf bd
       0.007305291 0.11976402 0.0018972108 -0.093278244
000080 41 c7 0e be 58 aa 31 3d c9 8e 5e bd ba 34 96 3c
       -0.13943197 0.043375343 -0.05433539 0.018335689
000090 28 b5 2a 3d 9f f8 95 bd eb cb 9c bd 89 c6 e8 bc
       0.04167667 -0.07322811 -0.07656082 -0.028414981
0000a0 6f ae 26 bc c5 ef 60 bb 49 c6 1c 3d 90 b4 cc 3d
       -0.010173424 -0.0034322601 0.038275037 0.09995377
0000b0 6b 54 af 3d d0 8d c6 bd 8c 83 83 bd e2 3a e4 bd
       0.08561023 -0.09695017 -0.06421575 -0.111440435
0000c0 a5 96 a9 3d 3e 69 21 bc d1 df 7f 3d cd 91 53 bc
       0.08280686 -0.009851752 0.062469307 -0.01291318
0000d0 39 0b a9 bd 63 e5 55 bd 9d 55 11 be 96 db d6 bd
       -0.08254094 -0.052220713 -0.14192815 -0.104911014
0000e0 88 84 1e bd 7b 3c 7c 3c 1b ee a7 bd f3 f9 e4 3d
       -0.03870061 0.015395279 -0.08199712 0.111804865
0000f0 69 42 93 3d 1d 38 b9 3c b5 fa ef 3c da b2 21 3e
       0.07190401 0.022609765 0.029294351 0.15790883
