model/3998.578247327417_weight.pth (torch, 90511 bytes, 7 tensors)

weight f4 [16, 32, 1]
000000 3a c4 22 3c 75 82 f3 bd d7 dc 5d be 46 a0 33 bc
       0.009934479 -0.11890117 -0.21666275 -0.010963505
000010 68 00 d4 bd 7c 0e 19 3d cb f6 19 3d 3e 57 36 3e
       -0.1035164 0.03736733 0.037588876 0.17806718
000020 1b 35 8c bc 6b 78 d2 3c b1 2d c4 3d 6f fe 10 bd
       -0.017115166 0.025692185 0.095790274 -0.035398897
000030 a5 7a 15 3e e3 87 04 bd ef 06 c9 3d 03 69 45 bd
       0.14597566 -0.032356154 0.098157756 -0.04819585
000040 63 8a 09 3e e1 2c 77 3d 7f f4 2f 3e ae 56 0e 3e
       0.13431697 0.060345534 0.17183112 0.13900253
000050 f2 4f 78 be fe 91 93 bd 51 57 1a 3d d1 8a 63 bd
       -0.24249247 -0.0720558 0.037680928 -0.055552308
000060 8a 52 23 3d d9 76 25 3e 3f 20 b2 3c df 0b cd bd
       0.039873637 0.16158618 0.021743892 -0.1001203
000070 57 c8 4b bd d8 b3 ff bd 4b ed 8a bd 69 67 04 3e
       -0.049751606 -0.12485474 -0.06783541 0.12930073
000080 f9 40 ea 3d c1 1b ad bd 80 e0 13 3d 1d d5 e6 3b
       0.11438174 -0.08452559 0.03610277 0.007044448
000090 2f 0c 20 3e 7b 30 e0 3d 93 07 15 be 3e 8b 08 be
       0.15629648 0.10946747 -0.1455367 -0.13334367
0000a0 28 8e 5c bd 8e 66 14 be bb 6b 38 3a 16 de c1 bd
       -0.05384651 -0.14492247 0.0007035096 -0.09466188
0000b0 30 57 84 bc 4c 74 3b be 8e 45 f6 3d 91 c0 ca 3d
       -0.016154855 -0.18306082 0.12024985 0.099000104
0000c0 7f 65 06 be 37 bb 85 3d 2c 62 89 bd b6 2c 68 bd
       -0.13124655 0.06529849 -0.06708178 -0.056683265
0000d0 f7 20 2c be 74 51 03 be 4f c0 cd bc 75 92 d8 bd
       -0.1680945 -0.1282404 -0.025116114 -0.105748095
0000e0 a6 3d 2a 3e 8f cf ea bb e7 a0 af 3d 59 cb 8f bd
       0.1662508 -0.007165856 0.085756116 -0.07021207
0000f0 44 7f 9f bd 74 66 2b bd 16 dd 8b bc c7 4f 8a 3d
       -0.07787946 -0.041845754 -0.017073195 0.067534976
000100 fd ed bf 3d 95 5e 0c 3e 9a 3d 18 3e 9f f8 bf 3d
       0.093715645 0.13707955 0.14867249 0.093735926
000110 2f 93 df 3d 1a 96 1d be 16 9a a1 3d b6 0c 22 be
       0.10916745 -0.1538929 0.07890718 -0.15825161
000120 38 d1 3d 3e 5d 8f bf 3d e3 63 dd bd 2d 92 f5 bd
       0.18536842 0.09353516 -0.108100675 -0.119907714
000130 f5 ef 15 3e 88 f0 f0 3d 8a 72 f5 3d e0 44 39 3e
       0.14642318 0.11764628 0.11984737 0.1809268
000140 ae 00 fd bb a8 5a eb 3d 96 0b 19 3d 72 74 98 3c
       -0.0077210283 0.11491901 0.037364565 0.018610213
000150 a8 e0 0c 3e 8a a7 31 bd 4d 00 86 3d a8 04 1f be
       0.13757575 -0.04337267 0.06543026 -0.1552912
000160 57 82 ea 3d 60 30 01 3d 9e 02 06 3e 7e 11 f7 bc
       0.114506416 0.031540275 0.13086936 -0.030159708
000170 20 41 b0 3d 14 14 76 bd b7 d6 03 be 95 39 4b bd
       0.086061716 -0.06007774 -0.12874876 -0.04961546
000180 e6 b4 9a be cd f7 45 be 0e e8 2b 3d 56 fd b2 3d
       -0.3021614 -0.1933281 0.04196935 0.08739726
000190 84 f7 31 be c2 de 9e bd 91 3b 04 be da 91 2f 3d
       -0.17379576 -0.077573314 -0.12913348 0.042863704
0001a0 b6 60 9b 3d 08 e4 ca bc 89 2d 0e 3e a8 86 3c 3e
       0.075868055 -0.024766937 0.13884558 0.18410742
0001b0 01 bd 97 3d 91 00 e5 bd 4d 5c b0 bd 87 a2 ca 3b
       0.074090965 -0.11181749 -0.08611355 0.0061839256
0001c0 72 b9 10 3e c1 17 c0 3d e7 c3 1a be 91 fb b5 bd
       0.14133242 0.09379531 -0.15113793 -0.08885873
0001d0 52 a7 2d 3d 07 0a 2f 3e b8 2a 94 3a 92 29 25 3d
       0.042395897 0.17093669 0.0011304235 0.040322848
0001e0 cc 4a 1f 3d 25 32 f7 bd 0e 4b f2 bc cc 53 6d 3d
       0.03888969 -0.12070111 -0.029576804 0.057941243
0001f0 b3 84 f3 bb f1 49 47 3e 99 59 2a be 02 8f de 3d
       -0.0074315905 0.194618 -0.16635741 0.1086712
000200 46 e5 39 3b 2a a5 cf bd ca c1 8d be 97 c0 86 3d
       0.0028365417 -0.101389244 -0.27686912 0.06579702
000210 6e 7c a0 bc cc ac 34 be 5b a0 b6 bd f1 0b f3 bd
       -0.019590583 -0.17644042 -0.08917304 -0.11867512
000220 9d 95 35 be ea b9 9e bd b3 43 99 3d d4 7b 1d be
       -0.17732854 -0.07750304 0.07483616 -0.15379268
000230 37 ce 24 3e 17 e8 27 3d 70 e4 05 3e 66 8e 49 be
       0.1609429 0.040992822 0.13075423 -0.19683227
000240 6d 56 a2 3b 10 81 25 be 60 2e 1f be 1e 41 2c 3d
       0.0049541504 -0.16162515 -0.15545034 0.042054288
000250 7f e6 0e be ee a3 14 be fb 8e 2a be 1e 74 0a be
       -0.13955115 -0.14515659 -0.16656105 -0.13520858
000260 03 b9 38 bd 0a 57 1f 3e 77 8d 44 3c cb 7b 05 be
       -0.045098316 0.15560547 0.0119966185 -0.13035505
000270 a7 93 da bd 6b d9 d0 bd 31 bd ee 3d 25 28 cf bd
       -0.10672694 -0.10197719 0.11657179 -0.10115079
000280 21 4e 8e 3e f2 38 3b 3e c3 65 41 3e 70 4b 07 3e
       0.27793983 0.18283442 0.18886475 0.13212371
000290 a3 8f 13 3e 59 c2 dc 3d df a3 16 3e 77 1e 0b be
       0.14410262 0.107792564 0.1471095 -0.1358584
0002a0 ad 92 4a bd 92 d3 44 3e c3 7e bf 3c 16 ea a6 3d
       -0.049456287 0.19221333 0.023375874 0.08150117
0002b0 1e 25 98 3d 76 c9 bb 3c 0d 6f ff 3d 50 ed 2d 3e
       0.074289545 0.022923212 0.12472353 0.16985059
0002c0 26 2c e1 3d 54 30 2a 3e aa 1c 3e bd 0e cb ab 3d
       0.10994749 0.16619998 -0.046414055 0.08388339
0002d0 89 67 95 3d 00 ef a1 bd af 76 00 be ef 77 41 bd
       0.072951384 -0.07906914 -0.12545274 -0.04723352
0002e0 d0 d5 14 be dc aa 72 3c 2c 16 2a be 7a b4 0f 3e
       -0.14534688 0.014811244 -0.1661002 0.1403369
0002f0 00 19 7f bd 4c b9 02 bc 23 9b 3e 3e 64 da f7 3d
       -0.0622797 -0.0079787485 0.18613867 0.121022016
000300 39 d1 7e be 97 b3 ca bd d7 10 91 bd 9a bc 0e bd
       -0.248845 -0.09897535 -0.0708329 -0.034847833
000310 86 83 0a be c7 c0 14 be 39 9e b5 ba ef a3 2e be
       -0.13526735 -0.14526664 -0.0013856358 -0.17054723
000320 bc db 25 be 42 a6 a2 3d d2 9e 14 3e 2f 46 09 3e
       -0.16197103 0.079418674 0.1451371 0.13405679
000330 42 19 14 be 96 15 f9 bc 6d 24 9b bd 95 9a 49 3d
       -0.1446276 -0.0304058 -0.07575307 0.049219687
000340 1d 5d b1 3d 91 35 2a be 40 8e 65 bc 06 2b 24 3d
       0.08660338 -0.16621996 -0.014010966 0.040080093
000350 42 f5 3c be 7a 2c c1 bd 12 a1 46 be 38 e8 16 3e
       -0.18452933 -0.09432311 -0.19397381 0.14737022
000360 34 4a cb bd 72 c6 06 3e bd 9c 2b 3e d2 a7 1d bd
       -0.099262625 0.13161638 0.1675901 -0.038490124
000370 78 4d 10 be 90 14 73 3c 49 d5 07 be a5 af e1 bc
       -0.14092052 0.014836445 -0.13264956 -0.027549574
000380 06 d1 66 3e a6 9f 8d 3e 20 34 d7 bc d8 eb bb bd
       0.22540674 0.27660865 -0.026269972 -0.09175843
000390 a5 b5 21 3e 23 e0 15 3e f4 10 26 be e1 cf c0 bb
       0.15791948 0.14636283 -0.16217405 -0.005884156
0003a0 34 49 bd 3d 6f 79 09 3e 72 ca ba 3d d4 5d a8 3d
       0.09242478 0.1342523 0.09120645 0.08221021
0003b0 b4 8f 73 3d f7 d2 1d be ad 30 0c be 24 16 85 bd
       0.059463218 -0.15412508 -0.13690443 -0.064983636
0003c0 c2 db 41 be d5 28 40 3d 54 eb c3 bc 93 7a 4e bd
       -0.18931487 0.04691394 -0.023915924 -0.050409865
0003d0 52 f4 d7 3d 79 1e a4 3d c7 f9 91 3d 92 92 dc bd
       0.10544647 0.08013625 0.07127719 -0.107701436
0003e0 21 1b 2b bd d6 aa 8d bd 25 2b 14 bd d5 c7 89 bd
       -0.04177392 -0.0691735 -0.03617396 -0.06727568
0003f0 85 e5 07 be fe 39 1a be b9 41 09 be 3d 2b f2 bd
       -0.13271149 -0.15061185 -0.13403977 -0.11824653

bias f4 [16]
000000 0f b8 e5 3c 17 aa 84 3d c5 e2 20 3e 97 b5 8a bc
       0.028041868 0.064777546 0.15711506 -0.016932292
000010 d3 a1 87 3d 41 fc 08 be d4 91 b6 bd 3a 18 43 3e
       0.066226624 -0.13377477 -0.08914533 0.1905221
000020 ea 8e 37 be 02 a0 b3 3d 0c 0a 08 3e 8f 85 87 3d
       -0.17925611 0.087707534 0.13285083 0.06617271
000030 cd a8 2c 3d 09 e2 32 bc 77 99 82 bc aa 15 32 3e
       0.04215317 -0.010918149 -0.015942318 0.17391077

weight_ih_l0 f4 [256, 16]
000000 a0 65 b6 3d 32 43 8f 3d 87 48 e8 3c f6 a9 08 3e
       0.08906102 0.06995238 0.028354896 0.13346085
000010 ad af cc bd 3f 7b 21 bd 9d 42 ab bd 4d 4d dc 3c
       -0.09994445 -0.039424177 -0.08362315 0.026892329
000020 e7 00 56 3d b2 42 ff 3d 97 7e 3b 3d 02 bc aa 3b
       0.052246954 0.12463893 0.045775022 0.0052104006
000030 9c 28 07 be 08 f5 4c 3c 85 33 69 bb 46 08 72 bd
       -0.13199085 0.012509592 -0.0035583687 -0.05908992
000040 a5 09 0e be b1 b4 2e bd 80 30 36 3c fb ac 9a 3c
       -0.13870867 -0.04265279 0.011119962 0.018881312
000050 bf 8f e9 bd 31 be b3 bd 7b c4 9c 3d 14 58 f3 bd
       -0.114043705 -0.087765105 0.07654663 -0.11882034
000060 2c 78 35 3c df 8b 0a 3e 78 48 50 3e 15 07 d9 3d
       0.0110760145 0.13529919 0.20340145 0.10597054
000070 5d d8 80 bd 9b 1e 02 bd e9 f5 dc 3d d0 cb 9f bb
       -0.06291268 -0.03176747 0.10789091 -0.0048765913
000080 b4 6e a1 3d 98 e4 2c 3d 3c d5 2d 3d af 5f 3a 3e
       0.07882443 0.04221019 0.042439684 0.18200563
000090 00 d0 8e 3d bb 78 60 bb f9 25 0a 3d 24 6f 05 be
       0.069732666 -0.0034251648 0.03372762 -0.13030678
0000a0 85 78 a6 3d c7 a0 39 3e 9f f4 d7 bd d4 09 02 3e
       0.08128456 0.18127738 -0.10544705 0.12699062
0000b0 65 05 6e 3d 36 72 85 bc d7 1a 5a be b5 4e d3 3d
       0.058110613 -0.016289812 -0.21299301 0.103177465
0000c0 96 3e 47 bd 26 9a 02 be d8 64 e8 3c 52 8d 2c be
       -0.04864367 -0.12754115 0.028368399 -0.16850784
0000d0 86 58 0e be c9 35 ac 3d 4d d9 20 be ed d1 b4 bd
       -0.13900957 0.08408696 -0.15707894 -0.08829103
0000e0 05 60 3f be c5 67 d5 bc d0 25 d4 3c b1 81 b1 bd
       -0.18688972 -0.026050458 0.025896937 -0.08667315
0000f0 82 ac ad 3d a9 af 1d bd 23 23 1c 3e ec d8 cc bd
       0.08480169 -0.0384976 0.15247779 -0.10002312
000100 f4 fe 4b 3d 22 de 84 bd 37 f1 b7 bc f7 5f 9f 3e
       0.04980369 -0.06487681 -0.022453887 0.31127903
000110 4d 52 a9 bc 61 0d 99 bd 61 a4 02 3e ce 82 01 3d
       -0.020669127 -0.07473255 0.12758018 0.031618886
000120 a7 e6 93 3d d1 02 09 3c 4d d3 02 3e c1 c4 2a 3e
       0.07221728 0.008362488 0.12775917 0.16676618
000130 87 a1 bb bd 37 8b ba 3c be 20 20 bc 2a e8 c7 bd
       -0.09161668 0.022771461 -0.009773431 -0.09761079
000140 ff 09 b8 bd ce 17 32 bd 60 fe aa 3d d6 e4 32 3d
       -0.089862816 -0.043479733 0.083492994 0.043675266
000150 ef ac 8e 3d bb 42 88 bd 19 bf b1 bd c5 9e f1 bd
       0.06966578 -0.06653353 -0.08679027 -0.11797861
000160 ea 08 3a 3e fd d7 78 3d 64 52 82 bc 76 1a 7c bd
       0.18167463 0.060752857 -0.015908428 -0.061548673
000170 55 45 8d 3d 68 43 a5 bc 3c 55 4f 3d f2 49 c1 bd
       0.0689799 -0.020173743 0.050618395 -0.09437932
000180 b6 dd ef bd 82 c5 72 bc 89 9a 83 3d cc 7b 37 b9
       -0.1171221 -0.014817597 0.064259596 -0.00017498358
000190 0b d5 4c bd 3d 3f ad bd c7 63 12 3d 75 ba 8d 3c
       -0.05000786 -0.08459327 0.035739686 0.017300824
0001a0 d2 58 e6 bc b3 67 c7 bd f3 8c ef 3d a5 e6 35 3d
       -0.028118525 -0.09736576 0.11696806 0.044409413
0001b0 08 f4 ca 3d b3 cd 57 bd 08 33 d3 bd a5 8f c4 bc
       0.099098265 -0.052686404 -0.10312468 -0.023994276
0001c0 d9 22 ba 3d f9 7a 45 3e a7 1b 81 be cf ee 3c be
       0.09088678 0.19285192 -0.2521641 -0.18450473
0001d0 5b 89 00 3e 52 a5 c8 bd 15 32 13 3e 55 2f 81 bb
       0.12552397 -0.09797157 0.14374574 -0.00394241
0001e0 87 02 a6 bb f6 18 19 3e 05 14 4c be 2b 12 4c bd
       -0.0050662193 0.14950928 -0.19929512 -0.049822014
0001f0 0a 84 12 be dd 4f 62 3d 68 0e f1 3e 4d e2 c0 3d
       -0.14308181 0.055251945 0.47081304 0.094181634
000200 65 82 54 3d 38 46 18 3e b5 1b 35 3d e0 63 a9 3c
       0.051882166 0.14870536 0.044215877 0.020677507
000210 1c 30 c1 bc e8 aa 00 be f1 82 aa bd e0 1c e2 bd
       -0.02358251 -0.12565196 -0.08325756 -0.11040664
000220 8d b5 4f 3e d4 9e 56 bc 79 b1 80 3c 75 ce bf 3d
       0.202841 -0.013099391 0.015709626 0.093655504
000230 00 dd 60 bd 53 38 06 3d 54 96 db 3d 2f e2 09 bd
       -0.054898262 0.03276856 0.10722032 -0.03366297
000240 a4 08 b6 3c 5e 0b de bd 04 b2 dc bd 24 e4 29 3e
       0.022220917 -0.10842012 -0.10776141 0.16590935
000250 de 1d ad bd 3b 7f 9c bd 36 1c 14 3e c6 18 22 be
       -0.08452962 -0.07641455 0.14463887 -0.15829763
000260 de 52 e5 3c 18 a0 c4 bc 98 a5 ed bc 98 e0 5d bc
       0.027993616 -0.02400212 -0.029009625 -0.013542317
000270 66 ca 0e be be 8a 90 bc 7d c9 a2 3c dc e3 67 3c
       -0.13944396 -0.017644282 0.019871468 0.014153447
000280 40 b0 d5 bd 5a e9 a8 3c e4 0f 17 bd 9e 34 a4 3c
       -0.10434008 0.020619083 -0.03688039 0.020044621
000290 60 89 19 3d 29 8d 4b bd b9 86 05 3e c0 72 d5 bd
       0.037484527 -0.049695168 0.13039674 -0.104222775
0002a0 08 1a 62 3d 00 f2 db 3d 98 b0 bd 3d 98 90 e6 3c
       0.055200607 0.10739517 0.09262198 0.02814512
0002b0 d4 48 36 3d 2e 06 3b 3d bf 5c 5d be 16 76 99 bd
       0.044503048 0.04566019 -0.21617411 -0.07493226
0002c0 2d d9 57 3e 8a 02 20 bd a0 c1 10 3e 5d d7 48 3e
       0.2107894 -0.03906492 0.14136362 0.19613405
0002d0 b1 88 08 be df b5 11 3d 81 11 31 bd 32 eb c2 be
       -0.13333394 0.035573836 -0.043229584 -0.38070065
0002e0 27 fa bf bc a8 f2 cf bd bb fa a7 be db 2e df bc
       -0.023434712 -0.10153705 -0.3280848 -0.027244022
0002f0 63 20 67 3e e7 7a 25 3d 92 61 92 3e a3 e2 a7 3d
       0.22570948 0.040400412 0.28590065 0.081975244
000300 69 63 9b 3c 11 94 de bd b6 ed 19 be 36 af be 3d
       0.0189683 -0.10868085 -0.15032086 0.093107626
000310 14 eb f1 3c 0e 5e c3 3d f7 63 f4 3d 6e d3 71 bd
       0.02953104 0.09539424 0.11933129 -0.059039526
000320 01 b1 5f 3d 4d 18 9f 3c 7f 38 be 3d ee a4 9b bd
       0.054612163 0.019420767 0.092881195 -0.07599817
000330 76 7c 46 bd dc 35 b2 bd 9e 21 07 3e be 39 86 bd
       -0.04845854 -0.08701679 0.13196418 -0.06553982
000340 58 bf ce bc b9 53 41 bc 02 4a 21 3d 28 08 31 3d
       -0.025237724 -0.011799746 0.03937722 0.04322067
000350 9f 24 b1 3d e2 92 71 bc 02 77 f0 bc 79 ac 0a bc
       0.08649563 -0.014744492 -0.029353622 -0.008463972
000360 4b 8c 06 3e 78 e2 74 bd 72 18 8b 3d eb 01 dd ba
       0.13139455 -0.05978629 0.06791772 -0.0016861534
000370 7f cb 9b 3d 07 c7 69 3d e6 f3 dc 3e 88 bb 9a 3d
       0.07607173 0.057074573 0.4315483 0.075553
000380 26 9f 75 3e 28 98 8e bd 02 fb 0b be 34 f2 9f 3d
       0.23986492 -0.06962615 -0.1366997 0.078098685
000390 b5 f4 83 bb 8c d8 a7 bc 6b c0 bd bc 70 99 24 be
       -0.004026974 -0.020489 -0.023163041 -0.16074157
0003a0 bd 19 84 3e b9 73 52 3c 02 07 1d be 45 00 ad bb
       0.25800887 0.012844973 -0.15334705 -0.005279573
0003b0 48 f4 98 3d 0f 41 ce 3d dd a0 5a be 14 f4 38 bd
       0.07468468 0.10071003 -0.21350427 -0.045154646
0003c0 9e fc 27 be 3b bd 2c 3d 21 f4 c1 3d d4 c5 e3 bc
       -0.1640496 0.04217265 0.09470392 -0.027804293
0003d0 b2 db 12 3c 6d cf 08 3c 36 68 32 be 88 ec 0a bd
       0.008963512 0.008350235 -0.17422566 -0.03391698
0003e0 19 b6 28 be b3 1e b0 b9 3c 85 8f 3b af 92 d9 bd
       -0.16475715 -0.0003359221 0.0043798964 -0.10623681
0003f0 7b b4 92 3d 11 55 e2 bd 18 a2 06 3f 85 6d f0 3a
       0.0716333 -0.110513814 0.52591085 0.0018343186

weight_hh_l0 f4 [256, 64]
000000 c2 99 92 bd c8 70 9c bd 93 73 bd 3d 2b ff 8c 3d
       -0.07158233 -0.07638699 0.0925056 0.06884607
000010 c7 81 c7 3d 65 6c 4c bd c5 a4 0c 3d 0a 2c 05 3e
       0.0974155 -0.04990806 0.034336824 0.13005081
000020 ab 3a 07 bd d5 4f 65 3c ef 47 3d bd 35 54 84 3c
       -0.033014935 0.013996084 -0.04621118 0.016153434
000030 da 84 96 bc b0 bd ca 3d 7f bc 20 3b 50 a3 f1 bd
       -0.018373895 0.09899461 0.0024526415 -0.117987275
000040 f1 3d 42 bd f5 3f 00 be f4 a0 66 3d 18 36 ca bd
       -0.047422353 -0.12524398 0.05630584 -0.09873599
000050 05 4a 67 bd 24 86 70 bd 73 9f 0b bc e5 99 6e bd
       -0.056467075 -0.058721676 -0.008521902 -0.058252234
000060 83 5d c6 bb 31 d8 8f 3d 9d 73 0e be 25 d4 d0 bc
       -0.006053628 0.07023657 -0.1391129 -0.025491783
000070 54 76 c1 bd 46 26 0e 3d fc 55 1d be 2d 42 c1 bc
       -0.094463974 0.03470447 -0.15364832 -0.023591125
000080 b8 5c a5 bd 15 8d dd bd b0 3a 5a bd d7 c2 af 3d
       -0.08074325 -0.10817925 -0.053278625 0.085820846
000090 9d 34 2d be d1 49 6f 3d fb 2a e7 bd 12 b6 b5 bd
       -0.16914602 0.058420006 -0.11287495 -0.08872618
0000a0 46 12 a5 bd 6d 06 ad bd 06 9c 0b 3d 3a 92 58 bd
       -0.08060126 -0.08448491 0.034084342 -0.052873828
0000b0 c0 c5 89 bd 1d 4f c0 bd 6b 8a d1 3c ba db 07 3d
       -0.06727171 -0.0939009 0.025578698 0.033168532
0000c0 67 e6 a9 3d 94 4a ba bd 95 6e ee bd 5c 29 48 3d
       0.08295899 -0.09096256 -0.116421856 0.04886757
0000d0 d0 49 1d bd 2c 9a c6 bd f8 af 0d 3d f2 77 08 be
       -0.03840047 -0.09697375 0.034591645 -0.13327006
0000e0 ee dd 6b bd f4 17 25 be 86 ac 3a bd e2 b5 51 bd
       -0.057584696 -0.16122419 -0.045574687 -0.051198848
0000f0 9d b6 07 3e 7d e1 8e bc ea e1 19 3e 15 a6 04 be
       0.13253255 -0.017441506 0.15027586 -0.1295398
000100 f8 00 dc bd 9d 2f 0d be 28 11 05 be 4b 85 97 bb
       -0.10742372 -0.13787694 -0.12994826 -0.004624044
000110 ea f6 56 bd e9 a7 87 3d 7c 8f 95 3d fc 87 a5 bc
       -0.05248157 0.06623823 0.07302758 -0.020206444
000120 af b3 2f bc eb b2 3c 3b b9 95 f6 bc 9c e1 18 ba
       -0.010723992 0.0028793167 -0.03010069 -0.0005831958
000130 e5 70 af 3c 05 b5 8f 3c 1b d6 66 3d 0c e1 85 3d
       0.021416137 0.017542372 0.05635653 0.06537065
000140 aa 1d c0 bc 70 10 99 bd e0 a9 ec bc b9 67 2e bd
       -0.023451645 -0.07473838 -0.028889596 -0.042579386
000150 b8 d7 af bd 6d 30 f1 bd 8b 68 d4 bd 14 01 76 bd
       -0.08586067 -0.117768146 -0.103715025 -0.060059622
000160 71 cb da 3c dc e8 1a 3d 71 f3 e8 3b 6f 55 a7 3d
       0.026708337 0.03781973 0.0071090986 0.08170592
000170 d5 3a 33 bc 8d 0b 78 bd 0b 99 ab 3d 51 be cf 3d
       -0.01093932 -0.06055789 0.083788 0.10143722
000180 fe 74 c6 bd 21 b6 52 bd c6 6b c6 bd 22 ad 87 3d
       -0.09690283 -0.051443223 -0.09688525 0.06624819
000190 b6 d3 f7 bb bc c3 36 3d be 12 b9 bc 01 3b 2b bd
       -0.0075630797 0.04462026 -0.022591945 -0.041804317
0001a0 4a 27 17 3e 92 38 ed 3a e5 dd 0a be 77 5c e0 3d
       0.14761081 0.0018098524 -0.13561209 0.10955136
0001b0 e9 e8 34 3b f4 0a ac bd cb 32 ce 3d a8 eb 64 bd
       0.0027604646 -0.08400527 0.10068282 -0.0558888
0001c0 3d a5 fc 3d 1c a6 83 3d 5d 9e 71 3d ff cf 17 3d
       0.12336204 0.06428167 0.058988918 0.037063595
0001d0 03 1e 24 3e 61 d9 b3 3d af a2 d7 3d e6 6b bd bb
       0.16027074 0.08781696 0.10529076 -0.0057806848
0001e0 4c 9a 8a 3d a6 69 20 3d 4c a1 84 bb 15 b9 be 3c
       0.06767711 0.039163254 -0.0040475484 0.023281613
0001f0 cf 69 0a bd 84 e0 4d 3c f4 5a c9 bd 97 eb 83 bd
       -0.033792313 0.012565736 -0.09831801 -0.064414196
000200 5d 0c 84 3d 61 ba a5 3d 94 47 d0 3d ca 00 00 3c
       0.064476706 0.080921896 0.101699024 0.007812688
000210 9d 6e 28 bd 3d 08 87 bd af aa 93 bc a2 12 90 3d
       -0.041121114 -0.06593368 -0.018025724 0.07034804
000220 75 1a 8f 3d 38 9b 4a 3d 0e 8c 79 3d 23 07 c1 bd
       0.06987468 0.049464434 0.060924582 -0.09425189
000230 a1 15 a9 bd 0e 82 c1 3c cf 95 8f 3d d0 bb d4 bd
       -0.082560785 0.023621585 0.070109956 -0.10387385
000240 b2 50 5e bd 59 2a 8e bd dd 3f d0 3d b2 33 c5 3b
       -0.054276176 -0.06941671 0.10168431 0.0060181255
000250 19 a9 8a 3d 9c c7 06 3d 4e cf 09 3e 6b 35 a2 3d
       0.06770534 0.032905206 0.13457987 0.07920345
000260 f3 22 61 3d 7a 6d 87 3c 0a ee 7e bd 5d 64 0b 3d
       0.05496497 0.016531695 -0.06223873 0.03403126
000270 60 00 11 bb 2c ae cf bd a9 52 b0 3d f9 13 9f 3d
       -0.0022125468 -0.101406425 0.08609516 0.07767481
000280 4a f7 4b bc cc 9f d3 3d a8 9d fa 3d f4 22 f5 bb
       -0.012449095 0.10333213 0.12237102 -0.0074809734
000290 2c 9f 00 3e fd 8a 01 3d c1 fb 86 bc ac a6 ad 39
       0.12560719 0.03162669 -0.016477467 0.00033121312
0002a0 25 11 99 bd 72 d6 bb ba 57 87 8a bd e0 4f a9 3d
       -0.07473973 -0.0014330877 -0.06764095 0.08267188
0002b0 2c 6e e0 3c 22 f2 e8 39 ab 08 72 3c fd 5e 29 3d
       0.027396284 0.0004443089 0.014772574 0.041350354
0002c0 19 44 cd bd 2e 1c 6e bc 5c 10 a4 3d 90 69 d5 3d
       -0.10022754 -0.014533086 0.08010933 0.10420525
0002d0 0f ed 47 3d 8c af 9f bd 4e 90 8f 3c 1c 87 ae bc
       0.04881006 -0.07797155 0.017524865 -0.02130466
0002e0 f9 ab 16 3e 9f f5 ad 3c 04 1e c7 bd 39 5d 27 3d
       0.1471404 0.021235285 -0.09722522 0.04086039
0002f0 22 68 c1 bc ea 55 9c bd 7f 04 47 3c a4 37 8f bd
       -0.023609225 -0.07633574 0.012147068 -0.069930345
000300 79 4a 8e bd 14 e2 85 3d 0e fa d5 3c d8 fe d7 bd
       -0.06947798 0.065372616 0.026120212 -0.105466545
000310 3c 42 ec 3d ee ad f7 3d bc 7a ab bc 77 c4 ee bd
       0.11536071 0.12093721 -0.020932548 -0.116585664
000320 b8 6a 3a bd 5d 79 f3 bd 41 c1 83 3c b0 bb 08 bc
       -0.04551193 -0.118883826 0.016083362 -0.008345529
000330 d2 21 4f bd 43 8b 9a bd 6f 84 c8 3c d1 ba 20 bd
       -0.050569363 -0.07546093 0.024477212 -0.039240662
000340 0a 51 a6 bd 48 ab e6 3a 8d 87 97 bd 4d 20 c9 bc
       -0.08120926 0.0017598653 -0.07398901 -0.024551535
000350 03 9a a4 3c ec 20 81 bd c5 34 ac bc 97 6e 81 3d
       0.02009297 -0.063051075 -0.021021256 0.063199215
000360 52 56 87 bc c6 9d a3 3c db 2f ac bd 23 13 90 3d
       -0.016520653 0.019972693 -0.08407565 0.070349
000370 48 ee 12 be c9 12 ab 3d 75 7f 49 bd 75 38 a1 bb
       -0.1434871 0.08353192 -0.049193818 -0.0049200603
000380 46 64 d0 3d ef 33 7c 3d e1 47 07 be d0 f8 2b bd
       0.10175376 0.061572965 -0.13211013 -0.041985333
000390 0e f2 3e bd e6 28 8c 3b 37 54 4c bd b6 ed ca bb
       -0.04661756 0.0042773364 -0.049885 -0.006192888
0003a0 31 d9 19 3d 41 28 d8 3c 55 48 84 3d 48 ae c5 bd
       0.037560645 0.026386382 0.06459109 -0.09652382
0003b0 31 2f b9 bc c6 89 76 3b bf 8e 8c 3d 9b c1 d5 3d
       -0.02260551 0.003761874 0.06863164 0.10437318
0003c0 34 3e 25 3e fe 66 c1 bd 1b e2 cf 3d b7 46 a3 bc
       0.1613701 -0.09443472 0.10150548 -0.01993118
0003d0 40 95 19 bc e9 68 06 be 9f 0c 1a 3c 78 18 ec 3c
       -0.009373963 -0.13125958 0.009402423 0.028820261
0003e0 10 f7 bb 3d ba fd 1e bc 73 3f 18 bd b6 18 c7 3d
       0.09177983 -0.009704048 -0.037169885 0.0972151
0003f0 19 94 c5 3d 35 e4 00 be c9 06 f2 3d 43 f8 96 3d
       0.09647388 -0.12587054 0.118177004 0.07371571

bias_ih_l0 f4 [256]
000000 f6 90 d1 3d 37 20 90 bd 0f 54 75 3d f4 dd cd 3d
       0.10232727 -0.070373945 0.059894618 0.100521
000010 7a 23 63 3d 7f 4e e3 bd 91 5c e1 3d 2e 21 a0 3b
       0.055453755 -0.11098956 0.11003984 0.004886768
000020 5f 14 bb bc 7d 0a 75 bd 05 1b 82 bd 33 54 d9 3d
       -0.022836862 -0.059824456 -0.0635281 0.10611763
000030 2d 94 f0 3d 3e e1 1e bd fc 31 81 bd b9 c2 c3 bd
       0.11747012 -0.038789026 -0.06308362 -0.09558625
000040 71 e8 6d bd c5 fb ed 3d 86 87 1d bd 81 3b 08 bd
       -0.058083 0.11620287 -0.038459323 -0.033259872
000050 90 22 fe 3d be 94 93 3c b0 c9 f6 bd 5c 26 a4 bd
       0.12408936 0.018015262 -0.120501876 -0.08015129
000060 4f 59 f3 bd ea 64 98 3c 38 95 a4 3d 44 1f ad bd
       -0.11882269 0.018602807 0.08036274 -0.08453229
000070 3c 3e 81 bd ae 11 92 bd 63 ff bc bb 73 ff b3 3d
       -0.063106984 -0.071322784 -0.005767749 0.087889574
000080 67 2b 89 bd b3 e0 8e 3c 22 e9 ec 3d 44 96 fd 3d
       -0.066977315 0.01744113 0.11567904 0.123821765
000090 c9 a1 26 3c 79 a3 d0 3d 65 6e 08 3d b5 12 c8 bd
       0.0101704085 0.1018743 0.033308405 -0.09769193
0000a0 58 a7 0e be 16 07 f4 3d 65 00 54 bd 5f bc d2 3d
       -0.13931024 0.11915414 -0.05175819 0.10289835
0000b0 0f 37 ca bc 95 6f b4 3d 57 2a a6 bd 9b be 11 3e
       -0.024684457 0.08810345 -0.081135444 0.14232866
0000c0 fa d3 18 3e c0 86 79 3c e0 45 b2 3d d1 ed 88 bd
       0.14924613 0.015229881 0.08704734 -0.06685985
0000d0 22 3e 2a bd dc c7 fc 3d 4c 6d 05 bd f6 44 b9 3c
       -0.04156316 0.12342808 -0.032574937 0.022615891
0000e0 b2 18 8f bc 46 95 0d 3e a9 92 8d bb 41 df 8a 3d
       -0.01746783 0.13826475 -0.004320462 0.067808636
0000f0 cf 48 bf 3d 0a 6c a5 bc ee 42 6f bd 74 51 75 3d
       0.09340059 -0.020193119 -0.05841344 0.059892133
000100 74 58 aa bd 77 eb 11 be 45 4d 8a bd 18 40 a9 3a
       -0.08317652 -0.14249979 -0.06753019 0.0012912778
000110 46 e7 a5 3c 75 ae 0b be a4 15 0b be b2 8e 35 be
       0.020251881 -0.13640769 -0.13582474 -0.17730215
000120 95 9d 20 bc 66 d6 ba bd 32 b3 b3 bd 18 bd 02 be
       -0.0098031955 -0.091229245 -0.08774413 -0.12767446
000130 dc 4b c7 bb b4 34 ae bd 9b 3a 22 bd 95 31 04 3d
       -0.006082041 -0.08506146 -0.03960667 0.032273848
000140 bb db 37 bc 47 8f 3d bb 13 8a 80 3d f0 8d 18 3d
       -0.011221821 -0.0028924511 0.062763356 0.037244737
000150 13 d2 50 bd f8 21 d4 3c 2a f0 15 be 5e 72 f3 bd
       -0.050981592 0.025895104 -0.14642397 -0.11887048
000160 1a 64 a4 bd 23 85 6c 3d 7c 30 a7 bd a4 95 5d bd
       -0.08026905 0.057744157 -0.081635445 -0.054097787
000170 83 ff 88 bd c0 ee 9d 3b c3 8c 5a 3c b7 04 8e bc
       -0.0668936 0.004819721 0.013339224 -0.017336233
000180 d4 e0 c5 bd 16 2d 65 bd bd 11 74 3d dd e5 ef bc
       -0.09662023 -0.0559512 0.05958723 -0.029284412
000190 6b 55 25 bd 38 00 fa 3b 0a 8b 27 bc 49 e0 d7 ba
       -0.040364664 0.0076294206 -0.010226021 -0.001647004
0001a0 06 a1 84 bd f6 9b ca bc b0 af d6 3d a8 91 16 bd
       -0.06476025 -0.024732571 0.104827285 -0.036760002
0001b0 cf 49 c6 3c 4d 4a 0a be f8 f4 c4 bd 35 b8 82 bd
       0.024205117 -0.13504906 -0.096170366 -0.06382791
0001c0 06 bc 58 bd c1 26 4c bd 67 18 cc bd 57 bb b0 3d
       -0.052913688 -0.049841646 -0.09965592 0.08629482
0001d0 84 6f e4 bd ad 24 c5 3d 6a ca 0c be 2c b3 12 be
       -0.111540824 0.09626136 -0.1374909 -0.14326161
0001e0 9c 2b 38 bd 39 89 2a ba ed d7 85 3d 65 a2 a2 bb
       -0.044963464 -0.0006505433 0.06535325 -0.0049632066
0001f0 4e 87 c2 bd 79 d5 1e be a3 32 d3 bd 30 f8 de bd
       -0.094984636 -0.15511121 -0.103123926 -0.10887182
000200 ed cc 90 bc bd dc 8f bd d7 67 ce 3d 98 9f 18 bb
       -0.017675841 -0.07024524 0.100784 -0.0023288485
000210 63 ac 9c bd d1 5e da bc d4 2a 68 3d bd 78 9d bb
       -0.07650068 -0.02665654 0.05668147 -0.004805653
000220 1a de 07 bb 08 b9 6b 3c d3 90 b2 3d 8f b0 91 3d
       -0.0020731748 0.014387377 0.08719029 0.07113754
000230 ad bb 07 bc b2 d4 60 bd 63 83 a1 3d 00 37 8e 39
       -0.0082844915 -0.054890342 0.07886388 0.0002712533
000240 1f a2 04 bd c5 86 80 bd 63 78 5d 3d 20 54 f0 3d
       -0.032381173 -0.06275705 0.054069888 0.117347956
000250 61 c3 de bc de 8c 90 bc 2f 24 ad 3c a0 9f 54 3d
       -0.027192773 -0.017645296 0.021135418 0.051910043
000260 91 28 e0 bb e9 77 92 3c ce a7 89 3d 89 3b 26 bd
       -0.0068407734 0.017879443 0.06721459 -0.04058412
000270 ce 2a 56 bd 17 01 1d 3a 59 84 c0 bd 76 8a ce 3d
       -0.052286915 0.0005989237 -0.09400243 0.10085003
000280 5e 90 13 3d ef df 82 3c 45 83 eb 3d 6d c2 29 be
       0.03602635 0.01597592 0.11499647 -0.16578074
000290 81 f3 9f bd 52 49 83 3d da 3c 94 3d 40 b0 24 3c
       -0.078101166 0.06410469 0.07238169 0.010051787
0002a0 99 03 99 3d 2e e0 3c 3d 16 e1 9c bd f7 cf bf bc
       0.07471389 0.046112232 -0.07660119 -0.023414595
0002b0 41 6c f6 bd 93 53 00 3e 56 e9 03 3c 50 67 df bc
       -0.120323665 0.12531881 0.008051237 -0.027270943
0002c0 2d 9a bb bd f0 81 81 3d 7e 72 ed 3d d0 1f d5 3c
       -0.09160266 0.06323612 0.11594103 0.026016146
0002d0 1d 94 42 3c 4e 21 ea 3b 66 94 9d ba 0e 1a 8f bd
       0.011876133 0.0071450835 -0.0012022376 -0.069873914
0002e0 3f 0f a0 3d d4 62 06 3e 38 d5 fc bd 1d be dd bd
       0.07815408 0.13123637 -0.12345356 -0.10827277
0002f0 d2 ea 17 be 2c 04 dd 3d 55 f6 1a 3b da 68 9b ba
       -0.1483567 0.10791811 0.002364536 -0.001185681
000300 20 39 89 3d 4c 6e fc bd 5d 46 1e 3d aa 3e 92 bd
       0.06700349 -0.12325725 0.038641322 -0.071408585
000310 dd 54 e3 3d a4 3b 5c 3d 61 cf 74 3d da 8f e7 3d
       0.11100171 0.053767815 0.059768084 0.113067344
000320 8d 9c e2 3d 01 ff cc 3d 72 11 b6 bd 03 3d e8 3d
       0.11065016 0.10009576 -0.08890046 0.11339762
000330 d1 5f 1d be 4c 3b 0b be 1f 09 88 3d d1 5b cd bd
       -0.15368582 -0.13596839 0.06642365 -0.10027278
000340 52 5f 79 3d 32 00 68 bd 8f 7b c4 3b 7b 60 df bd
       0.06088192 -0.05664081 0.0059961746 -0.10907074
000350 04 ed 98 bc a0 9f eb 3d dd 86 cf bd 3d b3 54 3d
       -0.018667705 0.115050554 -0.10133145 0.051928747
000360 f5 4d b1 3d 4b 9a cf 3c 20 d9 57 3c 85 a9 c4 3d
       0.08657447 0.025342127 0.013174325 0.09602646
000370 2b 73 89 3d ec 68 a4 bc 8c eb a0 bd f5 09 a9 3d
       0.0671142 -0.020069562 -0.07857427 0.08253852
000380 a6 1b 28 bd 3a e3 b3 bd 2d 62 cd 3d 1d 69 7d 3d
       -0.041041993 -0.087835744 0.10028491 0.061867822
000390 89 29 e7 3d c2 6e ec bd 3b 5a 85 bd dc ef 5a 3b
       0.11287219 -0.11544563 -0.06511351 0.0033407127
0003a0 9a c6 b0 bd 1d 0a b7 bd ca 51 19 bd 20 72 9c 3c
       -0.0863163 -0.08937476 -0.037431516 0.019097388
0003b0 5b 64 a3 3d 62 c7 da 3d 97 5d cf bc 06 84 25 bd
       0.07978126 0.106825605 -0.025313182 -0.04040911
0003c0 65 82 9e 3d 9c 5a 9d 3d 4f 4e 26 3d fa 5e 1b bd
       0.077397145 0.07683298 0.040602025 -0.037932374
0003d0 e4 29 28 be c2 6f 0d bb 08 0f d1 bd 0c 42 c8 bc
       -0.1642223 -0.0021581505 -0.10207945 -0.024445556
0003e0 f9 76 81 bd f5 b0 c4 bd 9e 5f 49 3d b8 2d 11 be
       -0.0632152 -0.096040644 0.049163453 -0.14177597
0003f0 bd 80 b5 bd 73 d1 74 bc 45 99 5d bc cf 13 b5 3d
       -0.088624455 -0.014942515 -0.013525312 0.08841669

bias_hh_l0 f4 [256]
000000 54 df 85 3c e0 19 d9 bd af d9 14 3e 88 e6 97 3c
       0.016341843 -0.106006384 0.14536165 0.018542543
000010 6f 17 19 bb 2f 9a b3 bd 48 6b e7 bc e4 28 99 3d
       -0.0023359915 -0.087696426 -0.028249398 0.074785024
000020 1d 61 b7 3d 49 2c cc 3c 29 34 b8 bb ce 9d 5d 3d
       0.0895407 0.02492346 -0.0056214524 0.054105572
000030 15 f7 e2 bd 2d 32 0f 3d e4 69 2e 3d 97 98 a9 bc
       -0.110822834 0.03495996 0.042581454 -0.020702643
000040 95 26 2b 3d 17 e3 87 3d 91 98 52 3d e5 1b cf 3d
       0.04178484 0.06635111 0.05141503 0.10112742
000050 45 ff 6a bc cc c7 22 3b 2a ea ef 3c 21 a5 8b bc
       -0.014343088 0.0024838326 0.029286463 -0.017046513
000060 36 50 3c bd b7 85 e5 bd f6 63 92 3c ce 00 a5 3d
       -0.045974933 -0.11207145 0.01786993 0.08056794
000070 fc 64 e3 3d 2e 67 ca 3d a5 86 db bc d6 ca ef 3d
       0.111032456 0.09882961 -0.026797602 0.1170861
000080 1a ec 25 be e4 4d de bd 3e 8a d7 3c 49 eb 2c 3b
       -0.16203347 -0.108547 0.026311036 0.0026385358
000090 1f 43 08 3e 21 21 78 3d 5f e4 1a 3e 3e 43 4b 3d
       0.13306855 0.06057847 0.15126179 0.049624674
0000a0 55 d0 09 bd e4 1b 83 3d dc 5a ba bd 31 30 35 bd
       -0.033645947 0.06401804 -0.09099361 -0.044235412
0000b0 7a e1 f5 3d de e5 d5 3c 9b 24 88 3d 2f ea 06 3e
       0.12005897 0.026110586 0.06647607 0.13175271
0000c0 49 2e 93 3d 10 15 c4 3d 01 d5 0e 3d 2e 92 2c 3b
       0.071865626 0.0957433 0.034871105 0.0026332247
0000d0 13 b0 d5 3d 67 b7 f6 3d a2 ba 29 bd 8b 10 bc 3d
       0.10433974 0.120467 -0.041437753 0.09182843
0000e0 e2 0b 6a 3d ff 30 26 3e 71 59 1d 3d 61 06 0e 3e
       0.05714024 0.16229628 0.038415376 0.13869621
0000f0 e1 05 44 3d e9 86 8b bd 94 fa 4a bd c9 e9 0e 3e
       0.04785717 -0.068128414 -0.049555376 0.1395637
000100 62 64 e3 bd c6 52 ba bd 99 ff 56 3d 75 6a 88 bd
       -0.11103131 -0.09097819 0.05248985 -0.0666093
000110 3a 9f 63 3d c7 9e 02 3d 67 d0 f9 bc 45 0d 11 bc
       0.055571772 0.031889703 -0.030494882 -0.008853261
000120 f8 a5 f7 bd a0 9e 07 be a6 fc cd bd 93 29 a3 bd
       -0.12092203 -0.13244104 -0.100579545 -0.07966914
000130 6c 59 ca 3d 2d fa 6a 3b 2f 46 11 bd 00 f4 02 be
       0.09880337 0.0035854683 -0.035467323 -0.12788391
000140 77 82 88 3d c9 95 2a be 11 94 9c 3a 23 d9 70 bc
       0.06665509 -0.16658701 0.0011945983 -0.014700207
000150 5f 03 cf 3d d1 da 6c 3c f5 06 80 bc 9a 35 50 3d
       0.10108065 0.014456467 -0.015628317 0.05083237
000160 67 6b 82 bb cc db 2d bd 23 cc 8c bb d7 8b 68 bd
       -0.0039800885 -0.042445943 -0.004296796 -0.056773987
000170 c8 29 04 be 5f 9a dd bd 46 a7 d3 bd d1 b8 f3 bd
       -0.12906563 -0.108204596 -0.10334639 -0.11900485
000180 e4 ba 8e bc ec e2 9b 3d db a3 27 bd 43 6b f6 bd
       -0.0174231 0.07611641 -0.04092775 -0.12032177
000190 21 8a 18 bd 97 b3 00 bd c2 47 47 3d a2 58 91 ba
       -0.037241105 -0.03142127 0.048652418 -0.0011089037
0001a0 fe 1d 3f bd d0 32 64 bd 35 f1 3c bd 54 b6 52 bb
       -0.046659462 -0.05571252 -0.04612847 -0.0032152133
0001b0 af 5f 60 bd c8 b1 b7 bc 54 3f ec bd 60 65 24 be
       -0.05477875 -0.02242364 -0.115355164 -0.16054296
0001c0 1f 50 6c bd f1 9e e0 bc a9 04 64 3d 88 ed cf bc
       -0.057693597 -0.02741954 0.055668507 -0.025381818
0001d0 13 b3 7a bd fb 6b 2e bd 54 16 86 3d dc 30 8e bd
       -0.061205935 -0.042583447 0.065472275 -0.06942913
0001e0 54 a9 dd bd 77 cc 1f be 9e 31 97 bd de d2 96 bd
       -0.108233124 -0.15605341 -0.073825106 -0.073644385
0001f0 d2 29 3e bc 1b 8c d5 bb 87 e2 12 be d7 a4 86 bc
       -0.01160665 -0.006516946 -0.14344226 -0.016436024
000200 e0 86 c8 3d 19 19 10 bc e7 19 af bc 05 4e e2 3d
       0.0979135 -0.008795046 -0.021374656 0.11050037
000210 25 b2 93 3d 2d 0c 3c bd 25 09 95 bd 2f 03 80 3d
       0.07211713 -0.04591005 -0.07277135 0.06250607
000220 98 76 7c bd 64 5e 83 bd 62 b2 20 bc 0a b8 9b bd
       -0.061636537 -0.06414488 -0.009808155 -0.07603462
000230 e2 eb 78 3d 1e e1 26 bd f7 82 b8 3d d3 89 f0 3d
       0.06077183 -0.040742032 0.090093546 0.11745038
000240 ea 18 04 bd 55 89 94 bd 11 ec da 3d 05 7b c3 3d
       -0.032250322 -0.072527565 0.10689557 0.095449485
000250 b9 5c bc 3c 31 f7 a9 bb 9b b7 29 3d 71 90 a8 3d
       0.022993432 -0.005186938 0.041434865 0.08230675
000260 35 aa e5 bc 42 94 9f 3d f2 cc 4d 3d a2 04 4b bd
       -0.028035263 0.0779195 0.05024428 -0.049564965
000270 74 84 39 bd db 5e b9 3d 1e 01 97 3c 8c a7 36 bd
       -0.045292333 0.09051295 0.01843315 -0.04459338
000280 f0 c8 c0 3d 47 52 0e 3d 8b d2 96 3d e7 5f 27 be
       0.09413326 0.034746435 0.07364377 -0.16345178
000290 9a 7e 0b 3e 6a ad b1 bc d8 05 54 bd ea 1e 79 bc
       0.13622513 -0.021689136 -0.051763386 -0.015205124
0002a0 cd 5f fd 3c e1 fd 75 3d 2d 2d 7b 3d f6 1f 05 bc
       0.03092947 0.06005657 0.06132238 -0.008125296
0002b0 b4 00 03 bb 88 c8 9e 3d d0 5d 0b 3e 43 2d 40 bd
       -0.0019989433 0.07753092 0.13610005 -0.046918165
0002c0 e2 64 81 3d da f6 98 bd 6a b5 87 bc 4f 19 eb 3d
       0.0631807 -0.07468958 -0.016565997 0.114794366
0002d0 cb 45 4f bd c1 0b b8 3d 76 38 74 bd ae 79 95 3d
       -0.05060367 0.08986617 -0.059624158 0.07298599
0002e0 a6 a4 c5 3d 24 fb cc 3c e0 4a 02 be cd 07 d3 bd
       0.09650545 0.025022097 -0.12723875 -0.10304222
0002f0 aa f7 9f 3b 77 a2 b9 bd 23 f3 08 bd e3 af 57 3d
       0.004881819 -0.09064191 -0.033435 0.052657973
000300 3c 3d e6 bd fd 5a e5 bd 76 be 03 3e 04 04 49 3b
       -0.11242148 -0.11198995 0.12865624 0.003067256
000310 b1 d3 e0 3a c5 8a 5e 3c d8 d6 b0 bb 9d 5a f5 bd
       0.0017152933 0.01358289 -0.005396705 -0.11980174
000320 1a 88 91 3d 20 02 c7 ba e4 68 f1 3d 79 84 2b bd
       0.071060374 -0.0015183128 0.117875844 -0.041874383
000330 5f d3 94 bd 04 fb 06 be 47 f4 c5 bd da ad ae bd
       -0.07266878 -0.13181692 -0.09665733 -0.08529253
000340 08 eb 81 bd dd 93 16 3e 9a 59 00 3e 8b 6c 37 bd
       -0.06343657 0.14704843 0.1253418 -0.04478125
000350 cf 81 f7 3c 86 ad 81 3c fb 13 9d bd 9b d8 ae bd
       0.030213265 0.015829813 -0.076698266 -0.08537408
000360 b1 c8 23 be 4f d8 59 3d b0 27 7a bd 8a 7c c6 3c
       -0.15994526 0.053184804 -0.061073005 0.024229307
000370 2e 04 05 bc e7 6c 1b be 62 69 27 be ec 9c 0d bd
       -0.008118672 -0.15178262 -0.16348794 -0.03457348
000380 4e 04 cf bd 04 a4 0d be 16 db 11 bd 3f fe a4 3d
       -0.10108243 -0.13832098 -0.035609327 0.08056306
000390 30 5f d5 bd c8 fa e2 bd eb 6f 35 bc bd cf b4 bc
       -0.10418546 -0.11082989 -0.011074047 -0.022071714
0003a0 30 e3 09 3d 28 79 cf 3d 47 d8 b7 3d 8b d3 bd bd
       0.03366393 0.101305306 0.089767985 -0.09268864
0003b0 49 d4 42 bd 8b c1 aa 3d 2f b9 5a bc 1b 93 45 bd
       -0.047565732 0.08337697 -0.013349815 -0.048235994
0003c0 5f cf 42 3d 35 ad 0e 3c 62 6d 12 be 98 8c e3 bd
       0.047561046 0.008708288 -0.14299539 -0.111108005
0003d0 d3 f7 b8 bd 7f 94 7d bd 4e ec 0a 3e 09 33 9a 3d
       -0.09031644 -0.061909195 0.13566706 0.075292654
0003e0 fd 22 01 3c a2 9b fd 3d e7 dc 08 3e 06 22 ba 3c
       0.007881877 0.123832 0.13365518 0.022721302
0003f0 c8 d1 ce bd 93 3e fb 3d c4 47 d3 bd 56 c2 f8 3d
       -0.10098606 0.122677945 -0.103164226 0.12146442

weight f4 [1, 64]
000000 46 db a2 bc 27 78 88 bd 92 2f 00 be 98 ca 51 bb
       -0.019879948 -0.06663542 -0.12518147 -0.0032011624
000010 d3 85 87 3d 4f 6e 9b 3d 14 57 f3 3c e1 2b 84 bd
       0.06617322 0.07589399 0.029704608 -0.06453682
000020 2b 46 2c bd 1f 09 c6 3d 09 b5 15 3d e3 c7 c8 3d
       -0.042059105 0.096697085 0.0365496 0.0980375
000030 67 6f 96 bd df 21 5c bd 9d 8a 0a ba 8e c3 c1 3c
       -0.07345467 -0.05374324 -0.0005284937 0.023652818
000040 3d 2f 06 3e 37 1d 46 be 3d a0 12 be f8 8c c5 bc
       0.13103957 -0.19347082 -0.14318939 -0.02411507
000050 f9 74 53 3d 54 b9 0e be a8 ab 96 3c 65 fb e4 3c
       0.051625226 -0.13937885 0.018392399 0.027951906
000060 79 c3 9e bd 3e cc 65 3d fa a7 80 bd 51 99 3e bd
       -0.07752127 0.056102984 -0.06282039 -0.046532933
000070 b9 21 cd 3d 4a 1f da 3c 16 81 ae 3c ed 56 e4 3d
       0.10016198 0.026626248 0.021301787 0.11149392
000080 9b 01 5c 3b 84 f8 45 3d 78 44 cb bd bd 46 a0 3d
       0.0033570293 0.048332706 -0.09925169 0.07825992
000090 39 73 c9 bd c2 a8 ac bd d6 b1 9e bd bf bc 4c 3d
       -0.0983643 -0.084306255 -0.07748763 0.04998469
0000a0 ad ce 50 3d 97 58 61 bd d5 19 e3 bd 9a e5 36 bd
       0.05097835 -0.055016126 -0.110889114 -0.04465256
0000b0 60 5b 03 3e f8 41 42 bd 6f 7f a0 bd a1 00 5b 3d
       0.12827826 -0.047426194 -0.07836806 0.053467397
0000c0 f9 9e d9 3d 61 3c 18 be 6e 8f 9a bd b4 f1 0a be
       0.10626025 -0.14866783 -0.07546888 -0.13568765
0000d0 f0 af 5b 3c 38 c1 ab bd ac 99 c0 3d cd 38 28 bd
       0.013408646 -0.08386463 0.094043106 -0.041069794
0000e0 ef 48 c8 bc 66 64 73 3d 55 9a 69 3d aa d2 d5 bc
       -0.02444884 0.05942192 0.057031948 -0.026101429
0000f0 7f 20 04 3e b6 b5 2b bd d0 a8 8c 3d 56 4a aa bd
       0.12903021 -0.04192134 0.06868136 -0.0831496
