model/4049.1727550204623_weight.pth (torch, 90511 bytes, 7 tensors)

weight f4 [16, 32, 1]
00000000: d8d3 823e 7a50 513e db91 883e bd83 87bc
00000010: 1ac7 283e bd73 78bc 7dc2 c4bb 9a47 13be
00000020: a730 ccbd 898b 09be ec0d 073e 409b c33c
00000030: 7785 f9bd 3682 e53c fd4a a6bd 4ad1 93bd
00000040: 3490 2dbe e303 ccbb a97d 13be 7c50 3fbd
00000050: b29a 5c3d 927f 8abd 3b26 d13d 6c76 dbbd
00000060: fad4 e5bd 2819 dc3c 3700 ffbd 829b f53d
00000070: 0260 d2bd 2a71 07bd b5e5 c6bd 1bf1 bd3d
00000080: ad19 fabd 2103 8abe 82bd 10be 64e7 133e
00000090: df21 0dbd a3cb 1dbd b52f 99bd b793 a13d
000000a0: d24a 223e 6b6e a5bd b761 debd 422d ac3b
000000b0: 6965 893d 60a6 263d a7b7 ce3d d911 0ebe
000000c0: e649 973d 35c0 c1bd abf0 24bd 1831 00be
000000d0: ece4 40be cbbe 1f3e ede7 693c e544 f43c
000000e0: e9b8 94bd 9ec8 26be f82d dbbd 1fbe 9a3d
000000f0: e58f fcbc 54ed ab3d f325 29be ce34 8e3c
00000100: 2010 86be e61e 153c a074 60bd 1cac acbd
00000110: 9cfb 46bc 85a6 cdbc 2d9b eebd b0b1 783d
00000120: 07f1 223e d746 063e a848 093e b903 983d
00000130: 287d e9bd 1fb4 36be 6cc0 22be efb3 37be
00000140: c7b0 913d 865e 393d 5d51 113e 47c6 2ebe
00000150: 2a09 dcbd 20a9 af3d 733b 71bd d467 d83d
00000160: 5dba 7b3d bf87 3abd 3b1f 403e f22d 2b3e
00000170: 0e01 20be 77a6 a33d 7d24 d1bd b8f7 d2bb
00000180: cea7 593e 7d5c 4a3e b79e 133d 0d59 a53d
00000190: 8ddc 0fbe 557e 2ebe 2f2a a13b 0fed 023e
000001a0: ede0 b13d 32d3 4fbd 33cd 1ebe fcc9 283e
000001b0: 9ba5 abbd 5d4d 94bd 5c94 63bc 55de 3c3d
000001c0: 3272 04be 780a b03d 3296 853d 4515 fc3d
000001d0: 62f8 9f3e bd9c a2bc 6d0d debd 5bc0 93bc
000001e0: 40a1 b9bc fed7 e9bd 5d1c e0bd cb3e 6a3c
000001f0: 312b db3d 92a0 00be bcbe 38bd 64b3 12be
00000200: d82d 803e a578 3b3e 6b40 5fba 1db5 cebd
00000210: 79c0 2b3e ff82 113d 33c7 073d cce4 4bbd
00000220: 75c1 1c3e 611c b73d d08a 163e 3d9e 80bc
00000230: afe9 3d3e ef50 1fbd 94c0 b33d d377 f4bc
00000240: e078 1abd 87d2 adbd 133d 943d 90d1 11be
00000250: e961 32bd 3c3b 053e 996f d3bd 2752 003e
00000260: f24f 813d 49b7 1a3e 3d1a 05be f24b 4ebd
00000270: 1080 2d3b c7ea 1dbe 8e65 033e c5eb 343e
00000280: f43e 87be 19b9 69be 27f4 e6bd dcb1 a23d
00000290: 2b12 63bd 796f d2bd a26f 2cbe b15d b4bd
000002a0: 7386 b93d 7777 0cbd 8480 cdbd 8470 e2bd
000002b0: 3ee8 e0bd e046 1bbe db95 42bd feee 503c
000002c0: 881e bfbd 92b6 d6bd 2c00 a6bd 0964 3cbe
000002d0: 8632 803d 69fa e23d 2d0d 12be 9ee0 10be
000002e0: 9e1d 48be 6a2f 2d3d 3cf0 ea3d acb1 1bbe
000002f0: 7653 05be c006 eabc 1cc1 f5bc d1d5 1fbe
00000300: 9f7f 913e 1b3f 573e 4014 3abb 81d1 303d
00000310: e30d 353d 3152 073e 5c0b 13be a8e9 09be
00000320: 1f19 24be ee3f 8bbd 6c3c fa3d 15d7 f1bd
00000330: 68b1 77bd 2b09 3f3d ad28 50bd eac9 a2bd
00000340: 06cf 2d3e 6e63 fa3d 16de ac3d 8bf7 b63d
00000350: 237e 17bd 4197 3dbe d7b8 8abc cb5d b3bd
00000360: ff90 0cbd 7ac8 a13d 7209 a83d bc07 03be
00000370: 40a6 febd dc5e 333a 49ef 353e fe9c 223e
00000380: 684d 2fbe d1d6 8e3d c4a7 55be ace2 203e
00000390: 2391 163e e747 b13c 0a9a a9bd 6269 e4bd
000003a0: b52e eabb e3ef 143e 5074 aabd c673 3ebd
000003b0: 5515 1b3e cf91 e2bd c5e4 cdbd 6143 b9bc
000003c0: c070 253d 5f40 23be 712b 2abe 8bfe 173d
000003d0: b490 84be 1106 d9bd 0d93 48bd d2f2 173e
000003e0: 6bf7 efbd 7563 fabc e3c2 94bd db6f 123e
000003f0: 4dcb f13d b46e 603e e9c4 81bc 4918 8e3d
0.2555225 0.20440856 0.2667378 -0.01654231 0.16482201 -0.015164313 -0.00600463 -0.14382783
-0.09970217 -0.13432135 0.13188905 0.02387774 -0.121836595 0.028016191 -0.08119772 -0.07217653
-0.1694954 -0.0062260493 -0.14403404 -0.046707615 0.053858466 -0.06762613 0.1021237 -0.107159466
-0.11222263 0.026867464 -0.12451213 0.119925514 -0.10272218 -0.033066906 -0.09711782 0.09274503
-0.122119285 -0.26955512 -0.14134791 0.14443737 -0.03445613 -0.03852428 -0.074798025 0.078895025
0.15848854 -0.08077701 -0.108584814 0.0052544186 0.067087956 0.04068601 0.10093623 -0.13873996
0.07387142 -0.09460489 -0.04026858 -0.12518728 -0.18837327 0.15600125 0.014276487 0.029818008
-0.07261831 -0.16287467 -0.10702127 0.07555794 -0.030830333 0.08394876 -0.16518383 0.017359164
-0.26184177 0.009101605 -0.054798722 -0.08431265 -0.012144949 -0.025103817 -0.11650691 0.06071633
0.15912257 0.13112961 0.13406622 0.07422585 -0.11400825 -0.17842148 -0.15893716 -0.17939733
0.07113796 0.04525616 0.14191194 -0.17067824 -0.107439354 0.0857718 -0.058894586 0.10566679
0.061457027 -0.045539614 0.18761913 0.16716745 -0.15625402 0.07990735 -0.10212038 -0.006438222
0.21255419 0.19761844 0.036040034 0.08073626 -0.14048977 -0.1704038 0.0049183588 0.12785743
0.08685479 -0.05073852 -0.15507965 0.16483301 -0.08381196 -0.072413184 -0.013890352 0.04611047
-0.12934187 0.08595747 0.06522788 0.12308744 0.3124419 -0.01985013 -0.108424045 -0.018036058
-0.022659898 -0.1141815 -0.1094291 0.014297198 0.107015975 -0.12561253 -0.045103773 -0.14326245
0.25034976 0.18307741 -0.0008516374 -0.10093138 0.16772641 0.03552532 0.033148956 -0.049778745
0.15308173 0.0894096 0.1470139 -0.015700454 0.18546174 -0.038895544 0.08776966 -0.029842293
-0.03771293 -0.084874205 0.072382115 -0.14240098 -0.043550406 0.13010877 -0.1032402 0.12531339
0.063140765 0.1510898 -0.1299829 -0.050365396 0.0026474036 -0.15421592 0.12831709 0.17668064
-0.26415217 -0.22824515 -0.11277037 0.0794408 -0.05543725 -0.10275168 -0.1683946 -0.08806933
0.09058847 -0.034293618 -0.10034278 -0.11056617 -0.10981797 -0.15163755 -0.047506195 0.012752293
-0.09331995 -0.10484041 -0.081055015 -0.18397535 0.062596366 0.11082918 -0.14262839 -0.14148185
-0.19542548 0.042281546 0.11471602 -0.15204495 -0.13020119 -0.028567672 -0.029999308 -0.15608908
0.2841768 0.21020167 -0.0028393418 0.04316855 0.044202697 0.13214947 -0.14359802 -0.13468039
-0.16025208 -0.06799303 0.12218556 -0.11808602 -0.060471922 0.046639603 -0.05082004 -0.07948668
0.16973504 0.12225996 0.08440797 0.08933934 -0.036985528 -0.1851473 -0.016933842 -0.08758124
-0.034317967 0.07899566 0.082049266 -0.12795919 -0.124340534 0.0006842443 0.17767061 0.158802
-0.17119372 0.06974567 -0.20864779 0.15711468 0.14703803 0.021640731 -0.08281334 -0.11152913
-0.007146681 0.14544635 -0.08322966 -0.04649713 0.15144856 -0.11062967 -0.100534 -0.022615137
0.04039073 -0.15942524 -0.16618134 0.037107985 -0.2589165 -0.1059686 -0.048968364 0.14838722
-0.11717113 -0.030565003 -0.07263734 0.14300482 0.11806355 0.2191723 -0.015840964 0.06938226

bias f4 [16]
00000000: 6597 093e c3a3 04be cbc7 283e 4bfa 133d
00000010: 335c b53c 93ed 1abe 9a32 83bd 89f5 0bbe
00000020: baea f03d c185 053e 2067 a5bd 03b5 f63d
00000030: 69ae 33be 8848 413e e756 c63c bc61 8c3d
0.13436659 -0.12953095 0.16482465 0.03612737 0.02213869 -0.1512969 -0.06406136 -0.13667883
0.117635205 0.13039304 -0.0807631 0.12046244 -0.17547001 0.18875325 0.02421136 0.06854579

weight_ih_l0 f4 [256, 16]
00000000: e81f 24be f645 9f3c 1faf f8bd 0e99 0ebe
00000010: e591 b3bd b8b9 99bd 9648 c4bd 8bec 543d
00000020: 3ff8 cf3c 14a5 9d3d 026c 7c3d feca aa3d
00000030: 8f3a 2cbc ae01 bbbd 174e b1bd 6dc8 0bbe
00000040: fa68 dabd 6394 303e cbfb 803d 132a d4bd
00000050: 770f 0bbe e28a 0e3e 10e6 35be a491 1d3e
00000060: b311 1cbe 4c20 b23d 1185 07be 2525 563d
00000070: 98e2 cfbd dc76 7e3d c420 1ebd 2940 653c
00000080: 2c05 05be 6f82 afbc debd 96bd 5c39 273d
00000090: a941 c63c 8df7 87bd 9b1f 413e 27c0 a5bd
000000a0: 993b 7a3c de30 acbd 5ccd 2d3e 02ce 38be
000000b0: 277a f03c c162 7bbd 31ff f23c 64ee 37bd
000000c0: 0449 4abe 5a95 e43d ba1e 093e c528 90bd
000000d0: fd9c 13be 7ecc c23b 2b31 3ebe a770 693d
000000e0: 0e53 a4bd 1fc4 f03d 2430 debd ed8f 8e3e
000000f0: 4e7f 223d a10e 4a3d 0a39 3fbd 9c0a b6bd
00000100: e05e f6bd 677f 19bc 06de d3bd ed9e d8bd
00000110: 0169 96bd 836c a73d 171f 2cbe 33fd 3d3d
00000120: 6e95 2bbe 6e7b efba 2eff 063d 7c5c 6c3c
00000130: aa5d c73d 49b9 33bd c386 913d fdbb 31bd
00000140: 2574 51bd 73b7 b3bc 804f 89bd f97c 893b
00000150: 1cb5 ac3b a482 ebbc 1982 9abd a0db 003c
00000160: 47fc 243d 5f3f 98bd d8c3 073e 803b 8d3b
00000170: 109a 7abb d6c4 c33d df2b e4bd c8f8 80bd
00000180: 71a3 233e 7220 79bd e8ac 86bd cab4 e3bd
00000190: c53a d6bc 592a 073c 28cb 7abe e49c 293c
000001a0: 5b1c a73d 3fe4 9d3d 20dd 73bd b8fe 81be
000001b0: da1d 9c3c f0c9 e937 d965 46be e450 073e
000001c0: c17c 70be 27fd ff3c 17f8 8c3c 2338 c83c
000001d0: 6e9c 0b3d 1b78 973d f0f2 d6bd 5820 3b3d
000001e0: d280 673d dc17 0e3e 722e cc3c 711d 583e
000001f0: f233 a73d d5d8 a63d e5ee f9bc e5ab 95bd
00000200: aa6e 7c3c ec9c 963d 7bc1 d93d d6c3 99bd
00000210: eff9 0dbd 67c8 a93b 86d9 86be c3a3 073e
00000220: 4e53 8fbd 7bc9 b63b 1e65 bf3d c09a f93d
00000230: d4a9 c8bd 19d2 ce3d b52b 323e 4140 02be
00000240: 11e5 12be 6133 123e 26d3 d33d 5045 d7bd
00000250: 43eb 863c 456b 3f3d 342b d8bb 42f3 c73d
00000260: a554 00be 5ef6 bbb8 8272 83bd d906 3a3d
00000270: 0eb1 24bd 0555 61bd 6bce 1cbc 15c0 79bd
00000280: c5d7 20bd 618c 27be 4ad7 fcbd af5e 63bc
00000290: e1eb 1c3e af95 aa3b ec42 a33d f865 9f3d
000002a0: cb80 1d3e ef80 a9bc 9651 51bd 52c8 fdbd
000002b0: 8e7a fe3d 1967 95ba 4120 9bbd 88bc 8c3d
000002c0: 05da bbbd c00c 42be 34a0 a43b 391a 0b3d
000002d0: c4f5 1c3e 18ed 4abe 2a42 27be e652 bbbc
000002e0: 34b5 363e f581 eabd ff9a 8f3c 8b4a 30be
000002f0: 8069 2eba f9cb 913c 2024 d5bd df8a ecbd
00000300: 4276 343c 1fa4 f7bd 690d 33bc d915 003e
00000310: 6ae6 b3bc 913b 02be 68ee 2ebd ae8f b1bc
00000320: 3939 e93b 6412 8e3d 553f ad3d 95b8 93bd
00000330: 1b1b 603d 8d82 fbbd bf2a fabc 3abb d23d
00000340: 38ca 42be 3282 f83d 4a6d 8abd d8ef 9dbd
00000350: f9e4 993d 93bf b9bc 0297 53be 4ef4 6e3d
00000360: dcab 2bbe c5ea 8fbd f7c4 95bd 5d5b 353c
00000370: f7f4 113d 6c95 cf3d d876 ca3d b6da 49be
00000380: 394c 10be 3fcb 1b3e ab33 c13c 1482 b8bd
00000390: a71c b33c 5a0c ba3d 3196 79bd bf5c 043e
000003a0: 5a60 ebbd 278c a93d 325b 8a3c 38ad 933c
000003b0: 8ec1 c03d eb34 6c3d 6e3f 653c e7aa 0abe
000003c0: 8d5d 67be 8e50 733d 7e4e 893d 6fd0 8c3d
000003d0: 023b 6d3d ff4c 0dbe 49ff 68bd f9a2 533c
000003e0: 62dc d33d c7c2 e3bd 178b eb3d 5bbf 4fbd
000003f0: 6b99 903c 29e9 31bd 2516 5c3d 2bb9 29be
-0.16027796 0.01944254 -0.12142777 -0.13925573 -0.087680615 -0.07506126 -0.09584157 0.051983397
0.025386928 0.07697502 0.06162644 0.08339499 -0.010512008 -0.0913118 -0.086574726 -0.13650675
-0.10664554 0.17244105 0.06298026 -0.103595875 -0.13580118 0.13920167 -0.17763543 0.15387589
-0.15241127 0.086975664 -0.13234355 0.052281518 -0.10150641 0.062125072 -0.038605466 0.013992348
-0.12990254 -0.0214245 -0.07360433 0.040826187 0.024201231 -0.066390134 0.18859713 -0.08093291
0.015272998 -0.08407758 0.1697287 -0.18047336 0.029355122 -0.061373476 0.0296627 -0.04490508
-0.19754416 0.11161299 0.13390628 -0.07039026 -0.14415355 0.0059447875 -0.18573444 0.0569922
-0.08023654 0.11756157 -0.10849026 0.27844182 0.03967219 0.049330357 -0.046685256 -0.08888742
-0.12029815 -0.009368754 -0.10345082 -0.10577188 -0.07344247 0.08174994 -0.16808735 0.046384048
-0.16756222 -0.0018271038 0.032958202 0.014426347 0.09734662 -0.043877874 0.07105782 -0.04339217
-0.051136155 -0.021938061 -0.067046165 0.004195806 0.0052706134 -0.028748818 -0.075443454 0.007864863
0.040279653 -0.07433962 0.13258302 0.0043100715 -0.00382388 0.09559028 -0.1114118 -0.06297451
0.15980317 -0.060821958 -0.06575948 -0.11118467 -0.02615107 0.008249843 -0.2449156 0.010352347
0.08159705 0.0770955 -0.059537053 -0.25389647 0.019057203 2.7869799e-05 -0.1937479 0.13214451
-0.2348509 0.031248642 0.017208142 0.02444083 0.03408473 0.07395955 -0.104955554 0.045685142
0.056519337 0.13876289 0.02492449 0.21104981 0.08164205 0.08146826 -0.030509422 -0.07308177
0.015407244 0.07354149 0.106326066 -0.07508056 -0.034662183 0.0051813605 -0.26337832 0.13246064
-0.06998311 0.0055782176 0.093454584 0.12187719 -0.09798017 0.10098667 0.17399485 -0.12719823
-0.14345194 0.14277412 0.10343008 -0.10511267 0.016469603 0.04673316 -0.006596947 0.097631946
-0.1253229 -8.962744e-05 -0.06418325 0.045416687 -0.040207915 -0.05501272 -0.009570698 -0.0609742
-0.039268274 -0.16362144 -0.12345751 -0.013877555 0.15324356 0.005205832 0.07971749 0.07783121
0.15381162 -0.020691363 -0.051103197 -0.12391724 0.12425719 -0.0011398523 -0.07574511 0.06871897
-0.09172443 -0.18950176 0.0050239805 0.033960555 0.15328127 -0.19817007 -0.16333833 -0.022866677
0.17842561 -0.114505686 0.017529963 -0.17215936 -0.0006653294 0.017797457 -0.10407281 -0.11549925
0.011014523 -0.120918505 -0.01092849 0.12508334 -0.021960456 -0.12718035 -0.04270783 -0.021674957
0.007117417 0.069371015 0.08459345 -0.072129406 0.05471335 -0.1228076 -0.030537961 0.10289617
-0.19022453 0.12134208 -0.067591265 -0.07711762 0.07514376 -0.022674358 -0.20663074 0.058338456
-0.16764778 -0.070272006 -0.07312959 0.011069146 0.035634007 0.10135922 0.09885949 -0.19712338
-0.14091577 0.15214251 0.023584208 -0.090091854 0.021864248 0.09084387 -0.06093425 0.12926005
-0.11492987 0.08278685 0.016889188 0.018026933 0.094119176 0.057667654 0.013992174 -0.13541757
-0.2259428 0.059402995 0.06704424 0.06875693 0.057917602 -0.13798903 -0.056884084 0.012917274
0.10344769 -0.11121135 0.11501139 -0.0507196 0.01765128 -0.04343525 0.053732056 -0.16574542

weight_hh_l0 f4 [256, 64]
00000000: cf78 2ebd a73a bebd 42aa 943d daba 2b3e
00000010: 88f1 0bb9 b238 d7bd a059 4bbd 3278 aebd
00000020: 2a65 dbbd b792 06bd 46c5 843d fd26 b93d
00000030: 90ba fcbc cbff 363e f316 5a3e 82ba 9cbd
00000040: ed8b dfbd 4e8b 90bc c2a2 0e3d 8952 f0bd
00000050: 5f6d 3f3d cc5a 133e 2562 223a f75b b6bd
00000060: ecb5 11bb d116 babd 535d 9abd fc91 c2bd
00000070: 3cf5 343c b27f 513d e127 2abd ec31 373d
00000080: 1d19 afbd 44da bebc 26b7 cb3d 1608 843d
00000090: 037d 74bd 13ba 973d a457 90bc 1ef1 7b3d
000000a0: 5d91 10bb 685e 423e b466 143e a437 253d
000000b0: 18c1 08be f3c1 0d3e 284c 0d3d 7c50 fcbc
000000c0: d4c1 03bc 064b f63d d948 c33d 29de 98bb
000000d0: cfa1 b23d f241 173e a4b2 fc3c 4eba 66bb
000000e0: 1783 23be 8bd8 bd3b 3f57 993d ac7a 213d
000000f0: 5b9f 113e 2797 f43a f0bb 9abd aaa3 86bd
00000100: 7131 edbd 63e0 9a3d 2c69 bc3a 21a1 e8bd
00000110: f415 203d c2e8 f8bd 53ed 973d ca38 cdbd
00000120: 6210 2b3e 761d adbd d4c2 2dbc a8ac 073e
00000130: fc88 c3bd 1902 c33b b46f 9b3d 2bf3 1c3b
00000140: 0ac4 843d 0e71 413d 5706 083e 79dc 0f3d
00000150: 7663 623d 4c66 da3d 0f52 babd d2c4 ce3c
00000160: e959 6bbb dc28 1f3e da19 d2bd d0a9 1ebe
00000170: 26c0 ee3d 0506 2b3d 3a55 abbb a87a 12be
00000180: 1223 07bd 0db0 603d 24bb b93d 3e45 ae3d
00000190: e696 66bc 99e2 333e ff00 05be be9a 933d
000001a0: e536 d83c 6f38 c33d 9ba8 093d a79f 90bd
000001b0: 495d 9ebc 0047 98bd 54e7 05bc 6cff 85bd
000001c0: f435 b9bd 1ba1 7a3d db7f 93bc a0b8 203d
000001d0: 5c42 7cbd c589 993d 96cf 383d 7981 24bc
000001e0: ec4b cf3d fd45 43bd 75be 62bd 191b 9b3d
000001f0: 19ee 41be f788 033e 357d 84bd 2d34 4fbd
00000200: 7768 ba3c 9cd0 80bd 9aa0 f3bd 0965 863d
00000210: 8b1d 0f3d b4ad 98bd b648 093d fa49 0cbd
00000220: d13f 0dbd 5069 47be 2098 a6bc 34c1 4b3d
00000230: 283a 863d 6580 0ebe dbdf 5abd f574 f8bd
00000240: d299 6c3d 685b 1cbd e1c4 ed3d a633 15be
00000250: 1dd1 373d 2cb4 f1bc 56e9 243e b731 e3bd
00000260: 7bcd 993d 32bb e13c 6a9a 033c eb4a 573d
00000270: 8adb 50bd de44 87bd c8f1 6dbc 5708 5c3d
00000280: 351d 1e3d 5ee0 873c 0915 073e efd1 943d
00000290: 59dd df3c e220 83bd 00e8 fc3d 7c20 8abc
000002a0: b548 34be 033c 0e3d 554d 833b 261b f3bc
000002b0: 0f21 773c ff05 d5bc f7cf b9bd 6f51 e83c
000002c0: 0469 e83c a4ca 033e 2805 053d 5ff0 d73d
000002d0: eaa1 4f3d f9b8 0ebe 4115 92bc 131f 543d
000002e0: c4c9 253e 2ba8 2cbe 106b 89bd d73c 76bd
000002f0: fc7f 173d 511f 143e 1a13 e63c b0ed 3b3d
00000300: c4c1 4d3d a805 01be d957 0ebe e5f7 2d3d
00000310: 3b12 8a3d 9e91 edbd a83c a9bb 9314 aebd
00000320: 19ec 723d 31aa 5cbc a75d 0b3b 3b36 853d
00000330: 0e68 2ebd f42a a43d c5cc 143e b1c4 693d
00000340: 2c5e 99bc b755 863d e5f0 c7bc 6cce ddbc
00000350: 8436 043d e33e ad3d f545 c1bd 81ac 2f3e
00000360: 767c f5bd 3a91 a93d 8ed1 a73d 5dfc bebb
00000370: d9ee 853d 069c b9bd d86a f63d 9e3e 5cbd
00000380: 40b5 bc3d 8ced 023e 63d4 e53d b2b7 173e
00000390: f6e8 9c3d d3f0 9cbd 1665 64bd 099c b03c
000003a0: 488e 2ebd b15b 5b3d d6ad 353d 3994 e9bd
000003b0: 9a90 e6bd 00b6 b6bd 7d50 bc3d 11c9 b3bb
000003c0: 4f82 24bd 119f dfbd 03cc 543d 7602 9a3d
000003d0: ab77 1c3e e068 9d3d 04f0 e0bc 8fe8 fd3d
000003e0: 5bbf 21bd 2fb5 58bd 70e6 b2bd 08e7 02be
000003f0: b50d 6b3d 8943 3cbd 9b5f ecbd a49b 293d
-0.04259568 -0.09288531 0.072590366 0.16770497 -0.0001334605 -0.10508861 -0.04964602 -0.08519019
-0.10712655 -0.032854762 0.064829394 0.090406395 -0.030850679 0.17871015 0.21297817 -0.07652761
-0.109153606 -0.01764455 0.034823187 -0.11734492 0.046735164 0.14390105 0.0006194434 -0.0890426
-0.0022233678 -0.09086383 -0.075373314 -0.095005006 0.011044797 0.05114717 -0.041541938 0.044725344
-0.08549712 -0.023297437 0.09947042 0.06446855 -0.059689533 0.07408538 -0.017619915 0.061509244
-0.00220593 0.18981326 0.14492303 0.040336266 -0.1335491 0.13843517 0.034496456 -0.030800097
-0.008041818 0.12026028 0.09535379 -0.0046651554 0.08722269 0.1477125 0.030846901 -0.003520626
-0.15967976 0.005793636 0.07487344 0.03942363 0.14220946 0.001866077 -0.075553775 -0.06574185
-0.11581696 0.075623296 0.0014374605 -0.11358858 0.039083436 -0.1215377 0.07418313 -0.10020597
0.16705468 -0.08452885 -0.010605533 0.13249457 -0.09547612 0.005951178 0.07589665 0.002394865
0.06482704 0.047226958 0.13283668 0.03512237 0.055270635 0.10664043 -0.09097683 0.025240336
-0.0035911745 0.1554293 -0.10258837 -0.15494466 0.11657743 0.041753788 -0.0052286657 -0.14304602
-0.03299243 0.054855395 0.09068897 0.08509301 -0.014074063 0.17566909 -0.12988661 0.07207249
0.026393363 0.09532248 0.03360806 -0.07061701 -0.019331591 -0.07435417 -0.008172829 -0.065428585
-0.09043494 0.0611888 -0.018005302 0.039238572 -0.061586723 0.074969806 0.045119844 -0.010040634
0.10121903 -0.047674168 -0.055357415 0.07573528 -0.18938483 0.12845217 -0.06469194 -0.050586868
0.02275489 -0.06289789 -0.11895867 0.0656224 0.034940284 -0.07455006 0.03351661 -0.034250237
-0.03448469 -0.19473767 -0.02033621 0.0497448 0.06554061 -0.13916166 -0.05343614 -0.12131683
0.057763882 -0.03817311 0.11609817 -0.14570484 0.04487716 -0.029504858 0.16104636 -0.11093467
0.075098954 0.027555082 0.008032421 0.05256168 -0.05099062 -0.06604932 -0.014522977 0.05371889
0.038602073 0.016586479 0.13191618 0.07266604 0.027327226 -0.06402756 0.12348938 -0.016861193
-0.1760586 0.0347252 0.0040070214 -0.029676031 0.015083565 -0.026003836 -0.09072869 0.028359143
0.028370388 0.1287027 0.03247562 0.10543894 0.050691523 -0.13937749 -0.0178324 0.051787447
0.16190249 -0.16861026 -0.06709874 -0.060116615 0.03698729 0.14465071 0.02808528 0.045880973
0.050233617 -0.12599814 -0.13900699 0.04247274 0.067417584 -0.1160004 -0.0051647015 -0.08500018
0.05930719 -0.013468311 0.0021265538 0.06504484 -0.042579703 0.08016005 0.14531238 0.057072345
-0.018721662 0.065593176 -0.02440686 -0.027075969 0.032278553 0.0845926 -0.09437171 0.17155649
-0.1198663 0.08279653 0.08194266 -0.005828424 0.06539697 -0.09062962 0.120320976 -0.053770654
0.09214258 0.1278593 0.1122215 0.14816168 0.07661621 -0.07663121 -0.055760466 0.021558778
-0.04261616 0.05355424 0.044355236 -0.11405224 -0.11258049 -0.089214325 0.091950394 -0.0054866155
-0.040163334 -0.109190114 0.051952373 0.07520001 0.15280025 0.07686019 -0.027458198 0.12397873
-0.03948913 -0.052907165 -0.08735359 -0.12783444 0.05738612 -0.045962844 -0.11541673 0.041408196

bias_ih_l0 f4 [256]
00000000: afa8 e6bd 4dcc 093e 46ff bbbd 6021 b73d
00000010: 91ff c0bd fd67 f3bd ad25 123e 8021 76bd
00000020: 59a3 30bc eea1 7c3c 3260 edbd 9424 fabd
00000030: f933 51bb a3ec 343d abda d23c 9d00 f0bd
00000040: 07b4 a63d f233 643d 7137 393e 97c0 bbbd
00000050: ea80 943c 384b 61bd 4ca1 e53d a729 ec3d
00000060: ba78 993d c603 083e 646e 27bd 9872 0fbe
00000070: b932 b5bb 3627 e1bb 2b08 963d afc9 3e3c
00000080: 6d57 d8bd 0c84 353c ed10 413d f978 11be
00000090: d597 b23d 1fe4 733d 55d5 613c ca8f 3cbd
000000a0: a6bf a43d 58a5 df3d 57f8 203d 451f 333d
000000b0: ff3f 563d 6873 2abd 5f12 11bd e81e 953c
000000c0: 2519 173c 7913 233d 9c37 77bd 0b1d ff3d
000000d0: 13a0 103e 0a82 3bbd 2620 f23b da69 9e3d
000000e0: 8e17 513d e63b b53c bbb4 f93d 239b 19bd
000000f0: 7692 a5bc 7908 a0bd 8680 d0ba b077 e13c
00000100: 6412 c23c 354f 8dbd f702 2f3c 4574 8abd
00000110: 1bf9 9cbd 27d3 a2bd a065 d0bd c836 96bd
00000120: 92ac bfbd 78ab 8cbd ca57 f2bc 2cbe a33d
00000130: aeb1 793d cd03 09bc 0940 02bd af0e f6bd
00000140: 0e36 f03d 32db 743d 9cd3 e4bd 6311 363d
00000150: ce74 61bd 3425 50bc 064e a1bd d1f1 a33d
00000160: 3cba d5bd 8313 0cbe b3b2 00bb 365b e8bd
00000170: 576a 8abd 59a4 11be abc9 e6bc d8dc 2bbd
00000180: a7ef ec3c 9edd 4dbd bf14 f23c 0ae2 bdbd
00000190: 5af4 3fbe 1949 d7bd ddf2 67bd d73d afbd
000001a0: d581 0fbe 7631 e23b 901f d3bd 43af e2bd
000001b0: 49aa 1d3c c0c6 14be 4b83 f5bd bd0f 0cbe
000001c0: a70e 61bd 358b dfbb d1d9 44be d541 42bd
000001d0: d665 87bd 7fd0 f8bd 8bd4 2dbd 243a 26bc
000001e0: 86fd 9abd dccd 8f3d d550 d6bd d4e5 b3bd
000001f0: afaf ae3b 8ab4 c0bd a392 cfbd 16d8 a8bd
00000200: 9d1b 02be e30e 9fbd 163c 8d3d c658 32be
00000210: 851f 2bbc 7e2a 133e b06f f13c 5ea4 143e
00000220: e14a 5f3c f50d bebd 7b83 fe3d 6660 13bd
00000230: 2263 bebd 06d4 48bc 7cca b73d 2076 0a3e
00000240: a815 e43d 8ed9 2ebe 2f82 10be 0e0e b43d
00000250: d88a 28be 692e 88bd 86d3 c7bb 64b9 0f3e
00000260: 7be4 04be df01 933c fd85 4c3d fd90 e43d
00000270: dadc dc3d 57e6 a03d 3579 a53d 1dd3 99bd
00000280: 238e 623b 82ce 13be 12fb 923b acfa 023d
00000290: 6396 bdbd 6ede 30bd f297 b0bd a072 9dbd
000002a0: d722 713c 0663 943d 52a5 8a3d 943c ea3c
000002b0: 0cb0 c0bd 9604 0abe b608 b03c 8185 d73d
000002c0: a381 793d 1b69 19bd 6c8c 1ebd 2cdb ccbd
000002d0: 09fa 80bd 1f3f 793d 7101 0a3d e1ea 4bba
000002e0: 00fb bd3d d73c 17be 9aea a93b ffab 97bd
000002f0: c770 803d 80a0 a5bd aed4 e43d 26ca b63d
00000300: 791c 37bd ae5d 06bd bab2 c7bd 2f00 3f3d
00000310: c1f4 04be 954f efbd 6360 e03c b925 85bd
00000320: fe23 123d 9963 033e c016 f7bc b5e7 2b3d
00000330: 3dc3 cdbd 4d44 b1bd 5d2a 653d 1c77 a9bd
00000340: 131d 303d 232d 073e c7a1 9f3d d78d bebd
00000350: 6eba 333d a078 8fbd 433d e3bc 3f0f 1fbe
00000360: 720e 85bd 1880 1c3e b7eb cd3d ce33 8cbb
00000370: f506 a6bd bb75 ea3d 71f0 2bbe c449 153d
00000380: 2456 26bd 1475 3e3c abe0 853d e6c3 1ebe
00000390: b6dd ad3d 3133 de3b 5235 513d d259 813d
000003a0: 9c8b 033d f909 d0bd 0e95 853c 06e1 e53d
000003b0: c614 69bd 45ab 9abc 5724 b23d 4dcd 593d
000003c0: f031 bd3d d760 a33d f951 1ebd 3e3c 783d
000003d0: 087a 083e df43 b1bd 7a6b bcbd 9676 11be
000003e0: 0632 953d 69a6 033e 8c51 34bd 705c e3bd
000003f0: 5983 bbbd c3b8 8c3d 5ade 93bd c0d8 64bc
-0.112626426 0.13456841 -0.09179549 0.08941913 -0.094237454 -0.118850686 0.14272185 -0.06009054
-0.010781133 0.015419466 -0.115906134 -0.12214008 -0.0031921847 0.044170987 0.025739035 -0.11718867
0.08139806 0.0557136 0.18087555 -0.09167593 0.018127877 -0.055003375 0.112124056 0.11531382
0.0749373 0.1328269 -0.04087676 -0.14008558 -0.0055297283 -0.0068711294 0.07325777 0.011644765
-0.1056355 0.011078846 0.047135282 -0.14206304 0.08720366 0.059543725 0.0137837725 -0.046035565
0.080443665 0.10920209 0.039299335 0.043730993 0.052307125 -0.041613966 -0.03541791 0.018203214
0.0092223035 0.039813492 -0.060355768 0.124567114 0.14123563 -0.04577831 0.0073890863 0.07735033
0.051047854 0.022123288 0.12192675 -0.037501466 -0.02021144 -0.07814116 -0.0015907444 0.027522892
0.02369041 -0.06899873 0.010681859 -0.06760458 -0.076647006 -0.0795043 -0.101756334 -0.073346674
-0.09359087 -0.068686426 -0.029582877 0.07995257 0.060960464 -0.008362723 -0.03179935 -0.120145194
0.1172906 0.059779353 -0.11173174 0.044450175 -0.055043034 -0.012704182 -0.0787621 0.08005107
-0.10435912 -0.13679318 -0.0019637763 -0.11345522 -0.06758564 -0.1422285 -0.028172335 -0.04195866
0.028922869 -0.05026018 0.029550908 -0.09271629 -0.18745556 -0.10511989 -0.056628097 -0.08556717
-0.1401437 0.006902869 -0.103087544 -0.11068585 0.009623119 -0.14528942 -0.11987933 -0.13677879
-0.054945614 -0.0068220147 -0.19223715 -0.047426064 -0.066112205 -0.121491425 -0.042439025 -0.010145698
-0.07567887 0.070216864 -0.10464636 -0.087840706 0.0053310017 -0.09409435 -0.101353906 -0.0824434
-0.12705846 -0.07766511 0.06896226 -0.17416677 -0.010444527 0.14371678 0.029472202 0.14515826
0.013628692 -0.09280006 0.12427422 -0.035980605 -0.09296252 -0.012257582 0.08974168 0.13521624
0.11136943 -0.17075178 -0.14112161 0.08791743 -0.16459215 -0.06649477 -0.0060982136 0.14035565
-0.12977783 0.017945228 0.04993247 0.11160467 0.107843116 0.07856434 0.08079759 -0.0751097
0.0034569583 -0.14434245 0.0044854963 0.03197734 -0.092571996 -0.043180875 -0.08622731 -0.076878786
0.014717779 0.0724545 0.067698136 0.028593339 -0.09408578 -0.13478312 0.021488529 0.10523511
0.060914647 -0.037453752 -0.038708135 -0.10002741 -0.062976904 0.060851213 0.03369278 -0.0007778835
0.0927639 -0.14769302 0.0051854374 -0.074058525 0.062715106 -0.080872536 0.11173378 0.089252755
-0.044704888 -0.032804184 -0.09750886 0.046631034 -0.12983991 -0.11685101 0.02738971 -0.06501336
0.035678856 0.12830962 -0.030162215 0.04196902 -0.10047004 -0.086556055 0.055948604 -0.082746714
0.042996477 0.13200812 0.077945285 -0.093043976 0.043878965 -0.07005429 -0.027739173 -0.1553316
-0.06496896 0.15283239 0.10054725 -0.0042786365 -0.08106796 0.114482366 -0.1679094 0.0364473
-0.040609494 0.011624593 0.06536993 -0.15504417 0.08489554 0.006781005 0.05107624 0.0631596
0.032115564 -0.10158152 0.016306426 0.112245604 -0.056904577 -0.018880496 0.086983375 0.053174306
0.092380404 0.07977455 -0.038652394 0.060604326 0.13327801 -0.086555235 -0.09200187 -0.14205393
0.07284932 0.12856449 -0.04402308 -0.111016154 -0.09155912 0.06871178 -0.072201446 -0.013967693

bias_hh_l0 f4 [256]
00000000: 14b6 c33c 2115 9d3d 41c0 41bc 994a 98bb
00000010: f443 a03c fea3 33bc 29da 8b3d 988a f43d
00000020: b466 c8bc 7dc9 053e e299 2bbd bee5 18be
00000030: c57d 85bc 2ab0 cfbd 5d4b 95bd dce8 54bc
00000040: cdfc e63d 9ea8 113d dcc5 f63d 6f48 d03d
00000050: fc52 013c 136f 403d 6800 f53c 52c4 ccbc
00000060: 6ba0 013e 18f6 f43c 4e45 083d 8e50 02be
00000070: 0ce6 c93d 852a 673d 7c2e 16bc b0fc 28be
00000080: bbc6 43bd b513 083e a78a 66bd e99f 27bd
00000090: 0e67 ee3d 4153 0f3e 2544 eabc 50de 0f3e
000000a0: 8bf0 89bd 58d9 09be 061c 6bbd 1d44 ee3d
000000b0: ffb6 483d bc08 e43c 8cdb 843d f8a3 cfbd
000000c0: 76e8 d6bd 0675 163e 6f8d 59bd a175 123e
000000d0: 8044 813c 304a b13d bd87 083d e68a c8bd
000000e0: 531a 09be a4c8 31bd 0e02 2b3e 7ef0 86bd
000000f0: e8d5 62bd 4302 56bd a2bb a8bd 461c 943c
00000100: 9d2f fc3c e7f0 26be 4f70 5abe 8f99 d9bd
00000110: 4bcd 98bd b793 813d d7ac adbd 7744 3abd
00000120: fec8 9ebd 438b a43b 1b3f 723d b413 0ebe
00000130: 3965 02be f9f5 01be 817c 8cbd 1f63 9abd
00000140: fe99 293d 9702 f7bc 50c9 e4bd 7b31 3dbc
00000150: 7da7 a03c dea1 803c cfa5 30be 6967 1cbd
00000160: d719 dcbc 01e9 02be 59d5 3dbe ea8b 823c
00000170: 9634 ffbd 2b89 99bc 92a4 0c3c 15a5 81bd
00000180: a382 f2bd 99db 23be 8452 f2bd 36f0 f0bd
00000190: 8e2a 42be b68f 963d 6b55 a03c 2211 5a3d
000001a0: 9a85 27be debd 86bd 185f 0abc 8bcf 013d
000001b0: 284e 45be 6a47 4fbd ada1 213d 0079 833d
000001c0: 7a44 c9bc 7262 6f3c e7a9 f5bd 24b5 dbbc
000001d0: 7485 09bd 3d24 20be c8a5 68bc 3585 333d
000001e0: e554 bf3d 46b0 bebc 012e 3a3d 9315 b2bd
000001f0: 10e5 f7bd 5811 5bbc f5fd 04bd 48f9 b9bd
00000200: 04e7 50bd e43a 82bd 65c7 e93d 8140 0abe
00000210: 64de abbd bbff f4bc 88bf 983d ca11 973d
00000220: 70b9 8e3d 4306 e33d 175b e53d 9f53 08bd
00000230: d4c2 6f3d 618b 10be ba3a 6ebd d89b ac3d
00000240: 5ef1 503d e498 28be 6ae0 9abc 92c5 28bd
00000250: e9db 25bd 3e53 b43c 0f01 793d c2e0 4fbd
00000260: c225 c5bd d456 c9bd 5211 a4bd a3d4 ff3d
00000270: 8800 ea3d 9e34 d93c 35ce 973d 5c99 b5bd
00000280: a2df c3bd bab8 683b 0137 09be 0d07 8fbd
00000290: 5300 dfbc c755 abbd 4146 5dbd 3492 81bd
000002a0: 11c9 a13c 0c6e dd3c 5516 c23d 2b2d 293e
000002b0: fdb2 9f3d 77d4 843d 272c 55bb 92ce b03b
000002c0: 896f d83d 9f06 f9bc 78a4 6e3d 7b69 ab3d
000002d0: 5c43 02be 0f20 0ebe 5933 1cbe 903d 0fbe
000002e0: db8f c1bd c5a8 04bb d5b5 6bbd 29bb 55bc
000002f0: cdf9 cc3d e203 cebd aee3 b93c 8820 02be
00000300: 93b7 fdbd 35bd c83c cd6c 40bd 6899 f13d
00000310: b7f9 393d 442e a7bd 4e57 493d 0e50 89bd
00000320: 991e 38be 63aa e83d cd41 12bd dba8 c2bd
00000330: b9f6 87bd d3ef 3cbd d70a b4bd aa9b dd3c
00000340: 9c44 c4bd 25b9 debc b34b 943d 3b59 f03c
00000350: 0a94 9b3d fbb6 bbbd 3d99 093d 63ed c83c
00000360: 8de8 b73d 61f8 08bd 475c 43bd 1e38 49bc
00000370: f188 963b 4905 f1bc 198d 7d3d 6e07 78bd
00000380: 363a 4fbe c65d 83bd 0b0a 3dbb 7a88 143d
00000390: 614c cebd a40c d63d 1ef5 1bbd 7ea9 b2bd
000003a0: 8f04 05be 7571 b6bc 14e8 ab3d 98ee 093d
000003b0: a4b8 e1bc af21 01be 8176 853d 7cfa 82bd
000003c0: bc9c a13d 9af8 8fbd c050 403d 803f 253d
000003d0: edff 083d 4dcd efbd e79a 893c 83ad 803d
000003e0: 5cca 313d bfa5 973d 4a30 943b c8ad bcbc
000003f0: 1108 06be 382d f6bd a37f 133d 3ac8 4fbd
0.023890533 0.07670046 -0.011825622 -0.0046475646 0.019563653 -0.010964392 0.0682872 0.11940497
-0.024463035 0.13065143 -0.0418948 -0.1493139 -0.016295323 -0.101410225 -0.07289765 -0.012994971
0.11278687 0.035561197 0.120494574 0.101700656 0.00789332 0.04698093 0.02990742 -0.024995957
0.12658851 0.029902503 0.03326922 -0.12726042 0.09858331 0.056437034 -0.009166356 -0.16502643
-0.047796946 0.13288768 -0.056284573 -0.040923987 0.1164075 0.13996603 -0.028596947 0.14049649
-0.06735333 -0.13461816 -0.057399772 0.11634085 0.049002644 0.027836196 0.06487188 -0.101386964
-0.10493557 0.14693078 -0.053113397 0.14302684 0.015779734 0.08656728 0.033332575 -0.09792118
-0.13388948 -0.043404236 0.16700003 -0.06588839 -0.05537978 -0.05224825 -0.08238913 0.018079888
0.030784423 -0.16302834 -0.21331905 -0.10624992 -0.074610315 0.063270025 -0.08480232 -0.04547545
-0.0775318 0.005021484 0.059142213 -0.13874704 -0.12733926 -0.12691487 -0.06859685 -0.07538437
0.041406624 -0.030152602 -0.1117121 -0.011547442 0.019611115 0.015702184 -0.17250751 -0.038184557
-0.02686779 -0.12784196 -0.18538417 0.015935857 -0.12461202 -0.018742165 0.0085841585 -0.06330315
-0.11841323 -0.16001739 -0.11832145 -0.117645666 -0.18961546 0.073516294 0.01957198 0.053238995
-0.16359559 -0.06579183 -0.008445524 0.03169207 -0.19268095 -0.050605215 0.039460827 0.06419563
-0.024568785 0.014610874 -0.11995297 -0.026819773 -0.033574536 -0.15638824 -0.014199682 0.043828208
0.09342364 -0.023277413 0.04545403 -0.08695521 -0.12104237 -0.013370834 -0.032468755 -0.0908075
-0.051001564 -0.06358889 0.114149846 -0.13501169 -0.08392027 -0.029907098 0.07458407 0.0737644
0.06968963 0.11085179 0.11199015 -0.033282872 0.058535412 -0.14115669 -0.058161475 0.08428162
0.051011436 -0.16464573 -0.018905837 -0.041204043 -0.040492926 0.02201235 0.060792025 -0.050751455
-0.09626342 -0.09831014 -0.08011116 0.12491729 0.114258826 0.026514348 0.07412378 -0.088671416
-0.09564139 0.0035510496 -0.13399889 -0.06983767 -0.027221834 -0.0836597 -0.054022077 -0.06326714
0.019749196 0.027030014 0.09476916 0.16521136 0.07797811 0.06485837 -0.0032527538 0.005395719
0.10568149 -0.030398665 0.05826232 0.08369728 -0.12721008 -0.13879417 -0.15253963 -0.13988328
-0.094512664 -0.0020242196 -0.057546455 -0.013045111 0.10008583 -0.10059334 0.022691574 -0.12707722
-0.1238853 0.024504283 -0.04697876 0.11796838 0.045404162 -0.08163121 0.049155526 -0.06704722
-0.17980422 0.11360624 -0.035707284 -0.09504863 -0.066388555 -0.04612715 -0.0879113 0.027051765
-0.09583399 -0.027187893 0.07241001 0.029339423 0.075965956 -0.0916576 0.033593405 0.024527257
0.089799024 -0.033439998 -0.047695424 -0.012281446 0.0045939614 -0.029421465 0.06190214 -0.06055396
-0.2023705 -0.0641437 -0.0028845097 0.036262967 -0.10073162 0.1045163 -0.03807556 -0.08723734
-0.1299002 -0.022270897 0.08393875 0.033674806 -0.027553864 -0.12610506 0.065167435 -0.06395432
0.07891223 -0.07029839 0.04695201 0.04034376 0.033447195 -0.1170908 0.016797496 0.06283095
0.043405876 0.074046604 0.004522358 -0.023032084 -0.13089015 -0.120203435 0.036010396 -0.05072806

weight f4 [1, 64]
00000000: 84de 8f3d 55fd 5cbd a1a6 a03c f3e2 053e
00000010: 8045 6abd 4c54 cbbd 4bce 32bd c2eb 61bd
00000020: 7422 a1bc e68b e7bd e8a7 8339 5c58 8c3b
00000030: 6aa7 323c 5837 803d a2f2 dc3d 3a39 71bd
00000040: b673 10be 9f1f be3d 2460 1b3e a786 d7bd
00000050: 6680 a33d b9af cd3d a860 543d a09e c7bd
00000060: 3ba9 133e d0fd d23d 8d1d 5d3d 8acb edbc
00000070: d0c9 3f3d 3a0d 56bd 6043 b43c 23dd 4fbc
00000080: 61ce 3bbc 4a5b 0b3e ace1 7d3d da16 92bc
00000090: 26d6 0d3d 7284 f23d bc44 963d 7e67 ed3d
000000a0: 8d12 5f3d c279 df3d 7aec cc3d 0674 06be
000000b0: c8e0 0ebd 7893 8ebc 887f debd a8ca 6c3d
000000c0: 248f b23d 7645 c13d c39b 93bc f01f a43d
000000d0: 50b5 ed3d b961 ab3c ecca bb3d f38b 3b3d
000000e0: b6ca 74bc ef35 b83d 8fc4 c13d de6c 90bc
000000f0: 4943 3b3d 78d5 c33d 28be bfbc 76c1 abbc
0.07024863 -0.053952534 0.019610705 0.13074856 -0.057195187 -0.09928188 -0.043653768 -0.055156477
-0.019669749 -0.113059804 0.00025111367 0.004282994 0.010904172 0.06260556 0.10788466 -0.058892466
-0.1410664 0.09283375 0.15173393 -0.1052373 0.079834744 0.10043282 0.05184999 -0.09747052
0.14420025 0.10302317 0.05398326 -0.029027719 0.046823323 -0.052258708 0.022004783 -0.012687
-0.011462779 0.13609043 0.061982796 -0.017833162 0.034628056 0.11841668 0.07337329 0.11592005
0.05446105 0.10911895 0.10006042 -0.13130197 -0.034882337 -0.017404303 -0.108641684 0.057810456
0.08718708 0.09437077 -0.018018609 0.08013904 0.11606848 0.020920621 0.09169564 0.045787763
-0.014940908 0.08994662 0.09461319 -0.017630037 0.045718465 0.095622 -0.023406103 -0.020966273
