model/4069.377593686779_weight.pth (torch, 90511 bytes, 7 tensors)

weight f4 [16, 32, 1]
0.16642228 0.18419236 0.18508509 0.09979591 0.11310968 -0.09387782 -0.098177515 0.04793954
0.09747467 0.10164916 0.033259116 0.05922521 -0.100606486 0.029816456 -0.056795523 0.19019666
-0.06833374 0.17887636 -0.010997602 0.19565763 0.14508222 0.019866643 -0.15016644 0.09288108
0.16444862 -0.0918274 -0.060905524 -0.10773966 0.07185401 0.13464604 0.1071177 0.06509376
0.1382938 0.12278062 0.11674015 -0.098673046 -0.13460504 -0.15437715 -0.051646475 -0.0674111
0.0080619445 0.08588623 0.06502011 0.10171964 -0.006597673 -0.19488114 -0.029904474 0.01609188
-0.022351766 0.0031290373 -0.18022123 -0.10068384 0.21648453 0.11103812 -0.056743506 0.0237452
0.10223868 0.13714467 0.10304149 -0.075254634 0.01655058 0.0014682554 0.1033753 0.036630258
-0.17138784 -0.26787972 0.007365114 0.102141775 0.0022409006 0.03511839 -0.12661836 -0.072127305
0.07717854 0.054405335 0.0016138767 -0.017867453 0.2002246 0.08130055 0.02961183 -0.10415907
0.19954342 -0.0062779947 -0.08160859 -0.14540158 0.12930547 0.004097917 -0.15821274 0.18909904
0.06448099 -0.03303509 -0.0591018 -0.12154398 -0.066471204 -0.0845576 -0.18859862 -0.121434584
-0.042381827 -0.3035554 0.023293447 0.13751513 -0.07805667 0.19360356 0.039133105 -0.031448703
-0.10715465 0.05043381 -0.07118235 0.035094973 0.008269685 0.16374195 -0.11981958 -0.19170637
0.104077056 0.10524998 0.023106767 0.13971786 -0.07666935 -0.00027303505 -0.07936791 0.09254463
0.041447915 -0.11362474 0.17077947 -0.028454006 -0.041507173 -0.037296265 -0.04262918 0.15529664
0.17239732 0.13350376 0.09609588 0.013313631 0.12873681 0.10766417 0.016188703 -0.005349002
-0.05265027 0.06732197 0.09382822 -0.048207764 -0.17076093 0.034893665 0.08462153 -0.011254923
-0.1269644 -0.03828726 0.04391163 -0.029260838 0.011398741 0.10783231 0.023760537 -0.22129664
0.003543425 -0.0060931398 0.09118011 0.13654497 -0.024087938 -0.16943875 0.120797716 -0.02857461
-0.18925717 -0.15806909 -0.12755923 0.06809466 -0.10952289 -0.1283943 0.1726212 0.120621696
-0.08435268 -0.0050306316 -0.116506815 0.10083875 -0.06648195 -0.08748387 0.097481005 0.18115667
-0.0682656 -0.0004749398 -0.076467104 -0.14883514 -0.03345746 0.15946653 -0.10189047 -0.026840752
-0.008613566 0.03297999 -0.034395374 0.10225159 0.14660235 0.25441515 -0.13862656 0.04649232
0.21620646 -0.026555365 0.23023242 0.14215897 -0.09853956 0.096558645 -0.011967149 -0.06096989
-0.11564683 -0.04981568 -0.123391345 -0.051282067 0.02347177 0.08880041 -0.084574975 -0.04141931
-0.014493199 -0.048603322 0.0238765 0.06617436 -0.38665995 -0.06901722 -0.05416653 -0.060734097
0.13563511 -0.083121374 -0.08394034 0.0074362056 -0.01377398 0.054273605 -0.027725464 -0.0005239573
0.27683222 0.039471947 0.07851691 0.17322229 -0.09389503 0.18423596 0.024437217 0.06523138
0.15721767 0.19619821 -0.066469066 0.03623954 -0.076043904 -0.14791277 0.16673431 0.16926377
0.038052768 0.03384887 -0.25794896 0.123449236 -0.061816968 0.16735606 -0.0008693625 0.055706404
-0.09530933 0.067015216 0.061385125 0.03223374 -0.12560807 0.059946816 -0.11566087 0.21021105
00000000: 9a6a 2a3e ec9c 3c3e f286 3d3e cc61 cc3d
00000010: 0ca6 e73d 0443 c0bd 4b11 c9bd 405c 443d
00000020: cda0 c73d 6f2d d03d b63a 083d 2296 723d
00000030: c60a cebd a441 f43c 6ca2 68bd eac2 423e
00000040: 8ff2 8bbd 5d2b 373e 492f 34bc 795a 483e
00000050: 6f90 143e 5fbf a23c 3bc5 19be 7038 be3d
00000060: 3865 283e 0110 bcbd 1278 79bd 9ca6 dcbd
00000070: 3228 933d a7e0 093e 8660 db3d e14f 853d
00000080: e49c 0d3e 6874 fb3d 7615 ef3d 1815 cabd
00000090: e7d5 09be 0b15 1ebe 418b 53bd d50e 8abd
000000a0: 3f16 043c 1fe5 af3d 4329 853d 6352 d03d
000000b0: 4b31 d8bb ec8e 47be 3afa f4bc 1ed3 833c
000000c0: 0d1b b7bc 8910 4d3b ea8b 38be 5433 cebd
000000d0: 1fae 5d3e f467 e33d e16b 68bd 4b85 c23c
000000e0: 8362 d13d a76f 0c3e 6b07 d33d 1a1f 9abd
000000f0: 1595 873c 7a72 c03a 6eb6 d33d 9c09 163d
00000100: 4b80 2fbe 8827 89be 0e57 f13b b52f d13d
00000110: 13dc 123b 4dd8 0f3d 3ea8 01be 7bb7 93bd
00000120: c80f 9e3d 21d8 5e3d b788 d33a c45e 92bc
00000130: ad07 4d3e e780 a63d 8294 f23c 5a51 d5bd
00000140: 1c55 4c3e a3b7 cdbb 6822 a7bd 27e4 14be
00000150: a768 043e d247 863b 8502 22be 2ea3 413e
00000160: 9c0e 843d cd4f 07bd bb14 72bd 0dec f8bd
00000170: 0e22 88bd 892c adbd ff1f 41be b2b2 f8bd
00000180: 9198 2dbd 9d6b 9bbe e6d1 be3c c4d0 0c3e
00000190: 2ddc 9fbd 0340 463e 094a 203d 5bd0 00bd
000001a0: e673 dbbd af93 4e3d 0dc8 91bd bfbf 0f3d
000001b0: 937d 073c f8ab 273e f863 f5bd ad4e 44be
000001c0: 5a26 d53d 4d8d d73d 674a bd3c 3312 0f3e
000001d0: d204 9dbd 2526 8fb9 a58b a2bd 0a88 bd3d
000001e0: 4ac5 293d 16b4 e8bd d0e0 2e3e 6018 e9bc
000001f0: 6d03 2abd f8c3 18bd ef9b 2ebd 1506 1f3e
00000200: ec88 303e 36b5 083e ebcd c43d 6a21 5a3c
00000210: 95d3 033e 087f dc3d 2c9e 843c ae46 afbb
00000220: cfa7 57bd 1ae0 893d 0329 c03d 8175 45bd
00000230: f4db 2ebe a9ec 0e3d 0d4e ad3d 9266 38bc
00000240: f502 02be 1ad3 1cbd aedc 333d 6db4 efbc
00000250: c9c1 3a3c 30d7 dc3d 75a5 c23c 969b 62be
00000260: ce38 683b f6a8 c7bb a3bc ba3d 72d2 0b3e
00000270: 1154 c5bc 5a81 2dbe cb64 f73d 4d15 eabc
00000280: a2cc 41be dddc 21be e39e 02be 3775 8b3d
00000290: 894d e0bd cc79 03be 9dc3 303e 8208 f73d
000002a0: 19c1 acbd ffd7 a4bb 209b eebd 8c84 ce3d
000002b0: b027 88bd be2a b3bd 1fa4 c73d 2281 393e
000002c0: d6ce 8bbd 5701 f9b9 c99a 9cbd 3d68 18be
000002d0: b10a 09bd 324b 233e f3ab d0bd 23e1 dbbc
000002e0: ea1f 0dbc 0716 073d 2ae2 0cbd 4869 d13d
000002f0: ed1e 163e b442 823e 1ff4 0dbe bb6e 3e3d
00000300: 3a65 5d3e a38a d9bc 0cc2 6b3e 1f92 113e
00000310: 1ccf c9bd 8ac0 c53d dc11 44bc 90bb 79bd
00000320: 3fd8 ecbd 870b 4cbd 9ab4 fcbd 250d 52bd
00000330: df47 c03c fddc b53d a535 adbd 4ba7 29bd
00000340: e274 6dbc 4714 47bd a698 c33c 6c86 873d
00000350: 4bf8 c5be e658 8dbd b9dd 5dbd 51c4 78bd
00000360: eee3 0a3e 8a3b aabd eae8 abbd 6aab f33b
00000370: 42ac 61bc 004e 5e3d 8320 e3bc 2e5a 09ba
00000380: f4bc 8d3e 56ad 213d 79cd a03d 2f61 313e
00000390: 0a4c c0bd 5aa8 3c3e 8f30 c83c 0898 853d
000003a0: abfd 203e 2fe8 483e ef20 88bd e96f 143d
000003b0: e8bc 9bbd 7276 17be 66bc 2a3e 7b53 2d3e
000003c0: 38dd 1b3d 1da5 0a3d e311 84be f4d2 fc3d
000003d0: ca33 7dbd 635f 2b3e eee5 63ba 662c 643d
000003e0: 8a31 c3bd 463f 893d f86e 7b3d 8707 043d
000003f0: 679f 00be cb8a 753d 9bdf ecbd 9141 573e

bias f4 [16]
0.089667216 0.18660268 0.07898404 -0.10288972 0.13761811 -0.21715313 -0.07334413 0.0054201805
0.15015827 -0.03869996 -0.15337232 0.013996042 0.20782115 0.12322522 -0.107846245 -0.10230078
00000000: 72a3 b73d c614 3f3e 62c2 a13d d8b7 d2bd
00000010: c3eb 0c3e 645d 5ebe 7235 96bd c59b b13b
00000020: 17c3 193e d983 1ebd a20d 1dbe a84f 653c
00000030: 11cf 543e 815d fc3d 7ede dcbd 1283 d1bd

weight_ih_l0 f4 [256, 16]
-0.18875043 -0.1454022 0.06452511 -0.13283114 -0.02091291 0.16559038 0.025493126 -0.09849649
-0.085777804 -0.08287565 -0.021239983 -0.019231971 0.032152187 0.022036325 -0.12671915 -0.04058456
-0.056338526 0.011121889 -0.020200698 -0.24966663 0.044562116 -0.06509598 -0.101126775 0.18645303
0.043192852 0.093183935 -0.018980555 0.049584888 0.098068535 0.066932686 -0.0021203249 0.011986178
0.0062150285 0.07963694 0.017644463 -0.114776045 0.13169204 0.13741717 -0.12359085 0.14516994
-0.014403133 0.13104494 0.08737398 0.0780424 0.13778557 0.14307812 0.10027505 -0.046807144
-0.1473348 0.059335504 -0.0019369628 -0.130004 -0.014643011 0.20418298 -0.15676716 0.008747259
-0.04165626 0.04614091 0.090807214 0.0036080522 0.06036697 -0.11778695 0.13475667 -0.05694641
0.027928676 0.053008553 0.06701308 -0.10205397 -0.1449378 0.16593915 -0.16029637 -0.042742785
-0.12601018 0.023189206 0.07073728 0.03210369 0.14262941 -0.08893624 -0.14715786 -0.076655455
0.016372738 -0.030949404 -0.054151244 0.00800407 -0.0409965 0.2278496 -0.0062568756 0.013441829
-0.016417895 -0.008590051 0.1796559 0.08467559 -0.03814533 -0.10722764 -0.004893208 -0.11153777
-0.08734583 -0.18348795 -0.03667401 0.1208979 0.10646097 0.15213774 -0.06371808 0.07610422
0.100677654 0.0449073 0.017487636 -0.035557635 0.027319858 -0.016893761 0.096883155 -0.023189878
0.048337724 -0.16529948 -0.10596201 -0.022884106 0.057227403 0.18113698 -0.14015098 -0.09746555
-0.13507617 -0.08933073 0.13212405 0.09713442 0.012657816 0.06495518 0.075088546 0.022914533
-0.022894664 -0.016353747 0.05252223 0.078835875 -0.079647444 0.18713105 -0.05572266 -0.16005304
-0.0703348 0.05301103 0.24703376 -0.13471872 0.10006518 -0.099951565 -0.12668696 0.057972707
-0.01655093 -0.09722142 -0.04797069 -0.16530232 0.109558985 0.11616292 -0.11350003 0.021629946
0.023669688 0.10469661 -0.03871182 0.07594313 0.07781167 -0.08594008 0.084193334 0.03631778
0.09487061 0.07913622 -0.17352591 -0.21746881 0.14120813 -0.07876132 0.13008542 0.07164893
0.09765253 0.21429008 0.05584623 0.13428217 0.12955149 0.0705408 -0.094377875 0.10536234
-0.05470819 -0.08818245 -0.036488343 -0.10614402 0.13704155 0.092007026 -0.13750322 0.0121607315
0.08846185 -0.18904488 0.046547763 0.15852618 0.073441066 -0.011130234 -0.03948975 0.15533926
-0.10889967 -0.06490189 0.06823808 0.004459478 -0.15898977 0.23031037 -0.048672143 0.04357566
0.06607836 -0.07259401 0.19543716 0.0014281337 0.0068512484 -0.0035848648 0.10490403 -0.056738026
0.03654999 -0.019394709 -0.061152678 0.0061264588 -0.08979814 0.055306304 0.008488039 -0.04887592
-0.019667247 0.019067042 -0.0097189825 -0.006691187 0.15495025 0.06791163 0.17699693 0.13953014
0.03878374 0.059245914 0.031184 0.03808164 -0.01734171 0.108816825 -0.11608025 0.044303603
0.0058934446 -0.031712014 0.013701817 0.16493976 0.03616153 0.13401137 0.049960002 0.087894835
-0.09067765 -0.005710565 0.12192763 -0.14865485 -0.106676735 0.1493193 -0.17922918 0.044581145
-0.038936228 -0.020008733 0.14837238 -0.082455985 0.08828121 0.051471315 -0.07927733 0.08789809
00000000: cb47 41be 50e4 14be be25 843d e304 08be
00000010: 8d51 abbc 8690 293e f6d6 d03c 87b8 c9bd
00000020: 46ac afbd b5ba a9bd 79ff adbc 5e8c 9dbc
00000030: 03b2 033d 8685 b43c aac2 01be ff3b 26bd
00000040: 3ac3 66bd 9538 363c ef7b a5bc 9ca8 7fbe
00000050: c486 363d 0b51 85bd 8e1b cfbd 8bed 3e3e
00000060: fdea 303d 38d7 be3d 1c7d 9bbc 8619 4b3d
00000070: 28d8 c83d 0114 893d 26f5 0abb ad61 443c
00000080: 70a7 cb3b b118 a33d 1f8b 903c b40f ebbd
00000090: 47da 063e 16b7 0c3e 331d fdbd 6ea7 143e
000000a0: 1efb 6bbc a530 063e 21f1 b23d b2d4 9f3d
000000b0: a917 0d3e 1283 123e 015d cd3d d9b8 3fbd
000000c0: efde 16be c909 733d b0e1 fdba c51f 05be
000000d0: 3de9 6fbc 5815 513e 9287 20be aa50 0f3c
000000e0: c19f 2abd 40fe 3c3d 22f9 b93d 1275 6c3b
000000f0: 5b43 773d 493a f1bd a7fd 093e a440 69bd
00000100: aeca e43c 7f1f 593d 273e 893d ac01 d1bd
00000110: 936a 14be f4eb 293e bb24 24be 0f13 2fbd
00000120: d008 01be 4af7 bd3c b5de 903d 297f 033d
00000130: 720d 123e 3424 b6bd 8db0 16be 89fd 9cbd
00000140: 1f20 863c 9b89 fdbc b2cd 5dbd 8123 033c
00000150: f2eb 27bd 6851 693e 7a06 cdbb 1e3b 5c3c
00000160: d27e 86bc 49bd 0cbc b7f7 373e 656a ad3d
00000170: 473e 1cbd 2a9a dbbd 3457 a0bb ea6d e4bd
00000180: 5fe2 b2bd 44e4 3bbe 7d37 16bd 5199 f73d
00000190: 3608 da3d ffc9 1b3e a07e 82bd 87dc 9b3d
000001a0: 1630 ce3d b8f0 373d 3b42 8f3c e2a4 11bd
000001b0: e5cd df3c c964 8abc ad6a c63d b3f8 bdbc
000001c0: c7fd 453d 4444 29be 9c02 d9bd 7377 bbbc
000001d0: 4867 6a3d f97b 393e bd83 0fbe 059c c7bd
000001e0: 6851 0abe 08f3 b6bd 874b 073e 69ee c63d
000001f0: ba62 4f3c 3907 853d 06c8 993d 42b7 bb3c
00000200: 978d bbbc 4bf8 85bc 8d21 573d b474 a13d
00000210: 331e a3bd 489f 3f3e 723d 64bd f2e4 23be
00000220: b10b 90bd 1822 593d 6bf6 7c3e b4f3 09be
00000230: f9ee cc3d 68b3 ccbd 3aba 01be ca74 6d3d
00000240: d195 87bc 061c c7bd ea7c 44bd 0345 29be
00000250: 7660 e03d d3e6 ed3d b472 e8bd 4931 b13c
00000260: efe6 c13c 2d6b d63d 4990 1ebd 1288 9b3d
00000270: ba5b 9f3d 5a01 b0bd 8e6d ac3d f4c1 143d
00000280: 864b c23d 2c12 a23d c7b0 31be 25b0 5ebe
00000290: dd98 103e 9d4d a1bd 1d35 053e adbc 923d
000002a0: 0dfe c73d dc6e 5b3e 04bf 643d 4481 093e
000002b0: 25a9 043e b277 903d 3049 c1bd 36c8 d73d
000002c0: b215 60bd 0099 b4bd cd74 15bd 0962 d9bd
000002d0: 9f54 0c3e 2e6e bc3d a5cd 0cbe ce3d 473c
000002e0: 7d2b b53d fb94 41be dea8 3e3d b054 223e
000002f0: 4568 963d 965b 36bc 01c0 21bd 4111 1f3e
00000300: ca06 dfbd 48eb 84bd 68c0 8b3d d020 923b
00000310: 37ce 22be 7bd6 6b3e 715c 47bd 647c 323d
00000320: 1754 873d 2bac 94bd ae20 483e 3730 bb3a
00000330: 7080 e03b 0df0 6abb edd7 d63d 2266 68bd
00000340: 71b5 153d a7e1 9ebc 3b7b 7abd 76c0 c83b
00000350: 16e8 b7bd dd88 623d 6a11 0b3c 1e32 48bd
00000360: 351d a1bc 7c32 9c3c 5e3c 1fbc bf41 dbbb
00000370: 47ab 1e3e 4115 8b3d af3e 353e fde0 0e3e
00000380: b3db 1e3d d8ab 723d 9775 ff3c 7efb 1b3d
00000390: 3410 8ebc 5bdb de3d 7bbb edbd b277 353d
000003a0: cc1d c13b 75e4 01bd 967d 603c f8e5 283e
000003b0: 1d1e 143d 473a 093e dca2 4c3d 3502 b43d
000003c0: 34b5 b9bd b11f bbbb 31b5 f93d fa38 18be
000003d0: 5579 dabd 29e7 183e db87 37be b89a 363d
000003e0: 987b 1fbd 5be9 a3bc eeee 173e afde a8bd
000003f0: c7cc b43d 96d3 523d 275c a2bd ea03 b43d

weight_hh_l0 f4 [256, 64]
0.02829704 0.05627478 0.08858029 -0.058961842 -0.1192531 0.055855002 0.059513066 0.09211103
-0.060844537 0.057622597 -0.090123564 0.0024947212 -0.09607347 0.102881335 -0.043496087 -0.037789263
-0.06458421 0.08861138 -0.15831047 0.13812445 -0.0485363 0.035233263 0.10256159 0.014540768
0.09605597 -0.051155515 -0.157445 0.08902706 -0.034465812 0.04636716 0.074571475 -0.04086139
0.074972175 0.11621029 -0.0354223 -0.09254562 -0.055225957 -0.021123482 -0.09372199 0.088249445
0.11766877 0.021196565 -0.09165634 -0.028609157 0.012264578 0.012520066 -0.076460585 0.033929065
0.16577162 0.08552647 -0.012529432 0.033141788 -0.060782347 -0.11692723 0.07737275 -0.03723968
0.045329913 0.053726528 0.0073441844 -0.012446621 -0.00012393366 -0.06157607 0.063863076 -0.11614893
-0.118001126 0.012864226 -0.11166411 -0.09211407 -0.040820878 -0.09078079 0.0482359 -0.01638222
-0.09266123 0.033230446 0.016014056 -0.11808749 -0.022075566 -0.13072507 0.039334122 0.0859412
-0.05878318 0.0077454974 -0.039281584 -0.10869641 0.06642913 0.06274525 0.0017443979 0.027627004
-0.0098934155 -0.08881812 -0.095703654 0.16843972 -0.06239732 -0.08018749 -0.12938477 0.057192594
0.063673705 0.089967534 0.13241115 -0.038966354 0.04608914 -0.06854383 -0.15953195 0.03191641
-0.05565397 -0.0053161927 -0.11334685 -0.040077273 -0.18246433 0.15012176 0.031212997 -0.05563062
-0.02327247 -0.056164492 0.026289763 -0.027330652 0.0723232 -0.11005554 0.035709504 -0.004442363
-0.04255957 -0.052805386 -0.09867846 -0.17638311 0.14170441 -0.044253718 -0.015616204 -0.09374324
-0.02511379 -0.078833655 0.09595359 -0.10382046 -0.010709598 0.070636675 -0.11881639 0.04432711
-0.03369374 0.05123882 -0.08517483 0.0929053 -0.16545945 0.041422013 0.037019487 -0.010748245
0.034283135 0.08690875 0.039218467 -0.14376375 0.013848202 0.11043371 -0.021012796 -0.037837602
0.0081289755 -0.12208655 0.044431217 -0.023421353 -0.048598446 -0.08798833 0.04998579 -0.05201878
0.14942268 -0.013904463 0.08788633 -0.047671422 0.04910626 -0.074129775 -0.08019539 0.034099717
-0.0021385504 0.075543426 0.06936359 0.07678074 -0.071774915 0.11115844 0.06542356 -0.12026216
-0.026973551 -0.12054312 -0.044504516 0.05306377 0.018588725 0.16213687 -0.113625914 0.078951426
0.07961468 -0.07644311 -0.09580039 0.06340586 -0.04667869 0.08472703 -0.065861546 0.020156747
0.09928848 -0.087824464 -0.12608743 -0.063875005 0.02358207 0.023648951 0.06406787 0.1114859
-0.044720724 -0.12774906 0.12365226 -0.091288134 -0.13208593 -0.073126875 -0.03981724 0.083218455
0.07374933 0.13150598 -0.03986646 -0.009424787 0.080947705 -0.09320769 0.10503651 -0.0072496124
-0.051381666 -0.011389085 -0.07084169 -0.058085658 0.026798148 0.05866715 0.06054438 -0.002359043
0.047481604 0.11088749 -0.042222805 0.038686708 -0.086823694 0.08254621 -0.13923843 0.049224593
-0.04601773 -0.02971574 -0.05483869 -0.017557655 -0.0891609 -0.009930084 -0.086079344 -0.018266791
0.039338313 0.079367444 0.0907706 0.06617316 0.07794318 0.08799963 -0.05403007 0.047576454
0.038364615 0.08678976 -0.07180802 -0.08894507 0.10933951 0.0014758648 -0.09902799 0.03552968
00000000: 32cf e73c 6280 663d 9569 b53d f981 71bd
00000010: f83a f4bd 37c8 643d f9c3 733d b5a4 bc3d
00000020: 1f38 79bd ac05 6c3d b492 b8bd 7a7e 233b
00000030: 2bc2 c4bd 73b3 d23d f428 32bd eac8 1abd
00000040: ba44 84bd e279 b53d 241c 22be 7f70 0d3e
00000050: 00ce 46bd c150 103d d00b d23d 673c 6e3c
00000060: feb8 c43d 7288 51bd 4339 21be d253 b63d
00000070: 062c 0dbd 7eeb 3d3d eeb8 983d 465e 27bd
00000080: 038b 993d a9ff ed3d f916 11bd 8f88 bdbd
00000090: 9d34 62bd 270b adbc 51f1 bfbd 20bc b43d
000000a0: 53fc f03d 6ba4 ad3c 52b6 bbbd c05d eabc
000000b0: 5ef1 483c f720 4d3c 5e97 9cbd 34f9 0a3d
000000c0: 09c0 293e 8028 af3d 3f48 4dbc afbf 073d
000000d0: e9f6 78bd 8b77 efbd 9b75 9e3d a288 18bd
000000e0: dcab 393d 5910 5c3d 7ca7 f03b eaec 4bbc
000000f0: 30f4 01b9 3037 7cbd a5ca 823d 7ddf edbd
00000100: 93aa f1bd 79c4 523c 27b0 e4bd 4da6 bcbd
00000110: cb33 27bd 47eb b9bd 0293 453d 0134 86bc
00000120: 2cc5 bdbd a61c 083d e92f 833c dbd7 f1bd
00000130: d1d7 b4bc cbdc 05be d11c 213d f101 b03d
00000140: a2c6 70bd f1cd fd3b bae5 20bd 399c debd
00000150: ff0b 883d 9580 803d 48a4 e43a 0752 e23c
00000160: fe17 22bc 46e6 b5bd 4700 c4bd 767b 2c3e
00000170: 5594 7fbd 5739 a4bd 717d 04be c842 6a3d
00000180: 5c67 823d e640 b83d ca96 073e 2f9b 1fbd
00000190: f7c7 3c3d b560 8cbd 585c 23be c8ba 023d
000001a0: 6bf5 63bd 7533 aebb 6522 e8bd 1128 24bd
000001b0: eed7 3abe 85b9 193e 66b2 ff3c efdc 63bd
000001c0: e8a5 bebc bd0c 66bd a15d d73c 88e4 dfbc
000001d0: 301e 943d cd64 e1bd 2144 123d 3e91 91bb
000001e0: f252 2ebd 764a 58bd ef17 cabd c69d 34be
000001f0: f61a 113e 6343 35bd 1bdb 7fbc 75fc bfbd
00000200: 6fbb cdbc 8a73 a1bd 5183 c43d d29f d4bd
00000210: 4f77 2fbc f6a9 903d 0256 f3bd 5890 353d
00000220: 7202 0abd ccdf 513d 2470 aebd 2245 be3d
00000230: 346e 29be 21aa 293d bfa1 173d 6819 30bc
00000240: 796c 0c3d 37fd b13d 8ba3 203d ce36 13be
00000250: 92e3 623c 122b e23d 0723 acbc 9afb 1abd
00000260: 652f 053c 8308 fabd 82fd 353d 23de bfbc
00000270: 2a0f 47bd 3a33 b4bd e6bd 4c3d a511 55bd
00000280: 4202 193e 8bcf 63bc c0fd b33d 1c43 43bd
00000290: a523 493d 5ad1 97bd 7b3d a4bd 25ac 0b3d
000002a0: ec26 0cbb 83b6 9a3d 7f0e 8e3d 383f 9d3d
000002b0: bafe 92bd 09a7 e33d cafc 853d 024c f6bd
000002c0: a3f7 dcbc 50df f6bd 5e4a 36bd 6559 593d
000002d0: 6247 983c 3507 263e b4b4 e8bd 49b1 a13d
000002e0: 050d a33d 358e 9cbd ff32 c4bd eeda 813d
000002f0: 2732 3fbd 5d85 ad3d 6be2 86bd c31f a53c
00000300: c257 cb3d 50dd b3bd 101d 01be e6d0 82bd
00000310: 2f2f c13c 72bb c13c 0436 833d b852 e43d
00000320: 142d 37bd a6d0 02be 653d fd3d 46f5 babd
00000330: 8941 07be 8bc3 95bd 6717 23bd 706e aa3d
00000340: e409 973d 81a9 063e 034b 23bd 6c6a 1abc
00000350: e9c7 a53d ace3 bebd 621d d73d 288e edbb
00000360: 9575 52bd 4999 3abc 7315 91bd 3aeb 6dbd
00000370: ca87 db3c f74c 703d 62fd 773d 2d9a 1abb
00000380: 127c 423d fb18 e33d d2f1 2cbd f475 1e3d
00000390: 9fd0 b1bd fd0d a93d 8594 0ebe ba9f 493d
000003a0: 167d 3cbd 6c6e f3bc 899e 60bd 12d5 8fbc
000003b0: fd99 b6bd cbb1 22bc 5e4a b0bd 3da4 95bc
000003c0: 3621 213d 668b a23d f0e5 b93d cb85 873d
000003d0: ada0 9f3d 2639 b43d a24e 5dbd 87df 423d
000003e0: 3724 1d3d d4be b13d 1510 93bd d528 b6bd
000003f0: 65ed df3d ce71 c13a 30cf cabd 9287 113d

bias_ih_l0 f4 [256]
0.16855937 0.061493393 -0.0018832847 0.06464286 -0.0007746117 -0.103812374 0.0019963328 -0.05200725
0.056082137 -0.073127806 -0.08490554 -0.038535476 0.04713575 -0.060066108 -0.059035867 0.11258455
-0.02852833 0.028887184 -0.018903492 -0.078842275 0.057559293 -0.10584941 -0.062510006 -0.025842994
0.09578362 -0.013413472 -0.0907181 0.070103556 -0.0037655043 0.10845983 -0.008493252 0.10990498
-0.07241862 0.00089283404 0.11684739 -0.07802981 0.03244586 0.08053338 0.029582169 0.07266953
0.08151357 0.1624668 -0.014867273 -0.12188168 0.061703097 0.11220367 0.036219362 -0.005291069
0.041856337 0.113444015 0.06680151 0.14700623 0.12543346 0.09265055 0.031501453 -0.007576939
0.15864699 -0.012561885 0.09176438 0.100462474 -0.084550455 0.081889495 0.10569595 0.12765588
-0.06658188 -0.018977547 -0.04220805 -0.15778878 0.038411587 0.008920718 0.032662757 0.02803682
0.10247593 -0.1341933 -0.058168095 0.02150372 -0.00080472033 -0.060918197 -0.14559893 -0.11974533
-0.11430821 -0.11009776 0.06412853 -0.0823762 -0.074354276 -0.02397969 -0.07384419 -0.053625524
0.017204257 -0.070200115 -0.14918022 -0.07394509 -0.14863348 -0.0631796 -0.14957693 -0.08189513
-0.038828313 -0.14251079 -0.05493608 -0.046002913 0.047361653 -0.0005674923 -0.099791765 -0.13382712
-0.07875792 -0.10394867 0.051661473 -0.1701323 0.035151787 -0.016124047 -0.07293415 -0.04620778
-0.104810074 0.035147797 0.049901944 0.044055153 -0.21935578 -0.14480059 0.07296446 -0.0007054429
-0.10414422 -0.14317876 0.012939134 0.07048711 -0.09909356 -0.036464043 -0.18614532 -0.18687074
-0.017594952 -0.11310917 -0.07912201 -0.06593944 -0.04354139 -0.02665535 0.05565234 0.02541135
0.08484245 -0.08117263 0.10512499 -0.036888245 0.08404623 0.09582121 0.08250876 0.06228523
0.08502188 0.040671557 -0.10885202 0.028022422 -0.11085567 0.09204852 -0.086448304 -0.0029085702
-0.0013386753 0.08469396 0.093590945 -0.03617635 0.023196038 0.11076923 -0.005648074 -0.069371186
-0.013337276 -0.11146846 0.100129925 -0.052792225 0.016161788 0.1280875 -0.015057957 0.099889114
-0.08046353 -0.06924386 -0.07068407 -0.08785696 0.12287363 -0.055698786 0.11204184 0.13578205
-0.09326952 0.011845076 0.002160826 0.13284819 0.086283155 0.110949874 0.079335004 -0.02336651
0.10747339 0.024227954 0.05654209 0.12032873 0.08600749 -0.0262061 0.06736788 0.029808793
-0.033244163 -0.13144143 0.09851889 0.027733883 -0.050538164 0.055962075 -0.12047192 -0.037380204
-0.0837922 -0.035567664 0.07477717 -0.1471917 0.1024985 -0.16438138 -0.12394842 -0.10553219
-0.110557765 0.04660965 0.08239666 0.106838055 -0.12893341 0.038742743 0.03714917 -0.15593576
-0.09634607 -0.039429832 -0.061435223 0.07467628 0.023257364 0.01463057 -0.099061586 -0.059903234
0.067807965 0.13969049 -0.10509729 0.10546713 -0.016311731 0.049553737 0.023866907 -0.028134866
-0.043614946 -0.06596951 0.06378467 0.011506818 0.09124748 0.118053555 0.0781026 -0.076148525
-0.009914051 -0.07884698 -0.046939272 0.01282063 -0.066935904 0.06702259 0.009117797 0.121086776
0.12122966 -0.015723966 -0.07853345 -0.0059290263 0.052901205 0.039065134 -0.042405125 0.090537086
00000000: d49a 2c3e 7fe0 7b3d 8cd8 f6ba 7a63 843d
00000010: 500f 4bba 959b d4bd e8d4 023b 8e05 55bd
00000020: 62b6 653d 08c4 95bd f5e2 adbd 60d7 1dbd
00000030: 6b11 413d e107 76bd 98cf 71bd bb92 e63d
00000040: 3fb4 e9bc d1a4 ec3c 7fdb 9abc 0f78 a1bd
00000050: 4bc3 6b3d 93c7 d8bd 3f05 80bd b0b4 d3bc
00000060: 342a c43d 2ec4 5bbc 69ca b9bd 7492 8f3d
00000070: aec6 76bb 3020 de3d 4827 0bbc dd15 e13d
00000080: 3750 94bd 140d 6a3a af4d ef3d 18ce 9fbd
00000090: f3e5 043d afee a43d 4e56 f23c c3d3 943d
000000a0: 96f0 a63d b25d 263e dd95 73bc 1a9d f9bd
000000b0: 63bc 7c3d 0acb e53d c15a 143d b460 adbb
000000c0: 8d71 2b3d 5655 e83d 3bcf 883d cd88 163e
000000d0: a171 003e 92bf bd3d ab07 013d f947 f8bb
000000e0: 5b74 223e 5dd0 4dbc f7ee bb3d 45bf cd3d
000000f0: ca28 adbd aeb5 a73d 1e77 d83d 39b8 023e
00000100: 155c 88bd cd76 9bbc 59e2 2cbd 6293 21be
00000110: 7855 1d3d 3428 123c 62c9 053d 79ad e53c
00000120: e6de d13d f869 09be ab41 6ebd 9228 b03c
00000130: def3 52ba 5c85 79bd e317 15be 0a3d f5bd
00000140: 6c1a eabd ef7a e1bd d255 833d dab4 a8bd
00000150: 0e47 98bd 0e71 c4bc 9f3b 97bd 70a6 5bbd
00000160: f1ef 8c3c 14c5 8fbd b3c2 18be 8670 97bd
00000170: 6033 18be 4e64 81bd b22a 19be a2b8 a7bd
00000180: 700a 1fbd 59ee 11be a804 61bd 8d6d 3cbd
00000190: 4bfe 413d c3c3 14ba a05f ccbd fa09 09be
000001a0: d54b a1bd 0ae3 d4bd fb9a 533d 2937 2ebe
000001b0: 52fb 0f3d 9416 84bc 805e 95bd 5e44 3dbd
000001c0: aaa6 d6bd 23f7 0f3d fb65 4c3d 2d73 343d
000001d0: cd9e 60be 9b46 14be 646e 953d 79ed 38ba
000001e0: 9149 d5bd 749d 12be a9fe 533c 8c5b 903d
000001f0: 90f1 cabd 525b 15bd e19c 3ebe 0b5b 3fbe
00000200: 4a23 90bc c8a5 e7bd b80a a2bd 420b 87bd
00000210: 7558 32bd 525c dabc b5f3 633d 772b d03c
00000220: e1c1 ad3d d63d a6bd c54b d73d 2118 17bd
00000230: 6e20 ac3d e93d c43d 5afa a83d cc1e 7f3d
00000240: f41f ae3d 3897 263d cfed debd 478f e53c
00000250: 4c08 e3bd ef83 bc3d cf0b b1bd b69d 3ebb
00000260: 7d76 afba 0774 ad3d 9cac bf3d a72d 14bd
00000270: 9e05 be3c fada e23d 7b13 b9bb 7b12 8ebd
00000280: 9784 5abc 9349 e4bd eb10 cd3d a93c 58bd
00000290: ba65 843c 5f29 033e a6b5 76bc aa92 cc3d
000002a0: 10ca a4bd bacf 8dbd cfc2 90bd 5aee b3bd
000002b0: 2ba5 fb3d 6924 64bd 3176 e53d 730a 0b3e
000002c0: 1704 bfbd da11 423c a59c 0d3b 5b09 083e
000002d0: 39b5 b03d b039 e33d 647a a23d 206b bfbc
000002e0: 021b dc3d b479 c63c ae98 673d e96e f63d
000002f0: b224 b03d 2dae d6bc 2cf8 893d 9231 f43c
00000300: 082b 08bd 9598 06be 46c4 c93d 2b32 e33c
00000310: 1b01 4fbd 7d38 653d fbb9 f6bd fc1b 19bd
00000320: 3f9b abbd 66af 11bd c624 993d 6cb9 16be
00000330: bcea d13d 9853 28be abd8 fdbd 4321 d8bd
00000340: 1c6c e2bd c3e9 3e3d 94bf a83d e9cd da3d
00000350: 1f07 04be b6b0 1e3d ba29 183d a0ad 1fbe
00000360: 1751 c5bd 2d81 21bd 80a3 7bbd e1ef 983d
00000370: 3a86 be3c 0fb5 6f3c cde0 cabd 185d 75bd
00000380: e7de 8a3d 060b 0f3e 3f3d d7bd 27ff d73d
00000390: 2ea0 85bc dcf8 4a3d 8884 c33c 177b e6bc
000003a0: 96a5 32bd 061b 87bd 89a1 823d 1887 3c3c
000003b0: f5df ba3d 10c6 f13d 42f4 9f3d c2f3 9bbd
000003c0: 8b6e 22bc 877a a1bd 6543 40bd 9f0d 523c
000003d0: b115 89bd 2443 893d d062 153c 58fc f73d
000003e0: 4247 f83d 8ccf 80bc 25d6 a0bd 4748 c2bb
000003f0: efae 583d c302 203d ffb0 2dbd 826b b93d

bias_hh_l0 f4 [256]
-0.023816485 -0.12750663 -0.07926607 -0.08788137 -0.0075520626 -0.123161934 0.056145597 0.047173433
0.12841156 -0.08434168 0.013216036 0.022625523 0.03164855 -0.09909521 -0.10119704 0.12653941
-0.06209986 -0.048570447 0.07708519 0.018150311 0.014511691 -0.030290913 -0.13232473 -0.13236982
-0.08067583 -0.08917646 0.04287085 0.037110545 -0.046148144 0.08387445 -0.07173522 0.15779898
0.0183171 0.1211621 0.042415228 0.05662184 0.058370087 0.123190515 0.11029093 0.042040396
0.048262067 0.0620381 -0.028210042 -0.12414823 -0.05149739 0.081658795 0.111884646 0.086914055
0.07568579 0.025318563 0.047956225 0.10763819 0.046936423 -0.10117875 0.02151388 0.091769844
0.080294296 -0.06477859 -0.07755291 0.05115735 -0.10296977 0.041677825 0.13185655 0.03832453
-0.14102745 -0.14095823 0.04175838 -0.040295612 -0.11579248 -0.053910576 0.07055583 0.016707296
-0.044464946 -0.1058765 -0.10195811 -0.14504236 -0.0009629965 0.017947229 0.077259965 -0.19959755
-0.06766114 0.01620527 0.07158225 -0.031049604 -0.13721828 -0.15615548 -0.19687901 0.0028830587
-0.065378144 -0.14175883 0.057359118 0.03349703 0.031919885 -0.040847935 -0.15234801 0.032965403
-0.034653448 -0.05820841 -0.10735104 0.06167764 0.044975597 0.08190158 -0.06533726 0.014082168
0.025883164 0.09087312 0.062430274 -0.034913316 0.08656137 -0.07889861 -0.054361876 0.015268347
-0.16483502 -0.15542553 0.042774606 -0.09910118 -0.05658212 -0.13962066 -0.0708685 0.092086464
-0.21989717 -0.019958282 0.07614383 -0.054558568 -0.02910817 0.004811834 -0.0015724464 -0.17655678
0.01221351 -0.10747071 -0.045572102 0.0035011333 0.11068299 0.023647744 -0.0786809 0.12334442
-0.11583288 0.1258829 -0.08724603 0.104134955 0.10899576 -0.10747703 0.037107993 -0.022341555
-0.13292275 -0.036466926 0.015291688 -0.013208273 -0.097256795 -0.117962025 0.032608997 -0.065346554
-0.118344314 -0.0044169044 -0.090437785 0.0144474795 0.063441075 0.08988714 0.09622524 -0.04758342
0.07921201 -0.12861772 -0.0044757696 0.015943876 -0.05851308 0.07897118 -0.017859878 -0.043521564
0.06555649 -0.054287605 0.10806588 -0.047030833 0.00720055 -0.021016268 0.060911078 -0.09689021
0.087783955 -0.054024417 0.110012 -0.06227356 -0.13099813 -0.12107036 0.12301071 -0.11940263
0.08157547 0.098077126 -0.08105311 0.12843224 0.045045998 -0.105346225 -0.008467833 0.0037669751
0.024656843 -0.12230165 -0.12297998 -0.10452688 0.0331597 0.090780094 -0.002863015 0.08948422
0.08277616 -0.1358745 0.0901743 -0.02613929 -0.13096327 -0.09875413 0.05914501 0.018549053
0.030409388 0.08700755 0.035667103 0.1035162 -0.062015645 0.056862842 -0.14743026 -0.0054537044
0.07154123 -0.053184688 -0.08815118 0.0857438 -0.05753652 -0.015432335 0.0037077817 -0.077644154
0.045121938 0.12962124 -0.023891684 -0.093683355 0.028651142 0.08101799 0.029127419 -0.0739929
-0.009127865 -0.015490406 0.0721162 -0.0139466375 0.08351901 0.049170017 -0.10217883 0.06574441
-0.05195895 -0.06766134 0.018256705 -0.04336705 0.09517525 0.04539843 -0.09965602 0.0048963395
0.12897517 -0.11196237 -0.0116231665 -0.058218103 0.12308952 -0.11939634 0.027019965 0.020392394
00000000: ca1a c3bc 1991 02be 4056 a2bd 26fb b3bd
00000010: 4b77 f7bb 533c fcbd edf8 653d ee38 413d
00000020: 527e 033e 55bb acbd 1388 583c 2959 b93c
00000030: e9a1 013d 6ef2 cabd 6540 cfbd 8c93 013e
00000040: 6c5c 7ebd cef1 46bd d7de 9d3d f6af 943c
00000050: 72c2 6d3c a624 f8bc 2280 07be f48b 07be
00000060: 5f39 a5bd 26a2 b6bd 5899 2f3d 3a01 183d
00000070: d605 3dbd 5ec6 ab3d eae9 92bd 0e96 213e
00000080: be0d 963c d623 f83d 97bb 2d3d 4dec 673d
00000090: 7915 6f3d 4f4b fc3d 36e0 e13d 8d32 2c3d
000000a0: 72ae 453d aa1b 7e3d bf18 e7bc 6d41 febd
000000b0: edee 52bd ba3c a73d c723 e53d ffff b13d
000000c0: 2701 9b3d e068 cf3c bf6d 443d 6971 dc3d
000000d0: 6840 403d ce36 cfbd e03d b03c d4f1 bb3d
000000e0: 5671 a43d a3aa 84bd 0fd4 9ebd 5f8a 513d
000000f0: d1e1 d2bd 5eb6 2a3d 6705 073e 2ffa 1c3d
00000100: 8069 10be 5b57 10be d60a 2b3d 030d 25bd
00000110: 9c24 edbd 56d1 5cbd 937f 903d bddd 883c
00000120: e020 36bd c7d5 d8bd 6acf d0bd fc85 14be
00000130: 9a71 7cba 1106 933c 793a 9e3d 4d63 4cbe
00000140: ec91 8abd eac0 843c b799 923d bd5b febc
00000150: f382 0cbe 39e7 1fbe a79a 49be b3f1 3c3b
00000160: fae4 85bd 3a29 11be 65f1 6a3d 2f34 093d
00000170: 6dbe 023d 2a50 27bd 1e01 1cbe bb06 073d
00000180: c6f0 0dbd f16b 6ebd ddda dbbd b1a1 7c3d
00000190: 5538 383d 04bc a73d 8bcf 85bd e5b8 663c
000001a0: ee08 d43c b01b ba3d e3b6 7f3d 4401 0fbd
000001b0: 1647 b13d 9895 a1bd 8faa 5ebd 1728 7a3c
000001c0: 83ca 28be df27 1fbe 6d34 2f3d 8ff5 cabd
000001d0: a7c2 67bd b8f8 0ebe 8123 91bd d497 bc3d
000001e0: b92c 61be 8d7f a3bc 4cf1 9b3d ce78 5fbd
000001f0: 4274 eebc 97ac 9d3b 8c1a ceba 4dcb 34be
00000200: 2d1b 483c 9b19 dcbd d0a9 3abd 4573 653b
00000210: c3ad e23d eab8 c13c 7423 a1bd 009c fc3d
00000220: ca39 edbd 72e7 003e 0cae b2bd b544 d53d
00000230: 2b39 df3d eb1c dcbd 8dfe 173d a305 b7bc
00000240: e71c 08be 585e 15bd fd89 7a3c 8367 58bc
00000250: 922e c7bd 1396 f1bd 0391 053d 6ad4 85bd
00000260: 815e f2bd aebb 90bb 7237 b9bd 1fb5 6c3c
00000270: 65ed 813d c016 b83d bd11 c53d d5e6 42bd
00000280: e839 a23d 5db4 03be 7aa9 92bb bb9c 823c
00000290: 69ab 6fbd a4bb a13d e14e 92bc ab43 32bd
000002a0: 7b42 863d ae5c 5ebd a551 dd3d 67a3 40bd
000002b0: 97f2 eb3b 4f2a acbc e57d 793d 606e c6bd
000002c0: 13c8 b33d b548 5dbd f94d e13d 8f12 7fbd
000002d0: 6024 06be bdf3 f7bd 0aed fb3d 5e89 f4bd
000002e0: 0a11 a73d a9dc c83d 2cff a5bd be83 033e
000002f0: 2782 383d c3bf d7bd aabc 0abc 5bdf 763b
00000300: 26fd c93c 4a79 fabd eedc fbbd 3012 d6bd
00000310: 77d2 073d eaea b93d 6ca1 3bbb 8143 b73d
00000320: 8c86 a93d af22 0bbe 4ead b83d 1022 d6bc
00000330: 3c1b 06be 9b3f cabd 0a42 723d 2ff4 973c
00000340: 1c1d f93c 0431 b23d ab17 123d 4d00 d43d
00000350: 1e04 7ebd 03e9 683d f5f7 16be fdb4 b2bb
00000360: 3584 923d 30d8 59bd 9b88 b4bd 729a af3d
00000370: 6aab 6bbd e8d7 7cbc 41fe 723b e603 9fbd
00000380: c8d1 383d 6ebb 043e 7eb8 c3bc 0fdd bfbd
00000390: cdb5 ea3c c3ec a53d a09c ee3c 9789 97bd
000003a0: 0a8d 15bc 79cb 7dbc a9b1 933d 7080 64bc
000003b0: 040c ab3d 8066 493d 2243 d1bd 01a5 863d
000003c0: e8d2 54bd 0792 8abd 168f 953c a6a1 31bd
000003d0: 3eeb c23d b4f3 393d 7518 ccbd 7971 a03b
000003e0: 1112 043e 874c e5bd 186f 3ebc 1b76 6ebd
000003f0: 5c16 fc3d 1186 f4bd f958 dd3c f30d a73c

weight f4 [1, 64]
-0.110115975 -0.07544056 -0.095887884 -0.12186142 -0.14473155 -0.08061686 0.009112383 0.046220943
-0.059505522 -0.045093223 0.08493361 0.07219104 -0.044814624 0.05859878 -0.046183717 -0.10489719
0.08513548 0.10285785 0.050698247 -0.09256165 -0.0434632 -0.062163785 -0.07671141 -0.020788543
-0.13026239 -0.081317596 0.0443531 0.068780005 -0.13001026 -0.10989997 0.00856382 0.14869125
0.12512803 0.14976783 0.06408036 0.13752417 0.054986868 -0.07609649 -0.10581746 -0.14066848
-0.0056551476 0.12181132 -0.09719922 0.02399014 -0.08238334 0.048939805 -0.04876769 -0.074645564
0.07673015 -0.12609798 -0.07935803 -0.050422035 -0.06866457 0.07248475 -0.041785814 0.062328868
0.10152281 0.09928233 0.094131656 -0.14090896 0.047369488 -0.08278651 -0.04687824 -0.03335016
00000000: 7c84 e1bd 9580 9abd de60 c4bd 7b92 f9bd
00000010: 8234 14be 741a a5bd 1b4c 153c 2c52 3d3d
00000020: 10bc 73bd acb3 38bd acf1 ad3d e5d8 933d
00000030: 8a8f 37bd 4605 703d 232b 3dbd 57d4 d6bd
00000040: 835b ae3d 23a7 d23d f7a8 4f3d f690 bdbd
00000050: 7806 32bd 749f 7ebd df1a 9dbd bc4c aabc
00000060: 8163 05be d789 a6bd 99ab 353d 88dc 8c3d
00000070: 6921 05be 3c13 e1bd 444f 0c3c 8542 183e
00000080: 9021 003e bd5c 193e 903c 833d 23d3 0c3e
00000090: e939 613d 7ad8 9bbd d3b6 d8bd 660b 10be
000000a0: d14e b9bb 3778 f93d 6210 c7bd f886 c43c
000000b0: 99b8 a8bd 1b75 483d a1c0 47bd c6df 98bd
000000c0: b224 9d3d d41f 01be 7686 a2bd 5687 4ebd
000000d0: 03a0 8cbd e272 943d 9a27 2bbd 8e4c 7f3d
000000e0: 31eb cf3d 8954 cb3d 19c8 c03d 704a 10be
000000f0: 8206 423d f98b a9bd 6603 40bd 2d9a 08bd
