model/4132.2342624783505_weight.pth (torch, 90511 bytes, 7 tensors)

weight f4 [16, 32, 1]
00000000: 4d91 2d3c e25d 47be fa4d 59be 72a1 6bbd
00000010: a50f 623b 5b9b b03d 6c6f 8f3d 8933 123e
00000020: afe0 f6bc 0ddd 233c 30ff 2f3d bae4 efbd
00000030: 6cf7 e3bd de4c 0ebe c659 f03c bb88 edbd
00000040: 27ab 36bd c33c 1d3e fc91 e4bc d132 853c
00000050: 8545 323e 07bf 073e 9879 033e adb3 9cbd
00000060: c340 333e 456b 803d 2175 d4bc b17c 87bd
00000070: 7f7f 613d e297 133e 7b36 9bbd a743 36bc
00000080: 2be8 85be 72d9 8dbd cca0 91be f70b c4bd
00000090: 4644 7e3d 2469 003e 8af8 c7bc 9ae7 203d
000000a0: 01ba 17be e6c3 10be 8509 8f3b 706a f63d
000000b0: c749 823c 53a3 aebc beb4 33be 8619 883c
000000c0: 4633 73bd 5caa 3dbe b03b 53bc 67ff 3bbd
000000d0: a182 a4bd 4ea3 9d3d 1312 843d a7f1 e33c
000000e0: 7c4d 2c3d ba97 e5ba b63f 083e 50c0 f73d
000000f0: 75fb 37be f0b1 593d f0cd 47be 3984 2dbe
00000100: 9578 76bd 32e7 f2bd e816 86bc 8f33 583d
00000110: bf1d 283e e6b5 1bbe 50ef 0ebe abef 2b3e
00000120: 2b0e 4cbd c348 ea3d cfc2 1b3e 3ed4 763d
00000130: 1264 91bd 3c3f 453d 9d4f a1bd 8b16 3f3d
00000140: 7ba7 0e3e 6b69 c13d 5696 2cbe f022 a8bd
00000150: 3dad a13d e993 923d 6f2e fc3d ee38 823c
00000160: 01fa c93d dd36 243e 4287 0abe 357c c83b
00000170: 868c 123e 5d70 db3d cca2 5d3d 8dfb 2dbc
00000180: f639 5fbe 4444 81be 2d0f 4ebe cb93 023d
00000190: 4222 d83d 43b7 6c3d 9f4f d9bd ccad 143d
000001a0: 0c92 1b3e 5534 f43d 8a32 2e3d 4ef2 d83d
000001b0: 75ad 8abd e650 d73d 1719 fbbd b38c 513d
000001c0: 3cb6 043d 5bf5 323d ea00 b33d 57ba bdbd
000001d0: 0d5b 52bd 0ea5 b63d 862d 1b3e 3d34 9cbd
000001e0: b732 4039 beb6 1fbe ce8b 293e 5311 14be
000001f0: 40d9 94bc 755b ad3d ee26 f03d bc12 0fbe
00000200: 3b6d 04bd d2cc 51be 0f6f 46be 65ae 4f3d
00000210: ab1e 693d 5639 a83d ae38 dabd 1e35 e9bd
00000220: 831c 123e b618 b43b 426c 1fbe 59e4 55bd
00000230: c4fe 033d 3880 9b3c 6a92 83bb 80de 123b
00000240: b8b9 083e fb7c d8bd f61f 103e 9a00 c3bc
00000250: d179 4abe 9f72 323e 6ce2 523d aaad 573e
00000260: 570b f83d c0be b03d 36c1 953c 0efe 79bc
00000270: ae28 973d 49e5 623d a06b c83d 5440 a73d
00000280: fbcd 1c3c aa82 1f3e a437 183e d670 6fbd
00000290: 7789 093d 7745 aa3d d6dc 373e 47b9 f53d
000002a0: b37d 293e bc43 3e3e 6f98 043e 7107 07bc
000002b0: 7c41 14be 121a ca3c 7dd8 94bd 0cfa d6bd
000002c0: 3dd3 12be 068f 8d3d 915b 3fbd a0b9 edbd
000002d0: 8b25 243e faf1 443d ff5f 1d3e 75a5 a93c
000002e0: a58d cf3c 2753 f9bd 94a1 883d 748a 83bc
000002f0: 2303 b43d 98e5 2bbd 9c14 b43d a990 d1bd
00000300: 70f2 79be 8b7f 30bd d425 923c 751a 9bbd
00000310: 59e2 5dbb 9883 a33c dd3e 2dbe 2526 8a3d
00000320: 2bbb f63d 7444 253d 7e8b 3cbe 7572 0bba
00000330: 0365 b6bd 42c1 28be c326 153e abfa 0d3e
00000340: 4356 c9bd 181f ddbc 6d3b 893d 33b8 7a3d
00000350: 6369 e73c b3f4 b83d c548 c43c a70a 05be
00000360: 8fa2 a5bd 895f cebd af81 8fbd afb9 42bd
00000370: 84e0 bdbc a714 08be 2f07 29bd 5fcb 853c
00000380: b5b3 59bc 6bd5 913e a85a 993d be42 9f3d
00000390: b780 903c 8720 eabd 5222 58bd c7bf d8bd
000003a0: d24a e2bd eb19 78bd 5c82 f53d db73 a6bd
000003b0: ffff c63d 8e6e 1e3e a9cc 06be 6b66 cabd
000003c0: aa5a a83d c524 d43d 7a28 32bd 906c 973c
000003d0: ddfd 4c3e efed e73d 9a44 64ba fdfa 28be
000003e0: 486f 123e 1157 13bd 1af1 4b3e 981d 3b3e
000003f0: 5a0f 303e 474a 273d 481f 73bd 7aa7 7bbd
0.010593724 -0.19469407 -0.21221152 -0.057527013 0.0034494188 0.08623382 0.07003674 0.14277472
-0.030136434 0.010001433 0.042967975 -0.11713548 -0.11131176 -0.1389651 0.029339682 -0.11598345
-0.044596817 0.1535521 -0.027901642 0.016259583 0.17409332 0.13256465 0.12839353 -0.07651458
0.17505173 0.0627046 -0.025934758 -0.0661558 0.05505323 0.14413407 -0.07578751 -0.011124528
-0.26153693 -0.0692624 -0.2844299 -0.095725946 0.06207683 0.12540108 -0.024410505 0.039283372
-0.14817049 -0.1413723 0.0043651485 0.1203202 0.01590432 -0.021318113 -0.17549416 0.016613733
-0.05937507 -0.18522018 -0.012892649 -0.045897868 -0.08032728 0.076971635 0.0644876 0.02782519
0.042066082 -0.0017516532 0.13305554 0.120972276 -0.17967017 0.05314821 -0.19512153 -0.1694497
-0.06017359 -0.11860503 -0.016368344 0.052783545 0.16417597 -0.15206107 -0.13958478 0.16790645
-0.0498182 0.114396594 0.15211032 0.060261004 -0.07099165 0.048156008 -0.07876513 0.046652358
0.13931076 0.09443935 -0.16854224 -0.08209789 0.07894371 0.07157118 0.12313544 0.015896287
0.098621376 0.16036554 -0.1352816 0.0061183223 0.14311418 0.10714791 0.054110333 -0.010619056
-0.21799454 -0.25247395 -0.20122977 0.031879228 0.10553409 0.05779196 -0.1061089 0.036298558
0.15192431 0.11924044 0.042528667 0.10593091 -0.067713656 0.10513477 -0.12260645 0.05115957
0.032400355 0.04369102 0.08740409 -0.09264057 -0.051356364 0.089182004 0.15154085 -0.07627151
0.0001832944 -0.15597054 0.16557238 -0.14459734 -0.01817 0.0846471 0.11726175 -0.1397199
-0.032330733 -0.20488289 -0.19378303 0.050703425 0.056914013 0.08214061 -0.10655342 -0.113870844
0.14268689 0.00549611 -0.15568641 -0.052219722 0.032225385 0.018982038 -0.0040152567 0.0022410452
0.13352096 -0.10570713 0.14074692 -0.023803998 -0.19773032 0.17426537 0.051485464 0.21062341
0.12111538 0.08630133 0.018280607 -0.015258325 0.07380806 0.055394445 0.09786153 0.081665665
0.009570594 0.15577188 0.14864975 -0.058457218 0.033578362 0.083140306 0.17955336 0.119982295
0.16551857 0.18580526 0.12948774 -0.00824152 -0.14478105 0.024670634 -0.07267854 -0.104969114
-0.14338394 0.06912045 -0.046718184 -0.11607671 0.16029947 0.04808233 0.15368651 0.020708779
0.025336096 -0.12174063 0.066714436 -0.01605723 0.08789661 -0.041967005 0.087929934 -0.1023267
-0.24408889 -0.043090384 0.017840303 -0.07573406 -0.0033856838 0.01996021 -0.16918512 0.06745557
0.12047418 0.040348485 -0.18412587 -0.00053194846 -0.08905985 -0.16479972 0.14565568 0.13865153
-0.09830906 -0.026992366 0.06700788 0.061210822 0.028248494 0.09031048 0.02396048 -0.12992345
-0.08087646 -0.10076816 -0.07007157 -0.047540363 -0.023178346 -0.13289128 -0.041266616 0.016332326
-0.013287474 0.28483137 0.074879944 0.07776402 0.017639501 -0.11431985 -0.052767105 -0.105834536
-0.11049427 -0.060571592 0.11987755 -0.081275664 0.09716796 0.15471861 -0.13164009 -0.09882816
0.08220418 0.10358576 -0.043495633 0.018484384 0.20018716 0.11324679 -0.0008707732 -0.16501994
0.14300263 -0.035971705 0.19916192 0.18273008 0.17193356 0.04084232 -0.059356004 -0.061439015

bias f4 [16]
00000000: c140 aebd 3874 cf3d fdf2 fabd 6076 4cbd
00000010: 9082 003e b481 293e 3ddc f5bc e73f 17bd
00000020: 25f0 eb3c df73 123c 0558 763c 2ba5 373e
00000030: f840 ae3d 521e 2c3e e741 8d3c 5206 d43d
-0.085084446 0.10129589 -0.122533776 -0.04991758 0.12549806 0.16553384 -0.030012244 -0.036926176
0.028801033 0.008938759 0.015035634 0.179341 0.085084856 0.16808441 0.017243339 0.10352768

weight_ih_l0 f4 [256, 16]
00000000: a9dd 763e ded6 8c3d d42f 05bb d8ef 813e
00000010: 9c5a 613c 5447 93bd b5f9 483c 15eb 4dbd
00000020: 6780 093e 9e5f 6fbd b3c8 e83d 99c2 ac3d
00000030: 6060 903d 869d 1e3c 97e8 ddbd 1fd7 e33c
00000040: 78c3 163e 8bb7 0b3e a479 0bbc b779 823e
00000050: 5700 ee3d 7d00 b1bd 9a63 db3c 3ab0 1cbe
00000060: 1c1a cfbc afb1 48bd 5793 f43d 2b8b adbd
00000070: 6436 103e ab71 3abe 12cc 29be 2b13 df3d
00000080: 788b 383e 1394 3f3e 80d6 dfbc 83d4 213e
00000090: abd3 143d 5585 c9bd b29f 103e e5fc 59bd
000000a0: 0601 123d b601 cdbc ff82 bb3d b87a 20bd
000000b0: 2f24 663c f817 5cbe 2030 1bbe 5e27 a83d
000000c0: a529 943c d1b9 cc3d 9c86 d6bd bd8d 723e
000000d0: c503 123e 317b 843d 695b d2bc 2127 2b3d
000000e0: 4066 89bc d491 aa3d 6f95 093e e6e0 083e
000000f0: 2c49 9b3d 1481 78bd 8347 a2bc d45b 60bd
00000100: 8e1c 043e ed99 403d aca2 263d 2fb4 963d
00000110: 2b3c eebc c2b3 89bd ec46 863b 4856 ed3d
00000120: 466b 7e3d 05fe cabb 953c 623d 3d61 8bbd
00000130: c76e 4bba 9e95 da3c 79e6 fe3b a232 41bd
00000140: 90d9 c5bd 479d 8b3d da7a eb3c 283f c53d
00000150: 7f94 1bbd 43fb c0bd 153b e8bd 700e 5fbc
00000160: 745a cabc 5dfb 553d 7e21 163d 8b22 a2bd
00000170: 8d48 4d3d 6841 d23c e46a 0ebe 50c8 76bc
00000180: 58b4 91bd 9964 743d 6632 00be 64a6 b43d
00000190: 1afe 543c 57de f1bd 89a0 d43c 7e01 1dbd
000001a0: b407 823d f105 9fbc 81f9 ff3d 1347 fc3c
000001b0: 2550 743d 19b0 2dbd e220 08be 5820 a73d
000001c0: a89b 1bbd 377c 99bc 9163 b4bd a240 2f3e
000001d0: 2806 be3d e863 f23c 123c dd3d f215 21be
000001e0: 6f8c 833c 22a4 6fbd 17c5 12bd 0623 05bd
000001f0: c178 513c 3f77 26bd 19dd 3abe 8bd2 dd3d
00000200: 7aea e63c 1ec7 b6bd 0f98 703d 362f a9bd
00000210: 5ad5 b13d 9cba d33c 03a2 31bd 39cc bf3d
00000220: a90b 6e3d 768c dfbc 923c ce3c c034 c63d
00000230: 1bad 38bd 1c0b 73bd b901 2ebd 58f9 5c3c
00000240: 2cce 1e3b 9a7c 6ebd 5474 23bb 3214 113e
00000250: c6d0 273e 247f c0bc 5754 c1bc 9156 cdbd
00000260: ff5f a13c e36d 323e ac05 54bb f9cb a03d
00000270: 61b4 8a3d d6bf 39bd d031 29be 86cc a23d
00000280: 5c25 023e 1c16 1e3e e6bf 343d ef39 613e
00000290: df27 2b3e 3398 18bd b13c 8abd 75a6 4f3c
000002a0: cdd8 2c3d ea7e c8bc 54dc b43d e743 ca3d
000002b0: b6f2 77bd 0557 e8bd d1a8 03be 4ac3 febc
000002c0: 53ed 3d3d 963f 8b3d 1a77 94bd bd9b 373e
000002d0: 7111 473d 4f8f 563d 5adf 2dbd 4b77 a2bd
000002e0: 2721 aabd e067 803d 531c fa3d e112 633c
000002f0: b256 dd3d a41e d4bd 5260 6e3c 4cb0 93b8
00000300: a8b4 eb3d d433 083e f0b6 72bc cbe8 763e
00000310: 69aa 88bd 2ed0 5fbd f90b 5d3d 4b92 fbbc
00000320: 6f25 dd3d 1653 ce3d 7d10 ffbc 0a61 143e
00000330: 937e 0b3e b940 113d b971 bf3b 9b68 3cbb
00000340: af1c 0f3d 4c19 9f3d 11e4 c13d 14c9 e83d
00000350: 283c d03d d9b4 0abe 5db0 c6bd 6ea3 843d
00000360: a8be 1d3d 442b 60bd ba51 fb3d fc0c 91bd
00000370: 0f22 f93d 10c3 f1bc ec2a e0bd 8ff9 afbd
00000380: 9260 893c b1b7 be3d ea30 febc 0f8a a93d
00000390: 52da d93d f41d 7a3c 356d 2cbd 1c22 a13d
000003a0: b2a2 8d3c 072b 323e 63fa 0d3d 9542 623d
000003b0: c70c 23bd 99f6 d7bd 5bdf 29be ea11 bdbd
000003c0: 7a42 713d f14b c7bd 67f9 103e 9df5 063e
000003d0: db39 833d 5e27 a4bd 1865 4d3c 9a46 df3d
000003e0: fa29 0cbe 4c08 cfbd 8a3b a9bd 5945 843d
000003f0: a495 e7bd 99a4 45be c31c 69bc 8605 bb3d
0.24107994 0.0687692 -0.0020322697 0.253783 0.013754513 -0.07191339 0.012266566 -0.05027302
0.13427888 -0.058440797 0.11366405 0.08435554 0.07049632 0.009681111 -0.108353786 0.027812539
0.14723003 0.13644235 -0.008512888 0.25483486 0.116211586 -0.08642671 0.026780892 -0.153016
-0.025281005 -0.048997577 0.11942165 -0.0847381 0.14083248 -0.18207423 -0.16581753 0.10892328
0.18021953 0.1870883 -0.027323961 0.15803723 0.036334675 -0.09839884 0.14123419 -0.053219695
0.035645507 -0.02502523 0.09155845 -0.039179534 0.014046713 -0.21493518 -0.15155077 0.08210634
0.018086264 0.09996379 -0.104748935 0.23686881 0.1425925 0.064688094 -0.025678353 0.041785363
-0.01677239 0.08328596 0.1343591 0.13367042 0.07582316 -0.060669973 -0.01980949 -0.054775074
0.12901518 0.047021795 0.04068248 0.07358586 -0.029081425 -0.06723739 0.00409781 0.115887225
0.062114023 -0.0061948323 0.055233557 -0.06805656 -0.00077603426 0.026682671 0.0077789393 -0.047167428
-0.096606374 0.06817108 0.028745104 0.09631187 -0.037983414 -0.09422924 -0.11339394 -0.013614282
-0.024701335 0.05224167 0.036653034 -0.07916745 0.050118018 0.025665954 -0.13907963 -0.015062407
-0.07114476 0.05966625 -0.12519225 0.08820799 0.013000036 -0.11809986 0.025955455 -0.0383315
0.063491255 -0.019412013 0.12498761 0.03079561 0.059646744 -0.042404268 -0.13293794 0.08160466
-0.037990242 -0.018735988 -0.08808053 0.17114499 0.09278518 0.029588655 0.10802473 -0.15731028
0.016058175 -0.05850614 -0.03583249 -0.032504104 0.012785138 -0.040641066 -0.18248405 0.108311735
0.028187979 -0.08924697 0.058738764 -0.08260958 0.08683272 0.025845818 -0.043367397 0.09365124
0.05811659 -0.027288657 0.025175367 0.0967803 -0.04508696 -0.059336767 -0.04248211 0.013487183
0.0024231775 -0.058224298 -0.0024941163 0.1416786 0.16388234 -0.023498125 -0.023599787 -0.10026277
0.019699095 0.17424731 -0.0032352014 0.07851405 0.06772686 -0.045348965 -0.16522908 0.07949166
0.12709564 0.15438122 0.04412832 0.21994756 0.16714428 -0.037254523 -0.06749857 0.012673964
0.042198945 -0.02447458 0.08831087 0.098762326 -0.0605342 -0.11344723 -0.12857367 -0.03109898
0.046368908 0.067992374 -0.07249279 0.17930503 0.048600618 0.052382763 -0.042449333 -0.079329096
-0.083071046 0.062698126 0.12212434 0.013859482 0.108075514 -0.10357407 0.014549332 -7.042344e-05
0.11509067 0.13301021 -0.0148141235 0.24112241 -0.06673128 -0.054641895 0.053966496 -0.030709406
0.107981555 0.10074441 -0.031135792 0.14490142 0.13622503 0.035462115 0.005842414 -0.0028748873
0.034939464 0.07768497 0.09467328 0.113664776 0.10167724 -0.1354555 -0.097016074 0.06476484
0.038511902 -0.05472876 0.122714475 -0.07082555 0.12164699 -0.029511958 -0.10945687 -0.085925214
0.016769681 0.0931238 -0.031029183 0.08278286 0.106373444 0.01526593 -0.042096335 0.07867834
0.017289493 0.17399226 0.034662616 0.05523928 -0.039807107 -0.10545082 -0.1658911 -0.092319325
0.058901288 -0.097312815 0.1415764 0.13179632 0.064075194 -0.08015321 0.01253631 0.10902138
-0.13687888 -0.101090044 -0.08263309 0.064585395 -0.113078386 -0.1930107 -0.014228049 0.09131913

weight_hh_l0 f4 [256, 64]
00000000: a5b1 c7bc 7ec0 0a3e 6b16 9c3d 5cb4 5abc
00000010: 3249 4cbd 162e 123d 12ff adbd b1bd eabb
00000020: 6ec6 863d 5873 8b3d 526d 7c3d 490d 47bd
00000030: 65bb 753d 8d0b 06be fb1f 173d 074d ad3d
00000040: 25f9 09be ce36 7d3d f005 c8bd b715 e63d
00000050: 8b1f a93d 2b58 933c 8dc5 18bd 32b6 063e
00000060: e770 243d 7aaf 2cbd 2183 5c3d 0723 0bbd
00000070: 0233 b53d 3d03 83bd 6234 e3bd 9511 453d
00000080: 1c7a 56bd 3abb 0f3d 3eab c4bd 4919 b3bd
00000090: 2cbd c5bd e3a3 833d b2e6 f1bd 68f7 8dbd
000000a0: 2915 cfbd a0db d23d f55c af3c 25bd 9bbd
000000b0: 3e23 c4bc 7ff7 c83b cbb5 a3bd 19d2 04bd
000000c0: 0e41 973c a354 8d3d 5cdb a83c 8982 cebd
000000d0: 1559 0abd e2ab 3f3d cdac c13b 05b6 5d3d
000000e0: 27af 1dbd 39f0 51bd 4e05 f6bd 6439 2d3d
000000f0: 36b3 48bd e348 cfbd 72c8 803c e9c6 a6bd
00000100: ba65 9cbd f34c 1ebd 7719 81bd e401 92bb
00000110: 0a6d ba3c cca8 663d c975 c33d 1515 1cbd
00000120: f578 96bd d0e8 0cbd ffcd 55bd 03ad a93d
00000130: 02d6 7ebd 0293 363c 6475 27bd 39fe c53d
00000140: 887c 7fbd a129 f33d 05c4 c53d e69b bcbd
00000150: cee1 6f3d a362 fbbd 5235 babd 10b0 513c
00000160: 49ae 1b3e f481 27bd 7d26 fa3d 7cbd f13d
00000170: c94e 6fbc 9b87 87bc d122 7a3d 343b cfbc
00000180: f2d5 25bd f8d0 85bd 4003 a63d 1b17 2b3d
00000190: 4e11 173d af9d ccbd a838 ba3d e3c7 673c
000001a0: 5aae 253e 7c2b aa3d 2415 9abd 85b3 16bd
000001b0: 78d2 5bbd fb30 ed3c ece6 903d 7010 113d
000001c0: 7fb0 eb3d 75e6 f3ba 6582 7bbd 9e65 d1bd
000001d0: bdca 7abd d5c1 84bd 3747 023e 42cd b73d
000001e0: 31e2 063d 6701 f73c c90a 8cbd 9653 953c
000001f0: 00c3 6bbd 3954 5c3d da3b f13d 7d26 febc
00000200: f3d6 cebd 0669 a23d 8935 c6bd a519 ac3d
00000210: 5aab 753d 9dba 8b3d 29f3 26bc 47b6 06be
00000220: 2ded e73d a5cb f23c 9565 ce3d 8dba 92bd
00000230: fadf 213e d85d 64bc a850 dc3d f15f 3c3c
00000240: 7f0a ad3d e139 e23b 83fd b23d 76d9 923d
00000250: 2d47 b5bd 1654 c23d e931 66bc d00f c93d
00000260: 634e 61bb a8b8 a63d 2cc3 6dbd 739f c83d
00000270: ddd3 f5bd ac6e 63bd 7f5a d63c 1fcd c9bd
00000280: ea13 64bd dd32 a63d fcfc 89bd 7e3b fb3b
00000290: b589 21bd 9436 d4bd adce 12bd ce76 18bc
000002a0: 104a 393c 3ab9 d83d cbb7 91bc 37a8 72bd
000002b0: eec4 aabd a182 d53d 278b a1bd 4bd7 e2bd
000002c0: 6dde 0d3c 839e 863d 0502 5dbc df26 7fbd
000002d0: 8c17 04be 19c7 2f3d e95f 983d b70d 17bd
000002e0: 342f a2bd c979 693d a2d9 913c 0932 c7bc
000002f0: 8afa 0dbd 00fc 5e3d 4b37 bcbd f731 853d
00000300: 159f 06bc c304 c13c f03f b03d 0aef 70bd
00000310: e579 f7bd d638 893d 45bd e0bd 851f 003d
00000320: 9154 85bc 9ae2 ffbd 2253 ecbb a867 5e3d
00000330: 4ee7 813d c00a eebb 56fb 9fbd b2c9 a6bd
00000340: 81fa b13d e752 07bd cb11 46bd 96d7 c93d
00000350: 9652 ae3d 6fec fe3d 5b49 323d 15b7 5b3d
00000360: 0181 26bd 78f7 f8bd 9a66 ddbc 14e8 b1bd
00000370: 6ca8 7ebc 1671 993d 9e0f bc3d 4a48 eabd
00000380: 8d4e b23d 4888 9ebd d3cb dabd 7eed 6d3d
00000390: 5fbc b4bd c064 9dbc 791b 5f3d 7237 a1bc
000003a0: bd44 ea3d 7166 ce3c 7850 b43d 93cc b33d
000003b0: 5143 613d 2c0c d4bc 853d debd 5f94 55bd
000003c0: 9404 903d 59ec f2bd cd0a 163d 6614 a6bd
000003d0: e6c6 643d 1706 853d 2c06 f5bd bb09 b6bd
000003e0: f837 b43d 3445 973d b8e2 10bd 5b08 fc3c
000003f0: 9e29 8c3d b3fc 7abd c608 78bd 155b bf3d
-0.0243767 0.13549992 0.076214634 -0.013348665 -0.049874492 0.035688482 -0.084959164 -0.0071637263
0.06580816 0.068091094 0.061627693 -0.048596654 0.059993166 -0.13090344 0.036895733 0.084619574
-0.13473947 0.061819844 -0.097667575 0.112346105 0.082579695 0.017986378 -0.037297774 0.1315544
0.040146735 -0.042159535 0.05383599 -0.03396895 0.088476196 -0.06397102 -0.110939756 0.04811247
-0.052362546 0.035090663 -0.09602974 -0.08745057 -0.09655222 0.06427743 -0.1181158 -0.069319546
-0.10111458 0.102957964 0.02140663 -0.07604436 -0.023942586 0.0061330195 -0.07993659 -0.032426927
0.018463638 0.06900909 0.020612411 -0.10083491 -0.03377636 0.04679478 0.005910492 0.054128665
-0.038497116 -0.051254485 -0.120127305 0.04229106 -0.048999034 -0.10121324 0.01572058 -0.08143408
-0.0763659 -0.038647603 -0.06303685 -0.004455792 0.022757072 0.05631332 0.0954395 -0.038106043
-0.073472895 -0.034401715 -0.052198406 0.082849525 -0.062215813 0.011143448 -0.040883437 0.0966763
-0.06237462 0.118731745 0.096565284 -0.09209423 0.058564954 -0.12274673 -0.09092201 0.012798324
0.15203203 -0.040895417 0.12214372 0.118037194 -0.014606186 -0.016544154 0.06106836 -0.025296785
-0.040487237 -0.06533998 0.08106089 0.041770082 0.036881737 -0.09991013 0.090928376 0.014146778
0.16179791 0.08309075 -0.075235635 -0.036792297 -0.053667516 0.02895402 0.07075295 0.035416067
0.11508273 -0.001860811 -0.06140365 -0.1022446 -0.061228503 -0.06482283 0.12722479 0.08974697
0.032930557 0.030152036 -0.068379946 0.018228333 -0.057559013 0.05379126 0.11778994 -0.031024212
-0.10099592 0.07930188 -0.0967818 0.08403329 0.059977867 0.06822703 -0.01018981 -0.13155471
0.113245346 0.02963812 0.10077969 -0.07164488 0.15808097 -0.01393839 0.107575715 0.011497484
0.084492676 0.0069038724 0.0873976 0.07170384 -0.08851466 0.09488694 -0.014049985 0.09817469
-0.0034378998 0.08140689 -0.05804746 0.097960375 -0.120033 -0.055525467 0.026166199 -0.09853577
-0.055683054 0.0811517 -0.06737706 0.007667004 -0.03943797 -0.103619725 -0.035841633 -0.009305669
0.011309162 0.10582204 -0.017787835 -0.059242453 -0.083383426 0.10425306 -0.07887869 -0.1107622
0.0086589875 0.065732025 -0.013489251 -0.06229293 -0.12899607 0.042914484 0.074401684 -0.036878314
-0.079191595 0.05700091 0.01780397 -0.02431585 -0.03466276 0.054439545 -0.09190234 0.06503671
-0.008216639 0.02356184 0.08605945 -0.058821715 -0.120837964 0.06700294 -0.109736 0.03128006
-0.016275676 -0.12494393 -0.0072120586 0.054298073 0.06342946 -0.007264465 -0.078116104 -0.08143939
0.08690358 -0.033038046 -0.048356812 0.09855573 0.08511846 0.1244744 0.04352699 0.053641398
-0.04065037 -0.12156576 -0.027026463 -0.086868435 -0.015543085 0.074922726 0.09182666 -0.11439569
0.087063886 -0.07740837 -0.10683408 0.05808782 -0.088249914 -0.01921308 0.05446956 -0.019679759
0.11438892 0.025195332 0.08804411 0.08779254 0.05499584 -0.02588471 -0.10851578 -0.05214345
0.07032123 -0.11861486 0.036631394 -0.081093594 0.055853747 0.06495302 -0.11964068 -0.08888575
0.08799738 0.07386246 -0.035372466 0.030765703 0.06843875 -0.06127615 -0.060555242 0.093435444

bias_ih_l0 f4 [256]
00000000: 0981 533c c10a 813d 8493 673d 8745 503d
00000010: e407 c2bd eb9d e73d 71a9 1e3d 0008 993a
00000020: c94e 303d f6d5 e23d a7df 273d a6d4 50bd
00000030: e950 f13d 5610 4c3d 43d6 2a3d 1b72 14bc
00000040: 3460 46bd c428 17bd 1f6b f83d 6fa5 533d
00000050: 2052 133e 1ed4 f13d 9f92 0fbd aebe 043d
00000060: 8db6 b13d 84f0 8cbd 99b7 b93d 8180 4dbc
00000070: b7e0 ce3d ac33 0cbe 6186 933d d769 a93c
00000080: 633e 92bd ac25 a83c 4ac5 21bd c6f2 bdbd
00000090: 004f a53c ecf2 933d 6d99 d63d c40b 723d
000000a0: b2f7 9f3d 044e b5bd d9a0 bfbd b646 1c3d
000000b0: b12e 15bd 0dca 013e 35d0 b53b d118 f83d
000000c0: e3c4 1cbe 94e8 533d e791 9ebd c82b 033d
000000d0: fb45 fbbc 93f4 50bb 569d 68ba bbc0 d13c
000000e0: 0722 bf3d 223e d03b f487 a83d 0e9d bfbd
000000f0: c0ce 9fbc 6343 973d 0d5d 0bbe ae87 0f3e
00000100: 1749 8a3d d595 4b3d 15fa ebbc 5070 fe3c
00000110: b636 09be 6c28 933c cc59 18bd 2f59 e9bc
00000120: 28ce 81bd afaa 15be 67cc 15be 242b 09be
00000130: d60d 75bd ef33 4ebd 5e36 02bd 6e95 3cbb
00000140: e97c eabd 51ab b9bc abd1 a33d e358 cebc
00000150: 538c 863d b449 0cbe 1ef4 5e3d f8b0 1fbc
00000160: ab3e 1ebe 8ce4 6abd fd13 00bd 74ce df3c
00000170: 7fd2 09be 2364 323d ef60 8fbd f237 463d
00000180: f45a fdbc 75a1 0bbe 3c4d 05be 410b f6bb
00000190: 07b0 f6bd 6505 923d fec2 a73d 9db6 84bc
000001a0: bef7 e9bd 336b 613c 14c6 713d 359b a1bc
000001b0: 4cc8 acbd ccc8 e73c 2648 083d 85c0 d5bd
000001c0: d035 0bbe 6a85 24be be4c d8bc 7780 e8bc
000001d0: 03e1 403d b089 003c ab1a 8a3c 2245 35bd
000001e0: b402 22be c08c 9cbc 37de 223d c092 693d
000001f0: d86f 24bc 537b 04be 6029 b93c d172 9db9
00000200: f5b3 4ebd 70dc 7cbd 63eb 083d e1c9 cfbc
00000210: 82c9 adbd 9b5d cabd 9cc2 d13d bc6d debc
00000220: 5cb3 213b f0b6 f2bc 8ff0 c2bc c64c 8abd
00000230: 9be3 de3d b614 bebd 034d 8ebc 20eb 09bd
00000240: 515c 953b 69bd e23d aab9 2d3c 6cee df3c
00000250: 5a84 e23d a87e ddbd 63e4 fa3a 1ee3 00be
00000260: 0dfd e13d d315 bebd 23c8 00be bbe6 00bd
00000270: 11a6 b73d ef3f d63a 4e1f 1dbd c000 ea3d
00000280: 9531 a3bd a06b ffbc 6c62 a33d 1ebd 8dbd
00000290: 84c3 d9bd 0597 00be 730c 6bbd 1194 8f3d
000002a0: a993 d9bd 3bfa 213d e0d0 b43d 703b d6bd
000002b0: 9277 04bd 07e6 b23c 35af 0d3e 162a d5bd
000002c0: 89ce 41bc 8cf0 85bd a4b1 383d b011 42bd
000002d0: beab 613d 2cb8 a93d 5ce7 bdbd 6193 ae3d
000002e0: b1cb a03d 155b 803d 9a58 3abd 00b1 10be
000002f0: 3dba fbba 2a11 00be ffe1 3a3d 7cdc 9c3c
00000300: 7eb1 983d 1ed4 c53a bf58 203c 0edd da3c
00000310: d407 83bd f9ee 68b9 540c 3cbd 5cd7 fc3d
00000320: 537a 91bd 2b79 d7bc 2a4c 943d 230d 2bbd
00000330: 5154 293d 2ed7 343c 6ce1 0abd 2e68 93bd
00000340: 9ba5 1ebd 9d0d 7abc 84d1 3d3d 31de 5f3d
00000350: ced4 e83d f443 bc3d 806d 1a3d d4ca d13d
00000360: 83f2 cbbd bd46 983d cbba 9ebc b12a 2fbd
00000370: a063 55bd f7cc dabd 24ff 4dbd db3c 70bd
00000380: c7f3 af3d 3523 a6bd 1745 0ebd 2b09 563b
00000390: a041 d73c 21d3 aa3c 01a1 e7bd b6af a6bd
000003a0: 6cf5 2c3d 3866 86bd 576d 4ebd 178f 053e
000003b0: c3e4 073d b801 4cbd 950b 283c c9a5 adbd
000003c0: 637c 6b3d 6760 b83c f504 0fbb 99b1 f33c
000003d0: 1f44 9a3d ecc0 a53d 49cb 2bbd 1592 373d
000003e0: e5a7 56bd 6230 c13c 99fd a93d c873 3ebd
000003f0: bd98 b0bd af99 6d3d 805d dfbd 4851 993d
0.012909182 0.06300879 0.056537166 0.050847556 -0.09474161 0.11309417 0.03873581 0.0011675358
0.043043885 0.11075966 0.040984776 -0.050984047 0.117830105 0.049820267 0.041708242 -0.009060408
-0.04843159 -0.03690411 0.12129807 0.05167144 0.14386797 0.11808036 -0.03505194 0.03240841
0.08677397 -0.06881812 0.090682216 -0.012542845 0.10101455 -0.13691586 0.07203365 0.020680351
-0.071408056 0.020525776 -0.03949479 -0.09274821 0.020179272 0.07224068 0.104784824 0.05909325
0.07810916 -0.08852771 -0.09356851 0.038153373 -0.03642148 0.12674733 0.005548502 0.12114108
-0.15309481 0.051735476 -0.077426724 0.032024175 -0.030673018 -0.003188406 -0.00088735425 0.025604596
0.09332662 0.006355063 0.08229056 -0.09356128 -0.019507766 0.073859 -0.13609715 0.14016601
0.06752222 0.049703438 -0.028805772 0.031059414 -0.13399777 0.01796361 -0.037195012 -0.028484909
-0.06338149 -0.14615892 -0.14628755 -0.13395363 -0.059827648 -0.050342496 -0.03179013 -0.002877559
-0.11449606 -0.022664698 0.07998975 -0.025188869 0.065697335 -0.1369999 0.054432027 -0.0097467825
-0.15453593 -0.057346866 -0.031269062 0.027320124 -0.13459204 0.04355253 -0.070009105 0.048393197
-0.030927159 -0.1363581 -0.13017744 -0.007508666 -0.12045293 0.07129935 0.08191489 -0.016200358
-0.11424206 0.013758468 0.059026793 -0.019727329 -0.08436641 0.02829399 0.03327193 -0.10437111
-0.13594747 -0.16066518 -0.026403781 -0.02838157 0.047089588 0.007845327 0.01685842 -0.044255383
-0.15821344 -0.019110084 0.0397627 0.057024717 -0.010036431 -0.1293767 0.022602737 -0.00030030918
-0.05046459 -0.061733663 0.033427607 -0.025364818 -0.084857 -0.09881135 0.10242197 -0.027151935
0.0024673557 -0.029628247 -0.023796348 -0.067529246 0.10883256 -0.09281294 -0.017370706 -0.0336715
0.004558124 0.11071283 0.010603348 0.027335368 0.110604 -0.108151734 0.0019141551 -0.12586638
0.11034594 -0.092815064 -0.12576346 -0.03147004 0.089672215 0.0016345958 -0.038359933 0.11425924
-0.079684414 -0.03117925 0.07977757 -0.06920837 -0.10632995 -0.1255761 -0.05738492 0.07010663
-0.10623867 0.03954528 0.08828902 -0.104605556 -0.032340594 0.021838201 0.13836367 -0.10408418
-0.011829027 -0.06540021 0.045091286 -0.04738015 0.055095427 0.08287081 -0.09272644 0.08524204
0.07851351 0.062673725 -0.045494653 -0.1413002 -0.0019205284 -0.12506548 0.045625683 0.019148104
0.07455729 0.0015093123 0.009786784 0.026716735 -0.063979775 -0.00022214268 -0.045910195 0.12345764
-0.071034096 -0.026302895 0.0724109 -0.041760575 0.041340176 0.011037631 -0.033906385 -0.07197605
-0.038732152 -0.015262035 0.046342388 0.054655258 0.11368714 0.091926485 0.037702084 0.102437645
-0.09958365 0.07435367 -0.01937618 -0.042765323 -0.052096963 -0.10683625 -0.05029215 -0.058651786
0.08591419 -0.08112184 -0.034733858 0.0032659273 0.02627641 0.020852627 -0.11310006 -0.08138983
0.04222624 -0.065624654 -0.050397243 0.13042866 0.03317715 -0.049806327 0.010256668 -0.08478887
0.05749167 0.022506906 -0.0021823023 0.029747771 0.07532524 0.080934376 -0.041941915 0.04481705
-0.05240621 0.023582641 0.08300323 -0.046497136 -0.086228825 0.058007892 -0.109065056 0.07486206

bias_hh_l0 f4 [256]
00000000: 713a a6bd 32c5 3ebd 338b 1e3e ce37 adbc
00000010: 5d5e 86bd 25e9 a13d 2fd9 cb3d 58fe 1b3e
00000020: 157d 85bd a2a7 f63d 9984 0abd f683 ea3c
00000030: ff0d cdbc 4d1a 5b3d dea3 c53d 7abe ac3d
00000040: be92 e7bd 608b 883d 14cd c1bd e1e6 42bb
00000050: b4d6 c73d e25e 88bc c4cb ef3d 7ee8 fcbc
00000060: 0fbd d23d c7f6 fc3d fc74 b1bd d07a 053e
00000070: b6f2 103d 1fdb edbd b26b c73d c761 9f3d
00000080: 38d4 f6bc 76ea f63d 76a6 91bd 60e8 9dbd
00000090: 0a51 ba3d 2321 14be b544 0a3e d3bf a1bb
000000a0: 66b5 2fbd deaa a83d 1209 5a3d 2474 97bd
000000b0: 756d 093d 1204 ab3d 295a cb3d fa5d a03c
000000c0: 35f9 babd 068d 1fbd c432 133e 81d1 bd3d
000000d0: 677e bd3d 9def ce3d a445 773d a0c7 6f3e
000000e0: e5c4 f9bd 8a09 0fbd 2a49 90bd 51c0 9b3c
000000f0: 5f52 07be 0d36 19bc 3809 df3c a6a3 e93d
00000100: e2eb 04bc 7b18 9fbd 7693 863c 6e98 b63d
00000110: a1ed 0abe e4aa 6abd a132 cabd 8948 b2bd
00000120: 35eb 8a3d 6fa5 11be a840 763d 29f8 2abd
00000130: 465e 0fbd eb24 8b3c 1d5e f6bd 6ede 31bb
00000140: b229 af3c 8c42 383d cc84 efbd 0b44 61bd
00000150: 0ae0 c83c f539 3bbe f835 f2bd c80b bebd
00000160: 4ad5 b6bd d5fc 623c b7a7 6bbd dff1 493d
00000170: 6b56 20be 2bfc f8bd 4c4a 3b3c a48a 2a3d
00000180: 3b78 91bc ecf5 e9bd 2904 d13c 1bb7 35bd
00000190: bbac 3a3d 5ad0 cdbd 67ff 0bbd 8510 47bd
000001a0: bca7 91bd 6350 bf3c 9006 44bd 7cd3 5dbd
000001b0: 4b53 debd 58c7 9dbb 0e92 cabd e574 6bbd
000001c0: 0769 a43d 07f7 0d3d 811e d6bd 7aa1 9a3c
000001d0: 8fcd c6bd 0d9a e5bd c4df 92bd 6619 2f3c
000001e0: 96cf c1bd ed36 07bc bb62 543c 1821 7ebd
000001f0: 30bd 72bd 192f c0bd 3dea b2bc 8cff 2ebe
00000200: 6564 d6bc e23b dd3d f71d 1b3d 0c63 fbbc
00000210: c204 0abe 48d0 5ebd 8063 a4bd 7ef5 01be
00000220: 288a 57bd d0ee be3d 8d8e ca3c a5dd 63bd
00000230: 9e17 653c f0de 5e3d 36e6 5fbc f26c 63bd
00000240: 2f8c 483d ba4e 853d b5f2 02bd 73a2 383d
00000250: 1dd1 21bd 85a5 573d 56df f0bc e887 143d
00000260: 96bf 503d 376b e73d f074 863d fd3d ca3c
00000270: e4ae 503d 9917 123d 9051 56bd 23e7 c23d
00000280: 0527 fabd 09cf ea3c 52a6 903d 3ce8 11bd
00000290: 988c eebc 7cbf bcbd cc3f babd d553 063e
000002a0: 0798 d73d a918 9b3d d3d1 a0bd 28c0 bd3d
000002b0: 9035 22bc ea5a 993d 9472 443d b9ef c4bc
000002c0: 6f14 fc3c a6ff eabd 98a6 b33d 2663 b93d
000002d0: ee5c 8dbd f196 f4bc a2b8 d3bd 15e9 c8bd
000002e0: 68c1 253c c652 f0bd eb38 273d 2807 1dbb
000002f0: ee12 e63d ff2c 60bd bc18 f0bd a669 babc
00000300: bd67 c3bd 6421 babd 2414 a43d 2bc9 16bd
00000310: 744d 423d be8c e1bd 1469 6cbd 2a3e ec3d
00000320: 1a24 9f3a d710 9cbd 21e3 87bd 36d0 d73d
00000330: 4f44 703c 41c1 61bd 22d8 b2bd e5f3 ab3d
00000340: defd 473d 5cbd 68b9 dfe2 98bd 803a adbd
00000350: b384 be3d 23a3 6c3c 6dd1 aabb 286b 4bbd
00000360: 4185 ad3d a920 233d 775c b7bc e467 d1bd
00000370: bdaa 01be 86dc 75bd 2f57 ccbc c46c 193d
00000380: b03c cebd bef3 ce3d f1b2 fc3c 58d5 e8bd
00000390: 6fa6 323d c9c5 8fbd 8f8a a23c 249b 863d
000003a0: df45 b53d 8680 a8bd 76f8 173d a8ea 7c3d
000003b0: 6e97 d53d e0c7 eb3d 0f95 b53d 1eb0 373d
000003c0: 459e 463d 7e57 a03d 7bf6 6cbb bc2d bd3d
000003d0: 9ae8 fc3d f4b8 f9bd 7598 a3bd 781a c23c
000003e0: a496 a7bd 2518 0a3c 29b2 97bd a7bf d13b
000003f0: 1091 823d 72b3 82bd 5539 23bc 6397 8ebc
-0.081166156 -0.04657478 0.15482788 -0.021144774 -0.06560967 0.07905797 0.09953534 0.15233743
-0.06517998 0.12043692 -0.03381786 0.028627377 -0.025031088 0.05349188 0.09650396 0.08434768
-0.11307286 0.06667209 -0.09462944 -0.0029739665 0.09757748 -0.016646806 0.11708787 -0.03087258
0.10289966 0.123517565 -0.08664891 0.1303513 0.035387717 -0.1161406 0.09737338 0.077823214
-0.03013049 0.120564386 -0.07111828 -0.07710338 0.09097488 -0.14465766 0.13502772 -0.0049361973
-0.042897604 0.08235715 0.053231306 -0.07395199 0.033551652 0.08350386 0.09929306 0.019576062
-0.09129564 -0.03895285 0.14374834 0.09268475 0.09252625 0.10104296 0.06036915 0.23415995
-0.12195758 -0.034921207 -0.07045205 0.019012602 -0.13215016 -0.009351266 0.027226076 0.114081666
-0.0081128795 -0.07768341 0.016427737 0.089157924 -0.1356721 -0.05729188 -0.09872938 -0.08705241
0.067831434 -0.14223264 0.060120255 -0.04174057 -0.035002016 0.016985377 -0.120296694 -0.0027140635
0.021382187 0.04498534 -0.11695251 -0.05499653 0.024520893 -0.18283828 -0.118267 -0.09279591
-0.089274004 0.013854225 -0.057532992 0.049302932 -0.15657966 -0.12157472 0.011431288 0.041636124
-0.017757526 -0.11423859 0.025514679 -0.044364076 0.045574885 -0.100495055 -0.034179118 -0.04859974
-0.07112071 0.023353761 -0.04785782 -0.054156765 -0.108557306 -0.0048150234 -0.09891139 -0.057484526
0.08027845 0.03465941 -0.10455037 0.018875826 -0.09707176 -0.112110235 -0.07171586 0.010687208
-0.09463422 -0.008252841 0.012962992 -0.06204328 -0.059262455 -0.09383983 -0.02184021 -0.17089671
-0.026170919 0.10802437 0.037870374 -0.030686878 -0.13478377 -0.05439785 -0.080267906 -0.12691304
-0.05262199 0.093228936 0.024726177 -0.0556313 0.013982682 0.05441183 -0.013665726 -0.05552382
0.048961814 0.065091565 -0.031969745 0.0450768 -0.039506067 0.052648086 -0.02940337 0.036262423
0.05096396 0.112997465 0.06565273 0.024687761 0.05094804 0.035667036 -0.052323878 0.09516742
-0.12214474 0.028663175 0.07062973 -0.035621867 -0.029119775 -0.0921621 -0.090941995 0.13117917
0.10527044 0.07573063 -0.07852521 0.092651665 -0.009900466 0.074880436 0.047960833 -0.02404009
0.030771462 -0.11474542 0.087720096 0.09052114 -0.069024906 -0.02985713 -0.1033795 -0.09810082
0.010116912 -0.11734538 0.040825766 -0.0023960564 0.11234079 -0.05473041 -0.11723468 -0.022755455
-0.09541271 -0.090884 0.08011654 -0.036812942 0.047437146 -0.110131726 -0.057717398 0.11535294
0.0012141496 -0.076203994 -0.06635118 0.1053776 0.014664724 -0.055115942 -0.0873263 0.083961286
0.04882609 -0.00022195786 -0.07465147 -0.084584236 0.09302654 0.014443192 -0.005212954 -0.04966274
0.08472682 0.03982607 -0.022382958 -0.10224894 -0.12662788 -0.06002476 -0.024943916 0.037457243
-0.10070169 0.10105084 0.030847045 -0.11368817 0.043615755 -0.070201464 0.01984146 0.065725595
0.088512175 -0.08227639 0.037102185 0.061747223 0.104292735 0.115127325 0.08866321 0.044845693
0.04849078 0.07829188 -0.0036157656 0.09237239 0.12349053 -0.1219348 -0.07988063 0.023694262
-0.08183029 0.008428608 -0.07407028 0.0064010206 0.06375325 -0.06381883 -0.0099623995 -0.017406171

weight f4 [1, 64]
00000000: c96a 8f3d b4b3 36bd be29 10be b9c1 073e
00000010: 23bc 7d3d 64b1 b73d d61d afbd ca7b a33d
00000020: b020 ef3d 5b6c 083e ae42 ca3d 3a09 093d
00000030: ffac 32bd 0643 903d c24a c7bd 5aef cbbd
00000040: 09c8 7d3d 4462 e93c 4e54 913d a799 b83d
00000050: ebce efbd 09f0 dabd 4647 06be 7b07 b13d
00000060: d052 ba3d 22dc dabb 6ad3 c63a 5b5a 56bd
00000070: b0b9 e6bc 163b a63d 95f2 05be fd7c 6cbd
00000080: d6af bb3d c210 fcbc 8525 933d d7c7 b53d
00000090: 3fc4 b83c 54ea f6bc c227 2a3d 1d54 74bd
000000a0: e2d1 ecbd b73e 23bd 1ecd 063e 8860 9e3d
000000b0: f07e 8f3d 00f1 00be 6bca e7bd 06c6 5c3d
000000c0: d92e 8abd 060f ebbc eb6e e9bd 7dd0 30bd
000000d0: 5855 90bd 2cb5 783d ae12 94bd 5ca4 a73d
000000e0: f519 163d 0c06 adbc 994b f13d 4bf9 a43d
000000f0: 2af5 c63d 6f42 ed3c 01c3 63bd c889 d3bd
0.070027895 -0.044604972 -0.14078423 0.13257493 0.061947 0.089693815 -0.08550613 0.07982595
0.116761565 0.13322584 0.098759994 0.033456065 -0.043622013 0.07044034 -0.09731056 -0.09957762
0.061958347 0.02848924 0.07096158 0.09013682 -0.11709388 -0.10690314 -0.13113126 0.08644005
0.090978265 -0.006679074 0.0015169207 -0.052332263 -0.028164715 0.081167385 -0.13080819 -0.057736386
0.091643974 -0.03076971 0.07184891 0.08876007 0.022554515 -0.030141033 0.041541822 -0.05965053
-0.115634695 -0.03985473 0.13164183 0.077332556 0.07006633 -0.12591934 -0.11317905 0.053899787
-0.06747217 -0.028693687 -0.11398109 -0.04316758 -0.07047528 0.060719654 -0.07230125 0.08185646
0.03664585 -0.021121047 0.11781997 0.08055361 0.0971473 0.028962342 -0.055605892 -0.10329014
