model/4318.49557137668_weight.pth (torch, 90447 bytes, 7 tensors)

weight f4 [16, 32, 1]
00000000: 4339 4bbe 11ee 08be d1cf 68be e95c ec3d
00000010: bd22 a73c 1685 103e a15d 97bc 21fb 4d3e
00000020: d76f b43d 9252 323b 5d37 c5bd a4b5 91bd
00000030: 98c9 c43d 326b e4bd 906c b23d fb5f 08be
00000040: 6987 df3c 4782 15bc 068d 913d 8b6e 99bd
00000050: 25ef 163d 0625 8f3d 57e5 e5bd 259e c2bd
00000060: 7c18 8abd 9e0a ea3d 6a9f b8bd 9e7d 533e
00000070: 9b74 e6bd 1469 b4bd 6aa9 eb3d da94 23be
00000080: 8651 923e c00c b73d e50c 8a3c 99a2 e3bd
00000090: 8e55 f03d 4c97 19bc f654 1d3e 9268 f5bd
000000a0: 07aa 383e d248 e3bd 23fa 52bd e7cf f8bd
000000b0: b375 acbd 68f5 62bc 903c 0a3b 6553 26be
000000c0: 57a7 66be d33d 56be 4475 babd 7251 bf3d
000000d0: eaa8 273e aee4 5cbd f2a7 95bd ca06 9d3d
000000e0: b152 ac3d 5e26 fb3c 152d 9abd 73c1 773b
000000f0: 88ea 0dbe ab6f 9cbd e353 003b 4548 293e
00000100: ef29 453e e340 373e 045d c8bc 4fd0 a0bd
00000110: b31b ed3d 8623 c0bd d0f1 e13c 2b20 b9bd
00000120: 6769 8b3d e50b 34be ca74 91bd 5438 183e
00000130: a7f2 21bd a811 863c 42ef 32be c513 1bbe
00000140: 7a93 27bd bf6a 213d d3ad ccbd acab 323d
00000150: 1d1a 313e 5570 adbd 6e31 cdbd b6d7 56bd
00000160: 9024 573d fbd0 d1bd cf43 913a ff1f 23be
00000170: f8c8 bf3d 764d 3ebd 0596 923d 83c8 9dbd
00000180: 3e58 58be ac7d 83be fb19 d3bd c7b6 1dbe
00000190: 59e4 14be b7f4 13be b30a a43d 2e15 c5bd
000001a0: ce08 c5bd 2e2a 3abe acd6 853d d611 f2bd
000001b0: 25d5 b6bd 49c4 0f3d 01b0 2abe 408a 43be
000001c0: ccf5 ae3b 6e11 febd 608c bc3d c044 d33d
000001d0: 66de 2bbe 653b 35be fb12 10be c442 383e
000001e0: d8db fe3d 769b e9bd 2350 e53d e720 1f3e
000001f0: 092d 46be 1de5 6e3c 7ad8 d4bd 8892 3cbe
00000200: 5295 623d 1156 dbbd b1e8 88bb 8af6 34be
00000210: b755 e93d dcf8 02bd 7f70 11be 6608 23be
00000220: f55a f2bd 2d48 d63d 44d6 0fbe dca9 13be
00000230: fec3 bcbc 4165 07be 7a7f 45be b15c aabd
00000240: 24a2 973d 5060 0cbe 9614 763e 0227 5a3d
00000250: 53c1 65be cbfc 053d d220 6ebd 9de4 fabd
00000260: 51f4 82bd 271e a03d 7d00 eb3d 69c3 b73d
00000270: 8ffe 19bd d2f2 a0bd e255 3abe 698b 07be
00000280: e2c6 7abe 9556 37be 5993 2cbe dd17 bcbd
00000290: 262c bb3d 1f23 10be adc5 4dbc 4c56 a7bd
000002a0: 3ed8 0a3e 8daa eb3d dd49 33bc 7188 723d
000002b0: 0643 843d 552f ef3d ef44 38be e89b cb3d
000002c0: 10ef 9abc 0cd6 1dbe 3d91 1cbe feae 063e
000002d0: 0ea3 29be 83ba 673c c681 0a3e 8f94 78bd
000002e0: ca09 cc3c 5e35 323d ea64 eebd a7be d13d
000002f0: ce49 67bd 988e e43c 2609 99bc c832 0d3e
00000300: 3d41 09be 4564 53be 651e 1dbe 4229 10be
00000310: 4c66 18bd 92e1 193d 5ec1 c93c 5082 cd3d
00000320: 81e1 acbd 7120 bdbd 3229 8a3d 312f 40bc
00000330: 83fc f9bd d3a1 a83d 0989 693c 99dc 0ebe
00000340: 5560 183e d5da c33c 724b 883d 5959 72bb
00000350: 0a2e f03d 6564 153e 4e79 00bd 1ed1 94bd
00000360: 6d6f 023e b9ed ec3c 87fb 45bd 325a 323d
00000370: df53 04be 51ca 4fbd 4fdf b53d 6d8f 9cbd
00000380: a59b 113e dbf9 793e 7b55 823e f295 ed3d
00000390: 24f7 26bd e548 243d 807f ff3d 5f7d b73d
000003a0: 5c0b a8bd 8780 e6bd 8fee 0dbe d7c5 3a3e
000003b0: c69c 203e adf1 4ebd 0d8b 333d 86a9 febd
000003c0: 1de1 ec3d e9ab f0bd 1716 dfbd 923f e0bc
000003d0: 6ffc cb3c 7448 02bd 611b 7cbd 64b8 3d3d
000003e0: 897a 483d 7c97 3f3e e6b3 c5bd c299 a63d
000003f0: 2dc9 bb3d 33e8 903d 2895 02be fb0c d63c
-0.19846062 -0.13372065 -0.22735526 0.11541159 0.020402307 0.14113268 -0.018477263 0.2011533
0.08810394 0.002720986 -0.096297 -0.07114723 0.096087635 -0.111532584 0.08712113 -0.13317864
0.027286248 -0.009125299 0.07106976 -0.074917875 0.03684916 0.069894835 -0.11225384 -0.0950282
-0.06742951 0.11427806 -0.09014781 0.20653388 -0.112527095 -0.088091046 0.115069225 -0.15974751
0.28577822 0.08937979 0.016851852 -0.111149974 0.11735068 -0.009374451 0.15364441 -0.11982836
0.1803361 -0.11097874 -0.05150808 -0.12149029 -0.08420887 -0.013852455 0.0021093227 -0.1624275
-0.22524773 -0.20922022 -0.09104398 0.09341706 0.1637303 -0.053929023 -0.07307424 0.076673105
0.0841421 0.030657943 -0.0752813 0.0037804514 -0.13858998 -0.076384865 0.001958125 0.16531475
0.19254278 0.17895846 -0.024458416 -0.07852232 0.11577549 -0.093817756 0.027581125 -0.09039339
0.06807213 -0.17582662 -0.07102354 0.14865237 -0.039538052 0.016365841 -0.17474082 -0.1514426
-0.04091213 0.03940844 -0.09994092 0.04362075 0.17295118 -0.08468691 -0.100191936 -0.05245181
0.052525103 -0.10244938 0.0011082831 -0.15930174 0.093645036 -0.04646059 0.0715752 -0.0770426
-0.21127412 -0.25681818 -0.1030769 -0.15401755 -0.14540233 -0.1444882 0.08009853 -0.0962318
-0.0962082 -0.18180153 0.06535086 -0.11819808 -0.08927373 0.0350993 -0.16668703 -0.19095707
0.00533936 -0.12405668 0.09206462 0.103158474 -0.16784057 -0.17698438 -0.1406974 0.17994219
0.124442756 -0.11406605 0.111969255 0.15539895 -0.19353117 0.014580992 -0.10392852 -0.18415272
0.055318184 -0.10709775 -0.0041781296 -0.17672172 0.11393302 -0.031975612 -0.1420307 -0.15921172
-0.11833755 0.10462985 -0.1404658 -0.14420265 -0.023042675 -0.13222219 -0.1928691 -0.08318461
0.07403973 -0.13708615 0.2403129 0.053259857 -0.22437029 0.032711785 -0.05813677 -0.12250636
-0.06394256 0.07818251 0.114747025 0.089728184 -0.03759628 -0.07858814 -0.18196824 -0.13236775
-0.2448993 -0.17904122 -0.16853084 -0.09184239 0.0913928 -0.14075898 -0.012559337 -0.08170757
0.13559052 0.11507139 -0.010942903 0.059212152 0.06458096 0.1167895 -0.17995046 0.09941846
-0.018912822 -0.15413684 -0.15289779 0.13152692 -0.16566107 0.014143589 0.13526067 -0.06068855
0.024907012 0.043507926 -0.116403416 0.10241442 -0.05646687 0.027900025 -0.01868112 0.13788903
-0.13403793 -0.20643719 -0.15343626 -0.14078239 -0.037206933 0.037568636 0.024628337 0.10034621
-0.08441449 -0.09234703 0.06746139 -0.011730001 -0.12206366 0.082339905 0.014253863 -0.13951339
0.14880498 0.023908058 0.06655015 -0.0036979525 0.11727531 0.14589079 -0.031365685 -0.072664484
0.12737818 0.028921949 -0.04833558 0.04354305 -0.1292262 -0.050730053 0.08880483 -0.07644544
0.1421953 0.24411719 0.2545584 0.116008654 -0.040763035 0.04010858 0.124754906 0.089594595
-0.08205292 -0.112549834 -0.13860534 0.18239532 0.15684804 -0.05052345 0.04383378 -0.12434678
0.115663745 -0.11751539 -0.10892885 -0.027374063 0.024900643 -0.031807378 -0.061549548 0.046318427
0.048944984 0.1871013 -0.096534535 0.08134796 0.091692306 0.070755385 -0.12752211 0.026129236

bias f4 [16]
00000000: 6cfd 533d 7c92 c63d 07d3 fabd b368 dfbd
00000010: 4236 c1bd c2c4 66bd f15c 09bd dfc6 1e3e
00000020: c6dc 29be 2ed8 ed3d 6383 693c 0b50 68bd
00000030: 7f7d 353e f28c 2ebc c0b0 f8bd 19a8 1a3d
0.051755354 0.096959084 -0.122472815 -0.10908642 -0.09434177 -0.056339987 -0.0335359 0.15505551
-0.16588125 0.11613499 0.014252516 -0.05671696 0.17723654 -0.010653721 -0.121430874 0.037757967

weight_ih_l0 f4 [256, 16]
00000000: 841f 873d 35f0 cf3d f300 16be 33cb e63c
00000010: 07a5 ec3c 939c d0bb d509 94bd 8d5f a6bd
00000020: ef1c 9b3d 9605 6a3e 06bd 99bd 0a7d 85bd
00000030: 53dc 2d3d 73e1 9a3d 70ce 7e3d 104a 0cbd
00000040: aa06 07be f1ef 5f3c 05ed eb3c cbe6 ffbc
00000050: 5788 a43c 79be a53d 9b69 e6bd 7441 51bd
00000060: 16fc 443d 3975 18be 5bf7 393d 3860 1a3e
00000070: 0ca5 7dbd 186d 253d de6c 61bd 47b2 493d
00000080: 925b 113e 50cf 203d 93ec a53c 9a41 653d
00000090: 19dc 303d 63f6 873c a89e 263e e384 01be
000000a0: e484 c5bd c02c 063e e45f dbbd e1a5 033d
000000b0: c962 10bd e5e4 b3bd 8dea dcbc 4dcb f3bd
000000c0: 5ec4 76bc feba 2bbe 8838 b1bd a391 f93d
000000d0: 459e a23d 4e0e 7b3e adac c8bd 1f47 bbbc
000000e0: 889e edbd 72e7 663e be0b 28be e7c8 1a3d
000000f0: 74b0 483c 3a78 bc3d b25b 36bc 75d2 2bbd
00000100: 172d 0a3d 208d cebd d656 d4bd 198b 6b3d
00000110: 68c9 053e 60e8 4a3e e755 2c3e 6eaa 08be
00000120: bf45 eebb 9c97 623d 1948 fabd 5491 6c3c
00000130: e226 d8bc aee6 f63d a4f9 09be f21d 82bd
00000140: 871e bf3d ba7f b5bc 42c9 ccbd 3ff1 143e
00000150: d40e c03d de99 0a3e 8844 2a3e a3a6 0fbd
00000160: dd75 27be d43a 433e 50e9 c2bd acb6 60be
00000170: 15a1 db3d e36b 95bd c703 9fbc d368 e5bd
00000180: 1615 1c3d b084 40bd f017 44bc 6b89 b1bd
00000190: 3b6b 80bd e0a2 733c 1e41 94bd aa62 b7bd
000001a0: d819 543d 04fd 233e 2c80 b5ba b85d 683d
000001b0: 5b89 a93c 6f1d b63d 9301 00bd 505a 893d
000001c0: 41db a8bd d1aa 8abd 56f2 013c 2342 b0bd
000001d0: c1e5 e6bc 8426 c53d aab0 0f3b f465 a93c
000001e0: 470c 2abd a564 a3bc 92b0 72bd d984 e43d
000001f0: 0873 b7bb 8751 00bd d38f 5d3d 93ef c6bc
00000200: a034 533c 1807 863d 02a4 49bd ddb7 f5b9
00000210: 6e29 a2bc fec4 0c3e a973 ae3d 7e4a f2bd
00000220: b585 32bd 287a 6b3d 2d02 41be 1e1f 1c3e
00000230: cd63 143e dc5e 083e b125 d9bc 13eb d3bc
00000240: 5f04 d33d e821 ea3c d24d 223d 495c 093e
00000250: bca3 a43d f5b4 893e 783a 50bd 00d7 71bc
00000260: ec14 98bd 0543 73bc 6d2b 4bbe 549b 103e
00000270: abbb 143e acae a33d fc7d a93c 6700 663c
00000280: b429 50bd 00eb cdbc f86b 1d3d 17a6 eb3d
00000290: 6f82 01bd c99e 803c 8f1d f1ba 2252 0abe
000002a0: bf87 a73c e9b6 863c bcc1 a0bd 9ad4 03be
000002b0: 471a f73d 372c 5fbb 6b08 793d 967c c8bd
000002c0: 717e 87ba 8d2a 493b daed 0dbc e2f8 e9bb
000002d0: 67c2 103e 5b0a 1e3e a061 eebc afed 29be
000002e0: b448 efbd ab3d 213e 0fbe 393c c0db a4bd
000002f0: e3b2 393d 2ab5 7f3d 850c 54bd abbd 68bc
00000300: ae08 303e d6f7 713c 4c7a c8bd 62d9 f9bc
00000310: 1854 82bd 3ebd 003e f2a3 323e 5267 17be
00000320: 2e44 8ebd fba2 333e 2e83 d7bc 9bef 8b3d
00000330: 8c7b 3dbd c202 083e ef38 e6bd 331d ff3c
00000340: 53e1 bd3c f69e d6bd 8a86 55be a72c 633e
00000350: bf0d 303e 279d a53d 29a0 4a3d 8eb6 ddbd
00000360: b69c e33c a154 d1bd c3fb 9abd 3716 8e3e
00000370: 20e4 1a3d 5de1 473e 2091 c53b 07f3 97bd
00000380: 63b7 1cbd 2f1d 903d f441 1fbe c792 f83d
00000390: db40 0dbd f5d2 9e3d 533b 133e 1b40 bbbd
000003a0: bc59 62bd 4d8d 2e3e c455 e1bc ff3d cebd
000003b0: a3ab ee3b 8523 83bc f22b 53bd 473f 4d3a
000003c0: 9adc 6dbd 9fab fcbd 4dfd 95bc 32f9 66bd
000003d0: 5b34 bc3d 8eea 62bc e4b0 8e3c c7f8 13be
000003e0: 7b98 23bb 4c23 f23d 1d73 0f3d 10a6 a63d
000003f0: 69b8 f03d f9e5 9e3d 08bf 093a 0b22 683d
0.06597808 0.10153238 -0.146488 0.028173065 0.028887285 -0.0063663214 -0.07228438 -0.081236936
0.07573878 0.22853693 -0.075067565 -0.0651799 0.042446446 0.07562532 0.062208593 -0.03425032
-0.13186136 0.013668046 0.028799543 -0.03123798 0.020084543 0.080929704 -0.112506114 -0.05108781
0.04809197 -0.14888467 0.045401912 0.15075767 -0.06192498 0.040387243 -0.055035464 0.049242284
0.14195088 0.03926021 0.020254409 0.055970766 0.04317865 0.016596979 0.1627146 -0.12648349
-0.096444875 0.13103008 -0.10711649 0.032140616 -0.03525046 -0.087838925 -0.026967311 -0.11904011
-0.015061466 -0.1677055 -0.086533606 0.12185981 0.07940344 0.24517176 -0.0979856 -0.022861062
-0.11602503 0.22549227 -0.1641073 0.03778925 0.012249101 0.09202619 -0.01113026 -0.041948754
0.033734407 -0.10085511 -0.10368125 0.0575057 0.13065112 0.19815207 0.16829644 -0.13346264
-0.007271498 0.055320367 -0.12220783 0.014438946 -0.026385728 0.120557174 -0.13474137 -0.06353368
0.093319945 -0.022155631 -0.099993244 0.14545153 0.09377828 0.13535258 0.16627705 -0.035071027
-0.16353555 0.1906541 -0.09517157 -0.21944684 0.10724083 -0.072959684 -0.01941098 -0.11201634
0.038106047 -0.04700154 -0.011968598 -0.086687885 -0.062704526 0.014870375 -0.072389826 -0.089543656
0.05178246 0.16014487 -0.0013847402 0.056730002 0.020695379 0.08892333 -0.0312515 0.06706679
-0.08244944 -0.06770862 0.007931313 -0.086063646 -0.028185727 0.09626487 0.0021925368 0.020678498
-0.041515615 -0.019945452 -0.05925042 0.11158151 -0.0055984296 -0.03132775 0.05409224 -0.02428416
0.012890965 0.06544322 -0.049228676 -0.0004686703 -0.019795146 0.13747022 0.08518154 -0.118306145
-0.043584544 0.057489544 -0.18848486 0.15246245 0.14491196 0.13317436 -0.02650723 -0.025868928
0.10303568 0.02858062 0.039624996 0.1341411 0.08039042 0.26895872 -0.05083701 -0.014760733
-0.074258655 -0.014847522 -0.19840784 0.14121753 0.14524715 0.079923004 0.020689957 0.014038182
-0.05082102 -0.02513647 0.038433045 0.115062885 -0.03161853 0.015700715 -0.001839565 -0.13507894
0.020450471 0.01644464 -0.07849452 -0.1287407 0.12065559 -0.0034053454 0.060799044 -0.09789388
-0.0010337365 0.0030695528 -0.008662665 -0.007140265 0.14136659 0.15433638 -0.029099286 -0.16594575
-0.11683789 0.1574618 0.011336817 -0.080497265 0.045336615 0.06242863 -0.051769752 -0.014205377
0.17190811 0.014768561 -0.09788951 -0.030499164 -0.06363696 0.1257219 0.17445353 -0.14785507
-0.06946598 0.17542641 -0.026307669 0.068328105 -0.0462604 0.13282302 -0.11241328 0.031141853
0.023178732 -0.10479538 -0.20852104 0.22185002 0.17192744 0.08086615 0.049469147 -0.10825835
0.027784687 -0.1022122 -0.07567551 0.27751324 0.037815213 0.19519563 0.006029263 -0.07419401
-0.03826083 0.07036816 -0.15552503 0.121373706 -0.03448568 0.077550806 0.14378099 -0.091430865
-0.05526136 0.1704609 -0.027506717 -0.100704186 0.0072836443 -0.016008148 -0.05155558 0.00078295585
-0.05807171 -0.123374216 -0.01830926 -0.056389995 0.091896735 -0.0138498675 0.017418332 -0.1445037
-0.0024962712 0.118231386 0.03502189 0.08137143 0.117539234 0.077587076 0.0005254601 0.05667309

weight_hh_l0 f4 [256, 64]
00000000: 98c9 aabc ea58 793d 82d5 b8bc a7ec 983a
00000010: 1038 3bbd 0964 a53d 192e 50bd 849d 3cbd
00000020: b4e6 9ebd 2726 09be e0da 70bc a1f3 ae3d
00000030: 32cb 84bd eccf 73bb 0cda 3d3d c339 22bd
00000040: 3f17 ff3d 9fb6 a6bd fd4e cd3d 46c7 ae3d
00000050: 872f 49bd cc13 f0bd 6249 943d befd a53d
00000060: b669 edbd fa41 123e 6342 2d3d 15c9 3b3d
00000070: 029e 7f3d a901 e03c df1e 8dbd 02d4 8abd
00000080: df00 a0bd d0fe aa3d c702 31bd a754 d43c
00000090: a91e 993d d6e4 c93d a265 d0bd a007 60bd
000000a0: 2f3f 9f3d a9c5 f63c 9e13 8f3c c0b9 b4bd
000000b0: 10e4 9bbd cc9c 98bd caf1 ff3c f1af 4b3d
000000c0: 6e2c 88ba 43fb 3f3c cc05 df3d b22d 253e
000000d0: c628 f2bc 8988 04be 832f 8bbd 1c1a acbb
000000e0: cb0a 9d3d da7d 1dbc 0c11 143a 3b18 f93b
000000f0: f7cc 733c b4f3 673d 468e 8cbd 179e 7b3d
00000100: 8016 9dbd 05d6 f73d 894a 0cbe 9389 0e3e
00000110: b91b 0d3b e8dc a7bd 604d 3c3d 88ce d9bd
00000120: 89ef 8dbc e1c4 d03c 8bef 103c 0b1a cfbc
00000130: b41c 2fbc 93c3 67bd 29bc 733c a503 93bb
00000140: 14d1 bb3d 8ecc 8a3d c831 f8bd cab6 0d3e
00000150: abc4 ee3c 3cc3 593d c3b2 c63d 4882 10bd
00000160: ebd4 e1bc 242c db3c f1e6 e0bd 98fc 4dbd
00000170: 3e98 69bd 883c c0bd fe34 10be 1455 763d
00000180: 7053 c7bd 00a4 6b3d 9079 a83d d00e dcbd
00000190: a8b4 a33b 0fab 073d 3aa3 7f3d 6036 843d
000001a0: fd94 d8bc 7132 003e d0a8 0d3d b2ba 1cbe
000001b0: 273a a93d f3c8 75bd 800e 83bd b31d 36bd
000001c0: ff94 40bd bf03 8abc f655 2ebd 2b29 cd3b
000001d0: e193 a23b b3d7 7d3d 371d 2a3c 8041 dbbd
000001e0: d636 a93d 2684 2ebd 4ee3 20be ed03 463d
000001f0: 42fa 8b3d aafd 8f3d 8a54 8ebd 36b5 9abc
00000200: dd15 1bbc eda9 3b3d dccd a13c 31f6 eebc
00000210: e689 073e 36c2 d639 4b48 79bc acd5 903d
00000220: a50c a4bd c5f4 b43d 32bb 0c3e 8ae4 483c
00000230: f69d 8dbd 6036 e1bd 20ab ffbd 08f3 4b3d
00000240: 86b6 f7bc a7f0 ba3d 12aa 57bd 590d c4bc
00000250: 4958 9abd 4038 673d 20d6 c3bc 9dd0 dabd
00000260: 4ad3 31be fdfa b83d d806 eabd 2dff cf3d
00000270: ee17 68bc 09bd aabd 85ff a23d 294d 21bd
00000280: ba82 cbbd 2d3b a3bc 1d43 693c fcce b13d
00000290: 2120 3dbd a4fd e1bd 5811 6cbd 2811 9c3c
000002a0: 852f 493b c99c fc3d 9cb3 1abd 7081 573d
000002b0: b011 b6bd 1ea3 523d 9baa a63d 0b51 493c
000002c0: a18b 91bd 1602 c73c c117 03be d90b ccbd
000002d0: 18da 74ba ba0e 313d f482 403d 783c 20bd
000002e0: b368 cb3c 874d f8bd d286 3dbc 47ad 5c3d
000002f0: 696e b4bc 0a4f 06bd 276d 4abd 4fd9 bc3b
00000300: 1f1e 84bd 81b6 0e3e 4097 2abd 3869 f2bd
00000310: 9fe0 c63d 1012 333d 3a1d 103a 09c4 6ebd
00000320: ec34 c93d ea97 013e e9d6 d13d aa5b 91bd
00000330: 72cd c33d 8405 f73d 2523 aebd 9e67 183e
00000340: 510d 18bd 92c7 223e 4ee3 223d 7a26 04be
00000350: 2c66 1a3c 8a3e 023e 6207 9e3d 90be 9ebc
00000360: 29d0 f0bd d7c3 183d e3e8 8dbd 2b60 61bc
00000370: 2948 abbc b7fb 143e a79e 1cbe 2ca0 4fbd
00000380: 79a6 8c3d 6462 9e3d 01a5 c23d d3c2 063e
00000390: e37c 9a3d 7710 323c 5b38 423d bfec cfbb
000003a0: 7beb d13d b80c 933d 355e a6bc 4bf1 0c3d
000003b0: d09f b53c 73e9 14be 6855 883d 2c48 ff3d
000003c0: 47b6 07be 7f90 58bc ad54 393c 5e64 803d
000003d0: b4e0 92bd f48e c5bd 91fc a63c 045b 9cbd
000003e0: 10d3 7ebd 5e9b ca3c f013 36bc f72d b2bd
000003f0: 25a5 b5bc ffbe e03d c48f c5bd 89c1 3ebd
-0.02084808 0.06087581 -0.022562746 0.0011667208 -0.045707762 0.08075721 -0.050825212 -0.046048656
-0.07758847 -0.1339346 -0.014700621 0.08542562 -0.06484069 -0.0037202789 0.046350524 -0.039605867
0.12455606 -0.08140301 0.100248314 0.08534102 -0.04911759 -0.11722526 0.07240559 0.08105038
-0.115924284 0.1428298 0.04229964 0.045846064 0.062406547 0.027344542 -0.06890654 -0.067787185
-0.07812666 0.08349383 -0.04321554 0.025919272 0.07476551 0.098581 -0.10175635 -0.05469477
0.07775723 0.030123549 0.017465409 -0.088244915 -0.07611859 -0.07451782 0.031243224 0.049728338
-0.0010389218 0.01171762 0.108897775 0.16130713 -0.029560458 -0.12942709 -0.067961715 -0.005252136
0.07668074 -0.009612525 0.0005648292 0.0076017655 0.01488041 0.056628898 -0.06863074 0.061430063
-0.07670307 0.12101368 -0.13700308 0.13919668 0.0021531417 -0.081964314 0.045972228 -0.10635096
-0.017326133 0.025484504 0.008846174 -0.025280973 -0.010687996 -0.056583 0.014876404 -0.0044865184
0.09170738 0.06777297 -0.1211887 0.1383926 0.029146513 0.053164706 0.09702065 -0.035280496
-0.027567348 0.026754446 -0.109815486 -0.05028972 -0.057029955 -0.093865454 -0.14082715 0.06013973
-0.09732711 0.05752945 0.08226311 -0.10745013 0.004995901 0.03312212 0.062411524 0.06455684
-0.02643823 0.12519242 0.03458482 -0.15305594 0.08263045 -0.060006093 -0.0639925 -0.044461917
-0.047017094 -0.01684749 -0.042562447 0.006261011 0.004961476 0.061973285 0.010382942 -0.107058525
0.08262412 -0.042606495 -0.1571171 0.048343588 0.06834842 0.070308045 -0.06949718 -0.018885236
-0.009465662 0.04581635 0.019751482 -0.029170128 0.13236198 0.0004096196 -0.01521499 0.07072005
-0.08010224 0.088357486 0.13743284 0.012261519 -0.06914894 -0.10996699 -0.124838114 0.04979232
-0.030238401 0.09127932 -0.052652426 -0.023932146 -0.0753637 0.05645013 -0.023905814 -0.10684321
-0.17365757 0.09032247 -0.114270866 0.10156093 -0.0141658615 -0.08336837 0.07958893 -0.039380226
-0.099370435 -0.019925678 0.014237192 0.08682057 -0.04617322 -0.11034706 -0.057633728 0.01905115
0.003069849 0.12334592 -0.037768945 0.052613676 -0.088900924 0.051425092 0.08138009 0.012287389
-0.0710671 0.024292987 -0.1280203 -0.09963197 -0.000934036 0.043226935 0.046999887 -0.039120167
0.024830198 -0.12124162 -0.011567788 0.053876188 -0.022025304 -0.03279022 -0.049420502 0.00576321
-0.06451058 0.13936807 -0.04164815 -0.11836475 0.09710812 0.043718398 0.0005497519 -0.058292422
0.09824547 0.12655607 0.10246069 -0.07097562 0.0956067 0.12061599 -0.08502797 0.14883277
-0.037122075 0.15896443 0.039767556 -0.12905303 0.009423774 0.1271917 0.07716252 -0.019377977
-0.117584534 0.037296142 -0.06929185 -0.013755838 -0.020908432 0.14549147 -0.15294896 -0.05068986
0.0686769 0.0773361 0.09504128 0.13160257 0.075433515 0.010868183 0.047417026 -0.006345361
0.102499925 0.0718016 -0.020308593 0.034409802 0.022170931 -0.14542179 0.06656915 0.124649376
-0.13253127 -0.013218044 0.011311692 0.062691435 -0.07171765 -0.09646407 0.020384105 -0.07634547
-0.062213004 0.024732288 -0.011113152 -0.08700173 -0.022173474 0.109739296 -0.09646562 -0.04657129

bias_ih_l0 f4 [256]
00000000: 4478 903d 7562 1c3c 9577 023e 23f9 aebd
00000010: 2765 1a3c 345e 8dbd 7b2a 0d3e 67e1 3d3c
00000020: e246 75bd f18f 603d 1da2 213d 92ff 48bc
00000030: b88b e93c ba0c c03d 50c8 ce3d eace f93c
00000040: 0294 b63d 0bc9 c23d bd22 623c a992 afbc
00000050: 2079 643d b7b6 2c3d eee1 3d3d 684c 1dbe
00000060: 0582 23be 80b8 5cbd 4bb5 d4bd 87c4 bc3c
00000070: 34d7 e23b 016d cd3d 13c3 f83c 8a75 2c3c
00000080: 3d92 733d d805 0e3c a898 cbbd 2638 3b3d
00000090: c600 f83d b888 483d 52ed a73d 8d9d a9bd
000000a0: f580 9dbc 7a95 113b 9247 8e3d 3276 f8b8
000000b0: 45b1 e33c bd63 fabc e8de 8fbd d7e4 3dbd
000000c0: 05bb 3a3e fb62 24bd 134f bebd c395 883c
000000d0: ae51 043e e37a 80bd 1212 10bc ebea 5c3d
000000e0: 0e96 833d 0e8e 0ebc 051e 8d3d 81b4 97bd
000000f0: 7f75 80bd 1d23 033c c203 023e 963e 84bd
00000100: 536d 93bc 9bb9 b23d b386 01be d1e2 9dbd
00000110: b4ea 8b3d 35b3 713d 8ca1 7a3b 697b 0cbe
00000120: e6cc 6cbd 3cae 29be 19f9 21bc 8696 eabd
00000130: 893f d23c 79b5 b6bd 0536 16be eb74 8cbc
00000140: dad9 aabd 9685 683d b78f 513d fb8a b4bc
00000150: efec b6bb f36e a5bd c72c 00be 031d b03d
00000160: 0440 67bd 0ed0 1bbd 769d 883b c1f8 96bd
00000170: 3d4b 733b cec7 363d d2d9 e7bd 4fa0 ec3c
00000180: b96e 9b3b c9fd 25be 1b53 a03d 88d4 27be
00000190: f9ad 0bbd 0d67 9e3d ccf9 35be 7f50 ebbd
000001a0: fb24 443c 2841 8dbc e5e0 b7bd 1853 833c
000001b0: 43af b43d f87a 9abd ed30 b4bd f69f 60bd
000001c0: 9b1f 34bc 3b04 02be b61d d1bd c630 80bc
000001d0: ca29 c33c a305 afbd c645 04bd c414 0fbe
000001e0: 3df9 85bd 7746 27be d486 303d 452a 5abd
000001f0: 19a4 b8bd 0cb4 c53d 4746 363c 288a d7bd
00000200: 2ef3 9dbd 27d8 873d 526e 80bd d157 a93d
00000210: 919f c53b cd51 c6bd df52 abbd ce9e 0dbd
00000220: db04 1e3d ff19 d23d 9cec e3bc e46f 413d
00000230: 9b09 b73d 62f3 cdbb 4aad 7f3d daf8 b8bd
00000240: 83a3 efbd 110a 96bd 5d81 393b c504 bdbd
00000250: 831f 333d a071 523c aeb2 60bd 4ca8 9bbd
00000260: 5ba1 a93d 92e1 5dbd 4eb4 683c 3af5 e5bd
00000270: efcd 08bd eee8 29bd 1752 9f3d c5f6 803d
00000280: 1c2f 903c b0d5 c93d 7b45 dabd 48f8 8b3c
00000290: 305b 8abc c518 a8bd 784c 783d 5fd4 bc3d
000002a0: 88e8 e2bd a5c3 c53d 68b7 edbc 3862 d3bd
000002b0: 3b3b 063e df40 64bd f2c5 693d 672c 453c
000002c0: cfd2 833d 4e78 003d b9cf 74bc 2a0e 183d
000002d0: b78b 0bbe 6d10 9e3d 95cc 243d 7e09 49bd
000002e0: e941 e4bd 0b62 63bd e07e 0cbd ade8 aabd
000002f0: 3e1d ddbb 1088 17bd f2d1 4f3c 8714 81bd
00000300: 34dd 103d e128 93bd c23a c6bc 8bf4 bebd
00000310: c386 993d 6663 f03d 3157 66bd 77a0 cebc
00000320: 5c80 f3bd a03c c5bd 934d a83d 63f4 adbd
00000330: 472c 7bbd 4d1b ef3d 54b5 a5bd 91c8 b93d
00000340: 22ab 2b3c 578f 2d3d 866c 3ebd 309e 223d
00000350: a1c8 eebc 03af a9bb 0e9f aa3d b28e 1bbe
00000360: ed6e 27be 78d3 c2bd 0c14 16bd 753c f7bc
00000370: ac68 ee3d 0a44 b1bc fa30 cf3c f655 fe3d
00000380: 2104 04be ebf7 65bc 5932 17be eefe 2cbd
00000390: 2d31 6a3c f421 aabc e6aa 903d 412f cdbc
000003a0: 728c 43bd 2b28 afbd 74a7 a93d 5999 4e3d
000003b0: c73f 913d 1be3 313d ffdc dabb ad5a 11be
000003c0: adf6 8ebc c336 c5bd 0148 4c3d 3ae8 9cbd
000003d0: 9204 2ebe e40c e8bd 6c90 e9bd 6237 06bd
000003e0: a9d0 5f3d 48bc 353c 5f1b 7d3d b206 3a3c
000003f0: bad7 2bbd 6188 d0bd 8f8f 6b3d 097a ba3d
0.07054189 0.009544958 0.1274093 -0.08543613 0.009423531 -0.069027334 0.13785736 0.011589385
-0.059882052 0.054824773 0.039461244 -0.012267964 0.028509006 0.093774274 0.100968 0.030494172
0.08914949 0.09511002 0.013802228 -0.021432238 0.055779576 0.042166438 0.04635804 -0.15361178
-0.15967567 -0.05388689 -0.103861414 0.02304293 0.006922627 0.100305565 0.030366456 0.01052607
0.059465636 0.008668385 -0.09941226 0.045707844 0.121095225 0.04895851 0.08199562 -0.082820036
-0.01922653 0.002221434 0.06947245 -0.00011847577 0.02779449 -0.030565137 -0.07024938 -0.046360817
0.18235405 -0.040133458 -0.09292426 0.016672974 0.12921783 -0.06273439 -0.008793371 0.053934973
0.06425105 -0.008700861 0.068904914 -0.07407475 -0.062724106 0.008003977 0.12696746 -0.0645725
-0.017996466 0.08726808 -0.1264904 -0.077092774 0.068318754 0.059008796 0.0038243262 -0.13718952
-0.057812594 -0.16570371 -0.00988605 -0.11454491 0.025665062 -0.08921332 -0.14669044 -0.017145595
-0.08342333 0.056768022 0.051162448 -0.022038927 -0.005582444 -0.080778025 -0.12517081 0.085992835
-0.056457534 -0.038040213 0.0041691614 -0.07371665 0.0037123703 0.044624142 -0.11320843 0.028885035
0.004743424 -0.16210093 0.07828351 -0.16389668 -0.03410146 0.07734499 -0.17771071 -0.11489963
0.011971707 -0.017242983 -0.08978442 0.016030833 0.08822491 -0.07542986 -0.08798394 -0.05484005
-0.010993863 -0.12696926 -0.10210745 -0.015648257 0.023823638 -0.08545997 -0.032293104 -0.13972765
-0.06541679 -0.16335474 0.043097332 -0.053262968 -0.09015674 0.09653482 0.011125154 -0.10524398
-0.077123985 0.06633025 -0.06271042 0.08268703 0.0060309847 -0.09683571 -0.08365416 -0.034575276
0.03857885 0.102588646 -0.027822785 0.047225848 0.08937379 -0.006285117 0.06242112 -0.0903184
-0.11701109 -0.07326139 0.0028305866 -0.09229425 0.043731224 0.012844473 -0.054857902 -0.076004595
0.08282729 -0.0541702 0.014203144 -0.11228414 -0.03339952 -0.041481905 0.07779329 0.062970676
0.017600589 0.09855211 -0.106577836 0.017086163 -0.016889185 -0.082078494 0.0606198 0.09220194
-0.11079508 0.09656457 -0.029018119 -0.10321468 0.13108532 -0.05572593 0.05707354 0.012034512
0.06436693 0.03136473 -0.014942103 0.037122883 -0.13627516 0.07717977 0.040234167 -0.049081318
-0.11145384 -0.055513423 -0.034300685 -0.08345161 -0.0067478707 -0.036994994 0.012684332 -0.063027434
0.035367206 -0.071855314 -0.02419794 -0.093239866 0.07496407 0.11737709 -0.056235496 -0.025223
-0.11889717 -0.09630704 0.08217921 -0.08493879 -0.061321523 0.11675129 -0.08091226 0.09071458
0.010477813 0.042373028 -0.046490215 0.03970164 -0.029148402 -0.0051783337 0.083311185 -0.15191153
-0.16350909 -0.09512991 -0.036640212 -0.030180195 0.11641058 -0.021638889 0.025291909 0.124187395
-0.128922 -0.014036159 -0.147653 -0.042235307 0.014293951 -0.020768143 0.07063846 -0.025046946
-0.04774136 -0.08552583 0.08283892 0.050439212 0.07092243 0.043429475 -0.006679177 -0.14194746
-0.017451609 -0.096295856 0.049873356 -0.07661481 -0.16993931 -0.11330584 -0.114044994 -0.03276766
0.054642353 0.011092253 0.06179368 0.011354135 -0.04195378 -0.10182262 0.057509955 0.091053076

bias_hh_l0 f4 [256]
00000000: ddc9 4fbd 0383 ac3c 7edd 75bd f469 6f3d
00000010: 7b71 f53d e2c7 ba3d 8033 50bd f764 a03c
00000020: c4f6 503d 18ce 99bd 6943 433d 955e 64bd
00000030: 491e bc3d 4c5c 863c ebd5 1d3e ee73 9dbc
00000040: 3777 26bc 1fc3 1e3d 167e c0bd 2767 893c
00000050: 6443 003d df34 1abc abd8 74bd 0833 823d
00000060: 584c 0dbd e6ef 6dbd ecc0 fcbd 01e2 60bd
00000070: 90d9 01be 628f 1abc 42af cb3d 3814 803d
00000080: cdad 833c e88d e33d 40aa 273d a8da 3e3d
00000090: 9f5b d03d d41a 2e3e 9cd1 213d 795d 783c
000000a0: 3c7e dc3d 90b6 dcbd a856 053e b9a6 563d
000000b0: b4ee f43c 19e0 f23d 143a c0bd 6864 7b3d
000000c0: 58a3 9b3d 4774 353d 993b 63bd c837 10be
000000d0: fcfa 123e 6917 a73d e0af 843d ebda 24bd
000000e0: 3ac7 373d aa1f a93d 96c7 74bd 856a c13d
000000f0: 2cb9 04be 54cb 9e3d efe3 ae3d 78f7 aabc
00000100: 0888 45bc d193 aa3d 4a3b 883d e09f 97bd
00000110: 4f12 13bd 96ac c23d 85fa e8bd ad53 873c
00000120: 90ae 40bd a8e1 6cbd 97a3 af3d ea1b 8f3d
00000130: 231e 02bc 8a25 e43c 46ad fcbd e4d6 91bd
00000140: 8e2c 4c3d b018 d73c ab4a 31be 8556 16be
00000150: 0f30 9bba 5d4d 9d3c 4c5f e4bd dbcc aabd
00000160: fc10 5dbe a406 e7bd 2356 b3bd 78de d8bd
00000170: c394 99bc 3048 8ebc 7979 34bd aa24 02bc
00000180: 5832 bbbd 5349 f5bd 9b0e eabc 6482 913c
00000190: 1c65 ecbd 6b9f 83bc bd12 39be 87ee b5bd
000001a0: 92d8 963d 8b92 10be ab53 0a3c cd27 d83d
000001b0: 09f4 0a3b 5ae2 74bd 58ba 10be d167 d9bd
000001c0: d0ea 28be 1cc6 683c cb79 31be b646 28be
000001d0: 389e 82bd 6bb2 87bd 4fdb 063c b026 06be
000001e0: 5cd4 15be 0436 29be d314 aabd da2e 3cbe
000001f0: 087b 21be 8ac7 ecbd 597a 18be 4059 1dbe
00000200: 6256 fd3c 8b30 9d3c bf8f 473d 1c7f 4cbd
00000210: dac6 6bbd e16f a4bd f5a9 efbd 03ab 7cbd
00000220: b714 4fbd f03e e7bd 68d4 98bd 9086 7ebd
00000230: 488a ddbc cbc1 9a3d c885 fd3c 86ce fabd
00000240: 902b 0bbd 4f17 3cbd d381 f1bd c819 493d
00000250: f434 edbb c4be d5bc dc52 a53c 7a3e 273d
00000260: 2037 dabb e338 89bd 5bad aebd b354 acbc
00000270: 8388 853d 6237 593d ce05 d3bd d6a3 95bd
00000280: ec2d cbbd 5fda eabb 1806 4c3d 87e0 af3d
00000290: 9e4c 243d c0fb bbbd 79f7 cabc 4810 ce3d
000002a0: 5cd3 c8bc 2efb 43bd ca6f 0d3e 7aa8 aabd
000002b0: 3fd8 163e dba6 ee3d 01f1 f03c 78f2 043e
000002c0: e6c6 173d b7ac 17bd a020 a53d db5e 0bbe
000002d0: 04a4 623d ed33 423c c47b 0f3e 8cb3 cfbd
000002e0: 14e3 343d 8b75 f9bc 5cce bebd 11f3 be3d
000002f0: c21d d8bd bfe1 8e3d 950b f13c 39a3 4f3c
00000300: 9ab6 cb3d 02a1 35bd fbe5 ba3d 46cb ee3c
00000310: b96a e1bc f64c 583d 52d0 dcbd 40af 903d
00000320: af22 8d3d c535 ce3d 3d7f a7bd b3be 353c
00000330: b498 923d f4bd df3d 45c9 80bd ed35 84bd
00000340: c5d8 32bd b863 ce3d 6d17 d4bd 1dd5 be3d
00000350: 9e22 283c d8cb 7d3d d1c6 ae3c afe8 87bd
00000360: 0fb3 06be 6a31 f7bd c201 2e3d 487a 023e
00000370: 552d 903d 975c 823d a283 70bd a445 a3bb
00000380: 01bc 25be 622c d6bd 078b a13d 551d d13d
00000390: b687 753d ec82 e5bd 7770 943d 9717 f5bd
000003a0: fd88 953c 35f3 fcbc cbd1 1abd 2a16 e73d
000003b0: 4fe7 893d da9e c5bd 79e3 f73d 6b78 a1bd
000003c0: 1794 373e 3a8d 893d 3818 1dbd 06b7 a13b
000003d0: 648a 963d 5e8c a4bd b9d2 99bd b1c3 8e3c
000003e0: 738f 14be 8a0f 243c 8010 b7bd 13ea 08be
000003f0: 623a d03d 9452 c8bd cfeb a5bd 9797 e8bc
-0.05072962 0.021058565 -0.060025685 0.058450654 0.11984535 0.09120156 -0.050830364 0.019579394
0.051016584 -0.075100124 0.04767171 -0.055754263 0.09185464 0.016401432 0.15413634 -0.019220319
-0.010160259 0.0387603 -0.09399049 0.01677282 0.03131427 -0.0094120195 -0.059776943 0.0635739
-0.034496635 -0.058090113 -0.123414844 -0.054903034 -0.1268065 -0.009433599 0.09945537 0.062538564
0.016074086 0.11111051 0.040933847 0.046595246 0.10173725 0.17002422 0.03950654 0.015159004
0.10766265 -0.107770085 0.13021338 0.052405093 0.029898979 0.118591495 -0.093860775 0.06137505
0.07599515 0.044300344 -0.05547676 -0.14083779 0.14353555 0.08158762 0.06478858 -0.04024784
0.04486773 0.082579926 -0.059760652 0.09444145 -0.12961262 0.077536255 0.08539569 -0.020869955
-0.012056358 0.08328975 0.066519335 -0.074035406 -0.035906132 0.095055744 -0.11375908 0.016519392
-0.047041476 -0.05783239 0.08576124 0.06987746 -0.0079417555 0.027849931 -0.12337737 -0.07121065
0.04984718 0.02625689 -0.1731364 -0.14681442 -0.0011839884 0.019201929 -0.11150989 -0.08339854
-0.2158851 -0.112805635 -0.08756664 -0.105893075 -0.018747693 -0.017368406 -0.044061158 -0.007943312
-0.09140462 -0.11976876 -0.028571418 0.01776237 -0.115427226 -0.016067227 -0.18073554 -0.08883386
0.07365526 -0.14118402 0.0084428 0.105544664 0.0021202585 -0.05978618 -0.14133584 -0.106155045
-0.16495824 0.014207389 -0.17331617 -0.16433224 -0.06377834 -0.066258274 0.008230998 -0.13100696
-0.1463179 -0.16524512 -0.08304753 -0.18377247 -0.15769589 -0.115614966 -0.14890422 -0.15366077
0.03092498 0.019188186 0.04872107 -0.04992591 -0.057562687 -0.08029152 -0.117023386 -0.061686527
-0.050556865 -0.11291301 -0.07462388 -0.062140048 -0.027043477 0.07556494 0.030947581 -0.122464225
-0.03397709 -0.045920666 -0.1179234 0.049096853 -0.0072389785 -0.02609194 0.020181112 0.040831067
-0.0066594034 -0.067003034 -0.08529159 -0.021036481 0.06520178 0.053031333 -0.103038415 -0.0730664
-0.09920868 -0.007167145 0.0498105 0.08587747 0.04011213 -0.09178877 -0.024776207 0.10061699
-0.024514847 -0.047846965 0.13812175 -0.083329156 0.14730929 0.11652919 0.029411795 0.1298312
0.03705492 -0.037029948 0.08062863 -0.13610403 0.0553322 0.0118532 0.14012057 -0.10141668
0.04416187 -0.030451557 -0.09316704 0.09323705 -0.10552551 0.069766514 0.029424468 0.012673193
0.09946938 -0.044343002 0.091258965 0.029149663 -0.02751671 0.05280777 -0.107819214 0.07064676
0.06891381 0.100688495 -0.08178566 0.0110928295 0.07158032 0.109249026 -0.06288389 -0.06455598
-0.04366376 0.100776136 -0.103560306 0.09317992 0.01026216 0.06196198 0.021335037 -0.06636178
-0.13154243 -0.12069972 0.042482145 0.12741959 0.070398964 0.06365316 -0.058719285 -0.004982667
-0.16184999 -0.10457684 0.078878455 0.10210673 0.059943877 -0.11206612 0.072480135 -0.1196739
0.018253798 -0.030877689 -0.03779773 0.11283524 0.06733572 -0.09649439 0.12103934 -0.07884296
0.17927586 0.0671639 -0.038353175 0.004935148 0.07350615 -0.080345854 -0.07510895 0.017427297
-0.14507847 0.01001347 -0.08938694 -0.13370542 0.10167386 -0.097813755 -0.081016175 -0.028392596

weight f4 [1, 64]
00000000: 94c7 ce3d a1d4 10bd 7c7c adbd 929c b7bd
00000010: 33ff f83d 3a36 043e de64 99bd 7917 a4bd
00000020: 66b6 363d 2f40 373d af8a e83d 144d ee3d
00000030: 617d 1ebd f4a7 943d f146 94bd f568 5a3d
00000040: 71cb 6f3d bf37 e33d 864d 17bd c0e2 323d
00000050: 5373 af3d dc2b d53d fd3f 073d 05f4 f9bc
00000060: ef32 51bd d8d3 f63b 7c0b ed3c a8fc 5c3d
00000070: cc55 83bd 936f d43d 4064 91bd 6c0d 92bd
00000080: 1fda 50bc c3f4 21bd 14dc da3b 53ff 1a3d
00000090: 6aa4 11be d31b 87bd 6780 a03d fb05 7b3c
000000a0: fe78 16bd 9d1d b43d 9a7d 93bd 7330 8b3d
000000b0: b974 85bd 6f3e d1bd 385b 05be 2efa 083b
000000c0: 1f53 703e a1da 9fbd e7bd 083b 3ae5 a13d
000000d0: d278 1bbd 404a 74bc 1cd3 5fbd 8a74 37bd
000000e0: d72e a7bc a129 e2bb 24ee ef3d 69bd b83c
000000f0: fe6a d9bd 3ccf b33d 8ce7 15bd 2560 ff3d
0.1009666 -0.03535903 -0.08471009 -0.0896541 0.121580504 0.12911311 -0.07489942 -0.080122896
0.044607542 0.044738945 0.11354577 0.11635795 -0.03869379 0.07258597 -0.072400935 0.05332275
0.058543626 0.11094617 -0.036939166 0.043673277 0.08566918 0.10408756 0.03302001 -0.030511865
-0.051073965 0.007532578 0.02893614 0.05395189 -0.06412849 0.103728436 -0.07099199 -0.07131466
-0.012747317 -0.039540064 0.0066790674 0.037841152 -0.14222875 -0.06597104 0.07836991 0.01532125
-0.03673648 0.08794711 -0.07201691 0.0679635 -0.06516404 -0.102169864 -0.13023078 0.0020901072
0.23469208 -0.07805372 0.0020865144 0.079050496 -0.03795702 -0.014910281 -0.05464469 -0.044788875
-0.020408077 -0.006901935 0.117153436 0.022551255 -0.1061611 0.08779761 -0.036597773 0.1246951
