model/4411.1347746356605_weight.pth (torch, 90511 bytes, 7 tensors)

weight f4 [16, 32, 1]
0	0xbdf70a0a	-0.12062462
1	0xbd18c54f	-0.037297543
2	0xbe54001c	-0.20703167
3	0x3d95c282	0.0731249
4	0xbd5a1a32	-0.053247638
5	0xbdbed0b4	-0.09317151
6	0x3d8c7e19	0.06859989
7	0x3c2a38d6	0.010389527
8	0x3cabe329	0.020982342
9	0xbd8fa83d	-0.07014511
10	0xbd8c83b5	-0.068610586
11	0xbde5297c	-0.11189553
12	0x3c422e19	0.011851811
13	0xbddc0774	-0.10743609
14	0xbe48724b	-0.1957485
15	0xbe05a89e	-0.13052604
16	0xbddde435	-0.10834543
17	0x3de90fc8	0.11379963
18	0xbd53dfe8	-0.051727206
19	0x3deef819	0.116684146
20	0xbdc7b14d	-0.09750614
21	0xbe2e3b42	-0.17014793
22	0x3df3cf4a	0.119047716
23	0x3dd8b202	0.10580827
24	0x3d19b0de	0.03752219
25	0xbde590ef	-0.112092845
26	0x3d9b3af3	0.07579603
27	0x3e1ab2c6	0.15107259
28	0xbb21b6ba	-0.0024675564
29	0xbddf1675	-0.10892955
30	0x3e167a45	0.1469508
31	0x3e1ff6d9	0.15621509
32	0xbd9ae3ed	-0.07563005
33	0xbe6c9e83	-0.23107342
34	0xbdf992bb	-0.1218619
35	0xbd8bfa22	-0.068348184
36	0x3e08673c	0.13320631
37	0x3d00992f	0.031396087
38	0x3d3aedb9	0.045636866
39	0xbdd409e2	-0.103534475
40	0x3c3123fc	0.010811802
41	0xbdfd7a11	-0.12376798
42	0x3dbd47f9	0.09242243
43	0x3dcbce5d	0.0995147
44	0xbddc838b	-0.10767277
45	0x3dfbf346	0.1230226
46	0xbd6c11e1	-0.05763424
47	0xbe00abb2	-0.12565497
48	0x3c6644c9	0.014054486
49	0x3c2a8486	0.010407573
50	0xbd8950d2	-0.067048684
51	0xbe4415b1	-0.191489
52	0x3d03343f	0.032032248
53	0x3d1432de	0.036181323
54	0xbdc57b57	-0.09642666
55	0x3e41123f	0.18854617
56	0xbe065c87	-0.13121234
57	0x3d650f6b	0.055922907
58	0xbd5e546a	-0.054279722
59	0xbdffdf85	-0.12493805
60	0x3c2298fa	0.009924168
61	0x3e01feb3	0.12694816
62	0x3b969ad8	0.0045960955
63	0xbe015741	-0.12630941
64	0x3ddaf657	0.10691517
65	0xbdbb97d1	-0.09159816
66	0x3e03886e	0.12845013
67	0x3c92761d	0.017878586
68	0xbe096809	-0.13418593
69	0xbdf0ae3e	-0.11751984
70	0xbd46105a	-0.048355438
71	0xbd9765df	-0.07392477
72	0x3dbc65c0	0.09199095
73	0x3da569e1	0.080768354
74	0x3da7b0f4	0.08188048
75	0x3c93e814	0.018055
76	0x3e4c1cc0	0.19932842
77	0x3c1ff15b	0.0097621335
78	0xbdb27fa4	-0.08715752
79	0xbd89669c	-0.06709024
80	0xbad2cacd	-0.0016082168
81	0x3c9c1b07	0.019055856
82	0x3d57ca74	0.05268331
83	0x3d9e17a1	0.077193506
84	0xbcfaf3e7	-0.03063388
85	0xbd526ac9	-0.05137137
86	0x3d46c075	0.048523385
87	0xbd00947f	-0.031391617
88	0x3d4d0de2	0.050062068
89	0xbdb06a27	-0.08613997
90	0x3dffaac9	0.124837466
91	0x3d7d76d7	0.061880913
92	0xbd07a690	-0.03311783
93	0x3bd62fee	0.0065364754
94	0x3df35cea	0.11882956
95	0x3d78c6e7	0.060736563
96	0x3e72a15c	0.23694366
97	0xbc0cc55c	-0.008591976
98	0x3e597251	0.21235014
99	0xbe2bd0e8	-0.1677891
100	0x3e30a19f	0.17249154
101	0xbdcd4273	-0.1002244
102	0x3d570e81	0.052504066
103	0xbd381dfd	-0.044950474
104	0x3d8e5c04	0.06951144
105	0x3da60f3a	0.08108373
106	0x3e00a8ca	0.12564388
107	0x3b164714	0.002293055
108	0xbcb470db	-0.02202647
109	0x3d33cd63	0.043897044
110	0xbd946e27	-0.072475724
111	0xbc367cd4	-0.01113816
112	0xbe0f1079	-0.13971128
113	0xbdafe678	-0.0858888
114	0x3ccf376a	0.025294978
115	0xbdda1396	-0.10648267
116	0xbe5bdb62	-0.21470407
117	0x3de7fc34	0.11327401
118	0x3cc85143	0.024452811
119	0xbe00d356	-0.12580618
120	0x3e486c05	0.19572456
121	0xbc2e3fa5	-0.010635291
122	0xbd94a524	-0.072580606
123	0xbd8736d6	-0.06602256
124	0x3e124e35	0.14287646
125	0x3d199ca4	0.0375029
126	0x3dfeae71	0.12435616
127	0x3dc3b95d	0.095568396
128	0xbe65d2b7	-0.22443663
129	0xbe0e49d1	-0.13895346
130	0xbe491744	-0.19637781
131	0xbe046902	-0.12930682
132	0xbcc6c540	-0.024263978
133	0x3d8d74c7	0.06907039
134	0xbe173b70	-0.14768767
135	0xbdafbb40	-0.08580637
136	0x3d6f39c6	0.058404706
137	0x3e1fc3b3	0.15601997
138	0x3cda0e75	0.026618222
139	0xbe2fe092	-0.1717551
140	0x3e1ab0ca	0.15106502
141	0x3d9daa76	0.076985285
142	0xbd97832d	-0.07398067
143	0x3dd5ad37	0.10433429
144	0xbdec5afc	-0.115407914
145	0xbe43d10e	-0.19122717
146	0x3d8f7d15	0.070062794
147	0x3d170cfa	0.03687761
148	0x3c96dcea	0.018415887
149	0x3cd5a95f	0.026081739
150	0x3da94c8a	0.08266552
151	0xbd7ccc56	-0.061718307
152	0x3dae16b8	0.08500427
153	0xbe403e56	-0.1877378
154	0xbc8c3164	-0.017113395
155	0x3e31179d	0.17294164
156	0x3e1e3d9d	0.15453191
157	0x3d44260f	0.047887858
158	0xbd8d4041	-0.06897021
159	0xbd727c1a	-0.059200384
160	0xbe7e1122	-0.24811223
161	0xbe8e7d58	-0.27830005
162	0xbe7e0e33	-0.24810104
163	0x3e093bed	0.13401766
164	0xbdc2f65f	-0.09519648
165	0xbd71ef67	-0.059066202
166	0x3e23b94c	0.15988654
167	0x3e056018	0.13024938
168	0xbca0dd4d	-0.019636774
169	0x3cf062d2	0.029343996
170	0xbdd2d388	-0.10294253
171	0xbdeb0f9c	-0.114775866
172	0xbc920a23	-0.0178271
173	0x3c6ce85f	0.014459698
174	0xbe002a78	-0.125162
175	0xbd93737f	-0.071997635
176	0x3d6fe151	0.058564488
177	0xbb9ef9d4	-0.004851559
178	0x3d385f87	0.045012977
179	0x3de25c95	0.11052815
180	0x3dcf03eb	0.10108169
181	0xbdb61383	-0.0889044
182	0xbe3c35a0	-0.18379831
183	0x3d7fe1cc	0.062471196
184	0xbdbdcead	-0.09267936
185	0xbd2b01c0	-0.041749716
186	0xbd7d0d95	-0.06178053
187	0xbdee6be9	-0.11641676
188	0xbd37d695	-0.044882376
189	0x3dec340c	0.11533365
190	0x3d1d4a0e	0.038400702
191	0xbe0d33e2	-0.13789323
192	0x3d31b7cc	0.043388173
193	0x3d85a9f2	0.06526555
194	0xbd88b6a8	-0.06675464
195	0x3ceb4152	0.02871767
196	0x3e267946	0.162572
197	0x3da02d52	0.07821144
198	0xbd596602	-0.053075798
199	0x3dd1f7f1	0.10252369
200	0x3e02f554	0.12788898
201	0x3d98e613	0.07465758
202	0x3dd00cbf	0.10158681
203	0xbd364fb7	-0.044509616
204	0xbd9ad570	-0.07560241
205	0x3de8b556	0.11362712
206	0x3e4f64c2	0.2025328
207	0xbd5ab370	-0.05339378
208	0x3d9b1717	0.075727634
209	0xbdd6557f	-0.10465526
210	0x3c878563	0.016543096
211	0xbdebe460	-0.115181684
212	0x3db9f784	0.09080413
213	0x3c9d0ae3	0.01917023
214	0x3d8226db	0.06355067
215	0xbd9f7cdb	-0.07787486
216	0x3ce2ca00	0.027684212
217	0xbded1c6d	-0.115776874
218	0xbe054c0c	-0.13017291
219	0x3d75daa6	0.060022973
220	0x3d2b3a8f	0.041803893
221	0x3d877413	0.06613936
222	0xbdec405d	-0.11535714
223	0xbd391e46	-0.045194887
224	0x3e21f47e	0.15815923
225	0x3e01ba9a	0.12668839
226	0x3d89f68c	0.06736478
227	0xbe5cecfb	-0.21574776
228	0xbc9d6474	-0.019212939
229	0x3ccef24e	0.025262024
230	0xbd6008af	-0.05469578
231	0xbe0e4b33	-0.13895874
232	0xbd9553fc	-0.072914094
233	0x3cb78458	0.022401974
234	0x3dde27fc	0.1084747
235	0x3dba8e38	0.09109157
236	0x3e1eda86	0.15513048
237	0xbe304abd	-0.1721601
238	0xbda2ead5	-0.07954947
239	0xbd85a840	-0.06526232
240	0xbe353c65	-0.1769882
241	0xbe32a9d1	-0.17447592
242	0xbb9b6ce8	-0.0047432072
243	0xbc3d4efd	-0.011554477
244	0x3e435ab7	0.19077574
245	0x3dd51bbf	0.10405683
246	0xbd3bd244	-0.04585482
247	0x3dfbb991	0.12291253
248	0xbd247377	-0.04014918
249	0x3d0128fa	0.03153322
250	0xbdf29e00	-0.11846542
251	0x3c294f39	0.01033383
252	0x3c2e8806	0.010652548
253	0xbd01e744	-0.031714693
254	0x3e100b13	0.14066724
255	0xbd9a223b	-0.0752606

bias f4 [16]
0	0xbc89de33	-0.016829586
1	0xbca2cba0	-0.019872487
2	0x3e05e115	0.13074143
3	0x3db382a5	0.08765153
4	0x3d378bd5	0.04481109
5	0xbd54b6fb	-0.051932316
6	0xbca260f7	-0.019821627
7	0x3dcf1e6f	0.101132266
8	0xbc71dfd9	-0.014762842
9	0xbdc03862	-0.09385754
10	0xbd2ef0f7	-0.04271027
11	0xbd8a5579	-0.06754584
12	0xbcb8361f	-0.022486744
13	0xbd7c8f6d	-0.06166022
14	0xbe027aae	-0.12742111
15	0xbdc2c13a	-0.09509511

weight_ih_l0 f4 [256, 16]
0	0x3d59d51c	0.053181753
1	0xbccd8df1	-0.025092097
2	0x3d874010	0.06604016
3	0xbe3089db	-0.17240088
4	0x3bf41154	0.0074483547
5	0x3e41c46f	0.1892259
6	0x3dc360b4	0.09539929
7	0xbc6b759f	-0.014371305
8	0xbd5718f1	-0.05251402
9	0xbe283fed	-0.16430636
10	0x3e2d07df	0.16897534
11	0x3da2c5df	0.07947897
12	0x3db30f61	0.08743168
13	0x3cfe4124	0.03103692
14	0xbc9d1ff3	-0.019180274
15	0xbd4dfebd	-0.050291765
16	0x3dc1410a	0.09436233
17	0x3d92a19a	0.07159729
18	0xbd6131fd	-0.054979313
19	0x3c200fa1	0.009769351
20	0x3de92dd1	0.11385692
21	0x3e0ff813	0.14059477
22	0x3c261142	0.0101359505
23	0xbdb78835	-0.08961526
24	0xbcf11776	-0.029430132
25	0x3d23fbc9	0.040035043
26	0x3de9c67b	0.1141481
27	0x3bf16b60	0.0073675364
28	0x3e83ec15	0.25766054
29	0xbe23c76a	-0.15994039
30	0x3d6fd72b	0.05855481
31	0xbaf228de	-0.0018475314
32	0xbdac4dea	-0.084132984
33	0xbd1a87fb	-0.037727337
34	0xbd742643	-0.0596068
35	0x3da158a6	0.078782365
36	0x3b2e5dec	0.0026606275
37	0x3d8acf46	0.067778155
38	0xbba28a06	-0.0049603013
39	0x3cdb8a8e	0.026799466
40	0xbd60ae3c	-0.054853663
41	0xbd060daa	-0.032727875
42	0x3d0b6ba0	0.034038186
43	0x3d3d47d9	0.046211097
44	0xbc767dfd	-0.015044686
45	0xbdb6730f	-0.089086644
46	0xbdcb5041	-0.099274166
47	0xbe26064f	-0.16213344
48	0x3c5494e5	0.012974952
49	0xbe081a73	-0.1329134
50	0xbdd7437d	-0.10510919
51	0x3e350cb2	0.17680624
52	0xbd15a13a	-0.03653071
53	0xbc6c6f10	-0.014430776
54	0xbba4dbc4	-0.005031081
55	0xbdaddf08	-0.084898055
56	0xbdd79c15	-0.10527817
57	0x3e296978	0.1654414
58	0xbe3ebae3	-0.18625979
59	0xbceb77b3	-0.0287436
60	0xbc0f1b09	-0.008734473
61	0x3dc968be	0.09834431
62	0xbd0e348d	-0.034718085
63	0x3dbfeaa4	0.09370926
64	0x3c328896	0.010896822
65	0x3ddedc7d	0.108818986
66	0xbdd36ebb	-0.103238545
67	0x3c398732	0.011323737
68	0xbd462f03	-0.048384678
69	0x3d52fdb6	0.05151149
70	0x3df30e6c	0.11867985
71	0xbd24766e	-0.040152006
72	0x3d6c5d29	0.057706032
73	0x3cc77f7d	0.024352783
74	0xbcc6e956	-0.024281185
75	0x3dc49cea	0.096002415
76	0xbbeb632c	-0.007183453
77	0xbda4dc72	-0.08049859
78	0x3dc031ab	0.093844734
79	0xbce6022b	-0.028077206
80	0xbca2ee9e	-0.019889172
81	0x3ba2d2e5	0.0049689882
82	0x3dacbc23	0.08434322
83	0x3c544fa7	0.012958444
84	0x3da81577	0.08207219
85	0x3e4a64f5	0.19765075
86	0x3d2d1203	0.042253505
87	0xbe1485dc	-0.14504188
88	0x3e2582c7	0.16163169
89	0x3ca98926	0.02069528
90	0x3e071942	0.13193229
91	0x3db6c411	0.089241154
92	0xbd9c5490	-0.076333165
93	0xbdc2e719	-0.09516735
94	0x3c326966	0.010889387
95	0xbe2ee954	-0.17081195
96	0x3cedca1d	0.02902704
97	0xbde3b37f	-0.111182205
98	0xbde825c3	-0.113353275
99	0xbd750926	-0.059823178
100	0xbdb5bc89	-0.08873851
101	0xbde20e2d	-0.1103786
102	0x3c89934e	0.016793873
103	0xbdb147df	-0.086562864
104	0xbe0d93cf	-0.13825916
105	0xbdc644bc	-0.09681079
106	0xbde00a2a	-0.10939439
107	0xbd640bf7	-0.055675473
108	0x3dd0ef16	0.10201852
109	0xba82c7df	-0.0009977779
110	0xbdd15980	-0.10222149
111	0x3c4e02e4	0.012573931
112	0x3dded409	0.10880286
113	0x3de5c362	0.11218907
114	0xbd467c1a	-0.048458196
115	0x3b741a63	0.0037247173
116	0x3dd69861	0.10478283
117	0xbd6d397f	-0.05791616
118	0x3dcce623	0.100048326
119	0x3d7894ab	0.060688656
120	0xbdb00eed	-0.08596597
121	0xbe04500a	-0.12921157
122	0x3d94d5aa	0.07267316
123	0x3e63f1ff	0.22260283
124	0x3dc04c96	0.093896076
125	0x3cbeaafa	0.023274887
126	0x3d592d77	0.053021874
127	0xbe203bb7	-0.1564778
128	0x3d92b738	0.071638525
129	0x3c8deebc	0.017325751
130	0x3d965394	0.0734016
131	0xbde5f545	-0.11228422
132	0x3e18b9f4	0.14914685
133	0x3dfddfe5	0.1239622
134	0xbd0d910a	-0.03456215
135	0xbcf4a2d5	-0.0298628
136	0x3b308740	0.0026936084
137	0xbc6f2b0f	-0.014597668
138	0x3dd7ab96	0.10530774
139	0x3e5adaa8	0.21372473
140	0xbd82063e	-0.06348847
141	0xbe00a308	-0.12562191
142	0x3d431278	0.047625035
143	0xbe061091	-0.13092257
144	0xbd62a780	-0.05533552
145	0xbeb7ba4f	-0.3588433
146	0x3dbde0ca	0.09271391
147	0xbbff9a2c	-0.007800361
148	0x3da1fa95	0.07909123
149	0xbdb5477e	-0.08851527
150	0x3d38fac7	0.045161035
151	0xbd09e68b	-0.03366713
152	0x3dd93c62	0.1060722
153	0xbc07107f	-0.008243679
154	0xbcf4f462	-0.029901687
155	0xbecf6c0d	-0.40512124
156	0x3e3435ce	0.1759865
157	0x3d767020	0.060165524
158	0xbd1bb854	-0.038017586
159	0x3e69b4f7	0.22822939
160	0x3d83e5aa	0.06440289
161	0x3c77d93f	0.015127479
162	0xbdc89282	-0.09793569
163	0x3e1f5557	0.15559898
164	0xbe1cf360	-0.15327215
165	0x3d110d2d	0.035412956
166	0x3db0a836	0.08625834
167	0x3db64fe7	0.08901959
168	0x38b18f9f	8.466769e-05
169	0x3e16c88b	0.14724939
170	0xbdacd2d9	-0.084386535
171	0x3d521f23	0.051299226
172	0xbd624989	-0.05524591
173	0xbc2764f3	-0.010216939
174	0xbe083185	-0.1330014
175	0x3d4247b1	0.04743165
176	0x3dda3016	0.10653703
177	0x3e097c67	0.13426362
178	0x3d10af37	0.035323348
179	0x3caffb5a	0.021482158
180	0xbd8f9bda	-0.07012148
181	0x3d52ae7a	0.051435925
182	0xbce85462	-0.02836055
183	0xbdc95eab	-0.098325096
184	0xbc8c157a	-0.017100085
185	0xbcc3728e	-0.023858335
186	0x3d023d50	0.031796753
187	0x3dd55c44	0.10417989
188	0x3e076690	0.13222718
189	0x3db5fc00	0.08885956
190	0xbdcccae3	-0.09999635
191	0x3d0d540a	0.034503974
192	0x3d6fe0b1	0.05856389
193	0xbd3b514b	-0.045731824
194	0x3d8ddea7	0.06927233
195	0xbd81de81	-0.063412674
196	0x3c532377	0.012886873
197	0xbd39cf16	-0.04536351
198	0xbd08a2a7	-0.033358242
199	0xbd096058	-0.033539146
200	0xbc9e6c08	-0.019338623
201	0xbe2593d4	-0.16169673
202	0x3d4df49f	0.050282117
203	0x3e3c37b0	0.18380618
204	0x3c9f9857	0.019481821
205	0xbe489e4f	-0.1959164
206	0x3e296df3	0.16545849
207	0xbd19b5ab	-0.037526768
208	0xbde8da01	-0.11369706
209	0xbd2d8a42	-0.04236818
210	0xbd9a3a8e	-0.075307
211	0x3e015a5f	0.1263213
212	0x3d07cabd	0.03315233
213	0xbdb7d974	-0.08977023
214	0x3d7dd1e2	0.061967738
215	0x3d7d5f5f	0.06185853
216	0x3d935dfd	0.07195661
217	0x3e0cba32	0.13742903
218	0x3c080d2f	0.008303924
219	0xbe839a99	-0.25703886
220	0x3e887f5a	0.26659662
221	0x3e0e09be	0.13870904
222	0xbd69a613	-0.057043146
223	0x3e07a0e3	0.13244967
224	0x3d88f595	0.06687466
225	0x3dd5b00d	0.1043397
226	0x3c8898d8	0.016674444
227	0xbb0e1659	-0.00216808
228	0xbd4241ac	-0.04742591
229	0x3d148ce6	0.036267184
230	0x3c27af25	0.010234629
231	0x3cedac68	0.029012874
232	0x3e1b5423	0.15168814
233	0x3d555b46	0.052089
234	0x3e12f5dd	0.14351602
235	0x3e8f4ef2	0.27989918
236	0xbd9aa980	-0.07551861
237	0xbd93fc1a	-0.07225819
238	0xbdc9fe44	-0.098629504
239	0xbd9ac3d2	-0.07556881
240	0x3d03cdaf	0.032178577
241	0xbd66ab13	-0.056315493
242	0x3bea56a5	0.007151442
243	0x3da7cc29	0.08193237
244	0x3d0acba6	0.03388562
245	0xbe046707	-0.12929927
246	0xbc90c019	-0.017669724
247	0xbdd065b8	-0.10175651
248	0x3cb72db5	0.022360662
249	0xbce9886b	-0.028507432
250	0xbe044672	-0.12917498
251	0xbe263f80	-0.16235161
252	0xbdd15aa0	-0.102223635
253	0x3d953407	0.07285314
254	0x3bcff753	0.006346622
255	0x3cc3a349	0.023881571

weight_hh_l0 f4 [256, 64]
0	0xbc6b78e4	-0.014372084
1	0xbdcb2d3a	-0.09920736
2	0x3de39541	0.11112452
3	0xbdc830e4	-0.0977495
4	0xbc9892c8	-0.018624678
5	0xbd7b7e3b	-0.06139968
6	0x3df35cf7	0.11882966
7	0x3d0017fd	0.031272877
8	0xbe0b0b21	-0.13578464
9	0xbdd6d6cf	-0.1049019
10	0xbc0bfb27	-0.008543766
11	0xbca435b6	-0.020045143
12	0x3d2fb937	0.042901244
13	0x3d61088b	0.054939788
14	0x3c5d889c	0.01352134
15	0x3b7d736c	0.0038673533
16	0x3d98d986	0.07463364
17	0x3d385f43	0.045012724
18	0x3db1b0ab	0.08676275
19	0xbda70a1a	-0.081562236
20	0x3d908a20	0.07057595
21	0xbdcb12cc	-0.099156946
22	0x3c96ebca	0.01842298
23	0x3ddb3baf	0.10704743
24	0xbdedfae8	-0.11620122
25	0xbca32beb	-0.019918403
26	0xbd29e014	-0.041473463
27	0xbdb69f69	-0.08917124
28	0xbd83fa59	-0.064442344
29	0xbd27f6af	-0.04100674
30	0x3b8a77f7	0.0042257267
31	0x3db4720e	0.08810817
32	0x3d56a5e9	0.052404318
33	0xbdec44db	-0.11536571
34	0x3da55c2e	0.080742225
35	0xbd029314	-0.031878546
36	0xbd9ab3b4	-0.07553807
37	0x3d8aa2ea	0.06769355
38	0x3d8e919a	0.06961365
39	0xbd6444a1	-0.055729512
40	0xbd963d92	-0.07335962
41	0x3de575d0	0.112041116
42	0xbdc96139	-0.09832997
43	0xbdcdd4f1	-0.10050381
44	0x3dc519f4	0.09624091
45	0x3d66434f	0.056216534
46	0xbddb464f	-0.1070677
47	0xbdde3ef8	-0.10851854
48	0x3cbf47c3	0.023349648
49	0x3dd6e294	0.10492435
50	0xbd82d2ad	-0.063878395
51	0xbd76cbe0	-0.060253024
52	0x3c9702b7	0.018433912
53	0x3bf582c9	0.0074923974
54	0xbd471c1c	-0.04861079
55	0xbd93eb9f	-0.072226755
56	0x3db12802	0.08650209
57	0x3e0d2b12	0.13785961
58	0xbcb8236c	-0.022477828
59	0xbd28d1f0	-0.041215837
60	0xbdc5015e	-0.096194014
61	0xbde3c7ea	-0.11122115
62	0xbd2c06d1	-0.041998688
63	0x3d5fb4e0	0.054615855
64	0x3ccbaf83	0.024863964
65	0x3d6c3279	0.057665322
66	0x3c573e45	0.013137405
67	0x3b324449	0.0027201346
68	0x3cd1ad21	0.02559525
69	0x3d2cefb0	0.04222077
70	0x3d38e9cc	0.04514484
71	0xbdd6a9c5	-0.104816
72	0xbd2c377d	-0.042045105
73	0xbe53f843	-0.20700173
74	0xbe253f5c	-0.16137451
75	0xbd91d669	-0.071209736
76	0xbdbf1444	-0.09330037
77	0x3ce5a0ab	0.028030714
78	0xbdcb2717	-0.09919565
79	0xbda2ea23	-0.07954814
80	0x3cd0177a	0.02540182
81	0x3cfe47f6	0.031040173
82	0x3c9e2674	0.019305445
83	0x3e14832e	0.14503166
84	0x3d0d0427	0.034427788
85	0x3d461029	0.048355255
86	0xbd05d8d2	-0.03267748
87	0xbc7c799e	-0.015409855
88	0xbe0acabb	-0.13553898
89	0x3db727c6	0.08943133
90	0x3dbdd5ff	0.09269332
91	0xbdd23216	-0.102634594
92	0x3dc98875	0.0984048
93	0x3ddb914a	0.10721071
94	0x3d7e7109	0.062119517
95	0x3dddd2cf	0.10831224
96	0x3e05dcaf	0.13072465
97	0xbb9dc0a6	-0.0048142252
98	0xbca64c2a	-0.02029999
99	0xbc560e22	-0.013064893
100	0x3d1680d6	0.03674396
101	0x3b833611	0.004004248
102	0xbccef37e	-0.02526259
103	0x3ddfdbfa	0.10930629
104	0x3dc5e5c5	0.09662966
105	0xbd5f54fd	-0.05452441
106	0xbdbc89cc	-0.0920597
107	0x3e0882ab	0.13331096
108	0x3cb3b423	0.021936482
109	0xbddc8f17	-0.1076948
110	0x3d831f41	0.064024456
111	0x3d0a809a	0.03381405
112	0xbdd8087f	-0.105484955
113	0x3c437b3a	0.011931235
114	0xbcaff17f	-0.021477459
115	0x3d80f967	0.0629757
116	0xbd9d4771	-0.07679642
117	0xbca9be4a	-0.02072062
118	0x3cd38513	0.02582029
119	0x3d005f3f	0.031340834
120	0xbe0db587	-0.13838778
121	0x3d45dd17	0.04830655
122	0x3d9f720a	0.07785423
123	0x3d075b05	0.033045787
124	0xbd92b449	-0.07163293
125	0xbc139e35	-0.009009887
126	0xbcfe57dd	-0.031047756
127	0xbde27b4d	-0.11058674
128	0x3d31a4a5	0.043369908
129	0x3e011347	0.1260501
130	0x3cc640d4	0.024200834
131	0x3b45a021	0.0030155259
132	0xbdf06824	-0.11738613
133	0x3b8f82ef	0.004379622
134	0x3dd7d949	0.10539491
135	0xbdacae13	-0.084316395
136	0xbd092138	-0.033478945
137	0x3dd10253	0.102055214
138	0xbde6a7e8	-0.11262494
139	0xbe061ce5	-0.1309696
140	0xbdef982e	-0.11698948
141	0xbe20a89a	-0.15689316
142	0x3d8aef42	0.06783916
143	0xbe0bba1c	-0.13645214
144	0xbc13d57a	-0.009023065
145	0x3db6b6ce	0.08921586
146	0x3c7e5dbb	0.015525277
147	0x3dc97694	0.0983707
148	0xbd3ead47	-0.04655197
149	0xbdbc8290	-0.0920459
150	0xbda0a00f	-0.07843029
151	0x3bb06d5a	0.0053841295
152	0x3e30d19f	0.17267464
153	0xbdc844a3	-0.097787164
154	0xbd076f59	-0.033065174
155	0xbd76bc0b	-0.060237925
156	0x3e170e79	0.14751615
157	0xbda68481	-0.08130742
158	0xbdc3fe62	-0.09570004
159	0xbcd61200	-0.02613163
160	0xbde0d0f8	-0.109773576
161	0xbd5a55c6	-0.053304456
162	0xbd259311	-0.040423457
163	0x3dcfb45a	0.10141821
164	0xbba83dff	-0.0051343436
165	0x3de7e0b6	0.11322157
166	0x3d1a0fa5	0.037612576
167	0x3dac1cff	0.08403968
168	0xbdc3e1ce	-0.09564553
169	0xbe0442d9	-0.12916125
170	0x3e0bb5f7	0.13643633
171	0xbc537864	-0.012907121
172	0x3ce5e2c5	0.028062234
173	0x3b041169	0.0020151979
174	0xbd89a67f	-0.0672121
175	0x3db7e7aa	0.08979733
176	0x3d4af7be	0.04955267
177	0xbd9574fe	-0.07297705
178	0x3c1ffda0	0.009765059
179	0xbcb8406b	-0.022491654
180	0xbcbadc27	-0.022810055
181	0xbd5dac69	-0.0541195
182	0x3d6fcefc	0.058547005
183	0xbb2f3061	-0.0026731717
184	0x3d67e7b1	0.056617443
185	0x3d2fd259	0.042925213
186	0x3c1d4546	0.009599036
187	0x3e01434d	0.1262333
188	0x3c94218b	0.0180824
189	0xbc9b1c52	-0.018934403
190	0x3d81ee97	0.063443355
191	0x3d81accf	0.06331789
192	0x3d1cb03b	0.038254004
193	0xbddbb91a	-0.10728665
194	0xbdcbdf0e	-0.09954654
195	0x3e123778	0.14278972
196	0xbdc07b92	-0.09398569
197	0x3e0a12ec	0.1348378
198	0x3b24195c	0.002503953
199	0xbe01350f	-0.12617896
200	0xbc37879b	-0.011201764
201	0xbd19feb5	-0.037596423
202	0x3dc6f843	0.09715321
203	0x3c0bc69e	0.008531241
204	0xbd83a4af	-0.06427895
205	0x3d0ff653	0.035147022
206	0x3d09800c	0.03356938
207	0x3c741f35	0.014900018
208	0xbd552fcc	-0.052047536
209	0xbc4ac7f6	-0.012376776
210	0x3c38dee3	0.011283609
211	0xbcbc26a6	-0.022967648
212	0x3d353766	0.044242285
213	0xbe12834a	-0.14307895
214	0x3dd93344	0.10605481
215	0xbd95a239	-0.07306332
216	0xbd8ec90b	-0.0697194
217	0xbe02ae6c	-0.12761849
218	0x3dd17448	0.10227257
219	0x3d2ac778	0.041694134
220	0xbcef7ff4	-0.029235817
221	0xbde02c0a	-0.109459
222	0xbc337cff	-0.010955094
223	0xbd52be2b	-0.05145089
224	0x3d89deee	0.067319736
225	0x3d5a6a57	0.05332407
226	0xbc970779	-0.01843618
227	0xbbba49ef	-0.005685083
228	0xbdc3e433	-0.0956501
229	0x3d612082	0.054962642
230	0xbdb08dbf	-0.08620786
231	0xbdcc8591	-0.09986413
232	0xbcd72b96	-0.0262659
233	0x3bf46741	0.007458598
234	0xbd28940a	-0.041156806
235	0xbd879fa5	-0.06622247
236	0xbd8b8337	-0.068121366
237	0x3dae6b62	0.085165754
238	0x3be066e7	0.0068482044
239	0x3d2c6d0b	0.04209618
240	0xbdae5e85	-0.08514122
241	0x3cc840f1	0.024445029
242	0xbdef2046	-0.116760775
243	0xbcf1ada3	-0.029501742
244	0x3cffed36	0.03124104
245	0xbcd78f5e	-0.02631348
246	0x3de16cab	0.11007055
247	0x3d134051	0.03595001
248	0xbd2cd869	-0.042198572
249	0xbdafa5fb	-0.0857658
250	0xbe1d7c23	-0.15379386
251	0x3dd9173a	0.10600133
252	0xbd96e70c	-0.073682874
253	0xbda72199	-0.08160705
254	0xbde7dd8b	-0.11321553
255	0xbd83f9f6	-0.06444161

bias_ih_l0 f4 [256]
0	0x3b9a6377	0.004711564
1	0xbc8758c8	-0.016521826
2	0xbbc635b4	-0.0060488824
3	0xbde627df	-0.112380736
4	0xbdb4f5af	-0.08835923
5	0x3e0cd169	0.13751759
6	0x3c33349e	0.010937838
7	0x3d11b830	0.035576046
8	0xbd886e9c	-0.06661722
9	0x3d3b5777	0.04573771
10	0xbe02d83b	-0.12777798
11	0xbd250c82	-0.04029513
12	0x3d90e4bf	0.0707488
13	0xbdb685ff	-0.089122765
14	0x3d4c205e	0.049835555
15	0x3bfe7d24	0.007766383
16	0xbdedcb5e	-0.11611055
17	0x3c849879	0.016185986
18	0xbd639a1a	-0.055566885
19	0x3e2f9e3a	0.17150202
20	0x3cc3223c	0.023820035
21	0xbdbe0f06	-0.09280209
22	0xbd00be54	-0.03143151
23	0x3da69c35	0.08135263
24	0xbce19977	-0.027538998
25	0xbd5a7e14	-0.053342894
26	0xbce5b49b	-0.028040221
27	0x3d45656b	0.048192423
28	0x3d60241d	0.05472194
29	0x3c0ed46f	0.00871764
30	0x3dd5268e	0.10407744
31	0xbd0cefbe	-0.034408323
32	0xbd82ad23	-0.063806795
33	0xbd825528	-0.063638985
34	0xbd34055b	-0.04395042
35	0x3dff7868	0.124741375
36	0x3d8c8181	0.068606384
37	0x3e21c1d7	0.157966
38	0xbc97811d	-0.018494183
39	0x3a08e906	0.00052227115
40	0xbd812a5c	-0.063069075
41	0x3e12c6a8	0.14333594
42	0xbd6af675	-0.057363946
43	0xbdc88980	-0.09791851
44	0x3d0a6450	0.03378707
45	0xbd8047ab	-0.062636696
46	0xbc92c287	-0.017915023
47	0xbd5e3a4a	-0.054254808
48	0x3dbfb51f	0.09360718
49	0xbd11205e	-0.03543126
50	0xbcb82023	-0.022476261
51	0xbe119cf8	-0.14220035
52	0x3db0fc51	0.086418755
53	0xbd536c49	-0.05161694
54	0x3cbbece7	0.022940112
55	0x3e0b57c3	0.13607697
56	0x3cafece9	0.021475272
57	0x3d4bb81d	0.04973613
58	0x3df971b4	0.1217989
59	0xbcd8c179	-0.026459442
60	0xbd8abdd5	-0.06774489
61	0xbc6a6b92	-0.014307873
62	0x3d3318fe	0.043725006
63	0x3db190b0	0.08670175
64	0x3d6af5f3	0.05736346
65	0xbd84b035	-0.06478921
66	0xbdca82db	-0.0988824
67	0xbd598692	-0.053106852
68	0xbd1adb4e	-0.0378068
69	0x3d01ba0d	0.031671572
70	0x3d604ea7	0.05476251
71	0x3d48c4b2	0.04901571
72	0x3aae3b14	0.0013292753
73	0xbe0bd394	-0.1365493
74	0x3cb8adaa	0.022543747
75	0x3d9f6df9	0.077846475
76	0xbe4320b5	-0.19055445
77	0x3cfa02d6	0.03051893
78	0xbd92886a	-0.07154925
79	0xbc92b6cd	-0.017909432
80	0x3cfe8012	0.031066928
81	0xbca56b6f	-0.02019283
82	0x3dbd9af1	0.09258068
83	0xbdc44b5c	-0.09584686
84	0x3c2ea4da	0.010659421
85	0xbcda72f5	-0.026666144
86	0x3d977d8a	0.073969916
87	0xbdcef031	-0.101044066
88	0xbc3a2a0c	-0.011362564
89	0xbe1689d3	-0.14701013
90	0x3d6b93df	0.057514068
91	0x3d8528a8	0.06501895
92	0xbe1ef906	-0.15524682
93	0x3dd9ad37	0.10628741
94	0xbbe35f00	-0.006938815
95	0xbc699d82	-0.014258744
96	0xbdf12bac	-0.11775908
97	0xbdb44d81	-0.08803845
98	0xbc89f0b4	-0.016838409
99	0xbd00e7c8	-0.031471044
100	0xbdd9d073	-0.10635462
101	0x3cefb615	0.029261628
102	0xbe2b61ed	-0.16736574
103	0x3d9592af	0.07303368
104	0xbd196e76	-0.03745886
105	0xbde84ac1	-0.11342383
106	0xbe1b6a59	-0.15177287
107	0xbdad60a7	-0.084657006
108	0xbdcccaab	-0.09999593
109	0xbd78fd8f	-0.060788687
110	0x3d0c9852	0.03432495
111	0x3da0dfa7	0.07855158
112	0xbdf64a53	-0.12025895
113	0xbdf62e03	-0.12020495
114	0xbe0e8d12	-0.13921002
115	0xbcec0a41	-0.028813483
116	0xbe0bc41a	-0.13649026
117	0xbd9f0415	-0.077644505
118	0x3bcdb114	0.006277213
119	0x3be00ec4	0.0068376977
120	0xbde7cd69	-0.11318476
121	0x3d5434e2	0.051808245
122	0x3d80b568	0.062846005
123	0xbdbd79d7	-0.09251755
124	0xbe24af41	-0.16082479
125	0xbdd6e509	-0.10492904
126	0xbda0ff3c	-0.07861182
127	0x3c779c00	0.015112877
128	0xbd3d9df0	-0.0462932
129	0x3d22967e	0.0396943
130	0x3d75c30d	0.060000468
131	0x3c5cc86a	0.013475517
132	0x3db2eec4	0.08736947
133	0x3d1fb24b	0.038988393
134	0x3dd6e5d0	0.10493052
135	0x3db1b1e2	0.086765066
136	0x3dbcf932	0.09227218
137	0xbdb66006	-0.08905034
138	0x3d81d07e	0.06338595
139	0x3e12d811	0.14340235
140	0xbccc8216	-0.024964374
141	0xbc1f5b5a	-0.00972637
142	0xbdf54427	-0.1197589
143	0xbc62e99a	-0.01384964
144	0x3cf0d69c	0.029399209
145	0xbdafff8b	-0.08593663
146	0x3dd606cf	0.104505174
147	0x3d7386ee	0.05945485
148	0x3e072def	0.13201116
149	0xbca039b0	-0.019558758
150	0xbdd2474b	-0.10267504
151	0x3d804c20	0.0626452
152	0xbc227af9	-0.009917014
153	0x3ce1b6ba	0.027552951
154	0xbda5563a	-0.08073087
155	0xbd996db5	-0.07491628
156	0xbdf3a6bd	-0.11897037
157	0x3d93dfe3	0.072204374
158	0x3dc7f77a	0.09763999
159	0x3bd8baed	0.00661408
160	0xbc34e94a	-0.011041949
161	0xbd77f401	-0.060535435
162	0x3e1f7ada	0.15574208
163	0xbd2756b7	-0.040854182
164	0x3d752cf7	0.059857335
165	0xbc15455f	-0.009110778
166	0xbc349aba	-0.011023218
167	0xbbf1c6aa	-0.007378419
168	0x3cca8666	0.02472229
169	0x3c810163	0.015747732
170	0x3d90ecde	0.07076429
171	0x3dae0050	0.08496153
172	0x3dff4db7	0.12465995
173	0x3db81aee	0.089895114
174	0xbdcd40cf	-0.10022127
175	0xbd736b0c	-0.05942826
176	0x3d9e683f	0.07734727
177	0x3d2d4ca4	0.04230942
178	0xbda62cc5	-0.08114008
179	0x3d524e80	0.051344395
180	0x3dc0254c	0.09382114
181	0xbd3529d2	-0.044229336
182	0xbcda6e97	-0.026664061
183	0xbda00c64	-0.07814863
184	0x3afaad10	0.0019125063
185	0x3d42c728	0.04755321
186	0x3d6f6199	0.058442686
187	0xbd87a37d	-0.0662298
188	0x3d259bc6	0.04043176
189	0x3e0aef5b	0.1356787
190	0xbd3dba8b	-0.04632048
191	0x3cd23565	0.025660226
192	0x3d0a2396	0.033725344
193	0x3ce04bc3	0.027379876
194	0x3d8ecf84	0.06973174
195	0xbd424b03	-0.047434818
196	0x3d7b73d7	0.06138977
197	0x3e062ae5	0.131023
198	0xbbe562b2	-0.007000291
199	0x3c697203	0.014248374
200	0x3e03ac36	0.12858662
201	0x3da66764	0.08125189
202	0xbcbe5c12	-0.023237262
203	0x3dbbe85f	0.09175181
204	0xbc924c43	-0.01785863
205	0xbd073971	-0.033013765
206	0x3d53c7d4	0.051704243
207	0xbe156353	-0.1458867
208	0xbd84cfa3	-0.06484916
209	0xbda0b175	-0.07846347
210	0xbdac90d7	-0.084260635
211	0x3d48fb55	0.049067814
212	0xbd832381	-0.06403256
213	0x3dcdaf0d	0.10043154
214	0xbd47d856	-0.0487903
215	0x3da22669	0.079174824
216	0x3bfbc85f	0.007683798
217	0x3cda98e7	0.026684238
218	0xbd97ea95	-0.0741779
219	0x3c1ce1c8	0.009575315
220	0xbdcd2cdc	-0.10018322
221	0x3dfb5772	0.12272538
222	0xbc0af0e4	-0.008480284
223	0x3de8d0ab	0.11367925
224	0xbd9c105f	-0.0762031
225	0xbdb5aace	-0.08870469
226	0xbd9ab739	-0.07554478
227	0xbdcfa0d2	-0.10138096
228	0xbd382b0b	-0.044962924
229	0x3cf74001	0.030181887
230	0x3c867681	0.016413929
231	0xbd968115	-0.07348839
232	0xbdbe3e42	-0.092892185
233	0xbb4b6a5d	-0.003103874
234	0x3d19d2a3	0.037554394
235	0xbe2becc8	-0.16789544
236	0xbdc3f12b	-0.095674835
237	0x3d04289b	0.032265287
238	0xbbe3a6ff	-0.0069473977
239	0xbd4c92fe	-0.04994487
240	0x3dc7989b	0.09745904
241	0xbdae128f	-0.084996335
242	0x3d306a07	0.043069866
243	0x3c1bfbcc	0.009520482
244	0xbd021bc8	-0.031764776
245	0xbca09a28	-0.019604757
246	0xbe153338	-0.1457032
247	0x3d61277b	0.054969292
248	0x3cfe520c	0.031044982
249	0x3dfabaff	0.12242698
250	0x3d7faa27	0.06241813
251	0x3d6e435b	0.058169704
252	0xbe4451ea	-0.19171873
253	0x3dbf41ca	0.0933872
254	0x3daede75	0.08538524
255	0xbd2e620b	-0.04257397

bias_hh_l0 f4 [256]
0	0x3e131fb5	0.14367564
1	0x3dee81ac	0.11645827
2	0x3d417f65	0.047240634
3	0xbdfe27cb	-0.12409934
4	0xbd066bea	-0.03281776
5	0x3de0fede	0.10986112
6	0xbdacba43	-0.08433964
7	0xbd2b6796	-0.041846834
8	0x3df652d2	0.120275155
9	0xbd7e58fa	-0.062096573
10	0xbe0a24b1	-0.13490559
11	0x3dacfb95	0.08446423
12	0x3e2d316d	0.16913386
13	0xbdca7cf9	-0.09887118
14	0x3e092c6f	0.13395856
15	0x3d0d7700	0.034537315
16	0xbe0e8540	-0.13918018
17	0x3d844975	0.06459323
18	0x3e0150a0	0.12628412
19	0x3bc6e1b4	0.0060693864
20	0x3d981509	0.07425887
21	0x3e07ff95	0.1328109
22	0x3df167b0	0.11787355
23	0x3dab5439	0.083656736
24	0xbd8e194f	-0.06938421
25	0xbde620f8	-0.11236757
26	0xbd3c9764	-0.046042815
27	0xbce49a60	-0.027905643
28	0xbdddca4f	-0.10829603
29	0xbd2d753e	-0.04234814
30	0x3d2b49d3	0.04181845
31	0xbd90d634	-0.07072106
32	0xbd48086c	-0.048836157
33	0x3e1d3d41	0.15355398
34	0xbd95f7f0	-0.07322681
35	0xbd65e05f	-0.05612218
36	0x3e0f2a1e	0.1398091
37	0xbcb7149d	-0.022348696
38	0xbd1c36cb	-0.038138192
39	0xbe086e62	-0.13323358
40	0xbd6aac8a	-0.057293452
41	0xbd1d21d7	-0.03836235
42	0xbda0f925	-0.078600205
43	0xbd4d02b9	-0.050051425
44	0xbdd4b58c	-0.1038619
45	0x3e0a7db4	0.13524514
46	0xbdef5dbb	-0.116877995
47	0x3e0297c2	0.12753204
48	0x3e0e2b11	0.13883616
49	0x3d028e89	0.031874213
50	0x3d0e48c3	0.03473736
51	0x3cf953c4	0.03043545
52	0x3db5f909	0.0888539
53	0xbd417b3d	-0.04723667
54	0xbd205edf	-0.039152976
55	0x3db2e9c5	0.08735994
56	0xbd8807b7	-0.066420965
57	0xbd06d515	-0.032918055
58	0x3d9138b2	0.07090892
59	0x3d97a783	0.07404997
60	0xbdb792fd	-0.08963583
61	0x3e273e91	0.16332461
62	0xbd0b1a1e	-0.033960454
63	0x3da0e338	0.078558385
64	0xbd9dd557	-0.07706707
65	0x3d613cd1	0.05498964
66	0x3d12283e	0.03568291
67	0xbd9a4096	-0.0753185
68	0x3d89d2f4	0.06729689
69	0xbca95053	-0.020668184
70	0xbd85cbb0	-0.06532991
71	0xbe04a265	-0.12952574
72	0xbd1fcbf2	-0.039012857
73	0xbdc45701	-0.09586907
74	0x3bd35b58	0.006450098
75	0x3c978b7c	0.018499129
76	0xbd4d23ee	-0.050083093
77	0xbd48e68e	-0.049048
78	0xbd627e39	-0.055296157
79	0x3c7ba76e	0.015359743
80	0x3d540bd7	0.051769104
81	0x3d2ad27c	0.04170464
82	0xbd12f1ae	-0.035875015
83	0x3da3b372	0.07993211
84	0xbdc9c440	-0.09851885
85	0xbd84bd64	-0.06481436
86	0x3c72f81b	0.014829661
87	0xbe1a9c84	-0.15098768
88	0xbdf818be	-0.12114094
89	0x3cb45ec7	0.02201785
90	0xbdcbe351	-0.099554665
91	0x3d809c6a	0.062798336
92	0xbd0106c9	-0.03150061
93	0x3cce1a53	0.025159037
94	0xbdc44f27	-0.095854096
95	0x3d48c952	0.04902012
96	0xbdf20096	-0.11816518
97	0xbd4ef562	-0.050526984
98	0xbd35b734	-0.04436417
99	0xbe1c1302	-0.15241626
100	0x3c73d532	0.014882373
101	0xbd3fbd6b	-0.046811502
102	0x3d5f3faa	0.054504074
103	0xbdae382d	-0.085068084
104	0x3c93a4f7	0.018022997
105	0xbd856f3b	-0.06515356
106	0x3ce8bbda	0.028409887
107	0x3d2e823d	0.042604674
108	0xbe081291	-0.13288333
109	0xbd7894e2	-0.06068886
110	0x3d1bc0d6	0.0380257
111	0xbd75c4b3	-0.06000204
112	0xbd58b668	-0.05290833
113	0xbc7dbec7	-0.015487379
114	0xbc253d02	-0.010085346
115	0xbc1a8ee7	-0.009433485
116	0xbe3658c0	-0.17807293
117	0x3c27170e	0.010198368
118	0x3d3f947d	0.04677247
119	0x3d3cc352	0.04608471
120	0x3c031260	0.007999986
121	0xbd7aa1a6	-0.061189316
122	0xbdb58fd2	-0.08865322
123	0x3daab0cf	0.08334505
124	0x3c71054d	0.014710736
125	0x3daa4eed	0.08315835
126	0xbe31f8de	-0.17380092
127	0xbc48525a	-0.012226665
128	0xbcef93f2	-0.02924535
129	0x3d04136e	0.032245092
130	0x3d9250e0	0.07144332
131	0xbd2829af	-0.041055378
132	0x3cbad435	0.022806266
133	0xbd344554	-0.04401143
134	0xbc967d95	-0.018370429
135	0x3e0d24d5	0.13783582
136	0x3dc1bf64	0.09460333
137	0xbd9787e0	-0.07398963
138	0xbd7da4f6	-0.061924897
139	0x3dfde518	0.12397212
140	0x3d103972	0.035211034
141	0x3dd1b478	0.102395
142	0xbd30a365	-0.043124575
143	0x3df8f890	0.121567845
144	0x3dd27d99	0.10277862
145	0x3d010f94	0.031508997
146	0xbdd6dd8b	-0.10491475
147	0x3d92cb52	0.071676865
148	0xbc83b630	-0.016078085
149	0x3daabd7c	0.083369225
150	0x3d7f83df	0.06238162
151	0xbc49210d	-0.012275946
152	0x3c207ca1	0.009795339
153	0xbdb8a34a	-0.0901552
154	0x3de37a48	0.11107308
155	0xbd9007d3	-0.07032742
156	0xbe25285d	-0.16128679
157	0xbc9ea998	-0.019367978
158	0xbcc5c243	-0.024140483
159	0x3e1c3888	0.1525594
160	0x3ddd7c99	0.10814781
161	0x3d80aa46	0.06282477
162	0x3c1a7f18	0.009429716
163	0x3bcc008b	0.0062256507
164	0xbd167a0a	-0.03673748
165	0xbc719f7f	-0.0147474995
166	0xbd5cd592	-0.053914614
167	0x3d49cbf0	0.049266756
168	0x3d83e48d	0.06440077
169	0x3e164c02	0.14677432
170	0x3de2f7d1	0.110824235
171	0xbd1d678d	-0.03842883
172	0x3e1b1d13	0.1514781
173	0xbcc2b848	-0.023769513
174	0x3d50ade7	0.050947096
175	0xbd52fe78	-0.05151221
176	0x3d0490ec	0.03236477
177	0x3d475d2c	0.04867284
178	0x3df3f685	0.11912254
179	0xbd461804	-0.048362747
180	0xbd925fbf	-0.07147168
181	0xbc993735	-0.018703083
182	0x3ddeff16	0.108884975
183	0x3de497ac	0.111617416
184	0xbdd4e56e	-0.10395323
185	0x3de64026	0.11242704
186	0x3d7fcc28	0.062450558
187	0xbe04d405	-0.12971504
188	0xbde452e2	-0.11148621
189	0xbbb9d42c	-0.005671045
190	0xbde97d89	-0.11400897
191	0xbd82074f	-0.0634905
192	0x3db0da44	0.08635381
193	0x3cbaee4a	0.022818703
194	0xbce162ae	-0.027512874
195	0xbdfe9c8a	-0.12432201
196	0xbd89995d	-0.06718705
197	0x3dae9205	0.08523945
198	0x3d3cb2fa	0.046069123
199	0xbdee590c	-0.11638078
200	0x3cccc4fa	0.02499627
201	0x3cef9e66	0.029250335
202	0xbc16f15e	-0.00921282
203	0x3d68dbee	0.056850366
204	0x3d4bc36e	0.049746923
205	0x3b9ab666	0.0047214506
206	0x3db0f098	0.086396396
207	0xbba35096	-0.004983972
208	0xbcef0151	-0.029175432
209	0x3dc9d13a	0.0985436
210	0x3e070cd0	0.13188481
211	0x3cd99b3e	0.026563283
212	0xbde17f81	-0.110106476
213	0x3cdf4d0e	0.027258422
214	0x3dbd6dc0	0.09249449
215	0x3dd9f83c	0.1064305
216	0xbdcfc231	-0.10144461
217	0xbd2b3194	-0.04179533
218	0x3db562f3	0.08856764
219	0x3e08f8fa	0.13376227
220	0xbc397a75	-0.0113207
221	0xbd887f4e	-0.066649064
222	0x3d17b5de	0.037038676
223	0xbd69a2be	-0.05703997
224	0xbcfd07c6	-0.030887496
225	0xbd9e3b67	-0.07726174
226	0xbcc47327	-0.02398069
227	0x3c3762f1	0.011193023
228	0xbdb84ab3	-0.08998623
229	0x3d0bfad3	0.03417475
230	0xbe0787b6	-0.13235363
231	0x3d98aa22	0.07454325
232	0xbdd2ed49	-0.10299165
233	0x3e09a2bc	0.13440984
234	0x3cecdfa8	0.028915241
235	0xbe12c01c	-0.14331096
236	0xbddcdb2b	-0.107839905
237	0xbbe66165	-0.0070306533
238	0xbc19445a	-0.009354675
239	0xbcbc123e	-0.022957917
240	0x3bb461b9	0.0055048135
241	0xbd54fb39	-0.051997397
242	0x3c1f450d	0.009721053
243	0x3c96dabe	0.018414851
244	0x3dd7096d	0.10499845
245	0x3cbad6f0	0.022807568
246	0x3d6be916	0.057595335
247	0x3e1bcbf5	0.15214522
248	0xbd47a98c	-0.048745677
249	0xbdc2b0c7	-0.09506374
250	0xbc93d124	-0.018044062
251	0x3deab48d	0.114602186
252	0xbd61f079	-0.055160973
253	0x3df47198	0.11935729
254	0xbd5ed84a	-0.054405488
255	0xbdc38327	-0.095465

weight f4 [1, 64]
0	0xbe1c37ff	-0.15255736
1	0x3e1faa19	0.15592231
2	0xbcf974c7	-0.030451192
3	0xbc48ad9d	-0.012248424
4	0xbdb538ac	-0.088487
5	0x3dd919e2	0.1060064
6	0x3d9dbbcb	0.07701834
7	0xbdaf0968	-0.08546716
8	0xbe09a858	-0.13443124
9	0xbcfb05fa	-0.030642498
10	0x3ca1121a	0.019661952
11	0xbd1bfc00	-0.038082123
12	0x3d324784	0.043525234
13	0x3d2b6da8	0.041852623
14	0x3d3555b0	0.04427117
15	0xbc8d7409	-0.017267244
16	0xbd7974b0	-0.060902297
17	0x3da92ece	0.082608804
18	0x3d328519	0.043583963
19	0xbd8852dd	-0.0665643
20	0x3cd2bb38	0.025724038
21	0x3d816a32	0.06319083
22	0x3dcf6b51	0.10127891
23	0x3dd8de7a	0.10589309
24	0x3df176bc	0.11790225
25	0xbddf5292	-0.10904421
26	0xbdd771b6	-0.105197355
27	0x3dd1a3ef	0.10236346
28	0x3e0ba890	0.1363852
29	0xbe07b715	-0.13253434
30	0x3da1d3a0	0.079016924
31	0xbda0e255	-0.078556694
32	0xbd082d41	-0.033246282
33	0x3e1d74a3	0.15376525
34	0xbd52ed77	-0.051495995
35	0xbdfa50f8	-0.12222475
36	0xbc26dcc6	-0.010184472
37	0x3e0e28ef	0.13882802
38	0x3d8b6d30	0.06807935
39	0xbd60dc8b	-0.054897826
40	0xbdb6b426	-0.08921079
41	0xbe0dc018	-0.13842809
42	0x3d28a8ff	0.041176792
43	0xbcaf5b0e	-0.021405723
44	0xbd33b964	-0.043877974
45	0x3dfc4468	0.12317735
46	0xbdb77a23	-0.089588426
47	0x3dd628ce	0.104570016
48	0x3d641b86	0.05569031
49	0x3d431f47	0.04763725
50	0xbe04de19	-0.12975349
51	0xbda4bfcd	-0.080443956
52	0x3d312b73	0.043254327
53	0xbcd95d87	-0.026533855
54	0xbcc982d6	-0.02459852
55	0xbe0988b5	-0.13431056
56	0x3d14fdb8	0.036374778
57	0xbd737d0a	-0.05944542
58	0xbe06b970	-0.13156676
59	0x3dba9908	0.0911122
60	0x3bf9358d	0.0076052607
61	0xbdeb0a46	-0.11476569
62	0x3cb09548	0.021555558
63	0x3d91ff74	0.07128802
