model/4662.935127148993_weight.pth (torch, 90511 bytes, 7 tensors)

weight f4 [16, 32, 1]
000000 aa 58 74 be 6c 23 d9 bd 54 aa 84 bd cb 98 3a 3d
       -0.23861948 -0.10602459 -0.064778 0.04555587
000010 32 d5 0a 3e cc 3c 78 3d 56 ce 41 bd 68 76 14 3e
       0.1355789 0.060604855 -0.047315918 0.14498293
000020 fb ff 23 be e8 fd 14 be 58 3c 48 bd d6 48 df 3d
       -0.16015618 -0.14549983 -0.048885673 0.10902564
000030 21 45 1c be 4c 2f af bd 9e f5 0a 3e ca 99 d7 bc
       -0.15260746 -0.08553943 0.13570258 -0.02631845
000040 94 72 0c bd 22 4a 52 3d c3 c6 ea 3d cb bb 16 be
       -0.034288958 0.05134023 0.11463692 -0.14720075
000050 6d b7 4d be be f2 bf 3b a3 c0 e1 bd 93 e0 c7 3c
       -0.20089503 0.0058577945 -0.11023071 0.024399078
000060 54 c6 c8 bc 02 0d 6a 3d b0 9e ae 3d ee ae 15 3d
       -0.024508633 0.05714131 0.08526361 0.03654378
000070 38 30 d2 bd 68 a4 19 3a 2e e3 ed bb 4b cc ff bd
       -0.10263103 0.0005860985 -0.007259748 -0.12490138
000080 d8 16 d2 bd 9d 9e 0d 3d 70 8c 8a bd 7f 83 44 bc
       -0.10258263 0.034575094 -0.067650676 -0.011994242
000090 e9 0e 02 be d0 f6 75 bd 73 e5 05 3e dc 99 d7 3d
       -0.12701 -0.060049832 0.13075809 0.10527393
0000a0 12 49 6a bd 2e 74 e8 bd 68 78 f5 3c f2 f5 fe bd
       -0.05719859 -0.113502845 0.02996464 -0.12449254
0000b0 f0 30 b4 bd c9 5f 89 3d 2c 87 58 bd 90 f5 1e bd
       -0.087983966 0.06707723 -0.052863285 -0.038808405
0000c0 1e 9b 03 be 80 f0 d4 bd 56 b9 a5 bd 44 22 ee bb
       -0.12852141 -0.10397434 -0.08091991 -0.0072672684
0000d0 01 83 bf bd c5 8e 5c 3d 50 ae 0c be 43 cd 30 3d
       -0.09351159 0.053847093 -0.1373837 0.043164503
0000e0 1b 55 22 be fb f5 49 3d 4d 89 19 3e 02 56 14 3e
       -0.15852778 0.04930685 0.14993782 0.14485934
0000f0 c8 e3 13 3e 3e a1 b2 bc 8c 9c 7c bd 2a 8e a3 bd
       0.1444236 -0.021805402 -0.061672732 -0.079861
000100 3b e0 8f be 53 88 58 be 9c 61 f6 bd 9f 26 a8 3d
       -0.28100762 -0.21145754 -0.12030336 0.082104914
000110 a2 c1 52 3d c8 a7 10 3e d9 3c 06 be 53 95 ea 3d
       0.051454194 0.14126503 -0.13109149 0.114542626
000120 a3 34 fb bc 6e 05 1c 3e 3d 81 2d 3d 5e e6 10 be
       -0.030664748 0.15236446 0.04235958 -0.14150378
000130 d5 43 a4 bd 52 e8 1a be 0d dc 80 bd 39 c3 45 ba
       -0.080207504 -0.15127686 -0.06291971 -0.0007544044
000140 f5 13 38 3d f4 66 fc 3d af 9b 52 3e 4f d9 72 bc
       0.044940908 0.12324324 0.20567201 -0.014822318
000150 73 6e 7e be c0 05 06 bd ad b5 1c 3c f5 5d 80 3d
       -0.2484682 -0.032720327 0.009564799 0.06267921
000160 bc 7a d7 bd 1e e3 0f be 30 e2 ef 3c e0 b1 c2 bd
       -0.105214566 -0.14051482 0.02928266 -0.09506583
000170 51 18 52 3d 4f 08 72 3d 09 67 e3 3c 12 c8 ff 3d
       0.05129272 0.059089955 0.027759092 0.12489332
000180 9f 3e bb 3d 9b 7c af bd 6f 31 5e 3c 1b 84 c6 bd
       0.091428034 -0.085686885 0.013561591 -0.09693166
000190 84 36 8d bb fa 33 d4 bd 90 8d 66 3c 24 5f 23 be
       -0.0043094773 -0.10361476 0.014071837 -0.15954262
0001a0 ad c6 3b 3e 29 31 bf 3d 2b fb e4 3d 73 db 42 bd
       0.18337508 0.093355484 0.11180719 -0.047572564
0001b0 fd c3 41 3e 24 4a 83 bd 03 7b e1 3d 5a f1 5c 3c
       0.1892242 -0.064106256 0.11009791 0.013485277
0001c0 91 8e 06 be a2 4a 39 3d 57 d0 09 be cb 8d 0b be
       -0.13140322 0.04523719 -0.13458382 -0.13628308
0001d0 57 e2 2e 3e ad ed 01 3d a6 dd 09 be 6d ad da bd
       0.1707853 0.031720806 -0.13463458 -0.106776096
0001e0 05 a2 53 3d 60 94 e7 3d a5 f3 6a be 1a 60 24 be
       0.051668186 0.11307597 -0.22944506 -0.16052285
0001f0 e0 35 13 3e 03 f3 d4 bd 92 9c 86 3d 15 88 4b bd
       0.1437602 -0.10397913 0.06572832 -0.049690325
000200 d4 72 72 3d e8 a2 16 be 1e 41 04 be ef f7 33 be
       0.05919154 -0.14710581 -0.12915465 -0.17575048
000210 a9 20 7c bc a3 a1 b7 3d b1 48 05 bd 57 4c 2e 3e
       -0.015388646 0.08966377 -0.032540027 0.17021309
000220 61 80 dd bd 60 b6 eb bd 8a 16 35 3d e0 a2 c9 bc
       -0.10815502 -0.11509395 0.044210948 -0.024613798
000230 18 ec e8 3b 08 7a bc bd c1 cc 75 bc fc 36 0a 3e
       0.0071082227 -0.09202963 -0.01500243 0.13497537
000240 30 38 ed 3d 79 c0 47 3e 26 68 ac be cc ea 2f 3e
       0.115829825 0.19507016 -0.3367321 0.17179412
000250 34 66 39 3e 54 88 17 3e 88 cd c1 3d f6 d5 68 bd
       0.18105394 0.14798099 0.0946303 -0.056844674
000260 75 bc 60 be 74 51 0d be 4d 3b 9d bd 87 c4 ce bd
       -0.2194689 -0.13800603 -0.07677326 -0.10096078
000270 9b b2 a2 bd 4a 1a 2d be 15 e0 05 3e 46 06 80 bd
       -0.079442225 -0.1690456 0.13073762 -0.062511966
000280 de 7b 1e be a8 fe 29 be 3e 66 0c 3d 35 61 85 bc
       -0.15476939 -0.1660105 0.034277193 -0.016281703
000290 b1 fc df bd 4c 43 ac bd 2e 46 39 3e f6 f2 ec bd
       -0.10936869 -0.08411273 0.18093178 -0.115697786
0002a0 b5 d2 a5 3d bd 6f 96 3c 04 2c 11 3e 3e 94 68 3d
       0.0809683 0.018363828 0.14176947 0.056782
0002b0 16 6a 4d 3e 7c d1 d4 3d 46 57 2d 3d eb 04 1d be
       0.2006 0.103915185 0.04231956 -0.15333907
0002c0 07 39 25 bd 6f 31 f0 bd 35 65 1c 3e 39 fa 0e 3b
       -0.04033759 -0.11728179 0.15272982 0.0021816625
0002d0 e5 f1 45 be 43 27 45 3e 75 50 c6 bd 0e 66 d4 3d
       -0.19330557 0.19253258 -0.09683315 0.10371028
0002e0 81 71 fa 3c 9c 01 08 be 83 50 1a 3d 2f 4c b8 bd
       0.030571701 -0.13281864 0.03767444 -0.08998906
0002f0 09 5c 72 bd 5d 84 be 3c dc 4d e3 3d 9b 34 fd bd
       -0.059169803 0.023256475 0.11098835 -0.12363549
000300 89 f3 2d 3e af 68 09 3e 40 f0 84 3e 59 68 8c 3d
       0.16987433 0.1341884 0.25964546 0.0685584
000310 f8 d1 f9 bb 57 dc 17 bd e0 38 10 bd 28 92 1a be
       -0.007623907 -0.037075367 -0.03521049 -0.15094817
000320 17 14 d6 bc 90 ef f6 3d e6 f2 e3 bd 92 49 c7 3d
       -0.026132626 0.12057412 -0.111303136 0.09730829
000330 6a f5 f8 3c ac 35 32 be fd 31 fa 3d ce 8c 80 bd
       0.03039046 -0.17403287 0.12216566 -0.06276856
000340 70 e9 e3 bd 28 17 ed 3d 86 a0 1a be 8a 43 a6 bd
       -0.11128509 0.11576682 -0.15100297 -0.08118351
000350 8a d9 8d bb d9 e8 03 be 24 a9 3e 3e ea 97 37 3d
       -0.004328911 -0.12881793 0.1861921 0.04482261
000360 0b 64 3e bd 2a ba 00 be 2d 1d 9f 3c 5a b1 08 be
       -0.046482127 -0.12571016 0.019423092 -0.13348904
000370 7a 2b 07 3e df 21 89 3d 7e ab b3 bd 79 1e 1e be
       0.13200179 0.066959135 -0.08772944 -0.15441312
000380 05 5d 80 be 20 1b 5e be 4f c6 6b 3d a5 ba 27 3e
       -0.25070968 -0.21690035 0.05756217 0.16379793
000390 85 e4 34 3d ae c5 de 3d 30 55 d8 bb 70 59 8f 3d
       0.044163246 0.10877548 -0.006601952 0.06999481
0003a0 eb ce 92 3d 3c 12 db bd 02 fb 04 be a3 84 66 3c
       0.07168373 -0.10696837 -0.12986377 0.014069709
0003b0 cb 33 73 3c 0b 1b 9c 3c 2c 73 13 3c 3d fa 77 3d
       0.014843891 0.019055864 0.008999627 0.06054138
0003c0 3b a6 27 bd d7 36 33 be 9a 4c 27 be 3d 76 36 be
       -0.040930014 -0.17501388 -0.16337815 -0.17818542
0003d0 4f 34 e2 3b 43 82 eb bd d2 c4 e2 bb d8 fb c1 bd
       0.0069032083 -0.11499455 -0.0069204355 -0.094718635
0003e0 2f c1 7d 3b 4c ba bc bd 4d d7 0c 3e eb f1 0c 3e
       0.0038719883 -0.09215221 0.13754006 0.1376416
0003f0 40 78 f9 bc 5f a9 05 3d c4 a8 ff bd 2c 84 0b be
       -0.030452847 0.032632228 -0.12483361 -0.13624638

bias f4 [16]
000000 b2 e1 8d 3c 5a 0b 04 3e f0 8f e1 3d 8b 3f 97 3c
       0.017319534 0.12894955 0.11013782 0.018462917
000010 39 cf 9b bd 2f 64 fd 3c 20 11 cb 3b 24 75 06 3e
       -0.07607884 0.03093156 0.00619711 0.13130623
000020 7f 49 d0 3d 94 30 f9 3d f6 22 1c 3e a8 4c b0 bd
       0.10170268 0.12167469 0.15247712 -0.08608371
000030 fe 35 e0 bd 34 ec e1 3d fc 33 4f bd 00 75 ad bd
       -0.10947798 0.1103138 -0.050586686 -0.084695816

weight_ih_l0 f4 [256, 16]
000000 e0 96 88 3d 91 a6 ec bd 35 e3 e4 bd af 64 9c bd
       0.06669402 -0.115552075 -0.11176149 -0.07636391
000010 33 a6 12 3e 21 f0 20 bd ee 01 09 3d e5 0d 25 be
       0.14321212 -0.039291505 0.033449106 -0.16118582
000020 23 3d 6c bc 21 a3 a2 bd 77 67 d6 bb 05 09 69 bd
       -0.014418873 -0.079412706 -0.0065430957 -0.056893367
000030 bf 05 39 bd ad 0c c0 bd ae 9a 06 3d 29 c3 6c bd
       -0.045171496 -0.09377418 0.032862358 -0.057803307
000040 6a 5e 23 3d e1 26 78 bd a5 05 f1 3d 86 53 dd bd
       0.039884962 -0.060583953 0.11768655 -0.108069465
000050 9c 51 0b 3e eb b7 f6 3d 1b 4b c8 bd bb 6b b6 3d
       0.1360535 0.12046798 -0.0977995 0.08907267
000060 61 ec e0 3c 57 43 85 3b e6 03 2a 3e 26 16 be 3c
       0.027456464 0.0040668654 0.1660305 0.02320392
000070 90 f8 c6 bd 95 5c 38 bd 51 c6 fa bd 96 ef 28 be
       -0.09715378 -0.045010168 -0.12244857 -0.16497645
000080 2e 97 00 3e 13 14 a6 bd 23 2a a6 3d 37 5a aa 3d
       0.1255767 -0.081092976 0.08113506 0.08317988
000090 8d 1f 5f bd 98 07 ea 3c 57 53 b1 bd 14 a9 5c 3d
       -0.05447345 0.028568074 -0.08658474 0.053872183
0000a0 df 14 87 bd 97 8a e0 3d 60 9e e3 3c db 55 95 bd
       -0.06595778 0.10963934 0.02778548 -0.07291766
0000b0 75 af 85 3d b2 77 35 3d 9c 28 16 be 30 bb b5 bd
       0.065276064 0.044303603 -0.14663929 -0.08873594
0000c0 63 d8 f0 3d ff 96 2b 3e b6 ce 66 3d 22 ca d5 3c
       0.117600225 0.16756819 0.05634948 0.026097361
0000d0 0b a0 00 3e 2e 30 1e 3d 79 f2 58 bd 88 3a 51 bd
       0.12561052 0.038620166 -0.052965615 -0.05108121
0000e0 79 b7 40 3d 58 ab b1 3d 37 0e e6 3d 0d 0d 9d 3d
       0.047049973 0.08675259 0.1123318 0.07668505
0000f0 2a fe b2 3d aa 4a 12 3b 0d 66 d2 bc fb 98 91 bc
       0.08739884 0.0022322335 -0.025683427 -0.017773142
000100 10 64 f2 3d 66 08 42 bd 9e 07 be 3d 06 3f 3e 3d
       0.11835492 -0.04737129 0.092787966 0.046446823
000110 a3 d6 df 3d 01 9f 01 3e a5 88 00 be 77 a8 7d 3c
       0.109296106 0.12658311 -0.12552126 0.01548206
000120 a4 30 e2 bd f9 e0 52 3d 77 98 07 3e 82 39 99 3d
       -0.11044434 0.051484082 0.13241754 0.07481672
000130 a0 6f 07 bc 27 0d 37 bd 7e c5 25 bd 5c dc bf bd
       -0.00826636 -0.044690277 -0.040471546 -0.09368202
000140 4a d8 bf bd 83 7b d4 bb 83 57 cc 3d d2 88 40 bd
       -0.09367426 -0.0064844503 0.09977629 -0.047005482
000150 88 e5 b9 b8 bc d4 5e 3d 71 a7 23 bc 32 7e 66 3d
       -8.864241e-05 0.054402098 -0.009988652 0.056272693
000160 53 15 50 bd 94 7f bb 3d 38 02 0d bd d6 dd d4 3d
       -0.050801586 0.09155193 -0.034425944 0.10393874
000170 05 23 a9 bd 5b 28 17 bd 69 82 f0 3d a7 29 bf bd
       -0.082586326 -0.03690372 0.11743624 -0.093341164
000180 5d 7f d7 bd 0d d0 42 3c d2 20 7c 3d 78 db 11 3d
       -0.105223395 0.0118904235 0.061554737 0.035609692
000190 64 c0 63 3d 51 93 16 be b1 1d 23 3e 48 87 71 bd
       0.0556034 -0.14704634 0.15929295 -0.058966905
0001a0 69 15 6a bb 42 84 17 bd b1 16 ce bd 74 92 9a 3d
       -0.0035718328 -0.036991365 -0.10062922 0.07547465
0001b0 37 40 88 3d 44 87 06 be 4d 26 9d 3d c9 66 7c 3d
       0.06652873 -0.13137537 0.07673321 0.06162146
0001c0 25 70 8d 3d ea cd 40 bc 3d 36 21 3d 35 2e 14 bc
       0.069061555 -0.011767844 0.039358366 -0.00904422
0001d0 cd 73 d2 bc 37 11 bf bc 92 05 79 bc 49 d9 f7 3d
       -0.025689984 -0.023323638 -0.015199082 0.12101991
0001e0 e9 97 5f bd 25 e0 02 3e 9e e5 c1 bc a0 16 90 bc
       -0.054588232 0.12780817 -0.02366906 -0.017588913
0001f0 9b 6f 19 3e f4 3b 26 3e 0a 80 28 3d fe bc 16 be
       0.1498398 0.16233808 0.041137733 -0.14720532
000200 c3 bd ff 3d 76 9b 35 bd de 42 08 bc 21 55 61 bc
       0.12487366 -0.044337712 -0.008316724 -0.0137532065
000210 28 2c e8 bd cb 6f 4e bc 1e dd b7 3c 44 b4 fc bc
       -0.11336547 -0.012599896 0.022444304 -0.030847676
000220 13 da 9c bd cf f2 02 3e a4 d7 dd 3d d9 e2 44 3c
       -0.07658782 0.12787937 0.10832146 0.012016975
000230 7b e0 94 3d 34 22 65 3d 62 ff a2 3b 3b cd 7e bd
       0.07269379 0.05594082 0.0049742917 -0.06220744
000240 45 a5 23 3e ce 2f b7 3d 88 bb 4c 3d 9c d9 98 3d
       0.15981014 0.08944665 0.04998353 0.07463381
000250 44 f2 d7 3d dc 7a 17 3e 82 eb 19 be 88 5c 2f 3d
       0.105442554 0.14792961 -0.15031245 0.042812854
000260 4a e1 4b 3c fc 60 54 3d 36 e2 d8 bc 2c 08 12 3e
       0.01244385 0.051850304 -0.026475053 0.1426093
000270 be f3 e9 bc b3 4d af 3c 66 cf 88 3c 8c db 1d be
       -0.028558608 0.021399355 0.016700458 -0.15415782
000280 21 35 ef bd 9b a4 ad bd 9f a1 d8 3d c6 d1 4f bd
       -0.116800554 -0.084786616 0.10577702 -0.050737165
000290 28 b1 4d bd 99 51 a8 bd 3f ca 0d 3d 51 96 01 be
       -0.050217777 -0.082186885 0.034616705 -0.12654997
0002a0 02 d8 57 3d 30 44 a1 3d c2 55 b8 3d 43 a4 43 3d
       0.052696235 0.07874334 0.09000732 0.047764074
0002b0 9a 95 00 3e 87 2f 77 bd 1f 1f 99 bd 72 07 45 bd
       0.12557068 -0.06034806 -0.07476639 -0.048102804
0002c0 3e f9 06 3e a3 e0 9a bd e0 73 dd 3d 8f f1 b8 3d
       0.13181016 -0.07562377 0.10813117 0.09030449
0002d0 24 16 c8 3d a2 e5 e7 3d 6c b2 98 bd 9c 2a 87 3d
       0.09769848 0.11323096 -0.07455906 0.06599924
0002e0 25 a9 e2 bd eb ac 24 3d 31 c0 6c 3d 71 4a 9b 3d
       -0.11067418 0.04020397 0.057800476 0.07582558
0002f0 1d a4 ee 3d 79 bc b6 3c 00 ed 50 bd 80 40 b1 bd
       0.11652396 0.022306668 -0.05100727 -0.086548805
000300 95 3f c3 bd 98 68 16 bd b5 f0 57 bb 5f 1e 1e 3e
       -0.09533612 -0.036720842 -0.003294987 0.15441273
000310 c8 b3 83 3d 74 cc 09 3e 8d 12 3d bd 26 8c 4a 3d
       0.06430775 0.13456899 -0.04616027 0.049450062
000320 da df 2f 3e 8e c5 25 bd 9f 48 e8 bd f6 a8 27 be
       0.17175236 -0.040471606 -0.113419764 -0.16373047
000330 53 a1 57 bd 76 4d 8a bd 5a c3 b2 b8 18 f8 ad bc
       -0.052644085 -0.06753056 -8.5240885e-05 -0.021236464
000340 cc 34 ba 3d 8a 99 c7 3c fc 2a bd bd 3c b8 be bd
       0.090921015 0.024365205 -0.09236714 -0.09312484
000350 93 f5 87 bd 5e 3d 5f bc d4 55 0e be c7 2a 4b bd
       -0.066386364 -0.013625471 -0.13899928 -0.049601343
000360 b3 0f 0a be 3a cf 9d 3d 93 0d 05 3d c4 b2 d7 3d
       -0.13482551 0.07705541 0.03248365 0.10532144
000370 31 9b ba 3d a0 88 bc 3d 17 07 4f bd 60 a4 d1 bd
       0.09111632 0.09205747 -0.05054387 -0.1023643
000380 32 0c 1b 3e ba c0 0f 3d 43 d7 35 3c d1 c5 b7 3d
       0.15141371 0.035095908 0.011098686 0.08973277
000390 fe c5 e5 bc 7d db 89 3c 45 2c 93 bd 6e ac 15 bd
       -0.028048512 0.016828293 -0.07186178 -0.036541395
0003a0 61 7d 49 3c f7 33 85 3d a5 6f 16 3e 53 d4 45 3d
       0.012297959 0.06504052 0.14691027 0.04829819
0003b0 0b 41 01 bd 2b 99 2b bd 73 ff 2e bd ff 86 9d bc
       -0.03155617 -0.04189412 -0.042724084 -0.01922941
0003c0 9e 6b 97 bd e1 93 71 3d 93 13 24 3e 71 52 5b bd
       -0.07393573 0.05897892 0.16023092 -0.05354542
0003d0 c2 31 a7 bd 7c 2d 8b bd 15 f0 94 3c 0c c3 cb bc
       -0.081637874 -0.06795785 0.018180886 -0.024873279
0003e0 b5 df 0f 3d 0f 39 3f 3c 2d 6a 3b 3d d6 86 6a bd
       0.035125453 0.011671319 0.045755554 -0.057257496
0003f0 40 ec 57 3c ed 79 18 3d ef ba 19 be 13 e8 9b bd
       0.013178885 0.037225652 -0.15012716 -0.07612624

weight_hh_l0 f4 [256, 64]
000000 42 c2 a6 3d f5 d3 c0 bd f5 60 db bd 45 9a 83 3d
       0.081425205 -0.094154276 -0.107118525 0.06425909
000010 2a df ad bd 88 3a 3e 3d 67 b9 ae bd de 99 6b 3d
       -0.08489831 0.04644254 -0.085314564 0.057519786
000020 c2 bf 99 bd fa f5 b3 bd 13 c1 0b 3e d4 2d a3 3d
       -0.07507278 -0.08787151 0.1364787 0.079677254
000030 1b 00 fc 3d f5 3e ed 3d 95 ac 9d 3d 30 37 ba bd
       0.123047076 0.11584274 0.07698933 -0.090925574
000040 78 fd b7 bd 97 99 f0 3c e7 c5 dd 3d 51 7d fa bd
       -0.08983892 0.029370112 0.108287625 -0.122309335
000050 b6 84 90 bc 9c 45 08 bd 5e 21 1d 3d 39 6e 1e bd
       -0.017641407 -0.03326951 0.0383619 -0.038679335
000060 9b 09 ff bd 8f ef a6 3d 26 4e 19 3d 9c ff fd 3d
       -0.12453004 0.08151161 0.037428044 0.12402269
000070 ca fc 65 3d e0 90 e4 bd 7e 93 95 bd 32 e1 8e 3c
       0.05614928 -0.11160445 -0.073035225 0.017441366
000080 11 5e 1d 3e 96 71 2f bd f8 75 91 3d 7e ce e5 bd
       0.15367915 -0.042832933 0.07102579 -0.11221026
000090 85 38 d6 3b 6d 6d 7e 3d 1d 26 bb 3d f6 e6 1c bc
       0.0065374994 0.062116075 0.09138129 -0.00957655
0000a0 bc d6 28 3b ac 85 ef bb 37 4a 04 bd fe db 92 bc
       0.0025762757 -0.007309636 -0.03229734 -0.017927166
0000b0 5f e7 4b 3d 2b 17 6f bd 78 8c 9c 3d 39 40 32 3d
       0.0497812 -0.058371704 0.0764398 0.04351828
0000c0 82 e3 89 bb cd 1a 02 3d c5 33 01 be a2 0b a2 bd
       -0.0042080292 0.03176384 -0.12617405 -0.07912375
0000d0 05 4b cb bc 1f ed 45 3d 3d 73 8d 3d 4a 09 6b 3d
       -0.024816046 0.04832184 0.069067456 0.057381906
0000e0 e3 6b 2f 3d 81 c0 e6 3d cc 0c c5 3c 78 bb 6e bd
       0.0428275 0.11267186 0.024053954 -0.058284253
0000f0 35 f4 3a bc fd a0 f3 3c 9c 10 b9 3d 00 a3 9d 3d
       -0.011410763 0.029739851 0.09036371 0.076971054
000100 17 07 72 3d 6c d2 77 bc c7 66 7b bd a7 eb 25 3d
       0.059088793 -0.015125852 -0.061377313 0.04050794
000110 6a af 82 3d 35 e9 a2 3b dd 9e c7 3d ed 32 f6 3d
       0.06381114 0.004971648 0.09747098 0.12021432
000120 83 47 eb 3d ca 31 b4 3d f2 bc 9b bd 6b 5c 0c bd
       0.11488249 0.08798559 -0.07604398 -0.034267824
000130 e7 66 50 bd 4f c9 06 be d8 8d 04 3e 19 3f b3 3d
       -0.050879385 -0.1316273 0.12944734 0.08752269
000140 66 46 69 3c af 9e a2 bd f3 69 b9 bd 96 4b db bc
       0.014237976 -0.07940423 -0.09053411 -0.02676944
000150 24 70 d2 bc ad 8a cf bd 06 ed b5 bc ee 57 94 3d
       -0.025688238 -0.10133872 -0.022207748 0.07243334
000160 5c 8c fd 3d 26 fa 19 bd 2b e3 cb bc 8d 0e 0b 3d
       0.12380287 -0.037592076 -0.024888596 0.033949424
000170 7b 6a 32 bd a8 e4 91 3d 6b 33 8b bd 06 a1 c0 bd
       -0.04355858 0.07123691 -0.067969166 -0.09405713
000180 e8 49 35 bd 91 ee 0c 3d 99 01 67 bc 2d e9 38 3c
       -0.044259936 0.034407202 -0.014099502 0.011286062
000190 da f4 78 3d 41 cb 4a 3d 02 fa 0c 3e e2 de a0 3d
       0.060780384 0.049510244 0.13767245 0.078550115
0001a0 5f 09 b7 3d 27 4e b2 3d 3a e3 45 3d c2 8c eb bc
       0.08937334 0.087063126 0.048312403 -0.028753642
0001b0 77 40 de bc 29 07 26 bd 0e 67 b9 3c ab 7b 25 3d
       -0.027130349 -0.040534172 0.022632148 0.040401142
0001c0 74 ef e5 bd 38 91 8a 3c 3f 98 d1 3d ed ed f1 bd
       -0.11227313 0.016914949 0.10234117 -0.11812959
0001d0 44 a0 af 3d 84 1d 02 3e 50 12 99 bd 83 8e bc bd
       0.0857549 0.12706572 -0.07474196 -0.092068695
0001e0 af 79 09 bd b1 4e 46 bd fa 19 ef 3b 18 57 a4 bd
       -0.033563312 -0.04841489 0.007296798 -0.08024424
0001f0 be eb 2d 3c e1 30 d4 bc 0c 96 6b bc b2 32 e4 3c
       0.010615287 -0.025902214 -0.014379036 0.027856205
000200 ee 90 38 3d 23 58 6b 3d 4f f0 0f be cc f2 9e 3c
       0.04506009 0.0574571 -0.14056514 0.019402884
000210 a4 44 58 3d 23 8c ba bd 5d 1f 29 3c dc ce 23 bd
       0.052799836 -0.0910876 0.010322419 -0.0399922
000220 c7 ce d6 3d 15 4a 53 3c 57 1e a4 bc de f5 df 3d
       0.104886584 0.0128960805 -0.020033998 0.10935567
000230 c9 d9 59 bc d5 0c 5a bd 5f db 1d 3d ea 93 e1 3c
       -0.013296553 -0.053234894 0.038539287 0.027536351
000240 0c 79 8e 3d 79 50 8e 3d 62 33 18 3d af c0 e7 bc
       0.069566816 0.06948943 0.037158377 -0.02829012
000250 72 26 ab bb 47 36 84 3d 46 a8 24 bc 56 cb 21 be
       -0.005223089 0.06455665 -0.010049885 -0.15800223
000260 ae 93 15 bd 78 2f 4e 3c 38 b4 85 3d 7f d3 ca 3c
       -0.03651779 0.01258456 0.065285146 0.024759052
000270 9f ac 44 bd c8 18 20 3d bb d7 97 3d 2a e9 27 3e
       -0.048016187 0.039086133 0.07414194 0.16397539
000280 63 22 81 bd 84 1b 98 3d d5 5a 39 3c a5 0a 92 3d
       -0.06305387 0.07427123 0.01131316 0.071309365
000290 db da 38 3b 48 df d9 3d 2d 92 c9 bc 8d 07 29 3d
       0.002820662 0.10638291 -0.024605835 0.041266967
0002a0 aa 8c 92 bd 1b 7c c3 bd 9b 8b e4 3d 99 d2 d7 3c
       -0.07155736 -0.095451556 0.1115944 0.026345538
0002b0 fc 10 b0 3d 55 eb 4d bd 7a e1 6b bd 52 95 f0 bd
       0.085969895 -0.05027326 -0.057588078 -0.117472306
0002c0 3c 31 9f bd b5 6c 68 3d 8a a9 b9 bb 0c eb e1 bb
       -0.077730626 0.056744296 -0.0056659626 -0.006894475
0002d0 14 38 ca bd 83 19 a2 3d ad 22 57 3c fe e7 e4 3d
       -0.09873977 0.07915022 0.013130826 0.111770615
0002e0 3a b9 9e bd 67 f4 dc 3d a7 d8 d0 3c 3d 8d c2 3c
       -0.07750173 0.107888035 0.025493933 0.023748988
0002f0 89 e3 63 bd 5b fa 30 3b 61 77 8b bd 01 03 b7 bd
       -0.055636916 0.0027004692 -0.06809879 -0.0893612
000300 6b b0 7a bd 8c 36 0c be dd b0 bf 3d f4 84 e7 bc
       -0.0612034 -0.13692683 0.09359906 -0.02826164
000310 f2 b2 1f bd 73 45 c8 bc 67 b9 aa 3d 37 23 ab 3d
       -0.038989015 -0.024447178 0.08336144 0.08356326
000320 d9 2c 27 3d b9 89 50 3d a7 8d 34 bd 82 34 c4 bd
       0.040814254 0.050912593 -0.044080403 -0.095803276
000330 a1 27 27 bd af e9 1d 3d 19 62 8b bd 59 f5 86 bd
       -0.040809277 0.038552936 -0.0680582 -0.06589765
000340 a4 74 2a 3d a6 09 07 be da 68 40 bb 1e b1 9e bd
       0.041615143 -0.13187274 -0.0029359371 -0.07748626
000350 39 53 a0 bd b2 16 a6 3d 8e 0d a2 3d 42 65 61 bd
       -0.078283735 0.081097975 0.079127416 -0.055028208
000360 b5 72 fd bc d7 2f 8b 3d 04 44 c1 bc da 7a 8b bd
       -0.030938486 0.06796234 -0.023592003 -0.068105415
000370 a8 5a b7 3c f5 e8 2c 3d 50 5a 90 39 bc 9f c4 3d
       0.022382095 0.042214353 0.00027533108 0.096007794
000380 95 80 09 3e 99 03 0d 3d c9 66 43 bd fd 7e 1a 3d
       0.13427956 0.03442726 -0.047705445 0.03771876
000390 3a d7 35 3d 07 d6 c2 3d 2c 14 5e bd 2e 7e 29 bd
       0.04439471 0.09513479 -0.054218456 -0.0413801
0003a0 1e 1b 6b bd 2c 07 cd bd 32 34 7b bd a6 ea 13 bd
       -0.057398908 -0.100111336 -0.061329074 -0.03611245
0003b0 de 27 7c 3c e3 7d 56 3b 06 3c a7 bd f2 17 f8 bc
       0.015390364 0.0032728843 -0.081657454 -0.030284856
0003c0 1e eb 0a be 64 61 67 bd 66 1c c7 bd 29 e6 55 bb
       -0.13566253 -0.056489363 -0.097222134 -0.0032638407
0003d0 c0 e0 00 bd 7f 2c fd 3c 43 b2 8b 3c e4 a5 ab 3d
       -0.03146434 0.030905006 0.017052775 0.083812505
0003e0 94 d2 41 bd 00 7a 05 3a ae 61 a9 bc 64 46 93 3d
       -0.047319964 0.0005091727 -0.02067646 0.0719116
0003f0 50 87 2f 3d e1 a9 ae bc e5 1a 9d 3d 94 75 4c 3d
       0.042853653 -0.021321239 0.07671145 0.04991682

bias_ih_l0 f4 [256]
000000 f5 50 cb 3d 94 ab 01 b8 89 50 4c bc e1 29 d0 3d
       0.09927551 -3.091579e-05 -0.012470373 0.10164238
000010 87 2f 1c 3e ff 11 88 3d 8f 45 aa bd 80 45 bb bc
       0.15252505 0.066440575 -0.083140485 -0.022860289
000020 95 bd d0 3d 64 ef a4 3c 77 ff 27 bd 0e 50 1f 3e
       0.1019241 0.020133682 -0.041015115 0.15557882
000030 45 48 c7 bd eb 6c 46 bd f9 de ea 3d 8c 59 0c bd
       -0.09730581 -0.048443716 0.1146831 -0.034265086
000040 bd 7e 96 3d 50 53 de bc 8a 28 26 3e d1 26 05 bc
       0.07348392 -0.027139336 0.16226402 -0.00812693
000050 d0 8d 92 bd ef 05 88 bc 6e ec 36 bc 29 e4 2b 3b
       -0.07155955 -0.016604392 -0.011164768 0.0026228523
000060 b0 fe 51 bd ed e8 97 bd 80 93 f3 3d 87 b5 eb 3c
       -0.05126828 -0.07417474 0.11893368 0.028773082
000070 cc 0b 1c 3e ce 9c 84 bd fe 77 e7 3d 1a 4c 3b ba
       0.15238875 -0.064752206 0.113021836 -0.0007144824
000080 07 28 06 be 86 42 13 3e d3 ce eb 3d 08 87 c8 3d
       -0.13101207 0.14380845 0.11514058 0.0979138
000090 4b 85 a1 3d 45 4a 06 be 4f c7 a7 3d e6 7b a0 bd
       0.07886752 -0.13114269 0.08192312 -0.07836132
0000a0 89 f7 b6 3d 9f 63 0c 3e 04 18 0a be 60 20 b3 3c
       0.08933932 0.13709877 -0.13485724 0.021866024
0000b0 e9 ca 90 bc 4e 8a 07 3e fb 04 06 bb b4 9b ac 3d
       -0.01767488 0.13236353 -0.0020449746 0.084281355
0000c0 8c a6 80 3d 45 64 8d bd 8c 5f 82 3b cd 81 ea bd
       0.06281766 -0.069038905 0.003978675 -0.11450539
0000d0 e2 85 ef 3d 28 02 96 bb 43 53 74 bd 2c 72 ac 3c
       0.11695458 -0.0045778938 -0.059649717 0.021050535
0000e0 ef 41 f8 bb 2e 92 11 bc 06 28 3f 3e 1e 3c 6a bd
       -0.0075762193 -0.00888495 0.18667611 -0.05718624
0000f0 d4 72 ed 3b ab 60 8e bd c5 21 9e bc 32 c1 89 3d
       0.0072463546 -0.06952032 -0.019303212 0.06726302
000100 5c d4 c7 bc 1e 45 36 3d e8 4b cb bd 86 10 01 be
       -0.024393253 0.04449951 -0.09926587 -0.1260396
000110 17 f9 90 3b 02 97 12 be 5f b1 b9 bd e5 11 f7 bd
       0.004424225 -0.14315417 -0.09067034 -0.1206396
000120 89 36 ab bd 5a d9 90 bd 3d 9d 65 3d 65 37 58 bd
       -0.08360011 -0.070727065 0.056058157 -0.052787203
000130 78 d2 43 3d e5 82 1c be 4e cd 25 3d f7 d1 bd bc
       0.04780814 -0.15284307 0.040478997 -0.023171408
000140 ad f7 15 3b 7f 63 51 3d 99 86 11 be af 09 db bd
       0.0022883222 0.051120277 -0.14211501 -0.106952064
000150 98 24 cd 3c 67 29 c4 bd 98 fd 09 3d e7 52 7c bd
       0.025041863 -0.09578209 0.03368911 -0.0616025
000160 c2 87 c0 bd 68 ba e9 bd d6 d8 16 bd 53 77 a0 3c
       -0.09400894 -0.11412507 -0.036827885 0.019588148
000170 ae 6d 4e be 3c 46 0d bd 23 2d b0 bd cd f8 2b 3c
       -0.20159027 -0.03449081 -0.08602359 0.01049633
000180 00 45 58 bd 26 33 36 be c0 db 54 be 0b 24 b7 bc
       -0.05280018 -0.17792949 -0.20786953 -0.022356054
000190 f2 5f 65 bd 3e 6b 90 3c cf 69 03 be 91 ca 02 be
       -0.055999704 0.017629262 -0.12833332 -0.12772585
0001a0 53 7f 72 bd 68 48 9f 3d 53 fb 0e be e2 d2 8e bb
       -0.059203457 0.07777482 -0.1396306 -0.0043586353
0001b0 97 d4 37 be c5 72 64 be 7e cf f0 bd 2f 62 be bd
       -0.1795219 -0.22309406 -0.11758326 -0.09296071
0001c0 79 4c 74 3c e6 ff db bc 47 83 fc bd fa 05 54 bd
       0.014910811 -0.02685542 -0.12329727 -0.051763512
0001d0 60 4b 95 3b 78 7c 33 bd bb 27 f1 bd c8 8c 7f 3d
       0.0045561045 -0.043819875 -0.11775156 0.06239012
0001e0 7a 17 a5 bd 13 6d 0d bd 7f 7f 33 be ff ab 8e bc
       -0.080611184 -0.03452785 -0.17529105 -0.017415999
0001f0 13 a8 62 bd 95 e9 3f bd 34 6b 27 3b e3 7b 13 bd
       -0.05533607 -0.04685362 0.0025546076 -0.03600682
000200 f5 a5 f7 bd e4 be 9d 3d 24 04 bb 3d 1e 01 13 be
       -0.12092201 0.07702425 0.09131649 -0.14355895
000210 94 91 12 be 43 a9 ff bb 74 47 9a bd e5 a0 6e bd
       -0.14313346 -0.00780216 -0.0753316 -0.05825891
000220 c9 e6 05 3d c9 95 cf bd 2e c1 a3 3d 8c 0a 08 be
       0.032690797 -0.10135991 0.079958305 -0.13285273
000230 0e 23 6f 3d 10 d5 d3 3d 74 40 f8 bc 09 6c 0d 3e
       0.05838304 0.10343373 -0.030304171 0.13810743
000240 03 c6 25 3d ba b7 26 3c a1 64 27 3d 48 ef 1f 3e
       0.04047204 0.01017564 0.04086745 0.15618622
000250 dd db 6c 3b 76 9e 87 bd 0e 0c c8 3c 50 dc 82 bc
       0.003614179 -0.06622021 0.02441981 -0.015974194
000260 65 ef 8b 3d 87 6a d8 3d 28 3a ce bd c1 1c e1 bd
       0.0683277 0.105671935 -0.10069686 -0.109918125
000270 79 27 3c 3b e4 15 96 3d 34 1c dd bd 9a 6f 12 bd
       0.002871005 0.07328394 -0.10796395 -0.035750963
000280 34 1d 75 3c 9a 68 84 3d d7 0a 79 bd 8d f1 20 3c
       0.014960576 0.06465264 -0.060801353 0.009823215
000290 03 6f aa 3d d4 78 33 b8 98 92 8e bd 53 39 4f bd
       0.08321955 -4.2789456e-05 -0.06961554 -0.050591778
0002a0 48 a4 14 3e dc d3 d3 3d d2 69 c6 bc 7f 1b 18 be
       0.14515793 0.10343143 -0.024220381 -0.14854239
0002b0 fe 9c 36 bd 4a d0 c4 bd ad 1c 80 bc 42 be a6 bd
       -0.044583313 -0.096100405 -0.015638674 -0.081417575
0002c0 ce 39 2c 3d 06 c7 3c 3d e8 ca 43 bd f3 81 e3 3d
       0.042047314 0.04608824 -0.04780093 0.1110877
0002d0 90 31 73 bd 9f b3 a7 bd c1 84 71 3d a8 20 92 3d
       -0.05937344 -0.08188557 0.058964495 0.07135135
0002e0 9d d5 ff 3c 2a d1 e0 3d 4a 2a a6 3d 5c 01 f4 bd
       0.031229788 0.10977395 0.08113535 -0.11914322
0002f0 b6 09 0d 3d 68 21 33 3c af 53 13 be 41 90 79 ba
       0.03443309 0.010933258 -0.14387392 -0.00095200917
000300 11 47 55 3d 10 6a 9f bd 7b 39 9e bd 18 98 de 3c
       0.052069727 -0.07783902 -0.07725807 0.027172133
000310 50 c7 80 3d 9d 20 3e bd be 92 f2 3c f5 44 33 bc
       0.06288016 -0.04641782 0.029610988 -0.010941734
000320 9e f9 d5 bd 39 18 99 3a b4 91 5e 3d 8a 92 14 3e
       -0.10448001 0.0011680193 0.054338172 0.14509025
000330 88 7f 0a bd 16 36 84 3d 24 53 f4 3c 22 53 dc 3c
       -0.03381303 0.064556286 0.0298248 0.02689511
000340 39 da 02 bd 5b 99 13 3e 2c 33 81 bd a8 f5 34 3b
       -0.031946395 0.14413969 -0.063085884 0.0027612243
000350 57 70 4a 3d 30 b4 1f bd ec ab 02 bd d5 fb 97 bd
       0.049423542 -0.0389902 -0.03190224 -0.0742108
000360 3a b4 c9 3d 3c b5 1d 3e 9d 37 0f 3e ff e0 ee 3d
       0.098488286 0.15401167 0.13986059 0.11664008
000370 f8 3a 07 3e 74 f0 92 bd b9 20 73 bd ef 18 e4 3d
       0.13206089 -0.07174769 -0.05935738 0.11137568
000380 19 8c a6 bc 40 4d 0c bd 88 c9 8f bd 84 53 9e 3b
       -0.020330476 -0.03425336 -0.07020861 0.004831733
000390 eb 9a 08 bd ae f0 35 3d 3f d4 de 3d d9 2a 99 bb
       -0.033350866 0.044418983 0.108803265 -0.0046742973
0003a0 23 2c 82 bd e6 66 cf 3d 50 d8 d8 bd 9a 09 0c 3e
       -0.06356075 0.10127048 -0.10588133 0.13675538
0003b0 26 c5 87 bd f9 38 d7 3d 50 84 57 3c 5c d5 cf 3c
       -0.066294 0.105089135 0.013154104 0.025370292
0003c0 00 e8 60 bd f6 1c 0c be dd 19 e9 bd 52 7a 0e be
       -0.054908752 -0.13682923 -0.11381886 -0.13913849
0003d0 8b f9 d3 bd 9d b8 a4 bd 4f e4 cd 3b 8d 0c 7e 3c
       -0.10350331 -0.08043025 0.00628332 0.015505922
0003e0 af de 0f be 64 19 2c 3d 98 50 51 bd 3a 40 e4 bc
       -0.14049791 0.042016402 -0.05110225 -0.027862657
0003f0 d9 2e ec bd 50 df 7d 3c 08 f7 9d bd 3b 8d 2d bd
       -0.11532373 0.015495136 -0.07713133 -0.042371016

bias_hh_l0 f4 [256]
000000 71 a0 0a 3d b4 c9 96 bc db cb 9c bc d1 47 0d 3e
       0.033844415 -0.018406726 -0.019140175 0.13796927
000010 4c bf 92 3c fd 74 cb bd 87 cb 17 3d 90 65 03 3e
       0.017913483 -0.09934423 0.037059333 0.12831712
000020 0b 9e 75 3d 54 77 af bd 69 4e 99 3c 70 df 6e 3d
       0.059965175 -0.08567682 0.018714147 0.058318555
000030 61 2f 20 be ee 31 a5 bd 8b a8 67 bd 9e 61 17 3d
       -0.15643074 -0.08066164 -0.05655722 0.03695833
000040 31 70 ed 3d e9 4b cf 3d d9 a5 c6 3d 51 e4 90 3d
       0.115936644 0.101219006 0.09699602 0.07074798
000050 77 51 8c 3d 73 8f bc 3c fc 6f c3 bd 66 bf b6 bd
       0.06851476 0.02301762 -0.09542844 -0.08923225
000060 3a 72 99 bd 35 33 dd 3d 47 64 0e 3e 34 7c 26 3e
       -0.0749249 0.108007826 0.1390544 0.16258317
000070 81 5d 51 3d 29 5c 78 bd 8a b4 0e 3e 5f 72 8f bc
       0.051114563 -0.060634766 0.13936058 -0.017510591
000080 99 87 03 be 5b ba 12 3e 2b 13 80 3d 04 87 be 3c
       -0.12844695 0.14328901 0.06253656 0.02325774
000090 6f bf 0b bd 69 5d 49 bd ae 32 b4 bd 4f e2 e0 bd
       -0.034118112 -0.04916135 -0.08798729 -0.10980665
0000a0 3f ab 92 bd aa 0b 1b 3e 48 f0 8c 3d 6d 13 b3 3c
       -0.07161569 0.15141168 0.068817675 0.021859849
0000b0 e5 f5 cd bd 35 e1 91 3c 89 88 22 bd fd bf 2d 3c
       -0.10056666 0.017807582 -0.03968099 0.010604856
0000c0 db 59 fa 3d a1 82 a3 bd 20 28 bf 3d 1c 8d 9b bd
       0.1222417 -0.079839 0.09333825 -0.07595274
0000d0 ba f2 93 bd 4f 15 1b 3d 97 b4 e1 bc c7 2f 37 bd
       -0.07224031 0.03786212 -0.027551932 -0.0447233
0000e0 5a 8f b1 3d 0d 1c a1 3c 6b 70 7f 3e 66 36 5e bc
       0.0866992 0.019666696 0.24945228 -0.013562774
0000f0 88 44 4f bd 2d f5 77 bb 49 9a 11 3e 72 af 81 bd
       -0.050602466 -0.0037835345 0.14219011 -0.06332292
000100 25 77 8a bd 81 9e 75 3d 7d a1 b8 bd 69 7f 9f 3d
       -0.06761006 0.059965614 -0.090151764 0.077879734
000110 87 b1 88 bd 75 b2 90 bd 3a d2 b8 3c 73 15 ac bc
       -0.06674486 -0.07065288 0.022561181 -0.021006322
000120 4f 48 b8 bd a8 12 db bd 27 57 1c 3c 1c 55 73 3d
       -0.08998167 -0.10696918 0.009542263 0.05940734
000130 c2 c2 bf 3b ec 58 d7 bb 7f f8 c4 3c f7 f7 03 be
       0.0058520744 -0.0065718796 0.024044273 -0.1288756
000140 bd 59 24 bc f7 d9 3c 3d a8 e8 88 3d 1c 5e 47 bc
       -0.010031161 0.046106305 0.06685001 -0.0121684335
000150 5a a0 7c bd a9 f8 d0 3c f0 72 1c bd 1f 3f a2 bd
       -0.06167636 0.025509195 -0.03819555 -0.07922196
000160 5b 75 17 bd e4 11 4f 3d 71 a7 58 bd 77 b2 9e bd
       -0.036977153 0.05055417 -0.05289406 -0.07748883
000170 8f a3 e4 bd 6f 41 08 be f3 7e b2 3c 8d 5f 01 bd
       -0.11164009 -0.13306211 0.02178905 -0.031585265
000180 34 8b 81 3c 36 d7 e9 bd eb dc ab bd a5 c5 18 be
       0.015813448 -0.11418001 -0.08391746 -0.14919145
000190 e6 29 2d bd 62 ef 11 bd 2e ef be bd 0d ef 8a bd
       -0.042276286 -0.035628684 -0.09322964 -0.067838766
0001a0 72 50 ee bc 8b b0 70 39 48 56 94 bd df 68 33 bd
       -0.029091094 0.00022953951 -0.07243019 -0.043801185
0001b0 98 aa 1b be 09 cb 30 bd e5 2d 17 be 92 80 12 be
       -0.15201795 -0.04316238 -0.14763601 -0.14306858
0001c0 0c 47 85 3d 28 9f 36 be 98 25 04 3d f3 2d 85 bd
       0.06507692 -0.17834151 0.032262415 -0.06502905
0001d0 76 2c 52 bd 85 9f 7a 3d b6 fa 14 be 35 0a a1 bd
       -0.051311933 0.061187286 -0.14548764 -0.07863275
0001e0 81 d8 22 bd 28 26 ee bc 85 34 b7 bc e6 3e c9 bd
       -0.039757255 -0.029070929 -0.02236391 -0.0982645
0001f0 b6 22 5e bc 0f 76 1c 3d 64 8b 4c bd f7 9f 95 ba
       -0.01355808 0.038198527 -0.04993762 -0.0011415471
000200 c8 04 b5 bd bd af 34 3d 61 a4 ef bc f4 2f 1a 3d
       -0.088388026 0.04411291 -0.029253187 0.037643388
000210 fa 78 f5 bd 4a 42 fc 3c b4 2b 84 3d 01 9a 42 bd
       -0.11985965 0.030793328 0.06453648 -0.04751015
000220 72 bd 55 3c ff 01 a2 bd 24 e9 e7 3c 0c 07 32 bd
       0.013045656 -0.07910537 0.028309412 -0.04346375
000230 05 8a 18 be fa 83 76 bc 78 b1 01 3e 32 78 a9 3d
       -0.148964 -0.015046114 0.12665355 0.082748786
000240 28 04 e7 3d 12 b5 01 3d ca 12 00 3e ab 40 a3 3d
       0.112800896 0.031666823 0.12507167 0.07971319
000250 e1 1b 8a bc 3d 91 8f bc ae c7 f3 bc 59 6b 07 3e
       -0.016858997 -0.01752531 -0.0297583 0.13224544
000260 fd 61 7a 3d 3c 5c 77 bd e1 3a e1 3d 11 63 ea bd
       0.061128605 -0.060390696 0.109975584 -0.11444677
000270 b1 a7 bf 3d 02 bc 08 be 3c 0d 0a 3c 49 95 ed bd
       0.093581565 -0.1335297 0.008426007 -0.116007395
000280 b0 f6 dd 3d d4 8e f0 bb 25 0e a9 bd eb f5 85 3d
       0.108380675 -0.007341245 -0.08254651 0.06541046
000290 ba 5b 3f 3d b9 4d b8 bd 4f 93 85 3d 6b 14 92 3d
       0.046718337 -0.089991994 0.065222375 0.07132801
0002a0 67 d0 6d bd 7f ee 9a bb ff 0f eb 3d 04 91 b6 bd
       -0.058060076 -0.004728138 0.114776604 -0.08914378
0002b0 23 be 68 bd a1 ff c4 3d 88 1a 5b bd d8 88 d0 3c
       -0.056821954 0.0961907 -0.0534921 0.025455877
0002c0 d5 bc a6 3d 7c 7c 3f bd d0 20 21 be b9 c7 ff bc
       0.081414856 -0.046749577 -0.15735173 -0.031223165
0002d0 23 9c b4 bd e8 7b 06 3d 6f 9c b5 bd 44 ab 00 3d
       -0.08818843 0.03283301 -0.08867728 0.03141333
0002e0 73 4c f8 3c 05 18 cf 3d f6 d9 82 bd 4a 4b 26 3d
       0.030309891 0.10112003 -0.06389229 0.040599145
0002f0 2e 3f 37 bc c4 cf f2 bc a8 25 0f be 4c 67 c3 3a
       -0.011184497 -0.029640086 -0.13979208 0.0014908104
000300 e8 c4 e5 bd c3 93 f8 3d d7 d1 eb bb 03 24 5a bc
       -0.112191975 0.12137558 -0.0071966457 -0.01331425
000310 48 d1 f4 3d a1 43 85 3d 73 7c 9c 3d 97 be c8 3d
       0.1195398 0.0650704 0.07640924 0.09801977
000320 18 fb ce bd ae d9 41 bd 6e 2d 7b bd f6 8e 11 3e
       -0.10106486 -0.047326736 -0.061322622 0.14214692
000330 b1 b5 af 3c 92 f9 c5 bd 04 cd 5f 3d 9f 43 94 3d
       0.021448942 -0.096667424 0.054638878 0.0723946
000340 3f 6e 04 bc 51 fb 00 3e e4 08 e1 3d 97 9d 9c bd
       -0.008082925 0.1259587 0.10988024 -0.076472454
000350 d3 7c 90 3d f8 03 20 be cc 7a 96 bd 8f 6a 18 be
       0.07055058 -0.15626514 -0.073476404 -0.14884399
000360 06 1c 41 3c 17 73 7f bc 57 7f 7a bd d3 fe 0c 3e
       0.011786466 -0.015591404 -0.061156597 0.13769083
000370 74 a9 a5 bd c7 b9 84 3c 0c 3b 16 3e 59 36 92 bd
       -0.08088961 0.016201867 0.14670962 -0.07139272
000380 54 dc 96 3d c1 4e eb bc da 23 f7 bd 05 f5 5e 3d
       0.07366243 -0.028724076 -0.12067385 0.054432888
000390 12 d9 4b bd 56 09 1a be 10 55 4b bd 80 a0 c4 3d
       -0.04976756 -0.15042624 -0.04964167 0.096009254
0003a0 a0 95 1c be 9e 2c df 3d 65 56 4f 3d da af 21 3d
       -0.15291452 0.10897182 0.0506195 0.039474346
0003b0 5c 8f 62 bd e1 18 cd 3d be 4b 74 bd 3a c6 9d 3c
       -0.0553125 0.10014511 -0.059642546 0.01925956
0003c0 fe b2 93 bd dc db 0c be c7 77 fe 3c 54 1b 8f 3c
       -0.072118744 -0.13755745 0.031062974 0.017469086
0003d0 ac a7 30 3d b9 4c e4 3d 19 b6 37 be 4f c9 2a 3d
       0.043128654 0.11147446 -0.17940558 0.04169589
0003e0 e1 f6 cb 3a 00 b6 c0 bd 29 4d c7 3c 30 97 01 3e
       0.0015561247 -0.09409714 0.024328785 0.1265533
0003f0 63 7d d9 bd 48 39 ae 3c ea 74 9c bd 79 7c b3 3d
       -0.10619619 0.021267548 -0.07639487 0.08763976

weight f4 [1, 64]
000000 b2 97 3e 3c 53 80 ac bd 1e bb 61 bd 11 27 f3 3d
       0.011632847 -0.084229134 -0.05511009 0.11872686
000010 74 be bd 3d 61 d4 e6 3d cc 6e 09 3c 92 94 d4 3d
       0.09264842 0.11270977 0.008388232 0.103799
000020 02 eb c0 3d 6f b9 c4 3d ff 75 b9 bc f8 2c d7 3d
       0.09419824 0.09605681 -0.022639273 0.10506624
000030 2c 0f 5b bc 62 bf 48 3d f0 93 db bd 9d 7f b1 bd
       -0.0133703165 0.049010642 -0.10721576 -0.086669184
000040 26 7e a7 3d f6 e4 c8 bd f3 f6 ab bd e6 98 91 bd
       0.08178358 -0.09809296 -0.08396711 -0.07109241
000050 90 75 63 3d a2 83 17 bd 00 f2 82 3d db b5 85 bd
       0.05553204 -0.03699077 0.06393814 -0.06528827
000060 cb bb fe 3d 32 db 06 be 23 a0 bf bd 08 32 a4 3d
       0.124381624 -0.13169554 -0.093567155 0.08017355
000070 5e 06 9b bd 66 61 83 3d 09 82 0b be bc 2d a8 3d
       -0.07569574 0.06415062 -0.13623823 0.08211848
000080 0a 27 b1 bd 2b 42 9b bd 09 b6 95 bd e6 1a 88 bd
       -0.08650024 -0.0758098 -0.07310111 -0.066457555
000090 bc 08 b3 bd 2c 5c c8 3a 3c ab fe 3d 20 c6 cd bd
       -0.087419 0.0015286258 0.12435004 -0.10047555
0000a0 ba 39 9a bb 15 a2 c8 bd 35 88 44 bd df c9 b7 3d
       -0.0047065886 -0.0979654 -0.04798146 0.08974051
0000b0 24 f4 3b bd a9 4e 01 3e 7d 09 84 bd 58 a2 92 3c
       -0.045887128 0.12627663 -0.06447122 0.017899677
0000c0 1f 7a 9a bd 7d 80 84 3d 01 c9 14 bd 8c e1 a1 3c
       -0.07542824 0.0646982 -0.036324505 0.01976087
0000d0 f3 90 97 3d 98 df a0 3d d2 3e d0 bc 21 69 dd bc
       0.07400694 0.07855147 -0.02542058 -0.027027668
0000e0 34 2c 99 3d 6b 9d a3 3d db 6f be bd 9d 57 01 3e
       0.07479134 0.079890095 -0.092986785 0.12631078
0000f0 0e c1 a9 3c aa 46 ac bc ca b7 09 3e d4 a7 56 3d
       0.020721938 -0.021029789 0.13449016 0.052406147
