model/4769.811526674823_weight.pth (torch, 90447 bytes, 7 tensors)

weight f4 [16, 32, 1]
0	0xbb17d983	-0.0023170419
1	0x3e7d5a5d	0.24741502
2	0x3e34b055	0.1764539
3	0x3e164a79	0.14676847
4	0x3cd1ce74	0.02561114
5	0x3e263494	0.16230994
6	0xbe3c9115	-0.1841472
7	0x3d60f53d	0.054921377
8	0x3cddc67c	0.027072184
9	0x3e05a884	0.13052565
10	0x3e02ed23	0.12785773
11	0xbe1be0a0	-0.15222406
12	0xbe1ed3b7	-0.1551045
13	0xbdb802ec	-0.08984932
14	0xbcd46860	-0.025928676
15	0x3dc65c69	0.096855946
16	0x3bb68692	0.0055702413
17	0xbdd6e2e9	-0.104924984
18	0xb9559c3a	-0.00020371462
19	0xbd0ee7a0	-0.034888864
20	0xbe523bf5	-0.20530684
21	0xbe50f440	-0.20405674
22	0xbe1af088	-0.15130818
23	0xbe10452a	-0.14088884
24	0xbd62772c	-0.055289432
25	0xbca5e356	-0.020250004
26	0xbdcef9ec	-0.101062626
27	0xbdbf9ec6	-0.093564555
28	0x3d4f8586	0.050664447
29	0xbe752efc	-0.23943704
30	0x3c2b400d	0.010452283
31	0x3dd8a5d9	0.10578508
32	0xbd89a197	-0.06720274
33	0xbe17c147	-0.14819823
34	0xbe28beb6	-0.16479
35	0x3e1bae1a	0.15203133
36	0xbd769fe7	-0.06021109
37	0x3de4325a	0.11142416
38	0xbdd79a20	-0.10527444
39	0x3e13f376	0.14448342
40	0x3dbe2b24	0.09285572
41	0xbd6ed7de	-0.058311336
42	0xbba4659f	-0.005016997
43	0xbe003dde	-0.125236
44	0x3e01055b	0.12599699
45	0x3e0194d2	0.12654427
46	0xbdcb76d5	-0.09934775
47	0x3be22b69	0.0069021476
48	0x3d044416	0.032291494
49	0xbe4ec5b6	-0.20192608
50	0xbd03796d	-0.032098223
51	0xbd93865e	-0.07203363
52	0xbe05a9b6	-0.13053021
53	0x3ce9779a	0.028499413
54	0x3bae541d	0.0053200857
55	0xbc93f789	-0.01806237
56	0x3e1945c4	0.1496802
57	0x3d5f5427	0.054523613
58	0x3e1f8faf	0.15582155
59	0x3e4fd5cb	0.202964
60	0xbe06581d	-0.1311955
61	0xbd733d5a	-0.05938468
62	0xbddcd423	-0.10782649
63	0x3da3edac	0.08004317
64	0xbe931eee	-0.28734535
65	0xbe0088b6	-0.12552151
66	0xbcf1e5a8	-0.029528454
67	0x3df3eacf	0.119100206
68	0xbe2e784b	-0.17038076
69	0xbd92bc24	-0.07164791
70	0x3c0d58c7	0.008627123
71	0x3db31a8b	0.08745297
72	0xbe0e0840	-0.13870335
73	0x3e331796	0.17489466
74	0xbe1e3e0f	-0.15453361
75	0xbe04f774	-0.12985021
76	0x3e235eba	0.15954104
77	0x3d84f473	0.064919375
78	0x3decb767	0.11558419
79	0x3bd7ce81	0.0065858965
80	0x3e3aebd1	0.1825402
81	0xbbbe7f1a	-0.0058134915
82	0xbe1e72a3	-0.15473418
83	0xbe529896	-0.2056602
84	0xbdef920b	-0.11697777
85	0xbd993b83	-0.07482054
86	0xbd4edf36	-0.05050584
87	0x3e453108	0.19256985
88	0xbd0ad539	-0.03389475
89	0x3df6ae4c	0.12044963
90	0xbdd4e7bb	-0.103957616
91	0xbe18c808	-0.14920056
92	0xbdf57c19	-0.119865604
93	0x3d94ae1c	0.07259771
94	0xbe33e365	-0.17567213
95	0xbe25564a	-0.16146198
96	0xbd701396	-0.05861243
97	0x3d6faad1	0.058512513
98	0xbe23ffeb	-0.16015594
99	0xbda81583	-0.08207228
100	0xbe01340b	-0.12617509
101	0x3e02c1fd	0.12769313
102	0x3cd3438f	0.02578905
103	0x3d47e589	0.048802886
104	0x3d605c41	0.05477548
105	0xbe1659c5	-0.14682682
106	0x3d53a231	0.05166835
107	0xbe183fe0	-0.14868116
108	0x3c9203e7	0.017824126
109	0x3dfdbd9b	0.1238968
110	0x3dd18d63	0.102320455
111	0xbe08b92d	-0.13351889
112	0xbcb7e01a	-0.022445727
113	0xbe5bdbca	-0.21470562
114	0x3d280b12	0.041026182
115	0x3cc74b64	0.024327941
116	0xbdefaa9c	-0.11702463
117	0xbd9699de	-0.073535666
118	0x3deedba7	0.11662989
119	0xbd72fb29	-0.059321556
120	0xbd459e7c	-0.048246846
121	0xbd946172	-0.07245149
122	0xbda4f5c9	-0.08054692
123	0xbe01ac6f	-0.12663434
124	0x3e244f58	0.16045892
125	0x3e129ffb	0.1431884
126	0x3d6ab387	0.057300117
127	0x3e0d9e4f	0.13829921
128	0x3e340875	0.17581351
129	0x3df6b70b	0.120466314
130	0x3e8605d0	0.2617631
131	0xbd7a80dd	-0.06115805
132	0x3dc3c2e3	0.09558656
133	0xbca7ec09	-0.020498293
134	0xbd848952	-0.06471504
135	0x3d0e0204	0.03466989
136	0x3dd0c133	0.101931
137	0xbe0ae22e	-0.13562843
138	0xbd0f9687	-0.035055663
139	0xbe2160f6	-0.15759644
140	0xbcd2df9f	-0.025741396
141	0x3b96d483	0.00460297
142	0xbe16695a	-0.14688626
143	0xbc89a2a1	-0.01680118
144	0x3ddd6b05	0.10811428
145	0xbe13bcac	-0.14427441
146	0xbddd349d	-0.10801051
147	0xbdba77e7	-0.09104901
148	0xbe0585b3	-0.13039283
149	0xbe13bd79	-0.14427747
150	0xbe380aae	-0.17972824
151	0x3e1e1098	0.15436018
152	0x3e012f33	0.12615661
153	0xbd356532	-0.04428596
154	0xbde9bf93	-0.11413493
155	0x3b8af091	0.0042401035
156	0x3da583ad	0.08081756
157	0xbda869e9	-0.08223326
158	0xbc86ca12	-0.016453777
159	0x3da7a439	0.0818562
160	0xbcde5bf9	-0.027143465
161	0xbe68aa12	-0.22721127
162	0xbdbedc4e	-0.093193635
163	0x3d672d2f	0.056439575
164	0x3d3d79b5	0.046258647
165	0xbd0bce74	-0.034132436
166	0x3e3114df	0.17293118
167	0x3e4b82c0	0.19874096
168	0xbe140d5e	-0.14458224
169	0xbdf53413	-0.11972823
170	0x3e0d315a	0.13788357
171	0xbe1a39e1	-0.15061142
172	0x3d291b67	0.0412859
173	0xbd3bafa2	-0.045821793
174	0xbe6e1b6a	-0.23252645
175	0xbb1b8b0b	-0.0023734
176	0x3dddf770	0.108382106
177	0x3d7bb329	0.061450157
178	0xbce191b0	-0.02753529
179	0xbd38f88a	-0.0451589
180	0x3d698aaa	0.057017006
181	0xbd148a80	-0.036264896
182	0x3cdb8973	0.02679894
183	0xbd69d9a6	-0.05709233
184	0x3e2cfbd2	0.16892937
185	0xbd502b32	-0.050822444
186	0x3d90a87c	0.07063386
187	0xbe28a80b	-0.16470353
188	0xbce8edb0	-0.02843365
189	0x3c3875ca	0.011258552
190	0xbe179e64	-0.14806515
191	0x3de5f399	0.11228103
192	0x3e871972	0.263866
193	0x3c996215	0.018723527
194	0x3e949b27	0.29024622
195	0xbdd414c0	-0.1035552
196	0x3e01b1c4	0.12665468
197	0xbad7fcb8	-0.0016478514
198	0x3cbd1ddc	0.023085527
199	0x3e0a3fd4	0.13500911
200	0x3d452920	0.048134923
201	0xbe0a49e8	-0.13504755
202	0xbdc51c0a	-0.09624489
203	0x3e3c0585	0.1836148
204	0x3df1f83f	0.11814927
205	0xbd008f5c	-0.03138672
206	0xbdbd1ebb	-0.09234377
207	0x3db1da6a	0.08684237
208	0xbdb4a623	-0.088207506
209	0xbc9d043e	-0.019167062
210	0x3de2a350	0.11066306
211	0x3d2d2cd4	0.04227908
212	0x3e785ebd	0.2425489
213	0xba8a3d07	-0.0010546752
214	0x3d47f8b2	0.04882116
215	0xbdde6081	-0.108582504
216	0x3d985a5e	0.07439111
217	0xbd1e554a	-0.038655557
218	0xbd202447	-0.039097097
219	0x3db30f5a	0.087431625
220	0x3e203a09	0.15647139
221	0xbcbfe8fe	-0.023426529
222	0x3c203895	0.009779115
223	0x3d13308c	0.03593497
224	0xbd8ac03f	-0.06774949
225	0xbe36664b	-0.17812459
226	0xbda62ce6	-0.081140324
227	0x3d345181	0.04402304
228	0xbdbd1f0c	-0.09234437
229	0x3dc5e97a	0.09663673
230	0xbe0fc921	-0.14041568
231	0x3deed679	0.11662001
232	0x3be62038	0.0070228837
233	0x3d13c1df	0.03607356
234	0xbdc0133d	-0.093786694
235	0xbe0b8ec1	-0.13628675
236	0xbd986a6b	-0.074421726
237	0x3e41f2cf	0.1894028
238	0xbe48caf1	-0.19608666
239	0x3dba7bf5	0.09105674
240	0x3d653f11	0.055968348
241	0x3bf7cbb1	0.0075621237
242	0xbc864d8e	-0.016394403
243	0x3cbae506	0.022814285
244	0xbe2711de	-0.1631541
245	0xbdb69441	-0.08914996
246	0xbd90e524	-0.07074955
247	0x3d2989f7	0.04139134
248	0xbd80d568	-0.06290704
249	0xbdefa4c3	-0.11701348
250	0x3e270b03	0.16312794
251	0xbcdcc491	-0.026949199
252	0x3e0aad41	0.13542654
253	0x3d38df2c	0.04513471
254	0x3e09f29f	0.13471459
255	0x3db20058	0.08691472

bias f4 [16]
0	0x3e0e383d	0.1388864
1	0xbd4b0b0d	-0.049571086
2	0xbc76a300	-0.015053511
3	0xbc475d9f	-0.012168317
4	0xbd35e324	-0.04440607
5	0xbd4746db	-0.048651557
6	0x3d6ac19e	0.057313554
7	0xbddc2140	-0.107485294
8	0x3e36d7f0	0.17855811
9	0xbe4ffca2	-0.20311216
10	0x3cc21ac6	0.023694407
11	0xbc84b194	-0.016197957
12	0x3d016f70	0.031600416
13	0xbe46f5e3	-0.19429736
14	0x3dd4e64b	0.103954874
15	0xbdd250d7	-0.10269325

weight_ih_l0 f4 [256, 16]
0	0x3d2da669	0.04239503
1	0x3e03e48b	0.12880151
2	0x3cf1ca6e	0.029515471
3	0x3e450909	0.19241728
4	0xbe148126	-0.14502391
5	0xbdf90955	-0.12159983
6	0xbdbf480d	-0.093399145
7	0x3cc081f0	0.023499459
8	0xbd88262e	-0.06647907
9	0x3d0f6492	0.03500802
10	0x3e71d4c2	0.23616317
11	0x3d473731	0.04863662
12	0xbd3d4b34	-0.046214297
13	0xbd5e62c7	-0.05429342
14	0xbd71fcec	-0.059079096
15	0xbe39c5c4	-0.18141848
16	0x3d99ac09	0.07503516
17	0x3ca40571	0.020022126
18	0x3d776f5b	0.06040893
19	0xbdd801f7	-0.1054725
20	0x3d97a4ae	0.07404457
21	0x3aa08e97	0.0012249526
22	0xbdc681a2	-0.09692694
23	0xbdd5145c	-0.10404274
24	0x3cd80ea5	0.02637417
25	0x3c5fbf20	0.013656408
26	0x3c98bc11	0.018644365
27	0x3d9af175	0.075655855
28	0x3d3c2644	0.04593493
29	0x3d4359ac	0.04769294
30	0x3df82eab	0.12118276
31	0x3dd9f2ce	0.106420144
32	0xbde2e42f	-0.11078679
33	0x3cdb1ad6	0.026746195
34	0x3dfcc50f	0.123422734
35	0xbda499ff	-0.08037185
36	0xbe2d5537	-0.16927038
37	0xbc867630	-0.016413778
38	0x3d24df12	0.0402518
39	0x3e29afc9	0.16570963
40	0x3ccc5864	0.024944492
41	0x3e44d5d0	0.19222188
42	0x3c89ffef	0.016845671
43	0xbe069fa7	-0.1314684
44	0x3d83b367	0.06430703
45	0x3d9aaed8	0.0755288
46	0xb92ba021	-0.00016367483
47	0xbddadad2	-0.10686268
48	0xbe69d2b8	-0.22834289
49	0xbbe2e872	-0.0069246823
50	0x3d92cf4c	0.07168445
51	0xbe02a96e	-0.12759945
52	0xbe0ec4fc	-0.13942331
53	0xbdad98b6	-0.08476393
54	0xbd25185e	-0.04030644
55	0xbdb9812a	-0.09057839
56	0x3d7aef4e	0.061263375
57	0xbcc97e6b	-0.024596414
58	0x3e24bd46	0.16087827
59	0x3d843944	0.06456235
60	0xbd70cd3a	-0.05878947
61	0x3e345f6a	0.17614523
62	0xbcf524ca	-0.029924769
63	0x3d7fe0cb	0.06247024
64	0xbc7263cb	-0.0147943
65	0xbcaf6b1a	-0.021413375
66	0x3db05d81	0.086115845
67	0xbcbefb30	-0.023313135
68	0xbdfad579	-0.12247748
69	0x3d007e01	0.031370167
70	0xbe176c3f	-0.14787386
71	0xbd493ff9	-0.049133275
72	0xbc8e3e52	-0.017363701
73	0x3d9f2626	0.07770948
74	0xbda10810	-0.07862866
75	0xbdfdf405	-0.12400059
76	0x3d9b321f	0.07577919
77	0x3cd5b926	0.026089262
78	0xbdd89116	-0.10574548
79	0xbe129ab9	-0.14316835
80	0x3e0b4ccf	0.13603519
81	0xbda46e16	-0.0802881
82	0xbddd88ac	-0.10817084
83	0xbdc857c7	-0.09782367
84	0x3cdcc12d	0.026947582
85	0x3ccca398	0.024980351
86	0x3e0d4c06	0.13798532
87	0xbd81e557	-0.06342571
88	0x3dcce357	0.10004299
89	0xbe4c6340	-0.19959736
90	0xbabd95d8	-0.0014464213
91	0x3c9f0ffd	0.019416803
92	0xbe2e14b9	-0.17000093
93	0x3d77a4fe	0.060460083
94	0x3df03b46	0.117300555
95	0x3bb14542	0.0054098675
96	0xbe3e1d98	-0.18565977
97	0x3cbfbb18	0.023404643
98	0xbd8244f1	-0.06360806
99	0x3da74af9	0.08168597
100	0xbdb00fae	-0.08596741
101	0xbd7e4f75	-0.062087495
102	0xbd4de830	-0.05027026
103	0x3e08d866	0.133638
104	0xbe1eec28	-0.15519774
105	0x3e62beab	0.22143047
106	0x3dea6ef9	0.114469476
107	0x3caaa3fc	0.020830147
108	0x3daab068	0.08334428
109	0xbdbbd46f	-0.09171378
110	0xbdfae821	-0.12251306
111	0xbda8a7cb	-0.08235129
112	0xbe4dc7f9	-0.20095815
113	0x3c65a9cc	0.0140175335
114	0x3e40877f	0.18801688
115	0x3d59963c	0.05312179
116	0xbe5bfffe	-0.21484372
117	0x3d9f30f9	0.07773013
118	0xbdac0990	-0.084002614
119	0x3dbaee84	0.091275245
120	0x3d06205f	0.032745715
121	0x3e94b9b8	0.29047942
122	0x3e0a1fe0	0.13488722
123	0xbde8d40a	-0.11368568
124	0x3d9e0af0	0.0771693
125	0xbddc2b5d	-0.107504584
126	0xbe214646	-0.15749463
127	0xbe239eb6	-0.15978512
128	0xbe827ef9	-0.25487497
129	0xbca8baf2	-0.020596955
130	0xbcb8e149	-0.022568362
131	0x3db1248a	0.086495474
132	0x3d12c1ed	0.035829473
133	0x3d94f3b8	0.07273048
134	0xbe17226b	-0.14759223
135	0xbccef156	-0.025261562
136	0x3e48648a	0.19569603
137	0xbdc95be3	-0.09831979
138	0x3df21054	0.118195206
139	0x3d9ac579	0.07557196
140	0x3d38f2f5	0.045153577
141	0x3da4e0a5	0.0805066
142	0xbc3bb23e	-0.0114560705
143	0x3cac2ba0	0.021016896
144	0xbc2e582d	-0.01064114
145	0xbcff3bca	-0.03115644
146	0xbde91605	-0.11381153
147	0xbd0312be	-0.032000296
148	0xbc89d097	-0.016823096
149	0x3c2c7ac8	0.01052732
150	0x3c001e46	0.007819718
151	0xbe246af8	-0.1605643
152	0x3dacecea	0.08443625
153	0xbdd7f815	-0.10545365
154	0xbdb4ff4f	-0.08837759
155	0x3d85f3bc	0.06540629
156	0xbd4fb11d	-0.050706018
157	0x3d8486d3	0.06471028
158	0x3b295abf	0.0025841442
159	0x3d920ac6	0.07130961
160	0xbd8195ac	-0.06327376
161	0x3e056768	0.13027728
162	0xbb826f97	-0.0039805877
163	0xbdaeff1c	-0.08544752
164	0xbd07f727	-0.033194687
165	0x3e1f13da	0.15534917
166	0xbdaf9e73	-0.08575144
167	0xbd8d2d16	-0.06893365
168	0xbd6d6794	-0.057960108
169	0x3e0286ba	0.12746707
170	0xbdc9c5ef	-0.09852206
171	0xbc2b2eee	-0.010448201
172	0x3c02a1d8	0.007973157
173	0xbdaf6135	-0.08563463
174	0x3daa4722	0.08314349
175	0xbe18cce4	-0.1492191
176	0x3e011390	0.12605119
177	0xbc934ba7	-0.01798041
178	0x3d0c6cc5	0.03428342
179	0xbde71997	-0.11284178
180	0x3d82b808	0.063827574
181	0xbe2df14c	-0.16986579
182	0xbd49605e	-0.04916417
183	0x3d83cd12	0.064355984
184	0xbc68d24a	-0.014210293
185	0xbe5c7925	-0.21530588
186	0x3d8e5820	0.06950402
187	0x3d9ee37c	0.07758233
188	0xba9eb35b	-0.0012107895
189	0x3e0278b4	0.12741357
190	0x3db7387c	0.089463204
191	0x3bc5c570	0.0060354993
192	0xbd576a5d	-0.05259167
193	0xbc94fbc3	-0.018186456
194	0x3dfdab17	0.123861484
195	0xbe01042b	-0.12599246
196	0x3d77a963	0.060464274
197	0xbd788bd0	-0.06068021
198	0xbbe10cb1	-0.006867968
199	0xbd7e0d47	-0.06202438
200	0x3de0a5a9	0.10969097
201	0x3d9b7e2a	0.07592423
202	0x3d2579ed	0.04039948
203	0x3ddd9385	0.10819153
204	0xbddfbed5	-0.1092507
205	0x3c33777e	0.010953782
206	0xbd134e0c	-0.035963103
207	0xbd22cd93	-0.039746832
208	0xbe3fc25a	-0.18726483
209	0xbc5a5937	-0.013326935
210	0x3db487ff	0.08815002
211	0x3d8af994	0.067858845
212	0xbba61745	-0.005068692
213	0x3df4ba0a	0.11949547
214	0xbe399574	-0.18123418
215	0xbd1b254f	-0.037877377
216	0x3a83c526	0.0010053262
217	0x3d98da62	0.07463528
218	0x3dc03eca	0.09386976
219	0xbe31d5d0	-0.17366719
220	0xbdb4a776	-0.08821003
221	0x3dc673c7	0.096900515
222	0xbe260c35	-0.16215594
223	0xbe2616f1	-0.16219689
224	0xbdd302a9	-0.10303242
225	0x3cf4eb15	0.029897252
226	0xbdaca9fb	-0.08430859
227	0x3c83350f	0.016016511
228	0xbe188d81	-0.1489773
229	0x3cffdde8	0.031233743
230	0x3d4b4f63	0.049636256
231	0xbd4b4322	-0.04962457
232	0xbd915712	-0.070966855
233	0x3e36d183	0.1785336
234	0x3d9416dd	0.07230923
235	0xbdf1f697	-0.118146114
236	0x3dc0c795	0.09413067
237	0xbda4f42e	-0.08054386
238	0xbb9809ec	-0.0046398547
239	0x3d928591	0.07154382
240	0x3d31aad9	0.043375824
241	0xbde3238d	-0.11090765
242	0x3dc5bfde	0.096557364
243	0xbd65714d	-0.056016255
244	0x3cca2bb9	0.024679052
245	0xbd6ac80c	-0.057319686
246	0xbd49d008	-0.04927066
247	0x3c13c846	0.009019917
248	0xbc4af7ec	-0.012388211
249	0xbe0827bb	-0.13296406
250	0xbbd1bb8c	-0.006400531
251	0xbd6cb5ce	-0.05779057
252	0x3dc6e945	0.097124614
253	0xbdab8338	-0.08374637
254	0xbdaab487	-0.08335214
255	0xbdad9ac2	-0.08476783

weight_hh_l0 f4 [256, 64]
0	0xbdfdf663	-0.1240051
1	0x3d35f466	0.04442253
2	0x3d88bd41	0.06676722
3	0xbdbfed12	-0.093713894
4	0xbe1f6972	-0.15567568
5	0xbcfc29f9	-0.030781733
6	0x3d3c0512	0.045903273
7	0xbdef19fa	-0.116748765
8	0xbe1b4a42	-0.15165046
9	0xbd59dcda	-0.053189136
10	0x3dc25fab	0.094909035
11	0x3d75a9ac	0.059976265
12	0xbdc4638c	-0.095892996
13	0x3d873def	0.0660361
14	0x3de45926	0.11149816
15	0x3c632842	0.013864579
16	0x3d14f043	0.036361944
17	0xbd21a78c	-0.039466426
18	0x3dcbb6f7	0.09947007
19	0x3d3bff4a	0.04589776
20	0x3e01f23b	0.1269006
21	0x3da4f3c5	0.08054308
22	0x3c568d87	0.013095266
23	0x3d632167	0.055451777
24	0xbd838ff5	-0.06423942
25	0x3cd9918c	0.02655866
26	0x3d459947	0.04824188
27	0xbcd38556	-0.025820415
28	0xbe0291d5	-0.12750943
29	0x3c8f3683	0.017482048
30	0x3d0c9035	0.034317214
31	0xbd61c684	-0.05512096
32	0xbdd13a29	-0.10216171
33	0xbe140a93	-0.14457159
34	0xbd2d81b1	-0.04236001
35	0x3d80aa13	0.06282439
36	0xbbf1c77e	-0.0073785177
37	0xbcfc3dd8	-0.030791208
38	0x3d1b1ccb	0.037869256
39	0xba4e68b6	-0.00078738795
40	0x3d62710b	0.055283587
41	0xbd198b10	-0.037486136
42	0xbc4ee4c3	-0.012627783
43	0x3d87bbc9	0.06627614
44	0x3ceb8181	0.028748276
45	0xbc08aecb	-0.008342455
46	0x3d8a31f8	0.06747812
47	0x3da2ba7f	0.079457276
48	0x3e112712	0.1417506
49	0x3d5820ab	0.05276553
50	0x3d0e3fc3	0.034728777
51	0xbd2cce83	-0.042189132
52	0xbd35a560	-0.044347167
53	0x3dcf8ec2	0.10134651
54	0xbda7710f	-0.08175861
55	0xbbd3540c	-0.006449228
56	0xbc328aff	-0.010897397
57	0xbd0528c1	-0.03250957
58	0x3d79022c	0.060793087
59	0x3df60125	0.12011937
60	0x3d26cd36	0.04072305
61	0xbc6fa94a	-0.014627764
62	0xbdacd861	-0.084397085
63	0x3d112213	0.035432886
64	0x3dbbf5d0	0.091777444
65	0x3d80790b	0.06273087
66	0xbdda86da	-0.10670252
67	0xbd852034	-0.06500283
68	0xbdc01041	-0.093781
69	0x3e079751	0.13241316
70	0x3c845075	0.016151646
71	0xbdc0dee3	-0.09417512
72	0x3ca9d310	0.020730525
73	0x3ca08e43	0.019599086
74	0xbe0289e5	-0.12747915
75	0xbbe530fa	-0.006994364
76	0xbba8102d	-0.0051288814
77	0x3cbf0ce1	0.02332157
78	0xbdc19c60	-0.09453654
79	0x3e0bd011	0.1365359
80	0x3e0d9bf8	0.13829029
81	0x3da796be	0.08183049
82	0xbc165154	-0.009174664
83	0xbd00a0ab	-0.031403225
84	0xbd2a90bc	-0.041641936
85	0x3cc80b37	0.02441941
86	0xbdad8912	-0.0847341
87	0x3c9422a3	0.018082922
88	0xbc0e46ab	-0.008683841
89	0x3d5c6e5a	0.053816177
90	0x3d5494b3	0.051899623
91	0xbd7a25f8	-0.061071366
92	0x3c490869	0.012270072
93	0x3d9b8ddd	0.07595418
94	0x3cb8b980	0.02254939
95	0x3db0c142	0.08630611
96	0x3d076cc8	0.033062726
97	0xbe0dbbf3	-0.13841228
98	0x3d474cc5	0.048657198
99	0x3d49931c	0.04921256
100	0xbd25d435	-0.04048558
101	0x3d135873	0.035973024
102	0xbdb3f5b5	-0.08787099
103	0x3d8f8252	0.070072785
104	0x3d107dd6	0.035276257
105	0xbd5315c6	-0.051534437
106	0xbc159f76	-0.009132257
107	0xbd53a30e	-0.051669173
108	0xbdb7f83a	-0.08982892
109	0x3d931095	0.07180897
110	0xbd8cca89	-0.06874568
111	0xbd5a7e7e	-0.05334329
112	0xbd12a777	-0.03580424
113	0x3cc8010a	0.024414558
114	0x3d9737d5	0.07383696
115	0x3cedf476	0.029047232
116	0xbd087b72	-0.03332085
117	0xbd922329	-0.071356125
118	0xbd855de4	-0.06512049
119	0x3cab65d4	0.020922579
120	0xbe1a4d81	-0.15068628
121	0xbd573a47	-0.052545812
122	0x3d2ce9ef	0.042215284
123	0x3c5f2480	0.013619542
124	0xbe111b7d	-0.14170642
125	0xbce70d07	-0.028204454
126	0x3cf7d4f5	0.030252913
127	0x3da32b06	0.079671904
128	0x3d501070	0.050796926
129	0x3dd58198	0.10425109
130	0x3defec0f	0.117149465
131	0x3d6137a7	0.054984715
132	0xbdcac110	-0.09900105
133	0x3d9d3d23	0.076776765
134	0x3b2cdac3	0.002637551
135	0x3db84f4e	0.08999501
136	0x3d4a7d2f	0.04943579
137	0xba679961	-0.0008834806
138	0x3cf1f2a0	0.029534638
139	0xbd990426	-0.074714944
140	0x3d56e518	0.052464575
141	0x3ddfde42	0.10931064
142	0x3d99216c	0.07477078
143	0x3d54b6e4	0.05193223
144	0x3dbcb7e0	0.09214759
145	0x3dc2fe65	0.09521178
146	0x3d661e9e	0.056181543
147	0xbd17d28f	-0.03706604
148	0x3d680111	0.056641642
149	0xbd7442e7	-0.059634116
150	0xba9a6776	-0.0011780101
151	0xbda6caad	-0.08144126
152	0xbdbdbd75	-0.09264652
153	0x3d1d698b	0.03843073
154	0xbc9ddf32	-0.019271467
155	0x3c5207b6	0.012819221
156	0x3d8a52ad	0.067540504
157	0xbe033d99	-0.12816466
158	0x3d035af5	0.032069165
159	0x3d0b8904	0.034066215
160	0x3c9ed004	0.019386299
161	0xbc1900be	-0.009338556
162	0x3d348b5d	0.04407822
163	0xbe0fe266	-0.14051208
164	0x3d054b78	0.032542676
165	0xbd3ebd23	-0.046567094
166	0x3de84f02	0.113431945
167	0xbdfe95c7	-0.124309115
168	0x3dcbcf89	0.099516936
169	0xbdde96e3	-0.10868623
170	0xbca3741d	-0.019952828
171	0x3db7d95a	0.089770034
172	0x3db7e1d7	0.089786224
173	0xbc980167	-0.018555356
174	0x3c3582ad	0.011078519
175	0xbc80966c	-0.015696727
176	0xbd992182	-0.07477094
177	0xbdce7959	-0.10081739
178	0xbda38859	-0.079849906
179	0xbe1583d3	-0.14601068
180	0x3d86446c	0.06556019
181	0x3cb9acda	0.02266543
182	0x3d88417b	0.066531144
183	0xbdad45b7	-0.08460563
184	0xbb8b573d	-0.004252343
185	0x3e05dd92	0.13072804
186	0x3d505c6b	0.050869387
187	0xb9a74dd1	-0.000319107
188	0xbdb55f03	-0.08856013
189	0xbd79a88a	-0.060951747
190	0xbdd1bb86	-0.102408454
191	0x3d91b151	0.071138985
192	0x3a8548d1	0.0010168796
193	0x3da58fa7	0.0808404
194	0xbb82644b	-0.003979241
195	0xbdd0b00c	-0.10189828
196	0xbde6f10b	-0.11276444
197	0x3d0699c9	0.032861505
198	0x3cc018fe	0.023449417
199	0xbe3d1232	-0.18463972
200	0xbc97d788	-0.01853539
201	0x3d8234cb	0.06357726
202	0x3c1f2bb5	0.00971501
203	0x3cf2840e	0.029603984
204	0xbd88c30b	-0.066778265
205	0x3dd44310	0.10364354
206	0xbdeba61f	-0.115062945
207	0x3c7a1e62	0.015266033
208	0xbde0ec3f	-0.1098256
209	0xbd6b55ab	-0.057454746
210	0xbb706d3a	-0.0036686198
211	0xbe349627	-0.17635404
212	0xbcc0b3cd	-0.023523236
213	0xbc0f84cf	-0.008759691
214	0xbd0fabb0	-0.035075843
215	0xbd180073	-0.037109803
216	0xbe1c3e23	-0.15258078
217	0x3dfab54b	0.1224161
218	0x3b331113	0.002732341
219	0xbd5b0a87	-0.053476837
220	0xbe1648b6	-0.14676175
221	0x3d8903fe	0.066902146
222	0xbdc24ed5	-0.09487692
223	0xbdb40bc7	-0.08791309
224	0xbe0c31d8	-0.13690889
225	0xbe135d28	-0.14391005
226	0x3d84d2d6	0.06485526
227	0x3da139d8	0.07872361
228	0xbdbca941	-0.0921197
229	0xbd4ca326	-0.049960278
230	0xbd40b925	-0.047051568
231	0xbe242a85	-0.16031845
232	0xbe4d1093	-0.20025854
233	0x3d84fcec	0.064935535
234	0xbe076d94	-0.13225394
235	0xbdde8ca5	-0.108666696
236	0xbe14d863	-0.1453567
237	0xbd5e4537	-0.054265227
238	0x3d16ae95	0.03678759
239	0x3e1769c0	0.14786434
240	0xbe38c997	-0.1804565
241	0x3c97d38e	0.018533494
242	0x3e0870c4	0.13324267
243	0xbdb2be6b	-0.087277256
244	0xbba025b3	-0.0048873066
245	0x3d8b3427	0.06797057
246	0x3db974e7	0.090555005
247	0x3d60226f	0.05472034
248	0xbced6dd0	-0.028983027
249	0x3c397e73	0.011321652
250	0xbd18f4e2	-0.037342913
251	0x3c29df95	0.0103682475
252	0xbdbb959f	-0.09159397
253	0x3dad88e4	0.084733754
254	0xbe1a34f9	-0.1505927
255	0xbd304ffc	-0.04304503

bias_ih_l0 f4 [256]
0	0x3dc7e4e4	0.09760454
1	0xbc7fe9bc	-0.015619691
2	0x3e0f0a25	0.13968714
3	0xbe13fda1	-0.1445222
4	0xbd186ae1	-0.037211303
5	0x3e088e77	0.13335596
6	0x3dc4a206	0.09601216
7	0x3d309f0c	0.04312043
8	0x3db0e85f	0.08638071
9	0x3d5a89ef	0.0533542
10	0xbcba2632	-0.022723291
11	0xbd69070b	-0.056891482
12	0xbc935f4b	-0.017989775
13	0xbdbd08c9	-0.09230191
14	0x3ce5e683	0.028064018
15	0xbcf945f2	-0.03042886
16	0x3c972d98	0.018454358
17	0x3d5a2d84	0.053266063
18	0x3d4135d5	0.04717048
19	0x3d4bf097	0.04978999
20	0x3e1866af	0.1488292
21	0xbcd28bd8	-0.025701448
22	0x3de03c81	0.1094904
23	0x3b019805	0.0019774449
24	0xbdae7bf0	-0.08519733
25	0x3df1a252	0.11798538
26	0x3d8e6e39	0.06954617
27	0xbd47bbf7	-0.04876324
28	0x3d89528d	0.067051984
29	0x3d36b2cb	0.044604104
30	0xbd943548	-0.07236725
31	0x3daf4c9b	0.08559533
32	0x3d84a855	0.06477419
33	0xbd9607fa	-0.0732574
34	0x3cea46f8	0.028598294
35	0xbd814550	-0.063120484
36	0x3d25f8da	0.040520526
37	0x3d223ebf	0.03961062
38	0xbccd8713	-0.025088822
39	0xbdb1591b	-0.08659574
40	0x3e23245d	0.1593184
41	0xbd5b3c2f	-0.053524192
42	0x3dfa4dbc	0.12221858
43	0x3d1fac0b	0.038982432
44	0x3d4fe707	0.050757434
45	0xbdfd776b	-0.12376293
46	0x3c8ca782	0.017169718
47	0x3d8556a4	0.06510666
48	0x3dcd4030	0.100220084
49	0x3db400fe	0.08789252
50	0x3dd9ebe8	0.10640699
51	0x3dff6f4d	0.12472401
52	0x3d2eabb2	0.04264421
53	0x3d1e7c78	0.03869292
54	0xbdc28bc8	-0.094993174
55	0x3c493e66	0.012282943
56	0x3d544147	0.051820066
57	0xbd914c28	-0.07094604
58	0x3d6ac6f7	0.057318654
59	0xbcbc75b0	-0.023005337
60	0x3e2ba51a	0.167622
61	0x3da98055	0.082764305
62	0xbd4c2611	-0.04984099
63	0x3e08b456	0.13350043
64	0xbda0a38d	-0.07843695
65	0x3b655417	0.0034992748
66	0xbdedb183	-0.11606123
67	0x3ca9b920	0.020718157
68	0xbe1ba6ba	-0.1520032
69	0xbe026a14	-0.12735778
70	0x3bc4b71c	0.0060032737
71	0xbb051bbc	-0.002031072
72	0xbe2543e6	-0.16139182
73	0x3d0fb844	0.03508784
74	0xbe07ae57	-0.13250099
75	0x3d945103	0.07242014
76	0xba7c2693	-0.0009618785
77	0xbd4c7c99	-0.049923513
78	0xbd7c12ae	-0.06154125
79	0x3da0d9fe	0.07854079
80	0xbe256d16	-0.16154894
81	0xbd499a69	-0.049219523
82	0x3cc47381	0.023980858
83	0xbda3ffae	-0.080077514
84	0x3db6b030	0.08920324
85	0xbd99729f	-0.07492565
86	0xbe569bfd	-0.20957942
87	0xbd371cfc	-0.044705376
88	0xbb5515ea	-0.0032514283
89	0xbe124552	-0.14284256
90	0xbde80fd9	-0.11331148
91	0xbe080477	-0.13282953
92	0xbdb3987e	-0.0876932
93	0xbdab5132	-0.08365096
94	0x3d61779e	0.055045716
95	0xbd8fa34e	-0.0701357
96	0x3d93add3	0.07210889
97	0xbdd68ef7	-0.10476487
98	0xbc105945	-0.008810346
99	0xbd294f4a	-0.04133538
100	0xbe4499d4	-0.19199306
101	0xbdf90e61	-0.12160946
102	0xbc770fa9	-0.015079417
103	0xbc5caa66	-0.0134683605
104	0xbd3edb38	-0.046595782
105	0xbdd5861f	-0.10425972
106	0x3c894884	0.016758211
107	0xbd427f31	-0.04748458
108	0xbc7f9084	-0.01559842
109	0xbd877454	-0.06613985
110	0xbd4c6745	-0.049903173
111	0x3d9a3a7b	0.075306855
112	0xbdfa477d	-0.122206666
113	0x3dd6a81e	0.104812846
114	0xbded1cf1	-0.11577786
115	0xbd3344c3	-0.04376675
116	0xbd081bfa	-0.033229806
117	0xbdc3aeea	-0.095548466
118	0xbd82b4df	-0.06382155
119	0x3ceb2bf3	0.02870748
120	0xbdd02b9c	-0.10164568
121	0xbd5e94a4	-0.054340973
122	0xbe4b69bd	-0.19864555
123	0x3d7b328b	0.0613275
124	0xbd979714	-0.07401863
125	0x3db2c970	0.087298274
126	0x3d12ddf2	0.035856195
127	0xbdc7346f	-0.09726798
128	0xbd4fdfba	-0.05075047
129	0xbd83e3c6	-0.06439929
130	0x3da8ee4b	0.08248576
131	0xbd4c859b	-0.049932104
132	0x3ddbec00	0.10738373
133	0x3ce945ee	0.028475728
134	0x3e017ba8	0.12644827
135	0x3dd967d5	0.106155075
136	0xbd6ab086	-0.057297252
137	0xbd49b24b	-0.0492423
138	0xbdae17a1	-0.085006006
139	0x3d2c79a5	0.042108197
140	0xbdbefcee	-0.09325586
141	0xbd7a9f56	-0.06118711
142	0x3cbc663e	0.022997972
143	0x3e041753	0.12899522
144	0xbdea0392	-0.11426462
145	0x3dbea95a	0.09309645
146	0xbd30911f	-0.04310715
147	0xbccb296d	-0.024800027
148	0xbd996185	-0.074893035
149	0xbd500d45	-0.050793905
150	0xbd52c278	-0.05145499
151	0xbd89010d	-0.066896535
152	0x3d9281eb	0.07153686
153	0xbd1b980b	-0.037986796
154	0x3dded6c6	0.108808085
155	0xbd81ac60	-0.06331706
156	0x3e065189	0.1311704
157	0xbd54d18c	-0.051957652
158	0xbbe6b89a	-0.007041049
159	0x3e0a73d7	0.13520752
160	0xbde4c6d5	-0.11170737
161	0xbd2d6ab5	-0.042338092
162	0xbcfbf508	-0.030756488
163	0x3dfdbafc	0.1238918
164	0x3dbbd6f2	0.09171857
165	0xbdbba5b3	-0.09162464
166	0xbd6e9564	-0.05824794
167	0x3db2361c	0.08701727
168	0x3dc0fbf1	0.09423054
169	0xbd959640	-0.073040485
170	0xbd118b7c	-0.035533413
171	0x3c256982	0.010095956
172	0x3dae519a	0.08511658
173	0x3db2584f	0.0870825
174	0x3d15ea2f	0.036600288
175	0xbd8ec84a	-0.06971796
176	0x3df04333	0.11731567
177	0x3bfdaa14	0.007741222
178	0xbdadce26	-0.08486585
179	0xbdf11581	-0.1177168
180	0x3d30231a	0.043002225
181	0xbc76a1b9	-0.015053206
182	0x3d776e87	0.06040814
183	0xbd6c939a	-0.05775795
184	0x3cb0cb72	0.021581385
185	0xbd9f3ef4	-0.07775679
186	0x3db943d8	0.09046143
187	0x3afdeb0b	0.0019372416
188	0xba42dce4	-0.0007433428
189	0x3d80cc4e	0.06288968
190	0x3d7a604e	0.061127
191	0xbcce12d9	-0.025155472
192	0xbc884d92	-0.01663855
193	0xbdc86efa	-0.09786792
194	0x3c3637a9	0.011121669
195	0x3cc93ebd	0.024566049
196	0xbd495e46	-0.04916217
197	0xbd49e436	-0.049289905
198	0x3e045e64	0.12926632
199	0x3e0076a7	0.12545262
200	0xbd8816cc	-0.06644973
201	0xbe440460	-0.19142294
202	0xbd0720c6	-0.03299024
203	0xbe2fbe18	-0.17162359
204	0x3bf4900b	0.0074634603
205	0xbdcf7c53	-0.10131135
206	0x3e02085a	0.12698498
207	0x3d18ff24	0.037352696
208	0xbe292602	-0.16518405
209	0x3d48b5dc	0.04900156
210	0x3d53d7d7	0.051719513
211	0x3d43c5ca	0.04779605
212	0xbd1f6275	-0.038912255
213	0xbd8ab437	-0.067726545
214	0x3d9cf57f	0.07664012
215	0xbd1c47ac	-0.03815429
216	0xbdf50533	-0.11963882
217	0xbd5e19b8	-0.054223746
218	0x3d84ff7b	0.064940415
219	0xbe0e4188	-0.13892186
220	0xbd720168	-0.059083372
221	0xbd68468a	-0.056707896
222	0xbc087c94	-0.008330483
223	0x3da86e25	0.082241334
224	0xbd867ecb	-0.065671526
225	0x3d568c88	0.052380115
226	0xbdc5e87a	-0.09663482
227	0x3da93e03	0.08263781
228	0xbdc8133c	-0.09769294
229	0x3d2e52b4	0.04255934
230	0xbdc281a8	-0.09497386
231	0xbc952b16	-0.018209022
232	0x3d4695f3	0.048482846
233	0x3c15256d	0.009103161
234	0xbccda54c	-0.025103234
235	0x3dce3037	0.1006779
236	0xbdef4911	-0.11683858
237	0xbe16d218	-0.14728582
238	0x3abb8af3	0.0014308378
239	0x3d98196a	0.07426722
240	0x3d81226a	0.06305392
241	0x3d751d97	0.059842672
242	0xbd23602a	-0.03988663
243	0xbd153257	-0.03642496
244	0xbba4cd32	-0.005029344
245	0x3e1baf25	0.15203531
246	0xbd1c3399	-0.038135145
247	0x3ce0260d	0.027361894
248	0x3b29351d	0.0025819011
249	0xbdfd4971	-0.123675235
250	0xbbda17be	-0.0066556623
251	0xbd3c02f1	-0.045901243
252	0x3dca2ce6	0.09871845
253	0xbd910d5f	-0.070826285
254	0x3df1b551	0.118021615
255	0xbc7353a4	-0.014851484

bias_hh_l0 f4 [256]
0	0x3ddcc8d9	0.10780496
1	0xbe0a8131	-0.13525845
2	0x3dd7e97a	0.10542579
3	0x3bdb6844	0.006695779
4	0xbd36e8ff	-0.044655796
5	0x39bcdf05	0.00036024317
6	0x3c84e089	0.016220348
7	0xbcaf34a4	-0.021387406
8	0xbcf086ea	-0.029361207
9	0xbdfc1346	-0.123083636
10	0x3db52832	0.08845557
11	0x3aa999b6	0.0012939486
12	0xbd101352	-0.035174675
13	0x3deb26bb	0.114819966
14	0x3d96bc61	0.07360149
15	0xbd881819	-0.06645221
16	0x3cd59e41	0.026076438
17	0x3da05f4f	0.07830679
18	0x3e079aaf	0.13242601
19	0x3d91f81d	0.07127402
20	0xbd07ed20	-0.033185124
21	0xbd167350	-0.036731064
22	0x3cb57325	0.022149632
23	0xbd6d6233	-0.05795498
24	0xbd76fd38	-0.060300082
25	0xbd0840a3	-0.033264767
26	0x3c8b663e	0.017016526
27	0xbddceeff	-0.107877724
28	0xbd9b5e51	-0.07586349
29	0xbe1a0f17	-0.15044819
30	0xbd26de47	-0.040739324
31	0xbde920cb	-0.11383208
32	0xbcd3ed49	-0.025869982
33	0x3db3812c	0.08764872
34	0xbda6746c	-0.081276745
35	0xbc377c04	-0.011199001
36	0x3cb0dd92	0.021590028
37	0x3dad4541	0.08460475
38	0x3d5f2ccf	0.054486092
39	0x3dc520a9	0.0962537
40	0x3e14c23e	0.14527223
41	0xbd7c2517	-0.06155881
42	0xbd46b7d1	-0.048515145
43	0xbd838e47	-0.064236216
44	0xbe0dcb6b	-0.13847129
45	0x3c56fada	0.013121331
46	0xbbf63ea7	-0.007514793
47	0x3e054139	0.13013162
48	0x3cd7cf0b	0.026343843
49	0xbdf6ec96	-0.12056844
50	0xbd9f76c0	-0.07786322
51	0xbcd1bb12	-0.025601897
52	0x3ca85bd6	0.020551603
53	0x3c7c7a2b	0.0154099865
54	0x3d3d8c3e	0.046276323
55	0xbd642f40	-0.055709124
56	0x3dd37a1d	0.10326026
57	0xbc0455a9	-0.008077064
58	0xbd6f28e2	-0.0583886
59	0x3d2d4c96	0.042309366
60	0x3dc65380	0.09683895
61	0xbceb4591	-0.028719695
62	0x3d1823a2	0.037143357
63	0x3d5942c1	0.053042177
64	0xbe46b045	-0.19403179
65	0x3d33e928	0.043923527
66	0xbe03065c	-0.12795395
67	0xbdb6a838	-0.08918804
68	0x3ce439c6	0.02785958
69	0x3d823909	0.06358535
70	0xbd36869d	-0.04456197
71	0xbe06cf31	-0.13164975
72	0xbe05976a	-0.13046041
73	0x3d323d58	0.043515533
74	0xbd7a5f47	-0.06112602
75	0xbdd65021	-0.10464502
76	0xbe2ccacb	-0.16874234
77	0xbd95256a	-0.07282527
78	0xbd0dc9b4	-0.034616187
79	0xbd929014	-0.07156387
80	0xbdd06867	-0.10176163
81	0xbd06f8b1	-0.032952014
82	0xbda8eab3	-0.0824789
83	0xbce2cde4	-0.027686067
84	0x3d9699cc	0.07353553
85	0x3cd94640	0.026522756
86	0xbe4e537f	-0.20149039
87	0xbdaa653c	-0.0832009
88	0x3d0c2f41	0.034224752
89	0x3bb6662d	0.0055663795
90	0xbca6a8b2	-0.020344112
91	0xbd444e7a	-0.047926404
92	0x3d83f2de	0.064428076
93	0xbd97ae9b	-0.0740635
94	0xbe111a5e	-0.14170215
95	0x3cd4439a	0.025911141
96	0xbcc20a82	-0.023686651
97	0xbd9de09b	-0.07708856
98	0x3c2cb7b7	0.010541848
99	0xbdd73172	-0.10507478
100	0xbd781178	-0.060563534
101	0xbcf3d88a	-0.02976634
102	0xbc9e176c	-0.019298278
103	0x3d8ce2cb	0.06879195
104	0xbddfab7d	-0.10921381
105	0xbdfb574a	-0.122725084
106	0x3c98bd18	0.018644854
107	0xbd4a44e5	-0.04938211
108	0x3d0d46c7	0.034491327
109	0xbe117c0d	-0.14207478
110	0xbc329ae6	-0.0109011885
111	0x3d78decb	0.060759347
112	0x3cfdc5f3	0.030978179
113	0xbd6b5c92	-0.05746133
114	0xbe0af1d0	-0.13568807
115	0xbe246f27	-0.16058026
116	0x3d1a4fc3	0.037673723
117	0x3da15c7e	0.078789696
118	0x3d527148	0.051377565
119	0x3d1339e5	0.035943884
120	0xbcafe029	-0.021469193
121	0xbc8e05e6	-0.017336797
122	0xbdeb6e37	-0.11495631
123	0x3d2470b1	0.040146533
124	0xbd4e92e7	-0.050433066
125	0xbd95e85b	-0.07319709
126	0x3c4d4ed2	0.012530999
127	0xbd23b668	-0.039968878
128	0x3e03340c	0.12812823
129	0xbdbadf2f	-0.091246
130	0x3e1e53b6	0.1546162
131	0xbd462684	-0.048376575
132	0x3dbb1523	0.09134891
133	0xbca48349	-0.020082133
134	0x3d401790	0.04689747
135	0x3e0dc5be	0.13844964
136	0x3d4cf7b8	0.05004093
137	0x3d5682b2	0.052370735
138	0x3da27fb5	0.079345144
139	0x3d330136	0.043702327
140	0x3d9fe058	0.07806462
141	0x3db683ac	0.08911833
142	0x3dbf84d8	0.0935151
143	0xbdd539b0	-0.10411394
144	0x3d7a8cfa	0.061169602
145	0xbd575cd6	-0.05257877
146	0xbcd2fd86	-0.025755655
147	0x3e0d6ef4	0.13811857
148	0x3d94491e	0.072405085
149	0xbe04a575	-0.12953742
150	0x3dc9365d	0.09824822
151	0x3dbb6304	0.09149745
152	0x3df40289	0.11914546
153	0xbd578da2	-0.052625306
154	0xbcc36236	-0.023850542
155	0x3d666926	0.05625262
156	0xbc351548	-0.011052437
157	0x3de883b0	0.113532424
158	0x3d455c44	0.048183694
159	0xba82a4c2	-0.0009967315
160	0xbd35905f	-0.044327136
161	0xbc23cd03	-0.009997609
162	0xbdaad536	-0.08341448
163	0xbdc181cf	-0.09448587
164	0xbc61f251	-0.013790683
165	0xbd999d92	-0.07500757
166	0xbdd3beba	-0.103391126
167	0x3e06d5f5	0.13167556
168	0x3e104ab8	0.14091003
169	0x3bcd3e3e	0.0062635234
170	0xbd52c3ac	-0.05145614
171	0x3e0dddcb	0.13854139
172	0xba9c0c02	-0.0011905434
173	0xbd190406	-0.037357353
174	0x3e0e89ee	0.13919804
175	0xbd3efcad	-0.04662769
176	0x3e08f950	0.13376355
177	0x3d22cc32	0.039745517
178	0x3d434019	0.04766855
179	0x3dc97d53	0.09838357
180	0x3d995d68	0.07488519
181	0xbcecde0e	-0.028914478
182	0xbd98d314	-0.07462135
183	0x3d7643a9	0.06012312
184	0xbdd51a17	-0.10405367
185	0xbd20ce68	-0.039259344
186	0x3c8dc226	0.017304491
187	0x3d0c6504	0.034276024
188	0xbb9cc697	-0.004784416
189	0x3d2e1a21	0.042505387
190	0x3e01b36f	0.12666105
191	0xbdd13f88	-0.10217196
192	0xbc44c616	-0.012010118
193	0xbda26b9c	-0.07930681
194	0xbdaa7625	-0.083233155
195	0x3cbdbb63	0.023160642
196	0x3bcfba4b	0.0063393465
197	0xbd8f48e6	-0.06996326
198	0x3d898ac3	0.0671592
199	0xbcfce27b	-0.030869713
200	0xbd8f456e	-0.069956645
201	0x3d50debb	0.050993662
202	0x3da1e46b	0.079048954
203	0x3d1ad3d0	0.037799656
204	0xbe0c2569	-0.13686146
205	0xbd3af116	-0.045640074
206	0xbd4f0b35	-0.050547797
207	0xbc952a5c	-0.018208675
208	0xbe39645b	-0.18104689
209	0xbad7b3e1	-0.0016456806
210	0xbd0ed997	-0.03487548
211	0x3e0f080b	0.13967912
212	0x3dba5578	0.09098333
213	0x3cd39ddf	0.025832115
214	0x3dbfb8f8	0.09361452
215	0x3cd8dd22	0.026472632
216	0x3d35fd0c	0.044430777
217	0x3d77f9a8	0.060540825
218	0x3db9c27b	0.09070297
219	0xbe1f1bf6	-0.1553801
220	0xbd36424d	-0.044496823
221	0xbce6c6ab	-0.028170904
222	0xbd607511	-0.054799143
223	0xbdcd4623	-0.10023143
224	0xbdc26205	-0.09491352
225	0xbdeecbea	-0.11659987
226	0xbcc11eab	-0.023574194
227	0x3db033c2	0.08603622
228	0x3d49ff2e	0.049315624
229	0x3bceab98	0.0063070767
230	0x3cf966a4	0.03044445
231	0x3da52676	0.080639765
232	0xbda2d933	-0.07951584
233	0x3d26f43c	0.040760264
234	0x3df8fba2	0.1215737
235	0x3d7ad806	0.061241172
236	0xbd319556	-0.04335531
237	0xbddf715c	-0.109102935
238	0x3ded5879	0.115891404
239	0x3da879e8	0.08226377
240	0x3ddcb75a	0.10777159
241	0x3d0fcbfc	0.035106644
242	0x3dcb2762	0.09919621
243	0x3d765410	0.060138762
244	0xbbf7f928	-0.0075675435
245	0x3d6341b1	0.05548257
246	0xbe17d107	-0.14825831
247	0x3d68d8ed	0.0568475
248	0x3e11775c	0.14205688
249	0xbdd455f0	-0.10367954
250	0xbe07cd80	-0.13261986
251	0x3d485b9d	0.048915494
252	0xbd347836	-0.044059955
253	0x3c43b7bd	0.011945662
254	0x3e0381e4	0.12842518
255	0x3e1cfbd2	0.15330437

weight f4 [1, 64]
0	0xbd2dec30	-0.042461574
1	0xbd47d857	-0.048790302
2	0xbe0d780b	-0.13815324
3	0xbd932883	-0.07185461
4	0xbddae948	-0.10689026
5	0x3df94d8f	0.12172996
6	0xbdf70aac	-0.120625824
7	0xbe1618f2	-0.14657953
8	0x3d514bed	0.0510978
9	0xbd2bf74c	-0.041983888
10	0xbdccc4af	-0.09998452
11	0xbd1813ce	-0.037128262
12	0xbcca939e	-0.024728592
13	0x3e1da860	0.15396261
14	0xbd26eebd	-0.040755022
15	0xbb78cae6	-0.0037962734
16	0xbd1b4c6c	-0.03791468
17	0x3ca603d7	0.020265503
18	0x3e0b687a	0.13614073
19	0xbdc8999d	-0.097949244
20	0xbdf101fe	-0.11767958
21	0xbdc3db57	-0.0956332
22	0x3da48c0e	0.08034526
23	0x3dbc530b	0.09195527
24	0xbdfb8710	-0.122816205
25	0x3ddd1d51	0.10796607
26	0xbd64ab93	-0.05582769
27	0x3d20d41d	0.039264787
28	0xbd0960b3	-0.033539485
29	0xbb20d51e	-0.002454109
30	0x3de55aed	0.11198983
31	0xbd997214	-0.07492462
32	0xbd9f2da9	-0.07772381
33	0x3d96633e	0.07343148
34	0x3d15ef7b	0.03660534
35	0xbdeb89e0	-0.11500907
36	0xbd3af863	-0.045647036
37	0xbe05418c	-0.13013285
38	0xbdec2ba1	-0.11531759
39	0xbdbbe568	-0.09174615
40	0xbe00d1b8	-0.12580001
41	0x3dbf05f2	0.09327306
42	0xbe051f51	-0.13000228
43	0xbdb93d21	-0.090448625
44	0xbd2d50c9	-0.04231337
45	0xbd8d3550	-0.06894934
46	0xbd931712	-0.07182135
47	0x3dc2a594	0.09504238
48	0xbe073bca	-0.13206401
49	0xbc87324e	-0.01650348
50	0x3d83b29e	0.06430553
51	0xbddd32a4	-0.108006746
52	0x3e20bc11	0.15696742
53	0xbe07637c	-0.13221544
54	0x3d7a4171	0.061097566
55	0x3c28383b	0.010267313
56	0xbda8bd73	-0.082392596
57	0x3cf84770	0.030307502
58	0xbad05a56	-0.0015896063
59	0x3d185cd0	0.037197888
60	0xbd62d045	-0.055374403
61	0xbd0b21bf	-0.03396773
62	0xbda0e3c6	-0.07855944
63	0x3e0a392e	0.13498375
