model/4807.677401823046_weight.pth (torch, 132047 bytes, 7 tensors)

weight f4 [16, 32, 1]
0	0xbe1b97d9	-0.15194644
1	0xbe0c37c5	-0.1369315
2	0xbe80d7be	-0.25164598
3	0xbdc676c4	-0.096906215
4	0xbdd7c9d7	-0.10536545
5	0xbdeec59f	-0.11658787
6	0x3e43ac11	0.19108607
7	0x3d2760b5	0.04086371
8	0xbd0d5852	-0.034508057
9	0xbc8b8a75	-0.017033795
10	0x3c936054	0.017990269
11	0x3d336580	0.04379797
12	0xbdd21175	-0.10257236
13	0x3d2add30	0.041714847
14	0xbd622d0f	-0.055218752
15	0xbe14dbc6	-0.14536962
16	0x3e500a03	0.20316319
17	0x3cb0caec	0.021581136
18	0x3d7a5168	0.06111279
19	0xbe370514	-0.17873031
20	0x3e0ef48e	0.13960478
21	0xbe1d9860	-0.15390158
22	0xbcde8131	-0.027161213
23	0x3d1c5e9a	0.038176157
24	0xbdfbb5dd	-0.12290547
25	0xbd1fd122	-0.039017804
26	0xbdccb551	-0.09995521
27	0x3d47cd6c	0.04877989
28	0x3d298455	0.041385967
29	0xbdeb6403	-0.11493685
30	0xbde73aa8	-0.11290485
31	0xbd0a9857	-0.03383669
32	0xbe2a31cf	-0.16620563
33	0xbd8a2136	-0.06744616
34	0x3e14a54a	0.14516178
35	0x3d1e3711	0.038626734
36	0xbe0c546f	-0.13704084
37	0x3d113861	0.035454158
38	0xbddc67b6	-0.10761969
39	0xbb88dd61	-0.004176781
40	0xbde6f998	-0.11278075
41	0xbd0be493	-0.034153532
42	0xba4828ba	-0.0007635463
43	0x3d9332b2	0.07187404
44	0x3e3cc504	0.1843453
45	0xbd1e41f5	-0.03863712
46	0xbd42046c	-0.0473675
47	0x3e0b3fc4	0.13598543
48	0x3d9138b0	0.070908904
49	0xbb8eb8c9	-0.004355524
50	0x3d5448d5	0.05182727
51	0xbdd43250	-0.10361159
52	0x3ea99439	0.33120897
53	0xbcbc8ed9	-0.023017334
54	0xbe06c592	-0.13161305
55	0x3dea1095	0.11428944
56	0xbd9f5524	-0.07779911
57	0x3d028279	0.03186271
58	0xbe6dbee9	-0.23217358
59	0xbd09507c	-0.03352402
60	0xbcbc2b0d	-0.022969747
61	0x3ba8ecf8	0.005155202
62	0xbdd7dbdf	-0.10539984
63	0x3e318278	0.17334926
64	0x3b7c2d22	0.003847905
65	0x3e54f0a1	0.20794918
66	0x3e44d636	0.1922234
67	0x3dbdf7c4	0.09275773
68	0xbe056d4d	-0.13029976
69	0x3db84933	0.08998337
70	0x3c40d650	0.011769846
71	0xbdb4fdb1	-0.0883745
72	0x3d42e9ab	0.047586124
73	0xbccdefc3	-0.025138741
74	0xbd16b239	-0.03679106
75	0xbd3a6a4a	-0.04551152
76	0xbe0696ff	-0.13143538
77	0x3e0801e0	0.13281965
78	0xbd93228f	-0.07184326
79	0x3dda373c	0.10655066
80	0xbe4e7913	-0.20163374
81	0xbe555f3c	-0.2083711
82	0x3c190993	0.009340662
83	0xbdaba0f6	-0.0838031
84	0xbe9a91c2	-0.3018933
85	0xbdab3140	-0.08359003
86	0xbce3fc51	-0.027830275
87	0x3e1ae337	0.15125738
88	0xbe2d399c	-0.16916507
89	0x3e10b7a0	0.14132547
90	0xbdb95f9f	-0.090514414
91	0x3b9a10a4	0.0047016907
92	0x3e2f622c	0.17127293
93	0xbe144940	-0.14481068
94	0x3e1e9ec0	0.15490246
95	0xbdb1615a	-0.086611465
96	0x3daf3b7a	0.08556266
97	0x3e93def7	0.28881046
98	0x3e8de495	0.27713457
99	0x3e26c5d5	0.16286404
100	0xbc9bf678	-0.019038424
101	0x3e094bf0	0.13407874
102	0x3e072dd7	0.1320108
103	0x3de72f9a	0.11288376
104	0x3e36ef17	0.17864643
105	0x3dab2f86	0.08358674
106	0x3e3101c2	0.17285827
107	0xb9a39268	-0.00031198864
108	0x3ddbc073	0.10730066
109	0xbde3f910	-0.11131489
110	0x3e07ad9b	0.13249819
111	0xba1c281a	-0.00059569033
112	0x3da73727	0.08164816
113	0xbd6c5507	-0.057698276
114	0x3e1df071	0.15423752
115	0x3d2e635a	0.042575218
116	0x3d9ff7ab	0.07810911
117	0xbcdcfa4c	-0.02697482
118	0xbddf7ae2	-0.1091211
119	0x3dbe2411	0.09284223
120	0x3e3b4c5b	0.18290846
121	0x3df1b3f3	0.11801901
122	0x3d57e5eb	0.0527095
123	0x3c5f1d09	0.013617762
124	0xbdda709e	-0.10666011
125	0x3ba340da	0.004982096
126	0xbc26b5f5	-0.010175218
127	0xbdbaf3fb	-0.09128567
128	0x3d55f3ef	0.052234586
129	0x3e5cdb28	0.21567976
130	0x3e1f5009	0.15557875
131	0xbc6897f6	-0.014196387
132	0x3d2e1453	0.04249985
133	0x3dca8837	0.09889262
134	0x3dd0e191	0.101992734
135	0x3b858fc0	0.004075974
136	0x3e383d0d	0.17992039
137	0x3dcb7c59	0.09935827
138	0x3e192b16	0.14957842
139	0xbd96f427	-0.07370787
140	0xbe0b2083	-0.13586621
141	0x3dc50344	0.096197635
142	0x3e4c789e	0.19967887
143	0x3ce93cba	0.02847134
144	0xbd7c9607	-0.061666515
145	0x3e1bf77a	0.15231124
146	0xbccffb12	-0.025388274
147	0xbd85ef66	-0.06539802
148	0xbc8e229e	-0.017350491
149	0xbe031e5f	-0.12804554
150	0xbd0bf47e	-0.034168713
151	0x3e08aeb6	0.13347897
152	0xbd6ff6a1	-0.058584813
153	0xbaddf5eb	-0.0016934251
154	0x3d859cb0	0.065240264
155	0xbda349e9	-0.079730816
156	0x3de5cff7	0.11221307
157	0xbc0f06fb	-0.008729692
158	0x3ddd4b78	0.1080541
159	0xbc46e601	-0.012139798
160	0x3ceedb10	0.029157192
161	0x3ddb8a82	0.10719778
162	0x3e93d4a2	0.28873163
163	0x3c8eed8d	0.017447257
164	0x3e54f235	0.2079552
165	0x3d6aa596	0.05728682
166	0x3e154b6d	0.14579554
167	0x3d436f8e	0.04771381
168	0xbe117e20	-0.14208269
169	0xbd329ab3	-0.043604564
170	0x3d120cd8	0.03565678
171	0x3c4e8937	0.012605957
172	0x3d86b03f	0.06576585
173	0x3e036609	0.12831892
174	0xbd665579	-0.056233857
175	0x3e3a1d6a	0.18175283
176	0x3d8621d9	0.06549425
177	0xbdc28c7d	-0.09499452
178	0x3e0a237b	0.13490097
179	0x3e12c213	0.14331846
180	0x3ddb8364	0.1071842
181	0x3c4db3c9	0.012555071
182	0xbd8fc149	-0.07019288
183	0x3d3006b9	0.04297516
184	0xbdce4323	-0.10071399
185	0x3e0ab5d4	0.13545924
186	0x3d5ac6f0	0.053412378
187	0x3e07bfe9	0.13256802
188	0x3d9deb37	0.07710879
189	0x3c88ddf6	0.016707402
190	0xbdc7d5a1	-0.09757543
191	0x3dc7866e	0.09742437
192	0xbe0868f5	-0.13321288
193	0xbd599d58	-0.05312857
194	0x3c320b54	0.010866959
195	0x3d6a354c	0.057179734
196	0xbdf0ccab	-0.11757787
197	0x3e4fa632	0.20278242
198	0xbdff27ab	-0.12458738
199	0x3d41157c	0.04713963
200	0xbc53b55d	-0.012921658
201	0xbdfae2d8	-0.12250298
202	0x3e01f07c	0.12689394
203	0x3cb8cfaf	0.022559969
204	0xbdd5eda3	-0.10445716
205	0xbe1e1662	-0.15438226
206	0xbdfa871e	-0.12232803
207	0x3d6c0915	0.05762585
208	0xbddb2742	-0.10700847
209	0xbcbbd3a8	-0.022928074
210	0x3dda2baf	0.10652863
211	0x3d0caaea	0.034342684
212	0xbe141e56	-0.14464697
213	0x3c121909	0.008917102
214	0xbd5cfcd1	-0.053952042
215	0xbe2b62d3	-0.16736917
216	0x3df10a8b	0.11769589
217	0x3d58efbc	0.052963004
218	0x3c5069ee	0.012720568
219	0x3d88564a	0.06657083
220	0xbe166462	-0.1468673
221	0xbc25f9a0	-0.010130316
222	0x3d37ce36	0.044874392
223	0x3dd09fbf	0.10186719
224	0xbe9ab3f3	-0.30215415
225	0xbe65d880	-0.2244587
226	0x3d223f1f	0.03961098
227	0x3e120aa7	0.14261876
228	0x3ddc8006	0.10766606
229	0xbd86c52c	-0.06580576
230	0x3e1d34f2	0.15352228
231	0x3c162b0f	0.009165539
232	0x3e0609c4	0.13089663
233	0xbd874825	-0.06605557
234	0xbe0ce84c	-0.13760489
235	0xbd074086	-0.03302052
236	0xbde67a1d	-0.1125376
237	0x3d738f5f	0.0594629
238	0x3c82518f	0.01590803
239	0x3d426008	0.047454864
240	0x3df68ae9	0.12038214
241	0xbde3623d	-0.11102722
242	0x3d351ee1	0.0442189
243	0xbda69f7d	-0.08135889
244	0xbdec3300	-0.11533165
245	0x3dbf8cbb	0.09353014
246	0x3c7d8794	0.015474219
247	0x3c94bd2c	0.01815661
248	0xbda5931a	-0.08084698
249	0x3c9143f1	0.017732592
250	0xbc1b8bd3	-0.009493786
251	0x3bf46cbd	0.0074592517
252	0xbda55e35	-0.08074609
253	0x3e80e60d	0.25175515
254	0x3de8e4fe	0.11371802
255	0x3de57b45	0.112051524

bias f4 [16]
0	0x3deb39e7	0.11485653
1	0x3cf0efe0	0.029411256
2	0x3e27a317	0.16370808
3	0xbdd6effc	-0.10494992
4	0xbde4d416	-0.11173265
5	0xbdcc4615	-0.099743046
6	0x3c5d905f	0.01352319
7	0xbd86c1fe	-0.0657997
8	0xbdddbb91	-0.10826791
9	0x3cfa4837	0.030552013
10	0xbdde81a5	-0.108645715
11	0xbbe951f4	-0.0071203653
12	0xbda54076	-0.080689356
13	0xbbb7ca0f	-0.005608804
14	0xbe096416	-0.13417086
15	0x3ce53f30	0.027984232

weight_ih_l0 f4 [320, 16]
0	0x3dd07c2c	0.10179934
1	0x3e0bb6c7	0.13643943
2	0xbc9d34d6	-0.019190233
3	0x3cc71a89	0.024304645
4	0xbcab71d8	-0.020928308
5	0xbde01c46	-0.10942893
6	0xbccd2a01	-0.025044443
7	0x3db23cc2	0.08702995
8	0x3d2f2fc7	0.042770173
9	0x3d613ff2	0.054992624
10	0xbdaac1d2	-0.083377495
11	0x3e1c50f7	0.1526526
12	0x3d88a16f	0.06671416
13	0xbda57a55	-0.080799736
14	0xbcc8d90a	-0.024517555
15	0xbde2baf4	-0.11070815
16	0x3dff843b	0.12476393
17	0xbcd58414	-0.026063956
18	0x3e61578f	0.22006057
19	0xbd94f07b	-0.072724305
20	0xbe2a1abf	-0.16611765
21	0xbdb684fb	-0.08912083
22	0x3e1cc7a2	0.15310529
23	0x3e1b6deb	0.15178649
24	0x3cd79142	0.026314382
25	0x3bef3846	0.0073004095
26	0xbbeb83c5	-0.007187339
27	0x3d2e63be	0.04257559
28	0x3c9557a2	0.018230263
29	0x3e074bda	0.13212529
30	0xbe6efbdb	-0.23338263
31	0xbde01aa4	-0.10942581
32	0xbdf1f29d	-0.11813853
33	0xbe347bca	-0.17625347
34	0x3de5545a	0.111977294
35	0x3c81778d	0.015804077
36	0xbca1eff7	-0.019767744
37	0xbd70afa0	-0.05876124
38	0xbc1ae100	-0.009453058
39	0xbe90fbcb	-0.28317103
40	0xbc91a8d8	-0.017780706
41	0x3da25ee3	0.079282545
42	0x3dca6cf6	0.09884064
43	0xbcf1523c	-0.029458158
44	0xba820b4d	-0.0009921581
45	0x3a6b81e2	0.00089838926
46	0x3dbd7c01	0.092521675
47	0xbe31778f	-0.17330764
48	0xbd18c6e8	-0.037299067
49	0xbd1fbff2	-0.039001413
50	0xbe061caa	-0.13096872
51	0x3d97bc75	0.07408992
52	0x3d866483	0.0656214
53	0x3e12f56d	0.14351435
54	0xbde0f549	-0.109842844
55	0x3d2c4d34	0.042065814
56	0x3de5d3e0	0.112220526
57	0x3d5e4a67	0.054270174
58	0x3d37793c	0.044793352
59	0x3ccb6952	0.024830494
60	0xbdbcf15e	-0.09225725
61	0x39d09b0c	0.0003978837
62	0x3df50c4a	0.119652346
63	0xbb83d183	-0.0040227785
64	0x3d1d3d07	0.03838828
65	0x3d42103a	0.047378756
66	0x3d2c3522	0.04204286
67	0xbd11db23	-0.035609376
68	0xbca89ec9	-0.020583527
69	0x3dd015e0	0.10160422
70	0x3dc9f12e	0.098604545
71	0x3dd4d183	0.10391524
72	0x3d8dd4a4	0.069253236
73	0xbd61c1e4	-0.05511655
74	0x3a2e8889	0.00066579186
75	0xbdec8809	-0.11549384
76	0xbd9e1bae	-0.07720123
77	0xbc938c86	-0.018011343
78	0xbde584f1	-0.11206997
79	0x3dbabb14	0.091177136
80	0x3da443cd	0.080207445
81	0x3caa187f	0.020763634
82	0x3d888974	0.06666842
83	0x3daf1243	0.08548405
84	0xbda2e426	-0.07953672
85	0xbc26f399	-0.010189914
86	0x3d809bbe	0.062797055
87	0x3d473162	0.04863108
88	0xba3e3432	-0.00072557025
89	0x3cc27e53	0.023741877
90	0xbe2d5cb5	-0.16929896
91	0xbdc86c02	-0.09786226
92	0x3cce5672	0.025187705
93	0x3d8c9be1	0.06865669
94	0xbbc5a1bf	-0.0060312445
95	0xbdc19882	-0.09452917
96	0xbd16e585	-0.03683998
97	0xbd906b16	-0.07051675
98	0x3cf10acd	0.029424096
99	0x3cc8f133	0.024529075
100	0xbd65a2c8	-0.056063443
101	0xbddeac63	-0.10872724
102	0x3e0b3a36	0.13596424
103	0x3dd9fd93	0.106440686
104	0x3cd28fa1	0.025703253
105	0xbc9c3778	-0.019069418
106	0xbda532cc	-0.08066329
107	0xbd6a5c72	-0.05721707
108	0x3dfdc764	0.12391546
109	0x3e00b010	0.12567163
110	0xbcb6864a	-0.02228083
111	0xbe05670b	-0.13027589
112	0x3cd90ada	0.026494432
113	0xbe0ab7b5	-0.13546641
114	0xbcf1ffa4	-0.029540844
115	0x3c0cb01b	0.008586909
116	0x3dfd9bdc	0.123832434
117	0x3dfe2350	0.12409079
118	0xbd92324f	-0.07138502
119	0x3d0ec66c	0.0348572
120	0xbd6fbf74	-0.058532193
121	0x3c819184	0.015816458
122	0xbcce1bb3	-0.025159692
123	0xbb80f378	-0.0039352737
124	0x3c13c623	0.009019407
125	0xbd317194	-0.043321207
126	0xbd0fd0f5	-0.035111386
127	0x3d59e36f	0.053195413
128	0xbe186de7	-0.14885674
129	0x3c8d6f39	0.01726495
130	0xbd5290c1	-0.05140758
131	0x3dea6880	0.11445713
132	0xbcfeb2d8	-0.031091139
133	0xbd4ffe81	-0.050779823
134	0xbd3f46c3	-0.046698343
135	0xbe8735e4	-0.26408303
136	0x3c92d299	0.017922686
137	0x3dd62515	0.104562916
138	0x3eb6b611	0.3568578
139	0xbdf4808f	-0.11938583
140	0xbe7f9941	-0.24960805
141	0xbd7e34a0	-0.062061906
142	0x3e8f4c24	0.27987778
143	0x3de24d43	0.11049893
144	0x3dafd56d	0.085856296
145	0xbd98991e	-0.0745108
146	0xbd0368af	-0.032082256
147	0x3c9f3b01	0.019437315
148	0xbdfd2412	-0.123603955
149	0x3d779896	0.06044825
150	0xbd12a49b	-0.03580151
151	0x3dc970c6	0.09835963
152	0xbd85dbb3	-0.06536045
153	0xbdacb93e	-0.0843377
154	0xbd02ea7d	-0.031961907
155	0x3dcfaa27	0.10139876
156	0x3dbbc1a6	0.09167795
157	0xbd0483bd	-0.032352198
158	0xbd636bff	-0.055522915
159	0xbe00d088	-0.12579548
160	0x3daf5c97	0.08562582
161	0x3de62d99	0.11239166
162	0x3d8fed34	0.07027665
163	0xbb7f5065	-0.003895783
164	0xbdb5bd96	-0.08874051
165	0x3cdcd57e	0.02695727
166	0xbdbbced3	-0.09170308
167	0x3de487f6	0.11158745
168	0x3d8e1e3b	0.0693936
169	0x3cc9545d	0.02457636
170	0xbe0a0179	-0.13477124
171	0x3cf7318c	0.030174993
172	0xbdadc471	-0.08484734
173	0x3d04b5fc	0.032400116
174	0xbc83ac96	-0.016073506
175	0x3d825d97	0.06365507
176	0x3c858ebf	0.016303418
177	0xbc94c6ac	-0.01816114
178	0x3c0a0cca	0.008425901
179	0x3d1f8781	0.038947586
180	0x3d73573b	0.05940936
181	0x3c9c64aa	0.01909097
182	0xbd5871c1	-0.05284286
183	0xbe077816	-0.13229403
184	0x3cdaa1f4	0.026688553
185	0x3e360ad5	0.1777757
186	0x3e394e4c	0.18096274
187	0xbe7cb976	-0.24680123
188	0xbe357246	-0.17719373
189	0xbdaec3a3	-0.085334085
190	0x3de023e6	0.10944347
191	0x3e1083d3	0.14112787
192	0xbd27f75b	-0.04100738
193	0xbe607740	-0.2192049
194	0xb9d08a8b	-0.00039776074
195	0xbd3f062f	-0.046636757
196	0x3c8ca67c	0.01716923
197	0xbc19b18f	-0.009380712
198	0x3dcf145f	0.10111307
199	0x3d045bd6	0.032314144
200	0xbe0868fb	-0.13321297
201	0x3db9f275	0.09079448
202	0x3e07f9e2	0.13278916
203	0x3d96384d	0.07334957
204	0xbe15ae96	-0.1461738
205	0xbc5c33ad	-0.013440055
206	0xbca49172	-0.020088885
207	0xbd60673d	-0.054785956
208	0xbd306dab	-0.043073338
209	0x3de411d0	0.1113621
210	0xbd026a66	-0.03183975
211	0xbc1de99a	-0.0096382145
212	0x3db15160	0.08658099
213	0xbd8071b1	-0.06271685
214	0x3d8c3860	0.0684669
215	0x3c33ac29	0.010966339
216	0xbb6647ed	-0.0035138086
217	0xbd2fcca4	-0.04291977
218	0x3c9c2d37	0.019064529
219	0x3caf76a6	0.02141888
220	0xbd94bf97	-0.07263105
221	0x3d211e82	0.039335735
222	0x3e27294f	0.16324352
223	0xbd10e847	-0.035377767
224	0x3dc311dd	0.095248915
225	0x3bac82d1	0.005264618
226	0xbde691cd	-0.11258278
227	0x3ca0ff7b	0.019653073
228	0x3da756ef	0.08170878
229	0xbb866895	-0.0041018226
230	0xbd85099c	-0.064959735
231	0x3e50ae31	0.20378949
232	0x3da6a73e	0.08137368
233	0xbc10d476	-0.008839717
234	0xbe1bf58b	-0.15230386
235	0xbc62a313	-0.013832825
236	0xbbdd2345	-0.006748589
237	0x3dcb432f	0.09924924
238	0xbdfa969d	-0.122357585
239	0x3db98d7e	0.090601906
240	0x3cc47794	0.0239828
241	0xbdf8193a	-0.121141866
242	0xbe0e8440	-0.13917637
243	0xbc943803	-0.018093115
244	0xbcc626df	-0.024188457
245	0x3d09c1c5	0.03363206
246	0xbd593863	-0.05303229
247	0xbdb92bef	-0.09041583
248	0xbd2329eb	-0.039834898
249	0xbdce0cde	-0.10061048
250	0x3dbce243	0.092228435
251	0x3dd78cd9	0.105249114
252	0xbc039078	-0.0080300495
253	0x3d1918bd	0.037377108
254	0x3db72c40	0.08943987
255	0xbc6ca40f	-0.0144434115

weight_hh_l0 f4 [320, 80]
0	0x3cd9b85e	0.026577171
1	0x3cc575bb	0.02410399
2	0x3dd63735	0.10459749
3	0x3d2f3ef5	0.04278465
4	0xbdb63dcc	-0.088985056
5	0xbd8df215	-0.06930939
6	0xbd4a249b	-0.049351316
7	0xbbfb00a9	-0.007659991
8	0x3d8de52a	0.06928475
9	0xbdae4023	-0.08508327
10	0x3dc60731	0.096693404
11	0xbdb50c67	-0.08840256
12	0xbda556d5	-0.080732025
13	0xbbfe6f01	-0.0077646975
14	0xbd8f64b5	-0.0700163
15	0x3d027497	0.03184947
16	0x3a99ccce	0.001173401
17	0x3afc9950	0.0019271765
18	0xbbd52728	-0.006504912
19	0x3dddb2ab	0.10825094
20	0xbde40944	-0.1113458
21	0x3dcc9ed8	0.099912345
22	0x3defa334	0.117010504
23	0x3cedee0c	0.029044174
24	0x3ca85aa9	0.020551043
25	0xbd46de0b	-0.0485516
26	0xbd967e4b	-0.07348307
27	0xbdbcfa4c	-0.09227428
28	0x3d7bb804	0.061454788
29	0x3df7ce5f	0.12099909
30	0xbdc06e29	-0.093960114
31	0xbdbcc328	-0.092169106
32	0xbbe84912	-0.007088789
33	0x3db36efd	0.08761404
34	0x3db0eb45	0.08638624
35	0xbc6ec41e	-0.014573125
36	0xbda2b5fd	-0.07944868
37	0x3c26f3aa	0.01018993
38	0x39dbe97e	0.000419449
39	0x3d7407b8	0.059577674
40	0xbda55eed	-0.08074746
41	0x3e0d8187	0.13818942
42	0xbb938314	-0.0045017097
43	0x3e0233ec	0.12715119
44	0xbcf3944f	-0.029733805
45	0x3d801586	0.06254105
46	0xbcf89291	-0.030343326
47	0xbd203041	-0.03910852
48	0x3d89ed48	0.06734711
49	0xbce0a436	-0.027422052
50	0x3dd0b66d	0.10191045
51	0x3d9a065d	0.07520745
52	0xbd0dd46c	-0.03462641
53	0x3d92faa5	0.07176713
54	0xbd9023ad	-0.070380546
55	0x3dcd21c7	0.10016208
56	0x3d65661f	0.056005593
57	0xbc99237e	-0.018693682
58	0x3cdf8069	0.02728291
59	0xbc52e066	-0.012870884
60	0x3db682a5	0.08911637
61	0x3e047df2	0.1293867
62	0x3db119e5	0.08647517
63	0xbdf6dbc2	-0.12053634
64	0x3e0943f0	0.13404822
65	0xbd8ad455	-0.0677878
66	0x3ae19006	0.001720906
67	0x3d715f29	0.058928642
68	0x3da02905	0.07820324
69	0x3dc5fe1c	0.09667608
70	0xbdacaf0b	-0.08431824
71	0x3daf991b	0.085741244
72	0x3d63031e	0.055422895
73	0xbde634a5	-0.1124051
74	0x3cd82042	0.02638257
75	0xbdd468cb	-0.1037155
76	0xbd64d669	-0.05586854
77	0xbc17e5d7	-0.009271107
78	0xbda3789c	-0.07981989
79	0x3d289f2f	0.041167434
80	0x3d5df632	0.05418987
81	0xbc059370	-0.008152828
82	0xbd1b4a04	-0.037912384
83	0x3df21f1f	0.11822342
84	0xbd4c8945	-0.049935598
85	0x3d9579d0	0.072986245
86	0x3d331b43	0.04372717
87	0xbda3549e	-0.07975124
88	0x3db671de	0.08908437
89	0xbbdfa8b3	-0.0068255304
90	0xbd011baa	-0.031520523
91	0x3d36b257	0.044603672
92	0xbd8c1c75	-0.06841365
93	0xbdbb2f4e	-0.09139882
94	0xbdb1f98a	-0.08690174
95	0xbc59ebce	-0.013300849
96	0xbd00336f	-0.03129905
97	0x3d90fe25	0.07079724
98	0x3d6f97c9	0.058494363
99	0xbc44a677	-0.012002579
100	0xbd33192f	-0.04372519
101	0x3dcfd058	0.1014716
102	0xbd8d0486	-0.068856284
103	0x3d0e514f	0.03474551
104	0xbda2fdfb	-0.07958599
105	0x3d4d7458	0.050159782
106	0x3e3b0a6a	0.18265691
107	0x3c58729c	0.013210919
108	0xbd74822f	-0.059694465
109	0x3db9c7f7	0.090713434
110	0x3d8d3158	0.06894177
111	0xbce6219e	-0.028092202
112	0x3d41ca8d	0.047312308
113	0xbde7023c	-0.11279723
114	0x3d4ebc4f	0.050472554
115	0x3d039a29	0.03212944
116	0x3cb7479f	0.022373019
117	0xbd1a5e78	-0.03768775
118	0xbdea7a2d	-0.114490844
119	0xbd98b639	-0.07456631
120	0xbdd23486	-0.10263924
121	0x3b9ffdbf	0.004882544
122	0xbd787ad4	-0.060664013
123	0xbb889599	-0.004168224
124	0xbe01b010	-0.12664819
125	0x3dea0b2b	0.11427911
126	0xbd260037	-0.04052755
127	0x3b1bcf5a	0.0023774714
128	0xbdb79c2f	-0.089653365
129	0x3cda8a68	0.026677325
130	0xbd0b4bd8	-0.034007877
131	0x3d4bdf2f	0.04977339
132	0xbd2d2434	-0.042270854
133	0x3d5a2b59	0.053263996
134	0xbd93786c	-0.07200703
135	0x3cd98068	0.026550487
136	0xbe2099e1	-0.156837
137	0xbe05ed32	-0.13078764
138	0xbd6882d7	-0.056765404
139	0xbcb31949	-0.021862643
140	0x3d1af0ad	0.037827183
141	0x3da6b255	0.08139483
142	0x3d7df8db	0.062004905
143	0xbd483efa	-0.048888184
144	0x3da2fade	0.07958005
145	0xbcc08fdc	-0.023506097
146	0xbd701878	-0.058617085
147	0xbde51114	-0.11184898
148	0xbd359f94	-0.04434164
149	0xbce76584	-0.028246649
150	0xbca71c47	-0.020399226
151	0xbddd8f11	-0.108183034
152	0xbcb34332	-0.021882627
153	0x3e19328d	0.1496069
154	0xbda9f4e0	-0.08298659
155	0xbd87b0c8	-0.06625515
156	0x3c667de7	0.014068103
157	0x3d8af9ca	0.06785925
158	0x3d44ead6	0.04807552
159	0xbd234bf1	-0.039867345
160	0x3d545ca7	0.051846173
161	0xbcfb6805	-0.030689249
162	0xbd84dbb4	-0.064872175
163	0x3b1459b2	0.002263647
164	0x3d7b4956	0.061349235
165	0x3de7a0da	0.11309977
166	0xb89ec6a3	-7.571026e-05
167	0xbda26990	-0.07930291
168	0xbe00ecea	-0.12590376
169	0xbc73b524	-0.01487473
170	0xbcca134e	-0.024667408
171	0x3d8c7f4a	0.06860216
172	0xbccc451b	-0.024935296
173	0x3d8519e8	0.06499082
174	0x3d2f87ed	0.04285424
175	0x3e053b10	0.13010812
176	0x3e371a0c	0.1788103
177	0xbe06bf13	-0.13158827
178	0x3bbf5fea	0.0058402913
179	0x3d5bf3ba	0.053699233
180	0xbc89c170	-0.016815871
181	0x3dae39fa	0.08507152
182	0x3da8ea0c	0.08247766
183	0xbd9bcb28	-0.07607108
184	0x3c256697	0.01009526
185	0x3d517e1e	0.051145665
186	0xbabf5094	-0.0014596158
187	0xbc23dbfb	-0.010001178
188	0xbcc0b329	-0.02352293
189	0x3dea8fd5	0.11453215
190	0xbd66f8d5	-0.05638965
191	0x3b25aec8	0.002528118
192	0x3af903d1	0.001899833
193	0x3d3b77ce	0.04576855
194	0xbd7a098d	-0.061044265
195	0x3d8dc7d2	0.06922878
196	0x3c43f24d	0.0119596245
197	0x3d83b70a	0.06431396
198	0x3dd43425	0.10361508
199	0x3dc4661d	0.09589789
200	0x3cf2a1e7	0.029618217
201	0xbd138cfd	-0.03602313
202	0x3dd4c222	0.103885904
203	0xbd544b06	-0.05182936
204	0x3dba0d7a	0.09084602
205	0x3e0be624	0.1366201
206	0xbd8355eb	-0.06412872
207	0xbd53a637	-0.051672187
208	0x3dbec729	0.093153305
209	0xbd81c190	-0.06335747
210	0xbcca4305	-0.02469016
211	0x3ddfbf3a	0.109251454
212	0x3cea81c8	0.028626338
213	0x3d8323b4	0.06403294
214	0x3dc4e56f	0.096140735
215	0x3d6577b1	0.05602235
216	0xbb3ce34d	-0.0028822005
217	0xbd90f39b	-0.07077714
218	0x3dbcaf78	0.092131555
219	0xbbbe502f	-0.0058078985
220	0x3e1441a8	0.14478171
221	0xbd2d2d73	-0.042279672
222	0x3d11d414	0.035602644
223	0x3ddb6ad8	0.10713738
224	0x3db5eed1	0.08883441
225	0x3dd38836	0.103287145
226	0x3d074072	0.033020444
227	0xbda69c2a	-0.08135255
228	0x3d44f51c	0.048085317
229	0xbda33f69	-0.07971079
230	0xbc45c857	-0.0120716905
231	0x3d5ae38c	0.05343966
232	0xbd8385da	-0.064220145
233	0x3c59ddfb	0.013297553
234	0x3cea5c6d	0.028608525
235	0x3b18e570	0.0023330115
236	0xbc9460ab	-0.018112501
237	0xbd67947e	-0.056538098
238	0xbd3c604e	-0.04599028
239	0x3d68d330	0.05684203
240	0x3d0d2e6c	0.0344681
241	0xbcb86045	-0.022506842
242	0xbc693603	-0.014234069
243	0xbd5a268a	-0.05325941
244	0xbc17b186	-0.0092586335
245	0xbcaef284	-0.021355875
246	0xbd6ebcb9	-0.05828545
247	0x3d726604	0.05917932
248	0x3d92cb71	0.071677096
249	0x3ccbae95	0.02486352
250	0xbc8d671d	-0.017261082
251	0xbd836f63	-0.0641773
252	0xbd932696	-0.07185094
253	0x3d7640e0	0.060120463
254	0x3d6e51dc	0.058183536
255	0x3e0c49b9	0.13699998

bias_ih_l0 f4 [320]
0	0xbd4cd1a8	-0.05000463
1	0x3e2bdd18	0.1678356
2	0xbbd52f71	-0.0065058996
3	0xbd77370f	-0.060355242
4	0x3dbf0848	0.093277514
5	0x3d012f39	0.031539176
6	0x3e0e2344	0.1388064
7	0xbdf13298	-0.11777228
8	0xbd944d4a	-0.07241304
9	0xbc0abcbd	-0.00846785
10	0x3e009cc6	0.12559804
11	0x3c179701	0.009252311
12	0x3e07b95f	0.13254307
13	0xbc79ee64	-0.015254591
14	0x3d9b282a	0.0757602
15	0x3dc7190d	0.09721575
16	0x3dcd4ce2	0.1002443
17	0x3da61dc4	0.08111146
18	0xbcf666a2	-0.030078236
19	0xbd943057	-0.072357826
20	0x3dd17520	0.10227418
21	0x3cd65251	0.026162298
22	0xbd3bdbcc	-0.04586391
23	0x3d106f50	0.035262406
24	0x3e00abaa	0.12565485
25	0x3de78e5f	0.11306452
26	0xbd5618f1	-0.05226988
27	0x3d24e025	0.040252823
28	0xbda85609	-0.08219535
29	0x3d1fc9dd	0.03901087
30	0x3d46b132	0.04850883
31	0xbc2458fe	-0.010030983
32	0xbda78c2f	-0.08181035
33	0x3e14489c	0.14480823
34	0xbc7bbeed	-0.0153653445
35	0x3d8accca	0.06777342
36	0x3d3cf617	0.046133127
37	0x3da182b0	0.07886255
38	0x3d84b6fc	0.06480214
39	0xbd7de0ae	-0.06198185
40	0x3c612dcb	0.013743828
41	0xbbcbb377	-0.0062164622
42	0x3d88c8cb	0.06678923
43	0x3ccbb3b3	0.02486596
44	0xbd426238	-0.04745695
45	0xbd28acfb	-0.041180592
46	0xbd893907	-0.0670033
47	0x3da7dc17	0.08196276
48	0x3da83b59	0.08214445
49	0x3cac303a	0.02101909
50	0xbb3fbbe4	-0.0029256279
51	0x3d864208	0.06555563
52	0x3e10de2c	0.14147252
53	0xbd122533	-0.035680007
54	0x3d9a3a98	0.07530707
55	0x3d27bb02	0.04094983
56	0x3dc20374	0.09473315
57	0x3d3cfb0c	0.046137854
58	0x3c406232	0.011742162
59	0x3d4e7312	0.05040271
60	0x3d1fea17	0.039041605
61	0xbe00fb40	-0.12595844
62	0x3dc16791	0.09443582
63	0x3d940b6f	0.07228743
64	0xbc77d28e	-0.015125884
65	0xbd33bf6f	-0.043883737
66	0xbd3b94c3	-0.045796167
67	0x3bc2f81d	0.0059499876
68	0x3c82bf97	0.015960498
69	0xbdbf1b24	-0.093313485
70	0x3bd4ff2e	0.0065001464
71	0x3db173d0	0.086646676
72	0xbde3de6b	-0.11126407
73	0x3c040694	0.008058209
74	0x3d72b345	0.059252996
75	0x3e01f293	0.12690191
76	0x3d9ee3d9	0.07758302
77	0xbd436042	-0.04769922
78	0x3d2f809c	0.04284726
79	0xbd68454e	-0.05670672
80	0xbda51580	-0.080607414
81	0xbc325656	-0.010884842
82	0xbd3c87fd	-0.046028126
83	0x3d9ef336	0.077612326
84	0xbc48a4f1	-0.012246356
85	0x3d0c240d	0.03421407
86	0x3d4db751	0.050223652
87	0xbe001144	-0.12506586
88	0xbe1a4feb	-0.15069549
89	0xbc8350af	-0.016029684
90	0xbdaf3363	-0.08554723
91	0xbda12b3d	-0.07869575
92	0xbca82f39	-0.02053033
93	0xbbb0cbfc	-0.0053954106
94	0x3b224faa	0.0024766722
95	0xbd2c14dd	-0.042012084
96	0xbda888ef	-0.08229243
97	0x3a759e36	0.00093695836
98	0xbd4350cb	-0.047684472
99	0xbcd9aba0	-0.026571095
100	0xbce90c0e	-0.028448131
101	0xbe0d6a21	-0.13810016
102	0x3c5712bb	0.013127024
103	0xbe45a232	-0.19300154
104	0xbd9fd22c	-0.07803759
105	0xbd8ebe1b	-0.069698535
106	0xbdee8092	-0.116456166
107	0x3cec5100	0.028847218
108	0xbc27b1e0	-0.01023528
109	0xbd8b7510	-0.06809437
110	0xbde73c32	-0.11290778
111	0x3c86e652	0.016467247
112	0xbc1ce07e	-0.0095750075
113	0xbd328727	-0.043585923
114	0x3d1b8bca	0.03797511
115	0xbdbc4d9c	-0.0919449
116	0x3dae305d	0.08505318
117	0x3d80ed0f	0.06295215
118	0x3d446897	0.047951307
119	0x3d39036e	0.045169286
120	0xbd9db499	-0.07700462
121	0x3a5e134a	0.0008471502
122	0xbdbe6f49	-0.0929857
123	0xbd995f4a	-0.07488878
124	0x3cb82c75	0.022482136
125	0x3b157598	0.0022805687
126	0xbdaf90dd	-0.08572552
127	0xbdd5e687	-0.1044436
128	0xbe0ccf6d	-0.13751002
129	0x3c68d886	0.014211779
130	0xbd991e40	-0.07476473
131	0x3d2bd2ce	0.041949086
132	0xbd2cb0a5	-0.04216065
133	0xbe11f5bc	-0.14253896
134	0xbc15af44	-0.009136025
135	0xbddd0e71	-0.1079377
136	0xbd80a355	-0.06281153
137	0xbc964b0b	-0.01834633
138	0xbd8dfbbb	-0.069327794
139	0x3d3ac831	0.045601074
140	0xbdcdbd4c	-0.10045871
141	0xbc4abdd3	-0.012374359
142	0xbe0b9739	-0.13631906
143	0xbddf298f	-0.108965985
144	0xbd9501ef	-0.072757594
145	0xbd91dc7e	-0.07122134
146	0xbce7dc8e	-0.02830341
147	0x3d7e122f	0.06202906
148	0x3daeb612	0.08530821
149	0xbe03f4f2	-0.12886408
150	0x3a5d79c3	0.0008448625
151	0xbca02c6e	-0.019552436
152	0x3ccae525	0.024767468
153	0x3d98b639	0.07456631
154	0xbd4ef962	-0.0505308
155	0x3b8a052c	0.0042120423
156	0xbdb830c8	-0.08993679
157	0xbdd5364c	-0.10410747
158	0x3da7f928	0.0820182
159	0xbdaa515a	-0.08316298
160	0x3d8de461	0.069283254
161	0x3dbadd56	0.09124248
162	0xbe0b1b27	-0.13584577
163	0xbc80af54	-0.015708603
164	0x3ce9cf18	0.028541133
165	0xbc824820	-0.015903533
166	0x3dac3e74	0.084103495
167	0x3cc50540	0.024050355
168	0xbdb4b3ab	-0.088233314
169	0xbdd7f736	-0.105451986
170	0x3dde3d64	0.10851553
171	0xbd52e21a	-0.05148516
172	0x3ddbd1f9	0.107334085
173	0x3c2bba40	0.010481417
174	0xbcc4a904	-0.024006374
175	0xbe0499d9	-0.12949313
176	0x3da58033	0.08081093
177	0xbcd34b38	-0.025792703
178	0x3deea636	0.11652796
179	0x3c986e9a	0.018607426
180	0xbda323c2	-0.07965805
181	0x3d52fcd6	0.051510654
182	0x3c3fc19d	0.011703876
183	0xbd8613f8	-0.065467775
184	0x3d86a30d	0.06574068
185	0xbd942dd0	-0.072353005
186	0x3db31e25	0.08745984
187	0x3c17e652	0.009271221
188	0xbd9d038e	-0.07666694
189	0x3d578c56	0.05262407
190	0xbde9d77e	-0.11418055
191	0x3da170ba	0.07882829
192	0xbdfd2fe7	-0.12362652
193	0xbda31c93	-0.079644345
194	0xbd5121f8	-0.051057786
195	0xbd17dd18	-0.037076086
196	0x3d1f6d64	0.038922682
197	0x3dbefedc	0.09325954
198	0x3e10745a	0.14106885
199	0x3db0bd6a	0.08629878
200	0xbd6a909b	-0.057266813
201	0xbdc8a98a	-0.09797962
202	0x3c8a293e	0.016865369
203	0x3d3b0fd0	0.045669377
204	0xbda7177b	-0.081587754
205	0xbd1411a2	-0.03614963
206	0x3b500408	0.0031740684
207	0x3d2b562a	0.04183022
208	0xbc5d9296	-0.013523718
209	0xbdc0bc83	-0.09410956
210	0xbdfd5405	-0.12369541
211	0x3d8ed914	0.06974998
212	0xbdd95201	-0.10611344
213	0xbdae01f4	-0.08496466
214	0x3c37c289	0.011215814
215	0xbdfe9c8e	-0.12432204
216	0x3dfbbed7	0.12292259
217	0xbc3b46f0	-0.011430487
218	0xbd9aaf99	-0.07553024
219	0x3dc6928b	0.096959196
220	0xbe020cb7	-0.12700163
221	0x3d867047	0.06564384
222	0xbd274023	-0.04083265
223	0x3de148f1	0.110002406
224	0xbcc2656d	-0.023730004
225	0x3cfa8626	0.030581545
226	0x3e0d495b	0.13797514
227	0xbe088ad8	-0.13334215
228	0x3c075e29	0.008262196
229	0xbd163486	-0.036671184
230	0x3cd4d14c	0.025978707
231	0x3d91dad8	0.07121819
232	0x3d5018ed	0.05080502
233	0xbca6bcad	-0.02035364
234	0x3da62253	0.081120156
235	0xbde91a23	-0.11381938
236	0xbc101c50	-0.008795813
237	0x3e00c4e7	0.12575112
238	0xbd767def	-0.060178693
239	0x3ccb19b6	0.024792533
240	0xbdaa86d9	-0.083265014
241	0x3d375afd	0.044764508
242	0xbcdf6e7b	-0.02727436
243	0x3d7fba86	0.062433742
244	0xbc87f52c	-0.0165964
245	0xbcb828bd	-0.022480363
246	0x3da68ee7	0.08132725
247	0xbcc60c8f	-0.02417591
248	0xbdc5e886	-0.09663491
249	0x3dff471c	0.12464735
250	0x3df43a85	0.11925224
251	0xbdba9582	-0.091105476
252	0x3d28f6c8	0.041250974
253	0xbd995255	-0.07486407
254	0xbc2ef509	-0.010678538
255	0x3dccff3d	0.1000962

bias_hh_l0 f4 [320]
0	0x3d18c695	0.037298758
1	0xbcbc52ed	-0.02298876
2	0x3bcb2954	0.006199995
3	0xbc5467ee	-0.012964232
4	0x3b5695e1	0.0032743143
5	0xbdc7ca5e	-0.09755395
6	0x3d28bc8b	0.041195434
7	0x3cb3df0c	0.021956943
8	0xbcb103de	-0.02160829
9	0xbd2fa381	-0.04288054
10	0xbcda9ec3	-0.026687032
11	0xbd04cbbc	-0.03242086
12	0xbd00fd40	-0.031491518
13	0x3db4fecf	0.088376634
14	0xbde6dbcb	-0.11272391
15	0xbd75d11f	-0.060013887
16	0xbcad38c8	-0.02114524
17	0xbcbc7a25	-0.023007462
18	0x3da9b757	0.082869224
19	0xbdba9003	-0.09109499
20	0x3df118d2	0.11772312
21	0x3d8ff438	0.07029003
22	0xbd9da115	-0.076967396
23	0x3d3ab232	0.045580097
24	0xbd419e68	-0.04727021
25	0x3c88bce1	0.016691627
26	0xbd6baac3	-0.057535898
27	0x3d6782c5	0.056521196
28	0xbd0f3106	-0.03495886
29	0x3d725156	0.0591596
30	0xbcaa318f	-0.020775585
31	0x3cfaf1ac	0.030632816
32	0x3de2cb72	0.1107396
33	0xbb7f70dc	-0.0038977182
34	0xbb2427aa	-0.0025048056
35	0x3de76002	0.11297609
36	0x3db0d3a8	0.0863412
37	0xbc5f41d6	-0.013626536
38	0xbd88801b	-0.06665059
39	0x3dd893d5	0.10575072
40	0xbd10c4a8	-0.035343796
41	0x3c9c5cb2	0.01908717
42	0x3cd075aa	0.025446732
43	0xbd4a63c8	-0.049411565
44	0xbd5eb615	-0.054372866
45	0xbda3bd8c	-0.079951376
46	0xbd9c3fd7	-0.07629364
47	0xbdeef959	-0.11668653
48	0x3cc1f80c	0.023677848
49	0xbd426688	-0.047461063
50	0x3e15e748	0.14639008
51	0xbd187168	-0.037217528
52	0xbc0c98d6	-0.008581361
53	0x3d0f8f4d	0.03504877
54	0x3d863a8a	0.06554134
55	0xbd238261	-0.03991926
56	0x3da004c4	0.07813409
57	0xbd2903ce	-0.041263394
58	0x3dccf0b5	0.10006849
59	0xbd9b0d3e	-0.07570885
60	0x3d0ad3b1	0.03389329
61	0xbcfe8369	-0.03106852
62	0x3d64f2a6	0.05589547
63	0x3d86f81c	0.06590292
64	0xbc6a4ac7	-0.014300055
65	0x3ce92b85	0.028463135
66	0xbd8f6555	-0.070017494
67	0x3d455940	0.04818082
68	0x3dcf2b63	0.10115697
69	0xbdcd51ef	-0.10025393
70	0x3cbb9ad0	0.022900969
71	0x3de1da17	0.110279255
72	0xbdb8b38b	-0.0901862
73	0x3df3c6fa	0.11903186
74	0x3de2f962	0.11082722
75	0xbd98da6d	-0.074635364
76	0x3d9b9270	0.0759629
77	0xbcd3d9a9	-0.025860624
78	0x3de7759e	0.113017306
79	0x3da20b55	0.07912318
80	0xbd14d460	-0.03633535
81	0xbe029f8a	-0.12756172
82	0xbdda9065	-0.10672072
83	0xbd045ecc	-0.032316968
84	0xbd640ca3	-0.055676114
85	0xbcb2b3e8	-0.021814302
86	0x3d3bc4ef	0.045842107
87	0x3abf8c30	0.0014613923
88	0xbcfa0af9	-0.03052281
89	0x3c3211f1	0.010868535
90	0xbdace6c1	-0.0844245
91	0xbe18d4c3	-0.14924912
92	0xbcc01f7b	-0.023452511
93	0xbce72da2	-0.028220002
94	0x3c194506	0.009354835
95	0xbd4d85de	-0.050176494
96	0xbb806834	-0.003918672
97	0x3da56d70	0.08077514
98	0xbde4433e	-0.11145638
99	0x3d28da27	0.04122367
100	0xbda9db4c	-0.08293781
101	0xbe0cd317	-0.137524
102	0x3d79fded	0.061033178
103	0xbdff986b	-0.12480243
104	0x3da22d3a	0.079187825
105	0x3cf4fe13	0.029906308
106	0xbdf925fd	-0.12165449
107	0xbcb2150c	-0.021738552
108	0xbd32e0a3	-0.04367126
109	0xbdc3970e	-0.09550296
110	0xbdc36c75	-0.09542171
111	0x3dc34c2d	0.09536014
112	0xbd11e459	-0.03561816
113	0xbe04062f	-0.12892984
114	0x3c16ad68	0.009196617
115	0xbe5a4e2a	-0.2131888
116	0xbd40f7eb	-0.047111433
117	0x3da6490d	0.08119402
118	0xbe09cb19	-0.13456382
119	0xbda88ac7	-0.08229595
120	0xbda3c15f	-0.07995867
121	0xbe025b5a	-0.1273016
122	0xbdbbd98f	-0.091723554
123	0xbd5d01eb	-0.053956907
124	0xbceb7680	-0.028743029
125	0xbe01bb02	-0.12668994
126	0xbc7b76d3	-0.015348154
127	0x3c0f3c9b	0.008742477
128	0x3d2ebbdf	0.042659637
129	0xbd65c31d	-0.056094278
130	0xbc47c323	-0.01219252
131	0x3cf637d7	0.030055923
132	0xbd8f2cb9	-0.06990952
133	0xbd8eaa0e	-0.06966029
134	0xbe006bf6	-0.12541184
135	0xbdb12a6f	-0.08650672
136	0xbcce7373	-0.025201535
137	0xbe04c6ac	-0.12966412
138	0x3d08dfc9	0.033416543
139	0xbd6d767d	-0.057974327
140	0xbd2edae2	-0.04268921
141	0xbcb3da04	-0.021954544
142	0x3cde6d57	0.027151747
143	0xbce97307	-0.028497232
144	0xbc456c5c	-0.012049761
145	0xbd8ea750	-0.06965506
146	0xbe0b2884	-0.13589674
147	0xbd87a8b5	-0.06623975
148	0x3cce29d1	0.025166424
149	0xbe0d013c	-0.13770002
150	0x3cb42119	0.021988438
151	0xbd816472	-0.063179865
152	0xbe14edc1	-0.14543821
153	0xbda54d5c	-0.08071396
154	0xbc14295a	-0.009043062
155	0xbca033b8	-0.019555911
156	0x3ca8f2e3	0.02062363
157	0xbdb94bbe	-0.0904765
158	0x3d33dc9b	0.043911558
159	0x3d2569e3	0.040384185
160	0x3df32471	0.11872185
161	0x3d3a38ee	0.04546445
162	0xbc22f7d4	-0.009946782
163	0xbd5b4870	-0.05353588
164	0xbc25c622	-0.010118039
165	0xbd977eb3	-0.07397213
166	0xbdde4bbd	-0.1085429
167	0x3d14e499	0.03635082
168	0xbd586a46	-0.052835725
169	0xbdc708e5	-0.09718493
170	0xbcf46c9b	-0.029836943
171	0x3d2227d8	0.03958878
172	0xbd01084c	-0.031502053
173	0xbdc20700	-0.094739914
174	0x3d8a2fb1	0.06747378
175	0x3d005f4e	0.03134089
176	0x3dba53f7	0.09098046
177	0xbcf30a9c	-0.029668145
178	0x3bccfc82	0.006255687
179	0x3d3e5559	0.046468113
180	0x3df75957	0.12077587
181	0xbcc9a091	-0.024612697
182	0xbdb8fc95	-0.09032551
183	0x3bf40f26	0.007448095
184	0x3d27372d	0.040824104
185	0xbbfdf5ae	-0.0077502346
186	0x3d711bb3	0.058864307
187	0x3c979157	0.01850192
188	0xbca69b22	-0.020337645
189	0x3d7940bc	0.06085275
190	0xbdc0be28	-0.094112694
191	0x3df9687e	0.121781334
192	0xbd064254	-0.0327781
193	0x3d2fb8b3	0.042900752
194	0xbd29e537	-0.041478362
195	0xbdfb1276	-0.122593805
196	0x3c61742b	0.013760607
197	0xbb8c2fc9	-0.0042781574
198	0x3e01ee01	0.12688448
199	0x3da32d0b	0.07967576
200	0x3da66fd3	0.081267975
201	0xbafb964e	-0.0019194575
202	0x3d0963eb	0.033542555
203	0xbdef4a5c	-0.11684105
204	0xbddf7bab	-0.1091226
205	0xbd685ab9	-0.056727145
206	0xbc0893b5	-0.008335997
207	0xbda866b3	-0.08222713
208	0x3ca2ba7d	0.019864315
209	0x3db7e6a3	0.08979537
210	0xbd02fa49	-0.03197697
211	0xbd154e80	-0.036451817
212	0xbd1ddb0c	-0.038538978
213	0x3dadff5e	0.08495973
214	0xbd25f558	-0.04051718
215	0xbc875e2c	-0.016524397
216	0x3d21fffc	0.039550766
217	0x3d969021	0.07351709
218	0x3cae1226	0.021248888
219	0x3c3c2b17	0.011484883
220	0xbc726699	-0.014794969
221	0x3e02ced7	0.12774216
222	0x3d85bee1	0.06530548
223	0x3c32b891	0.010908262
224	0xbd9dbd3c	-0.07702109
225	0x3db5d1ea	0.088779286
226	0x3dcc693c	0.09981009
227	0xbdb9f488	-0.09079844
228	0x3da5b2ed	0.08090768
229	0x3db7934c	0.089636415
230	0x3c52b800	0.012861252
231	0x3cbaf86d	0.022823537
232	0x3d0199e6	0.03164091
233	0xbd9facf2	-0.077966586
234	0xbde82c21	-0.11336542
235	0x3d74c51e	0.059758298
236	0xbe06a2ed	-0.13148089
237	0xbc50e749	-0.012750455
238	0xbd9ed805	-0.07756046
239	0xbdae1fd4	-0.085021645
240	0x3d9d0409	0.07666785
241	0x3cad76cf	0.021174816
242	0x3c712c86	0.014720088
243	0x3d57bd67	0.052670863
244	0x3cfb2a36	0.030659776
245	0xbe02bd37	-0.12767492
246	0xbd05756f	-0.032582697
247	0x3d0c880e	0.03430944
248	0xbcb49300	-0.022042751
249	0x3d365cc3	0.04452206
250	0x3ddb7716	0.10716073
251	0xbddb48fd	-0.10707281
252	0x39d3800e	0.00040340464
253	0xbd9cf0d0	-0.07663119
254	0xbd786a11	-0.060648028
255	0x3b9610d4	0.004579643

weight f4 [1, 80]
0	0xbd332bb5	-0.043742854
1	0xbd4f9d6a	-0.05068723
2	0xbc1b5f41	-0.0094831595
3	0xbd2addf6	-0.041715585
4	0xbde9deca	-0.11419447
5	0x3dc9a086	0.098450705
6	0x3e0a6920	0.13516665
7	0x3da17c79	0.078850694
8	0xbdb4442e	-0.08802067
9	0x3d82c368	0.06384927
10	0xbdc0183c	-0.09379622
11	0x3d850902	0.06495859
12	0xbd25cf7a	-0.04048107
13	0xbcbe833f	-0.023255942
14	0x3d96914f	0.07351934
15	0xbc8cea2b	-0.017201504
16	0xbdf66de2	-0.12032677
17	0x3dd3e74a	0.10346849
18	0xbd1b1162	-0.037858374
19	0x3d9acc2c	0.07558474
20	0xbde1112e	-0.10989605
21	0x3bb8e69e	0.005642726
22	0xbd26d76c	-0.040732786
23	0xbcbffc21	-0.023435654
24	0xbd3112e8	-0.04323092
25	0x3c1225e8	0.00892017
26	0xbdd30f0f	-0.103056066
27	0xbccec17e	-0.025238749
28	0x3dde9825	0.10868863
29	0x3dcaa539	0.09894795
30	0x3dc7fb1e	0.09764694
31	0xbdec97d5	-0.11552397
32	0x3dad0269	0.08447725
33	0xbdc9904b	-0.09841975
34	0x3cf413ca	0.029794592
35	0xbd3c02e0	-0.04590118
36	0x3db81e4d	0.089901544
37	0xbdcacd6a	-0.09902461
38	0xbde11558	-0.10990399
39	0xbdd40ee3	-0.10354402
40	0xbc62d152	-0.013843851
41	0x3dff1c0b	0.12456521
42	0x3d795c55	0.06087907
43	0xbc195d14	-0.00936057
44	0x3e10ad94	0.14128715
45	0xbdbfe03b	-0.093689404
46	0x3d7ea0b5	0.06216498
47	0xbd4f2cd1	-0.05057985
48	0xbcaf5732	-0.021403883
49	0xbd5335cd	-0.05156498
50	0x3e028e31	0.12749554
51	0x3dcbcf23	0.099516176
52	0x3db17875	0.086655535
53	0xbc99c25e	-0.01876944
54	0x3d4cad37	0.049969878
55	0x3da71eeb	0.08160194
56	0xbd401e32	-0.046903796
57	0xbddd85ec	-0.10816559
58	0xbdcc6764	-0.09980658
59	0xbdd91e3c	-0.1060147
60	0x3d97d3c7	0.0741344
61	0x3c7f662d	0.015588325
62	0x3d5af6b6	0.053457938
63	0x3d71b94d	0.059014607
64	0x3d8c8263	0.06860807
65	0xbbd131bd	-0.006384103
66	0xbdf0eedd	-0.117643096
67	0x3dac1be9	0.08403761
68	0x3dbaa7e7	0.09114056
69	0xbd3eff11	-0.04662997
70	0xbcf4c6fa	-0.029880036
71	0xbbb83dd8	-0.0056226067
72	0x3ce59f4f	0.028030066
73	0xbdc173e8	-0.094459355
74	0x3dbf7306	0.09348111
75	0x3d1ee35e	0.038791053
76	0xbe02c0c2	-0.12768844
77	0xbdc17038	-0.09445232
78	0x3d1f37bf	0.038871523
79	0x3dbfeb6f	0.09371077
