model/4924.962537928588_weight.pth (torch, 90511 bytes, 7 tensors)

weight f4 [16, 32, 1]
00000000: 8458 64be e843 6abe d987 7cbc 433c 31be
00000010: 5469 fdbd 6271 2f3d d768 31be a4a8 8bbc
00000020: f0f0 2fbe 44ac 0abc 3e47 5e3d 9f95 63bc
00000030: 75ac 6eb9 a62f f9bc ff5c 42bc 5b12 3fbe
00000040: 7c9e 24be e631 16be 0518 e23c 895e 753d
00000050: 7911 fcbd 8584 3abe f152 7a3d 186a f23d
00000060: 22e7 54bd 3d8d 113e 7fd6 cfbd c8ff e33d
00000070: abf2 28be e1f1 e2bc 6989 993d 86d5 e03d
00000080: 546f 803e 475b 2d3e 7240 463e 389f 25be
00000090: d2b0 353e 580d 28be 9ce4 8dbd 511d 94bd
000000a0: c6de cebd c8ba a73d dc98 aabd 56ee fe3d
000000b0: ff32 04be 092a dfbd 0163 dcbd 648b d53d
000000c0: 70d0 b5bd e018 f8bd b44e 85bd 6713 f63d
000000d0: 25d0 203e a5df 9cbd 7d8a 9e3d 573c 003e
000000e0: fa20 a9bd 5a66 27bd ca8b f1bc 1fc5 c6bd
000000f0: a6b1 813d 10a4 2239 ffb2 993d eabc 763c
00000100: f0b3 10be c28d 8ebe e3c1 183d 7ca9 8c3c
00000110: 57ba c0bd 42a4 953d 45f1 003e 7961 4e3c
00000120: 8b58 95bd 8446 21be 345d 12bd 76a1 e73d
00000130: 28a1 e13b 627f 093e 4e9b 57be 6035 043d
00000140: ab67 0fbe 761a 0c3d 1c5e 89bd 2710 b8bc
00000150: 80d3 84bd 1b46 30be 7cad ccbd 36ed 39bd
00000160: 3dd7 013e d2d0 de3d e01c d83c c3df 45be
00000170: 422b 60bd 22f8 58bd 514a 64be 7e3e ad3b
00000180: e1a4 443e ec29 703e 51c8 023e bcdb b1bd
00000190: fa85 523d bc76 63bd d358 3fbd 3cad ab3d
000001a0: 5019 52be 2226 d83d 11ed c33d b19e acbc
000001b0: 5b6d 0dbe 7559 0abc d54b 4ebe d0ea 9bbd
000001c0: 2aa2 bf3d 808e be3d 21dd c4bd ae43 f4bd
000001d0: f13c aabe d19d e6bb 39e2 1b3d f20a 2fbc
000001e0: 3906 f33d 1deb fb3d 2f6a 8d3d 400a 173e
000001f0: 6535 133e ce59 3bbe 5f7f 27be 2006 cbbd
00000200: bc87 1d3d f19a 4e3c 5186 67be 319a f4bd
00000210: 5306 c63b 1f17 2e3e 1ada 31be ee98 2dbe
00000220: a147 e53d d1a3 003e 3431 11be ee6b 08be
00000230: 92c6 1fbe 8f0b d43b e443 2f3d 5f1d f7bc
00000240: 97b1 f5bd ca67 0bbe 4a21 133b b292 9dbd
00000250: 312a 1bbe 21b3 463d df64 57bd b97f 17be
00000260: d2ba 95bd fc80 983d 40c4 ce3d 4f52 0a3e
00000270: 193b d5bb 9572 f73d 4aa5 5b3d 7124 af3d
00000280: df11 603e 81bf 633d ef13 943e 0ab6 30bd
00000290: 7081 12bd 9fbe bd3d 0484 2cbe 205b 2abe
000002a0: 7eca f0bd 3c9d 17bd b8e1 243e acb8 983d
000002b0: f4b5 cabd 49c9 13be 2bbf 3e3e 951f 93bd
000002c0: fbfa 04be 5c3e 0abd 1a96 e83b c280 b0bd
000002d0: 9f83 5a3e 3442 1ebe 6552 ff3d 795b 3cbd
000002e0: f60d f4bd 274d ff3d c2a7 dfbd 67ff d4bd
000002f0: 83d5 5a3d 96a6 853d 38db 8cbd 0900 723d
00000300: 055c 673d 4161 80be deeb 47be 678a bcbd
00000310: 23cc 0fbe ef61 1fbe 899b 16be 8f83 e13d
00000320: 3a25 f4bb 3fa8 ca3d 4981 ebbd 0ba4 c93c
00000330: 8dc8 12be 74f8 853d 06d4 b73d 9485 c7bd
00000340: 8551 febd a551 28be c74d e1bd cf0b 1bbe
00000350: dbe7 1e3e 19cd 1f3e 05c5 37be a3e1 143e
00000360: cba9 06be fb76 1b3e 843e 303e df33 ac3d
00000370: ef80 48be a8dd f73d 9540 283d 8cf2 b53d
00000380: ed2d 193e b85b 103d 6a4b dfbd aa1c 81bd
00000390: 5606 9bbc e0ae c6bd ec0a b23c b799 a4bd
000003a0: 9a04 96bc cc1a a4bd a1bb 243e 9700 5b3c
000003b0: 2ed1 ce3d 0c0a 8fbd 80e6 0c3e 94ec e93c
000003c0: 1515 80bd bb3a ec3d 634d 88bb 21b2 263d
000003d0: 8f91 6dbe c233 26be 0ceb 9c3d 3004 01be
000003e0: a4ea c4bd ed31 d93b 2042 a9bd 4b4f 8bbc
000003f0: e8d4 62bd 7ac1 953d 575d cc3d 0647 a43d
-0.22299391 -0.22877467 -0.015413248 -0.17308144 -0.12373605 0.04283274 -0.1732515 -0.017048188
-0.17181754 -0.008463923 0.05426716 -0.013890653 -0.00022761694 -0.030418228 -0.011862992 -0.18659346
-0.16076082 -0.14667472 0.027599344 0.05990461 -0.1230802 -0.18214615 0.061114255 0.11836642
-0.051978238 0.14214034 -0.10148334 0.11132771 -0.1649882 -0.027703227 0.07496912 0.10978226
0.25084937 0.16929351 0.19360521 -0.16174018 0.17743233 -0.1641134 -0.069283694 -0.07232154
-0.101010844 0.081899226 -0.08329937 0.12447803 -0.12910078 -0.108966894 -0.10761071 0.10426977
-0.08877647 -0.121141195 -0.06509152 0.120154195 0.15704401 -0.07659844 0.07741258 0.12523018
-0.08258243 -0.040869094 -0.029485602 -0.097055666 0.06332712 0.00015510642 0.07504844 0.015059689
-0.1413114 -0.27842528 0.03729428 0.01717066 -0.094105415 0.0730672 0.12592037 0.0125964815
-0.07292279 -0.15749556 -0.035733417 0.11310093 0.0068856664 0.13427499 -0.21055338 0.032277465
-0.1400439 0.034204923 -0.06707403 -0.02246864 -0.06485653 -0.17214243 -0.09994027 -0.045392238
0.12679763 0.10879673 0.026380956 -0.1932364 -0.054728754 -0.052971013 -0.22293974 0.0052869907
0.19203521 0.23453492 0.12771727 -0.08684489 0.0513973 -0.055533156 -0.04671557 0.08382651
-0.20517468 0.10554148 0.09566701 -0.021071764 -0.13811247 -0.00844418 -0.20146115 -0.07613146
0.09357102 0.093045235 -0.096124895 -0.119269714 -0.3324962 -0.007037856 0.03805754 -0.010683762
0.11866421 0.12300704 0.069050185 0.14750004 0.14375837 -0.18295977 -0.16357182 -0.099132776
0.038459525 0.012610183 -0.22609831 -0.11943472 0.0060432344 0.17001007 -0.17368355 -0.1695287
0.11195303 0.12562491 -0.14178926 -0.13322422 -0.15603092 0.0064711045 0.042789355 -0.030165372
-0.11996763 -0.13613811 0.0022450262 -0.076939955 -0.15152813 0.048510674 -0.052586433 -0.14794816
-0.07311024 0.07446477 0.100960255 0.1350796 -0.006507289 0.12082402 0.05362443 0.085518725
0.21881817 0.055602554 0.28921458 -0.043142356 -0.035767972 0.09264874 -0.16847235 -0.16636324
-0.11757372 -0.037015185 0.1610173 0.07457098 -0.09897986 -0.14432253 0.18627612 -0.07183758
-0.12986366 -0.033750877 0.0070979716 -0.086183086 0.21339272 -0.15454942 0.124668874 -0.045985673
-0.11916725 0.124658875 -0.10920669 -0.10400277 0.053426277 0.06525914 -0.0687775 0.059082065
0.05648424 -0.250742 -0.1952357 -0.09206086 -0.14042716 -0.15564702 -0.1470777 0.11011421
-0.007450727 0.09895372 -0.114992686 0.024614355 -0.14334317 0.06541529 0.08975987 -0.09742275
-0.12417892 -0.16437395 -0.11001163 -0.15141223 0.15518133 0.15605582 -0.1794625 0.14539199
-0.13150708 0.15182106 0.17211348 0.08408331 -0.19580434 0.121028244 0.041077215 0.08884153
0.14958926 0.03524372 -0.10903056 -0.06304295 -0.01892392 -0.097013235 0.021733724 -0.08037131
-0.018312741 -0.080129236 0.160872 0.01336684 0.100984916 -0.06984338 0.13759804 0.028555192
-0.06254021 0.115346394 -0.004159616 0.04069722 -0.23200057 -0.16230682 0.07662019 -0.12599254
-0.09615067 0.006628266 -0.082645655 -0.017005583 -0.055378824 0.07312293 0.09978741 0.08021359

bias f4 [16]
00000000: d42b 1ebd 8aaf a6bd e41e 0e3d b330 733d
00000010: 02b3 d63c 8df1 8bbd 9079 00be 8b8a 7b3d
00000020: 5843 3abc bfd8 373d 5ee3 003e 5faf cebb
00000030: 0ea1 1c3e 0e40 603d 27bd d2bb c821 373e
-0.038616017 -0.0813895 0.03469743 0.059372615 0.026208404 -0.068331815 -0.12546372 0.06141142
-0.011368595 0.04488444 0.12586734 -0.006307527 0.15295812 0.054748587 -0.00643124 0.1788398

weight_ih_l0 f4 [256, 16]
00000000: f7d4 c2bc 73bd 2ebe ba82 1e3e ce2d 67be
00000010: 94dc b33d 9b27 afbd fac9 133d 5dc1 833d
00000020: 74f1 073e 9010 3bbd 662d 853d 95da 5d3d
00000030: 9dd7 e2bc 8660 953c 6aeb 81bd d849 4f3c
00000040: e0cf 733e 178a 34bd 825e aa3d 0069 0f3e
00000050: 346f 593d fcf1 333e 0371 ca3d ab7b 9a3e
00000060: b899 f63b 3112 18bc 12f1 b7bc a34f 13bd
00000070: 68df 1bbd 8a56 81bd 5b93 6c3d 1f99 483e
00000080: d7f1 353b 3c6d e2bd 2a4d 3c3d 2eab a7bd
00000090: e13d e03d 9a05 c1bd 5699 f73d 2e10 a83d
000000a0: c8a7 353e a519 0ebe aac8 9dbc b275 d8bd
000000b0: 4fff 4cbd 8121 89bd cbe4 0abd c903 0a3c
000000c0: 1b25 87bd d0ca cbbd 97dd 0d3d 5379 06be
000000d0: 2b88 ef3d 83d1 30be 0611 403d d8bb 6a3c
000000e0: 81b7 083e a15a 86bc 5ce2 023c ffb9 d8bd
000000f0: 73de 9e3d 7877 ce3d 28ea b4bd d5fe 853d
00000100: 5854 ffbd 2883 17bd 64f0 8dbd 485d 45bd
00000110: 56ac 43bc b11c 3f3e 61ab 463a 6e8e 223c
00000120: 2953 a53c 6200 92bd da79 c7bd 18d2 67bd
00000130: e82c f9bd 8def d9bd 4c1b f63d 288f dfbc
00000140: 31ee 043d ed39 94bc 779e 2cbd 44ac d8bd
00000150: 6fff 18be da9f bb3d 5521 8c3c 5938 12be
00000160: 29a8 b8bd dec5 5ebd 1819 e4bc a1b6 863c
00000170: 2922 10be 52d2 8bbd 1936 363c 55b9 ccbd
00000180: 3859 27bd 4057 16bd 1b14 6fbc e794 12bd
00000190: 7775 953d e8aa 68be 8ab1 65bd 1ff0 a6bd
000001a0: 84da e93c 7a3f 483d 336c 3c3d 851b 03bd
000001b0: 9a7b 9e3d 647f 293d fa2a 7abd 045d 24bb
000001c0: 6e98 9a3c 8f1f f8bd 12bb 38bd 7f42 36bd
000001d0: 08f6 a5bd 1fd5 0ebe 666e 1c3e 3eda 92bd
000001e0: 641e 693c 26ef 0abd 1846 223d ccc2 003d
000001f0: 174a d5bd 07ab 83bb 4874 1abd bedf 103d
00000200: 6e88 adbc 3b62 a0be 56d1 883e 0b31 c83e
00000210: a3ea e83d c604 193c 2512 383e 9834 cf3d
00000220: 3259 2a3d 920c 03be 9d3d dfbd c244 d83c
00000230: 3256 dc3d 9375 de3c 5466 613e f31c b13c
00000240: 3fde 86bd 30ce f1bc a434 4cbd cde3 a5bd
00000250: 2f39 98bd d59d 6dbe 4af9 273e 109f 9bb8
00000260: 1117 76bd b206 963d f117 79bd 43b4 75bd
00000270: e388 90bc 446a 81bd 2d17 ce3d fe6f 933d
00000280: b2f5 103e dbd7 b0bd b5a9 5ebd b5eb 43be
00000290: 670b 653c 2cc5 77be d45d eb3d 3c02 a7bd
000002a0: 8cd8 323d 5789 efbc c33f 1d3d ac29 f2ba
000002b0: 6f9b 4c3c 5a92 26bd e67d 183d f215 49bd
000002c0: 0a45 0b3e 6dd7 2abe 1001 0e3d 0a75 38be
000002d0: da5b 81bd 876c 07be 723b ed3d fe83 89bd
000002e0: 4ac4 ef3d c867 433c df2c 753d 07ae 1abe
000002f0: 8262 c93b c25d 71bd 2a79 cabd c317 0c3e
00000300: 27e6 a2bd 3d56 11be 091f 35bc 1eed aabd
00000310: caef a03d 344f 23bd 97a4 9cbd 500c 13bd
00000320: c815 b3bc cf9b 803d 3c89 d53c 0de6 243c
00000330: 34db 923d d12a aa3b 2b35 d3bb 81bf 94bc
00000340: 44f7 4a3d b367 edbd 0ef4 36bd 5305 efbd
00000350: 7bc1 13bc 4564 18be 1010 003e 2bcd 9bbd
00000360: 5a23 80bd 97d2 893a dff0 d7bd 554f 02be
00000370: e262 c7bd e96b 4ebd 3f51 30bd 7dc9 45bd
00000380: d82c 87bd cbff 99bd ac39 143e 121a 87bd
00000390: d77f bd3c db55 3e3d c951 333e 5dbd e43c
000003a0: d1f7 f9bd a3fa 9bbd bce6 003d dc2b 1fbe
000003b0: f696 fcbc aa15 ce3d 4313 ac3d d9d6 9abc
000003c0: cbf3 c03c ab66 213d 3299 0fbd bd15 18be
000003d0: 3c75 94bd 7043 72bc 3c4b 88bd dc71 e93d
000003e0: 5763 c0bc 0013 a3bd 1f78 a83c dbe7 af3d
000003f0: 2a69 8c3d aa89 853c f1fe aabd 13ce 363c
-0.02378319 -0.17064457 0.15479556 -0.22576067 0.08782306 -0.08552476 0.03608129 0.064333655
0.13275701 -0.045670092 0.065028 0.054163534 -0.027690703 0.018234503 -0.0634373 0.012651883
0.23809767 -0.044077005 0.08318807 0.14004898 0.053084567 0.17572778 0.098848365 0.30172476
0.007525649 -0.009281681 -0.022453818 -0.03596462 -0.038054854 -0.06315334 0.057757717 0.19589661
0.0027762556 -0.11055991 0.045972027 -0.08186947 0.109493025 -0.094248965 0.120897934 0.08206211
0.17739785 -0.1387697 -0.019260723 -0.105693236 -0.05004817 -0.066958435 -0.0339096 0.008423754
-0.06598874 -0.09950793 0.034635153 -0.13132219 0.11695894 -0.17267422 0.046891235 0.014327012
0.13351251 -0.016400637 0.007988539 -0.10582351 0.077572726 0.100813806 -0.08833724 0.06542746
-0.12467259 -0.036990315 -0.069306165 -0.048184663 -0.011942944 0.18663289 0.0007578638 0.009921653
0.020181255 -0.07128979 -0.09740038 -0.056596845 -0.12166768 -0.10641394 0.12016925 -0.027289942
0.03245372 -0.018094027 -0.04214331 -0.10579732 -0.1494119 0.09161349 0.017105738 -0.14279307
-0.09016449 -0.05438792 -0.027843997 0.016444506 -0.14075531 -0.06827225 0.011121296 -0.09996287
-0.04085657 -0.0367043 -0.014592196 -0.035786536 0.07297795 -0.22721446 -0.056077518 -0.08151268
0.02854658 0.04888866 0.046001624 -0.032008667 0.07738419 0.041381255 -0.061076142 -0.0025079856
0.018871512 -0.12115394 -0.04510028 -0.04449701 -0.08103567 -0.13948487 0.15276489 -0.07170533
0.014228437 -0.033919476 0.039617628 0.031435773 -0.10414522 -0.004018191 -0.03770855 0.035369627
-0.021183219 -0.31324944 0.2672221 0.39099917 0.113728784 0.009339517 0.17975672 0.10117453
0.04158897 -0.12797764 -0.10900424 0.026399974 0.10758628 0.027155673 0.22011691 0.02162025
-0.06585359 -0.029517263 -0.04985489 -0.0810009 -0.07432782 -0.2320474 0.1640369 -7.420604e-05
-0.06008059 0.07325496 -0.060813848 -0.059986364 -0.017643398 -0.06319097 0.10063014 0.07199095
0.14156225 -0.08634921 -0.054361064 -0.19132884 0.013979769 -0.24196309 0.11492506 -0.08154723
0.043663546 -0.029240293 0.038390886 -0.0018475554 0.01248823 -0.040666915 0.03722944 -0.049093194
0.13600555 -0.16683741 0.034668982 -0.18013397 -0.063163474 -0.13224994 0.11583604 -0.06714629
0.11707361 0.011926599 0.059857246 -0.15105449 0.0061457762 -0.058927305 -0.098863915 0.1368094
-0.07954054 -0.14193054 -0.011054763 -0.08346008 0.07858236 -0.039870456 -0.076485805 -0.035900414
-0.021860972 0.06279718 0.026066415 0.010064614 0.07170716 0.0051930924 -0.006445547 -0.018157722
0.049552217 -0.11592045 -0.044666342 -0.116709374 -0.009018297 -0.14882 0.12506127 -0.07607492
-0.06256743 0.0010515031 -0.105439894 -0.12725575 -0.09735657 -0.05039588 -0.043046232 -0.048287857
-0.0660035 -0.07519492 0.14475125 -0.065967694 0.023132248 0.046468597 0.17511667 0.027922327
-0.1220547 -0.076161645 0.031470045 -0.15544075 -0.030833703 0.10062726 0.084021114 -0.018901275
0.02355375 0.039404552 -0.035058208 -0.14852042 -0.07248923 -0.014786586 -0.06654975 0.1139867
-0.023484869 -0.07962608 0.02056509 0.08589145 0.06855996 0.016300995 -0.083494075 0.01115753

weight_hh_l0 f4 [256, 64]
00000000: 0f4b 47bd 5878 493d 2ca6 92bd 843c 913d
00000010: 830f 653d 0488 d8bd 321f 3a3c 3899 d9bc
00000020: f74a 8cbc a064 ccbd 07b6 03bd 7e15 67bc
00000030: 23e1 97bb 976c 9ebd d570 193d 7741 9dbd
00000040: 020c 503d 1194 133d 9ce6 73bd 0411 dc3d
00000050: 6757 a0bd 193b 86bd d814 c73d 66dc 5b3d
00000060: 0e2d 1c3d e875 7a3d 4447 a2bd 798d 88bd
00000070: 00f0 633d f00e acbd 4b5e 18bd 6f53 5e3c
00000080: 7676 44bd 4044 81bd be5b 0fbe f570 d8bd
00000090: 3f85 14bc df30 f9bd 8005 95bd f61b 483b
000000a0: a7c8 54bd bea5 f43c 7fac 06bd b0bb 0d3d
000000b0: ada4 7dbd 5dc7 703d b374 6c3d 7f6f 073d
000000c0: 9d1d a73d 1880 b33d 1bbe 8f3c bf50 8fbc
000000d0: e275 aebc 9405 aebd 4fd9 1c3d ea49 c73c
000000e0: 86df 3fbd f041 93bd 3008 abbb cab4 ef3d
000000f0: c389 c83d abae 81bd efd7 62bc 936f ab3d
00000100: cde8 de3c cbaf adbd ff3d 88bd e75a e4bb
00000110: 2fda 113d c701 75bd 0590 0c3d a1f5 0a3e
00000120: 0fa3 2ebd 039a 053e 021f fcbd bc3a 87bd
00000130: 3dd1 403d d91d b7bd 8bc4 b33b e7a6 f2bd
00000140: cf68 91bd a9ca c3bd 6337 c13c 3f0a 863d
00000150: a4bc 193b 820d a43d 78aa f83c 45c9 c7bd
00000160: 18da 813d cd41 90bd 7283 a73d 95f0 1fbe
00000170: 8b40 0abe 3c44 cabc 45f6 8dbd 73e3 12be
00000180: 876a 9b3d ec43 f13d dfb1 c33d 0e8f ba3d
00000190: e50e dabb 43cb 843d 51c8 813d 9317 cc3d
000001a0: d822 2d3d 6c70 5c3d e535 48bd c6c5 213e
000001b0: 844d d93d 7ebb 333d 4752 9d3d 7e4e 033e
000001c0: edb0 b03c 5561 edbd 66d6 ff3c 2746 0cbd
000001d0: a821 12be 5516 e3bd b601 b13c dd98 0bbd
000001e0: 497d 203d 5d03 9b3d 5501 babd b492 5bbd
000001f0: e1ea a93d a642 63bd 955d aebc 47b0 dd3d
00000200: 5960 d1bd 8f68 55bc ddb3 23bd 848a 6a3d
00000210: b1bc e13c 7dd5 93bd 9060 60bb 0d74 003d
00000220: f233 70bc 3a19 153c 3600 c13d c4f9 5b3d
00000230: b635 bb3b 8349 863d 6230 d03c 5c56 f83d
00000240: 3436 783c d502 c7bd 5518 793d 8531 a73d
00000250: cb88 863c 408c 69bd ffe3 9c3d ac14 083d
00000260: 3ca0 31bd fba0 1c3d a125 e93c ca6d 02bd
00000270: 4d5c ad3d ea9f acbd 236e 6cbb e46c 9a3d
00000280: 283e 87bd b1b7 0abb b646 9c3d 8cec 303d
00000290: 2de9 e03d 035e 02bd 57a6 4dbc 22e9 6ebd
000002a0: d7f1 9b3d 932c 943d e5a1 bb3d fd4a aebd
000002b0: bbf2 74bb 600c 793d 5f15 adbd cf49 80bd
000002c0: e12a cf3d a344 d5bc a522 7c3d 9674 8abd
000002d0: 22ef b3bd a5c1 1dbd 9045 d9bd 776f 2bbd
000002e0: 0f79 b53d 9134 bb3d 8e09 86bd 23d6 b93d
000002f0: 15fc 9dbc 03e5 bd3d 2104 353d 31b6 833d
00000300: f0cd 013c 94b1 edbc 8d46 ed3d be5f a43d
00000310: a6cd 1d3d 7c4c cf3d 1161 94bc ed8d c53d
00000320: 145a 98bb 7e91 543d 56a5 d0bd 2230 88bd
00000330: cfee f5bd dcc8 bdbd ff92 fcbd 5a35 14be
00000340: edb4 d33d b10b 623d a479 3abd 536a b3bc
00000350: 354e 75bd fc5b b63d 879f 2b3d 8b33 de3d
00000360: 0716 9e3d ef58 173d 37d1 ef3c f194 ed3d
00000370: ef29 adbd 279a acbd 0a28 383d a2b4 033e
00000380: 5aa9 36bd 7c20 d43c f90f 10bd 2805 60bc
00000390: 7660 4c3d d13c cf3d 2f3c f3bd 7bf9 c03d
000003a0: 517e d3bd d87e d3bd 3a24 91bd c874 1fbd
000003b0: 9dc2 83bd 6efc c0bc b424 a33d 807e f2bd
000003c0: f01b 263d c181 b3bd 48f4 b63d 2f7f 59bd
000003d0: dc70 5abd 024e 6f3d f105 dc3c fa9f eabd
000003e0: 5cca d23c f0e5 6cbd f8ce 4a3d f790 a63d
000003f0: 7596 82bd b517 69bd f9f5 e0bd 500a 2abc
-0.048655566 0.049187034 -0.07160601 0.070916206 0.055922996 -0.10572818 0.011359977 -0.026562318
-0.01712559 -0.0998013 -0.032156017 -0.014104245 -0.0046349927 -0.077355556 0.03746112 -0.07678502
0.0507927 0.03602988 -0.059546098 0.10745433 -0.07829171 -0.06554241 0.097207725 0.053676985
0.038128905 0.0611476 -0.07923749 -0.06667609 0.055648804 -0.084012866 -0.0371993 0.013569697
-0.047964536 -0.06311846 -0.1399984 -0.1056842 -0.0090649715 -0.121675245 -0.0727644 0.0030534244
-0.05194917 0.029864188 -0.03287935 0.03460282 -0.061924625 0.058783878 0.05772848 0.033065315
0.08159945 0.08764666 0.017546704 -0.017494557 -0.021296445 -0.08497158 0.03829318 0.024327237
-0.046844028 -0.07190311 -0.005219482 0.11704405 0.09791901 -0.063321434 -0.013845428 0.083708905
0.027210617 -0.084807955 -0.0665245 -0.006968844 0.035608467 -0.059816148 0.034317035 0.13570262
-0.042635974 0.13047032 -0.12310602 -0.066029996 0.047074545 -0.0894124 0.005486076 -0.1184824
-0.07100069 -0.09560139 0.02358598 0.06544923 0.0023458386 0.08010389 0.030354723 -0.09755186
0.06340426 -0.070438005 0.08179368 -0.15619119 -0.13501184 -0.02469074 -0.06931738 -0.14344577
0.07588678 0.11780533 0.095554106 0.09109317 -0.0066546076 0.064840816 0.063370354 0.09965434
0.042269558 0.05381815 -0.048879523 0.15798101 0.10610488 0.04387998 0.07681709 0.12822911
0.02156874 -0.1159083 0.031230163 -0.03424659 -0.14270651 -0.11088244 0.021607261 -0.03408133
0.03918198 0.07569001 -0.09082285 -0.053606704 0.08296753 -0.055483483 -0.021284858 0.10824638
-0.10223455 -0.013025417 -0.039966453 0.057261005 0.027555795 -0.07218454 -0.0034237243 0.031360675
-0.014660822 0.009100253 0.09423868 0.053704992 0.00571319 0.0655699 0.025413696 0.12125847
0.015149642 -0.09717337 0.06081422 0.08163742 0.01642265 -0.05701852 0.07660674 0.03322284
-0.043365702 0.03823946 0.028460326 -0.031842984 0.084648706 -0.08428939 -0.0036076389 0.075403005
-0.06603652 -0.0021166618 0.076306745 0.04319434 0.10981975 -0.031827938 -0.012551866 -0.0583278
0.07614487 0.07235064 0.09161738 -0.08510397 -0.0037376124 0.060802817 -0.08451342 -0.06264078
0.101156004 -0.026033705 0.061556477 -0.06760518 -0.08785845 -0.038514752 -0.10608971 -0.041854348
0.08860981 0.091408856 -0.06544791 0.090740465 -0.019285241 0.09272196 0.04419339 0.06431235
0.0079226345 -0.02901534 0.11585722 0.08026074 0.0385262 0.1012201 -0.018112691 0.09646211
-0.00464941 0.051896565 -0.10187785 -0.066498056 -0.1200844 -0.092668265 -0.12332725 -0.14473477
0.10337243 0.05518693 -0.04552616 -0.021901285 -0.059889037 0.089042634 0.041900184 0.10849675
0.07719045 0.036950048 0.029274566 0.11600674 -0.08455264 -0.0842784 0.04496006 0.12861875
-0.0445951 0.025894396 -0.035171483 -0.013673104 0.04989668 0.10119022 -0.118767135 0.094225846
-0.10326827 -0.10326928 -0.07086988 -0.03892973 -0.06433604 -0.023557868 0.07965985 -0.11840534
0.040553987 -0.08764983 0.08933312 -0.053099807 -0.053330287 0.058424003 0.026858302 -0.11456294
0.025731258 -0.057836473 0.049513787 0.081331186 -0.06376354 -0.056907374 -0.109844156 -0.010378435

bias_ih_l0 f4 [256]
00000000: f115 da3d 862e 323e 57b7 6dbd 7b77 213d
00000010: bb63 b93d 3b47 03be e425 783d 8d46 c03b
00000020: d986 493d 704a 0c3d 3efc d4bc 704b df3d
00000030: 9920 c4bd dd6c bb3c bebb 163e 50b2 3e3d
00000040: 8c02 e7bd 06e2 b13d 3e35 97bd 3a0d a23d
00000050: 77e2 be3d 23ae 933d 43e3 7f3b 8592 3b3d
00000060: fab6 283b 6346 ad3c 9e51 03be a6d0 fdbc
00000070: 7cf2 8cbc ffb6 11be 0d81 fc3d 96e8 dd3d
00000080: 1a67 f33c fc23 9e3d 5e6b 41bd 0bb5 73bd
00000090: 1ea5 843d deb4 de3c 94b5 4cbd 8eec 243e
000000a0: 1bed c13d c051 94bd 3309 bd3b cd82 f2bd
000000b0: 5032 08bd bcb2 ab3d b8aa 19bc 4f8e bd3c
000000c0: 4b72 a13d 992f 813d 840f 97b9 836f b93d
000000d0: 87e9 0dbb 7ba0 e7bd e63a 913d 2879 f73d
000000e0: 0892 2abd b90e f8bd 1293 c23d 33fe 13bd
000000f0: 2b96 cd3d 6ad0 2b3e 4f8b 553d 277b 053e
00000100: 7f6a acbd a010 45be cc0e 51bd 84a2 dbbd
00000110: a537 443d d10c 11be d773 663d f295 0ebe
00000120: b970 d8bd f49b 9d3d d27b 30bd 122b 03bd
00000130: 6494 183c 71ef 35bd 0042 33be 27c1 80bd
00000140: f285 893d a6b2 c03d 2848 05be 1549 e3bc
00000150: eb38 eabd 972e 6e3d ec24 87bd 2753 9d3d
00000160: fadd e7bd c520 8a3c 3069 0abe 058e 6ebd
00000170: d230 b3bd e5cd 3f3d 7d26 27be cbc2 f0bd
00000180: 75a6 bfbd 23d0 96bc df66 e63b fdf5 0a3d
00000190: bf4e 273c 27d0 43be a534 c1bd 40db 5e3c
000001a0: 71c5 09bd cdd3 1ebe de58 2fbb 1523 763d
000001b0: f172 223d 5854 17be c351 c3bd d991 033e
000001c0: 94cd 07be 86f4 d1bd 53d6 14bd 21e6 343d
000001d0: 9228 b7bd dc45 81bc c557 5e3d fe27 0dbc
000001e0: 8ccf 673d 2add 94bd b4db ea3c d808 1dbe
000001f0: 05cd ba3c a193 27be c56e 45be eae8 453d
00000200: 7206 22bd 41a4 24bd 37e2 3fbd 85e1 ae3d
00000210: 520c bc3d d546 bbbd 6b33 c8bd 4cba 59bd
00000220: ddc1 ac3d 2e3b 95bd 1317 db3b e1d6 5bbc
00000230: 96ce 3dbc 1f2b b6bd 232b 00ba fc07 043e
00000240: 8131 323c f997 f2bd a21b 4b3d f893 223d
00000250: 6f97 343d ec0f 033e 7eb8 a93d 80df 01be
00000260: 1652 0abd 47fe af3d 2446 6b3d bc28 993d
00000270: fbc7 803c cfed 553c cc4d 24bd 01e4 cfbd
00000280: d5a2 a0bd 069c aabb a354 76bd 62ed 093e
00000290: 06d6 cfbd 189d 38bd c334 7b3d e53f e5ba
000002a0: 296e ef3d 7536 6d3d dddf a43d b690 863d
000002b0: 74ed 1dbe c692 c03d d6c7 503c 6061 16bc
000002c0: f980 10bd 08ee 2abd 2f99 f63c c447 88bd
000002d0: 2f07 b7bd 3cca a33d f8ad 2e3d 5e63 d93d
000002e0: 4875 d5bc 5eae da3b d867 a3bd 8b3f 4a3b
000002f0: 1171 f4bd 76c4 823d 43e5 d8bd cd06 7d3d
00000300: 1912 da3d 280a 483d 0323 a13d 86e4 9ebd
00000310: ab55 d6bd f63b 563d ec74 bebc 7c55 42bd
00000320: 7e59 b7bc ab6e 7f3d 66f0 a13d 8c4d bfbc
00000330: 9080 16be ab48 20bd 0468 78bd 0a7d 87bd
00000340: b2a1 493d c974 293d e06b ab3d 85f2 b1bc
00000350: 2a42 593c f403 e8bc d95b 8b3d b030 08bd
00000360: b3fb dbbb 469f ee3d 5c83 14be fbbf adbd
00000370: 3914 a7bb 8a0e 21be 4b0a 85bd 98a1 573d
00000380: 6dbe 10be 313f 1e3d d0a5 e9bd dee6 86bc
00000390: 1bf0 02be 37f0 20be b0b6 1ebc 18de 743d
000003a0: 7373 b03d ff44 4b3d b6c3 1f3d 3f12 58bc
000003b0: c242 c73c 4c8a 853d b6a2 ba3d a2f1 bbbd
000003c0: ba91 1dbe 0fbd 51bd dbf4 8bbd cd11 f33d
000003d0: 6e8f b9bd d10c 92bd d487 023d 7714 863d
000003e0: 5c7e a7bd 2fd2 30be 1967 46bd 2e31 20be
000003f0: 5140 95bd 94c6 e43d 295a a33c a36f 69bd
0.10648716 0.1740056 -0.058036175 0.039420586 0.09052225 -0.12820141 0.06058301 0.0058677853
0.049200866 0.034250677 -0.025999185 0.109030604 -0.0957653 0.022879058 0.14720055 0.04655677
-0.11279783 0.08685689 -0.07383202 0.07912679 0.093205385 0.07210948 0.003904537 0.04579403
0.0025743828 0.021151727 -0.12824103 -0.03098328 -0.01720547 -0.14229964 0.12329302 0.10835378
0.029712249 0.07721707 -0.047221534 -0.059498828 0.06476806 0.027185854 -0.049977854 0.16105863
0.094690524 -0.07242155 0.005768919 -0.118413545 -0.033251107 0.083837 -0.009379081 0.023139147
0.07883128 0.06307907 -0.00028812524 0.09054472 -0.0021654086 -0.11309906 0.07091312 0.120836556
-0.041643173 -0.12112183 0.09500708 -0.036131095 0.10038408 0.16778722 0.05213481 0.1303526
-0.0841875 -0.19244623 -0.051039502 -0.10724357 0.04790463 -0.14165045 0.056262817 -0.13924387
-0.10568375 0.07695761 -0.043086834 -0.032023497 0.009312723 -0.044417802 -0.17505646 -0.06286841
0.06715001 0.094090745 -0.13015807 -0.02774481 -0.114366375 0.0581499 -0.06598839 0.07681876
-0.113216355 0.016861329 -0.13516688 -0.05824091 -0.08749546 0.046827216 -0.16323276 -0.11755904
-0.09357921 -0.018409794 0.007031306 0.033926 0.010211646 -0.19122373 -0.09433869 0.013602078
-0.03363556 -0.15510483 -0.002675585 0.06009205 0.039660398 -0.14778268 -0.09537079 0.12848605
-0.13262016 -0.10251717 -0.036337208 0.04416478 -0.08943285 -0.015780382 0.054282922 -0.008615492
0.056594416 -0.07268746 0.028669216 -0.15335405 0.022802839 -0.1636491 -0.19280536 0.048317827
-0.039556928 -0.040195707 -0.046846595 0.08539108 0.091820374 -0.091443695 -0.09775432 -0.053156182
0.08435414 -0.07286678 0.0066861003 -0.01341793 -0.011584898 -0.088949434 -0.00048892404 0.12893671
0.01087606 -0.11845393 0.0495869 0.039691895 0.04408973 0.12799042 0.08287142 -0.12682915
-0.03376969 0.085934214 0.05743994 0.074784726 0.015720358 0.013057186 -0.040113255 -0.1015091
-0.07843558 -0.0052065877 -0.06013931 0.1346946 -0.101482436 -0.04507169 0.061329614 -0.0017490356
0.11690933 0.057913262 0.08050511 0.0657057 -0.15422612 0.09402995 0.012742957 -0.009178489
-0.035279248 -0.04173091 0.03010234 -0.06654313 -0.08936917 0.079975575 0.04264638 0.10614656
-0.0260569 0.006673618 -0.07978791 0.0030860628 -0.11935628 0.06385128 -0.10590603 0.061774064
0.10647983 0.04883781 0.07868006 -0.07758431 -0.104655586 0.052303277 -0.023249112 -0.047444806
-0.02238154 0.0623614 0.079071805 -0.023352407 -0.1469748 -0.0391318 -0.060646072 -0.06615646
0.04922647 0.04137114 0.08370185 -0.021722088 0.013260404 -0.028322197 0.06804628 -0.033249557
-0.0067133545 0.11651473 -0.14503235 -0.08483883 -0.0050988463 -0.15728202 -0.06496104 0.052644342
-0.14135142 0.038634483 -0.11408579 -0.016467508 -0.12786905 -0.15716635 -0.009687111 0.059782118
0.0861577 0.049626347 0.039005004 -0.013187944 0.024323825 0.06520519 0.09113066 -0.09176947
-0.15387622 -0.05120569 -0.06833812 0.118686296 -0.0906056 -0.07131351 0.031867817 0.06546872
-0.08178398 -0.17267679 -0.048438165 -0.1564376 -0.07287658 0.11170688 0.019940453 -0.05699123

bias_hh_l0 f4 [256]
00000000: 5819 073e ca07 0d3e 954e 493d 3563 67bd
00000010: 1b16 723d fbea 593d 8f2f d63d 3ea8 28bc
00000020: 39cf c8bb c27f ebbc 2987 c93c 7f59 55bd
00000030: 3dfa b2bc bcb8 f93d 1e62 bf3c 7e8d ffbb
00000040: 91ad 1dbd 56e0 bc3d fa89 f93d aec1 22bd
00000050: b437 803c 6bc1 2abd 7bf6 063e 3307 893d
00000060: e0a2 ac3b ec2e 84bd 8a7e 453d afce db3d
00000070: 4ffe 193d bf53 8f3c da74 083d 6563 0e3e
00000080: 2fe6 08bd f8f3 c03c ee0a a4bc ea67 a03d
00000090: e1ca 843d 5e04 84bd 816e bd3b cf8e 403d
000000a0: aa58 f43c 588a 83bd 7c32 8ebd 6a65 be3d
000000b0: 449e d73d c52c 173d ecf9 b1bd 7a5e 2b3e
000000c0: 87c7 9ebd ee04 313e 62d8 313d 51c1 5bbb
000000d0: dc16 87bd c2d5 da3d 7938 b63d 146a 923d
000000e0: 86b3 113d f678 0abd 6c95 72bd e51b e63d
000000f0: e5f4 77bd f24e 783d b543 5a3e 45ac c3bd
00000100: a6d4 2d3c 5a45 eabd 636e bf3d 35b3 65bd
00000110: 13f1 67bd 3c4b a2bd 2c3b 873d 8c9e 5e3c
00000120: fd8f 5e3d f1dd f5bd ccf6 b7bd 3de3 6ebd
00000130: 0517 efbd 79c6 b7bd e386 683d a815 f4bc
00000140: 88db f9bd 83c9 6e3d 3655 46bd 43a8 53bc
00000150: d4bb 33bd 231a 233d a7a2 6e3d c129 e9bd
00000160: a935 debd 8458 e8bc 0623 a43d a78d 78bd
00000170: 7ad2 2f3d 68bf 29bc ebeb 5f3d b955 0abe
00000180: 2ff9 8fbc 5b9a 643d b5e8 c0bd 70a5 09be
00000190: 6b73 c1bb 2d7f a83c c5e8 e0bc 9056 d0ba
000001a0: df4a a23d ff11 27be 512e fcba a743 83bc
000001b0: 7358 073d 7f97 5c3d f6cf f4bd 4941 b93c
000001c0: fb01 24be 0aba 513d 9174 dabd 8b83 f6bb
000001d0: 15f5 87bd 6f7f 4ebd 027c bdbd 5061 ac3c
000001e0: 0e8a dabd 8a4a d4bd 76b2 14be ae73 31be
000001f0: c359 1ebd 8229 dfbd 6b79 f7bc 7871 83bd
00000200: e854 eb39 a653 713d 84f1 74bc ff9e 16bd
00000210: 6cee f33c 5d75 c03d 4a9f a73c 11cd 0f3e
00000220: 2d21 e33d ff88 2d3d 46e6 cdbd 16b8 c6bd
00000230: 08fc 5abd 8d13 8dbd 87d5 883d ef0b e23d
00000240: 8bda 3cbd 1265 8ebd 7625 87bd 51ed 923d
00000250: 0ba6 243d e6e2 efbd 8f92 acbd 6265 c5bd
00000260: ff5a 54bd 138e 373d 9665 07bd 1a28 b9bd
00000270: aeb4 bf3c 0195 08bd 40ef f43d e202 4cbd
00000280: 847a 663d b673 abbd ddab 4d3d bdba b3bd
00000290: 8bd1 843d eb91 bdbc 6ff1 0dbe b0ca 013d
000002a0: 8f94 d83d 130e 853d b414 043e 8856 833c
000002b0: c642 15be e184 2ebd 5774 46bd 9ef0 843d
000002c0: f778 963d 58f5 15bd 2fda 873d d23a ecbd
000002d0: a92e 953d 7df1 213d 2925 093e 49ae 81bd
000002e0: fc07 afbd adda b63d 1750 913c 4c98 b83d
000002f0: 051f 26bd aeae af3d 4934 b33d 4c0e fc3d
00000300: c845 813d 1494 803d d503 933d a0c2 a93d
00000310: 2d55 debc 37c7 45be 91b5 363d ef31 edbc
00000320: 07e8 043e 8059 c1bd 72d6 bd3d 87c8 a3bd
00000330: d5ba 6ebd 691f a23d 78b2 803c 012e ae3c
00000340: 6e46 09be 0f45 453d 9fba da3d 7f48 d9bd
00000350: 5753 133c f617 b63d ed6b ee3d 124c b03d
00000360: 89ba c63d c564 e7bd e68b 1bbe 0177 b83d
00000370: c4db cc3c 9596 e9bd 9bb1 4a3d 4d45 143e
00000380: aede 2f3d efee a7bd 3369 95bd a730 27bd
00000390: 4ac9 d3bc a1e1 2abe e693 303d 7a5c 96bd
000003a0: 628e e03b eec0 fc3c c92c 75bd 5480 95bd
000003b0: b0df 683d 5abc 923b f279 9e3d e5c6 7ebd
000003c0: c157 7c3d a1b3 42bd 2d23 5dbd d21c da3d
000003d0: a50b 2ebd 5d73 f4bd f827 ed3d f461 23bc
000003e0: 1b54 523d eecf 123d 2816 27bd dfb5 e4b9
000003f0: 706a 16be b6d6 083e 1fa8 81bd 87ca fd3d
0.13193262 0.13772503 0.049147207 -0.056491096 0.059103113 0.05320261 0.1045829 -0.010294018
-0.0061282185 -0.028747443 0.024600582 -0.052087303 -0.021847839 0.121934384 0.023362216 -0.0077988496
-0.038495604 0.09222476 0.1218452 -0.03973549 0.015651561 -0.041688364 0.13179962 0.06690826
0.0052684397 -0.06454262 0.04821638 0.10732781 0.037596043 0.017495988 0.033314563 0.13905104
-0.033422645 0.023553833 -0.020024743 0.0783232 0.064840086 -0.064461455 0.0057809954 0.047011193
0.029827435 -0.06422871 -0.06943223 0.09296687 0.10528234 0.03690793 -0.08690247 0.16735259
-0.077529006 0.17287037 0.04341925 -0.0033531974 -0.06596157 0.10685302 0.0889749 0.07149139
0.035571598 -0.033806764 -0.05922453 0.11235789 -0.060536284 0.060622163 0.2131489 -0.09554342
0.010609781 -0.11439009 0.093472265 -0.05607911 -0.05662639 -0.07924506 0.06603083 0.013587605
0.054336537 -0.120052226 -0.0898262 -0.05832218 -0.116743125 -0.089734025 0.056769263 -0.029795483
-0.122000754 0.058297645 -0.048421107 -0.012918535 -0.0438803 0.039819848 0.058260586 -0.11384917
-0.108500786 -0.02836252 0.08014493 -0.060681965 0.042925335 -0.010360576 0.05466835 -0.13509263
-0.017574875 0.055811267 -0.09419385 -0.13442016 -0.0059036515 0.020568455 -0.027454743 -0.0015894938
0.07924437 -0.16315459 -0.0019239878 -0.01602347 0.033043336 0.053855415 -0.11953728 0.022614138
-0.1601638 0.05120281 -0.106667645 -0.0075230054 -0.066385426 -0.0504145 -0.09252168 0.021042496
-0.10670863 -0.1036578 -0.14521202 -0.17329285 -0.038659822 -0.10896589 -0.030209264 -0.06418127
0.00044885953 0.058917664 -0.01495016 -0.036772724 0.029776774 0.09397385 0.020461697 0.1404307
0.11090312 0.042366978 -0.10053687 -0.0970308 -0.053463012 -0.06888495 0.06681352 0.110374324
-0.046106856 -0.069528714 -0.06598942 0.07174171 0.040197413 -0.11713199 -0.08426391 -0.09638478
-0.051844593 0.044813227 -0.033055864 -0.09040852 0.023401584 -0.033345226 0.11959696 -0.049807437
0.056269184 -0.083716795 0.05021273 -0.08775852 0.0648528 -0.023140868 -0.13861631 0.03168744
0.1057521 0.06496825 0.12898523 0.016032472 -0.14576253 -0.042607192 -0.048450794 0.064912066
0.07347291 -0.03661093 0.06633412 -0.115346566 0.0728429 0.03953694 0.13393082 -0.063320704
-0.08546445 0.08928428 0.017738385 0.09013423 -0.040556926 0.085782394 0.08750207 0.123074144
0.06312138 0.06278244 0.07178465 0.08289075 -0.027140224 -0.19314276 0.04460675 -0.028954474
0.12979136 -0.09440899 0.09269418 -0.07997232 -0.058283646 0.07916147 0.0157101 0.02126217
-0.13405773 0.048161563 0.106801264 -0.10609531 0.008992038 0.08891289 0.11641679 0.08608259
0.097035475 -0.11298517 -0.15190086 0.09007073 0.025007136 -0.11405674 0.049485784 0.14479561
0.042936973 -0.0819987 -0.07295456 -0.040817883 -0.025852818 -0.16687633 0.043109797 -0.07341857
0.006852911 0.030853715 -0.059857164 -0.07299867 0.05685395 0.0044780197 0.07738103 -0.0622014
0.061607126 -0.04753459 -0.053988624 0.10650028 -0.042491574 -0.11936066 0.11579889 -0.009972084
0.05134974 0.03584283 -0.040792614 -0.00043623053 -0.1468904 0.13363156 -0.06330895 0.12392145

weight f4 [1, 64]
00000000: 4b04 f8bd 443c e43d 5e90 ef3d cb9a 893d
00000010: 64d9 153d ac06 20bb dbd9 b93d cad2 64bd
00000020: 8ebf 993d cbc4 85bd b3d9 d03d 6874 0cbd
00000030: 64e8 f03a 536a ad3d df1e 6a3d 505a 9a3c
00000040: 6895 bd3d 2bc5 0b3e 7e47 6f3d cb8a dd3d
00000050: 5918 d83d 3986 44bd 638a 74bd 020d f33d
00000060: c5aa 88bd 796a 9c3d b192 91bc fa01 f73d
00000070: af32 ac3d eb60 81bc 8e7d a2bd 77de 033e
00000080: 67b7 8fbd e222 abbd 9db8 0fbd b6f8 79bd
00000090: 8564 843d 6d00 93bc 7613 cdbc 737c 22bd
000000a0: 9490 c6bd 8644 e5bc 8b89 41bd db3b 32bd
000000b0: 80d3 ae3d 7a18 c53d c583 cabd da6e e9bd
000000c0: c295 b6bc d90f 0ebe f99c c03d 385b a93d
000000d0: 11b8 a43d 9297 b53d ad65 31bd 4d7d c6bd
000000e0: f9a8 babd 2fe5 5b3c 50d2 573d 8b85 3d3c
000000f0: 223a d4bc 3df3 b9bc 00eb bebd 19e5 a6bd
-0.12110194 0.11144307 0.11697458 0.067189775 0.036584273 -0.002441804 0.09074756 -0.055865087
0.07507239 -0.06531676 0.10197773 -0.0342907 0.0018379805 0.08467545 0.057158347 0.018841892
0.092570126 0.13649432 0.05841779 0.10817488 0.10551519 -0.047979567 -0.05970229 0.118677154
-0.06673197 0.076374955 -0.017770143 0.12060924 0.08408105 -0.015793284 -0.07934104 0.12877832
-0.07017403 -0.08356263 -0.03508817 -0.061028205 0.06464485 -0.017944539 -0.025033694 -0.039669465
-0.09695545 -0.027986776 -0.04725031 -0.043514114 0.08536434 0.09623809 -0.09888414 -0.113980964
-0.022288207 -0.13873233 0.0940494 0.08269352 0.080429204 0.088668 -0.043309856 -0.09691868
-0.0911426 0.013421341 0.052690804 0.011567484 -0.025906626 -0.022698993 -0.093221664 -0.08149166
