model/5400.769204474488_weight.pth (torch, 90447 bytes, 7 tensors)

weight f4 [16, 32, 1]
-0.0023276021 -0.15954517 -0.01215254 -0.11608461 -0.056618117 0.10889892 -0.15354721 -0.014082151
-0.08783588 -0.10388816 -0.16221671 0.0754212 0.13642724 0.040015895 0.106343955 0.07415947
0.017649138 0.07997005 0.058771886 -0.21312423 -0.21389025 -0.09802838 -0.10883457 -0.0547876
0.032013614 0.09889594 -0.120744914 -0.110146634 0.13376102 0.042556413 -0.19114482 -0.12935793
-0.029546399 -0.22865152 -0.22988443 0.0829313 -0.16109745 -0.14786878 -0.1350946 -0.0041481564
-0.057330534 0.011396807 -0.14933585 0.112591796 0.08343474 -0.040338665 -0.08373334 0.04263842
0.21232256 -0.18210365 0.024145199 -0.052348066 0.043164186 0.011866892 -0.17661065 -0.08194744
-0.027384853 -0.12839392 0.1630137 0.093732126 0.13027065 0.14340614 -0.18359002 0.111903995
0.17792657 0.2711728 0.2202587 -0.16919811 0.017695062 0.10455611 0.16817896 -0.13020414
0.154579 -0.14403455 -0.15016012 0.018269762 0.03686073 0.15352353 0.008459649 -0.06740309
0.12492446 -0.047205 0.04760044 0.09326334 0.10642445 -0.11846591 -0.12896492 -0.043311507
0.115689896 0.087715074 0.014821106 -0.07527556 -0.031417087 -0.009714231 0.12745064 0.113950655
-0.026904887 -0.26015323 -0.16845606 0.17677075 -0.051169638 0.111733094 -0.09087028 0.0026456749
0.129067 -0.13566983 0.13590883 -0.12731855 0.15075913 -0.11118812 -0.103831716 -0.010489272
0.010077265 -0.0030855206 -0.07605609 -0.08799517 -0.00093946076 0.013646494 -0.1293311 -0.03631741
-0.021632614 0.12549083 0.17821875 -0.02050909 -0.15727594 0.1620213 -0.037147067 0.1526103
0.24892984 0.17087814 0.0699025 -0.020241348 0.115682475 0.10273839 0.12243019 -0.16220143
0.002978468 -0.09489875 -0.17321587 -0.075868785 -0.10159625 -0.1323313 0.11710858 0.04374986
-0.099924244 0.04704195 0.021063615 0.107624695 0.23906396 0.040783476 -0.15708259 0.05306671
0.08946683 0.01831104 -0.050669774 0.061381277 0.012497222 0.014509778 -0.10353238 0.016548812
-0.12586556 -0.1108437 -0.29459742 0.023234094 -0.16394545 -0.09684834 0.0064761955 -0.10796287
-0.021765314 -0.19267128 0.0095366165 -0.1673393 -0.094189696 -0.19248673 0.09356327 -0.16371514
0.041286096 -0.17654626 -0.12137238 0.06051921 -0.04068984 -0.10056268 0.07932134 -0.06784489
-0.13273683 -0.13761668 0.13510455 0.12827547 0.053410962 0.13386671 -0.12516956 0.03211935
0.037825573 0.052385345 0.11802552 -0.06536386 -0.015019717 -0.07451796 0.02785293 0.09862456
-0.04247912 0.034921553 -0.010495123 0.016298665 -0.02071212 -0.09502785 -0.037570123 0.19620463
-0.029343339 -0.25006312 -0.3277643 -0.071560845 -0.040891685 0.0053957985 0.1463455 -0.3348393
-0.109745644 -0.014503699 -0.3068986 -0.19827482 0.05255506 0.1198333 -0.15336624 -0.15349913
-0.043583293 -0.09033008 -0.19091007 0.17193699 0.03786438 0.11066562 -0.047714695 -0.017376808
0.011008687 -0.16563706 -0.11891984 0.099479236 -0.17938924 -0.1211473 0.13392866 -0.18039049
0.047729805 -0.05449105 0.1939026 -0.10877369 -0.1920984 -0.08641329 0.030497728 -0.10122817
-0.14262517 -0.10018493 0.08974669 0.06714943 -0.002972305 -0.10346578 0.08027457 0.14307162
00000000: af8a 18bb cf5f 23be 721b 47bc c5bd edbd
00000010: 66e8 67bd 6606 df3d 7b3b 1dbe d3b8 66bc
00000020: 4ce3 b3bd 51c3 d4bd 231c 26be 6e76 9a3d
00000030: 95b3 0b3e b5e7 233d dcca d93d ece0 973d
00000040: ed94 903c 56c7 a33d caba 703d 3d3d 5abe
00000050: 0c06 5bbe 1ac3 c8bd a9e4 debd f668 60bd
00000060: b520 033d f489 ca3d 1c49 f7bd 8f94 e1bd
00000070: a6f8 083e a24f 2e3d 78bb 43be 6876 04be
00000080: 4a0b f2bc a023 6abe d366 6bbe e3d7 a93d
00000090: bbf6 24be ea6a 17be 3d56 0abe 42ed 87bb
000000a0: 6cd3 6abd acb9 3a3c 7feb 18be 8796 e63d
000000b0: d5df aa3d 283a 25bd 637c abbd a0a5 2e3d
000000c0: 166b 593e 6179 3abe 27cc c53c ed6a 56bd
000000d0: eecc 303d 5a6d 423c 6cd9 34be 0fd4 a7bd
000000e0: 3356 e0bc b279 03be 10ed 263e a1f6 bf3d
000000f0: ab65 053e 0fd9 123e 06ff 3bbe ec2d e53d
00000100: 6232 363e 29d7 8a3e 7f8b 613e 4542 2dbe
00000110: 3cf5 903c 8421 d63d 1b37 2c3e 3c54 05be
00000120: f549 1e3e cb7d 13be 93c3 19be 78aa 953c
00000130: 47fb 163d 4635 1d3e 579a 0a3c a20a 8abd
00000140: 65d8 ff3d 085a 41bd aef8 423d da00 bf3d
00000150: 10f5 d93d 419e f2bd 610f 04be 6867 31bd
00000160: d3ee ec3d f6a3 b33d 39d4 723c 132a 9abd
00000170: 34af 00bd 7028 1fbc 6c82 023e f65e e93d
00000180: a367 dcbc ce32 85be bf7f 2cbe 6403 353e
00000190: 4197 51bd 52d4 e43d 331a babd 0f63 2d3b
000001a0: 242a 043e 08ed 0abe af2b 0b3e cb5f 02be
000001b0: 9a60 1a3e 99b6 e3bd b9a5 d4bd 32db 2bbc
000001c0: 1d1b 253c 7236 4abb 4cc3 9bbd d036 b4bd
000001d0: 2546 76ba 8b95 5f3c 5f6f 04be 91c1 14bd
000001e0: e136 b1bc ab80 003e fa7e 363e ae02 a8bc
000001f0: f20c 21be e9e8 253e 8627 18bd e045 1c3e
00000200: 77e7 7e3e aefa 2e3e 0b29 8f3d 2fd1 a5bc
00000210: efea ec3d 8168 d23d aebc fa3d 2218 26be
00000220: 6732 433b 475a c2bd 805f 31be 1861 9bbd
00000230: b211 d0bd db81 07be a0d6 ef3d 0e33 333d
00000240: 15a5 ccbd 0faf 403d 9a8d ac3c 566a dc3d
00000250: 2fcd 743e 930c 273d 42da 20be 7a5c 593d
00000260: 633a b73d 0901 963c 1c8b 4fbd ef6a 7b3d
00000270: 26c1 4c3c 6bba 6d3c c908 d4bd 6091 873c
00000280: e7e2 00be 0602 e3bd 79d5 96be 6d55 be3c
00000290: 51e1 27be 6c58 c6bd 4436 d43b a31b ddbd
000002a0: 2c4d b2bc 9f4b 45be 783f 1c3c fe5a 2bbe
000002b0: 87e6 c0bd 3e1b 45be 1a9e bf3d f1a4 27be
000002c0: 9c1b 293d 8bc8 34be 1592 f8bd fee2 773d
000002d0: 64aa 26bd cef3 cdbd 3a73 a23d 43f2 8abd
000002e0: 2aec 07be 63eb 0cbe d958 0a3e a55a 033e
000002f0: 74c5 5a3d 5b14 093e 732c 00be 948f 033d
00000300: fdee 1a3d 0492 563d 5db7 f13d 7ddd 85bd
00000310: 4215 76bc df9c 98bd d42b e43c acfb c93d
00000320: 96fe 2dbd e709 0f3d bdf3 2bbc c784 853c
00000330: 77ac a9bc f69d c2bd 21e3 19bd dee9 483e
00000340: 7161 f0bc 4608 80be b9d0 a7be 7e8e 92bd
00000350: 0a7e 27bd 3dcf b03b 98db 153e 0f70 abbe
00000360: 53c2 e0bd eca0 6dbc d021 9dbe 8e08 4bbe
00000370: f943 573d 296b f53d 0a0c 1dbe e02e 1dbe
00000380: 6584 32bd fafe b8bd ee7d 43be 4010 303e
00000390: ae17 1b3d a8a4 e23d 7c70 43bd cf59 8ebc
000003a0: c85d 343c c39c 29be 3f8c f3bd c5bb cb3d
000003b0: d0b1 37be 131c f8bd 9824 093e 49b8 38be
000003c0: 5480 433d 0232 5fbd 678e 463e bec4 debd
000003d0: 71b5 44be 73f9 b0bd 5fd6 f93c b750 cfbd
000003e0: 550c 12be c22d cdbd 1dcd b73d a485 893d
000003f0: 01cb 42bb dee5 d3bd fe66 a43d 5e81 123e

bias f4 [16]
0.10193166 0.052989934 0.116800636 -0.09331274 0.14794156 -0.02028684 0.058326628 0.12527116
-0.158234 -0.086481504 0.09875017 0.07826431 0.12563452 0.108439066 0.00016184084 -0.056275364
00000000: 8cc1 d03d f90b 593d 2c35 ef3d c01a bfbd
00000010: fe7d 173e 9630 a6bc e7e7 6e3d 1547 003e
00000020: 1808 22be 371d b1bd 873d ca3d 0a49 a03d
00000030: 56a6 003e 4d15 de3d d2b3 2939 ff80 66bd

weight_ih_l0 f4 [256, 16]
0.016444745 -0.080168895 -0.007613592 0.04687379 0.005222931 -0.15041208 -0.1302271 0.032038644
-0.05667453 -0.0764691 -0.009678757 0.08351069 0.04332741 -0.05795866 -0.082967855 -0.06624194
-0.14135437 -0.04308885 -0.111169405 -0.02183834 0.1301497 0.012547999 0.02240799 0.044645555
-0.08357303 0.061260037 0.061816048 0.01721636 -0.22010088 0.17092595 -0.011232335 0.09843094
-0.04270137 -0.05211936 -0.122155644 -0.25250527 0.19118294 0.12821585 0.23046431 -0.123707406
0.05519115 -0.0037747566 0.03450234 -0.10758372 -0.10940922 -0.07314781 0.1917007 0.09869993
0.004884701 -0.11331835 0.11389523 -0.22860682 0.17396678 0.03219922 -0.11012359 0.018122504
-0.1237974 -0.038243163 -0.11788199 0.03444335 -0.25215092 0.16256541 -0.0021305655 -0.11400609
0.04025165 -0.11863163 -0.047064736 -0.122381285 -0.08755458 -0.009266783 0.053025424 -0.10852738
0.06635162 0.08017766 0.03312392 -0.0034884417 -0.06822481 -0.09044238 -0.0057728887 -0.033322655
0.031331215 0.17021479 -0.109132454 0.13802862 0.056603413 0.086840935 0.14969204 0.03153325
0.13406055 0.14984977 0.006180917 -0.1268582 -0.13532448 0.22546063 0.2119575 -0.025315562
-0.17416166 -0.03882007 -0.039346118 -0.07817598 0.08383321 -0.12873885 -0.28994846 -0.100255154
-0.094824046 -0.018904315 -0.088325456 -0.06538223 -0.15054601 0.12999521 0.13325535 -0.009561219
0.007982386 -0.024634097 -0.061947297 -0.08198522 -0.1168953 -0.084656596 -0.0040557818 -0.03218537
-0.027375614 -0.04298456 0.10958294 -0.004674878 -0.13825433 -0.028949892 -0.074788004 -0.016935164
-0.046358768 -0.069232486 -0.16765034 -0.04229883 0.037783246 0.03985836 0.11069514 -0.098862596
0.046514273 0.06726955 -0.05848541 -0.07841717 -0.23385291 -0.035616186 0.17814352 0.0026780737
0.00015114946 -0.023313703 -0.16379255 0.0639584 -0.08480836 0.01482836 0.092938095 -0.010369649
0.0009031835 -0.036476973 0.15768558 -0.11284956 -0.24668483 0.159125 0.12683986 0.025345717
0.064274944 -0.015176027 -0.06411882 0.16994536 -0.16086628 -0.057366125 0.37799537 0.13765629
0.15409437 0.08872717 -0.01597911 0.0516181 -0.12033338 -0.065084435 -0.014461901 0.017732384
0.16376674 0.022731615 -0.1606958 -0.027874539 -0.020913549 0.16882624 -0.063804455 0.168211
0.21450724 -0.019549917 0.17068583 -0.08088115 -0.10143551 0.258235 0.18308455 0.14994825
-0.21449602 -0.08976471 0.006024656 -0.2148758 0.05924784 -0.010668938 0.13516028 -0.19230942
-0.17471829 -0.23067 -0.031241488 0.24875306 -0.021411797 -0.030402672 -0.112863824 -0.077080354
-0.13561754 -0.03574316 0.021374442 -0.018624075 0.103674464 -0.047136713 0.06919028 0.10293032
-0.032279506 -0.15145004 -0.07527043 -0.012590131 -0.024608608 -0.09373938 -0.056735016 -0.029613443
-0.13548286 -0.014999604 -0.038249135 0.076778784 0.064935766 0.075982615 -0.084359 -0.0020154368
0.04303695 0.019974139 -0.04390027 0.060392827 -0.21509683 0.12640513 -0.078336045 -0.09156551
-0.14883299 -0.1602384 0.036303304 -0.17801398 -0.00036399352 -0.1626785 -0.111617416 -0.019233527
-0.098674424 -0.13236344 -0.061010502 -0.02509582 0.020007534 0.13440911 -0.02418886 -0.09915151
00000000: 21b7 863c 972f a4bd 707b f9bb bbfe 3f3d
00000010: 1f25 ab3b a005 1abe 415a 05be f43a 033d
00000020: 8d23 68bd d59b 9cbd a693 1ebc a707 ab3d
00000030: 1578 313d 0f66 6dbd 0deb a9bd dba9 87bd
00000040: 33bf 10be ef7d 30bd c9ac e3bd 52e6 b2bc
00000050: f745 053e 1f96 4d3c f690 b73c 42de 363d
00000060: 5628 abbd ceeb 7a3d d332 7d3d 5309 8d3c
00000070: 2062 61be 3607 2f3e d407 38bc 2996 c93d
00000080: a2e7 2ebd 1c7b 55bd bd2c fabd 5f48 81be
00000090: 76c5 433e 044b 033e d6fe 6b3e 4f5a fdbd
000000a0: 1e10 623d e861 77bb 5352 0d3d da54 dcbd
000000b0: f111 e0bd 85ce 95bd 304d 443e 3023 ca3d
000000c0: d80f a03b 7313 e8bd e741 e93d e817 6abe
000000d0: 5924 323e 54e3 033d 7a88 e1bd a575 943c
000000e0: 7e89 fdbd dda4 1cbd 1d6c f1bd 7814 0d3d
000000f0: ed19 81be 8c77 263e f5a0 0bbb 067c e9bd
00000100: eade 243d 24f5 f2bd f4c6 40bd 0aa3 fabd
00000110: d14f b3bd b4d3 17bc 3031 593d 9a43 debd
00000120: 5ce3 873d 2f34 a43d f3ac 073d 579e 64bb
00000130: 73b9 8bbd db39 b9bd 802a bdbb 567d 08bd
00000140: 2955 003d c94c 2e3e d680 dfbd 6057 0d3e
00000150: fbd8 673d a9d9 b13d df48 193e 0229 013d
00000160: 2b47 093e 3872 193e 4a89 ca3b 1ee7 01be
00000170: 8092 0abe 27df 663e 630b 593e 9562 cfbc
00000180: 6f57 32be cb01 1fbd 6529 21bd ba1a a0bd
00000190: bfb0 ab3d 1ed4 03be 2074 94be 9352 cdbd
000001a0: 1c33 c2bd 39dd 9abc fae3 b4bd 1ee7 85bd
000001b0: bc28 1abe 771d 053e 1774 083e a9a6 1cbc
000001c0: 8ec8 023c 72cd c9bc 73bc 7dbd dee7 a7bd
000001d0: ce66 efbd 7060 adbd 5de6 84bb ced4 03bd
000001e0: d342 e0bc 9410 30bd 056d e03d b82f 99bb
000001f0: 8b92 0dbe 5328 edbc 742a 99bd 9dbb 8abc
00000200: b1e2 3dbd c3c9 8dbd 88ac 2bbe 8a41 2dbd
00000210: 9bc2 1a3d 8542 233d 22b4 e23d 7978 cabd
00000220: c085 3e3d 9ec4 893d 668e 6fbd 2e99 a0bd
00000230: 2377 6fbe 47e2 11bd 416b 363e 9f82 2f3b
00000240: e07d 1e39 61fc bebc 3cb9 27be 9ffc 823d
00000250: 01b0 adbd a6f2 723c 5456 be3d 76e5 29bc
00000260: 9ec3 6c3a e168 15bd 5478 213e ac1d e7bd
00000270: f39a 7cbe aaf1 223e 4fe2 013e d2a1 cf3c
00000280: 95a2 833d dfa4 78bc ba50 83bd 2806 2e3e
00000290: 21ba 24be bef8 6abd 9c88 c13e c5f5 0c3e
000002a0: eaca 1d3e 97b6 b53d 9fe6 82bc 806d 533d
000002b0: 5971 f6bd fd4a 85bd 9cf1 6cbc 8143 913c
000002c0: 78b2 273e a737 ba3c 718d 24be 2559 e4bc
000002d0: e452 abbc c9e0 2c3e e9ab 82bd 813f 2c3e
000002e0: c9a7 5b3e 2627 a0bc 44c8 2e3e 04a5 a5bd
000002f0: 6cbd cfbd 6137 843e 847a 3b3e 098c 193e
00000300: d8a4 5bbe 8fd6 b7bd 7a6a c53b 6708 5cbe
00000310: ddad 723d c5cc 2ebc 7567 0a3e c3ec 44be
00000320: 5ae9 32be c234 6cbe 26ee ffbc 1fb9 7e3e
00000330: cb67 afbc 060f f9bc 2625 e7bd 4edc 9dbd
00000340: 53df 0abe 6b67 12bd 7419 af3c 8491 98bc
00000350: 4753 d43d 6d12 41bd a2b3 8d3d 22cd d23d
00000360: 8437 04bd b815 1bbe 6227 9abd d646 4ebc
00000370: fe97 c9bc 6ffa bfbd fa62 68bd e497 f2bc
00000380: 05bc 0abe e6c0 75bc 20ab 1cbd 323e 9d3d
00000390: 0bfd 843d c69c 9b3d 69c4 acbd 6b15 04bb
000003a0: 8347 303d cea0 a33c c5d0 33bd 785e 773d
000003b0: 5842 5cbe 5970 013e a66e a0bd b386 bbbd
000003c0: ad67 18be 8915 24be c6b2 143d 4c49 36be
000003d0: 62d6 beb9 3195 26be ac97 e4bd a18f 9dbc
000003e0: d115 cabd 488a 07be 26e6 79bd c095 cdbc
000003f0: d7e6 a33c 8ba2 093e b727 c6bc f20f cbbd

weight_hh_l0 f4 [256, 64]
0.15390226 0.034232855 0.034828886 0.12345521 0.081464395 0.02144892 -0.0424569 0.17564432
0.0710595 -0.059802655 0.060305953 0.03142368 -0.08353852 0.037795186 0.09077518 -0.08040095
0.0046836627 -0.09524667 0.056006745 -0.08853102 0.10313895 -0.14507441 0.077990904 0.04120207
-0.10912544 -0.12055507 0.124453045 -0.11621416 -0.019358618 0.036212724 0.10077033 -0.0450504
-0.016191712 0.10114416 0.08913903 -0.12972765 0.010294084 -0.019025777 -0.1043509 0.018666625
-0.07103907 -0.012562775 -0.118157625 0.08747737 -0.044829953 -0.005211055 0.012691808 -0.0041111927
-0.036981195 0.08991266 0.0018440982 -0.057842206 0.057944253 0.11729037 0.04731136 0.06036507
-0.08003548 0.028425759 0.10080045 -0.13245812 0.1553011 0.11924119 0.12828435 0.105558075
0.034170564 -0.13220376 0.023400841 -0.089573376 0.08898168 -0.01652867 0.1162496 0.014628191
0.04688723 -0.17125969 0.07492071 0.08508398 -0.06053776 0.0952132 0.0624589 0.15436205
0.0754574 0.12891722 0.1091192 -0.040127553 -0.06294966 -0.06696727 0.08574981 0.07515965
0.009340774 0.0041856826 0.14644407 0.15018453 0.0013561893 -0.06276365 -0.006958696 -0.044390254
-0.03139949 0.0537052 0.138747 -0.07012692 0.09508735 0.0475487 -0.1671544 -0.07705555
-0.024393106 -0.057382286 -0.11741391 -0.039627552 0.009088847 0.08388968 0.0652297 -0.036910553
0.028135322 0.031437997 0.029969681 -0.014500707 -0.033577852 -0.037782587 -0.08408119 0.16636652
-0.12940995 -0.055000395 -0.00016719305 0.0897518 0.014819621 -0.023255698 0.09670641 0.054830313
-0.041977108 -0.013587321 0.14431311 -0.095178895 0.011329186 0.039822374 -0.06656664 0.07950358
0.09682141 -0.027245197 -0.07797326 0.08404751 0.052224442 0.04537895 -0.04770678 0.11492391
-0.06408052 0.045439094 0.12787397 -0.10151853 0.07558837 0.0644695 -0.040025424 -0.034212276
-0.13483973 -0.055914078 0.014023559 0.03611801 0.13825515 0.11599889 -0.13021703 -0.11527646
0.044466402 -0.1467078 0.0156013025 0.035342865 -0.08307103 0.0010447106 -0.0032475733 0.09627413
0.1242697 0.10717098 0.044906557 -0.036912084 -0.0566726 -0.15574157 -0.1436224 -0.08066098
0.07271487 -0.09962746 0.057720795 -0.08511745 0.029292332 -0.110882096 0.017593557 0.09787517
0.062657245 0.11262503 -0.03222613 0.07975502 -0.034070056 -0.12552415 0.08425229 -0.06480713
0.029577814 0.078923196 -0.12214682 -0.013700045 -0.024609508 0.14122918 0.0819222 0.09722091
-0.004637195 0.047578875 -0.11204357 0.020902969 0.064714 -0.07255102 0.19429365 0.015286367
0.09264276 0.16436237 0.094662316 -0.10756625 -0.024382852 -0.1135629 -0.059473872 0.02639714
-0.10866501 0.11711981 -0.022944301 0.11397902 0.023171704 0.04792144 -0.03885747 0.049436226
-0.011604471 -0.12497619 0.035731185 0.005565107 0.05480547 0.043058217 -0.01880841 -0.1428334
-0.08893962 -0.0442758 -0.030998293 0.12503701 -0.061393216 -0.07109867 0.16844544 -0.17364253
-0.076943055 0.01963678 -0.10355846 -0.16639896 -0.03382359 0.118870646 0.0008640754 -0.06601781
0.096324615 -0.03494671 0.004039748 -0.070101544 0.1117825 -0.056819897 0.057843972 -0.03439086
00000000: 8e98 1d3e c037 0c3d bca8 0e3d 16d6 fc3d
00000010: ced6 a63d a5b5 af3c 49e7 2dbd 1bdc 333e
00000020: a587 913d a1f3 74bd 6003 773d 1eb6 003d
00000030: 3e16 abbd 20cf 1a3d 56e8 b93d 41a9 a4bd
00000040: 6979 993b b010 c3bd 5467 653d c04f b5bd
00000050: 843a d33d 638e 14be b2b9 9f3d 80c3 283d
00000060: 297d dfbd 94e5 f6bd 3de1 fe3d b101 eebd
00000070: f795 9ebc cb53 143d ad60 ce3d c586 38bd
00000080: 7ba4 84bc ab24 cf3d 868e b63d 53d7 04be
00000090: 85a8 283c f2db 9bbc edb5 d5bd c0ea 983c
000000a0: ef7c 91bd 19d4 4dbc a0fc f1bd 5627 b33d
000000b0: 9d9f 37bd 7fc1 aabb 4df1 4f3c 2fb7 86bb
000000c0: 9879 17bd 2124 b83d abb5 f13a f3eb 6cbd
000000d0: f456 6d3d ef35 f03d 8ec9 413d 5d41 773d
000000e0: a4e9 a3bd 23dd e83c 7770 ce3d 1aa3 07be
000000f0: 4007 1f3e ba34 f43d f95c 033e d52e d83d
00000100: 6ff6 0b3d 6c60 07be 1fb3 bf3c 3f72 b7bd
00000110: 073c b63d 2267 87bc 4514 ee3d 14ab 6f3c
00000120: d30c 403d b35e 2fbe 0770 993d 8240 ae3d
00000130: 71f6 77bd 23ff c23d e7d4 7f3d 1611 1e3e
00000140: 6989 9a3d e002 043e e379 df3d ca5c 24bd
00000150: c0eb 80bd 2326 89bd 999d af3d 4ded 993d
00000160: 0c0a 193c 0d28 893b 6ff5 153e f9c9 193e
00000170: 29c2 b13a 3b8a 80bd c605 e4bb 8ed2 35bd
00000180: c09c 00bd fcf9 5b3d b213 0e3e b49e 8fbd
00000190: 28bd c23d 6dc2 423d 862a 2bbe 4dcf 9dbd
000001a0: 0dd4 c7bc b009 6bbd b476 f0bd 8050 22bd
000001b0: 63e9 143c 5ace ab3d 2697 853d 852f 17bd
000001c0: 0c7c e63c 21c5 003d fa82 f53c 6094 6dbc
000001d0: ee88 09bd eac1 1abd c232 acbd fc5b 2a3e
000001e0: 0b84 04be 1848 61bd 8b50 2fb9 cbcf b73d
000001f0: ffcd 723c bc82 bebc 030e c63d c095 603d
00000200: 30f0 2bbd 5b9d 5ebc d1c6 133e 27ed c2bd
00000210: 0d9e 393c c91c 233d 1754 88bd c6d2 a23d
00000220: 4e4a c63d 5231 dfbc 72b0 9fbd 1a21 ac3d
00000230: 4ce9 553d 47df 393d 2f68 43bd 3a5d eb3d
00000240: a63c 83bd 581e 3a3d 65f1 023e f2e8 cfbd
00000250: 13ce 9a3d 9608 843d b3f1 23bd 2c22 0cbd
00000260: 6d13 0abe 2906 65bd 12c3 653c 7af0 133d
00000270: c292 0d3e d390 ed3d 9d57 05be 1116 ecbd
00000280: 6722 363d 923a 16be 9b9c 7f3c aec3 103d
00000290: 2521 aabd acee 883a 3dd5 54bb 5f2b c53d
000002a0: 1d81 fe3d 757c db3d f0ef 373d 2031 17bd
000002b0: 8721 68bd b87a 1fbe c011 13be 9531 a5bd
000002c0: 89eb 943d 7b09 ccbd a46c 6c3d 0f52 aebd
000002d0: 79f6 ef3c 2716 e3bd 5d20 903c c772 c83d
000002e0: 7152 803d f4a7 e63d 8cff 03bd 9a56 a33d
000002f0: 0b8d 0bbd 6789 00be 778c ac3d 9ab9 84bd
00000300: 2c4d f23c 7ca2 a13d 1d28 fabd 2776 60bc
00000310: e199 c9bc 629e 103e d4c6 a73d c21b c73d
00000320: 9cf3 97bb 11e2 423d 1977 e5bd b43c ab3c
00000330: c688 843d a195 94bd eaf4 463e ac73 7a3c
00000340: 7dbb bd3d 9c4e 283e 51de c13d b24b dcbd
00000350: 8cbe c7bc aa93 e8bd e09a 73bd d13e d83c
00000360: c38b debd 83dc ef3d b0f5 bbbc d56d e93d
00000370: 96d2 bd3c 4649 443d 0329 1fbd a47d 4a3d
00000380: ae20 3ebc 84f3 ffbd dd5a 123d 805b b63b
00000390: b37b 603d d05d 303d 1814 9abc eb42 12be
000003a0: fa25 b6bd 8b5a 35bd 22f0 fdbc b409 003e
000003b0: 7477 7bbd 2e9c 91bd f67c 2c3e 59cf 31be
000003c0: 5294 9dbd 50dd a03c 7516 d4bd 7d64 2abe
000003d0: 9b8a 0abd 7472 f33d 1e83 623a 5834 87bd
000003e0: d745 c53d 4824 0fbd dd5f 843b 6691 8fbd
000003f0: 39ee e43d fbbb 68bd cded 6c3d 6edd 0cbd

bias_ih_l0 f4 [256]
-0.05132454 -0.07939752 0.0086653 0.052216973 -0.00029069942 -0.03557582 0.010517398 0.012073705
-0.047150787 -0.09591618 -0.06204886 -0.05063591 -0.0904779 0.08824527 -0.07306201 -0.1298094
0.0913416 0.09629796 -0.025525667 0.03693427 -0.05790477 0.12824555 0.03873251 0.09849728
-0.14590475 0.06533484 -0.0045449915 0.041798886 0.09637978 0.08969483 -0.10281432 0.122215144
0.026880264 0.011549902 -0.105260156 0.08428821 -0.048358962 0.02255978 0.13778712 0.1829954
0.064348355 -0.12316719 -0.044100713 0.07787034 -0.06217493 -0.05751339 0.10069676 0.005968092
0.062309638 -0.027167968 -0.05236541 -0.032110814 0.07590669 0.037982065 0.12215251 -0.016827667
-0.014756247 0.08340216 0.0006243609 -0.03413845 0.03294054 -0.04774214 0.01986272 0.03665335
-0.03618216 -0.13960345 -0.004865394 -0.041718747 -0.06696479 -0.03104216 0.07147707 -0.107372865
-0.1893867 -0.15419498 -0.123179086 0.016447442 -0.15418276 -0.05474199 -0.16518061 -0.05593224
-0.14370304 0.07471778 0.006182468 -0.09700396 -0.12857784 -0.12846862 -0.059178017 -0.14167987
-0.09499284 -0.20035924 -0.133169 -0.021896837 0.08598074 -0.07340049 -0.10781029 -0.0048399144
-0.04435685 0.060484853 -0.06383671 0.06856082 0.0244601 -0.09522288 -0.06065297 0.041082267
0.013693362 -0.12519093 -0.11309841 -0.060542654 0.09002737 -0.17703804 -0.06344928 -0.075720035
0.018664049 0.074366085 -0.10433469 -0.13939804 -0.026899256 -0.10855858 -0.050751485 -0.081718266
-0.017018829 -0.12811854 -0.16417544 0.07964475 -0.043922693 -0.103331834 0.047460184 -0.059365693
0.0713201 0.041561604 -0.08139331 0.07665434 -0.0076020304 -0.025810357 0.08811584 0.129836
-0.02244055 0.078056045 -0.034452513 0.15066706 -0.10969908 0.07993597 -0.0604386 0.03012997
0.028646547 -0.16044697 0.04975146 -0.024480555 0.043685395 -0.11481868 0.1400871 -0.061394475
0.040696077 0.105855 -0.09627639 0.080621734 0.03470864 -0.04256439 0.09110807 -0.07203375
0.0032309014 0.14521241 0.016002586 -0.06142976 -0.021651315 -0.1361459 0.11882445 -0.015751401
0.0855522 0.08551227 0.07779271 0.09216745 0.063735254 0.062577024 -0.06308511 -0.0697874
0.11255606 0.00719666 0.084964864 -0.074592374 -0.080284365 -0.0045475583 0.10234304 -0.0522723
0.14375022 -0.0482214 0.014966421 0.08740976 -0.096205935 -0.08507412 -0.09794223 -0.013426601
-0.011817825 0.052552808 -0.050572608 -0.07682385 -0.07395501 0.12515928 -0.100082725 -0.07504903
-0.094958045 -0.061939616 -0.10540207 0.02818587 0.04961169 -0.13430607 0.05703745 -0.14606628
0.14189704 -0.013748444 -0.03279534 -0.10293125 -0.14856708 -0.10314376 0.06865724 -0.03698339
-0.04070495 0.007700767 -0.08887268 0.041417155 -0.008141926 -0.1529836 -0.09543399 -0.012062239
0.14336167 0.10753807 -0.18798345 -0.031528953 0.089096606 -0.0979445 0.14667197 0.010127717
0.1166055 -0.064189024 0.03449703 -0.09165139 0.115251586 -0.103675105 0.07994376 -0.12873301
-0.09130293 -0.11820223 -0.07923584 -0.143164 0.0014645933 0.035616487 -0.049228277 0.14969316
0.04858095 0.081756264 -0.037253525 -0.042106174 -0.021726893 -0.00918028 -0.07866461 -0.048009917
00000000: ae39 52bd 2b9b a2bd e7f8 0d3c 77e1 553d
00000010: 0469 98b9 f3b7 11bd 2a51 2c3c cad0 453c
00000020: 2f21 41bd b46f c4bd f226 7ebd 9a67 4fbd
00000030: 7a4c b9bd f0b9 b43d 89a1 95bd c1ec 04be
00000040: 4e11 bb3d dd37 c53d 341b d1bc 6448 173d
00000050: 8d2d 6dbd cd52 033e fba5 1e3d f1b8 c93d
00000060: 0e68 15be 46ce 853d 27ee 94bb 4f35 2b3d
00000070: c362 c53d ecb1 b73d 5090 d2bd ef4b fa3d
00000080: 0034 dc3c cd3b 3d3c a392 d7bd 4c9f ac3d
00000090: 0c14 46bd 4acf b83c 1118 0d3e 2563 3b3e
000000a0: 12c9 833d 143f fcbd f3a2 34bd 7c7a 9f3d
000000b0: 24ab 7ebd 2993 6bbd 1a3a ce3d fc8f c33b
000000c0: 6438 7f3d 5c8f debc 1d7d 56bd a186 03bd
000000d0: f774 9b3d 1593 1b3d 182b fa3d 2dda 89bc
000000e0: 30c4 71bc c0ce aa3d 27ac 233a c2d4 0bbd
000000f0: a9ec 063d 438d 43bd 25b7 a23c d321 163d
00000100: bf33 14bd 35f4 0ebe e26d 9fbb 47e1 2abd
00000110: d624 89bd 214c febc 9262 923d 4ee6 dbbd
00000120: 96ee 41be 4ae5 1dbe 5145 fcbd c9bc 863c
00000130: 16e2 1dbe 2339 60bd 1b25 29be 3419 65bd
00000140: e426 13be a305 993d 4d96 ca3b 03aa c6bd
00000150: e9a9 03be 478d 03be a664 72bd 8714 11be
00000160: 9b8b c2bd f92a 4dbe 745d 08be ff60 b3bc
00000170: ac16 b03d ff52 96bd a4cb dcbd 2598 9ebb
00000180: 87af 35bd f7be 773d d2bc 82bd 9d69 8c3d
00000190: 8c60 c83c 3704 c3bd 406f 78bd e145 283d
000001a0: 1f5a 603c 0d32 00be 24a0 e7bd 93fb 77bd
000001b0: 4560 b83d 7649 35be b2f1 81bd 1b13 9bbd
000001c0: 59e5 983c 3f4d 983d 6dad d5bd 5cbe 0ebe
000001d0: d45b dcbc f653 debd cae0 4fbd e85b a7bd
000001e0: 126b 8bbc 8231 03be 9b1d 28be c91c a33d
000001f0: 48e8 33bd a49f d3bd 9c65 423d 7129 73bd
00000200: 4610 923d 803c 2a3d 89b1 a6bd f3fc 9c3d
00000210: 741a f9bb 3e70 d3bc 1476 b43d baf3 043e
00000220: 3fd5 b7bc d9db 9f3d 141e 0dbd 7748 1a3e
00000230: e9a9 e0bd 78b5 a33d 778e 77bd 20d3 f63c
00000240: 2aac ea3c 364c 24be 30c8 4b3d 728b c8bc
00000250: 75ef 323d 0e26 ebbd fe72 0f3e c678 7bbd
00000260: eeb0 263d 82ca d83d 8e2c c5bd 021d a53d
00000270: a62a 0e3d ff57 2ebd de96 ba3d 6e86 93bd
00000280: 88bd 533b 90b2 143e db17 833c c69d 7bbd
00000290: 195e b1bc d569 0bbe 3c5a f33d 1509 81bc
000002a0: fe35 af3d 0f21 af3d c951 9f3d 4ac2 bc3d
000002b0: a187 823d 6228 803d c432 81bd b2ec 8ebd
000002c0: cb83 e63d f6d1 eb3b 0f02 ae3d e3c3 98bd
000002d0: 216c a4bd af03 95bb 3a99 d13d 7b1b 56bd
000002e0: 4233 133e cd83 45bd b835 753c e303 b33d
000002f0: 9e07 c5bd 573b aebd f095 c8bd 3ffb 5bbc
00000300: 8d9f 41bc 9d41 573d 3925 4fbd d355 9dbd
00000310: b975 97bd c129 003e 2cf8 ccbd 4eb3 99bd
00000320: 5d79 c2bd 65b4 7dbd 0add d7bd 0ee6 e63c
00000330: a135 4b3d 8887 09be 1aa0 693d 6692 15be
00000340: 754d 113e 2741 61bc 6854 06bd 9fcd d2bd
00000350: f821 18be 093d d3bd 2b9c 8c3d e57b 17bd
00000360: 3cba 26bd b756 fc3b e102 b6bd 09a5 293d
00000370: b665 05bc bca7 1cbe e572 c3bd b3a0 45bc
00000380: 67cd 123e eb3c dc3d bc7e 40be 8124 01bd
00000390: 4878 b63d 2097 c8bd 2d31 163e b9ee 253c
000003a0: ddce ee3d 8975 83bd c24c 0d3d b9b3 bbbd
000003b0: 0609 ec3d 9d53 d4bd 8eb9 a33d 96d2 03be
000003c0: 08fd babd 0314 f2bd 6646 a2bd 9599 12be
000003d0: 99f7 bf3a 98e2 113d 97a3 49bd 2a49 193e
000003e0: d1fc 463d d46f a73d 2797 18bd 8677 2cbd
000003f0: 99fc b1bc e368 16bc e91a a1bd 0ca6 44bd

bias_hh_l0 f4 [256]
-0.029519308 0.08389153 -0.09975305 0.017666338 -0.08279155 -0.012713961 -0.10234146 -0.048387695
0.07544409 0.059029453 0.10903557 0.06735294 0.011628231 0.10414661 0.04411356 -0.09042033
0.1459285 0.076370776 0.12761173 -0.038914077 -0.14175096 0.11694566 0.12912744 0.12204728
-0.050598945 0.050045 0.107007466 0.09054534 0.12905091 -0.12054726 -0.09291596 0.12120331
0.029324014 -0.062325027 0.066001326 0.088842236 -0.09417136 -0.078669906 0.10022109 0.061204124
-0.037368387 0.008337866 0.05660158 -0.08374382 0.06923939 0.08298694 0.1377565 0.039079204
-0.0006849261 0.06419145 -0.08966669 0.026535172 -0.021140622 -0.016956177 -0.049304605 0.12800536
0.024723032 0.16650239 -0.08005643 -0.064830065 -0.011200981 0.11830438 0.03176902 -0.029733224
-0.041273918 -0.027713954 -0.07894043 0.012417454 -0.015423037 -0.13006762 -0.0451967 -0.09811188
-0.06658582 0.015780697 -0.02034044 -0.052108698 -0.15135911 -0.16058911 -0.10270645 -0.14248362
-0.11056299 -0.10979775 -0.10110333 -0.17180638 -0.107992396 -0.22513866 -0.045992054 -0.14884244
-0.15902218 -0.025101889 -0.119204454 0.034335434 -0.13275011 -0.08702298 -0.0049142763 -0.048244752
-0.012499819 0.100142606 -0.18534371 0.09389206 -0.048306674 -0.030046036 -0.057378788 -0.15690057
0.097054906 -0.07252626 -0.037563413 -0.034979854 0.035966087 -0.020350236 -0.030728195 -0.008103382
-0.0555402 -0.036807653 -0.094868116 -0.025007522 -0.056300983 -0.16543409 -0.0962658 0.100302935
-0.004769301 0.05157853 -0.06661263 0.03328738 -0.018805584 -0.06835623 -0.023814283 -0.10273828
-0.017615264 0.0077021485 -0.10034765 -0.12146925 0.016509647 -0.052928746 0.020364271 0.042304967
-0.037638452 -0.030699741 0.028172009 0.122633696 -0.09975367 -0.10120521 0.08732771 -0.035775956
0.08638506 -0.11672018 0.06409775 0.10059533 -0.09677563 0.0017851676 0.10395822 -0.10602034
-0.12110811 -0.0022073132 0.0034155457 0.04369621 -0.021849716 -0.07413901 0.003012999 -0.008765519
0.055231616 0.034965847 -0.058104884 -0.010253877 -0.14111005 0.023547579 0.13514605 -0.1100281
0.13853128 -0.017434359 0.14572276 -0.057583578 0.081744045 -0.04070553 -0.08413927 0.020528026
-0.024463262 -0.068944156 -0.06687857 -0.045952737 -0.08842235 -0.0310804 -0.013113331 -0.05446761
0.13399161 -0.07660778 0.013302796 -0.06198291 -0.008035117 -0.11590377 -0.10695508 -0.04878289
-0.07403303 -0.12579364 -0.07193647 -0.10827655 -0.10273679 -0.052492972 -0.21339968 0.0040473402
-0.07551018 -0.05675763 -0.05752381 0.11284079 -0.14158767 -0.1002515 -0.031643167 -0.17409629
-0.08949466 0.12511788 0.08313085 0.09936167 0.0486894 -0.026774708 0.06719812 -0.018547364
-0.08910522 -0.13199468 -0.1413709 -0.14162956 -0.0027219295 -0.18254247 -0.1494951 0.06583092
0.020401808 0.10915576 0.017589303 0.07805442 -0.03619112 -0.014380498 0.046359472 0.16954727
-0.04180963 -0.13390589 0.14017351 0.0045605083 0.033180073 -0.089377575 -0.113034934 0.06394893
0.0023235662 0.07741193 -0.113211595 -0.059193008 -0.013797181 -0.043913513 0.027053643 0.12411518
-0.0049387803 0.04496206 -0.12869686 -0.07214131 0.13869563 -0.048879 0.0018220558 -0.15507229
00000000: 7ad2 f1bc 53cf ab3d 544b ccbd ffb8 903c
00000010: 9e8e a9bd 384e 50bc 6698 d1bd 2d32 46bd
00000020: 6e82 9a3d dec8 713d 0a4e df3d 57f0 893d
00000030: 5684 3e3c d14a d53d 6cb0 343d 4b2e b9bd
00000040: 486e 153e 4868 9c3d a6ac 023e 5e64 1fbd
00000050: 2a27 11be 3581 ef3d fc39 043e edf3 f93d
00000060: d740 4fbd fcfb 4c3d bb26 db3d d66f b93d
00000070: ec25 043e 7be1 f6bd b94a bebd 7139 f83d
00000080: ea38 f03c 8748 7fbd b42b 873d ebf2 b53d
00000090: eadc c0bd b01d a1bd b740 cd3d 2db1 7a3d
000000a0: 980f 19bd 8b9b 083c 0fd7 673d e181 abbd
000000b0: 62cd 8d3d 0ff5 a93d 0a10 0d3e 8411 203d
000000c0: 9d8c 33ba cf76 833d 2ba3 b7bd 4a60 d93c
000000d0: 192f adbc aee7 8abc a0f3 49bd d613 033e
000000e0: f587 ca3c 9a7f 2a3e a0f4 a3bd a0c5 84bd
000000f0: 5284 37bc 9149 f23d 3b20 023d 1793 f3bc
00000100: d70e 29bd 6008 e3bc 85ab a1bd 9472 4b3c
00000110: e8b0 7cbc 7230 05be 2d20 39bd e2ee c8bd
00000120: 255e 88bd 8546 813c ffa0 a6bc ee6f 55bd
00000130: e2fd 1abe 7971 24be c257 d2bd 3ae7 11be
00000140: d96e e2bd a5dd e0bd 430f cfbd 03ee 2fbe
00000150: 1e2b ddbd c08a 66be 2a62 3cbd 276a 18be
00000160: b6d6 22be 7aa2 cdbc 7721 f4bd 50a3 0c3d
00000170: a5ef 07be 1b39 b2bd f007 a1bb 4a9c 45bd
00000180: 0acc 4cbc 9117 cd3d beca 3dbe 7b4a c03d
00000190: 38dd 45bd 1b23 f6bc 0506 6bbd 8baa 20be
000001a0: b9c4 c63d a688 94bd 18dc 19bd 0947 0fbd
000001b0: 2d51 133d 8ab5 a6bc b2b9 fbbc 0cc4 04bc
000001c0: 1f7e 63bd 9fc3 16bd 374a c2bd 93dc ccbc
000001d0: dc9b 66bd 8e67 29be 0127 c5bd a06b cd3d
000001e0: cc47 9cbb 0244 533d 346c 88bd 5958 083d
000001f0: 2b0e 9abc 5afe 8bbd 2c16 c3bc 7368 d2bd
00000200: e34d 90bc 4e62 fc3b 1283 cdbd dfc4 f8bd
00000210: 3d3f 873c d0cb 58bd f9d2 a63c f947 2d3d
00000220: c72a 1abd 067e fbbc fcc8 e63c 6027 fb3d
00000230: a74b ccbd ad44 cfbd dfd8 b23d cf89 12bd
00000240: a6ea b03d fd0a efbd ae45 833d ed04 ce3d
00000250: 4d32 c6bd 49fc e93a 0ce8 d43d 3121 d9bd
00000260: 8707 f8bd 92a8 10bb 59d7 5f3b ccfa 323d
00000270: 2dfe b2bc 31d6 97bd bc75 453b 409d 0fbc
00000280: 8c3a 623d 5938 0f3d 63ff 6dbd e1ff 27bc
00000290: 277f 10be dae6 c03c ba63 0a3e 6a56 e1bd
000002a0: 25db 0d3e 80d2 8ebc 5938 153e c2dc 6bbd
000002b0: 6c69 a73d d8ba 26bd 3651 acbd 642a a83c
000002c0: 2e67 c8bc 9832 8dbd a2f7 88bd f038 3cbd
000002d0: c716 b5bd 539c febc 4cd9 56bc 6e19 5fbd
000002e0: 1935 093e 8ae4 9cbd f8f3 593c cbe1 7dbd
000002f0: b9a5 03bc f55e edbd 440b dbbd 91d0 47bd
00000300: a19e 97bd 0cd0 00be 6e53 93bd 19c0 ddbd
00000310: ab67 d2bd df02 57bd 7285 5abe 8d9f 843b
00000320: 15a5 9abd b07a 68bd 169e 6bbd 1219 e73d
00000330: 5cfc 10be a950 cdbd 449c 01bd 4c46 32be
00000340: fa48 b7bd e71e 003e 8240 aa3d 227e cb3d
00000350: 896e 473d a256 dbbc 2b9f 893d a4f0 97bc
00000360: cc7c b6bd 9d29 07be 89c3 10be 5707 11be
00000370: 6662 32bb 6aec 3abe 3e15 19be 5dd2 863d
00000380: b121 a73c 0e8d df3d 7117 903c ffda 9f3d
00000390: 243d 14bd 2e9c 6bbc 6ee3 3d3d cd9d 2d3e
000003a0: 9340 2bbd a01e 09be a589 0f3e 5170 953b
000003b0: d4e7 073d 970b b7bd dc7e e7bd a8f7 823d
000003c0: f946 183b 258a 9e3d 7bdb e7bd 5e74 72bd
000003d0: 920d 62bc a8de 33bd 9a9f dd3c 1930 fe3d
000003e0: 7ed5 a1bb 232a 383d 1cc9 03be d3be 93bd
000003f0: 3a06 0e3e 5935 48bd 0cd2 ee3a 45cb 1ebe

weight f4 [1, 64]
0.03400805 -0.08969133 0.05786325 -0.06557127 0.019633798 0.086454906 -0.026698593 0.050995745
-0.051737394 -0.05648725 0.1320929 -0.13644566 -0.017970914 -0.027543114 -0.08849445 0.064339146
-0.14623587 0.09648962 -0.015577369 -0.08247278 0.08647053 -0.0627128 -0.11353833 0.019931605
-0.036387388 0.010095118 0.048199184 0.09506235 0.11256983 0.021140054 0.023014491 0.017341074
-0.14575124 -0.10255865 0.055773508 -0.11661647 0.08587528 0.059532277 -0.14662857 -0.08436518
-0.09860368 0.04050188 -0.072740585 0.014271082 -0.05721878 -0.070490174 0.079483844 -0.09834736
-0.059667908 0.045127884 0.08591729 0.010790661 -0.04928342 0.03222273 0.07242517 0.13518606
0.011673217 0.12723333 -0.08868016 -0.07767625 0.11172267 0.13400133 0.05838919 -0.020484151
00000000: 064c 0b3d 17b0 b7bd 0402 6d3d 3b4a 86bd
00000010: 0fd7 a03c 450f b13d 02b7 dabc eae0 503d
00000020: 97ea 53bd 2d5f 67bd 5c43 073e 69b8 0bbe
00000030: bd37 93bc 19a2 e1bc 943c b5bd 3ec4 833d
00000040: dbbe 15be 5a9c c53d 3938 7fbc 7de7 a8bd
00000050: 7617 b13d 926f 80bd c986 e8bd 9b47 a33c
00000060: f10a 15bd fe65 253c 826c 453d 0db0 c23d
00000070: 038b e63d e82d ad3c e388 bc3c de0e 8e3c
00000080: d03f 15be 450a d2bd c372 643d 9ed4 eebd
00000090: 61df af3d 1ed8 733d cd25 16be a7c7 acbd
000000a0: baf0 c9bd 4de5 253d 04f9 94bd 42d1 693c
000000b0: 3d5e 6abd 275d 90bd 6dc8 a23d 576a c9bd
000000c0: 5666 74bd 04d8 383d 67f5 af3d 50cb 303c
000000d0: 69dd 49bd fbfb 033d a653 943d 376e 0a3e
000000e0: 0541 3f3c 7449 023e f29d b5bd ba14 9fbd
000000f0: dbce e43d a537 093e 8129 6f3d 61ce a7bc
