model/6182.82427374416_weight.pth (torch, 90511 bytes, 7 tensors)

weight f4 [16, 32, 1]
00000000: 14b1 0e3e 29c7 8f3e 73d5 1c3d 374f 29be
00000010: f654 1f3e 3ad2 3ebd 4d19 a3bc b694 173e
00000020: bf02 a63d 1b04 a3bd 1b70 933d 2af0 23be
00000030: 105c 8dbd 5d62 eebd 4af9 9b3c 7896 013e
00000040: 33fa 47be 2365 74bd 8115 a2bd 9304 2f3d
00000050: 67ad 1b3e 171c f33d 23b3 073e 2e7b efbd
00000060: 296c 82bd 1f0c b7bc cf8e b73c 7b43 503d
00000070: 6ca1 b4bd 2a46 483d f2cc 1b3e 83f6 333d
00000080: 640c 7f3e 0b3a 693e c44a 7d3e b5f1 913c
00000090: 1ec8 213e 660d b43c 38c5 0a3e 3e1e 30be
000000a0: 5868 3abe 75bd aebd 2c90 b23c 345b 47be
000000b0: f119 0cbd f093 84bd d524 56bd 8c2c 33be
000000c0: 9a13 503c b63b 92bc d82c d93c 99d4 9e3d
000000d0: d3e9 dd3d 8875 033e 892a 263d ca95 6b3d
000000e0: f23b 33bd 70e2 26be 1bfd b6bd 1e29 8ebd
000000f0: ebff fcbd ab41 433c 01a3 123e 188f e7bd
00000100: e59a 863e 54f3 823e ff11 7f3e 4c29 dc3a
00000110: bdf7 cc3d 90cc 643d 4465 373d fabd d03d
00000120: a7ce 08be 302e 9c3d b10c f23d 1172 57bd
00000130: 6f40 64bd a754 033e 4368 283e 7c25 09bd
00000140: 1c16 20be 909f 723e ce09 21be 1fe2 fd3d
00000150: fae8 813e bee5 2a3e 6ff3 393e 1f45 3b3d
00000160: 832d 573d 25fd 0e3e c9b5 703d ebc4 60bc
00000170: fe13 29bc 8021 f7bd 6aa4 2d3d d909 f23d
00000180: f59e bc3c fe8a 043e 1831 e1bb 6187 aabd
00000190: bc1b 32be 5f39 04be 23da 9c3d 03a7 cd3d
000001a0: edfc 0a3e fcfb da3d a8a1 dc3c cb5a a6bd
000001b0: 4222 04be e054 f23d 74de 293d b5e7 fc3d
000001c0: 6231 833d 22e6 133e 1605 3ebe ca59 113e
000001d0: 3b5e d7bd d702 bf3d 3273 233d a799 f8bc
000001e0: 3f5f 90bd ca31 d2bd eb65 953c 8d00 46bd
000001f0: f4f1 8bbd 71fc 40be c9b8 85bd 6ac5 33be
00000200: aaa9 2ebe c939 49be 4e8b 52bd 9f29 2cbd
00000210: 9f8d babd a1f3 343d 69e7 273e e311 0fbe
00000220: f847 173d 0370 833d 19cc debc 15ea 00bc
00000230: 423d 16be 4f2e 873b 0717 82bd 178c d6bd
00000240: 2cbb a53b 81ba d2bc af22 8a3e 7416 1c3e
00000250: b1fc 3d3d 9a69 f3bc 5ad4 4f3d b942 44bc
00000260: 8a63 573d 523a 4bbc 12e1 253e eb9f b63c
00000270: 8704 c33c fcab d1bb 164c a2bd 0f57 2d3e
00000280: 501f 313e faed 443e 863d 233e 79f1 d5bd
00000290: 6c74 bdbc 8302 2eba ada7 12be f6f5 a0bd
000002a0: 61f3 7c3c fab5 093d ffbe d53d 848f 0e3e
000002b0: c11c 0b3e d863 04bd bdb3 adbd 93d3 1fbe
000002c0: 8720 45ba 071b 173e 7209 bd3d 38cb 26bb
000002d0: 0ffe 76bd 2978 eabd 8a87 c1bd c85d f13d
000002e0: 11a9 363e b036 bbbc 4edd 433c 39f9 613d
000002f0: 1f92 a8bd 0e23 7fbd ace5 16be c10a d53c
00000300: 556a ad3d f141 903e 00d2 283e 1f2e 5cbc
00000310: ecb6 243d c6fc abbd 35e2 193e 9289 133c
00000320: 3c14 91bd afd0 fcbd cdf0 7b3c 9faa ab3d
00000330: 2bf2 abbd 8e9c 843d 9902 de3d e9b8 f93d
00000340: e5cc c83d 0610 033e 07db 0ebe e34f 20bd
00000350: 9fed 3c3c f363 bf3c 1735 15be 792f 61be
00000360: 0228 d33d 5399 203e 7a00 3d3e 6445 223e
00000370: 4d6a 85ba fc72 3fbd 1789 05be 528e 003d
00000380: 4586 863e f0a8 793e 47d1 833e 0b8c 873d
00000390: 4619 11bd a08f 25be 037c d4bd 0cef ea3d
000003a0: 0e9e 00be 1ac1 37bd 1731 83bd 70c3 13be
000003b0: 52e1 8ebd 92da b0bd 99b6 ce3c 84b0 103e
000003c0: 4f29 063e 29b1 dabd f39e 843d 9439 6d3d
000003d0: 3d2b c83d c713 23be b72f 2cbd f535 14be
000003e0: 452e 02bd 97af fa3d 0529 acbd 0499 093e
000003f0: 77fe 02bc 0c49 9b3b bd0b 2d3e d6dc 5f3c
0.13934737 0.28081635 0.0382895 -0.16534124 0.15559754 -0.046587206 -0.019909525 0.14802822
0.081059925 -0.079597674 0.07199117 -0.16009584 -0.06902325 -0.11639855 0.019039769 0.12655056
-0.19529037 -0.059666764 -0.07914258 0.04272897 0.15202866 0.11870592 0.13251929 -0.116934165
-0.06368286 -0.022344647 0.022406964 0.050845604 -0.08819851 0.04889504 0.15214899 0.043936264
0.2490707 0.22776048 0.24735552 0.01781545 0.15798995 0.021979045 0.13551795 -0.17199036
-0.18203866 -0.0853223 0.021797262 -0.19468385 -0.034204427 -0.06473529 -0.05228122 -0.17497462
0.012699986 -0.017850738 0.026510641 0.077553935 0.10835614 0.12837803 0.04056791 0.057515897
-0.04375834 -0.16297317 -0.08934995 -0.06941436 -0.123535 0.011917512 0.14319994 -0.1130659
0.2629005 0.2557627 0.24909209 0.0016796975 0.1000819 0.05585915 0.04477431 0.10192485
-0.13360082 0.07625997 0.11818827 -0.052599017 -0.05572551 0.12825261 0.16446023 -0.033483014
-0.15633434 0.23693681 -0.15726396 0.12396645 0.2537306 0.16689202 0.18159269 0.045720216
0.052533638 0.13963754 0.058767114 -0.013718824 -0.010319708 -0.120669365 0.042393126 0.118182845
0.023025015 0.12943646 -0.0068723075 -0.08326603 -0.17393392 -0.1291251 0.07658794 0.100416206
0.13573046 0.106925935 0.026932552 -0.08122786 -0.12903693 0.11832595 0.041471913 0.12348882
0.064059034 0.14443257 -0.18556628 0.14194408 -0.1051602 0.093267135 0.03990478 -0.030346705
-0.07049417 -0.10263403 0.018237075 -0.04834037 -0.06833258 -0.18846299 -0.065293856 -0.17555776
-0.17056909 -0.1965095 -0.051402383 -0.04203188 -0.09109043 0.044177655 0.1639687 -0.13971667
0.03693387 0.06417849 -0.02719693 -0.0078683095 -0.14671806 0.0041253935 -0.06352048 -0.10475939
0.005057713 -0.025723698 0.26979586 0.1524294 0.046383563 -0.02971344 0.050739624 -0.011978799
0.052585162 -0.012404041 0.16199139 0.022293052 0.02380587 -0.006398676 -0.079246685 0.16927741
0.17297101 0.19231406 0.15941438 -0.10446448 -0.023126803 -0.00066379475 -0.14321776 -0.07859413
0.015438885 0.033620812 0.1043682 0.13921934 0.13585187 -0.03232178 -0.08481548 -0.15608053
-0.00075198006 0.14756404 0.09230317 -0.0025450718 -0.060300883 -0.114487 -0.0944968 0.117854655
0.17837931 -0.022853225 0.011954619 0.055169318 -0.082309954 -0.06228929 -0.1473605 0.026006104
0.08467547 0.2817531 0.16486359 -0.0134387305 0.04021351 -0.08397822 0.15027697 0.009004967
-0.070839375 -0.12344491 0.015377236 0.08382153 -0.08395799 0.06475173 0.10840339 0.12193472
0.098047055 0.12799081 -0.1395074 -0.039138686 0.011531263 0.02336309 -0.14571033 -0.21990766
0.10310365 0.15683489 0.18457213 0.15846783 -0.0010178775 -0.046740517 -0.13040577 0.031385727
0.26274315 0.24380851 0.25745603 0.06618508 -0.035424493 -0.1616807 -0.10375216 0.11471376
-0.12560293 -0.04486189 -0.064058475 -0.14430022 -0.0697657 -0.08635439 0.025233554 0.14129835
0.13101695 -0.10678322 0.0647563 0.05791624 0.09773872 -0.15925513 -0.042037692 -0.14473708
-0.031782407 0.12240522 -0.08406261 0.13437277 -0.007995239 0.0047389325 0.16899009 0.013663491

bias f4 [16]
00000000: 4db0 153d 3416 c53d be47 3ebc 6b49 193c
00000010: d687 f83d f497 4f3e c0a9 ec3c 4524 b0bd
00000020: fb38 82bd f27a 853d b6e9 243e f277 d73d
00000030: c2dc 45bd 4b92 1c3e 7fea b5bd b169 353e
0.036545087 0.096233755 -0.011613784 0.009355883 0.12135284 0.2027281 0.028889537 -0.08600668
-0.063585244 0.065175906 0.16104779 0.10520925 -0.048306234 0.15290181 -0.08882617 0.177161

weight_ih_l0 f4 [256, 16]
00000000: bf0f e5bd 0ae4 6fbe e5a7 0ebd 1d8b 8ebc
00000010: c18b 8cbd 36a4 f7be 0ce2 41be 3151 12be
00000020: 994f 62bd 5cc7 debd 92ef 8abe c2e6 053e
00000030: 6f80 0bbe 8e64 82bd 74d4 1b3e 47aa 7c3d
00000040: 77a6 093d 28af 2a3d 3cac 67bc 3bed 0cbe
00000050: 4f41 293e 1f09 4fbe d252 8ebe 4421 dbbd
00000060: 93a8 f3bd 7ad9 d5bd c68d ffbd 4829 663e
00000070: 381b dfbc d5c7 fe3d 45be e13d f4e7 cb3c
00000080: bd19 f339 1c03 083e 028d 25bb e261 f43c
00000090: 36a8 29bd 5fd1 b73c 2b9b 1d3d ef35 c7bc
000000a0: 2109 46bc ee98 02bd 8c51 d8bb 4505 25bc
000000b0: 1df9 543d 5763 9ebd 0b89 d5bd 7b99 993d
000000c0: 9db3 a9bd 54f0 52be 925c 5b3d a04f df3d
000000d0: 28ac 153c 2519 a4be d156 6ebd 9bc2 14bd
000000e0: 29c0 e13d 9e47 a9bc 0e03 2dbe d447 66bd
000000f0: d1d1 f13d 6bcc 0f3d 3a09 95bc be2b c1bd
00000100: 22eb 7dbd 2d6a 91be 9fa7 dcbd 708c d03d
00000110: f768 ad3c 13a3 98be 4a01 42bd 81c4 59bd
00000120: 8381 4bbc 64d1 123d 89db 033b a211 d3bb
00000130: df35 043d f3b8 7c3d 255a fbbd 9db7 ee3d
00000140: dc93 cbbd 1254 8bbd 1995 f8bc eb55 dc3d
00000150: cf78 ce3d 7232 2fbe cfe7 2b3d 72c1 59be
00000160: 1608 04be df77 ef3c 8173 97bd d5e9 fd3d
00000170: 203a 3c3c 0f9e d7bd a204 b1bc d715 9a3d
00000180: 3e23 b6bd c2e4 fbbd 61d8 543d 3ae6 e7bc
00000190: 7eec e83c 0365 9abe 0776 5f3d b8cc 3cbb
000001a0: 8709 763c d7d8 3a3d 951a 48bd 7aca 0fbd
000001b0: fd56 85bd ac12 913c 022a ddbd ac9d 523b
000001c0: 8e1f 5b3c 9302 2abd 2eca 903d e849 68bb
000001d0: bc33 2dbd 3daa c13c 3260 ea3d ec74 8e3d
000001e0: 8dc1 c7bd 01ed 2c3e 89cb 873d a624 19be
000001f0: edeb 86bd 3967 1d3d 2bc8 c3bd e8f2 4ebd
00000200: 8ad7 8d3d 27a3 153c 6d70 bdbd 0a20 70bd
00000210: 9e8b 22bc eab3 353c 078b 9f3c 4825 95bd
00000220: c1cb c0bd 720c d93d e37e 2bbe 0d20 ec3d
00000230: d680 443d 0f33 2ebd 8269 8fbb 1dbf 75bd
00000240: 248f 033d 5358 d6bd 0f4a 203d 8ef1 173e
00000250: af67 f13c b29b 88bd 6944 cfbd a800 ab3c
00000260: cfbe 8c3d 8109 aebd 1703 99be 9583 58bd
00000270: 3d5c 0dbd 04f7 fa3d be16 e13d 8495 11bd
00000280: 3bc1 74bd 4ab2 86be e87b 9c3c 9144 9d3d
00000290: 16c2 343b 0d95 f0bd 1f53 1fbe fc72 4abd
000002a0: 2bba 83bc b907 a0bd 5c36 19bd f10b a7bd
000002b0: 5d73 6a3e 4631 04be c932 b93d 4d21 233e
000002c0: 0e75 313d 49fe c2bc c5e5 bcbd 094e b93d
000002d0: f34e e13d a34e e33d dc94 083d 5980 603c
000002e0: 887a 233c 02cc 0abb f44a 503d 88f7 febd
000002f0: b5ee b33c 3b07 60bd 5321 c4bd c206 a3bd
00000300: 7045 123e 3eb8 c63b b6a1 933c dc09 c3bc
00000310: f87d 353d 544b 0abd caf6 f33c 271e b6bd
00000320: 3a06 0ebe 12a5 43bd c72f 323d 1322 29bd
00000330: cf11 44bd 81b5 87bd d34d dcbd 0112 073e
00000340: f947 e2bc f914 c9bd 01d7 663d c2f6 c6bc
00000350: 0841 213e 944d 17be 1165 86bd f6dd 23be
00000360: f6fb fb3d 9173 3a3d cb71 2f3d 4fa1 8c3c
00000370: 8639 3a3c 909d 283d 3fae 85bd 7fdf 643d
00000380: 73fc 3abd 921f 0dbe aa23 50bd 441d fd3d
00000390: b05c b33d a52b 46bc 5552 5e3d 2689 46be
000003a0: ac6d a63d 12f3 623a 4612 f43c 047d d7bd
000003b0: 0d29 893d 5829 a8bd c67f 2d3e 4dc6 97bc
000003c0: cacd 37be 1940 cebd 186e f8bd f47e 9dbd
000003d0: b19e 22bd 442e 2d3a c45c f0bd 2669 14be
000003e0: 9f2b 1d3e b20d 35be 57d5 edbd a92d 8abd
000003f0: f9ba 4e3d 2b06 bf3b 6d8b c9bd b53a b13d
-0.11184644 -0.23426834 -0.034828085 -0.017400319 -0.068625934 -0.4836747 -0.18933886 -0.14288785
-0.05525169 -0.108778685 -0.27135903 0.13076308 -0.13623212 -0.063668355 0.15217763 0.061685827
0.03360602 0.04167095 -0.014140185 -0.13762371 0.1652882 -0.20218323 -0.27797562 -0.10699704
-0.11897387 -0.10441871 -0.12478213 0.22476685 -0.027234659 0.12440459 0.11022619 0.024890877
0.00046367748 0.13282436 -0.002526105 0.02983183 -0.041420184 0.022438703 0.038478058 -0.02431771
-0.012087137 -0.031884126 -0.006601518 -0.010072057 0.051995385 -0.07733791 -0.104265295 0.07499977
-0.08286212 -0.2059949 0.05355508 0.10903859 0.0091352835 -0.32050434 -0.058188263 -0.036318403
0.1102298 -0.020664033 -0.16895697 -0.056220844 0.118075974 0.035107058 -0.018192876 -0.09432171
-0.06199182 -0.28401318 -0.10774159 0.10183036 0.021168215 -0.29811916 -0.04736451 -0.053165916
-0.012421015 0.03584422 0.0020119867 -0.006441311 0.032277938 0.06169982 -0.12273053 0.11656115
-0.09940311 -0.068031445 -0.030344533 0.10758575 0.10081636 -0.17109087 0.041969117 -0.212652
-0.1289371 0.029231964 -0.073950775 0.123981155 0.011488467 -0.10528194 -0.021608654 0.07523697
-0.08893441 -0.122994915 0.051964168 -0.028308023 0.02843308 -0.3015519 0.05455592 -0.0028808545
0.01501692 0.04561695 -0.048853476 -0.035105206 -0.06510732 0.017709099 -0.10799028 0.0032137437
0.013374222 -0.04150636 0.07069813 -0.0035444442 -0.042285666 0.023640746 0.11444129 0.06955895
-0.09753714 0.16887285 0.06630618 -0.14955387 -0.06587968 0.03842852 -0.095596634 -0.050524622
0.069258764 0.009133137 -0.09249959 -0.058624305 -0.009920983 0.011090258 0.019475473 -0.072825015
-0.09413863 0.10598077 -0.16747622 0.11529551 0.04797443 -0.042529162 -0.004376591 -0.059996713
0.03211893 -0.10466065 0.039133128 0.1483824 0.029468386 -0.066703215 -0.1012047 0.020874336
0.06872331 -0.084979065 -0.2988517 -0.05285986 -0.034511793 0.12254146 0.10990666 -0.03554298
-0.05975459 -0.263079 0.019102052 0.07679094 0.0027581505 -0.11747179 -0.15559052 -0.049426064
-0.016079983 -0.07813973 -0.037405357 -0.081565745 0.2289557 -0.12909421 0.090428896 0.15930672
0.043324523 -0.023802893 -0.092235126 0.09048087 0.110013865 0.11098983 0.03334509 0.0137024755
0.009977944 -0.0021178727 0.05085273 -0.124495566 0.02196441 -0.054694396 -0.095766686 -0.07960273
0.14284301 0.006064444 0.018021446 -0.023808412 0.044309586 -0.033763245 0.029780764 -0.0889247
-0.13869563 -0.047764845 0.043502595 -0.04129226 -0.047868546 -0.06626416 -0.10757031 0.13190462
-0.02762221 -0.09818453 0.056357387 -0.024287585 0.15747464 -0.14775687 -0.06562246 -0.1600264
0.12303917 0.04552037 0.04283313 0.017166762 0.011366254 0.04116589 -0.065273754 0.055877205
-0.04565091 -0.13781574 -0.050815262 0.123590976 0.08757913 -0.012095367 0.054277737 -0.19388255
0.08126387 0.0008657436 0.02979387 -0.10521892 0.06697283 -0.08211011 0.16943273 -0.018527174
-0.17949596 -0.100708194 -0.12130374 -0.0769023 -0.03970212 0.00066063204 -0.11736444 -0.14493236
0.15348671 -0.17681006 -0.11612957 -0.0674699 0.05047128 0.0058295927 -0.098410465 0.086537756

weight_hh_l0 f4 [256, 64]
00000000: 2c59 603d a104 d03d d3a2 44bd 3adb 4fbe
00000010: 07a8 25be 62f9 8ebd 5837 023d 1a3f 963d
00000020: d4c4 523d 6e4a 023d 0dbf 95bd 8e9f c73d
00000030: ebc8 1dbd fdc9 9a3b 177f 93bd c2ca f83d
00000040: 6951 18be e299 98bc cf68 b9bd 19a3 91bd
00000050: 10fd 0c3e 9705 a5bd a13e 07be 1900 8d3d
00000060: 5ec0 ac3c 044f f63d ef9e 87bd f378 893d
00000070: a539 803d a900 2abd 4481 bd3d 5b9a 653d
00000080: 034c 12bd 34f8 303e 889a b33c 42ab 1cbe
00000090: f3fc 1bbd ed55 b23d 2e57 29bd 1f83 ce3d
000000a0: 4a40 f2bd 8913 803c ce91 863d bc3f db3c
000000b0: 77c2 a83d 4d95 a3bd 7342 8b3d 9b0f 013e
000000c0: 0540 e03d fcdc 5e3c 9a1d ce3c 2d53 acbb
000000d0: 0413 34bc c048 92bd 40d4 df3c a125 e8bc
000000e0: 3914 cf3d 99ed 403e ada6 ad3d 351d 1b3c
000000f0: b9fb 7e3d d648 363e e01e c43d 5715 11be
00000100: f723 103e a0c5 cb3c f8cd c13c f6d0 10be
00000110: 93ee a2bc 19c0 62bc ece6 933d 9acd a03d
00000120: 7d7a 113d 54f0 54bd 4fdd 643c 88c5 5c3d
00000130: 4519 123d 0180 633d 61f2 fc3d db4c afbd
00000140: 750b 5cbd 3a27 8bbd 463f 4e3d a7e5 4b3d
00000150: a7b7 ef3c 4e55 273d 4daa 953c b217 293e
00000160: 89d5 813d 407a 313a 7616 a8bc 5238 6ebd
00000170: 5808 71bd be4c a2bd 08d1 093e 0e72 153e
00000180: e95c af3d d113 b53d e08c 91bc 49b8 173c
00000190: c8d3 343c 6c38 803a 3000 3d3d eab9 90bd
000001a0: c6f3 ef3c 504e 19be eac5 2b3d 1243 8dbd
000001b0: 7d17 523d 3c50 933d 02fd 17bd af37 e63d
000001c0: 982c 0b3e 3f3d 47bd 8e84 46bc a8f6 9f3d
000001d0: ea35 d5bd 06a7 e73d cc76 343d a860 a1bd
000001e0: 6970 c83d fb28 2cbb dfb4 6b3d 015b 14bd
000001f0: 109d c8bc 6968 2c3c d0eb 14bd 4b86 563d
00000200: 3316 e63d 3e84 99bc aa51 a73d 17c0 cfbc
00000210: f0a1 9f3d f586 b83d e400 71bd a015 6c3d
00000220: 2d10 653c 5865 c73a 866d 92bd 581b b93d
00000230: a26f 0dbe 55b9 e4bc 5283 b6bd 6d8c ddbd
00000240: a485 e8bd ce01 f5bb 5a1b a5bc 8a7e 003e
00000250: eed4 d93d f34c 6dbd 6e91 273d 66a1 9b3d
00000260: 857a 7cbb f6ca 93bd eba0 b2bd 0a8d f1bd
00000270: af4b 51bd c055 09be bc90 81bd 3d8c 63bd
00000280: df62 953b f23c debd 73ca ed3d c119 9dbd
00000290: 2c88 203d b764 0ebc 55ac b6bd 0c99 87bd
000002a0: b719 823d 6c52 17be 1eb4 bfbd 54f1 da3d
000002b0: 2dc1 603d c0d0 343d a201 bebd a523 ef3b
000002c0: 2d03 123e ac7e 363c 78b5 71bd 07da 693d
000002d0: 0bca 973d d220 03be 3271 3dbd 5cc6 f43d
000002e0: 7def cc3d b8d4 40bd a4fa 9fbc 932c 153d
000002f0: 48dc f1bd a7cf 07be c41b e13d 31ca 9cbd
00000300: 9229 2e3d 7fbf 09be c5c5 7a3d 579f fc3d
00000310: 31a1 d63d ff9b bdbd c721 933d ba5e 0f3d
00000320: 676e 1fbe 0bce b5bc 6778 543d 8538 5e3e
00000330: d14f cabd ea26 9dbd 9c29 f7bd 612b f8bc
00000340: 3233 03be a810 0ebd db47 e0bd b055 a53d
00000350: 1a1e c6bc a0be 563d 2047 b83d 8a19 763d
00000360: 04f4 99bc 3c95 16bd e950 d0bd ebb7 2fbe
00000370: bad0 3d3d 92f5 bf3d 0758 6e3c bb07 da3c
00000380: e32d 55bd 9fd6 0b3d d9ef 653d 7421 54bd
00000390: f4e2 ac3d e774 983d 1798 aa3d 10c7 a73d
000003a0: 71cf 003d bbef d43d 29c3 713d 3a1a 613d
000003b0: d1ab 503d 2c28 fe3d 6fd7 83bd 6836 5b3d
000003c0: fb83 823c 77d9 e43c 478f 003e a1d1 85bd
000003d0: ef15 b13d 366c 093d e430 2bbd 0457 7e3d
000003e0: 5cb3 0cbe 3c92 443c 263c 013e 6bce f03c
000003f0: 45d2 3dbd 1e47 f53d 70ee dabc c671 35bd
0.05477254 0.10157133 -0.048006844 -0.20298472 -0.16177379 -0.0698116 0.03179106 0.073362544
0.05145724 0.031809263 -0.07311831 0.097472295 -0.03852169 0.004723786 -0.07201975 0.12148048
-0.14874806 -0.018628065 -0.09053194 -0.071111865 0.1376841 -0.08057707 -0.13207485 0.06884784
0.021087822 0.1202679 -0.06622111 0.06712522 0.06260995 -0.041504536 0.09253171 0.056055408
-0.03571702 0.17282182 0.021924272 -0.15299705 -0.038083028 0.08707795 -0.041342907 0.10083603
-0.118286684 0.015634315 0.06570779 0.02676379 0.08240216 -0.07987461 0.067997836 0.1260361
0.10949711 0.0136024915 0.0251606 -0.0052589388 -0.010990862 -0.07142782 0.027322888 -0.028338255
0.10111279 0.18840636 0.084790565 0.009467413 0.06225178 0.17801222 0.095762014 -0.14168297
0.1407622 0.024874508 0.023657784 -0.14142212 -0.019889152 -0.013839745 0.07221779 0.078517154
0.035517205 -0.051987007 0.01396878 0.053899318 0.03566863 0.055541996 0.123509176 -0.08559581
-0.053721864 -0.06794591 0.05035331 0.04977956 0.029262377 0.040852837 0.018269682 0.16512945
0.06339557 0.0006770231 -0.020518523 -0.05815918 -0.058845848 -0.07924794 0.13458645 0.1459429
0.08562643 0.0884167 -0.01776737 0.009260246 0.011036821 0.000978244 0.046142757 -0.0706671
0.029291045 -0.1497128 0.041936792 -0.06897558 0.05129193 0.07193038 -0.03710652 0.112410896
0.1359123 -0.048642393 -0.012116564 0.07810718 -0.10410674 0.11311154 0.044058606 -0.07879764
0.097870655 -0.0026269543 0.05754554 -0.0362196 -0.024488956 0.01052294 -0.0363577 0.052374166
0.11234703 -0.018739816 0.08169873 -0.02536015 0.07794559 0.09010116 -0.05883874 0.05763781
0.013980907 0.0015212698 -0.07149796 0.090384185 -0.13812116 -0.027920404 -0.08911766 -0.108178
-0.11353615 -0.007477022 -0.020154644 0.12548271 0.10636316 -0.057934713 0.040910177 0.07599144
-0.0038525176 -0.07216446 -0.08722099 -0.11794479 -0.051097568 -0.13411617 -0.06326434 -0.055553664
0.0045589055 -0.10851468 0.1161088 -0.07670928 0.039192364 -0.0086910045 -0.089195885 -0.06620988
0.06352561 -0.14777535 -0.093605265 0.10690561 0.054871727 0.044144392 -0.09277655 0.0072979503
0.14259024 0.011138599 -0.059010953 0.057092693 0.074115835 -0.12805489 -0.04625053 0.119518965
0.10006616 -0.047077864 -0.019528694 0.036419462 -0.118095934 -0.13262807 0.10991624 -0.076557525
0.042520113 -0.13451956 0.061223764 0.12335079 0.104799636 -0.092582695 0.07184177 0.035002448
-0.15569459 -0.022192976 0.051872637 0.21701248 -0.09878505 -0.07673438 -0.12068483 -0.030294122
-0.12812498 -0.034683853 -0.10951205 0.08072984 -0.024184275 0.052427888 0.08997941 0.06008295
-0.018793114 -0.036763415 -0.101716824 -0.17160003 0.046341635 0.09373011 0.014547355 0.026615014
-0.052045714 0.034140225 0.05613694 -0.051789716 0.084417254 0.07444172 0.0832979 0.08192265
0.03144783 0.103972875 0.05902401 0.054956652 0.050945107 0.12410006 -0.06437575 0.053518683
0.015932074 0.027935727 0.12554656 -0.06534124 0.086467616 0.033550464 -0.041794673 0.062094703
-0.13740295 0.011997756 0.12620601 0.029395303 -0.046343107 0.11976455 -0.026725024 -0.044297956

bias_ih_l0 f4 [256]
00000000: f602 213e 31af 40bd 0cfd 1dbd 8c59 543d
00000010: 80d8 1a3e f08a d23d e1f6 0c3d 43ca 543d
00000020: 6e1c f8bc 4539 00be ad7f 82bc 0acc e83b
00000030: 20cf 863c f614 8abd ea1c c23d 6851 8ebc
00000040: 1d92 98bd 4f09 c6bd eb27 ec3d 0473 06bd
00000050: ad29 cf3d 4da3 923d d7be d83d 8c73 e53d
00000060: bd3c 99bd 2928 a8bc ac74 8ebd 6afd 39bd
00000070: 7749 7ebd a3c8 193d 234d 3dbd 31b7 9a3b
00000080: d63e afbd 9194 fa3b ba13 fabc 5583 85bd
00000090: 7c28 993d fc63 b4bd ac41 7ebc cb2b 673d
000000a0: 78c7 ccbd 4306 ce3d 80c5 b83d 6e71 62bc
000000b0: dae1 133e e5e8 f93c 952a 943d d064 85bd
000000c0: b8ff 273e b30c c6bd 3dd1 243d 2e4e 5e3b
000000d0: ac80 d43c 69aa cc3d 5dc6 563d 5983 cfbd
000000e0: f662 b8bd f6cc 8dbd a5e3 b1bd c9e0 ffbc
000000f0: 84f1 a0bc 6704 69bd 0fce da3d d37c f53d
00000100: bc41 8dbd 1d2c 273d f6ec 76bd 4939 e1bd
00000110: 306b 563d ca55 87bd 2e15 6e3d 2247 043d
00000120: 147b e1bc e69d adbc f23c 7ebd 1bea 07be
00000130: a83b fcbd 04b4 513d d04f 82bd bb04 ef3c
00000140: e938 26be 4845 853d 81be 41bd 715a 53bd
00000150: cf3b 24bd de50 59bd e118 c8bd 5297 cfbd
00000160: f920 45be 07fa 7a3d 4efc d4bd da69 8cbd
00000170: 945f 65bc fec6 513d 0dc3 b03b c401 803d
00000180: 54bc 913d 04a0 2c3d 7829 b23d d41f 9f3c
00000190: 4785 e73d 9119 d1bd c8bc d53d f9d6 43bd
000001a0: a15b 28be d9a3 a93d de29 e4bc 78c2 1ebd
000001b0: d982 043e 7f61 c6bd 1879 21be 37ff a23d
000001c0: 98d3 bf3d b1a8 5abd 4468 babc cc79 bdbd
000001d0: 9dda f6bc 7e50 1b3d 4052 f9bd 62ec 733d
000001e0: 081e d43c d9cd dc3d 285e b33d f67d 17be
000001f0: e0cd 1abd be7b 883d 3e41 2ebd f23f e23c
00000200: 8190 e8bc dd23 ed3c 4330 a0bc 8203 91bc
00000210: c404 4e3d d389 84bd 3ce8 86bd f089 ab3d
00000220: 191c c7bd 2948 9cb9 c38c ae3d 5675 c5bd
00000230: 5013 c3bc 0f83 8c3d a354 06be 724e 803d
00000240: 24ca 013c 6ab5 ce3d 5389 a43d cf10 b53d
00000250: 20ad f63d c1ac 4c3b b512 f4bd 8e9d e6bd
00000260: 4de6 623d fdd4 ec3c d083 25bd 4d4b 94bd
00000270: e951 a8bc 14ab ec3d 7407 95bc 9619 ea3d
00000280: 8f51 5fbd fb13 8a3c 2872 84bd 8bf9 27bd
00000290: cafa a6bb 3983 2bbb 5b55 35bd 52c2 c6bd
000002a0: ce75 30bc 49f8 7cbd 291f 8cbd 8d8a e53d
000002b0: 751d 96bd 709e 8a3c 4552 bdbd db8d c33d
000002c0: a3b6 14bd d131 e63b 0507 993d 340e 14bd
000002d0: 0ed5 5c3d 7567 373c 0ee5 efbd 435b 153d
000002e0: 3da4 58bd b9b8 bf3c 4574 bfbb d4c8 40bc
000002f0: 07bb bf3d 7662 48bd ef16 a53c 2983 18bc
00000300: f99e 5d3d 6913 9fbd 85aa 9bbd 6195 3b3d
00000310: ebd1 ce3d 911d a3bd 27fa ca3d 7020 1cbe
00000320: 838b 94bb 925c 0ebe ca5f 023e 8730 5abd
00000330: ced9 633c a283 e7bd 94fd e8bd e11f bc3d
00000340: 4fda 25bd c362 16be 6c1a bdbd 2a97 b3bc
00000350: f71e 073c 4f7c bbbd ab08 b9bd dab8 ad3c
00000360: 8a7c b3bd 1371 00bd f57d 03bc 25e4 903c
00000370: ba9a 653d 5e39 c7bd 3598 d93d 1d60 843d
00000380: e75c e7bd 4c6d 863c 97d7 b63d 30ba 22bc
00000390: af0c 7bbd ea64 293d df53 873d edbd bfbd
000003a0: db5a f33c e561 16bd 86e3 0ebc 1ce2 9a3b
000003b0: 66a7 c03d 7652 0fbd 682e 473d 9f62 3a3c
000003c0: ee03 89bd 9ea3 003d 523a 1dbe e4d5 ed3c
000003d0: 1850 84bc 7507 a43d 7176 09be 50e2 07be
000003e0: db31 2d3b 3847 05be 5b77 733d b5ce 09be
000003f0: 5eed edbd a7a5 c2bd a86c 7a3d 4a49 4f3d
0.15723786 -0.047042076 -0.038571402 0.05184321 0.1512165 0.102804065 0.03441513 0.051950704
-0.030286994 -0.12521847 -0.015930021 0.0071044015 0.016456187 -0.06742279 0.09478171 -0.017372802
-0.07449744 -0.09669744 0.11531051 -0.03282453 0.10115371 0.071600534 0.10583275 0.112036794
-0.07482288 -0.020526962 -0.06955847 -0.04540769 -0.06208178 0.037544858 -0.04621614 0.004721545
-0.08556907 0.007647105 -0.030526984 -0.0651919 0.07478425 -0.08808133 -0.015518587 0.05643825
-0.09998983 0.10059788 0.09022045 -0.013820989 0.14441624 0.03050656 0.072346844 -0.06513369
0.16406143 -0.09670391 0.040238608 0.003392111 0.025940262 0.09993441 0.052435268 -0.101324745
-0.0900325 -0.06923859 -0.08685998 -0.031235116 -0.019646414 -0.056888964 0.10683834 0.11986699
-0.068973035 0.040813554 -0.060284577 -0.109972544 0.052348316 -0.0660816 0.058125667 0.0322944
-0.027524509 -0.021193456 -0.06206984 -0.13272898 -0.12316066 0.051197067 -0.06362879 0.02917706
-0.16232647 0.06507355 -0.04730082 -0.051599924 -0.0400961 -0.053055637 -0.0977037 -0.10136284
-0.1925086 0.0612736 -0.10399686 -0.06856127 -0.013999838 0.051215164 0.0053943456 0.06250337
0.07115999 0.04214479 0.08699316 0.019424357 0.113047175 -0.102099545 0.10436398 -0.047812436
-0.16441204 0.082832046 -0.027851995 -0.03875968 0.1294054 -0.09686565 -0.1576885 0.079588346
0.0936653 -0.053383533 -0.022754796 -0.092517465 -0.03013354 0.03791856 -0.12173891 0.059551604
0.025893226 0.1078145 0.08758193 -0.14794144 -0.037793994 0.06664227 -0.04254269 0.027618382
-0.028389217 0.028947765 -0.019554263 -0.017701868 0.050297514 -0.064716004 -0.06587264 0.08375919
-0.09722156 -0.00029808402 0.08522942 -0.09641521 -0.02381292 0.06860935 -0.13118224 0.06264962
0.007921729 0.10093196 0.08034005 0.088410966 0.1204474 0.00312309 -0.119176306 -0.1126052
0.055395413 0.028910154 -0.04040891 -0.07240925 -0.02054687 0.11556068 -0.01819203 0.114306614
-0.05452114 0.01685523 -0.06467086 -0.041009467 -0.0050958144 -0.0026170744 -0.044270854 -0.097050324
-0.010770274 -0.06176022 -0.06841881 0.11208067 -0.07329837 0.016921252 -0.09244207 0.09548541
-0.03630699 0.0070249815 0.07472042 -0.036146358 0.053914122 0.0111941 -0.117136106 0.036463987
-0.052891005 0.023403512 -0.005842718 -0.011766631 0.093618445 -0.048922025 0.020152537 -0.009308615
0.054106686 -0.07767374 -0.076008834 0.045796756 0.100986324 -0.07964624 0.09910994 -0.15246749
-0.0045332327 -0.139025 0.12731853 -0.053268936 0.013906909 -0.11304404 -0.11376491 0.09185768
-0.0404914 -0.14686112 -0.09233555 -0.021922667 0.008247129 -0.09154569 -0.090348564 0.021206308
-0.08763988 -0.031357836 -0.008025636 0.017686913 0.056055762 -0.09727739 0.10624734 0.06463645
-0.112970166 0.016409539 0.08927839 -0.009932086 -0.061291393 0.041356005 0.06607794 -0.09362397
0.02970641 -0.036714453 -0.008721238 0.0047266614 0.09406929 -0.03499075 0.04862824 0.011376052
-0.06690203 0.031406038 -0.15354279 0.029032655 -0.016151473 0.08009235 -0.13424088 -0.13269925
0.0026427421 -0.13015449 0.059439998 -0.13457759 -0.1161754 -0.09504252 0.06113878 0.050607003

bias_hh_l0 f4 [256]
00000000: 53e4 203e 5f55 163d b291 c83b 78cc 913d
00000010: 18ac 14bc 9787 a13d da92 bc3c b2cc 62bd
00000020: 7ea6 9ebd 3785 f8bd 0c72 f13d 90ec 02be
00000030: 8bef d53d 67c6 70bd a6bb 3cbd c037 983d
00000040: 55d5 583d 7c96 83bd 9265 15bd ea61 17bd
00000050: 7ea9 c43d ef28 033e 250a 033e 5992 b13c
00000060: f0b5 fdbc 58b9 f6bd 981b 83bb 9f3a 0abc
00000070: 02e5 7b3d b685 2f3d 7d73 42bd 5fb5 1bbd
00000080: 18f5 cabd 4cb5 2e3e f460 2f3d eaec a73b
00000090: 9340 34bc e82b 89bd 9dd2 7a3c ba5e 97bd
000000a0: 4b04 bd3c eaf8 0c3e 7c5b 513b 48b6 1f3e
000000b0: 3e48 1b3e 48e1 e6bd e974 923c 8996 9c3d
000000c0: 3fb3 08bd 1af3 06bd d82d 00be c733 05bd
000000d0: dfcf 573d 4ee0 dd3d 00d2 4e3d 2b90 1fbc
000000e0: 9be3 2cbe ed2c 423d 0b63 2bbc 93d2 573d
000000f0: 6cd0 d03d e280 3c3d 5171 90bd 1141 0b3e
00000100: 483f debd 4b42 00be d9bf c0bd 978f d3bd
00000110: 66d7 debd f9db 383d b108 edbd 657d 453d
00000120: b691 dcbd 3a02 f53c 515f af3d 7f21 dabd
00000130: 63d6 fcbd e938 c43c 38e9 2cbd 3401 47bd
00000140: 5f3f b53b 9dda 9e3d d331 dcbc a70c 1cbe
00000150: 60cb 0b3e 2362 133b 8d4e d13d ea31 eebd
00000160: 7a38 51be 3c48 cb3d 1b0f b4bd c74b 853d
00000170: dc57 ba3c d8de e9bc 9b75 e2bd 2e57 723d
00000180: 2013 403c 777e 1d3e eceb 903d f66c adba
00000190: 3f9a a33d ac39 b13c 2586 04be 28af a6bd
000001a0: 9fe6 6f3d 8a8f c13d 8e9f 07be c5d2 b63d
000001b0: 66bd e63d 7f92 9cbc 5cd1 c8bd 4724 cf3c
000001c0: dc90 2ebd f33f 483d e24a a6bb 87a5 743c
000001d0: 8eda 55bc ae23 753d 99ba a8ba 2665 46bd
000001e0: f06a 00be 9927 dcbd 0e03 9cbd 3e06 e5bd
000001f0: a216 8b3d 0eea c3bd aa45 c53d abfb b5bd
00000200: 40e5 223d da6a c1bd 86c7 ce3c 1b2b 8dbd
00000210: 2dba abbd f412 1b3d ec8f a8bd 70b2 483d
00000220: 2dc4 bcbd 2431 e6bd db1c 673c b143 163d
00000230: ea76 9fbd c761 c43d cbae dc3d 8d88 a23d
00000240: 34f1 b2bd c8c8 1abd 976a 9b3d 0fb9 36bd
00000250: bd8d 473d 0ed4 2f3c c729 683d 9ae7 8e3d
00000260: 7fb2 96bb 662e 5b3d 0fbb f5bc 4e67 84bc
00000270: aca7 05bd 34d7 8ebd 111e e5bd 38c7 883d
00000280: 5e62 aa3c c671 eb3d 7f3d 963c 4174 dd3d
00000290: 8df8 9cbd edf7 b2bc 491a c13d 473e ba3d
000002a0: d5c9 f1bd 8c24 813c 749e fa3d f7d3 fa3a
000002b0: c80e 263e a2da b9bd 97c0 1a3e 5949 293d
000002c0: 6a5b debd 73e8 c5bc c424 143c 061c 9c3b
000002d0: 850d 5a3d 1301 663d 73a3 853d 0328 dcbc
000002e0: 8afe 003c ab5f 89bd 8512 d43d 7e3f 8abd
000002f0: 20b3 153d 04f0 b63d c460 223e c861 b9bd
00000300: 1bf9 0d3e 51df 16bc 931b 09be 772f 023e
00000310: ed58 9dbd 9442 4abb 6bf3 05be 1515 6fbd
00000320: 5a50 a4bc b2fc 64bd d624 ed3d 77b1 543d
00000330: 2c6b 263d 9804 d9bc df88 ddbd 42b5 8fbd
00000340: cf10 8d3d f741 0c3d d89f f5bb 023b bbbd
00000350: d7c8 d53d 819e 6ebb c1d4 02bd 579a 98bd
00000360: c9a4 c53c 7b76 073d e10c 613c 1e09 523d
00000370: 9663 8abd a011 023d 7b43 8fbd f54d d03d
00000380: 62ef 303d adef f63d 26e1 f13d ace2 aa3d
00000390: 2a68 913b 10a8 86bd bf01 d7bc 18aa e43d
000003a0: edb0 ffbd 62b0 a8bd 9c56 c63d 701e a6bd
000003b0: 3909 563d 6bec 5a3d e33c a23d 2083 17bb
000003c0: da22 1c3e 1264 9b3c 91c2 aa3b 22c9 25bc
000003d0: 5ad9 983d 4d99 cfbd fd20 36be 03b6 5abd
000003e0: 385d 7e3d 69c6 1abe ccfd 93bd ab23 41bd
000003f0: 6ef6 bc3c ccdb 19be 40ba 85bc 3312 33bc
0.15712099 0.03670251 0.006120884 0.071190774 -0.0090742335 0.0788719 0.023019243 -0.055370994
-0.077465996 -0.12134784 0.11789331 -0.12785554 0.1044608 -0.05878296 -0.046077393 0.074325085
0.052937824 -0.06425187 -0.036473818 -0.036958613 0.096026406 0.12808584 0.12796839 0.02167623
-0.030970544 -0.1204707 -0.004001092 -0.008436828 0.061497696 0.042852126 -0.04747342 -0.038014766
-0.09910029 0.17061347 0.04281707 0.005124678 -0.011001724 -0.066978276 0.015309003 -0.073911145
0.023073336 0.13766828 0.0031945398 0.15596879 0.15164277 -0.11273438 0.017878013 0.076459
-0.033374067 -0.032946683 -0.12517488 -0.03252008 0.052688476 0.10833798 0.05049324 -0.009738962
-0.168837 0.047406126 -0.010460625 0.052691054 0.10196003 0.04602135 -0.070528634 0.1359904
-0.10851914 -0.12525289 -0.09411592 -0.10330122 -0.10880928 0.045131657 -0.115739234 0.04821529
-0.1076998 0.029908288 0.08563102 -0.1065092 -0.123455785 0.023952918 -0.042214602 -0.04858513
0.005531236 0.07756541 -0.026879227 -0.15239201 0.136518 0.0022488914 0.102200605 -0.11630614
-0.204317 0.09925887 -0.08791944 0.06508594 0.022746973 -0.028548643 -0.11057588 0.059165172
0.01172331 0.15380274 0.070762485 -0.0013231325 0.079884045 0.021633945 -0.12941797 -0.08138877
0.058569547 0.09451206 -0.13244459 0.0892692 0.11266594 -0.019112824 -0.09805557 0.025285853
-0.042618617 0.04888911 -0.0050748447 0.014932043 -0.013052596 0.05984848 -0.0012872993 -0.048436306
-0.12540793 -0.1074974 -0.0761777 -0.11182831 0.06791426 -0.09566127 0.09632428 -0.088858925
0.03976941 -0.094442084 0.025241625 -0.06892987 -0.083851196 0.037859872 -0.08230576 0.048998296
-0.09217105 -0.112398416 0.014106001 0.03668565 -0.07786353 0.09588962 0.107755266 0.07936201
-0.08737412 -0.037789136 0.0758869 -0.04461008 0.048719157 0.01073171 0.056680467 0.06977768
-0.004598915 0.053511046 -0.029996423 -0.01616254 -0.032630607 -0.069746405 -0.11187375 0.06678623
0.020798858 0.1149631 0.01833987 0.10813189 -0.07664595 -0.021846736 0.094288416 0.0909391
-0.118060745 0.015764497 0.12237254 0.0019136657 0.16216576 -0.09074904 0.1511253 0.041329715
-0.108572796 -0.024158692 0.009041969 0.004764083 0.05323555 0.05615337 0.06525316 -0.026874548
0.007873187 -0.067077 0.10355095 -0.067503914 0.03654778 0.08932498 0.15857226 -0.090518534
0.13864557 -0.009208516 -0.13389425 0.12713419 -0.07682977 -0.0030862438 -0.13081138 -0.058369715
-0.020057846 -0.05590505 0.115792915 0.051927056 0.04062955 -0.026491448 -0.10817122 -0.07016994
0.068879716 0.034242596 -0.0074958615 -0.09142114 0.10438698 -0.0036410394 -0.03194118 -0.07451313
0.024126427 0.033071976 0.013735981 0.051278226 -0.06757276 0.03175509 -0.06995293 0.10171119
0.043197043 0.12057433 0.11810522 0.083440155 0.004437466 -0.06575024 -0.02624595 0.11165255
-0.12484918 -0.08236767 0.09684488 -0.08111274 0.05225489 0.053448122 0.079217695 -0.0023118928
0.1524767 0.018968616 0.0052111824 -0.010118755 0.074633315 -0.10136662 -0.17786022 -0.053396236
0.06210062 -0.1511475 -0.07226142 -0.047153156 0.023066726 -0.15025252 -0.016324162 -0.010929632

weight f4 [1, 64]
00000000: 77ed c6bd ba23 5cbd e1f8 bc3c 6999 843d
00000010: 2cbf b23d c5c2 ccbc 1b02 183d 15c5 943c
00000020: 93a6 85bd c6b3 17bc 4be7 05be 1834 3c3d
00000030: a504 a3bd e2da 9dbd 447d 2b3c 6cbe b4bd
00000040: 822b f8bc aeff 2d3d 2580 9b3d 20b1 e8bc
00000050: ea5e eebd 39c9 873d cd9a 9f3d 9d14 f6bc
00000060: 8880 edbc 11cd 52bd eeb4 003d a1b4 29bd
00000070: 0ca6 5b3c 40dd bc3d b72b 6fbd 63a7 93bd
00000080: 16ee 45bd d02a d5bd 459f ca3d 214b e7bb
00000090: d423 ee3d 99e8 753c da94 9e3c 3fec 27bd
000000a0: 29f3 8b3d e6f2 0f3e a5f1 09bd c044 d6bd
000000b0: 05e1 11be b63c b03d 34f1 7a3c 574f f9bd
000000c0: 103a 973d 5c01 473d fe8f 103c 50f7 2b3c
000000d0: d812 a53c dd9d 913d 82ca 49bd 8a77 6bbd
000000e0: 8409 8abd 8f86 7fbd e95c a83c 080d 463d
000000f0: a327 7d3d 4226 d9bc ddcb 13be 68f4 0e3d
-0.097132616 -0.05374501 0.023067893 0.06474573 0.087278694 -0.024995217 0.037111383 0.018160382
-0.06525912 -0.00925917 -0.13076513 0.045948118 -0.0795987 -0.07707764 0.010466877 -0.088253826
-0.030294184 0.042480163 0.07592801 -0.028404772 -0.11639197 0.06630177 0.07793198 -0.030039126
-0.028991953 -0.051465098 0.031422548 -0.041432027 0.013406288 0.092218876 -0.0583913 -0.07209661
-0.04832276 -0.104085565 0.098936595 -0.0070585166 0.116279274 0.015009069 0.019358087 -0.040996786
0.068334885 0.14057502 -0.033677716 -0.10462332 -0.14245994 0.0860533 0.015316296 -0.12173336
0.073841214 0.04858528 0.008823393 0.010495976 0.020150587 0.07110188 -0.049265392 -0.05748705
-0.06740096 -0.062384184 0.020552116 0.04835227 0.06180538 -0.0265075 -0.14433236 0.034901053
