model/6461.3243224589805_weight.pth (torch, 57103 bytes, 7 tensors)

weight f4 [16, 32, 1]
0	0x3e1d2a61	0.15348198
1	0x3d9f0079	0.07763762
2	0x3e152bbb	0.14567463
3	0xbd0392ca	-0.03212241
4	0x3cef5d4d	0.029219294
5	0x3e3b0e5c	0.18267196
6	0xbe42790f	-0.18991493
7	0xbc90b01b	-0.017662099
8	0x3c50d9e0	0.012747258
9	0xbe27fc75	-0.16404898
10	0x3e134134	0.14380342
11	0x3e02c311	0.12769724
12	0xbcc243ab	-0.023713907
13	0xbdef9927	-0.11699133
14	0xbe720e71	-0.23638321
15	0xbe6b6590	-0.22987962
16	0xbe2799f1	-0.16367318
17	0x3bf0a642	0.007344038
18	0x3dab0e41	0.08352328
19	0xbca2327a	-0.01979946
20	0xbea2e40a	-0.31814605
21	0xbe182e66	-0.1486145
22	0xbe0afaf0	-0.13572288
23	0x3d89b9fd	0.067249276
24	0x3e3daf54	0.18523914
25	0xbda8348a	-0.08213146
26	0xbe11a36e	-0.142225
27	0xbde6000a	-0.11230476
28	0x3d865b4d	0.06560383
29	0xbd3f9c49	-0.046779905
30	0x3d9c9e0c	0.076473325
31	0x3da4dc31	0.08049811
32	0x3a91c7e7	0.0011122198
33	0xbe84f3b0	-0.2596717
34	0xbe14099b	-0.14456789
35	0xbdb21e80	-0.08697224
36	0x3d2b362f	0.04179972
37	0xbc41d818	-0.011831306
38	0x3dd8929a	0.10574837
39	0xbda7ed78	-0.081995904
40	0xbd3949f4	-0.045236543
41	0xbd8e1ddf	-0.06939291
42	0x3e0883ce	0.1333153
43	0xbd53550c	-0.05159478
44	0xbd914adf	-0.07094359
45	0xbd97e7d9	-0.07417268
46	0x3d67c3dc	0.05658327
47	0xbe0a4021	-0.13501026
48	0x3e46dc06	0.1941987
49	0x3c83b7b4	0.016078807
50	0xbc330c15	-0.010928174
51	0x3c7cf9dc	0.0154404305
52	0xbdfc02c6	-0.123052165
53	0x3e539501	0.20662309
54	0x3e1a670a	0.15078369
55	0xbc5d8d69	-0.013522484
56	0x3e11ac36	0.1422585
57	0xbe19299c	-0.14957279
58	0xbdae32dd	-0.08505795
59	0xbe3c4b34	-0.18388063
60	0xbc06adaf	-0.00822012
61	0x3e4d65a0	0.20058298
62	0x3d4c64a1	0.049900655
63	0x3d96efc4	0.073699504
64	0xbe48fa85	-0.19626816
65	0x3cdaf15b	0.026726415
66	0xbe3aa5dd	-0.18227334
67	0xbe4e035e	-0.20118472
68	0xbd6845a6	-0.056707047
69	0x3d9b63e7	0.07587414
70	0x3d9d4147	0.07678466
71	0xbe1a8943	-0.15091424
72	0x3d53e38f	0.05173069
73	0xbe2bde92	-0.16784123
74	0xbded2dbd	-0.115809895
75	0xbe06b6d1	-0.13155676
76	0x3d233441	0.039844755
77	0x3e253001	0.16131593
78	0xbd3a42c1	-0.045473818
79	0x3d127e85	0.03576519
80	0x3dd260a2	0.102723375
81	0x3d1984a0	0.037479997
82	0x3d5a8b9b	0.053355794
83	0x3d8e17a5	0.069381036
84	0xbd6b84a3	-0.05749954
85	0x3e47d2c5	0.19513996
86	0xbe335067	-0.1751114
87	0xbda1a42b	-0.07892641
88	0x3ca696b7	0.020335538
89	0xbdf7340e	-0.120704755
90	0x3cc5a313	0.024125611
91	0xbe2c42e9	-0.16822399
92	0x3d2af863	0.041740786
93	0x3e0c3086	0.13690385
94	0xbbf7a5c7	-0.007557604
95	0x3dbf67ed	0.09345994
96	0x3de96617	0.11396425
97	0x3d22cfc2	0.039748915
98	0x3e7814f7	0.24226747
99	0xbdc95374	-0.098303705
100	0x3e2e7239	0.1703576
101	0xbe027dde	-0.12743327
102	0xbd738ac7	-0.05945852
103	0x3e04a37b	0.12952988
104	0xbdbe46ea	-0.092908695
105	0x3e31b213	0.17353086
106	0xbd122d0f	-0.035687502
107	0x3db7a3fc	0.089668244
108	0x3d346ddc	0.044050083
109	0x3e09c768	0.13454974
110	0xbd93a8ce	-0.07209931
111	0xbd4bdc4d	-0.049770642
112	0xbb5cd2f1	-0.0033695067
113	0x3bb4b619	0.005514872
114	0x3d041492	0.03224618
115	0x3e40a89c	0.1881432
116	0x3e3c568e	0.18392393
117	0x3d48f6ed	0.04906361
118	0x3e542b4e	0.20719644
119	0x3dbe3e9a	0.09289284
120	0x3d33cd4d	0.043896962
121	0xbd9c2030	-0.07623327
122	0xbe55d5cf	-0.20882343
123	0x3d0b434a	0.03399972
124	0x39277ae0	0.00015972136
125	0x3d8d1510	0.06888783
126	0xbde22427	-0.11042052
127	0x3dc54a4f	0.09633314
128	0x3e89f0e0	0.26941586
129	0x3e920c76	0.28525132
130	0x3e87b13e	0.26502413
131	0xbc4a0c7e	-0.01233208
132	0x3d0452c8	0.03230551
133	0x3d819621	0.06327463
134	0xbd865842	-0.065598026
135	0x3ca8dbaa	0.020612556
136	0xbe143435	-0.1447304
137	0x3d779432	0.060444064
138	0x3c6f9ce6	0.01462481
139	0x3dd7e25f	0.10541224
140	0xbd942817	-0.07234209
141	0xbe2254e9	-0.15852703
142	0x3e1a1299	0.15046157
143	0x3e106c82	0.14103892
144	0x3ccc6ad1	0.024953278
145	0x3e0f8e9d	0.14019246
146	0xbd62db0b	-0.055384677
147	0xbbfe273c	-0.007756142
148	0xbd66c594	-0.05634077
149	0x3dc782ad	0.09741721
150	0x3dca0b9f	0.09865498
151	0x3d1e7a9e	0.038691156
152	0x3df4b1a6	0.11947946
153	0xbde44578	-0.111460626
154	0xbd019a63	-0.031641375
155	0x3d79224c	0.060823724
156	0xbdf25ad7	-0.118337326
157	0x3a249bd6	0.0006279325
158	0xbdb3434b	-0.087530695
159	0xbcff9dab	-0.031203112
160	0xbd4173ed	-0.047229696
161	0xbe726306	-0.23670587
162	0xbe83bcec	-0.25730073
163	0xbde7bd0c	-0.11315355
164	0x3ddebf17	0.10876291
165	0x3d81841d	0.06324027
166	0x3e2ff8f6	0.17184815
167	0x3d72e4bd	0.059300173
168	0xbd174ab3	-0.036936473
169	0xbd8407ea	-0.06446822
170	0x3dacab11	0.08431066
171	0x3cecacaf	0.028890936
172	0x3c32b19e	0.010906605
173	0xbd888fb9	-0.06668038
174	0xbde4aaa3	-0.11165359
175	0xbe046ceb	-0.12932174
176	0x3c916ff7	0.017753584
177	0x3d4c81e3	0.049928557
178	0x3de150c1	0.11001731
179	0xbe102752	-0.140775
180	0xbe60ca56	-0.21952185
181	0xbd1153bb	-0.035480242
182	0xbc5838e0	-0.013197154
183	0x3cf1465b	0.029452493
184	0x3e23e93a	0.16006938
185	0xbdc1f165	-0.094698705
186	0x3e358c92	0.17729405
187	0x3cdeb479	0.027185665
188	0xbdfb6ea3	-0.12276962
189	0xbda7590e	-0.08171283
190	0xbdc8a234	-0.09796563
191	0xbd246924	-0.040139332
192	0x3e766e2f	0.24065469
193	0x3d117180	0.035508633
194	0xbd59b7a4	-0.05315365
195	0xbe0f4eb2	-0.13994864
196	0xbcfeaef2	-0.03108928
197	0x3cda5ab4	0.026654579
198	0x3d978d7c	0.07400033
199	0x3d042cd1	0.032269303
200	0x3e1c0b4c	0.15238684
201	0xbdabf964	-0.08397177
202	0x3d234cc8	0.039868146
203	0xbbdf28b1	-0.0068102707
204	0x3da74bbc	0.08168742
205	0x3deadfe8	0.11468488
206	0x3e39d6df	0.18148373
207	0x3c54fda0	0.012999922
208	0x3ca52bcb	0.020162484
209	0xbd424463	-0.0474285
210	0x3e381b8a	0.17979255
211	0x3e29c99b	0.16580813
212	0xbdb14a11	-0.08656705
213	0xbe169e2f	-0.1470878
214	0xbdfc1f22	-0.123106256
215	0xbe32ecf3	-0.17473201
216	0xb877b5ec	-5.9058817e-05
217	0x3df2c14e	0.11853276
218	0x3df29c76	0.11846249
219	0x3d73c4d2	0.059513874
220	0x3d9b8c30	0.07595098
221	0xbd79fab0	-0.06103009
222	0x3e3674ca	0.17817989
223	0x3e2b0c55	0.16703923
224	0xbd4496ef	-0.047995504
225	0x3e384ecc	0.17998809
226	0x3e2e71f9	0.17035665
227	0xbe47a30a	-0.19495788
228	0xbc134993	-0.008989709
229	0xbb9fe4a7	-0.0048795524
230	0x3dc34978	0.095354974
231	0xbe3a04d3	-0.18165903
232	0xbc893cd0	-0.01675263
233	0x3e05498d	0.13016339
234	0x3dd990f7	0.10623353
235	0x3d3e9d78	0.046536893
236	0x3d558cae	0.052136116
237	0xbe152dfd	-0.14568324
238	0x3d0ca573	0.034337472
239	0x3df37bf1	0.11888874
240	0xbcd089e1	-0.02545637
241	0xbdb19349	-0.086706705
242	0xbd61d9e6	-0.055139445
243	0xbe02e9a0	-0.12784433
244	0x3dbdacf4	0.09261504
245	0x3dde23c0	0.108466625
246	0xbdb03951	-0.08604682
247	0x3d7d6f2d	0.061873604
248	0xbdd16ea5	-0.10226182
249	0x3d8b0db1	0.06789721
250	0xbd0f5336	-0.034991466
251	0xbdda08fd	-0.10646246
252	0xbe005aaf	-0.12534593
253	0xbdf92636	-0.12165491
254	0x3c807672	0.01568148
255	0xbc2c9f19	-0.010535979

bias f4 [16]
0	0xbe117389	-0.1420423
1	0xbd95b3f7	-0.07309716
2	0x3e1331a7	0.1437441
3	0xbbdac8f9	-0.00667679
4	0xbcd11266	-0.025521468
5	0x3bf42355	0.007450501
6	0xbc5358f4	-0.012899626
7	0x3e25a171	0.16174866
8	0x3db5ae54	0.08871141
9	0xbe2af9b2	-0.16696814
10	0x3e0cb285	0.13739975
11	0xbb70a141	-0.0036717209
12	0xbde100f3	-0.10986509
13	0x3d91c741	0.07118083
14	0xbda0bd0e	-0.07848559
15	0x3d4656f7	0.04842278

weight_ih_l0 f4 [192, 16]
0	0x3d0848ad	0.033272434
1	0x3cd06620	0.025439322
2	0x3e0d3244	0.13788706
3	0xbda15d68	-0.07879144
4	0x3dae9b47	0.085257106
5	0x3e094961	0.13406898
6	0x3cdb5b97	0.026777072
7	0x3e21344f	0.1574261
8	0x3e064102	0.13110736
9	0xbe13036e	-0.14356777
10	0xbda7d9e6	-0.08195858
11	0xbd328637	-0.04358503
12	0x3e03ae52	0.12859467
13	0xbdacf9a1	-0.084460504
14	0x3d01e9e5	0.0317172
15	0xbe388630	-0.18019938
16	0xbaed5894	-0.0018108063
17	0x3db99c9c	0.09063074
18	0xbd7beabb	-0.061503153
19	0xbe1581de	-0.14600322
20	0xbc4f6ea1	-0.012660653
21	0xbd663cf2	-0.056210466
22	0xbdd58c0a	-0.10427101
23	0x3de7358c	0.1128951
24	0xbdb2b526	-0.087259576
25	0x3d9b7104	0.075899154
26	0xbdc335d0	-0.09531748
27	0x3e1b5029	0.15167297
28	0x3b89dd51	0.004207291
29	0x3e17ed95	0.14836724
30	0xbde61a8b	-0.112355314
31	0x3d9609eb	0.073261105
32	0xbe1acdb6	-0.15117535
33	0x3e678477	0.22609125
34	0x3e2d8ff7	0.1694945
35	0xbdfd27fc	-0.12361142
36	0xbdf3a182	-0.118960395
37	0x3e261650	0.16219449
38	0xbc07a722	-0.008279594
39	0xbdd9f5d2	-0.1064259
40	0x3e0462c8	0.12928307
41	0x3dbd3e4d	0.092403986
42	0x3e19b616	0.15010867
43	0x3e0ca038	0.13732994
44	0x3d8d9510	0.06913197
45	0x3e6350df	0.22198819
46	0xbdc8493d	-0.09779594
47	0xbe3ff5e0	-0.18746138
48	0xbdd766c4	-0.10517648
49	0xbd222057	-0.039581623
50	0xbd0bab3f	-0.03409886
51	0xbe182bf4	-0.14860517
52	0x3d232f33	0.039839935
53	0xbdc3e97c	-0.09566018
54	0x3df38e0f	0.1189233
55	0xbcb2cd7e	-0.021826502
56	0x3daecfc2	0.085357204
57	0x3d26a957	0.04068884
58	0x3e0725c2	0.13197997
59	0xbd30df70	-0.043181837
60	0xbcac1655	-0.021006742
61	0x3e437fec	0.19091767
62	0x3d4aeec3	0.049544107
63	0xbdbdb36c	-0.09262738
64	0x3ca55ba9	0.020185309
65	0x3d0c358e	0.03423076
66	0xbd8acc1f	-0.06777214
67	0xbd255f79	-0.040374253
68	0xbd8bbdfe	-0.068233475
69	0xbd02f5ac	-0.031972572
70	0xbdf01417	-0.11722582
71	0x3cbbad3c	0.022909753
72	0xbd040952	-0.03223545
73	0xbcfe60bf	-0.031051992
74	0x3e1bb4e6	0.15205726
75	0x3da27057	0.079315834
76	0xbd92e56e	-0.071726665
77	0x3bdbe9a8	0.0067112036
78	0xbd73dd32	-0.05953712
79	0xbd4810fd	-0.048844326
80	0x3c8ff044	0.017570622
81	0x3daf74b9	0.08567185
82	0x3d13432f	0.035952743
83	0xbdc5685f	-0.09639048
84	0xbd958134	-0.07300034
85	0x3e179811	0.14804102
86	0xbc839a24	-0.01606471
87	0xbd4c2319	-0.04983816
88	0x3dd8c113	0.10583701
89	0xbdff038a	-0.12451847
90	0x3e3dbef4	0.18529874
91	0x3e15723a	0.14594355
92	0xbe2f3330	-0.1710937
93	0x3e6d5a0e	0.23178884
94	0xbd7587cd	-0.059943963
95	0xbd9dfac6	-0.07713847
96	0xbe0e729f	-0.13910912
97	0xbd9e5894	-0.07731739
98	0xbdace5d8	-0.08442277
99	0xbdfc9696	-0.123334095
100	0xbe17d78b	-0.14828317
101	0x3e5af731	0.21383359
102	0x3d996b7b	0.074912034
103	0xbe18e642	-0.14931586
104	0x3dcafae9	0.099111386
105	0x3dd10b07	0.102071814
106	0x3d7979c7	0.06090715
107	0x3d34634f	0.04404002
108	0x3d7a4c53	0.061107945
109	0x3e096c83	0.134203
110	0x3da3fec3	0.08007576
111	0xbd8fb411	-0.07016767
112	0x3b760e75	0.0037545238
113	0xbcf95a34	-0.03043852
114	0x3e0d1345	0.13776882
115	0xbe0f68b5	-0.14004786
116	0xbcccc574	-0.024996497
117	0x3dccc134	0.09997788
118	0xbdeaa51f	-0.114572756
119	0xbc2ae158	-0.010429703
120	0x3dd1f1ef	0.10251223
121	0xbde5ac7a	-0.11214538
122	0xbd98e9a5	-0.07466439
123	0xbbc048ff	-0.005868077
124	0x3db1970f	0.0867139
125	0x3bc0d79a	0.0058850767
126	0x3ce103eb	0.027467689
127	0x3c96b878	0.018398508
128	0x3bcf1d07	0.006320599
129	0x3d93fa57	0.07225483
130	0x3d2bb607	0.04192164
131	0xbda7a2dd	-0.081853606
132	0x3e1bf5b5	0.15230449
133	0xbd77ece7	-0.060528662
134	0x3e01e081	0.12683298
135	0x3d88d9b1	0.06682146
136	0xbe3a7c46	-0.18211469
137	0xbd607626	-0.054800175
138	0xbe0021ed	-0.12512942
139	0xbe14692d	-0.14493246
140	0xbd4eb766	-0.05046787
141	0xbd188671	-0.03723759
142	0x3a5004ea	0.00079353026
143	0x3e1afa28	0.1513449
144	0xbddc00d7	-0.10742348
145	0x3d57e495	0.052708227
146	0xbcf7c93f	-0.030247329
147	0x3dbd7744	0.09251264
148	0x3c5c42d0	0.013443664
149	0xbd83d1fb	-0.06436535
150	0x39aabae4	0.0003256417
151	0xbd10fa92	-0.035395212
152	0xbc85cab5	-0.01633201
153	0xbc1a35da	-0.009412253
154	0x3dd4dafd	0.10393331
155	0x3ddff746	0.109358355
156	0xbe1e8c24	-0.15483147
157	0x3dd07b57	0.10179775
158	0xbd3f56ea	-0.046713747
159	0xbdab7c05	-0.08373264
160	0xbd9504a4	-0.07276276
161	0xbd797f20	-0.06091225
162	0xbd9b8d87	-0.075953536
163	0xbd2ee121	-0.04269517
164	0x3ccd2b26	0.025044989
165	0xbcc0e5ea	-0.023547132
166	0xbcb695f8	-0.022288308
167	0x3d55e0cb	0.052216332
168	0x3e1482ba	0.14502993
169	0x3db8477f	0.08998012
170	0x3e0f3d13	0.13988142
171	0x3d8146b0	0.06312311
172	0x3db54f96	0.088530704
173	0x3e18e19f	0.14929818
174	0x3ddb5a03	0.10710528
175	0xbc8858c0	-0.016643882
176	0xbd625581	-0.055257324
177	0x3e25a26c	0.1617524
178	0x3d622300	0.05520916
179	0xbd7ce652	-0.061743088
180	0xbe27a3e2	-0.1637111
181	0xbd055c6c	-0.032558843
182	0xbdc22c24	-0.094810754
183	0xbe03dc44	-0.12876993
184	0x3d4bb3bf	0.049731966
185	0xbca965dd	-0.020678455
186	0x3e500dfe	0.20317838
187	0x3d5050ad	0.05085819
188	0x39bb6f57	0.00035750374
189	0x3e23ea78	0.16007411
190	0x3d8929b2	0.06697406
191	0xbd3886c7	-0.04505041
192	0xbe55d566	-0.20882186
193	0x3defae8f	0.11703216
194	0x3b30a345	0.0026952785
195	0x3dc7cef2	0.097562686
196	0xbd974bbe	-0.073874936
197	0x3d5a6bba	0.053325392
198	0xbc372fdb	-0.011180843
199	0xbd0ed842	-0.03487421
200	0x3cb1fdb9	0.02172743
201	0x3da55888	0.080735266
202	0x39ce1773	0.00039308853
203	0x3e2720c0	0.16321087
204	0xbd9980f1	-0.07495297
205	0x3ded22d6	0.1157891
206	0x3e0d055f	0.1377158
207	0xbd805a73	-0.06267252
208	0xbdc91f87	-0.098204665
209	0x3e19e638	0.15029228
210	0x3dcbe831	0.09956396
211	0xbd304e6d	-0.043043543
212	0xbdda9c24	-0.10674313
213	0x3d0a0acb	0.0337017
214	0x3dda9ece	0.10674821
215	0x3dbf326a	0.093357876
216	0x3b6d7178	0.0036230963
217	0x3cdf1ae0	0.027234495
218	0xbdcd1f4b	-0.10015734
219	0x3e1e49c5	0.15457828
220	0xbd1acaae	-0.037790947
221	0x3dd3bbfd	0.1033859
222	0xbcd2ee75	-0.02574847
223	0xbdddedab	-0.10836347
224	0xbe5ecb5a	-0.2175726
225	0x3dba9926	0.09111242
226	0x3e47272e	0.1944854
227	0x3d3748c8	0.044747144
228	0xbe1706ee	-0.14748737
229	0x3cd96dbe	0.026541587
230	0x3daec6ef	0.08534037
231	0xbddc84bb	-0.10767504
232	0x3e034671	0.1281984
233	0xbc631aef	-0.013861402
234	0xbcc49deb	-0.024001082
235	0xbcee87a9	-0.029117422
236	0x3dbe411b	0.09289762
237	0x3e4800ed	0.19531603
238	0x3e2acaf5	0.16678984
239	0x3d473f3b	0.048644286
240	0xbdbab950	-0.09117377
241	0xbcc62ec6	-0.024192225
242	0x3d61fa64	0.05517043
243	0xbdb7911d	-0.08963225
244	0x3d2f1361	0.04274309
245	0x3dedc8c4	0.11610559
246	0x3da63103	0.08114817
247	0xbcd860bf	-0.02641332
248	0xbd9b4bf9	-0.0758285
249	0x3d939586	0.07206254
250	0xbdf538b5	-0.11973707
251	0xbcf67b3f	-0.030088065
252	0x3e12b4b7	0.1432675
253	0xbdad286f	-0.08454978
254	0xbdaa8cca	-0.08327635
255	0xbd9bd869	-0.07609636

weight_hh_l0 f4 [192, 48]
0	0x3d6e75cb	0.058217805
1	0xbd77eb4e	-0.06052714
2	0xbdde4f98	-0.10855025
3	0xbd8b39d9	-0.06798143
4	0x3b8278c3	0.003981681
5	0xbdc0cd94	-0.09414211
6	0x3db7720b	0.08957299
7	0xbddced88	-0.10787493
8	0xbe0c1aa7	-0.13682042
9	0x3df2f73e	0.11863564
10	0x3d82f0b8	0.0639357
11	0xbe082c4f	-0.13298152
12	0xbdcce2c4	-0.100041896
13	0xbdd29603	-0.10282519
14	0xbc073305	-0.00825191
15	0x3d8ac2f7	0.06775468
16	0x3dec1cd2	0.115289345
17	0xbd8e4e07	-0.06948476
18	0x3c668564	0.014069889
19	0x3d48c859	0.04901919
20	0xbdde21a0	-0.10846257
21	0x3d04c52c	0.0324146
22	0x3d0f4369	0.034976397
23	0xbddc6af0	-0.10762584
24	0xbdf5f9ec	-0.120105594
25	0x3da0b568	0.078471005
26	0x3d3ef57e	0.04662084
27	0x3e0debdc	0.13859504
28	0x38bc4380	8.9771114e-05
29	0x3de96f69	0.11398203
30	0x3c7e5298	0.015522622
31	0xbd665952	-0.056237526
32	0x3e0487ba	0.129424
33	0xbd3961ea	-0.045259394
34	0xbd99908b	-0.074982725
35	0x3d4a9c7d	0.049465645
36	0x3db87cf8	0.09008211
37	0xbddfccb9	-0.109277196
38	0xbdabe73c	-0.08393714
39	0x3d8214be	0.063516125
40	0xbde9e491	-0.11420549
41	0x3d88cb2f	0.06679379
42	0xbdf96d89	-0.12179095
43	0x3d9865f3	0.0744132
44	0x3d6900e1	0.056885604
45	0x3d7801da	0.06054864
46	0x3d984d72	0.074366465
47	0xbdc1a023	-0.09454372
48	0x3d619675	0.055075128
49	0x3dfc14f6	0.123086855
50	0x3c6f2307	0.0145957535
51	0xbd99a261	-0.075016744
52	0x3d0c4383	0.03424407
53	0xbddf7e1c	-0.10912725
54	0xbe05731c	-0.13032192
55	0xbbda307f	-0.006658613
56	0xbde1ffd0	-0.110351205
57	0x3ca03338	0.019555673
58	0xbdb71fb5	-0.089415945
59	0x3da3a754	0.079909
60	0x3d1ce8f9	0.038308118
61	0xbde31b4c	-0.11089191
62	0x3b9e81b3	0.0048372387
63	0x3d9d7d21	0.07689882
64	0xbcd47d70	-0.02593872
65	0xbde677fc	-0.11253354
66	0xbe2b7915	-0.16745408
67	0xbe3a8252	-0.18213776
68	0x3d40356f	0.04692596
69	0xbb4d7c29	-0.0031354523
70	0xbda76751	-0.08174003
71	0x3d3a44ae	0.045475654
72	0xbc2d5bb0	-0.010580942
73	0x3d1a4e4c	0.037672326
74	0xbe085626	-0.13314113
75	0x3ded3688	0.11582667
76	0xbde04d08	-0.109521925
77	0x3de65f28	0.11248618
78	0xbda2c06d	-0.079468586
79	0xbd62b195	-0.055345137
80	0x3de9394e	0.11387883
81	0x3d25a6c6	0.04044225
82	0xbd51202b	-0.05105607
83	0x3d89d0bc	0.06729266
84	0xbdc3474e	-0.09535085
85	0xbded60cf	-0.115907304
86	0x3d316ad2	0.043314762
87	0xbe1140e0	-0.14184904
88	0x3ce63faa	0.02810653
89	0x3adcc3ae	0.0016842985
90	0x3dc084ff	0.09400367
91	0xbe2dd6c0	-0.16976452
92	0xbdced3dc	-0.10099003
93	0x3c65b2a0	0.014019638
94	0x3dbb5462	0.09146954
95	0x3d70f1b8	0.05882427
96	0xbddc2948	-0.10750061
97	0xbcda04d3	-0.026613628
98	0x3e033aab	0.12815349
99	0xbe09d7ff	-0.13461302
100	0x3d95d9fd	0.073169686
101	0x3e2b82f9	0.16749181
102	0x3d2ccc02	0.042186745
103	0x3d0655b3	0.032796573
104	0x3df29eae	0.11846672
105	0x3cebb2d5	0.028771797
106	0xbd059d47	-0.032620694
107	0x3e1963d7	0.14979492
108	0xbd915738	-0.07096714
109	0xbd88292f	-0.0664848
110	0x3d3911f7	0.04518315
111	0x3d5c9b33	0.053858947
112	0xbe06c8c7	-0.13162528
113	0xbc2ffa53	-0.010740834
114	0xbd5542b5	-0.05206557
115	0x3c200ccd	0.009768677
116	0x3e0a6408	0.13514721
117	0x3d7c62c7	0.06161764
118	0xbdf8be4f	-0.121456735
119	0x3df3648c	0.11884412
120	0xbd95c83d	-0.07313583
121	0x3d061fe0	0.032745242
122	0xbde49771	-0.11161698
123	0x3c84d1cc	0.01621332
124	0xbd373302	-0.04472638
125	0x3d3891a9	0.045060787
126	0xbd896404	-0.067085296
127	0xbc3c4e09	-0.011493214
128	0x3d3b2816	0.045692526
129	0x3d47a666	0.048742674
130	0xbb7ddc99	-0.0038736223
131	0xbd93212c	-0.071840614
132	0xbdeb553e	-0.11490868
133	0xbe109323	-0.14118628
134	0x3cc6fa5b	0.0242893
135	0x3d8c46b4	0.06849423
136	0x3e0b621f	0.13611649
137	0xbd2e89b9	-0.04261181
138	0xbd55f1bd	-0.052232493
139	0x3c1365cb	0.008996437
140	0x3c660029	0.014038124
141	0x3ddad5b3	0.10685291
142	0x3daae6fc	0.08344838
143	0x3d6171ca	0.05504016
144	0xbdc5a588	-0.09650713
145	0xbd610fb5	-0.05494662
146	0x3cf08d7c	0.02936434
147	0x3d8341cf	0.06409036
148	0x3d69ad6d	0.057050157
149	0xbd81ef25	-0.06344441
150	0x3dae5a55	0.08513323
151	0xbd227e0c	-0.03967099
152	0xbe0f29c6	-0.13980779
153	0xbdc2af07	-0.0950604
154	0x3b70d215	0.0036746312
155	0xbd1ffac6	-0.039057516
156	0x3b6e7987	0.0036388354
157	0x3cdad9c9	0.026715176
158	0x3d9c1d63	0.076227926
159	0x3c1ef598	0.009702109
160	0x3d3d6399	0.04623756
161	0xbc30728a	-0.010769496
162	0xbd79cfad	-0.06098907
163	0xbdbd7792	-0.09251322
164	0x3d55af03	0.052168857
165	0x3e095d7c	0.13414568
166	0xbcf7608b	-0.030197402
167	0xbd8ded91	-0.06930078
168	0xbda215e4	-0.079143316
169	0xbc624735	-0.013810922
170	0x3ca089e4	0.019597001
171	0xbdbc0df9	-0.091823526
172	0x3dc52c86	0.09627633
173	0xbe15c0e5	-0.14624365
174	0x3dce8271	0.100834735
175	0x3d614fa1	0.05500758
176	0xbd9b9edb	-0.07598659
177	0xbdfbe97c	-0.12300393
178	0x3bb01a5f	0.0053742374
179	0xbe24bae2	-0.16086915
180	0xbd391bb1	-0.045192424
181	0xbc2cde7e	-0.010551093
182	0x3d2a3e59	0.041563366
183	0x3dbc4cd5	0.09194342
184	0xbdeac474	-0.11463252
185	0xbd4339c8	-0.047662526
186	0xbe1636ab	-0.14669292
187	0x3de7a6ea	0.11311133
188	0x3d441a44	0.04787661
189	0xbdc59bdd	-0.09648869
190	0xbb3c10de	-0.0028696577
191	0x3d9c37bc	0.07627818
192	0x3de700e3	0.11279466
193	0x3d4119cc	0.047143742
194	0x3e0088f7	0.12552248
195	0xbdd6dd54	-0.10491434
196	0x3d0c7bcb	0.034297746
197	0x3ded6c99	0.11592979
198	0xbd1ac284	-0.03778316
199	0x3cbb5a6e	0.022870269
200	0x3e07e8fc	0.1327247
201	0x3dc7bf16	0.097532436
202	0xb93ae473	-0.00017823446
203	0x3c959dac	0.01826366
204	0xbde9df0f	-0.11419498
205	0x3ddad4ae	0.10685097
206	0x3de792bc	0.11307284
207	0xbae99d00	-0.0017823279
208	0xbdc01443	-0.093788646
209	0x3dbd0a54	0.092304856
210	0xba9265f3	-0.0011169299
211	0xbdc6ad34	-0.097010046
212	0xbd37080b	-0.044685405
213	0x3d40c65d	0.047064174
214	0xbdac186b	-0.08403095
215	0xbdc5705b	-0.09640571
216	0x3e0b6e6a	0.13616338
217	0x3dbb2e06	0.09139638
218	0xbcf6763c	-0.030085675
219	0xbe08a9a4	-0.13345963
220	0xbde07622	-0.10960032
221	0xbdcf9ccc	-0.101373285
222	0xbcbb14b2	-0.022837017
223	0x3e031533	0.12801056
224	0x3e0fed0b	0.14055268
225	0xbd3fae3b	-0.04679702
226	0x3d2d223b	0.042268973
227	0xbb869a50	-0.004107751
228	0xba7d3ff9	-0.0009660717
229	0x3ab4fae4	0.0013807681
230	0xbd65ed67	-0.056134608
231	0x3d87c51a	0.06629391
232	0xbc206cd5	-0.009791573
233	0xbbb2b4ca	-0.0054536806
234	0x3d823868	0.06358415
235	0xbdcb5d19	-0.09929866
236	0x3dc7c938	0.09755176
237	0x3e1a6067	0.15075837
238	0xbd8b7758	-0.068098724
239	0x3d4b3be2	0.049617656
240	0x3d4a1382	0.04933501
241	0xbd67be8e	-0.05657821
242	0xbe31ef66	-0.1737648
243	0x3e256c3c	0.1615457
244	0x3cbc4433	0.022981739
245	0xbd98c9fa	-0.07460399
246	0xbc554ff4	-0.013019551
247	0x3d88a26a	0.06671603
248	0xbe306789	-0.17226996
249	0x3d4aa40c	0.049472854
250	0x3d91b972	0.07115449
251	0xbe03822f	-0.1284263
252	0xbc7a594b	-0.015280078
253	0x3d357807	0.04430392
254	0x3d2184c2	0.03943325
255	0x3b98e9f9	0.0046665636

bias_ih_l0 f4 [192]
0	0xbcec631d	-0.028855855
1	0x3d31a49f	0.043369886
2	0xbc25676e	-0.01009546
3	0x3e145903	0.1448708
4	0xbbc3d353	-0.0059761195
5	0x3ca4cb26	0.0201164
6	0x3d1742e7	0.036929037
7	0x3c87e648	0.016589299
8	0x3cf58c8e	0.029974248
9	0x3ced00ea	0.0289311
10	0xbdbdc555	-0.09266154
11	0x3e5b6cb8	0.21428192
12	0x3dceb38c	0.100928396
13	0xbc189a93	-0.009314197
14	0xbcce22ed	-0.025163138
15	0x3ddab1f3	0.10678472
16	0x3da9d741	0.082930095
17	0x3d815fef	0.06317126
18	0xbdcab34f	-0.09897482
19	0xbbf65155	-0.0075170198
20	0xbca69fcb	-0.020339867
21	0xbc86f9b2	-0.016476486
22	0x3d314cb5	0.043286044
23	0x3d3d5e21	0.046232346
24	0xbdd7a757	-0.105299644
25	0x3e4efd90	0.20213914
26	0xbdad7cab	-0.08471044
27	0x3dc3573b	0.09538122
28	0x3d1544ee	0.03644269
29	0xbd4d450a	-0.05011467
30	0xbc95ede7	-0.018301917
31	0xbd8cbb06	-0.068716094
32	0xbc5355c7	-0.012898869
33	0x3b877eb4	0.0041349772
34	0x3ddc1aaa	0.10747273
35	0x3e061bd3	0.13096552
36	0x3d941d60	0.07232165
37	0x3b494204	0.0030709514
38	0xbd33c218	-0.043886274
39	0x3df6e9d8	0.12056321
40	0x3d005217	0.031328287
41	0xbcd700d5	-0.026245514
42	0x3b85c7ff	0.0040826793
43	0xbd954cac	-0.072900146
44	0xbc8cee09	-0.017203348
45	0xbdd905b9	-0.10596795
46	0x3dacb3ef	0.08432757
47	0xbbbd7f3e	-0.0057829907
48	0xbd9ced13	-0.07662406
49	0xbbb8902b	-0.0056324205
50	0xbd95f41a	-0.07321949
51	0xbdc16216	-0.094425365
52	0xbd75d1d4	-0.06001456
53	0xbe19a640	-0.15004826
54	0x3b9d7265	0.0048048967
55	0xbdc5f84d	-0.096665
56	0xbcad6a60	-0.021168888
57	0x3dac969f	0.08427166
58	0xbb9f5226	-0.004862088
59	0x3d1ab788	0.037772685
60	0xbe0fc807	-0.14041148
61	0xbe53aa02	-0.20670322
62	0xbdd385a2	-0.10328223
63	0x3db9597f	0.09050273
64	0xbcd6bb09	-0.026212232
65	0x3dbc1838	0.09184307
66	0xbe226080	-0.15857124
67	0xbd977fbc	-0.0739741
68	0xbde2c2b2	-0.110722914
69	0xbdb67d3c	-0.08910605
70	0x3da726bf	0.08161687
71	0xbc8a65cc	-0.016894244
72	0xbd6b583e	-0.0574572
73	0xbd8522b5	-0.065007605
74	0x3da0cfcc	0.07852134
75	0xbe37c2b2	-0.17945364
76	0xbdb88ea8	-0.090115845
77	0x3d2d291a	0.042275526
78	0xbd92dbc3	-0.071708225
79	0xbce67a85	-0.028134594
80	0xbdbaaee3	-0.09115388
81	0xbc985012	-0.018592868
82	0xbd9bc684	-0.07606223
83	0x3d96d668	0.073651135
84	0xbd8e9599	-0.06962127
85	0xbd7b178d	-0.061301757
86	0xbe3718d7	-0.1788057
87	0xbddf1a29	-0.108936615
88	0xbd05c1dd	-0.032655586
89	0x3d901bdf	0.07036566
90	0x3d146cdb	0.036236625
91	0x3d5475d2	0.051870175
92	0xbdb318f0	-0.08744991
93	0xbd3c3876	-0.045952283
94	0xbe00b075	-0.12567313
95	0xbd9a3355	-0.07529322
96	0x3d21bcda	0.039486744
97	0x3b9da09e	0.004810407
98	0xbd3a68ec	-0.045510218
99	0xbded5f48	-0.11590439
100	0x3dd06931	0.10176314
101	0xbdb8f318	-0.090307415
102	0xbce87ba9	-0.028379278
103	0xbd145ff1	-0.03622431
104	0x3d0f0114	0.034913138
105	0xbd71cf79	-0.059035752
106	0xbb954222	-0.004555003
107	0x3d3b5204	0.045732513
108	0xbd25bafa	-0.040461518
109	0x3c4f88de	0.012666909
110	0xbe06a74f	-0.1314976
111	0x3dec7bdb	0.11547061
112	0x3daae1e5	0.08343867
113	0xbc93b39e	-0.018029984
114	0x3e121a4e	0.14267847
115	0x3a867b97	0.0010260221
116	0x3d201cb8	0.03908989
117	0xbd95720d	-0.07297144
118	0xbe122945	-0.14273556
119	0xbdbd049d	-0.092293955
120	0x3e1579d7	0.1459726
121	0xbda51bdc	-0.080619544
122	0x3d449081	0.047989372
123	0x3d9e5505	0.0773106
124	0x3dcdf795	0.10056988
125	0x3d5bfeb5	0.053709704
126	0x3ddd131f	0.10794663
127	0xbd9104d2	-0.070809975
128	0x3dc4dd1c	0.09612486
129	0x3d9070d8	0.07052773
130	0xbd8e5a63	-0.06950834
131	0x3c0867e6	0.008325553
132	0xbd147020	-0.036239743
133	0x3e10b48a	0.1413137
134	0xbd95dcc9	-0.07317502
135	0xbd37b7ee	-0.044853143
136	0xbdf49611	-0.119426854
137	0xbdfbb123	-0.122896455
138	0x3d3672dd	0.044543136
139	0xbd94c354	-0.072638184
140	0xbd94909f	-0.07254147
141	0x3dbd3014	0.09237686
142	0xbdf82ea3	-0.1211827
143	0x3cc795c4	0.024363406
144	0xbd3161da	-0.04330621
145	0x3d68b899	0.05681667
146	0xbdb260b6	-0.087098524
147	0x3e1601a1	0.14649059
148	0xbdb4ab8f	-0.08821785
149	0x3ca976fc	0.020686619
150	0x3dcd6bc4	0.1003032
151	0xbe1b9ab1	-0.15195729
152	0x3df3a9fc	0.11897656
153	0x3da4944f	0.080361
154	0x3e0cca31	0.13749005
155	0xbde06cd4	-0.10958257
156	0x3e040296	0.12891611
157	0x3c5f3275	0.01362287
158	0x3df15816	0.11784379
159	0xbe0dbfcf	-0.138427
160	0x3da16689	0.07880885
161	0x3e18ec73	0.14933948
162	0x3cc3928b	0.023873588
163	0xbb84c9ea	-0.0040523903
164	0xbd30f7b2	-0.04320497
165	0xbd96f2ae	-0.07370506
166	0xbd6874a0	-0.056751847
167	0xbdb7f862	-0.08982922
168	0xbd8197d6	-0.063277885
169	0x3c41ab29	0.011820593
170	0x3db5f704	0.08885005
171	0xbdc86162	-0.09784199
172	0x3d764c72	0.060131498
173	0x3e24fa5f	0.16111134
174	0x3d10b324	0.03532709
175	0x3e10d82e	0.14144966
176	0x3c8ec48f	0.01742771
177	0xbde62705	-0.11237911
178	0x3dc9f9ed	0.09862123
179	0xbca988a5	-0.02069504
180	0xbd10e30e	-0.035372786
181	0xbdcea4bd	-0.10090015
182	0x3dae0657	0.08497303
183	0x3e347145	0.17621334
184	0xbdb00989	-0.08595569
185	0xbc93614a	-0.017990727
186	0x3e016590	0.126364
187	0x3d3b1e84	0.0456834
188	0x3d485134	0.048905566
189	0x3cc1717a	0.02361368
190	0x3e11b460	0.14228964
191	0x3e179804	0.14804083

bias_hh_l0 f4 [192]
0	0x3dc6c65e	0.09705804
1	0x3e123f97	0.1428207
2	0x3e25a86c	0.16177529
3	0xbc5a2dc6	-0.013316577
4	0xbd47dc19	-0.048793886
5	0x3d356f2f	0.044295486
6	0x3d3dcd54	0.046338394
7	0xbe1c213c	-0.15247053
8	0xbd374ff1	-0.044753972
9	0xbdcabcd0	-0.098992944
10	0xbddf6f46	-0.109098956
11	0x3e281561	0.16414405
12	0x3e127a7c	0.14304537
13	0xbe13c16f	-0.14429258
14	0x3e2c08b9	0.16800202
15	0x3d11d1db	0.035600524
16	0x3df8efcb	0.12155112
17	0x3cf94811	0.030429872
18	0xbd926b21	-0.071493395
19	0xbd99829d	-0.07495616
20	0x3cb14d52	0.021643315
21	0x3e142791	0.14468218
22	0x3cd7e4cc	0.026354216
23	0x3e06c4a3	0.13160948
24	0x3d1ce0ed	0.038300443
25	0x3e5da180	0.21643639
26	0xbd3f85b3	-0.046758365
27	0xbda7f2de	-0.0820062
28	0x3dc1a132	0.09454574
29	0x3da76162	0.08172871
30	0x3dac16a7	0.08402758
31	0x3ded5874	0.11589137
32	0x3d14f187	0.03636315
33	0x3d610ebd	0.054945696
34	0x3e3ded83	0.18547635
35	0x3e09acdd	0.13444848
36	0xbd8609ec	-0.06544861
37	0xbd901523	-0.070352815
38	0xbd678ba6	-0.056529664
39	0x3e69b0ab	0.228213
40	0x3e24f4a4	0.16108948
41	0xbd9b4311	-0.07581151
42	0x3d958615	0.07300965
43	0x3e19a228	0.15003264
44	0x3e1c67ea	0.15274015
45	0x3b1da5c3	0.00240551
46	0xbd8f3e35	-0.06994287
47	0xbc35a467	-0.01108656
48	0x3cb2c72b	0.021823486
49	0x3d3f30e6	0.046677493
50	0xbe50418a	-0.20337501
51	0x3cfe69be	0.031056281
52	0x3d399cfc	0.045315728
53	0xbd95dcdd	-0.07317517
54	0x3d19757d	0.03746556
55	0x3db93e07	0.09045034
56	0xbe2601f0	-0.16211677
57	0xbe123790	-0.14279008
58	0x3db48ed7	0.08816307
59	0xbe43cc7a	-0.1912097
60	0x3d906469	0.07050402
61	0xbdb038f1	-0.08604611
62	0x3cf63799	0.030055808
63	0x3d3aae7d	0.04557656
64	0xbdd8e96d	-0.105913974
65	0x3d78e764	0.060767546
66	0xbdca859d	-0.09888766
67	0xbe07a5e4	-0.13246876
68	0x3dc32372	0.09528245
69	0x3dc3ecff	0.09566688
70	0x3cc9b41f	0.024622021
71	0x3d0a1302	0.033709534
72	0x3de621d3	0.1123692
73	0xbcdf028e	-0.027222898
74	0x3cbb21eb	0.022843322
75	0x3d656b1b	0.056010347
76	0x3aa11065	0.0012288211
77	0x3d5cacae	0.053875618
78	0xbde43701	-0.11143304
79	0x3d907d72	0.07055177
80	0xbd8bd0bb	-0.068269216
81	0xbcdecce0	-0.027197301
82	0xbdf9fade	-0.12206052
83	0xbe287878	-0.16452205
84	0x3db4ec42	0.08834125
85	0xbd4b74d9	-0.04967198
86	0x3d5c4b71	0.053782884
87	0xbe30ab80	-0.17252922
88	0xbdbac24b	-0.0911909
89	0x3d072970	0.032998502
90	0xbe24dc3e	-0.1609964
91	0xbe0663bd	-0.13123985
92	0xbe0eff70	-0.13964629
93	0x3c7497e6	0.014928794
94	0x3dc9effa	0.09860225
95	0xbd246db0	-0.04014367
96	0x3de725c3	0.11286499
97	0x3cf016ca	0.029307742
98	0xbdaa2156	-0.083071396
99	0xbdf8102f	-0.12112462
100	0x3b8566e8	0.0040711053
101	0xbb263e24	-0.0025366629
102	0x3c8c3a9c	0.01711779
103	0x3db95b5a	0.09050627
104	0xbd7d8488	-0.06189397
105	0xbe0051ad	-0.12531157
106	0x3e023eff	0.12719344
107	0x3d4f8f8a	0.050674
108	0xbe1c8122	-0.15283635
109	0xbd91c41b	-0.07117482
110	0xbe0896f1	-0.1333883
111	0xbd37453f	-0.044743773
112	0x3da90f88	0.082549155
113	0xbe192c9b	-0.14958422
114	0x3de15685	0.110028304
115	0xbdc848a3	-0.09779479
116	0x3e1323cf	0.14369129
117	0x3d941a40	0.07231569
118	0xbd9ceb80	-0.076621056
119	0x3e1ec212	0.1550372
120	0xbd362ac2	-0.04447437
121	0xbd6e50c3	-0.05818249
122	0xbd49aa72	-0.049234815
123	0x3d2a8bbb	0.041637164
124	0xbd9a20b1	-0.07525767
125	0xbe0d60ee	-0.13806507
126	0x3db18080	0.086670876
127	0xbcdcd457	-0.02695672
128	0xbdd8d47e	-0.10587405
129	0xbd95fdb6	-0.07323782
130	0x3da43563	0.08017995
131	0xbd4e4779	-0.05036113
132	0xbd026542	-0.03183485
133	0xbe09b0e6	-0.13446388
134	0x3d87b344	0.06625989
135	0x3c305abd	0.010763821
136	0x3e0780af	0.13232683
137	0xbce4463c	-0.027865522
138	0xbddbbe84	-0.10729697
139	0x3d870531	0.06592787
140	0xbe069e2d	-0.13146277
141	0xbe233d69	-0.15941395
142	0x3db5ba53	0.08873429
143	0x3d97071f	0.07374405
144	0x3d6997cc	0.05702953
145	0xbcd9da6e	-0.026593413
146	0xbdccd714	-0.100019604
147	0x3ca81f7f	0.020522831
148	0xbdb28ed8	-0.087186515
149	0xbd9c9a11	-0.07646573
150	0x3d6da0e3	0.05801476
151	0xbd35a8fe	-0.044350617
152	0xbd076bbe	-0.033061735
153	0x3e237847	0.15963851
154	0xbdc0b4d5	-0.09409491
155	0xbd8de3d2	-0.06928219
156	0x3d376d32	0.04478187
157	0x3d8eb2f3	0.069677256
158	0x3d9ae073	0.075623415
159	0xbdee6621	-0.11640573
160	0x3d39ca47	0.045358922
161	0xbdb241eb	-0.08703979
162	0xbdd22346	-0.10260634
163	0xbdd7b23d	-0.10532043
164	0x3d0a72b8	0.03380081
165	0x3ddab281	0.10678578
166	0xbcfa02b6	-0.03051887
167	0x3c9442ae	0.018098202
168	0xbe1f7b31	-0.15574338
169	0x3d72603e	0.059173815
170	0xbcd5067c	-0.026004069
171	0xbcdcea50	-0.026967198
172	0xbe15232a	-0.14564195
173	0x3dc519b6	0.096240446
174	0x3db50a4d	0.08839855
175	0xbd817cc1	-0.06322623
176	0x3d2f18e5	0.04274835
177	0x3cca27cf	0.024677185
178	0xbc7a1500	-0.015263796
179	0x3d303a10	0.043024123
180	0x3d1124de	0.03543555
181	0x3de92eed	0.113859035
182	0xbdcefd0b	-0.10106858
183	0x3e0fdaf9	0.14048375
184	0x3e064d23	0.13115363
185	0x3dd15844	0.102219135
186	0x3c9fe631	0.019518944
187	0x3aff7e39	0.0019492573
188	0xbd996e3a	-0.07491727
189	0xbdfba0fb	-0.12286564
190	0xbd5c179e	-0.05373346
191	0x3dac7d70	0.08422363

weight f4 [1, 48]
0	0x3e18e59d	0.1493134
1	0xbdce2574	-0.10065737
2	0xbc5e0d9b	-0.0135530485
3	0xbdb8d7e7	-0.09025555
4	0xbd10bf0e	-0.035338454
5	0x3e2a07c9	0.16604532
6	0xbe1e997f	-0.15488242
7	0x3cd1ddc8	0.025618449
8	0xbdba884e	-0.09108029
9	0x3d3ec8dd	0.046578277
10	0xbd5da2a0	-0.05411017
11	0x3d3195e0	0.043355823
12	0x3e2471f6	0.16059098
13	0xbbea8800	-0.0071573257
14	0x3e181adc	0.14853996
15	0x3d46f7f5	0.048576314
16	0x3d838241	0.06421328
17	0xbdcb5fe8	-0.09930402
18	0xbdf3eab4	-0.119100004
19	0x3d40f84d	0.047111798
20	0xbe0b0c6c	-0.13578957
21	0x3e187ea2	0.14892057
22	0x3d528d65	0.051404376
23	0x3d5cf7ec	0.053947374
24	0x3d400a8e	0.046885066
25	0x3d35888e	0.04431968
26	0xbd19ca16	-0.03754624
27	0xbdb61d3f	-0.08892297
28	0xbd52287f	-0.05130815
29	0x3e22a8f3	0.15884762
30	0x3df6a079	0.120423265
31	0x3da101b6	0.078616545
32	0x3de577ba	0.11204477
33	0x3d6b5e62	0.057463057
34	0xbdde748f	-0.108620755
35	0x3e20b1b8	0.15692794
36	0x3de60d37	0.11232989
37	0x3da97c55	0.082756676
38	0x3e0d58b5	0.1380337
39	0xbde8a623	-0.11359813
40	0xbd93d569	-0.07218439
41	0xbe31c613	-0.17360716
42	0x3de37c58	0.11107701
43	0xb9b16356	-0.00033834082
44	0xbe453605	-0.19258888
45	0x3d684e16	0.056715094
46	0x3e04d6bd	0.12972541
47	0xbd01e139	-0.03170893
