model/6755.805207375358_weight.pth (torch, 90511 bytes, 7 tensors)

weight f4 [16, 32, 1]
00000000: d9be 723e 616c ba3d 0e77 1b3e 25f9 f93d
00000010: f400 08be 0edc 123e 374c aa3c 7132 bd3d
00000020: 55a3 5abc 0084 e8bd d3a3 0d3e 7b94 a3bb
00000030: 20a7 0d3e 196b 1f3e 463f 6cbd 781c f63d
00000040: cda0 24be 71ea 08bd 32a6 253c e48c c53d
00000050: 4afd 45bd ef6c 96bc 52b6 8e3b 2b26 9c3c
00000060: 093c f0bd bfc7 1c3e 421b 47bd e1a8 f9bc
00000070: c093 76bd 19f5 fe3d 77fb 503d 889d 973c
00000080: 5473 5a3e dc19 4c3e 542d 1f3e bdd0 043e
00000090: f344 9f3d 6bf2 ca3d 5f2f ebbc 5637 8c3d
000000a0: aa34 f1bc a2ef 1abe 2ab8 303e ce86 4b3e
000000b0: ba72 10be 7957 b4bc bb29 293d 017b 023e
000000c0: 2e16 2e3e 66c4 c2bd a574 0bbe ccf5 5e3e
000000d0: 2827 fe3d 9a79 f03d 5a10 d3bd 869b 833c
000000e0: 4399 883d a14f 32bd 5051 1ebe 6c66 3dbd
000000f0: 9be0 503e 6cd4 febd 5082 bf3d ff61 843d
00000100: de24 55be 2e54 943d 10b9 76bd e52a 323d
00000110: c7bb 00be 29a7 f9bd a379 b03d 721e d4bd
00000120: ccac 9cbd cd6e cabd 8f91 e0bd 1e06 dfbd
00000130: 7cbd c93d 9080 dabd c5b7 543c ab4a 823c
00000140: dc9a 4dbd 1f82 fc3d ec30 023c 1236 91bc
00000150: fc95 fdbd 9f81 d2bd e44b 36be 16f1 413e
00000160: 6ac6 803d 0997 05bd 4286 c9bd bd54 cb3d
00000170: 09a1 263e 6b80 533e 7abc e03d 6aeb cdbb
00000180: a5a6 a0bc 23f4 2c3e 4980 58bc 9b1b 333e
00000190: 1cbb 82bc 5622 823d dd00 f53c e48b dfbd
000001a0: d2c8 edbd 5e58 d3bd 7a2b 21be 21e3 f43d
000001b0: 4c14 3f3e 7348 20bd 835f 51be 6157 03bd
000001c0: a6ca ecbd 214b 01be 92f6 853d 143d 29be
000001d0: 0930 8fbe edb2 cebc d8ef ffbd 9705 31bd
000001e0: 7b6a 503e c89b b3bd cdf5 babc 892b 55bc
000001f0: 607c 3b3e 6e00 39be 8d45 0a3e 1082 e93d
00000200: 2abb 7f3e 2eb5 533e 18c8 443e 4f1c 133e
00000210: 5a27 edbb ac29 1b3e 1119 353e fff1 3d3e
00000220: 3c52 213d 2743 f1bd cf0b d2bd 6bb4 8e3d
00000230: f2c9 14be 3177 603d fc24 673d 5ee3 be3d
00000240: 3d13 29bd b004 febd f642 8abd c416 93bc
00000250: a0b6 95bc 2219 313e 6baa fa3c 42af a5bd
00000260: 16f3 9cbc cafe 313e 0556 26bd 63fd 1dbe
00000270: e45b 2a3e 70dd 1e3e 3c31 a5bd e63e ce3d
00000280: 2052 5f3e d0b7 01bd 8a37 fe3d df42 ef3d
00000290: 4ae0 d13c b3fc cebb 8135 8b3d 4c6d 8b3c
000002a0: 31db 44bd aad8 e0bd 3090 2ebe 641f 0a3d
000002b0: cc3e d4bc a229 fc3d 26b1 7f3d 4a84 ddbd
000002c0: 4857 07be 36d0 d1bc 89b3 3b3e d76e 02bd
000002d0: c518 80bd 4d5c 1ebe edae c8bc 9450 6ebb
000002e0: faa3 f23d dfbf 2bbd 5fd0 413e 317a a33c
000002f0: 297a 0a3d 5a87 07be 81d7 09be a52e 9cbd
00000300: e5ad 9a3e 3c4e 2f3e cc30 803e 45cb 38be
00000310: aef3 d2bd 2ffe 0dbe f605 bc3c 3a2d b73d
00000320: 13de 273e 965a 133e 7a20 28bc aa78 18be
00000330: e937 e6bd 137a 61bd 6dfa 8a3d 8726 2a3c
00000340: cf53 8d3d 955d d1bb 70e8 c33d 47b1 2f3d
00000350: 49ef 0a3e c217 11be 8a0f 07be 452d 6a3d
00000360: a6de f5bd 5792 59bd 9c42 0f3e 7172 c5bd
00000370: 2224 13bd 2640 bbbd a2b7 c83d a5ea ffbd
00000380: a42b 223e c9e8 3e3e 394f 593e 5818 ec3d
00000390: 5f3f 1c3c 5c14 15be 9d60 05be dc11 23be
000003a0: 26d8 dd3d 2049 a1bd 00f9 67bd 918e f1bd
000003b0: 676a a3bd e2c5 b1bd 282b 683d a14d 24be
000003c0: 9fd1 9cbc 5143 643c a0f7 3dbe ee79 993d
000003d0: 30b2 1e3d 6219 16be 1af2 d83c 2ac7 ed3d
000003e0: 78e9 4b3d 6238 b3bc 271b 04be 14bd 36bc
000003f0: 55c1 b53d 989c a9bc fe1c 9ebb 6b7c 02be
0.23705615 0.09102703 0.15182135 0.12205724 -0.13281614 0.14341757 0.020788295 0.092381366
-0.013344605 -0.11353302 0.13832025 -0.0049920655 0.13833284 0.15568198 -0.05767753 0.12017149
-0.16076966 -0.033426706 0.010110425 0.096460134 -0.04833726 -0.01836249 0.0043552304 0.019061169
-0.11730201 0.15310572 -0.04860998 -0.030476036 -0.0601995 0.124490924 0.051021066 0.018507734
0.21333057 0.1993174 0.15544635 0.12970252 0.07776823 0.09909519 -0.028709112 0.06846492
-0.029444057 -0.15130475 0.17257753 0.19875643 -0.14106265 -0.022014366 0.041299563 0.12742235
0.17000648 -0.09510116 -0.13618715 0.21773452 0.12409812 0.11741944 -0.10305853 0.01606537
0.06669857 -0.04353297 -0.15460706 -0.046240255 0.2039818 -0.1244286 0.09351027 0.06464004
-0.20814845 0.072426185 -0.060235083 0.04349794 -0.12571631 -0.121900864 0.0861695 -0.103573695
-0.07650146 -0.09884415 -0.10965263 -0.10889839 0.098505944 -0.106690526 0.012983267 0.015904745
-0.050196514 0.12329506 0.007946234 -0.017725978 -0.12382123 -0.102786295 -0.17802387 0.18939623
0.062878445 -0.03261474 -0.09840061 0.09928272 0.16272368 0.20654456 0.10973449 -0.006284167
-0.019610712 0.16890006 -0.013214179 0.17491 -0.015958361 0.06354205 0.029907638 -0.10915354
-0.11610569 -0.10319589 -0.15739241 0.11957384 0.18660086 -0.039131593 -0.20446591 -0.032065753
-0.115620896 -0.12626316 0.0654117 -0.16527206 -0.27966335 -0.025231803 -0.124969184 -0.04321822
0.20353119 -0.08769947 -0.022822285 -0.013010868 0.18309164 -0.1806657 0.13503094 0.114017606
0.24973741 0.20674583 0.19216955 0.14366268 -0.007237357 0.15152615 0.17685343 0.18549345
0.039385065 -0.117803864 -0.102561586 0.06968006 -0.14530161 0.05480117 0.056431755 0.093207106
-0.041278113 -0.12403238 -0.06751053 -0.017955191 -0.018275559 0.17294744 0.03059884 -0.080900684
-0.019158881 0.1738235 -0.04060938 -0.1542869 0.16636616 0.15514159 -0.08066031 0.10070591
0.21808672 -0.031669438 0.12412937 0.116826765 0.025619645 -0.006316745 0.067973144 0.01701989
-0.0480606 -0.109788254 -0.1704719 0.033721343 -0.02590885 0.12312628 0.0624248 -0.10816248
-0.13216889 -0.025611978 0.18330206 -0.031843986 -0.062547244 -0.15464897 -0.024497474 -0.0036363946
0.11847682 -0.04193103 0.18927144 0.019955726 0.033807907 -0.13235226 -0.13461114 -0.07626084
0.30210796 0.17119688 0.2503723 -0.18046291 -0.103003845 -0.13866495 0.022952061 0.08944173
0.16393308 0.14390025 -0.010261649 -0.1488978 -0.11241133 -0.05504806 0.06786046 0.010385162
0.06900751 -0.0063893297 0.09565818 0.042893674 0.13567843 -0.14169219 -0.13189521 0.05717208
-0.120053574 -0.053118076 0.13990253 -0.096409686 -0.03592313 -0.09143095 0.0980065 -0.12495927
0.1583696 0.18643488 0.21221627 0.11528081 0.009536593 -0.14558548 -0.13025136 -0.15924782
0.10832243 -0.078752756 -0.05663395 -0.117947705 -0.07979279 -0.08680321 0.056681782 -0.16045238
-0.019142924 0.013932065 -0.18551493 0.07493959 0.03874415 -0.1465812 0.02648263 0.11610253
0.0497832 -0.021877471 -0.12900983 -0.011153478 0.08874766 -0.020704553 -0.0048252335 -0.12742774

bias f4 [16]
00000000: bd15 7abd 6846 bd3d 94a2 27be ebb9 38be
00000010: 2424 f1bd 33ee b03c d7c6 b43d 2f12 ed3d
00000020: 3aa8 37be f917 1ebe 0e76 bcbd 389d b03d
00000030: 6d2d 61bd 1fa5 2b3e 8be1 07be 23dc 99bd
-0.061055887 0.092419446 -0.16370612 -0.18039672 -0.117744714 0.021597957 0.08826988 0.11575734
-0.17935267 -0.15438832 -0.09202205 0.08623737 -0.054974962 0.16762207 -0.13269632 -0.07512691

weight_ih_l0 f4 [256, 16]
00000000: 83ba b9bc 10a6 eabd ed90 d93d 42d7 86bd
00000010: ce7a f93c f98d 8dbd 47cc dfbd 94d5 703c
00000020: 06e0 193c 0e0a e03d 4189 143e 5c19 8a3d
00000030: b511 96bc b0fa d43d 044b c2bd 9336 853d
00000040: ebe1 e1bc be9f 08bd f0c5 0e3d bca2 e2bd
00000050: 6299 933d c7f3 9ebc 3f1c 86be 9b12 793d
00000060: 86a0 cabd 9ca3 2e3d da81 303c 0fa2 d6bd
00000070: 75ab 0cbe 233d babc 9cc1 6d3d c062 243e
00000080: aed9 6a3b 882b 6b3d a6eb 3abc 33b3 af3d
00000090: 0525 e83d 8efc c6bd 38e1 133d 271b c4bd
000000a0: 288d 9a3d eba3 eebd 70fa cfbd bd73 a9bd
000000b0: 70c2 a33d 379a 93bd 480f 1fbe ae43 803d
000000c0: f74d 0d3d 0ae8 8cbd a520 963d 2bc5 0bbb
000000d0: 91ae 34be 644f b33c 03dc 4ebe 2da9 b4bd
000000e0: 693f cf3c ca64 a53d 91fe 2cbd 40bb c8bd
000000f0: bb54 9c3c c863 bc3d 557c 163e f328 e73d
00000100: ba0e 1fbd c1f3 923d 362f fd3c d32a 2abd
00000110: 7688 8d3b 1a85 f53c 10ba 31bd c390 12be
00000120: 74d0 b43d d6a0 2ebd 0467 cf3d 6e02 913c
00000130: ca81 17ba 3452 8cbc 029f af3d de23 ac3d
00000140: 1029 023d f3a8 04be 0b47 e8bb cc18 9ebd
00000150: 7aef 8abd 77f0 13be 83c7 ddbd c4ca e1bc
00000160: caad 72bb fe12 11bd ae05 223d 0154 903d
00000170: 0843 c4bd 31ce a33d 681c 86bd d233 4f3d
00000180: dcb5 b73c 3f8f c33d f387 953c 8bef 6fbd
00000190: 4c2e 86bd 47e5 8abd 7259 70bd 63e9 e2bd
000001a0: 7071 11bd 3acb 893d a09a 263c 454e e33d
000001b0: 907b 683b 4d5f 22bd e5f9 9fbd f6a6 08bd
000001c0: 5c03 a8bd bc14 71bd 0f2f 383d 27a6 bdbc
000001d0: cb52 6e3d ef6f 25be 1575 87bd 26a3 18be
000001e0: 0440 923d 9ac1 383c af61 debd dda4 e13d
000001f0: c60f 9abd be5e 6c3d 972c 203b 5901 303e
00000200: 1908 d3bd 1b62 193d ff76 e6bd 52bd 17be
00000210: 0318 27bd 0a72 0cbe d798 3abe 9312 b2bd
00000220: c121 9d3c 37b7 e73d db36 09bd 419b febd
00000230: f9c5 8abd 31c6 60bd b166 5e3d a605 d63d
00000240: 7bb0 adbb b7fe a63d 23cc 4abd 3f6d 82bd
00000250: 2b38 cebd e939 6cbd 1592 ba3c 3ea1 a8bc
00000260: 2a51 98bd a5fa bc3d c4bb 31bd 6c54 923d
00000270: be97 d5bc 5e02 abbd 62e0 b3bd 8472 653e
00000280: 2ae6 9a3d 6b14 e7bd 19da 4a3c 4772 2bbd
00000290: 0eb1 c0bd fb66 243d dfb4 1abd ff11 27be
000002a0: c842 1bbe 0ee5 c23d 26d1 d43d 620e b23d
000002b0: ff94 ba3b 269c 0e3e 5177 81bd 23aa 313e
000002c0: 14c2 ddbb d8ce 6e3d 06a6 a43d 77ed babd
000002d0: 5de7 24bd 6b93 2dbc 275a 15be a18d 9cbd
000002e0: 3ba5 483c 6b5f 49bd 859d b33d 2e2f d53d
000002f0: 8921 e03c 6c68 003e c08b 80bd b7c1 11bc
00000300: af6f 8abd e950 dfbd 4b9f d9bd 4aa4 49bd
00000310: 479b b83d 1d73 b93d 0c05 4abc 1ede 653c
00000320: c8c3 b1bd 7d4f 96bd 13f9 98bc b97a f9bd
00000330: c3c7 45bd 5dcf 24bd cda6 7c3d 86e2 02bd
00000340: a255 5d3d 1784 82bd 0e5d 703d f26b c33d
00000350: 4835 b43d eff0 dc3d e3a5 c83d 4c6a c2bd
00000360: 59ea 21bc b54e 76bd 5d15 ca3d 9b94 bcbb
00000370: 02bd 43bc bcfc febd a9c9 2dbd c3fe 12bd
00000380: c507 08be 15ba cf3b ebcd a5bd 55c4 00be
00000390: 9693 3c3d b109 7f3d 72a1 2ebe 557f 173b
000003a0: a1c5 12bd 1aca 9b3d c1e9 81bd 025e 6d3d
000003b0: 6d86 d33d 0383 aebd 1fa6 9abc aa74 113e
000003c0: 6210 e53c 4f6a 1fbe 40cf 7fbd 8ab3 51bd
000003d0: 6b30 b5bd 202e 9abc 672a d7bd 8762 e9bd
000003e0: 7e0e 7fbd 216a 0fbd 3682 e73d 2ba3 ab3c
000003f0: eb40 783d 6d66 e7bc 06e9 913d 8fff 9f3c
-0.022671944 -0.11457455 0.106233455 -0.06584026 0.030454066 -0.06911845 -0.10927635 0.0146993585
0.00939179 0.10939418 0.14505483 0.06743118 -0.01831899 0.10399377 -0.09486964 0.0650455
-0.027573546 -0.033355467 0.034856737 -0.11066195 0.0720699 -0.019403351 -0.26193425 0.06080876
-0.09893899 0.0426365 0.0107731465 -0.10480129 -0.1373728 -0.02273423 0.05804597 0.16053295
0.0035835314 0.05741456 -0.011408722 0.085791014 0.11335186 -0.0971614 0.036103457 -0.095754914
0.07546455 -0.116523586 -0.10155189 -0.082740285 0.079960704 -0.072071485 -0.15533173 0.06262909
0.03449818 -0.068801954 0.07330445 -0.0021327238 -0.17644717 0.021888442 -0.20201115 -0.0882133
0.025298791 0.080758646 -0.04223496 -0.0980134 0.019083371 0.09198719 0.14695866 0.11287107
-0.038832404 0.071753986 0.030906301 -0.041544747 0.004319246 0.029970694 -0.043390334 -0.14313035
0.08828822 -0.042633854 0.101270705 0.017701354 -0.0005779533 -0.017129041 0.0857525 0.084052786
0.03177744 -0.12955074 -0.007088547 -0.077195734 -0.06783958 -0.14447199 -0.108290695 -0.027562506
-0.0037029856 -0.035418503 0.039556198 0.070472725 -0.09583098 0.07998312 -0.06548387 0.05058653
0.022425584 0.095488064 0.018253302 -0.058578055 -0.06551799 -0.067820124 -0.05867905 -0.11079671
-0.035508573 0.067282155 0.010168701 0.11098913 0.003547404 -0.039641667 -0.078113355 -0.03336235
-0.08203766 -0.058857664 0.044966754 -0.023150517 0.058184426 -0.1615598 -0.066141285 -0.14905986
0.07141116 0.011276627 -0.108584754 0.11017773 -0.0752254 0.05770754 0.002444064 0.17188014
-0.10304279 0.037447076 -0.112531655 -0.14818314 -0.040794384 -0.13715377 -0.18222366 -0.08694949
0.019181134 0.11314242 -0.03349958 -0.12431956 -0.067760415 -0.05487651 0.054297153 0.10450296
-0.005300579 0.08154052 -0.049511086 -0.06368493 -0.10069307 -0.057672415 0.022774735 -0.020584699
-0.07437356 0.09227494 -0.043391958 0.071450084 -0.026073333 -0.08350061 -0.08783032 0.22406965
0.075634316 -0.11283191 0.0123811 -0.04185703 -0.094087705 0.040137272 -0.03777015 -0.16315459
-0.15162194 0.09516345 0.103914544 0.086941496 0.0056940312 0.13926753 -0.06321586 0.17350058
-0.0067675207 0.05830273 0.08039479 -0.09127324 -0.040259708 -0.010594229 -0.14585172 -0.07644201
0.012246425 -0.049163263 0.08770279 0.104093894 0.02735974 0.12539834 -0.06276655 -0.008896283
-0.06759583 -0.10904104 -0.10626086 -0.049228944 0.09013992 0.09055159 -0.012330305 0.014030008
-0.086799204 -0.0733938 -0.018673455 -0.121816106 -0.04828621 -0.04023682 0.06168251 -0.03195431
0.054036744 -0.063728504 0.058682494 0.09542073 0.08799225 0.10788142 0.097972654 -0.09492931
-0.009882533 -0.060133655 0.09867356 -0.00575502 -0.011946918 -0.12450549 -0.042428646 -0.03588749
-0.13284214 0.0063393214 -0.08095916 -0.12574895 0.046039186 0.0622651 -0.17053774 0.0023116667
-0.035833005 0.07606907 -0.06343413 0.05795098 0.10328374 -0.08521082 -0.01887804 0.1420466
0.027961913 -0.15567897 -0.06245351 -0.051196612 -0.088471256 -0.018820822 -0.105061345 -0.11395746
-0.06226968 -0.03501332 0.11304133 0.020951828 0.060608786 -0.028247083 0.07124524 0.01953104

weight_hh_l0 f4 [256, 64]
00000000: a1fa 963d 3932 f9bd 79ba 9b3c c823 be3d
00000010: 2023 433b e963 9bbc 989e 133d b074 723b
00000020: ff8b b1bd 0b33 ad3d 3a43 f93d 0da0 91bd
00000030: e1bd af3c c429 1b3c 2a3c 9dbb cb5e b5bc
00000040: 9a92 c4bd 2fad a9bd 20f3 853d 2c54 ffbc
00000050: d819 ab3d 299c a93b 83f2 a73d 5b2b 9a3d
00000060: e4f8 8bbd a6fb f23d 7b77 a5bb 56cf da3d
00000070: 8790 03be 2112 d5bd 9dee a8bc 44d3 a13d
00000080: cc57 883d 9654 4b3d 9fc0 393d aabe 6bbc
00000090: 661e 35bd 903a a03d f4cb de3d 09d3 d93c
000000a0: 07de 0bbe cad4 fcbc 4b60 b2bd 5008 20bd
000000b0: 351f a23c 9f28 33bd bd80 c43c 5777 f83d
000000c0: d3fd fdbb cf5e 913c 064a 08bd 4499 563c
000000d0: 0d71 003d 210e ff3b 9c3b 793c 01d3 2cbe
000000e0: 9054 63bd 0046 703b fd77 113e 81ff ca3d
000000f0: 327c c33d bfa4 e5bd 561e b7bb fc04 c4bd
00000100: 8196 d93b f038 a9bc d7cf 9a3a 59a5 e6bd
00000110: 994b ad3d 99da 943d a4c2 e63d 4fcf 453c
00000120: be47 5abd 96c9 52bd 8096 98bd bb18 bebd
00000130: 783a 30bd 48db e0bd 247b 9fbd 43cc 72bd
00000140: 8f9e 09bd bb13 a83d 0063 b0bd 8481 c8bd
00000150: fda6 bd3d 92b2 a4bd b41b b33d b4b9 c0bd
00000160: bf38 fbbd 50db d5bd be22 673d 7514 ddbc
00000170: 82a8 b23c ac5b 96bc 9ac0 913d 2bb4 eebc
00000180: a8a2 a8bd 5ad9 03be ad8a 903d d02a c2bd
00000190: c084 bbbd 467f b23d cbe1 a23d 7e47 bd3c
000001a0: 1f9b 17bc b363 52bc 31f8 35bd 732e 8f3d
000001b0: a3f2 4a3d 29ea b03c 79ce 373c b8f4 d83d
000001c0: 2695 cc3d 5899 4ebd 4af4 f23c a153 98bd
000001d0: 91a0 a4bd 9242 b63d 234a 0a3e cb87 aa3d
000001e0: 5459 b13d 6206 b33d 4a9e 08be cf41 013c
000001f0: eb6d 1a3d 37bd 54bc a782 0bbd eaf7 0abd
00000200: 5800 30be 532f 6b3d 788d 25bb 95fa 56bb
00000210: 6198 babc c016 f63c 06d8 943d ffc5 abbd
00000220: cfa5 d53d 9125 7cbd b9ee 85bd d721 d83d
00000230: d564 083c bfc9 d03c 685a 7f3b 2d22 8bbd
00000240: 936e cabd 693a e6bc a7cc dc3d f6bc 0bbd
00000250: b6f8 8e3d 07fb 24bd 50ce 763c 06ac e9bd
00000260: 0ce4 d43d 6e8e c0bc 717d 973d 1ff6 cc3d
00000270: 076f 56bd 6cf2 813c 1ce1 a83d 469d a03d
00000280: 7f17 0bbd 93bb 67bc 639d 343d 690d fbbd
00000290: a75a d03d 1348 203c 4852 e5bd 8614 213e
000002a0: ec17 69bd f3de 4d3d 6998 f23c c014 bebd
000002b0: 4c5b 28bd 12ab b8bd 6dfb 03be f1cc e7bd
000002c0: 15ff e33d 253d 1fbd 9d2e 9dbd 8311 393d
000002d0: 82e7 203c 0443 b43d caba ab3c b852 8b3d
000002e0: a91c 8cbd 468c db3d 21e5 693d f24c afbd
000002f0: 5b9d 323d 9743 89bd bc7a 2e3d c5d9 8d3c
00000300: defe ae3c a426 9839 3b62 ce3c 304d d83d
00000310: 61fb d939 0914 143e 9708 473d e7ef 833d
00000320: 79cf e2bd 4112 0d3e 7bd9 d5bd 5720 d4bc
00000330: e512 ecbd b112 013d 0c33 c139 2557 fcbd
00000340: e98b d4bd b453 673d b39b 003e 6e57 ca3d
00000350: 9c32 d93d 129b 6d3d 3701 a53c 1bdf 4dbd
00000360: dc07 ffbd 2bb4 103e 26c0 90bc 663c e4bd
00000370: d6c4 8cbc aeae eabd 141a 24bd bc7d c63d
00000380: 133f ed3d 54a9 eb3d 79e3 2ebc 76bb acbd
00000390: 2ac5 163d dcc9 0fbe bc70 0abe 0683 86bd
000003a0: 0c02 d0bc 6558 72bd e064 673c ee4a c6bd
000003b0: ab22 15bd e3a5 133c 27b8 8fbc 82a1 0b3e
000003c0: 5b25 cc3c fdfe cc3c 3cf9 30bc da9a 17bd
000003d0: eb6a cabd 06f3 42bd 1389 1cbd 881e e7bd
000003e0: 0925 a6bc 244b c23d 1538 1bbd 32fa 003d
000003f0: 807f c4bc c0b9 11bd 1638 b3bd 3d2b 62bd
0.073720224 -0.12167782 0.019009816 0.092841685 0.0029775575 -0.01896854 0.03603992 0.003699582
-0.0866928 0.08457001 0.121710256 -0.071106054 0.021452846 0.009470407 -0.004798432 -0.022139927
-0.095982745 -0.08284985 0.06540513 -0.031168066 0.08354539 0.0051760864 0.08200552 0.07527801
-0.068345815 0.118644044 -0.0050496436 0.106840774 -0.12848102 -0.104038484 -0.020621592 0.07901624
0.06657371 0.049641214 0.045349713 -0.01438872 -0.044218443 0.0782367 0.10878745 0.026589887
-0.13658915 -0.030863184 -0.08709773 -0.039070427 0.019790271 -0.04373991 0.023987168 0.12132137
-0.0077512055 0.017745404 -0.03327372 0.013098065 0.031357814 0.0077836667 0.015211966 -0.16877367
-0.055500567 0.0036662817 0.14205928 0.09912015 0.09545173 -0.112130634 -0.005588333 -0.09571263
0.006640256 -0.020657033 0.0011811209 -0.11262006 0.08461685 0.07268257 0.112675935 0.012073352
-0.053291075 -0.05146178 -0.074505806 -0.09282061 -0.04302451 -0.109793246 -0.07787159 -0.05927683
-0.03359848 0.08206888 -0.08612633 -0.09790328 0.09260366 -0.08041872 0.08745518 -0.0941042
-0.12266683 -0.10442221 0.056429617 -0.026987294 0.021808866 -0.01835426 0.07116814 -0.029138645
-0.08234149 -0.12875882 0.070577 -0.09480822 -0.091561794 0.08715682 0.07953223 0.02310538
-0.009253292 -0.012841153 -0.044426147 0.06991281 0.049547803 0.021596031 0.0112186605 0.105935514
0.09989385 -0.05043921 0.029657502 -0.07437826 -0.08038438 0.08899416 0.13504843 0.08326682
0.08659616 0.08741452 -0.13341632 0.007889225 0.037702482 -0.012984565 -0.034060147 -0.033927836
-0.17187631 0.05741818 -0.0025261324 -0.0032803167 -0.022777738 0.030040145 0.07267766 -0.08387374
0.10432016 -0.061559264 -0.06539673 0.105533294 0.0083248215 0.025486825 0.0038963798 -0.06793628
-0.098843716 -0.028104024 0.10781222 -0.034115754 0.069810316 -0.04027846 0.015063837 -0.11409764
0.10395059 -0.023505416 0.07396973 0.100078814 -0.052351978 0.015862666 0.08246061 0.078424975
-0.033957954 -0.014143842 0.04409541 -0.12258417 0.101735406 0.009782809 -0.111973345 0.15730485
-0.05690758 0.05026145 0.02961369 -0.092813015 -0.041102692 -0.09017004 -0.1288888 -0.11318386
0.111326374 -0.03887667 -0.076749064 0.045182716 0.009820821 0.08801845 0.020963091 0.06802887
-0.06841404 0.107201144 0.05710328 -0.08559598 0.043607097 -0.06702345 0.042597517 0.017315755
0.021361765 0.0002902049 0.025193324 0.10561597 0.00041576757 0.14460768 0.048592176 0.06442242
-0.110747285 0.13776495 -0.10441872 -0.025894327 -0.11527041 0.031511966 0.00036849861 -0.12321309
-0.10378248 0.05647631 0.12559395 0.09879957 0.10605356 0.058009215 0.02014218 -0.050261598
-0.12452671 0.14131229 -0.017669749 -0.111443326 -0.017183702 -0.11459099 -0.040063933 0.09691951
0.11584296 0.11506906 -0.010674351 -0.08434193 0.036809124 -0.14041847 -0.13519567 -0.065679595
-0.025391601 -0.05916633 0.014123172 -0.096822605 -0.036410015 0.009011718 -0.017543865 0.13635829
0.024920156 0.025023932 -0.01080161 -0.037012912 -0.09883674 -0.047595046 -0.03821666 -0.1128512
-0.020281332 0.09486988 -0.03789528 0.031488605 -0.023986578 -0.035577536 -0.08750932 -0.055217016

bias_ih_l0 f4 [256]
00000000: 23c8 b0bc 20a5 c63d 3ffe f5bd c2cb d93d
00000010: 15f7 843d 4f8c 95bb da79 1b3d 13d2 d73d
00000020: 811a 013e 0a1f 093d 7e53 b2bd 52ae 0f3d
00000030: 83bf 9b3d 6ff7 e4bd a5f7 a8bd 0696 143d
00000040: 7b8c 4a3d eae5 213e 9741 28bd 3e12 99bd
00000050: 8cf0 963c d8c3 afbd 5adb 7f3d f8d3 11bd
00000060: b807 25bd 99a0 a63d b644 083e 690d 4b3d
00000070: 8928 023e cf70 fd3d c8e5 a83c 1e48 483d
00000080: c674 3b3d b109 f23a a6cc f1bd b312 7e3c
00000090: 1e42 1c3e 8bed 9f3d a8f7 21bd 5c07 c6bc
000000a0: 8c47 09bd e411 c9bc 9354 013e aac8 e43d
000000b0: 3bb4 863b 9ec2 3dbd 9cee d03d 812a 733d
000000c0: 87d7 9e3d 7a01 e03d a885 a7bb e861 71bc
000000d0: 5368 88bd b58b 5a3d 77a0 093e 5959 ee3d
000000e0: 00e9 02be 9c7c cd3b b120 743d 9025 363d
000000f0: 9f54 05be b9cf a93d 8eae f8bc f78c 703d
00000100: b82a 2f3d a9af 9abd 5501 29bd 7593 573d
00000110: 34cc db3d 0aa2 a9bc 7a2c fbbd a4dd 35bb
00000120: ce39 15bd bcaa c43d dbc8 e8bd a944 363d
00000130: b8bd 4dbd 36ad 7b3d 7feb adbd 0656 f3bd
00000140: ee9e 6ebc 1e77 05bd 2dbd 1dbd b45f 04be
00000150: 4088 0ebd c151 79bd 6927 d43d 4666 ebbd
00000160: cf71 25be 35f5 bfbd eaf8 44be eb8b c53d
00000170: f2c2 323c e3cc b03d f8f1 86bd 5c49 8b3d
00000180: 54be 5fbd 940a e3bd d9cd 4bbd b5c7 903d
00000190: cc82 9ebc 2a40 6fbd 13c8 d4bd f761 e3bd
000001a0: d9fe d5bd 2c0b 0f3d 9a1c b3bc 81d5 7f3d
000001b0: 606e 6f3d 8855 ac3b 503b fa3b 8c47 85bb
000001c0: 3a3d 983b ecf9 903d 4f3b 5abd 09d8 183c
000001d0: 2e0b 10be af7e 82bd e676 bcbd 27d5 83bd
000001e0: 148c febd 7943 d7bc fafd da3d df48 e8bd
000001f0: a453 14be 9399 58bd c3eb 92bc 11c6 08be
00000200: fa39 c7bd f084 a13d 1932 fdbb f9ca d0bc
00000210: 04ff c9bd 41fa c9bc de38 8b3c e0f0 b2bd
00000220: 4a25 efbd d205 0bbe d078 42bd b70a a93d
00000230: c769 c43d ccad fcbc 928e d1bd 5acc 93bd
00000240: 1931 6bbd 626a 1b3d b1c7 9f3d 5915 d6bd
00000250: 32ad df3c dfd9 ed3c cd22 61bd b8a1 d1bd
00000260: 06d7 6fbc 45fa 14bc 8e1f 70bd 8414 8a3d
00000270: 4d9b 4d3d 4e56 2c3d ae7c 1bbd a6e8 29ba
00000280: 6fd9 97bd 8bbe 053e 4435 bf3d 4f5f b73c
00000290: b85d b23d b335 a4bc e3da 06be 1218 c5bd
000002a0: 52f6 f3ba 4785 c43b 645e 62bd e4fb b43d
000002b0: 88f2 bc3d e1ad 193d ed8b e03d bb04 b53d
000002c0: 2d7b b7bc 6e97 8e3d 6564 54bc 23a6 673d
000002d0: 8f96 06be 3d06 aabd c6b3 6b3d e058 adbd
000002e0: b998 aebd 8c00 013e 5249 9dbd 653e d1ba
000002f0: 35a7 0fbc e512 85bd 35de 303d e448 b83d
00000300: 2130 77bd 3e2b 1fbd 7147 debd 607a 933d
00000310: 572f 9abd 7942 063d 50f7 67bd 2a8e 3f3d
00000320: 9ca5 30bd e88e 69bd f0b4 d63b b76f 97bc
00000330: f475 763d b395 483d 0430 8bbd dc00 183e
00000340: 625d be3d e589 973d 4755 4cbd 4b2e 493c
00000350: e4f9 073d 95d8 f63d 46d9 dc3a 1867 113d
00000360: 3872 e53d 6ddc f13d bfd4 953d 845a f53d
00000370: 7cfe 653d f0ab df3d 5871 eb3c 74a3 18bd
00000380: c72e 1a3d 72c6 a63d 1c08 4fbd ce4e bfbd
00000390: 7d9b 7abd fc49 973d 8186 ee3d c097 deb7
000003a0: 5da7 ec3c 4ad9 1bbe 33cf b2bd 745d a53d
000003b0: 7ace d0bd 1022 c6bd f133 fcbd b88c 2a3d
000003c0: 51fd e23d af3b 65bd 52aa 103c 531e d0bd
000003d0: c714 d73d 3011 c63d 0958 94bd 29df 67bd
000003e0: 922e d5bd c149 7d3d 8f15 8cbd 0ba5 d6bd
000003f0: 3eae 5a3d ca2a a7bd fc53 ed3d 030d 83bd
-0.021579808 0.09699464 -0.12011384 0.10634567 0.0649244 -0.004563845 0.037958004 0.10538115
0.12607767 0.033476867 -0.08707331 0.035078354 0.07604887 -0.11180007 -0.082503594 0.036275886
0.04945038 0.15810362 -0.041078176 -0.074741825 0.018425249 -0.08582276 0.06246505 -0.03560254
-0.040290564 0.081361 0.13307461 0.049573336 0.12710775 0.12375032 0.02061738 0.0488969
0.04576566 0.0018466023 -0.11806612 0.015507388 0.15259597 0.078089796 -0.039542824 -0.024173431
-0.033515498 -0.024544664 0.12629919 0.11171086 0.0041108406 -0.04632818 0.10201761 0.059366707
0.07755952 0.10937782 -0.0051123686 -0.014732815 -0.06660523 0.05335589 0.13440119 0.116381355
-0.12784195 0.006270958 0.05960149 0.044469416 -0.13020562 0.08291573 -0.030356672 0.058728185
0.04276535 -0.07553036 -0.041261036 0.05263086 0.10732308 -0.020707149 -0.122643426 -0.0027750516
-0.03643208 0.096028775 -0.11366435 0.044499073 -0.050229758 0.061444484 -0.08492183 -0.11881642
-0.014564259 -0.032584302 -0.03851049 -0.12927133 -0.034797907 -0.060868982 0.103590794 -0.114941165
-0.16156696 -0.093729414 -0.19235578 0.09645828 0.010910736 0.08632829 -0.065891206 0.068011016
-0.05462487 -0.11086002 -0.04975686 0.07069341 -0.019349478 -0.0584108 -0.10389724 -0.1110267
-0.10448999 0.034922764 -0.021864224 0.062459473 0.05845487 0.0052592196 0.007636465 -0.004067367
0.0046459707 0.07078919 -0.053279217 0.009328851 -0.14066765 -0.06371819 -0.092023656 -0.0643714
-0.124290615 -0.02627729 0.106929734 -0.11342024 -0.14485031 -0.052880835 -0.017934686 -0.13356806
-0.09727855 0.07886684 -0.0077269194 -0.02548741 -0.098630935 -0.024655463 0.01699489 -0.087373495
-0.11677034 -0.13576439 -0.047478497 0.08253997 0.09590488 -0.030844592 -0.10232271 -0.07216711
-0.05741987 0.03794325 0.0780176 -0.104532905 0.027304266 0.029034553 -0.05496483 -0.102359235
-0.014638668 -0.009092872 -0.058623843 0.06742194 0.050196934 0.042074494 -0.0379607 -0.00064815057
-0.07414519 0.13060968 0.093363315 0.022384314 0.08709282 -0.020045137 -0.13169436 -0.09623732
-0.0018612838 0.005997333 -0.0552658 0.08837107 0.09225947 0.03751934 0.10964189 0.08838793
-0.022397602 0.06962477 -0.012963389 0.056554925 -0.13143371 -0.08301971 0.057544492 -0.08464217
-0.08525223 0.12597865 -0.0768 -0.001596403 -0.008767893 -0.064977445 0.043180663 0.08998278
-0.060348634 -0.0388596 -0.1085347 0.072010756 -0.075285606 0.032778237 -0.05663234 0.046766438
-0.043126687 -0.05702105 0.006552331 -0.018485887 0.060171083 0.04897089 -0.06796268 0.14844078
0.09295155 0.07399348 -0.049886014 0.0122791035 0.0331973 0.120530285 0.001684942 0.03549871
0.11203426 0.11809621 0.07315969 0.11980155 0.0561509 0.10921466 0.02874057 -0.037265256
0.037642267 0.08143319 -0.050544843 -0.09341203 -0.06118344 0.07387158 0.11646748 -2.6535126e-05
0.028888399 -0.15219608 -0.08730926 0.080744654 -0.10195632 -0.09674466 -0.123145945 0.041638106
0.110834725 -0.05596512 0.00882967 -0.10162034 0.1050201 0.09671247 -0.07243354 -0.056609306
-0.10409273 0.061837915 -0.068400495 -0.10480698 0.053388827 -0.08162458 0.115882844 -0.06398966

bias_hh_l0 f4 [256]
00000000: f803 b53d eb9a 83bc 66bb 303c 1e4b 243e
00000010: f2cf a2bd bdaa a9bd 1875 623d 924c b83c
00000020: a2cd ec3d a834 063c f7a1 2dbc ab9d 933d
00000030: 853b 853c 6ab4 563d 54fa e43d c332 2cbd
00000040: 754d 8a3d eab7 993b fe6f 1e3e 1f73 aabd
00000050: e998 93bd 5e6b 063d 0317 083e 1601 86bd
00000060: 55e1 62bc bdf1 043d 17c4 3e3e 4d48 db3d
00000070: 342e f23d 1b5a 8a3d b4ba c53d 811a 253e
00000080: 1614 3a3d 0266 803d 3cea 983c ce12 2ebc
00000090: f843 243e 79fb 93bd 4861 b43d 6653 d73c
000000a0: 3fae 003e c746 91bd 5394 bc3c 789d 49bd
000000b0: 83d8 4ebd 8e7d 113e b486 82bc 1ea8 df3d
000000c0: 3f21 a43c e4f4 043e e4bd 37bd 76a6 23bd
000000d0: cc4b 48bd 5f71 8d3b ff03 0b3d d681 51bd
000000e0: 3cd1 9cbc bb73 133d 1535 aebd a449 2bbd
000000f0: d2fe ddbc c528 b6bd d98b 8ebc bf7d a8bd
00000100: 2cf5 a5bd ee4f 3a3d 4030 e2bd ce3f 75bb
00000110: 18d1 dcbd 6d1d 343d ec06 e5bd 54b3 e03c
00000120: c2ca b5bd aef5 15be 6e4e d93d 992e c9bd
00000130: 386c 1fbe 9f03 ddbc dd97 d73d dec6 353d
00000140: 5a2c b33c f915 b1bd 842e 68bc d4a3 413d
00000150: f064 b7bd b699 0ebe c616 c3bc 6b9c a03d
00000160: a422 e8bd b49a 2c3c c8a4 b0bc 1d03 443c
00000170: 4bdc 26bd 0332 543d 3d73 2cbd e890 9a3d
00000180: 8022 06bd 6b34 d3bd ec1c b63d b83a 0bbe
00000190: d311 3abd 867e 3fbd bd16 bd3d 7aef f43d
000001a0: d795 bebd e104 1bbe fa8a 0abe 7bcf 0fbe
000001b0: a459 c9bd dbbe 963d 496d e93a 1b81 1dbe
000001c0: 76be d83d cd69 dfbb b0dc e1bd 5cbd 6d3c
000001d0: 3e58 10bd 11d3 203c c4b2 bebc 5349 5a3d
000001e0: 1011 d33d bc28 1fbe 10be 793d 049e 3f3d
000001f0: 7215 293d 933d c13d 20a7 86bd e86e d43c
00000200: cbda 17bd cc28 a03d 0614 2fbc 8559 a9bd
00000210: 7242 783d 2f8d 013e fd71 07bd 76ce a33d
00000220: 261c 0dbe 6498 913d bc4e 11be b76f b23c
00000230: 213a 983d cd9a 85bc 032b c2bd 2837 163d
00000240: 5400 cdbd c0c5 37ba 4ad2 12bd 6d48 adbd
00000250: a191 bf3d 1b25 5dbc f934 a43d c53c e93c
00000260: 13cd a83d 26a0 003d 3cce ce3d 53d6 31bd
00000270: 09ee 983d 2503 a6bd 5b3d 423c 6fca debd
00000280: 1141 9ebd 1413 d33d c256 813d b1e9 cf3c
00000290: adcf c13b bce5 c9bd 3159 4ebd fb53 953d
000002a0: 7450 0cbe 9799 6c3d 7f02 77bc 1a95 d2bd
000002b0: 1806 86bd a9ce 023e d03b 123d 3b77 ebbc
000002c0: 2784 e1bc e4b2 f43a 56c5 923d ba5a 6f3d
000002d0: adb2 02be 88a1 c8bc 34fa b83d 98cd a9bd
000002e0: 50cc 033e d320 5cbd ede8 8a3d c1ab 49bd
000002f0: 60d3 7f3c 97b9 f0bd 5973 cbbd bb60 cbbd
00000300: ee6f 95bd af7f 13bb a9b8 e8bd 80c3 b8bd
00000310: 8c2c 513d 4e6c 86bc 119f d73d 79c7 cd3d
00000320: 277a bbbd b3a7 fdbd 36db 7e3c 9ccb 0ebc
00000330: 4767 8fbd f44a 833d 6de1 453d 08f2 45bd
00000340: a315 c4bc 70fe 91bd 2332 f83d edd1 55bc
00000350: ff2a 98bd 29ee c03d 2ad2 7d3d b39e 793d
00000360: 4623 64bd ecff c6bd 21c6 1b3d 38c4 58bd
00000370: 562c 6ebd bc95 0c3e b26e 44bb 771d e03c
00000380: 6ae3 e73a f3a9 d7bc a873 7ebd e731 36bd
00000390: 2334 08bd 4df4 fa3d 5d9d 963b 5249 1c3e
000003a0: 6080 0a3e 6dab 893d 9561 273b 1fe2 a33d
000003b0: c618 c83d 7be4 10bd f3ed 183c ddbf b13d
000003c0: dbb4 b83d eb89 ebbc f64f 023d dc7f fbbd
000003d0: 3ce4 d3bc 3c6f 0c3c f2e3 cc3d 56ee 353c
000003e0: 10c2 be3d 2e74 b6bd 79fe cdbb fba2 0bbc
000003f0: e0a0 37bd b149 e5bd de07 f13b 61b5 f33d
0.088386476 -0.016065082 0.010786867 0.1604428 -0.07949819 -0.08284519 0.05528745 0.02249745
0.11562659 0.008191265 -0.010597697 0.07207807 0.016263733 0.05241815 0.11180559 -0.042040598
0.06753055 0.0046911137 0.15472409 -0.08322739 -0.072069 0.032817237 0.13290028 -0.06543176
-0.013847669 0.032457102 0.1862949 0.1070715 0.11825219 0.067554675 0.096547514 0.16123392
0.04542931 0.062694564 0.01866638 -0.010624601 0.16041553 -0.07225699 0.088076174 0.026284885
0.1256647 -0.07093578 0.023019945 -0.04922244 -0.05049945 0.14208052 -0.015933372 0.10920738
0.020035384 0.12984043 -0.04485883 -0.03995367 -0.04890041 0.0043164934 0.033939358 -0.05114921
-0.01914274 0.03599904 -0.08506218 -0.041818276 -0.027099047 -0.08894495 -0.017400669 -0.08227109
-0.081034034 0.045486383 -0.11044359 -0.0037422064 -0.10782069 0.043973375 -0.11182961 0.02742926
-0.088765636 -0.146445 0.106106624 -0.09823341 -0.15568626 -0.026979266 0.105270125 0.044379108
0.021871734 -0.08646769 -0.014171246 0.04727538 -0.08954799 -0.13925824 -0.02381457 0.07842334
-0.11334732 0.010534931 -0.021562949 0.011963633 -0.04073743 0.051805507 -0.042102087 0.0754717
-0.032747746 -0.10312732 0.08892235 -0.13596618 -0.045427155 -0.04675152 0.092328526 0.11959739
-0.093059234 -0.1513858 -0.13529578 -0.14043991 -0.09831551 0.073606215 0.0017809059 -0.15381281
0.105832025 -0.0068180324 -0.11028421 0.014510479 -0.035240404 0.009815947 -0.023278601 0.053292584
0.10305989 -0.15542883 0.060972273 0.046781555 0.041280217 0.094355725 -0.06574845 0.02593179
-0.03707389 0.078202814 -0.010685926 -0.082690276 0.060610242 0.12651514 -0.033067692 0.07998364
-0.13780269 0.07109144 -0.14190191 0.021781785 0.07432962 -0.016309166 -0.0948086 0.036673695
-0.10009828 -0.0007010363 -0.03584508 -0.0846108 0.093539484 -0.013497616 0.08017916 0.02847136
0.0824224 0.03140273 0.1009793 -0.043417286 0.074672766 -0.081060685 0.011855449 -0.10878455
-0.07727254 0.10306373 0.06315376 0.025379987 0.0059146495 -0.098582715 -0.05037803 0.07291409
-0.13702565 0.057763662 -0.015076279 -0.10282345 -0.06544131 0.12774147 0.035701573 -0.028743377
-0.027528835 0.0018669036 0.07166545 0.058436133 -0.12763472 -0.024491087 0.090320975 -0.08291167
0.12870908 -0.05374224 0.06782708 -0.049236063 0.015614361 -0.117541485 -0.0993411 -0.09930559
-0.072967395 -0.0022506525 -0.11363346 -0.09021664 0.051067874 -0.016409066 0.105283864 0.10047812
-0.09154158 -0.12385502 0.015555194 -0.008715536 -0.070021205 0.064107805 0.048310686 -0.048326522
-0.023936098 -0.07128608 0.12118938 -0.0130505385 -0.07430076 0.094204254 0.061968006 0.060942363
-0.055697702 -0.09716782 0.038030747 -0.052921504 -0.05814775 0.13728994 -0.0029973206 0.0273578
0.0017691676 -0.026326155 -0.062122017 -0.044481184 -0.033252846 0.12253628 0.004596396 0.15262344
0.13525534 0.0672215 0.002554034 0.080021136 0.0977035 -0.035374146 0.009334075 0.08679173
0.090188704 -0.028752288 0.031814538 -0.122802466 -0.025865667 0.008571442 0.100044146 0.011104187
0.09314358 -0.08908878 -0.006286439 -0.008522744 -0.044831157 -0.11195696 0.007355674 0.1189983

weight f4 [1, 64]
00000000: 1413 523d d077 b83d c119 f3b7 d445 843d
00000010: faea b4bd 1008 92bd e472 ab3d 20f7 923d
00000020: 3983 2f3d c3c4 683d 5c6b 113e 8daf 8cbc
00000030: 7a50 f4bd 176f 3cbb 278b 183e b559 e83d
00000040: b251 c2bd 1672 bebd d41e 9ebd a77d 49bc
00000050: 2d6b 47bd b05b dabc 1596 ae3d 5c3c 173d
00000060: fa13 063c 5bbe babd 37b0 a6bd 2431 f7bd
00000070: 3400 93bd 3483 053e 193c 923d ba3c ba3d
00000080: effd 453c 5586 7dbd 900e cd3c 4191 b1bc
00000090: b9fd 81bd 4d39 983d 657b f63d 9fa7 fa3d
000000a0: 0a85 813d 574d cc3c 01d7 c5bb 1878 7dbd
000000b0: 85b6 a33d 55e8 dbbd 10ea cbba fd32 ed3c
000000c0: 139b 6dbd f62b 24bd afb8 de3d d30a cc3d
000000d0: e454 103d 4a45 72bd 4a36 da39 767f e6bd
000000e0: a2b7 9cbd a573 4dbd bf8d 5d3d bcc3 c5bd
000000f0: f9c7 b9b9 4b15 303d 8b89 b0bd 6813 9abd
0.051287726 0.090072274 -2.897985e-05 0.06458631 -0.08833881 -0.07130444 0.08371523 0.071760416
0.042849753 0.05682827 0.1420111 -0.017173553 -0.11929412 -0.0028752738 0.14896832 0.11345235
-0.094882384 -0.09299104 -0.07720724 -0.012298024 -0.048686195 -0.026655048 0.085247196 0.036922798
0.008183474 -0.09118339 -0.08139079 -0.1206992 -0.07177773 0.13038331 0.07140369 0.09093614
0.012084468 -0.061895687 0.025031358 -0.021675708 -0.06347222 0.07432804 0.120352544 0.122390024
0.06324203 0.024939222 -0.0060375934 -0.06188211 0.07993797 -0.10737673 -0.0015557427 0.028954977
-0.05800922 -0.040080987 0.10875069 0.09963002 0.035237208 -0.05914811 0.0004162065 -0.1125478
-0.07652213 -0.050159115 0.054090258 -0.09656474 -0.0003543494 0.042989057 -0.08619984 -0.07523233
