model/7711.469120731795_weight.pth (torch, 90511 bytes, 7 tensors)

weight f4 [16, 32, 1]
00000000: 354f 31be 5331 dbbd 53da 60bd f009 193e
00000010: 8a3f 303c 77f1 cfbd 7afa c1bd a597 d1bd
00000020: 5dc5 26be 881e b53c 74c2 f0bd ab58 843c
00000030: e2a7 ddbd 8916 713d 8be0 e63c 5311 183e
00000040: 44d5 113c a540 ccbc b368 263e a883 0ebd
00000050: 096d d3bd 9be9 e6bc ba59 73bd 549c 61bd
00000060: d5bf 1ebe 00e9 253e 8534 dc3c 238d 053e
00000070: ae0d 0abe 4fb6 0ebd 8c15 093e 6519 01be
00000080: f8c8 89be a176 95be d48e 55be 78cb 98bd
00000090: d6e8 a23d 7798 a93d 4b99 45bd d187 0abe
000000a0: 020f 84bd 0253 d8bd e010 533d ac2f 36be
000000b0: ab9f f03d 1c94 b43d b39b bcbd 61ba 9b3b
000000c0: 8f0d 143c 18bf bc3c 2c8c b73d 01d1 9bbd
000000d0: d77b 81be 63d6 43bc c120 1abe e0ab 1e3e
000000e0: f85f fe3d 8f5f 61bd 34d5 5ebc 9748 7ebc
000000f0: f5b5 09be c6ce c93d 8213 44be a10b fb3d
00000100: c633 50be b3e3 69be 54b6 29be 7bb6 97bb
00000110: 1c73 0e3d 01af a9bd 9586 40bb 5aac e73d
00000120: ce7c 1d3d 5eeb 373d a2f5 bfba 98ba 36be
00000130: a31d d03d 41e9 2e3e 92c4 9dbc d80d 1abe
00000140: 3332 b73d 43a4 df3d a659 96bd 5f53 26bd
00000150: bf14 263c 3f54 163e c2f7 9cbb 0db5 883d
00000160: b610 11be dfa2 9abd 1939 38bd 6e8e 443c
00000170: 2074 b7bd c344 18bd 5260 e83d a5cb 14be
00000180: 3e93 f93c 2a87 063e ed73 453e 9376 8abc
00000190: 7925 a73d 0e3b e83d 7174 ac3d c461 d83d
000001a0: a465 823d 7228 fdbd b77f 583d 65b2 123e
000001b0: f834 013e 8e74 133e 4d73 213e 758f 363e
000001c0: 391f 88bc eceb b33d 09b8 3ebe 6b8f 063e
000001d0: e2d0 5b3e a99e b0bd 6028 73bc 5d96 15bd
000001e0: 3288 f2bd fb52 cfbd 395f 95bc d7d3 153e
000001f0: 7cc1 e83c aca8 013e 1095 4f3e 2c47 7c3d
00000200: 2aa2 953e 0850 643e 73bd 763e 6bd6 9a3d
00000210: 4a33 953d 83e5 2ebd da17 19be 9dcc f93d
00000220: 6acb f73d da94 e83d facc 783c 3dd1 3bbd
00000230: 55d3 023e 46fe 363e 0927 43bd 3207 7d3d
00000240: 5de3 ed3d 4237 753e 3f91 2bbd 42d7 d33b
00000250: 0cc9 563d d7e8 e9bd 2226 ba3d a8bd 25bd
00000260: 81ba 7f3d e4cc 5ebd 4909 73bd 07de 14bd
00000270: c7b2 c23c 6352 d6bd ae14 0abc 5efb cc3c
00000280: 08f9 bf3d 60b7 90bd 0025 ce3b e091 31be
00000290: f503 47be fc56 1bbd fff8 1abd 353a 1d3e
000002a0: 1546 38be 57d6 803d bd79 9ebd 684a 34be
000002b0: 9c11 2ebe 46a8 043e 2001 a4bd 9b81 b2bb
000002c0: 5f5b f4bd 9529 f1bd 10df bc3d 5c18 86bd
000002d0: dd52 ba3d ee52 c8bd 7e0d 18be 27a8 4d3b
000002e0: a2cd e23d cf2e 6b3d 25e0 db3d 1dfa 85bd
000002f0: 77b6 c3bd fdea 823d c688 6a3c 2f3d 13be
00000300: 8f7e 913c c53c 103e d862 663e 721d 13be
00000310: 79bb 61bd d6ac f9bd f170 f9bd 9820 d53d
00000320: 47ea edbd 9e93 8d3b 171b 82bd 9e5d 83bc
00000330: b7e8 3abd 3db5 03be 22a9 3cbd 8522 9dbd
00000340: 38ad d8bd 7a3a e63d fdb6 0abe 1e6a 063e
00000350: 52a9 23be f7d0 2c3d 397f 093e 5feb 1cbe
00000360: d9a4 153d fe9d 7c3c 502c 153d 7b33 7bbd
00000370: 0982 94bd d3b7 7f3d dd86 1dbe d037 2ebd
00000380: 0720 1c3e ce07 4a3e d4ec 943e ab82 44be
00000390: 7927 aebd 9ca2 1bbe 9619 913d 1910 d23d
000003a0: ec16 043d 2fb0 d0bd cdd1 8dbd 5335 1fbe
000003b0: bc4f 34be 819f 36bd 5166 2cbe cea0 253e
000003c0: db61 e13c e4c8 9cbd 7fb0 35bb 2ba0 f7bd
000003d0: 5085 0c3d 0596 35bd 583d 983d e8f2 e73c
000003e0: 69bc b73c e2f3 0abe af7a cebc ecc4 2bbe
000003f0: 1965 613d 1067 07be 2904 a73d 95ff e4bd
-0.17315371 -0.10702767 -0.05489571 0.14945197 0.010757336 -0.10153478 -0.09471603 -0.10234002
-0.16286226 0.022109285 -0.11755839 0.016155561 -0.10823037 0.05885938 0.028183242 0.14850359
0.008900944 -0.024933169 0.16250877 -0.034793526 -0.10323531 -0.028187564 -0.05941174 -0.055080727
-0.15502866 0.16202164 0.026880512 0.1304212 -0.13481781 -0.03484183 0.13387126 -0.12607343
-0.2691114 -0.2919207 -0.20855266 -0.074606836 0.07954566 0.082810335 -0.048241895 -0.13528372
-0.06448175 -0.105627075 0.051529765 -0.17791623 0.11749204 0.08817312 -0.09209385 0.0047524427
0.009036436 0.02304034 0.089622825 -0.07608224 -0.25289795 -0.011952969 -0.15051557 0.15495253
0.12420648 -0.055022772 -0.013600636 -0.015520236 -0.13448317 0.09853892 -0.19148067 0.122580774
-0.2033225 -0.22840767 -0.16573459 -0.0046299077 0.034777746 -0.082853325 -0.0029377092 0.1131217
0.0384491 0.044902198 -0.0014645348 -0.17844617 0.10161903 0.17081167 -0.019258771 -0.15044343
0.089451216 0.10920002 -0.07341318 -0.040606853 0.010136782 0.14680575 -0.004790277 0.06675158
-0.14166531 -0.075505964 -0.044976328 0.0119968485 -0.08957696 -0.03717495 0.11346497 -0.14530809
0.030465718 0.13137498 0.19282503 -0.016902244 0.08161444 0.11339389 0.08420647 0.10565522
0.06367043 -0.1236123 0.052856173 0.14325865 0.12617862 0.14399931 0.1576664 0.17828162
-0.01661645 0.08785233 -0.18624891 0.13140647 0.21466401 -0.08624012 -0.014841169 -0.03652035
-0.118423834 -0.10123249 -0.018233882 0.14631592 0.028412573 0.12662 0.20271707 0.061591312
0.29225284 0.22296154 0.24095707 0.07560428 0.07285173 -0.04269935 -0.14950505 0.1219723
0.12099345 0.11356516 0.015185589 -0.045853842 0.1277593 0.17870435 -0.04764465 0.06177444
0.11615632 0.2394686 -0.041886564 0.0064648697 0.052437827 -0.11421364 0.090893045 -0.040464073
0.062433723 -0.054394618 -0.059335027 -0.036344554 0.023766888 -0.10464933 -0.008427782 0.025022205
0.09373671 -0.07066226 0.006291032 -0.17340803 -0.19435103 -0.03792475 -0.037835117 0.15354235
-0.17995484 0.06290882 -0.077380635 -0.17606509 -0.16998905 0.12954816 -0.08008027 -0.005447579
-0.1193149 -0.11775509 0.09222233 -0.06547615 0.09097836 -0.097814426 -0.14848897 0.0031380744
0.110743776 0.057417687 0.107361116 -0.06541846 -0.09556287 0.06392477 0.014314836 -0.14378808
0.017760543 0.14085682 0.22498643 -0.14366701 -0.05511043 -0.12191169 -0.12179745 0.104066074
-0.116169505 0.004320576 -0.06352823 -0.016035851 -0.04563209 -0.12862106 -0.046059735 -0.076726
-0.10579914 0.11241622 -0.13546367 0.13126418 -0.1598256 0.042191472 0.13427438 -0.15324162
0.036534164 0.015418528 0.036419213 -0.061328392 -0.07251365 0.062431168 -0.15383478 -0.042533696
0.15246592 0.1972954 0.29086936 -0.19190471 -0.085036226 -0.1519875 0.07084958 0.10256977
0.032248423 -0.10189854 -0.06924782 -0.15547685 -0.17608541 -0.04458571 -0.16835906 0.16174623
0.027512481 -0.07655504 -0.0027723608 -0.120910965 0.034306824 -0.044332523 0.074335754 0.028314069
0.022428708 -0.13569596 -0.025204984 -0.16774338 0.055028055 -0.13222909 0.0815509 -0.11181561

bias f4 [16]
00000000: 54d3 b13d f25c 1dbe fa33 54bd dfc2 f33c
00000010: d26e a5bd b0c0 813c 6142 23bd 0e5c 1abe
00000020: 22be 28bc e550 da3c bdcb b13d b399 2c3d
00000030: 838d 18be da9b 2abe 6f23 d4bd 7e16 ed3d
0.08682886 -0.15367487 -0.05180738 0.029756008 -0.08077778 0.01583895 -0.039858226 -0.15074179
-0.010299237 0.026649902 0.08681438 0.042138766 -0.14897732 -0.16661015 -0.10358321 0.11576556

weight_ih_l0 f4 [256, 16]
00000000: 624d b2bc e869 4b3d 24b4 6cbd 181a dcbd
00000010: c6d6 87bc 7798 0f3d 7daa 8ebd f85d 1dbe
00000020: 908b 8bbd b4f3 bf3c e40a 053e 136e 1bbc
00000030: 8253 9a3d 32dc 813c c239 fcbc 864d 49bd
00000040: 9f29 063e 2d25 f33d a4ef 45bd 8b58 68bd
00000050: 9d0f b9bb a417 523d 4464 99bd db57 93bc
00000060: 5acc 40be 2e79 18bd d874 873c 927e 093d
00000070: f1e0 29be df65 f0bd d966 903d b914 73bd
00000080: 94b2 b7bd 84dd 0dbd 621a 813c 4197 26bc
00000090: e35e e73d 735d 6f3b c793 3bbd 57c5 003d
000000a0: 7ef0 e0bd 0465 c9bc 729c 233d ad27 88bc
000000b0: 6c9d c83c 4930 ae3d 7b0e e53d 3df3 e63c
000000c0: 8fc7 c2bd df57 0abe 4768 aa3d 54fb cc3d
000000d0: 4eea aebc 6ae4 b53d f432 10bd c4b7 e8bd
000000e0: ee2d 28bd 12ac ea3c cd6b 103e 407a ae3b
000000f0: 5129 323d 14f9 903c 11fe f13d 6390 8f3d
00000100: 5435 1a3d e44f 0dbe f964 debd bae7 8e3d
00000110: e090 d8bb 110a 03be 87e3 ee3d accf dbbd
00000120: 172f 0cbd 5d86 3a3d 2f6b dd3d bafd 673d
00000130: 87ff ae3d 08cb 0e3e 0f4f c83d 2da9 893c
00000140: b471 683c b4d3 e5bd 9704 dd3d 7407 983d
00000150: 6407 963d 47ac e3bd 9520 91bd 150a 223c
00000160: 06db 1abe 6639 9fbd d9d2 2a3e 0fdf aebd
00000170: 1bdf e6bc 472f 253c f20b 753c 8f63 ab3a
00000180: 2f43 25bb 5c29 943d c2c9 223e 7793 98bd
00000190: d587 c2bc 51a6 c1bc 979b b9bd 4118 7bbe
000001a0: 9113 1abe a905 313a ded6 bc3a 73f7 203d
000001b0: f52c dfbc b6af fe3d 3c88 8c3c 942b 883d
000001c0: 1482 d73d 8b94 263e e4db 17be 7426 2ebd
000001d0: 1367 87be 450d 123e f9a4 4a3e 3387 d93d
000001e0: eeea a2be 0e3a 363d 9555 f33c 8ec9 a43e
000001f0: d509 a6be b9c7 11be c60c 6c3d 1d50 b5bd
00000200: bf7f e73d 49ac 143d 94de 213e b59c 363d
00000210: 091c c1bd a0ab 3b3c 644a febd be2d 21be
00000220: 6da8 5bbc 7367 7c3d 8eea e33d 46e3 8a3c
00000230: 5983 873d 3aa4 c73d df36 eb3d 76eb 1abd
00000240: a1e7 0abe 7ada 093d f9f0 d3bd ff19 abbd
00000250: 25da 7fbd b5cf 25bd a30f e03a 6321 cf3a
00000260: 925a c23c c33d 21bd 488e 79bd bbfb 843d
00000270: a231 a63d 3268 f93d f548 bbbd 5c44 dd3d
00000280: 0bb6 4bbd d5df 4f3d 939f 093e 0df9 f53b
00000290: c2e5 00bc 95f3 debd 87ca ecbc f2e6 1dbe
000002a0: 2370 66be 00dc cb3d fde3 733d fa22 c5bd
000002b0: 1229 1b3c 7286 e83c bff2 79bc 7185 c6bd
000002c0: 57b9 1a3d d2c0 663d 69c6 ee3d d840 073d
000002d0: 91e5 f3bc 09a4 f73b aadd 323d 04a2 03be
000002e0: 37b1 45be 0873 cd3d bebe 10bd 901d db3d
000002f0: 01c9 c73d 626f 46bd 9b47 4abd da5e 0c3c
00000300: 9afb ca3d bcc7 2dbe 7f03 55be f785 913d
00000310: ff2c a13d 5ee9 273b 00bd 3e3d 1130 a13d
00000320: 0006 c53d 3b5c 0ebd 11ec 6ebc 2fff de3d
00000330: 4172 3c3d a4b6 f73d 14f8 743c 7fd2 c23d
00000340: fca7 883d b96f a83d f3c3 403d 3475 a1bd
00000350: bc6c 26be 6531 683d f79f 5b3d c61f f6bd
00000360: a2d1 53be ad48 183e a27b bc3d 9139 adbd
00000370: 48cb b4bc 213e a6bc c86d a83d 15c6 8f3b
00000380: 6a7b ce3c a612 9dbd cb43 2b3d 183b f23d
00000390: 351f e03c 7b7e e4bd d8c3 50bd 00d3 fe3d
000003a0: 7a18 b73d 6ea4 763c 4d1d c1bd 4018 a2bd
000003b0: 94a9 35bd 9204 d6bd 43d1 d7bc d46f 87bd
000003c0: 91a5 01be f3ab 3ebd b354 4fbd 9254 0b3e
000003d0: 939e 083e a6aa 623d 6161 35bd e343 0f3c
000003e0: 3609 c0bc 5525 dbbd d3c2 893d 24ea 893d
000003f0: eaa5 533b 02da a6bd 059e 1f3d 6314 63bc
-0.021765415 0.049661547 -0.057788983 -0.107471645 -0.016581904 0.03505751 -0.06966112 -0.15367877
-0.06813729 0.023431636 0.12992436 -0.009486693 0.07535459 0.015852068 -0.03078926 -0.049146198
0.13101815 0.11872325 -0.048324242 -0.056725066 -0.005647613 0.051292077 -0.07489827 -0.017986229
-0.18827954 -0.03722494 0.016535208 0.033567972 -0.16589715 -0.1173818 0.07050867 -0.059345935
-0.08969608 -0.034635082 0.01575965 -0.010167898 0.11297395 0.0036524206 -0.04579523 0.031438198
-0.1098337 -0.0245843 0.03994412 -0.016620481 0.024489127 0.085053034 0.111844026 0.028192157
-0.09510719 -0.13510083 0.083206706 0.100088745 -0.02135196 0.08881457 -0.035204843 -0.113631755
-0.041059427 0.028646503 0.14103623 0.005324632 0.043496434 0.017696895 0.118160374 0.070099615
0.037648514 -0.13800007 -0.10859103 0.06977792 -0.0066090673 -0.12796809 0.11664491 -0.1073297
-0.034224596 0.045538295 0.10811459 0.056638457 0.08544832 0.13944638 0.09780704 0.016804302
0.014187265 -0.1122202 0.10791891 0.074232966 0.073256284 -0.11116844 -0.07086293 0.009890099
-0.15122613 -0.0777462 0.16681994 -0.08538639 -0.028182557 0.010082073 0.014956461 0.0013075935
-0.0025217046 0.07234451 0.15897277 -0.07450002 -0.02374641 -0.023638876 -0.090628795 -0.24520971
-0.15046526 0.00067528576 0.0014407297 0.039298486 -0.027243117 0.12435858 0.017154805 0.06648937
0.10522857 0.16267602 -0.14829975 -0.04251714 -0.26445827 0.14262874 0.19789495 0.1062149
-0.31819862 0.04448896 0.029703895 0.32185024 -0.32429376 -0.14236344 0.05762937 -0.08853171
0.113036625 0.036297116 0.15807563 0.04458304 -0.094291754 0.011454493 -0.12416533 -0.15740106
-0.013406855 0.061622094 0.11128722 0.016954076 0.066168495 0.097481206 0.11485075 -0.03782221
-0.13564922 0.03365562 -0.10348696 -0.08354568 -0.0624639 -0.040481288 0.0017094504 0.0015802797
0.023724828 -0.03936554 -0.060926706 0.06493326 0.081149355 0.12178077 -0.09144775 0.10804054
-0.049734157 0.050750572 0.13439779 0.007506496 -0.0078672785 -0.10886303 -0.028905166 -0.1542013
-0.22503714 0.09954071 0.0595436 -0.09625812 0.009470241 0.028384421 -0.015255629 -0.09693421
0.03777441 0.05633623 0.116589375 0.033020824 -0.029772552 0.0075573963 0.043668427 -0.12854773
-0.19305883 0.10031706 -0.035338156 0.10698998 0.09755135 -0.048446067 -0.049384695 0.008567536
0.099112704 -0.16970724 -0.20802115 0.0710563 0.078699104 0.0025621275 0.046566963 0.07870496
0.09620285 -0.034755927 -0.01458265 0.10888516 0.0460074 0.12095383 0.014951725 0.09512805
0.066726655 0.082244344 0.04706187 -0.07883683 -0.16252416 0.05668773 0.05361935 -0.12017779
-0.20685437 0.14871474 0.092032686 -0.084582455 -0.022069588 -0.020293297 0.08224064 0.004387627
0.025205333 -0.076695725 0.0418127 0.118276775 0.02735863 -0.11156937 -0.05096802 0.12442589
0.089402154 0.0150538515 -0.09429417 -0.079147816 -0.044351175 -0.104500905 -0.026344901 -0.066131264
-0.12660815 -0.046550702 -0.050617885 0.1360648 0.13341741 0.055338524 -0.04428232 0.008744213
-0.023441892 -0.1070048 0.06726613 0.06734112 0.0032294937 -0.081470504 0.03896906 -0.013859841

weight_hh_l0 f4 [256, 64]
00000000: 8791 943d 87c3 4bbd ccdb a23c bcbb a6bd
00000010: 5230 cbbb 087f 7a3d 9686 21be ace5 bd3d
00000020: 69a2 a6bd 5165 4abc b291 d73b f4eb 263e
00000030: 47fd 6ebd 120b 073c 9732 babd 7b80 003e
00000040: a05a af3b 09b9 e539 f733 2bbd e76d a73d
00000050: 47d2 403d b603 633c c668 813d a87c c73d
00000060: 6c5e 60bd 4315 dd3d 90bb 7dbc 1a8a 5bbd
00000070: b667 613d 8dc6 1b3d 4e0b 37bd 177a 80bd
00000080: 7aab 953c 3f4f 76bc f9c7 9c3d 656b 8e3d
00000090: b921 753c 9090 2fbd c0e0 88bb 95e4 fdbc
000000a0: b2e8 acbd e80d 1e3d 0d63 543d c894 d0bd
000000b0: 073a e8ba a2f7 8b3d fda1 f13d 67d7 d93d
000000c0: bb48 8e3c 5733 96bc 9502 4ebd 39a8 2fbd
000000d0: 2ea7 e23c f89b 16bd d893 0f3e 500a e1bc
000000e0: 93a9 21bd f121 cf3d 9066 d3bd 2004 82bd
000000f0: 9d51 d8bb 7031 36bd 4c06 26bc 6f43 c63d
00000100: dbf2 9c3d 4aa6 c23d 24fb 163e b4aa b3bc
00000110: 2cf8 e13d 2818 13bd 14c2 8ebd b115 11be
00000120: aa3f b1bd f061 653d e3f0 0b3e 9878 fd3d
00000130: e484 9ebd 572c 003d 10a9 fcbd e43e 38bd
00000140: 7460 9b3b 2eac d8bd 232c 80bd 1d0c 63bd
00000150: c4f0 d9bc 4982 bf3d 8fc7 203e 4469 683d
00000160: a134 8c3d 8e83 ab3c a5e1 fbbd 2972 ba3d
00000170: 9335 d93c 0af1 fb3d e7f6 f2bc 8ba1 0a3e
00000180: 8dfc bf3d 1ecc e5bb 7903 19bd 247e 12be
00000190: 6405 a1bd 8222 e2bc 160a 5a3d 3125 463d
000001a0: 6e88 ba3d 324f ec3d 1011 f93d 5c5a b2bd
000001b0: cf70 bc3c ed46 b93d 692a 43bd 373e 87bd
000001c0: c32c e1bd ff3f d73d a071 cc3c de44 34bd
000001d0: 1588 2abe 9bd7 783d 6a5e a5bd 9f8a eabc
000001e0: 2575 13bc 4444 9f3d 5b4d b33d 011e 963d
000001f0: a4ba a83d c98e ca3d 9ea0 a9bc 2091 183c
00000200: d18d 47bc 294b 27bd 9c39 e8bc 4086 833d
00000210: dad5 81bd 036a e7bd 360f c1bc 498b 56bd
00000220: d98c e53d 212c 8bbd 4db2 3a3d 20a0 8c3d
00000230: a20d 713d 6c0f 303c 9f9b a3bd a13e cfbd
00000240: e016 a83d 9dd2 993d 24a7 1c3c ed1e cd3d
00000250: deed bdbd 22ad 7c3d c911 04bd 046d a0bc
00000260: f3dc 753c 5290 b7bd 6bdb fa3c 0642 26be
00000270: 342e e0bd 2c89 8e3d 9f88 d2bc af60 95bd
00000280: 0e81 3fbd df95 be3d 5bdb 85bd 7967 65bd
00000290: 474c 66bc 5b16 5e3d d041 1fbd a3ed 633d
000002a0: 9c89 a33d 1067 733c 05df dbbd 98fb d0bc
000002b0: 03fb 8bbd 62f3 c43d a65c 86bd 1446 223c
000002c0: 391a 503d a1a4 15be dfd6 ca3d 227c dc3d
000002d0: 5dec 01be bb30 443d ec1c a1bc 13a6 043e
000002e0: 470e 113c 04ce 073e 3a53 6f3d 6c2b b0bd
000002f0: 9444 acbc ea51 d6bd 67da 333d 879e 94bd
00000300: e080 f4bc 2f78 633d ff16 f5bc 1dae 123e
00000310: 8d77 c63d 2c23 8fbc a2b8 ecbd 7c85 10be
00000320: baaa acbd 7de2 213d aad7 10bd 145e 3f3d
00000330: a34e e53d faf9 d53d abbd bbbd 7e72 b7bc
00000340: 04e1 aabd e4f1 79bd 8ed9 743d be59 f53d
00000350: ba67 cd3d 2a46 e23d 581e 27bd 51aa b83d
00000360: 958c babd 315a 273d fae6 1f3d 8ce9 d3bd
00000370: 23d0 c7bd 1946 babd a39a 0a3c 2f68 d63d
00000380: fd48 b1ba 9b1f 8bbc 8491 bc3d a980 54bb
00000390: 79ad a8bd 1391 333e 760f 683b b56f 943c
000003a0: 856b 503c 5a20 f3bc 9fba bcbd 02c4 94bd
000003b0: 59d9 293d aecc 3b3c aa2d bbbd dc05 8fbd
000003c0: 20ae 37bb d492 34bd 42b6 fdbc ec27 813c
000003d0: 8bfb 013d 02e7 f2bd 574f 2fbd 012e 183b
000003e0: 3658 01be 507d 523d e916 84bd 9ea3 833c
000003f0: 9962 bebd 2b3e 76bd 6793 bfbd 0186 80bd
0.0725432 -0.049747016 0.019880198 -0.08141276 -0.0062008286 0.061156303 -0.15773997 0.09272322
-0.08136446 -0.012353257 0.0065786475 0.16300946 -0.058347013 0.008242385 -0.090916805 0.12549011
0.0053513795 0.00043816146 -0.041797604 0.08175259 0.047075536 0.013855865 0.06318812 0.09740573
-0.054777548 0.10795071 -0.015486613 -0.0535985 0.055030547 0.03803115 -0.044688515 -0.06273287
0.018270243 -0.015033542 0.07655329 0.06954078 0.014961653 -0.042862475 -0.004177183 -0.030992785
-0.084428206 0.03858748 0.051852275 -0.10184628 -0.0017717489 0.068343416 0.11798475 0.10636788
0.017368665 -0.018335028 -0.05029543 -0.04288504 0.027667608 -0.036769837 0.14021242 -0.027470738
-0.03946836 0.10113896 -0.103222966 -0.06348443 -0.006601526 -0.04448074 -0.010133337 0.09680831
0.076635085 0.09504373 0.1474424 -0.021931984 0.11033663 -0.03591171 -0.06970611 -0.14168431
-0.08654721 0.056001604 0.1366611 0.12376517 -0.077401906 0.031292286 -0.123369336 -0.044981852
0.0047417227 -0.10579716 -0.062584184 -0.055431474 -0.026604064 0.09351022 0.15701126 0.056741014
0.06845976 0.020936754 -0.12298898 0.091038056 0.026514804 0.12301834 -0.029658748 0.13538186
0.09374342 -0.007012858 -0.037356827 -0.14305931 -0.07862356 -0.027604345 0.053232275 0.048375312
0.09108053 0.11538543 0.121614575 -0.08708641 0.02300301 0.09046731 -0.047647867 -0.066036634
-0.10994866 0.10510253 0.024956524 -0.04401099 -0.16653474 0.060752492 -0.08074649 -0.028630553
-0.009000097 0.077766925 0.08754989 0.073299415 0.08238724 0.09890515 -0.020706471 0.009311944
-0.012179808 -0.040843163 -0.028347783 0.064220905 -0.06339617 -0.11299517 -0.023566823 -0.052378926
0.11208505 -0.06795526 0.045580197 0.06866479 0.058850892 0.010745864 -0.07988667 -0.101193674
0.08207488 0.075108744 0.009561334 0.10015664 -0.09273885 0.06168855 -0.032243524 -0.019583233
0.015006292 -0.08963074 0.030622205 -0.16236123 -0.109463125 0.06959757 -0.025699912 -0.072938316
-0.046753936 0.093059294 -0.06535979 -0.056006882 -0.014056272 0.05422054 -0.038881123 0.05564655
0.07985231 0.014856115 -0.10735897 -0.025510594 -0.06834986 0.09616734 -0.0656064 0.009904403
0.050806258 -0.14613582 0.09904265 0.10765864 -0.12687822 0.047898035 -0.019667111 0.12953977
0.008853502 0.13262182 0.05842898 -0.08602032 -0.021028794 -0.104648426 0.043909457 -0.07256799
-0.029846609 0.055534538 -0.029918192 0.14324231 0.09690771 -0.017472826 -0.115586534 -0.1411342
-0.08431001 0.039522637 -0.035361923 0.04672058 0.111966394 0.1044807 -0.09167036 -0.022393461
-0.083436996 -0.0610217 0.05977779 0.119800076 0.1002955 0.11048539 -0.040800422 0.0901686
-0.09108845 0.040857498 0.039038636 -0.1034728 -0.09756496 -0.09095401 0.00845972 0.1046909
-0.001352578 -0.016982844 0.092074424 -0.003242532 -0.08236212 0.1753581 0.0035409606 0.018119672
0.012720947 -0.029678512 -0.09215283 -0.07263948 0.041467045 0.011462374 -0.09139569 -0.069835395
-0.002802737 -0.04408534 -0.030970696 0.015766107 0.03173403 -0.118604675 -0.042800274 0.002322078
-0.12631306 0.05138904 -0.06449682 0.01606923 -0.0929615 -0.06011788 -0.09354287 -0.06275559

bias_ih_l0 f4 [256]
00000000: 4551 28bc 54ac 7abd f0a2 3c3d e6d2 a83d
00000010: 5b58 a2bd 9e8d 813d de16 143d b67a 3b3e
00000020: f0d3 bcbd 4f84 83bc a2c1 9fbd 59e9 0abd
00000030: 0f58 8c3d 45f2 013d b890 e23d 2a61 89bc
00000040: bd50 bc3d e4ae eb3d 3117 66bd 7beb 333b
00000050: f6a3 ae3d 8300 3ebd d4ad b8bd 379e d23b
00000060: 9de7 f03d ce7c dd3c e528 9e3d b0f3 b93d
00000070: 579d c53d 375e a43d 3cad a33d 1840 a33d
00000080: 1942 623c b766 023e e6b5 87bc 97d4 a93d
00000090: 1f20 193e 14ae 1d3e a80f 83bd 6bc1 7ebd
000000a0: 31b2 c23d 494f b83d f514 20bd 060b 6c3d
000000b0: d672 10be 417d 023e 4d19 ddbc 0d26 93bc
000000c0: 165b 8bbb c6bd 0e3c e9d3 97bb 6be9 4abd
000000d0: 7a69 0937 eccd 60bc a39b 613d 2f65 8dbd
000000e0: be80 dc3d 2e1c bc3d ebd5 38bd 455f bfbc
000000f0: 93e1 71bd 776a d13d 75f3 60bd e453 95bc
00000100: 0420 823c 1070 2bbc a719 abbd f808 1ebd
00000110: 9014 6abd 1d37 5cbd 3665 fbbd 8359 38be
00000120: 8872 b73d e355 63bd 5efb 2abc d5c9 a8bd
00000130: 2628 50be 4ade 07ba 8817 3b3d b55c f1bd
00000140: ed36 963d 3bd6 f5bd b112 2bbe 9729 cabd
00000150: 27a6 bd3c ab38 ddbc 869a e0bd 5046 9bbc
00000160: 417d 9a3b badf f0bc 0a00 8c3d beab 3fbd
00000170: 81e3 dabd ed3a ab3c f2ed 72bd e36c dabd
00000180: 9255 cabb cd61 553d a012 06bd 69c7 dfbd
00000190: e22d 15bd 3e98 8eba dae4 90ba 3ef8 68bd
000001a0: 2db5 f6bd 27b1 003d 8508 05be 29b6 c23d
000001b0: 4c45 2cbd 8673 b5bd 545b 23be 5eed 0bbe
000001c0: 8041 7bbd 3da8 773c 8474 4abd 0f1a 0dbe
000001d0: b0c9 23be 1759 ebbd 5b58 22be 294c 13be
000001e0: 0500 c1bd 7067 e3bd d5d0 b3bd ea94 c93d
000001f0: 9fe4 a5bc 336c 093d c2d8 9cbd 438e 523d
00000200: d8e9 d23b c42b bcbb 6b41 b3bc a817 433c
00000210: 22f9 cd3d b01c 863b acec 8dbd cfd2 6abd
00000220: 0289 b7bd 2547 633d e591 623d 3d21 843d
00000230: 10c3 ff3d 46f3 bcbd e4b3 acbd 5cb0 f93c
00000240: 22ba 113e 142a 763b 9cb6 98bd 15e7 303d
00000250: 0a31 a8bc 74e7 d53d a43b c53d 210c c1bd
00000260: 4aa0 c03d bdd2 3c3d 5588 95bd c8bf a03d
00000270: f202 09be dff5 2f3d e27e 40bd 87ff c73d
00000280: 3449 eebd 0c75 b63d 768f 953d 8911 a0bd
00000290: c9ff c9bc 0f2f 3a3d 10a3 2abd 1ba4 ae3d
000002a0: f650 debd ac38 2d3d fd81 943d b66d 023e
000002b0: 5d08 7fbd 6bf3 cebd af40 c0bd c906 da3d
000002c0: 2448 953d ee09 25bd 985f aa3d ec3a 733d
000002d0: 8372 bc3d f3b4 2b3d f77e 64bd 0fc1 b33d
000002e0: 32ad adbd b97f c6bd 4c9f d6bc 9db9 b5bd
000002f0: 1765 56bd 7913 053e 6bd0 fb3c a2ef e13d
00000300: 43b2 16bd 5ddf a13d 7537 533d 8b9c 3f3d
00000310: d1aa 583d 3621 adbd 1e3d e9bd 467e 473e
00000320: 5394 d3bd a22c 863d e7ee 1a3d 2bd6 c4bd
00000330: 77fb 2f3d f236 d03a 0dce 6ebd 0cc7 ab3d
00000340: 0419 3fbd 28eb 6d3d d217 463d c90d 1d3b
00000350: 4dda 8dbd 086c eb3d e798 acbc c63e 93bd
00000360: eb80 123e 4fe2 e4bd abf3 d5bb 8555 313c
00000370: 4731 ad3d 1b6a 52bd a45d ea3b abd3 78bd
00000380: 7f64 b43d a9f3 07bc cc0e abbc 438b 95bc
00000390: 81d5 0ebd 8b8d 4e3d ad12 a1bd f2fa 8d3d
000003a0: 49be 4a3c 3a0b ddbd 1cc3 58bd 2cf3 f63c
000003b0: f218 28bb 1a2c 44bd 55d3 b13c c5da c63d
000003c0: d732 4bbd d119 a43d 2c1e 8d3d 918b b63d
000003d0: c9d4 0c3c f254 bfbc 0ed5 0c3e e309 0cbd
000003e0: abe4 e33d 89e1 b03d b2cb 9a3d 02b8 04bd
000003f0: df17 e2bd f1fd b73d acaa f7bc d05f b2bd
-0.010273282 -0.0611995 0.046053827 0.08243351 -0.07927009 0.063258395 0.03615462 0.1830853
-0.09220111 -0.0160543 -0.078006044 -0.033913944 0.06852733 0.031725187 0.11062759 -0.016769964
0.09195087 0.11507967 -0.05617446 0.002745359 0.08527367 -0.046387207 -0.0901753 0.006427552
0.11762927 0.02703705 0.07722644 0.09079683 0.09649151 0.080257826 0.07992026 0.07971209
0.013809704 0.12734495 -0.016566228 0.082925014 0.1495366 0.15398437 -0.063994706 -0.062196176
0.095066436 0.089994974 -0.039082486 0.0576277 -0.14106306 0.12743093 -0.026989603 -0.01796248
-0.0042528016 0.008712238 -0.004633416 -0.04953901 8.1903945e-06 -0.013720971 0.055080067 -0.06904065
0.10766743 0.09185062 -0.045125883 -0.023360858 -0.059053015 0.10225385 -0.05491968 -0.018228479
0.015884407 -0.0104637295 -0.08354502 -0.038582772 -0.057148516 -0.053763498 -0.12275164 -0.18002896
0.08957392 -0.05550183 -0.010435907 -0.082416214 -0.20327815 -0.0005182965 0.045676738 -0.117852606
0.07334695 -0.12003752 -0.16706349 -0.09871214 0.023150517 -0.02700456 -0.10966973 -0.018954426
0.0047146385 -0.029403556 0.06835945 -0.046794645 -0.10687924 0.020902121 -0.059308954 -0.106653
-0.0061747516 0.052095223 -0.032732606 -0.10926706 -0.03642071 -0.0010879112 -0.0011054531 -0.056877367
-0.12046275 0.031418946 -0.12991531 0.095074005 -0.042058274 -0.08859925 -0.15952808 -0.13664767
-0.061341763 0.015115795 -0.049427524 -0.13779472 -0.15994906 -0.11491602 -0.15854017 -0.14384522
-0.09423832 -0.111037135 -0.08780066 0.09842856 -0.020250617 0.033550452 -0.07658531 0.051405203
0.0064365678 -0.005742522 -0.02188178 0.011907496 0.10057284 0.0040927753 -0.06929907 -0.05732995
-0.08961679 0.05548777 0.055314917 0.06451652 0.12488377 -0.09226088 -0.08432749 0.030479603
0.1423116 0.0037561702 -0.07456705 0.043189127 -0.020531196 0.10444537 0.09630516 -0.094261415
0.09405573 0.046099413 -0.07301394 0.07849079 -0.1338003 0.04295909 -0.046996005 0.09765535
-0.11635056 0.08909044 0.073027536 -0.078158446 -0.0246581 0.045455035 -0.041659415 0.085273944
-0.10855286 0.042290375 0.07251356 0.12737164 -0.062263835 -0.10105022 -0.093873374 0.106458254
0.0728915 -0.040292673 0.08319014 0.059382364 0.09201529 0.041920613 -0.055785146 0.087770574
-0.084803 -0.0969233 -0.026199006 -0.088732935 -0.0523425 0.1299571 0.03073903 0.110320345
-0.036791097 0.07903931 0.05156656 0.04678015 0.05289728 -0.084536 -0.1138861 0.19481763
-0.10331025 0.06551482 0.03782549 -0.09611162 0.042964425 0.0015885516 -0.058301974 0.083875746
-0.046654716 0.05808559 0.04836256 0.0023964515 -0.06926403 0.11495215 -0.021069003 -0.071897075
0.14306991 -0.111759774 -0.0065292916 0.010823612 0.084566645 -0.05137072 0.007152276 -0.060748737
0.088082306 -0.008297839 -0.02088108 -0.018254882 -0.034871582 0.050427955 -0.0786489 0.0693263
0.012374469 -0.10793157 -0.052920446 0.03014525 -0.0025649634 -0.04789362 0.021707216 0.09709696
-0.04960903 0.080127366 0.068905205 0.08913339 0.008595654 -0.023355935 0.13753149 -0.034189116
0.11127599 0.086367674 0.07558383 -0.032402046 -0.11039709 0.08983982 -0.03023275 -0.08709681

bias_hh_l0 f4 [256]
00000000: 3a4a 133e 091c febc cd10 963d 8605 093d
00000010: 5af8 093d 119c 3f3c e20c c23d 4bab eb3d
00000020: 9431 30bd f8f0 ee3c 6e9b 123c 77f7 823d
00000030: 73ee ff3d 7f33 bb3d cf7e 3c3d bc1b 483d
00000040: 393b aa3d 2574 083e 44c2 473c 1c86 f23d
00000050: 835e 6ebd d13a 18bd 3c9b 5fbd bdd4 163d
00000060: c62b 41bd cf79 a33d df39 adbb 35b2 823c
00000070: b12c 00be 155a abbb 1b15 073e ee68 ce3a
00000080: d2f5 ff3d 3824 e2bd a573 b8bd 6f8c db3d
00000090: 2e37 fc3d 5380 1d3d 1d47 85bd c8c5 183e
000000a0: bf99 79bc cd05 13bc 7dd0 28bd fde8 533d
000000b0: af77 f5bc 483f 63bd bd75 a43d 0499 31bd
000000c0: 0c7c 42bd e92f 013c 1250 91bd 314d de3d
000000d0: 6166 a4bd 7ebd 5e3b 006d 813d bb4f f73d
000000e0: 3afc 0cbc 9abe f33b 2dd7 713c c629 4f3c
000000f0: c638 883d aa21 013e 4036 e1bc b6c6 a93d
00000100: 3e39 16be b5f9 02be c1c9 97bd 90d3 5a3d
00000110: e0b4 debb a342 e1bd e680 9cbd a4cc 0dbe
00000120: 2495 39bd 296e 85bc 45d6 92bd 0b01 b9bd
00000130: f03a 05be f6cf dcbd 2bc2 643d 656a 9bbc
00000140: 860c 2c3d fb75 cdbd d931 56be 22cf 743d
00000150: 9258 dbbb be66 c3bd ef82 f3bd 74ce 0bbe
00000160: 3729 ca3c 4665 42bd 74af 8c3d e449 08bd
00000170: 0722 7fbd dde8 0f3d 81a8 643c de4a 063c
00000180: d7d4 dabd 3175 aabd 0b5b ed3b 5287 223c
00000190: 7be2 e13a 05f6 fc3c 6a85 1ebd d0c4 e8bd
000001a0: 5f7a fbbd 419f e33c 0daa b9bd 9d19 883d
000001b0: f92b c2bd d137 df3c 00b1 863d 8e48 4b3d
000001c0: b419 c5bd 8865 863d 301a e0bb 3a0d 67bb
000001d0: f755 123d 22f2 03be 502b c83c 15f8 9ebd
000001e0: 16b1 10be fcab 4ebd 62b5 6bbc 41ea 5cbd
000001f0: 7558 103d 5b05 6dbd 4934 203d ac7c cebd
00000200: 8e2c 803d 457c b1bd e5d5 553d bbd6 9e3d
00000210: 3962 d53d 4af5 d2bb 4ec6 653d 8add 753d
00000220: a847 d83d ff39 203d ca34 90bd 37c7 3dbd
00000230: 6efa 56bd f7c1 e53c 877d d3bd c66b 6e3d
00000240: a891 353d 6e6f d5bd c0bb 9d3d 526e 5a3c
00000250: 075a 52bd 142a cebc 3f61 dabc a560 0bbc
00000260: f280 ad3d 23bb 243d 2d5d 86bd b413 9bbd
00000270: 5e32 56bc 2933 613d f77f 14be d969 c53c
00000280: d8e1 96bd a2d3 45bd 6432 e1bd 0356 a73c
00000290: 86a6 8ebd fed0 bdbc b37c 92bd 5adc e13d
000002a0: f8c2 ee3c 1991 ce3b dcc2 bbbc 57e6 803d
000002b0: c807 1b3c 8d10 13be d117 a13c c919 d33d
000002c0: 2a56 b0bd e740 853d e340 58bb 13d8 843d
000002d0: 9b79 cdbd c6a5 b93d 47a8 fdbd d587 64bd
000002e0: 4650 103d 5d58 5dbd 9579 7d3d 7acf 033c
000002f0: 19d7 10bd 37a3 1d3d b9fc 8b3d adad f23d
00000300: 92e9 6d3c bbc9 24bc 097c babd 7a76 72bd
00000310: 93ce bf3d 0736 083d 510c a3bc 8cd3 0e3e
00000320: 78f4 933d b477 b3bd 84b5 f0bd e598 873d
00000330: 23d2 9e3d 0fa5 98bd f155 0fbd 7e96 2f3b
00000340: 5881 9cbd 7e77 8abd 9b43 8dbd 4dce f73d
00000350: 6cac bbbd dbad 233c 1535 d63d f5c9 2b3d
00000360: 9bf4 0a3e af38 46bc da6a 213c aecd f0bd
00000370: c689 41bd 407f a03d 810d a8bc 4d53 eabc
00000380: 6793 92bd 9d8f fa3d 671d fabd 689a 443d
00000390: 0c43 073e 9295 13bc 6aad 2bbd b6bc 913d
000003a0: f246 fe3d dc67 413d 0a17 913d f5c3 28bd
000003b0: c14a 89bd 7371 e13d bee7 f4bd 2b70 c4bd
000003c0: 0d38 e3bd 2cfa 443d a2a5 a1bd d2d8 cdbc
000003d0: 6475 a83d a0d6 0bbe e214 90bc 038f 053e
000003e0: 3aac a33d c456 b83d 2749 47bd b30d 803d
000003f0: 845e 823c 8795 6dbd 81c0 b13d d5d6 5fbd
0.14383784 -0.031019228 0.07327423 0.033452533 0.033684112 0.011694924 0.094751135 0.11507281
-0.04301603 0.029167637 0.00894819 0.063948564 0.124966525 0.091406815 0.04601937 0.048854575
0.08312077 0.13325556 0.012192313 0.118419856 -0.058195602 -0.037165467 -0.054591402 0.036823977
-0.047160886 0.079822175 -0.00528644 0.015954116 -0.12517048 -0.0052292445 0.13191645 0.0015747824
0.124980584 -0.110420644 -0.090064324 0.10720145 0.12315212 0.038452458 -0.065077044 0.14919198
-0.01523441 -0.008973551 -0.041214455 0.051735867 -0.029964296 -0.05548027 0.08030269 -0.043358818
-0.04748158 0.007884958 -0.0709535 0.10854567 -0.0802734 0.0033987458 0.06319618 0.12075754
-0.008605057 0.007438493 0.014760775 0.012644237 0.06651454 0.12610498 -0.027491689 0.08289854
-0.14670274 -0.12790568 -0.074115284 0.053424418 -0.0067964643 -0.10999038 -0.07641773 -0.13847595
-0.045308247 -0.01628788 -0.07169775 -0.09033402 -0.13010764 -0.10781853 0.055849236 -0.018971631
0.04200413 -0.100322686 -0.20917453 0.05976785 -0.006693908 -0.09541081 -0.11890208 -0.13652974
0.024677856 -0.047459863 0.068694025 -0.033273593 -0.06228831 0.035134185 0.01395619 0.008196561
-0.10685127 -0.08323134 0.007243519 0.009919958 0.0017233634 0.03087903 -0.038701452 -0.11365664
-0.122792 0.0277859 -0.09065638 0.0664551 -0.09481043 0.027248295 0.06576729 0.04962974
-0.09624043 0.06562334 -0.0068390593 -0.0035255686 0.035726514 -0.12885335 0.024434716 -0.07762162
-0.14130053 -0.050456986 -0.014386507 -0.05393434 0.03524061 -0.057866435 0.039112363 -0.10082373
0.06258498 -0.08666281 0.05220594 0.077558 0.10419125 -0.006437932 0.05609732 0.06002573
0.10560542 0.03911781 -0.07041319 -0.046332564 -0.052484922 0.028046591 -0.10326677 0.05820825
0.04432836 -0.10421644 0.07701826 0.0133319665 -0.051355388 -0.025166549 -0.026657699 -0.008506929
0.0847186 0.04021753 -0.065607406 -0.075721174 -0.013073532 0.05498043 -0.1450194 0.024098324
-0.07367295 -0.048297532 -0.109959394 0.020426756 -0.069653556 -0.023170944 -0.07152691 0.11028357
0.029145703 0.006303918 -0.022920065 0.06293934 0.009462304 -0.14361782 0.019664677 0.103076525
-0.086101845 0.0650652 -0.003299766 0.064865254 -0.1003296 0.09064822 -0.12385612 -0.055793602
0.035232805 -0.054039348 0.061883528 0.008045072 -0.035361383 0.038485732 0.068353124 0.11849532
0.0145210195 -0.010057862 -0.09105689 -0.05919502 0.09365573 0.03325465 -0.019903334 0.13947886
0.07224363 -0.08763066 -0.11753371 0.06620959 0.07754924 -0.074533574 -0.03499407 0.0026792581
-0.07641858 -0.067610726 -0.0689766 0.120998956 -0.09163746 0.009990181 0.10459343 0.041940648
0.13569872 -0.012098475 0.009852136 -0.1175798 -0.04725053 0.07836771 -0.020514252 -0.028604174
-0.07157021 0.12234423 -0.12212639 0.047998816 0.1320917 -0.009007828 -0.041913427 0.07116072
0.124158755 0.04721819 0.070844725 -0.041202504 -0.06703711 0.11007967 -0.11958264 -0.09591707
-0.11094675 0.048090145 -0.0789292 -0.025127802 0.082255155 -0.13656092 -0.017588083 0.13042836
0.07991834 0.09000924 -0.048653748 0.06252613 0.01591421 -0.05800393 0.08679295 -0.05464824

weight f4 [1, 64]
00000000: f9f3 bb3d 3b06 c53d fba5 8fbc eff3 e23c
00000010: 498a c63d ad1b da3d 3e4c 8fbd 0f9d 3ebd
00000020: 4acc 31bd 8f33 9f3d 33f2 f73d e0ca 053e
00000030: 77bc 1f3b 95c0 023e cded b7bd d876 873d
00000040: 4bbc 61bd 52b9 743d 2d87 50bb 5419 c83d
00000050: 7de4 cfbc 101d c9bd a7f4 6bbd 3ebc d0bd
00000060: b3ad 59bd 2f0b 303d 4e25 83bc 1aa8 27bd
00000070: 62f2 793b df36 1cbe 3a6b 9c3d f500 ddbd
00000080: 48d5 e63d 8af2 653c dacd ac3b 29d6 d73d
00000090: 5d16 11be d05d bb3d 5511 253e ecc1 10be
000000a0: d0ef b83d bfa5 8bbc 868b 67bd f462 82bd
000000b0: 56ff 42bd ce7d 9b3d 4dd4 cebd 9fbc 4a3b
000000c0: d2e7 833d f34d 123d 6ad3 e23d 5732 67bd
000000d0: 5f97 f2bd 635b 4b3d df70 5e3d 63bf 03be
000000e0: d28c c23d e958 fcbd 847a d43b 9719 ad3d
000000f0: fca1 62bd 3ae8 70bd ea93 cabd d4cf d8bd
0.091773935 0.09620329 -0.0175352 0.027704207 0.096943446 0.1064981 -0.06996964 -0.0465365
-0.043407716 0.07773506 0.12106743 0.13065672 0.0024373808 0.12768777 -0.08980904 0.066144645
-0.05511121 0.059747048 -0.0031818852 0.09770456 -0.025377506 -0.09819996 -0.057606366 -0.10192154
-0.053144168 0.042979416 -0.016009 -0.0409318 0.0038138856 -0.15255307 0.07637639 -0.10791198
0.11271149 0.014034877 0.005273563 0.10538895 -0.14168687 0.09148753 0.16119893 -0.14136475
0.090301156 -0.017046807 -0.056529544 -0.0636653 -0.04760679 0.07592355 -0.10099087 0.003093518
0.064407006 0.03571887 0.1107548 -0.056444492 -0.11845278 0.0496477 0.05430686 -0.12865977
0.094995156 -0.12321646 0.0064843316 0.084521465 -0.05533026 -0.05881522 -0.098914936 -0.10586515
