model/9969.42686416827_weight.pth (torch, 224833 bytes, 11 tensors)

weight f4 [16, 32, 1]
00000000: 5f52 1e3d df4f ad3c e43e e93d f189 90bd
00000010: 61d0 7b3b 7fb7 2ebd 2d87 053e fe5c b03c
00000020: 44d2 07bd 8528 a5bd 966a ac3d 5580 163e
00000030: c5f3 b13d c446 603d fc1a 18bd 3476 50be
00000040: a2de 97bc 94f1 5fbd 3fe0 ee3d 1f36 c33b
00000050: 575b 88be 4b9b 9abd 0fdc 23be 0520 b83d
00000060: 9068 0b3e ebf3 6d3d 8946 413e 7e5d cf3d
00000070: b26f c3bd 6288 2bbe 3316 fa3d 5f9c 97bd
00000080: f415 f8bd 6c72 38be a71b 75be 1526 8fbd
00000090: 0545 99bd 8aea 4f3e bcfd 183e 9d2d 133e
000000a0: fb8d 8abd bb7e 553d 487d 7ebd 3149 7f3d
000000b0: e3e1 a03b 0052 1c3e 05e9 183d 625a 59bc
000000c0: 38f0 ef3d db90 e3bd 1566 7a3c f6d7 c03d
000000d0: dee4 19be 792e 283e d949 d8bd a375 373c
000000e0: 5f6f 65bc e6ea 643e f6d7 043e 815d 223c
000000f0: c092 603e 1f35 a8ba 3170 d43d bf73 3e3e
00000100: ce3e 603e a286 423d ba34 0f3e a310 e3bd
00000110: 2f19 013d 4f1c a1bd 3a0c 8ebc 3ba2 b6bd
00000120: 3651 33be ac0a 603d 561f 35be b098 49bd
00000130: 9cf4 f1bc 33bc 42be 4373 1f3e bc28 8e3c
00000140: 38d4 b4bd 0fd9 443e f72c d63c 0c2c 75bd
00000150: 8cbf c43e 4fd5 a4bd eccc 1cbe f53c 0abd
00000160: ee3f 093d 2c75 1cbd 56aa 1bbb af06 c23d
00000170: f2f3 823d 9f7d 78be e2ea df3d 5206 073e
00000180: 6215 1e3e 46bb 583e 02c1 133d 73e6 ae3d
00000190: 1995 6d3d f49e 2c3d be2c 8bbb 9d4c 1c3e
000001a0: 8087 05be ad2e 583c 96e5 23be 9195 e0bd
000001b0: 0fe2 b1bd fb52 7b3d 39bf 55bd e685 513e
000001c0: e929 cb3c 1bb7 793d e510 15bd d0e5 a6bb
000001d0: 42dc a73d 4bd5 c5bd e166 b53d ff66 293e
000001e0: a352 e53d 50e0 15bd d17e 8abd 7b42 bd3c
000001f0: 48cb 213e 365e 273e 6cb8 263e 1de2 963d
00000200: b704 983e a54b 583e af6e 923e 6881 2bbe
00000210: 6d98 0fbe e158 b9bd d961 813d 63e5 f23d
00000220: 6f98 8cbc 1d7a 0abd ab9f e53c 67ff c3bc
00000230: 96aa b5bd d7fc 63be 3886 c63d ce8c b03c
00000240: 2116 79be b81e 10bd 356c c7ba 417b d03d
00000250: 2fd9 4c3e 6743 203d a37d 143e c106 5fbe
00000260: b45c dc3d 02ea 41bd 6d7f 183e e0f5 183e
00000270: fff4 22bc 7bb1 81bd f0f2 33be e334 b6bb
00000280: 2168 bf3d 9401 ec3b 79e3 6b3d 1295 ffbd
00000290: d63a 7abc 3fd7 d6bd 1e8f ecbd e625 44be
000002a0: 1a92 29bd 7414 13be ca79 863d 2f64 d23d
000002b0: 4004 3bbd e23f 8d3c 5783 21be 6ca5 8c3c
000002c0: d05b 423c 813b 233d 2c49 8fbc c663 073e
000002d0: a2da 423e 075c cc3c 1d50 1ebd 9ccd d6bd
000002e0: 6535 d4bd a9a5 13bd fe86 3abe 6eb7 c03d
000002f0: 2bdf 00bd 8eda bdbd 477b 413d 2269 a5bd
00000300: b34f 89be cb7e 37be b754 19be 49bc c73d
00000310: 5981 b6bd ffad dcbd 71be 2b3d f891 34bc
00000320: 1799 373e 85ce 0f3e 1a6a 6b3d d0d8 b7bd
00000330: 9862 b73d c22a e4bc b695 c5bd dee7 a4bd
00000340: b948 b0bc f8ff d5bd 3ac7 ca3c 39a3 99bd
00000350: 4e31 7d3c 3a4d 643e d6af 03bd 7c49 82bc
00000360: c5f1 063e e55c f7bd d1ba 9e3d f9cb aa3c
00000370: 052f 133e 990e de3c 35bf abbd 3384 1e3d
00000380: 4d6d 36be c921 c03d c140 bc3c d399 0c3e
00000390: 8a50 513d e208 e5bd 758c cf3d 635d 84bd
000003a0: 8802 8dbd c00d 29bd 95e4 19be f96c 3c3e
000003b0: abd0 e9bd a4b9 a2bd 504e 52bd 860e 9abc
000003c0: df0b 093e 0a53 cebd 8a2b f63c e26d 173d
000003d0: b9ca f7bd 46c0 0bbe e9a5 813d 730b e3bd
000003e0: 2555 8a3c 746e 85bd 505f 38bd 5b89 f73c
000003f0: f780 1fbe 0cb6 c93a fa18 22be cdf5 c5bc
0.038652774 0.02115625 0.113889486 -0.0705756 0.0038423764 -0.042655464 0.13039847 0.021528717
-0.03315951 -0.08064369 0.08418767 0.14697392 0.086890735 0.054754987 -0.03713511 -0.20357591
-0.018538777 -0.054673746 0.11663865 0.0059573795 -0.26632187 -0.07549151 -0.16001914 0.08990482
0.13614106 0.058093946 0.18874563 0.10125254 -0.095427886 -0.16751245 0.122112654 -0.07402872
-0.12113562 -0.18012398 -0.2393633 -0.069896854 -0.074838676 0.20304313 0.14940542 0.14372869
-0.06765362 0.052122813 -0.062131196 0.06232566 0.0049097403 0.15265656 0.0373316 -0.013266178
0.1171574 -0.11111613 0.015283127 0.09416191 -0.15028712 0.16423978 -0.1056096 0.01119748
-0.014003604 0.22355232 0.12973008 0.009909988 0.2193098 -0.0012833214 0.10372961 0.18598841
0.21898958 0.047491677 0.13984957 -0.110871576 0.031518158 -0.078667276 -0.017339814 -0.08917662
-0.17511448 0.054697677 -0.17687735 -0.04921788 -0.029535584 -0.19017105 0.15571313 0.017353408
-0.0882954 0.19223426 0.026144488 -0.05985646 0.3842739 -0.08048498 -0.15312546 -0.03374954
0.033508234 -0.03819768 -0.0023752651 0.09473931 0.06394185 -0.2426667 0.10933472 0.13186005
0.15437844 0.21165189 0.03607274 0.085400485 0.05800352 0.042143777 -0.004247277 0.152636
-0.1303997 0.013194722 -0.16005549 -0.109660275 -0.086856954 0.061358433 -0.052184317 0.20461234
0.024800258 0.06096564 -0.036393065 -0.0050933138 0.08196308 -0.09659823 0.08857513 0.16543196
0.11197402 -0.036590874 -0.067624696 0.02310299 0.15800202 0.16344532 0.16281289 0.073673464
0.29691097 0.21122606 0.2860007 -0.16748583 -0.1402299 -0.090501554 0.06317491 0.11860158
-0.01716253 -0.033807863 0.028030237 -0.023925496 -0.08870427 -0.2226442 0.09693569 0.021551516
-0.24324848 -0.035185546 -0.0015214743 0.10179759 0.20004724 0.03912678 0.14501052 -0.2177992
0.10759869 -0.047342308 0.14892359 0.14937544 -0.009946107 -0.0633268 -0.17573142 -0.005560504
0.09346033 0.0072023366 0.05758998 -0.12479605 -0.015272817 -0.10490274 -0.11550735 -0.19155082
-0.0413991 -0.14363271 0.06566198 0.10273015 -0.04565835 0.017242376 -0.15772758 0.017168723
0.01186271 0.03985167 -0.017490946 0.13221654 0.19028714 0.024946226 -0.03865062 -0.104884356
-0.10361747 -0.036046658 -0.18215558 0.094099864 -0.03146283 -0.092702016 0.047236707 -0.08076693
-0.26818618 -0.17919461 -0.14973722 0.097527094 -0.0891139 -0.107753746 0.041929666 -0.01102113
0.17929493 0.14043625 0.057474233 -0.089769006 0.08954352 -0.02785242 -0.09647696 -0.08052038
-0.021519052 -0.10449213 0.024753202 -0.075018354 0.01545365 0.22295085 -0.032150112 -0.01590418
0.13178165 -0.12078265 0.07750476 0.020849215 0.14373405 0.02710657 -0.08386079 0.038700294
-0.17815132 0.09381444 0.022980096 0.13730554 0.0511022 -0.11183335 0.10134212 -0.064631246
-0.068852484 -0.04127288 -0.15028603 0.18400945 -0.114167534 -0.079455644 -0.051344216 -0.018805753
0.13383435 -0.10074432 0.030050058 0.036970027 -0.12099213 -0.13647565 0.06330473 -0.11086168
0.016886303 -0.06515208 -0.045012772 0.030216863 -0.1557654 0.0015389337 -0.1582984 -0.024165059

bias f4 [16]
00000000: 990c cfbd 3295 b03d 4dbe e63d 8064 bbbd
00000010: b1a4 9fbd 643b 733d 350f 31be 3cb1 f13d
00000020: 300f ce3d 5b7c 1dbd 9c02 b13b 99f9 74bc
00000030: becf e93d d565 413d 99a3 dcbd 7128 fd3d
-0.10109825 0.08622207 0.11266766 -0.09150028 -0.07795084 0.05938281 -0.17290957 0.11801383
0.100614905 -0.038448673 0.0054019224 -0.014952087 0.11416577 0.047216255 -0.10773391 0.12361229

weight_ih_l0 f4 [256, 16]
00000000: d794 983d d709 24bd b75d 893d bddc 643d
00000010: b5da d0bd 9c07 9abd 8201 2b3e e37d c03c
00000020: d167 b5bc c867 e8bd 66f7 8abd 0667 f1bd
00000030: 84ae 023e b150 3f3e 2620 363d 372d 223d
00000040: 3c2b 1bbd 85e9 41be cf6a 853e 9f86 e4bc
00000050: 940c 853e e06e c73d 2d26 1bbe dc8d f4bc
00000060: 1e94 913c d871 dbbd 7fb1 b73c 0a34 1a3e
00000070: d2bf c0bd 9c2f eebd e8b2 0abe 9139 00be
00000080: 782f 113c e1ee aebc fd9a e5bd 1d1f 4bbc
00000090: 1c07 a2bd 8a32 2b3e 8b44 773d 80f2 91bc
000000a0: 8d43 36be 74d7 a6bd 8ae4 1a3d 9e79 8cbc
000000b0: 152d 103e e671 893d a5c5 a7bd ee38 303e
000000c0: c27f 523d 9553 5abc 132a 33be 454c 1fbe
000000d0: b53d 0abe 0cc4 06be 81b8 15ba e8fe a7bd
000000e0: 9f84 e7bd c9c9 9a3d ac3a c03c cb4c 2cbe
000000f0: 7cc4 8f3d f4c0 383e 3d40 353e bb19 843d
00000100: e4e9 22be e6cd debc df28 43be 532b 13be
00000110: e3bb 26bc 94dd 5f3b 1863 393c 9dc7 68bd
00000120: 118e 063d 1797 efbd c797 acbd ff05 15bd
00000130: f9ac 023e 1983 6cbc 5713 cc3d c149 ea3d
00000140: e1fc 6f3c 2744 533d 66b0 05be 7a71 7dbd
00000150: 0c6f 68be d85b 9bbd 2f8e 5a3e 3e32 e43c
00000160: 3fca cdbd b64d dd3d 07f9 87bd fd30 363d
00000170: 10e2 2f3e 905d 21bd 650f 293e 96c8 b23c
00000180: 84c4 93bd 53e1 1f3e 7ead a9bd 1368 16bd
00000190: af5b 98bd 79b0 13bc 558f 2e3e 4d70 aebd
000001a0: fad4 363d 2034 c8bd 4ce3 4fbd 95ca c7bd
000001b0: ddf3 ed3d 8e29 173e 7bea 883d d972 593d
000001c0: cdd6 03bc 3442 803d 06ba 3abd 9328 d1bd
000001d0: 6ac4 e43b 2d15 833d e22e e13d d2f0 043e
000001e0: 7cc7 d6bd 3898 993d 6e61 03be 918e 37be
000001f0: 66cd c63c 3fc8 963d f92c de3d 5046 223d
00000200: 3211 e8bc cd90 99bd 27dd f8bd 79a3 02be
00000210: f93c 88bd 86b2 b33c 69e1 a13d d269 323c
00000220: 7a0a d3bd 2311 abbc 9a85 d7bc f1ca e8bb
00000230: c882 b53d 0578 f03d e02a e83d 83ef 3b3e
00000240: 6ff2 e9bd 0312 a7bd 2891 efbd 9ccb 043d
00000250: 50d5 c0bd 2daf 03bd aadb 323d ad16 873d
00000260: f7e9 aa3c bc94 80bd 789e 243d 109e 663c
00000270: c7d2 fabc 773f 903d e060 233e 4792 6cbc
00000280: 78e5 e33c afb8 39bd 819d 3e3d bde2 383d
00000290: f440 9d3c 1536 78bc 831e 163e 8927 a13d
000002a0: 328c 53bd 3689 95bd bf6b 30be 0462 89bd
000002b0: 6a51 8b3d 3399 3d3e 0094 1abd efec 1dbd
000002c0: 896d c7bd 2cd8 d1bd 6ea1 0bbe 255d 5f3d
000002d0: a5af c0bd 8cee 0fbc fe14 a73b cdd8 43bd
000002e0: f411 fcbd cdd2 07be dcec c0bd 037c 4b3d
000002f0: 5165 9bbd 6194 843d 0b47 dd3d 9a69 aa3d
00000300: 257e a2bd 0e78 6ebb 9d95 e1bc 4ba1 29bc
00000310: dc20 453c fa9b fbbc 53a1 f93c c350 bdbd
00000320: 540a ad3d 2ed0 a9bb 611c b23d 8d54 0dbe
00000330: 8997 8f3c 8309 8cbd bba3 b73c 6758 51bd
00000340: a259 0ebe f5fd bdbc 9557 9c3d 37ee 7c3d
00000350: 1413 e23b 4f12 9d3d e41f 0c3e dec8 35bc
00000360: f65f 2bbe 322a 413d 52a0 b6bd 92a2 dd3c
00000370: 2b9d 273d c869 bf3d eda9 75bc 9a55 d03d
00000380: 67d3 063d be9f c13c 9952 37be 99af 3bbd
00000390: f0f7 093d dff0 b43d 9153 13bd 8601 c2bc
000003a0: 8185 2aba d8ad 0ebe 18e2 72bd f115 68bd
000003b0: 5892 4d3e 1b53 1d3e feb3 313e 5cc6 593c
000003c0: 2eec eb3d c386 f03c 0936 77be 36c2 2c3d
000003d0: cf10 26be a49b 80bd 2496 133e 7927 e6bb
000003e0: ea4b 1dbe 7d61 cdbd 09c4 993d 7126 96bd
000003f0: 8e67 233e 96a1 3a3d 47ee e53d 1bfa ac3d
0.07450264 -0.040048447 0.06707328 0.055874575 -0.10197965 -0.075209826 0.16699794 0.023497527
-0.02214423 -0.1134792 -0.06785469 -0.11787228 0.12761885 0.18683125 0.044464253 0.0395939
-0.03788303 -0.18936737 0.2605805 -0.027896224 0.2598616 0.097379446 -0.15151282 -0.0298528
0.017770823 -0.10715073 0.022423504 0.15058914 -0.09411587 -0.116301745 -0.1354481 -0.1252196
0.008861415 -0.02135414 -0.11211202 -0.012397555 -0.07911512 0.16718498 0.060368102 -0.017815828
-0.17799206 -0.08146563 0.037815608 -0.017147835 0.14079697 0.067111775 -0.081919946 0.17209217
0.05139137 -0.013325592 -0.17496519 -0.15556438 -0.13500102 -0.13160723 -0.0005711392 -0.082029164
-0.11304592 0.07558019 0.023465477 -0.16826169 0.07019898 0.18042356 0.17700286 0.0645022
-0.15909535 -0.02719779 -0.1905856 -0.14371996 -0.010176632 0.003415917 0.01131513 -0.05683099
0.03285033 -0.1169874 -0.08427387 -0.03638267 0.12761296 -0.014435553 0.09964626 0.11439849
0.014647693 0.051578667 -0.13055572 -0.061875798 -0.22698611 -0.07585877 0.21343301 0.027855989
-0.10048341 0.10805838 -0.06639295 0.044480313 0.1717608 -0.03939587 0.16509779 0.021824162
-0.07215217 0.15613298 -0.08285044 -0.036720347 -0.07439362 -0.009014242 0.17046864 -0.085175134
0.044636704 -0.09775567 -0.050753877 -0.09755436 0.11618779 0.14761946 0.066853486 0.053088043
-0.008046818 0.06262627 -0.045587562 -0.10212817 0.006981422 0.06400523 0.1099527 0.1298249
-0.104872674 0.074997365 -0.12830135 -0.17925479 0.024267863 0.07362413 0.108484216 0.039617836
-0.028328512 -0.07498322 -0.121515565 -0.12757672 -0.066522546 0.021935713 0.07904322 0.010889487
-0.103047326 -0.020882195 -0.026308823 -0.0071042706 0.08862835 0.11741642 0.11336303 0.18353085
-0.11423194 -0.08157732 -0.11697608 0.03242074 -0.09415686 -0.032149483 0.04366652 0.06596122
0.020863516 -0.06278369 0.04019019 0.014075771 -0.030618085 0.07043355 0.15954924 -0.014439172
0.02781938 -0.045342144 0.046536926 0.04513811 0.019196011 -0.015149613 0.14660077 0.07868869
-0.051647373 -0.073015615 -0.17228602 -0.06708148 0.06802638 0.18515472 -0.0377388 -0.038556036
-0.09737689 -0.1024631 -0.136358 0.05453219 -0.094085015 -0.008784901 0.005098938 -0.04781418
-0.12308112 -0.13264008 -0.09420177 0.049678814 -0.07587684 0.064736135 0.10804566 0.08320923
-0.079342164 -0.0036387476 -0.027537161 -0.010353397 0.01203176 -0.030714024 0.030472433 -0.0924392
0.084492356 -0.0051822877 0.08696819 -0.13801785 0.017528312 -0.06837752 0.02241694 -0.051109698
-0.1390138 -0.023192385 0.076338924 0.061750617 0.006899247 0.07669508 0.1368404 -0.011095254
-0.16735825 0.04715938 -0.089172974 0.027055059 0.04092137 0.09346348 -0.014994127 0.10172577
0.032916453 0.023635741 -0.17902602 -0.04582176 0.033683717 0.08835005 -0.035968367 -0.023682367
-0.0006504879 -0.13933504 -0.05929765 -0.05666155 0.20075357 0.15363733 0.17353818 0.0132919215
0.11519657 0.029361134 -0.24141707 0.0421774 -0.1621735 -0.06279686 0.14412743 -0.0070237485
-0.1536099 -0.1002836 0.07508094 -0.07331551 0.15957472 0.045564257 0.112270884 0.08446141

weight_hh_l0 f4 [256, 64]
00000000: 936d f9bd 52f4 cb3d fb7d 923d e685 04bd
00000010: 30b3 963b 2bb2 3d3c eeea 2c3c 50ee ddbd
00000020: 7d8e 4a3d 7281 eb3d 95ae 2ebd ee1b 263d
00000030: 38dd 7e3d 8dbb 5f3d 23cf 39be 1897 80bd
00000040: a0b8 8cbd 464e 17be 8fe6 aebd f00e d93d
00000050: 63d6 c43d 144f 0fbe 8886 8fbd a326 0a3e
00000060: 5b93 b0bd 0107 a4bd d42d 1a3e 4869 f8bc
00000070: 6f41 023c 0338 ab3d ceaa cdbd aff0 a83d
00000080: 138b 663d 2e69 e4bd ea06 b03c 0990 3e3b
00000090: f9e2 cf3b 6afe 13bd 534d 4b3d 4dcd ddbc
000000a0: 7ce7 52bc 7cec 82bd 726f 93bc 28ed 95bd
000000b0: c8eb 9c3b db47 6ebd 51d6 fc3d e23d b63d
000000c0: 64bc b1bc 97c8 63bd f383 853d bc23 41bc
000000d0: a6de 7f3d e43c 793d 2aa5 043e 9023 8abd
000000e0: e26d 65bd 1fce 163e b24b 143e 18a8 e8bd
000000f0: a58d 1a3d cd02 933d a33c 0a3e 269a 8c3d
00000100: 5739 88bd 8f7d debd 92ba c8bd cba6 3bbd
00000110: f6c6 c9bd dd81 d7bd 3b79 f7bd 516d a43d
00000120: 63b1 b03d 0867 0e3e 6073 aabd 663d 983d
00000130: c8fb 1b3d f918 fe3d fe60 953c c559 113e
00000140: 67ac 24bc d545 c7bd e9d4 483c b395 253e
00000150: b563 15be 3bc1 1f3d 6b7f 64bd 5fe4 e33d
00000160: 1087 41bd 7dbd bfbc 6fd0 c83d 8fbf 073d
00000170: e3fc 583d 36d0 353d d640 1cbd 0448 a2bd
00000180: 7bee 103e 4a08 aa3d 0514 8e3c b1d5 c03d
00000190: 42d3 193e 4b6d 293d b940 383c 7081 3fbc
000001a0: 39da 853d bde0 1bbe 8b98 abbd f019 143d
000001b0: 9fee 15bd 1047 9c3d dc2c c7bd e7e4 6bbc
000001c0: 40b7 a5bd 5436 b63d 861f c43d 55e7 ed3c
000001d0: 32b2 0c3d 0374 3fbd 174e 0d3e b979 243d
000001e0: d884 4abd 9346 573d 1c2d 54bd b6c3 81bd
000001f0: 4c24 c0bc 627e 393d 2e01 a1bd c3fa 3a3d
00000200: a8be ecbc d7b2 633d d203 fe3d 9c3e 06be
00000210: 80fa a83c ea24 9dbc d960 a23d 6d87 14bd
00000220: 33b4 983c 1795 46bd a019 5e3d f74e 96bd
00000230: 2e34 c5bd b770 e1bd d4c2 d4bd d185 5a3d
00000240: 3221 4a3d 2a34 99bd b1c0 c8bc 269c 5bb9
00000250: 890a 0bbe bfeb a33c fbdd 8c3d 3985 a0bd
00000260: cc16 adbd a860 c2bd 4ab8 7a3c 020e cd3d
00000270: 5500 03bd 4cec f6bd 673b 663c ca0c 53bd
00000280: 11ba 03bb 1ae7 813d f5ae cc3d 2193 953b
00000290: 7cd7 183d 345e d53d 865f 39bd deed 20be
000002a0: d0e1 293c 8830 483d 2872 d33d 9759 c53c
000002b0: 232b c1bd 8c84 563d 1ace ddbd abfe b03d
000002c0: 382b 3a3d 6336 593c cb8b 093e c1f8 13be
000002d0: 0b90 093e 5936 5cbd b8a2 883d 15fd febd
000002e0: bf46 82bd d865 08be 656f 12ba 05a9 613b
000002f0: 4ffb a5bd adcf 073e 5670 653d edb5 4bbd
00000300: 1c35 60bd c803 07be 23ff 883d dc4d cbbc
00000310: 8f97 99bd febf f5bc 65fb 6abc 8a40 633d
00000320: 84aa 8ebc e499 d03d 0258 0f3c 779b 5b3d
00000330: 8fb4 b63c 5221 84bd ffb4 5b3d 426c 903d
00000340: a9ac c3bd b54f 3339 7ef3 b2bd 3d81 b63c
00000350: 0ccd 383d 9b49 55bd e3bf b23d 9c3a 21bc
00000360: 903b 803d 3269 773d c71b c3bc 5e29 4abd
00000370: bdee 413c 3c67 30bd 1872 533c 8fd3 1abb
00000380: a87e 103e 93a9 c9bd d622 723d 1a0f 46bc
00000390: 3a74 5b3c 4763 01be 65a5 c83d ebcf 92bd
000003a0: 1c17 cd3d ce6b 94bd 1ffc b13c d0aa ab3c
000003b0: af0d a0bd 61ca aa3d 6367 a5bd 944c 76bd
000003c0: 1740 963d c757 9fbd 969b 2a3d d5c4 ab3d
000003d0: 3471 983d 6972 983d 550b 553d 1b4b d3bc
000003e0: e19e 043d 4887 803d a5f0 21bd 4dd6 a8bd
000003f0: 5d7f f53c 50c0 ccbc 5c6a 363d 810c f23d
-0.12179103 0.0995871 0.07152935 -0.032354258 0.0045989975 0.011578123 0.0105540585 -0.1083647
0.049452294 0.11499299 -0.042646963 0.04055398 0.06222269 0.05462222 -0.18145423 -0.06278819
-0.06871152 -0.14775953 -0.08540069 0.10598552 0.096112035 -0.1399501 -0.07008082 0.13491301
-0.08621856 -0.080091484 0.15056545 -0.03032364 0.007950171 0.08360293 -0.10042344 0.08249032
0.056284975 -0.11152874 0.021487672 0.002907755 0.006344196 -0.0361313 0.04963429 -0.027075434
-0.012872573 -0.06392762 -0.017997477 -0.073206246 0.0047888495 -0.058173995 0.12345565 0.08898522
-0.021696277 -0.05561122 0.06519308 -0.011788305 0.062468193 0.060849085 0.1295363 -0.06745064
-0.056012996 0.14727066 0.14482 -0.11360186 0.03773274 0.071782686 0.13499694 0.06865339
-0.06651562 -0.10863792 -0.098012105 -0.045813363 -0.09852402 -0.10522816 -0.1208367 0.08028663
0.08627584 0.13906491 -0.08322787 0.07433586 0.038081914 0.12407107 0.018234726 0.141944
-0.01005087 -0.09730116 0.012257793 0.16170387 -0.14588816 0.03900264 -0.055785578 0.11127543
-0.047247946 -0.023405785 0.098053806 0.03314167 0.052975547 0.04438802 -0.03814777 -0.07923892
0.14153473 0.08302362 0.01734353 0.094157584 0.15021995 0.041363996 0.0112459 -0.011688575
0.06535763 -0.1522245 -0.08378705 0.03615755 -0.03660452 0.076307416 -0.09725353 -0.014397836
-0.08091593 0.08897081 0.09576325 0.029040972 0.034349628 -0.046741497 0.1379932 0.040155146
-0.049443096 0.05255754 -0.051800832 -0.06336157 -0.023454808 0.045286544 -0.07861553 0.0456493
-0.028899506 0.055590477 0.124030724 -0.13109821 0.02062726 -0.019182641 0.079286285 -0.036261965
0.018640613 -0.048482027 0.054223657 -0.0733928 -0.09629093 -0.11007827 -0.10388723 0.053350274
0.049348064 -0.07480653 -0.024505945 -0.00020943637 -0.13578238 0.020009873 0.06878277 -0.0783791
-0.08451614 -0.09491092 0.015302727 0.100124374 -0.03198274 -0.12056789 0.014052249 -0.05152587
-0.0020099918 0.06342907 0.09994308 0.0045646583 0.037314877 0.104183584 -0.045257114 -0.15715739
0.010368779 0.048874408 0.10324508 0.024090571 -0.09432056 0.0523725 -0.108303264 0.08642324
0.045451373 0.013257596 0.13432233 -0.14450361 0.13433854 -0.053762767 0.06671661 -0.12450615
-0.0636115 -0.133201 -0.0005586057 0.003443302 -0.08104574 0.13262816 0.056015335 -0.049734045
-0.05473815 -0.13185036 0.066892885 -0.0248174 -0.07499611 -0.029998776 -0.014342164 0.05548147
-0.017415293 0.10185602 0.00874901 0.05361506 0.022302894 -0.06451668 0.05363941 0.070518985
-0.09554417 0.00017100463 -0.08737849 0.022278422 0.045117423 -0.05207215 0.08728006 -0.009840634
0.06261361 0.060403056 -0.023816956 -0.049355857 0.011836705 -0.043067202 0.01290562 -0.0023624634
0.14110816 -0.09846797 0.059115253 -0.012088561 0.01339441 -0.12635528 0.097971715 -0.071685635
0.100141734 -0.072471246 0.021726666 0.020955473 -0.0781511 0.08339382 -0.0807636 -0.060131624
0.07336443 -0.07780414 0.041652285 0.08387152 0.07443467 0.07443697 0.05201276 -0.025792649
0.03237808 0.06275803 -0.039536137 -0.08244 0.029967958 -0.024994045 0.044535026 0.11818791

bias_ih_l0 f4 [256]
00000000: ac06 67bc 633a be3d 73b7 fa3d 5bac b13d
00000010: ac33 a73d 15f5 593d 9f57 b4bc 4fc8 e43d
00000020: 1f21 dd3d 9306 b2bc a435 193e b600 c9bd
00000030: 8380 f53c cbbd 293e b477 fe3d 6884 b03a
00000040: 736d bd3d d1c5 d43d 0f89 293e bf7b 9d3c
00000050: b387 ac3d 0687 a0bc 094b 263e ab28 043e
00000060: 6b4f 113e 77ce 1a3c 7a42 3b3d c0c7 743d
00000070: 69b6 4d3d 7383 b63d cdd0 203e d43a 503d
00000080: 9d52 af3d 377a 93bd ee29 f63d fff8 da3c
00000090: 5190 a43c bb19 f13b 21a9 24bd 647c 94bc
000000a0: a5f4 4dbd 54c6 283e 669e fd3d 8884 86bd
000000b0: 0f20 bfbc 74ec 223e 4664 583d 5cca d83d
000000c0: 90b9 a03d 87e8 7bbb b470 443e 04dc b4bd
000000d0: eaee 2d3d c82c a4bd c197 3ebd d728 ba3d
000000e0: c8e6 5cbc 2d95 933d 4a02 303e 35d1 053d
000000f0: 2ce0 67bd 0294 e83c dd1a 513d 471c e53d
00000100: 1cc1 48bd 08c3 2dbe 563f 39be 756c 09be
00000110: ceda 96bd 530f 363d 3e98 00be 9923 373b
00000120: 3a6d dfbd 5d6d 42be e824 e3bd c30f d2bc
00000130: 5556 b03d 5305 0ebc 2ab7 35be 3cf5 c43b
00000140: 532a e5bd ac77 72bd 7711 05be 1746 45bd
00000150: 455b 59bd b6ba 66bc 054d 00be 0d85 aebd
00000160: 54e7 243d 224f f6bd 5e7a 0fbe a12d 1abe
00000170: 4e4e 0d3d 1f63 a53c 396a 20be d744 99bd
00000180: 386a 45bd fc14 ddbd cbd0 2cbe 0115 01bd
00000190: 1d2c febd 5843 4fbe 1025 6dbe 6e74 343d
000001a0: 09c5 83bd 6b00 62be 1461 f0bd 0971 55be
000001b0: f4cd ccbd 99cc 06be 81b5 163c 6d96 22be
000001c0: ca78 0ebe 3245 123b bac2 88bd a4ea abbd
000001d0: a339 5ebe df26 c23c 091a 063c e69f 47bd
000001e0: 1212 9fbd 6598 3dbe 3599 97bd e131 bc3c
000001f0: ac2b d7bc 3b95 bbbd 4b7f c43b 231c ddbc
00000200: f5d7 50bd b195 003e f467 a0bd e72a 853c
00000210: 432d 173d c420 5f3c 4026 b73d f0dc f63d
00000220: 6d7c 483d 0405 da3a 42cb b73b 6ec0 64bd
00000230: ef52 81bd 810b 263c 1d53 39bb e5d8 2abd
00000240: 4478 053c 74ad b3bd 4960 2f3e 7775 e4bd
00000250: ab6a d03d 6d0c 91bd 4cff 18bb a89e c1bd
00000260: d8bd febc 2eba 003d 8b90 0cbd c0ea 2d3d
00000270: 436d 113c 2f6a bf3d fbb5 40bd 46f0 ad3d
00000280: 4405 b03c 9b05 883d a72c 303a e4ab 223c
00000290: 1ab7 443b 7f14 b73d d061 e63c 074b d2bd
000002a0: f700 9f3c a154 f23c e9f8 0abe f32b 833d
000002b0: dc28 ef3d a97f b5bb a636 d8bd cb8c b8bd
000002c0: 9fc5 79bd 3ae0 dd3c d0ee bcbd 61d7 97bd
000002d0: 06c1 9dbc a7aa cd3c 3e08 813d a41d fdbd
000002e0: 918f 91bd b3de d03d 1042 0b3d f1e7 9bbc
000002f0: 65e6 90bd b775 35bd 4227 4abd b39b 8d3d
00000300: da63 ae3b 5350 46bd f795 a6bd 56ff 453d
00000310: 2eda b8bd b07f 2f3d b68f 923d f1c3 223d
00000320: dd63 45bc bb6d d03d f808 ee3d 752c 043d
00000330: 449e c83d 6e94 933d c8b0 223d 7e56 b3bc
00000340: 68c4 3f3d b869 b0bd 3ac4 503d ad6c 233d
00000350: 75ec 093d d225 7abd a8c4 1c3c 3450 cdbb
00000360: 87c9 4dbd b6eb 443d 1e1a 69bd 435e e73d
00000370: fcd2 a5bd 210c b7bb 527c 123d fc81 cd3c
00000380: a843 ee3d 70af 13be 257c 66bd 63ec d73d
00000390: 5ef1 183d ba49 a73c 9b1a a2bd 83aa e13d
000003a0: a053 7bbd 046c c73d dc9b b23d 40c1 85bd
000003b0: 6c27 843d e8a0 a13d 6319 fb3d 09c1 ae3d
000003c0: 77c9 f53d 5c0b 78bd 5bcc b23c 1fef 683c
000003d0: 86de d3bd a6ef d7bd 9826 96bb aa91 3fbd
000003e0: 2b09 b13d f5d7 d63c a748 923d f161 3f3d
000003f0: 8be4 043e 57b0 043e 5918 88bd c3ed 6d3c
-0.014100712 0.0928848 0.122420214 0.08675452 0.081641525 0.053212244 -0.022014437 0.11171018
0.10797333 -0.02173165 0.14961869 -0.09814589 0.029968506 0.16576307 0.12425175 0.0013467195
0.092493914 0.10389293 0.1655619 0.019224046 0.0842432 -0.019595634 0.16239561 0.12906139
0.14190452 0.009448639 0.045717694 0.05976081 0.050222788 0.08911791 0.15704651 0.050837353
0.08560679 -0.07201045 0.12019716 0.026730059 0.020088347 0.0073578036 -0.040200356 -0.01812572
-0.05028214 0.16481906 0.12383728 -0.06568247 -0.023330716 0.15910512 0.052830003 0.10585472
0.07847893 -0.0038438158 0.19183618 -0.08831027 0.042464174 -0.08016354 -0.046531443 0.09089821
-0.013482757 0.072061874 0.17188373 0.03267022 -0.05661027 0.028390888 0.05105101 0.11187034
-0.04901229 -0.1696893 -0.18090567 -0.1342028 -0.073659524 0.044448208 -0.12558076 0.0027944802
-0.10909505 -0.18987031 -0.11091024 -0.025642281 0.086102165 -0.008668262 -0.17745653 0.0060106795
-0.11189713 -0.05919616 -0.12994944 -0.048162546 -0.053065557 -0.014082601 -0.1252938 -0.08521471
0.040259674 -0.12026812 -0.14011523 -0.15056469 0.034498505 0.020188866 -0.1566552 -0.07483833
-0.048197 -0.10795018 -0.16876523 -0.03151417 -0.12410758 -0.20240533 -0.2315867 0.04405635
-0.06434066 -0.22070472 -0.11737266 -0.208439 -0.1000022 -0.13163985 0.009198547 -0.15877695
-0.13913265 0.0022319076 -0.06677766 -0.083943635 -0.21701674 0.023700176 0.008184918 -0.048736475
-0.077671185 -0.18515165 -0.07402269 0.022973003 -0.026265942 -0.09159323 0.00599662 -0.026990956
-0.050987203 0.12557103 -0.078323275 0.016255809 0.0369084 0.013618652 0.089428425 0.12053859
0.048946787 0.0016633575 0.005608947 -0.055847578 -0.063146465 0.010134579 -0.00282783 -0.041710753
0.008146349 -0.08773318 0.17126574 -0.11155217 0.10176595 -0.07082448 -0.0023345528 -0.094540894
-0.031096384 0.031427555 -0.034317534 0.042460203 0.008876148 0.09346425 -0.04704855 0.08493094
0.021486886 0.06641694 0.0006720521 0.009928677 0.0030016364 0.08939456 0.028122813 -0.102682166
0.01940964 0.02958137 -0.13571514 0.06404867 0.11677715 -0.0055389 -0.10557298 -0.09011229
-0.06097948 0.027084459 -0.09225237 -0.07414127 -0.01925708 0.025105787 0.063004 -0.12359169
-0.07107461 0.101987265 0.03399855 -0.019031497 -0.07075194 -0.044301715 -0.049353845 0.06914463
0.005321962 -0.048416447 -0.08134072 0.04833921 -0.090259895 0.04284638 0.07156317 0.039737646
-0.012047735 0.101771794 0.116228044 0.03226896 0.09795812 0.07206045 0.039719373 -0.021891829
0.046818167 -0.08613914 0.050968386 0.039898563 0.03367277 -0.061071225 0.009568371 -0.0062656645
-0.05024102 0.048076354 -0.056909673 0.11297276 -0.08096883 -0.0055861627 0.035763092 0.025086395
0.11633998 -0.14422393 -0.056270737 0.10543134 0.03733956 0.020420898 -0.07915231 0.11018851
-0.061359048 0.09737399 0.08721134 -0.06531 0.064528316 0.078920186 0.122607015 0.08532912
0.12001317 -0.06055771 0.02182596 0.014217167 -0.10345177 -0.10543756 -0.0045822375 -0.046769775
0.08644327 0.026226023 0.071427636 0.046724264 0.12977807 0.12957893 -0.06645269 0.014522019

bias_hh_l0 f4 [256]
00000000: 3abe 8b3c f109 253e 74d4 f8bb 3270 90bc
00000010: 5397 77bd ed60 3fbd 4647 143e ffc4 c83b
00000020: ae26 a33c 4503 503d d72b 9dbc e9f6 373d
00000030: aa8c 80bd 12ad 213e b4f8 4ebd 4a3a cebc
00000040: e8de 823c 5e47 bf3d 6a3b 2f3e 9aa5 e83d
00000050: 77a4 b43d 7a5f b9bd eaee d43d bbea 4dbd
00000060: 0f39 53bd f838 6b3d 8f54 0c3e 8df1 cdba
00000070: f42e 9f3d ecd8 b83c 6992 eb3d 8f71 f93c
00000080: 59af 053e 3de6 ce3d d36d dd3c 5373 4dbd
00000090: 4017 c1bd f922 3dbd 5314 92bd db70 ac3d
000000a0: 097e 083d c14f b03d f8ad 153e abac 283d
000000b0: 0ffe 30bd c793 113e 3f21 fb3d 8097 223e
000000c0: 3408 f53d cb8e 47bd f1e7 d4bc 4ea0 b23d
000000d0: de0f a6bc d7fd 2a3d 69cc 0e3d 6760 003e
000000e0: b965 d13d dcf1 b2bd 6138 7a3c 2907 203e
000000f0: 8ae6 1a3c 4365 bc3d e939 b0bc c941 ec3c
00000100: 19f4 e9bc 10a9 2bbe 8706 23be 455e 8bbd
00000110: d16b 2ebd 6719 f7bd 5570 eb3c bb97 183d
00000120: d146 19be a6ad 31be 9707 e3bd 3b34 7d3d
00000130: 2216 143b 9bfb 063c 057f 0abd 265e 743d
00000140: 5acd 10bd 1ea0 083d a248 05be cb28 5bbc
00000150: 68a2 023d 5aab 3bbe 1300 e53b a9e7 a6bd
00000160: 8c9d 3bbe 0151 253d c8de 01bd f7a8 7ebe
00000170: 5a60 9dbd db9d b9bd 7f97 fd3c 5efc 1a3c
00000180: 8d89 8abd 8449 67bd c0e2 4abe 7099 2cbd
00000190: d989 4fbe f203 97bc 3b5e 8bbc b676 ebbd
000001a0: c490 b5bc 218d a4bd 924b 29be 6bba 67bd
000001b0: fbd0 3bbe c13f 11be 5ff2 32be 40d9 873b
000001c0: 3c9c 04be a588 abbd aebd 54bd 5e1e b2bc
000001d0: 354f 04be d1c8 52be a35d 153c e24c 54be
000001e0: ce6f 94bd 9d02 a7bd c200 0dbd 6d8b 88bd
000001f0: d027 36be c844 8bbd 89e1 49be 5cfb e4bd
00000200: 291c 0cbc bcf1 c03d d53f 37bc 048e 0cbe
00000210: 9792 adbd 7c0f 023e df9f 6bbd 3ae3 f0bc
00000220: f826 083d fb11 df3c 5cf3 06bc cc36 d5bd
00000230: 94e2 53bd 5af9 edbd c406 5fbd f16f c7bd
00000240: e072 d1bd 3a18 9cbd 49d1 cc3c 6fe6 603d
00000250: 62e9 943d e8f7 593c 2133 a93b 97cc ef3d
00000260: e580 b3bd 0e75 ed3c 33b4 02bd 3443 55bd
00000270: 5091 57bd d8c7 373d c440 0abe 61df af3d
00000280: 5166 923d c177 dbbd c49b b53b 2b95 933d
00000290: 9bd5 6bbc 0e07 c63b f176 df3c e5bf acbd
000002a0: 6950 a3bc 3070 073d 5dc9 83bd 2bff c23d
000002b0: 273d e3bc 9e9a 63bd 5fb1 083e 2770 63bc
000002c0: ee42 a23d c81f 0ebd 3645 6f3d f470 f2bc
000002d0: eb9b e23c 007e eb3d cdfb 5ebd aba7 dc3d
000002e0: fdc7 9dbc 69d7 8abd 271b 08bd c81a ddbd
000002f0: a2bb ab3c dfdf 023d 6be4 92bd 276f 09bd
00000300: a491 89bb d65e 76bd 6fda f3bd de2a 083d
00000310: 5a56 10bc 4dc2 abbd 5953 b7bd ae93 3d3c
00000320: 95ae 53bd 837e 473d 0c9b d13d 0c76 ecbd
00000330: 3314 03be b561 e03d c74f 9a3c c827 d5bd
00000340: 4f05 5abd b950 96bd 0e52 04bd d2c0 023e
00000350: b530 bc3d ab1f 74bd 1363 e23d a843 2a3d
00000360: c19c 323d 8c36 6c3d 4c2d a2bd 4070 083d
00000370: fd7e 2fbd 7f7b 643c 075d 163d d7df a0bd
00000380: 2917 a3bc 9ab0 2ebd ca11 84bd 41a5 7e3c
00000390: 9990 903d 8066 043e 9b40 d1bd 5ff4 aa3d
000003a0: 2730 a5bd dfe7 adbd 0ed6 28bd 94a7 853d
000003b0: e8f6 c4bd e678 26bd 99da 9bbd 0fe8 22bd
000003c0: 041e c0bd 3dc4 3fbd 14d6 b53d 79e3 a3bd
000003d0: efdf f83d fbf6 c2bd 2820 013e 9025 0ebd
000003e0: 8ff8 b8ba 9ea5 ae3d 6353 923c db2b 9fbd
000003f0: 9273 d8bc d48b b4bd 67f7 b0bc cc8a bd3b
0.01705848 0.16117074 -0.0075936858 -0.017631624 -0.06044705 -0.046723295 0.14480314 0.0061269994
0.019915905 0.050784368 -0.019185944 0.044913206 -0.062768295 0.15788677 -0.05053015 -0.025174279
0.01597543 0.09339784 0.17112508 0.11359711 0.08820432 -0.09051414 0.10397132 -0.050272685
-0.051568087 0.057427377 0.13704132 -0.0015712247 0.077726275 0.022564374 0.11502535 0.030449657
0.13055171 0.10102508 0.027029907 -0.05015881 -0.09428263 -0.04617593 -0.07132783 0.08419963
0.03332332 0.08608962 0.14617145 0.041180294 -0.04321104 0.14216529 0.122622006 0.15878105
0.11964455 -0.048720162 -0.025989505 0.08721982 -0.020271238 0.041745987 0.03486291 0.12536775
0.1022448 -0.08737537 0.015272231 0.15627731 0.009454379 0.09199002 -0.021511989 0.028839963
-0.028558778 -0.16763711 -0.15920459 -0.0680509 -0.04258329 -0.12065392 0.028740088 0.037254076
-0.1496842 -0.17351398 -0.11085432 0.06181739 0.00225962 0.008238698 -0.03381254 0.0596601
-0.03535209 0.033355825 -0.13015988 -0.013376425 0.031893164 -0.18327084 0.0069885342 -0.081496544
-0.18321818 0.040360454 -0.0317066 -0.24869142 -0.07684393 -0.09063312 0.030956028 0.009459583
-0.06764517 -0.056466594 -0.19813061 -0.042138517 -0.20267428 -0.018434498 -0.017012706 -0.11497252
-0.022163756 -0.08034731 -0.16532734 -0.056574266 -0.18341438 -0.14184476 -0.1747527 0.0041457713
-0.12950224 -0.08375672 -0.051938705 -0.021742996 -0.1292084 -0.20584418 0.009116563 -0.20732453
-0.072478876 -0.08154795 -0.03442455 -0.06667218 -0.17788625 -0.06800228 -0.19714941 -0.111807555
-0.008551636 0.09421107 -0.011184652 -0.1372605 -0.084752254 0.1270122 -0.05752551 -0.029405225
0.03324029 0.027230253 -0.008236732 -0.10410842 -0.051729754 -0.11619826 -0.05444981 -0.09738148
-0.10226989 -0.07621808 0.025002139 0.05490726 0.07271077 0.013303734 0.0051635657 0.11708944
-0.08764819 0.02898648 -0.031910133 -0.052066043 -0.052628815 0.04486832 -0.13501269 0.08587528
0.071484216 -0.107162006 0.0055422504 0.07206186 -0.014394189 0.0060433215 0.027278395 -0.084350385
-0.019935803 0.033065975 -0.064348914 0.09521326 -0.02773912 -0.055567376 0.13348912 -0.01388172
0.07922922 -0.034698278 0.058415614 -0.029594876 0.027662238 0.11498642 -0.054439355 0.107741676
-0.0192604 -0.067793675 -0.03322902 -0.10796124 0.020963494 0.03195178 -0.071724735 -0.03355327
-0.00419827 -0.060149036 -0.11906897 0.033244006 -0.00880965 -0.08386669 -0.08951444 0.011570854
-0.051680166 0.048704635 0.10234651 -0.11545953 -0.12800674 0.10956136 0.018836869 -0.10407978
-0.05322772 -0.073396154 -0.032304816 0.12768868 0.09188978 -0.059600513 0.11054053 0.04156843
0.043606523 0.057669207 -0.07918796 0.033310175 -0.042845715 0.013945459 0.03670981 -0.07855194
-0.019908505 -0.04264889 -0.064487055 0.015542329 0.0705883 0.12929726 -0.10217401 0.08347391
-0.08065825 -0.084914915 -0.041219763 0.065261036 -0.09617406 -0.04064264 -0.076100536 -0.03977209
-0.09380725 -0.046818007 0.08878723 -0.08002371 0.12152087 -0.09519764 0.12609923 -0.03470379
-0.0014112162 0.08527683 0.017862028 -0.07772037 -0.026422296 -0.088157326 -0.021602346 0.005784368

weight_ih_l1 f4 [256, 64]
00000000: 81b6 113e b6f2 bbbc 8d89 343c e7ce b3bd
00000010: de61 a8bd ae99 80bd 27ad 59bd 7e33 d73c
00000020: 9fd3 13be ca71 883d c20d 783d dba5 afbd
00000030: 74be 09bd 454e 4cbc e9f3 813b 04fd ba3d
00000040: 1fa8 573d 7697 cdbd fc4f c1bd c522 58bd
00000050: 56fd 873d 89f9 923c 2cca 3abd 562e a13d
00000060: f743 013d 3044 983b cffd 693d 32a6 b53c
00000070: 00f2 5ebc fc54 51bc ca5a 99bc 56c8 e7bd
00000080: c42e 2abd 5f6f 253e e67c 173e 7d2e e43c
00000090: 5ae4 cabc 054d 07bd 866a 843d 5d08 01bc
000000a0: 9a14 79bc 24d1 5fbd 1cdd 853d eaef e9bd
000000b0: 1cdd 7bbc e5c1 013d 13a3 92bd 6f13 503d
000000c0: 7d4f 223e 64b3 34bb 1b0d 65bd de53 d13c
000000d0: b3e4 af3d 633e 8f3d 6fc3 46bd 066a dabd
000000e0: 3886 94bc a87f 8a3c 26a2 d7bd 461d 69bd
000000f0: a2bc 84bd 9d03 ae3d 74f7 11be 5b6a 443e
00000100: 5abf fe3d 371b 5ebd 479c f6bd 27d9 b33d
00000110: 2a00 963d 27ca 973d a9e9 a0bd 2536 b03d
00000120: 0b51 583c 10c0 e8ba 0dcd 94bb 0bf7 893d
00000130: d47a c7bd 33c5 8fbd 9866 0b3e 8a1c ffbd
00000140: 66a4 83bd 39f8 103d 615e adbd 9643 063d
00000150: 5d79 d1bd 5cf8 e6bd ad23 0c3d a418 653c
00000160: 139e 6e3d 9018 87bd 81e8 073d 4065 293d
00000170: f0af e3bc 3998 a33c baa4 7e3d 1596 debd
00000180: ece2 0fbe e084 db3b a51b 63bc e110 193c
00000190: 4fa0 633d 2e4c 843d 9221 b8bd c872 da3d
000001a0: 900e 2b3c 07bb 3a3e bd25 b2bd 2ac5 6e3d
000001b0: dade 75bc 7ccd 1d3d b952 a43d 8197 0b3d
000001c0: 3412 87bd 6680 d6bd 16ce fe3d 282e c63c
000001d0: 05fa f63d 0292 0a3e c63b 11bd ed13 aebd
000001e0: 6a69 f0bd 20c0 b13d 867a 41bd d81c cebd
000001f0: 3de0 353d c260 353d 1bd8 583c 0473 b93d
00000200: a151 0abd c860 efbb 98b8 50bc f6d6 19be
00000210: 77d8 89bd fade 443c d82e cd3d e56f be3c
00000220: 560b 17be fd58 7e3d 2491 b43d 121d cd3d
00000230: 63e5 b1bd 9ffb 1a3d af68 003e 9ffd bf3d
00000240: 4480 bcbd a13f ffbd 0729 003e 1964 073d
00000250: ff3a 7b3d 7b44 b5bc 158d 0e3d 79b7 ddbd
00000260: 78b3 fd3d d6d9 bd3c 95fa c6bd aa9d 76bc
00000270: 51e5 963d 1e76 923d 9985 143e c9b8 813d
00000280: d49d 7ebc 188c edbc 3e82 013e 7cce 713d
00000290: 2acd 9f3d 01fe c1bd c30a 9e3d caf5 57bc
000002a0: 1428 873d 97cf 273c f971 5e3d bee4 5cbd
000002b0: dfe6 07be 451d d73d b88a dabd 212d 573d
000002c0: d9e4 5e3d 4586 40bd 6f3e 983d a1ea 0fbe
000002d0: 4477 123e 4b3a b9bd 18e3 29bd c441 a33d
000002e0: 8cfc 6cbd 57f7 a33d bebe f53b 6605 bf3d
000002f0: cafe b0bd 3e42 d0bd 6668 acbb 33a0 a93a
00000300: b8da 9139 5944 61bd 73dc a6bd 2165 dd3d
00000310: 3e4c c9bd 3de8 4fbd 5e33 31bc 2403 3dbd
00000320: de28 d7bd 2555 fd3c a0c0 b0bd e337 a3bd
00000330: 13b8 f33d 3c41 adbd 7825 3bbd a183 64bd
00000340: 90a3 4f3d f995 68bc 753d 80bd b0d8 123d
00000350: ac9d 8d3d 449d c83d 3dca 5ebd 3469 c4bd
00000360: 180f ca3d efcd 803d 934c 53bd 82a0 f23d
00000370: bf88 0c3e 03ba abbc 667d 3d3d 8eb5 93bc
00000380: c924 dd3d 2c91 0cbd e5f9 3f3d 0bb4 813d
00000390: 0795 e4bc 01a6 ab3c f81a 833c 40b8 5abb
000003a0: a218 b43c 5374 f93d 0174 bdbd 342e 60bc
000003b0: 0225 d7bd 3983 183e 0e8c cebd d9c1 c33d
000003c0: 8cd7 023e 463f b7bb 1593 4dbd 85aa 04bd
000003d0: 5e7f 223d b139 65bd 7016 c43d 5276 b4bc
000003e0: d9a7 9d3b ecf4 a03d 85a8 acbd 7629 723d
000003f0: cf96 a13b 6287 f13c fde3 883d f220 323d
0.14229776 -0.022942882 0.011019123 -0.08779698 -0.08221792 -0.06279312 -0.053143647 0.02626967
-0.14436196 0.066623285 0.060559995 -0.08576556 -0.033628896 -0.012469833 0.003965844 0.0913029
0.052650567 -0.100386545 -0.09439084 -0.052767534 0.06640117 0.017941253 -0.045602962 0.07870166
0.031558957 0.0046468005 0.057126816 0.022173975 -0.013607502 -0.0127766095 -0.01872005 -0.11317508
-0.041548505 0.16155766 0.14793739 0.027854199 -0.02476709 -0.033032436 0.0646563 -0.007875529
-0.015202666 -0.05464281 0.06536314 -0.11422713 -0.015372541 0.031679053 -0.0716001 0.050799783
0.15850635 -0.0027572745 -0.0559207 0.025552686 0.08588543 0.06994321 -0.048526224 -0.106647536
-0.018130407 0.016906574 -0.10528974 -0.056912683 -0.06481291 0.08496783 -0.14254552 0.19181196
0.12438841 -0.054225173 -0.12041526 0.08781653 0.0732425 0.074116044 -0.07857067 0.08604077
0.013202916 -0.0017757434 -0.0045410455 0.06736573 -0.097402245 -0.07020035 0.13613355 -0.12456615
-0.06427841 0.035392974 -0.08465267 0.0327793 -0.10228226 -0.112778395 0.03421371 0.013982926
0.05825622 -0.06596482 0.033180717 0.041356325 -0.027793854 0.019970046 0.062168814 -0.108684696
-0.14051408 0.0066991895 -0.013861571 0.009342403 0.055572804 0.064598426 -0.08990778 0.10666424
0.010440484 0.18235408 -0.08698604 0.0582935 -0.015006745 0.038526043 0.080235906 0.034080032
-0.06595269 -0.10473709 0.124416515 0.02419193 0.12059406 0.1353226 -0.035457395 -0.08499894
-0.11738856 0.08679223 -0.047235988 -0.10064095 0.044403303 0.04428173 0.013235117 0.090551406
-0.033769254 -0.0073052384 -0.012739323 -0.15023407 -0.067307405 0.012016052 0.100187 0.023246715
-0.14750418 0.062096585 0.08816746 0.1001531 -0.0868633 0.03783762 0.12539934 0.09374546
-0.09204152 -0.12463308 0.1251565 0.033054445 0.06133556 -0.02212738 0.034802515 -0.1082601
0.123877466 0.023175161 -0.097157635 -0.0150522385 0.073679574 0.07151435 0.14504088 0.06334073
-0.015540559 -0.028997466 0.1264734 0.05903481 0.07802804 -0.094722755 0.077168964 -0.013181159
0.06599441 0.010242364 0.05430791 -0.053929083 -0.13271664 0.105036296 -0.1067099 0.052533273
0.054417465 -0.04700305 0.07433783 -0.14054348 0.14303309 -0.090443216 -0.04147634 0.07971528
-0.057858035 0.08006161 0.007499545 0.093272015 -0.08642347 -0.10168885 -0.0052614687 0.001294142
0.00027819513 -0.054996822 -0.08147516 0.108103044 -0.09828995 -0.05075859 -0.01081547 -0.046145573
-0.10505842 0.03092439 -0.0863049 -0.07969644 0.11900344 -0.08459708 -0.04569003 -0.055789594
0.050693095 -0.0141959125 -0.06261722 0.03585118 0.06914839 0.09795621 -0.05439209 -0.095903784
0.0986616 0.06289279 -0.0515867 0.11847021 0.1372404 -0.02096272 0.046262167 -0.018030908
0.10798032 -0.034318134 0.046869177 0.063331686 -0.027903093 0.02095318 0.01600407 -0.0033373982
0.021984402 0.1218039 -0.092506416 -0.013682891 -0.105051056 0.14893807 -0.10085307 0.09558458
0.12777537 -0.0055922596 -0.050189096 -0.032389183 0.039672248 -0.055963222 0.09574592 -0.022029076
0.0048112688 0.07859215 -0.0843058 0.05912157 0.004931308 0.0294835 0.0668411 0.04348845

weight_hh_l1 f4 [256, 64]
00000000: 1c47 9e3d 5152 b0bc 3c47 f8bd 8333 02bd
00000010: b412 8d3d 3bbe 6e3d b840 afbb af6b 19bd
00000020: 5c01 5b3c 31a3 14be 5d77 14be 163a 8fbd
00000030: fc70 363d 3b04 05bd 8923 bd3b 7061 cfbd
00000040: f31c 713d 323c 58bd 0837 c43c 969f a83d
00000050: 080c 22bd e521 a53d c930 043e b505 a6bd
00000060: 511e 2bbd 211a 63bd 6ac3 8fbc 1b58 533d
00000070: 361a 463c 65c3 cf3d 7b34 d2bc dbef 033e
00000080: e407 9abc 0495 b73d 057e e33d d901 ee3c
00000090: 2cea 20bd d82c bcbd dc9b 8c3d d13e 4a3d
000000a0: ecff 323b 0be0 c3bd 7a82 913c dafb 63bd
000000b0: c7f5 873d 7d44 91bd 64b4 f1ba 0cb8 ebbb
000000c0: ded8 0dbd d730 a8bc 8bf9 8a3d 31ee 7b3c
000000d0: ea02 a5bd 70f4 343c 1241 943d 6d36 84bd
000000e0: ae13 003e 07a0 25bd fd40 fdbd a742 be3d
000000f0: f040 3ebd b53e 08bd bcad b5bd 32fd 353d
00000100: 7c32 cb3d 71fd 463d 51f9 09be 7eae 543d
00000110: 4dd0 c2bc 622a 983d b25f 943d 8cb9 aa3c
00000120: 91e4 1ebd 70bc 143d b303 29bd 1672 593c
00000130: 94ac 343d e716 bfbc 4f4f debd fe2f c83d
00000140: d371 c3bc f2ba 09be 81a6 debc fe4b 013e
00000150: ebbe c9bd dce7 b6bd e0fb 1cbe 4c66 763d
00000160: e434 123d b6f6 8dbd 5bdb bebd 1e77 3a3d
00000170: 645b 2f3d 96c7 43bd d6af 89bd 2ab4 16be
00000180: 58fb 05bd 0883 bf3d ec3b 85ba 357c 3fbd
00000190: 4778 f43d 7d66 d8bc 87c8 01bd 4a19 fcbd
000001a0: 3ead 68bd 1b55 6e3c df74 3bbd b84e 72bd
000001b0: 91b8 d03d d483 bc3d e6e8 f73d 0749 633d
000001c0: e850 debd fd0c 04be f552 d23d e183 a4bd
000001d0: 2420 cb3d a43a 043e 2306 633d adb5 983d
000001e0: dab8 133e 0224 803b 534c 3a3c d037 a8bc
000001f0: 0743 373d dbe4 ec3d cc3e 5d3d 10cd 9b3b
00000200: 4eb4 1a3d 2742 aabc ea3b 4fbb 637d 68bd
00000210: d839 1a3d c3ba 70bd 7986 eeba 436f 61ba
00000220: 22ae 46bd 4731 eb3c d824 a3bd bc3b 05bd
00000230: 39a5 e1bd 354f 503d 5e47 c9bd 6c01 4f3d
00000240: fd28 c6bd 2c3e 903d 1fb3 8e3d 4bec 48bd
00000250: 801c b8bb 3db9 91bc 0edb a0bd b983 44bd
00000260: bb4b 99bd ac1d 8fbc 185f b53d 3921 cebd
00000270: fb82 cebd f138 3c3d de54 91bd 43b0 bcbd
00000280: 1a05 fbbc 4975 413d 1598 9f3d a098 b7bd
00000290: f48b 9fbd 1fed 5bbd 1a76 993d 0649 d53d
000002a0: ec51 163c 3e3b 1fbe 7b46 f7bd 14cd a23d
000002b0: d2fd c5b7 2dbd 94bd 5d84 5bbd 1f44 343d
000002c0: edbf 35be 829b 10bd 8d3b 963d f02f efbd
000002d0: eb23 d03c 3bbb b8bd f856 b63b a401 d03c
000002e0: 7944 04bc 9e1d cfbd 94b2 b43d 2b42 d9bc
000002f0: d3ce 81bb 9976 21be bec6 c53d 7774 463d
00000300: 821e 6ebd de97 783d 251a e0bd b665 2d3b
00000310: 9e25 193e 783b 233e 54e9 70bd f948 d7bd
00000320: 9071 473d 0033 3a3b 8ada c0bd 5442 dabd
00000330: dac9 40bd 7a18 64bb 84d4 353d 0edf 40bd
00000340: 9929 68bd 2dfc abbd b5aa 933b 96a3 0cbd
00000350: 8015 463d 0d1e 22be 9690 46bc 25aa 00bd
00000360: 7e2d d93d bc1d ad39 7276 e8bc 12d4 08be
00000370: 43df a73d 6e72 afbd 2b3a 2ebd 5086 c1bd
00000380: 2a94 36be 15b2 bcbd a783 e33d 2da3 3dbd
00000390: db4c 2fbe cf5d 62bd 59c1 15bd dc2b 2abe
000003a0: 245c 49bd 591f 4bbd 93b0 0ebe 98ac b23c
000003b0: 9099 753d b87c 3a3c 7191 66bd a59b bbbd
000003c0: 6583 a13d e0ef 12bb 9dde 3e3d 0a35 c93d
000003d0: 114e a739 be1d 78bd c996 d5bd 7247 83bd
000003e0: 0c8b b6bd 43fb ff3c 2e63 a93d 5e04 8cbd
000003f0: 450e 13bd 0afb 29be 6dbf 30bd 7b91 0d3c
0.07728407 -0.021523627 -0.12122962 -0.031787407 0.06888333 0.058286887 -0.0053482912 -0.03745621
0.013367023 -0.14515378 -0.14498658 -0.06993501 0.044541344 -0.032474738 0.0057720584 -0.101260066
0.0588655 -0.05279178 0.023952022 0.082335636 -0.039562255 0.080631055 0.12909235 -0.08106557
-0.04177696 -0.05544484 -0.017549235 0.051597696 0.01209121 0.101446904 -0.02565979 0.12884466
-0.01880259 0.08963969 0.11108021 0.029053615 -0.039285824 -0.09188241 0.06865665 0.049376313
0.0027313186 -0.09564217 0.017762411 -0.055660106 0.06638675 -0.07093141 -0.0018440601 -0.007193571
-0.03463065 -0.020531101 0.06785878 0.0153766135 -0.080571964 0.011044607 0.07238974 -0.064556934
0.12507507 -0.040435817 -0.12365911 0.09290057 -0.046448648 -0.033262927 -0.08871028 0.04443092
0.099217385 0.048581544 -0.13474013 0.05192422 -0.023780966 0.07429959 0.07244815 0.020840429
-0.038792197 0.03631252 -0.041263293 0.013271829 0.044109896 -0.02332635 -0.10854971 0.09774779
-0.023857987 -0.1345022 -0.027179005 0.12626645 -0.09850868 -0.089309424 -0.15330458 0.06015615
0.03569497 -0.06931822 -0.093191825 0.045523755 0.042811766 -0.04779776 -0.06722991 -0.14717165
-0.032710403 0.09351164 -0.0010164953 -0.046749312 0.119370036 -0.026416058 -0.03168538 -0.12309511
-0.05680584 0.014546658 -0.045765754 -0.059157103 0.10191453 0.09204832 0.12104969 0.055489566
-0.108552754 -0.1289558 0.10269729 -0.080329664 0.0991824 0.12912995 0.055425774 0.07456527
0.14425984 0.0039105425 0.011370736 -0.020534426 0.044741657 0.11567088 0.054014966 0.00475467
0.03776961 -0.020783497 -0.0031621405 -0.056760203 0.03765282 -0.05877186 -0.0018198035 -0.0008599648
-0.04850591 0.02871002 -0.07966012 -0.03252767 -0.11017842 0.050856788 -0.09828065 0.050538465
-0.09675787 0.07043108 0.069677584 -0.04905347 -0.005618632 -0.017788524 -0.07854281 -0.047977183
-0.074851476 -0.017470203 0.08856028 -0.100649305 -0.10083576 0.04595274 -0.07096265 -0.09213307
-0.030642081 0.047230992 0.07792679 -0.08964658 -0.07790366 -0.053692933 0.07493229 0.10414319
0.009174805 -0.15549943 -0.1207399 0.07949272 -2.3602424e-05 -0.07262645 -0.05359303 0.044010278
-0.17748995 -0.035304554 0.07335577 -0.11679065 0.025407752 -0.090200864 0.0055645667 0.025391407
-0.008072966 -0.10113071 0.088231236 -0.02652081 -0.003961423 -0.15767898 0.09657048 0.048450913
-0.058134563 0.060691707 -0.10942487 0.002645833 0.14955756 0.15940654 -0.05881627 -0.10511965
0.048692286 0.0028411746 -0.09416683 -0.10657182 -0.0470675 -0.0034804628 0.044392124 -0.04708772
-0.056680296 -0.08397708 0.004506434 -0.034335695 0.048360348 -0.15831776 -0.012119433 -0.031412262
0.1060438 0.00033019285 -0.028376792 -0.13362148 0.08196881 -0.085667476 -0.042535942 -0.09449446
-0.17829958 -0.09213654 0.11109095 -0.046298195 -0.17119162 -0.055265244 -0.036561344 -0.16618294
-0.049160138 -0.049590442 -0.13934545 0.021810815 0.0599609 0.011382274 -0.056291047 -0.09160546
0.0788639 -0.0022420809 0.04659902 0.098245695 0.00031910886 -0.06057524 -0.104291506 -0.064101115
-0.0891324 0.03124774 0.0827087 -0.068367705 -0.03590228 -0.1659967 -0.043151308 0.008640642
